data/Torch/Dueling/003_Big-CNN_E_L/weights_final.pth (torch, 505343 bytes, 17 tensors)

conv_layers.0.weight f4 [64, 1, 3, 3]
000000 ec e1 52 40 b7 26 2c 40 0f 98 96 40 37 3d ec 3f
       3.2950392 2.689863 4.706062 1.8456181
000010 f0 e5 1f 40 e6 a4 77 40 8a c0 17 c0 58 c6 88 bf
       2.4984093 3.8694396 -2.3711267 -1.068553
000020 2a d2 e3 40 6d 8e 85 c0 31 90 64 3f 4f 2e 43 3f
       7.119405 -4.173636 0.8928252 0.76242536
000030 04 5e 95 bd fc fe 90 bd 90 ce 1e 40 d0 e6 5a 3f
       -0.07293323 -0.070798844 2.4813576 0.8550844
000040 fe 71 12 40 51 6c 2d bf 40 9c 96 3f c5 48 8c 40
       2.2882075 -0.677434 1.1766434 4.383883
000050 54 1c 5f 40 c9 73 8c 3f c1 d6 b0 be 48 16 ba 40
       3.486104 1.0972835 -0.34538844 5.81522
000060 87 ea 92 c0 f6 a9 4e c0 d4 44 c5 3f 98 d8 0b bf
       -4.591129 -3.2291236 1.541163 -0.5462737
000070 3d 71 c9 3f 36 9c 5c c0 13 58 23 40 a8 36 05 40
       1.5737683 -3.4470344 2.5522506 2.081461
000080 fd 24 3d 40 be a8 42 40 39 5a 9c 40 7e 5b ce 40
       2.9553826 3.0415492 4.8860135 6.4486685
000090 67 f5 dd 3f 29 53 ea 3f e6 05 40 c0 3e f0 8e 3f
       1.7340516 1.8306628 -3.00036 1.1167066
0000a0 89 46 84 40 e3 e7 f6 bf 69 09 62 40 aa 8b b0 40
       4.1336102 -1.9289516 3.5318244 5.517049
0000b0 dd f4 e5 40 88 39 36 3f 09 c2 76 40 77 a2 99 40
       7.1861405 0.71181536 3.855593 4.801082
0000c0 c9 79 00 40 a8 63 ae 3f 32 80 80 bf 86 94 8f be
       2.0074332 1.3624163 -1.0039122 -0.28043002
0000d0 d4 6f 14 c0 f2 bd c4 40 12 50 f2 3f 7c c2 90 bf
       -2.3193254 6.1481867 1.8930686 -1.1309352
0000e0 b7 c2 9c 3f 90 0e 3d 3e 79 94 00 40 e5 ef 5e c0
       1.2246922 0.18462586 2.009062 -3.483392
0000f0 fd a7 0a be 4d 9b 3c c0 0f e8 c8 40 57 7f 45 bd
       -0.13540645 -2.9469788 6.2783275 -0.048217144
000100 fd 4b a4 3f 97 74 47 c0 83 59 49 40 68 b7 62 40
       1.283569 -3.116491 3.1460884 3.5424442
000110 c3 79 36 3e dc 4e 28 3f 72 67 d1 40 70 71 c6 40
       0.17819886 0.6574533 6.5438776 6.2013474
000120 99 a1 a2 40 ea 6d 6a 40 47 3d 80 c0 f2 a8 b2 3f
       5.0822263 3.6629586 -4.00748 1.3957808
000130 6b e2 8e 3f fa 69 a1 40 d5 60 49 40 98 bb 8d 40
       1.1162847 5.0441866 3.1465352 4.4291496
000140 5c 93 45 c0 15 24 8a be d2 06 14 40 11 5c 1c 40
       -3.087119 -0.26980653 2.3129163 2.4431193
000150 da 8b 97 3f 92 03 c2 3f b1 ad 30 40 09 17 22 c0
       1.1839554 1.515734 2.7606013 -2.532656
000160 e4 5e ac bf db 99 d8 40 48 b8 25 40 a5 3f ae bf
       -1.3466458 6.768781 2.5893726 -1.3613173
000170 e3 3b 83 40 1c ef 75 40 20 a5 ad bf ee d3 89 3f
       4.1010604 3.842719 -1.3566017 1.0767801
000180 f8 74 d5 40 73 cd 6c 40 c5 69 9d c0 5a 94 bd c0
       6.6705284 3.7000396 -4.9191613 -5.9243593
000190 e8 b5 36 40 2c fc 8e 40 06 9e e5 bc 5b d6 d3 c0
       2.8548527 4.4682827 -0.028029453 -6.6199164
0001a0 f5 f9 d3 bf ad 97 ae c0 57 87 a9 3f da e4 b2 3f
       -1.6560656 -5.456015 1.3244427 1.397609
0001b0 88 5a b3 c0 da 4e b4 c0 b5 fe a0 40 52 bd a1 3f
       -5.604801 -5.6346254 5.031092 1.2635901
0001c0 e3 cb a6 c0 27 c1 d8 c0 7d 19 18 40 a8 a0 60 3f
       -5.2123885 -6.773578 2.3765557 0.8774514
0001d0 99 e2 7f 40 33 99 e5 3e c1 c0 72 c0 94 13 80 c0
       3.9982054 0.44843444 -3.7930148 -4.00239
0001e0 94 9d 53 3f b3 df cd 3e 32 76 40 40 52 0e 9e 3f
       0.8266232 0.4020973 3.007214 1.234812
0001f0 3c 85 85 c0 af be 49 c0 0b 34 bb bf f3 49 8b 3e
       -4.172514 -3.1522634 -1.4625257 0.27204856
000200 dc 8c 55 40 d7 75 1a bf 5b 19 6d 3f 68 81 49 40
       3.3367224 -0.6033606 0.92616814 3.1485233
000210 53 a6 5d c0 3c 65 e5 3f f0 88 17 40 ab dc 8f c0
       -3.4632766 1.7921519 2.367733 -4.495687
000220 e4 d5 b3 bf 50 1c 6d 3f 24 db 3c 3d a9 1f 99 bd
       -1.4049649 0.92621326 0.046107426 -0.07476742
000230 1a 04 4c 40 c8 d9 1c 3e d3 d7 39 40 a3 a1 69 bf
       3.1877503 0.15317452 2.9037979 -0.91262263
000240 ca 7e 37 3f c3 38 c5 3f 8f f2 82 40 61 88 8f 40
       0.7167784 1.5407947 4.092109 4.485398
000250 3c 95 21 40 fa dc 71 c0 37 49 90 40 91 82 a1 40
       2.5247335 -3.7791123 4.5089374 5.0471883
000260 70 73 38 40 2b 66 13 c0 de 01 44 40 a6 ee 0b c0
       2.8820457 -2.3031108 3.062614 -2.186441
000270 d2 cb 73 40 5e 46 86 40 55 79 f5 3f 7b 67 c4 3f
       3.8093152 4.1960897 1.9177653 1.534408
000280 a9 6e e9 40 f3 7d 81 40 3a 7e 55 3f fd 91 d2 3c
       7.2947583 4.0466247 0.8339573 0.025704378
000290 de 1c 86 40 c8 af f0 3d 66 c1 a2 be 59 e0 73 3f
       4.191024 0.117522776 -0.31788176 0.952642
0002a0 c2 ac a9 3f e2 c2 96 c0 66 61 fa c0 5b 31 9a 3f
       1.3255847 -4.7112894 -7.8243895 1.2046312
0002b0 4a 21 8e 40 f4 dd 9b c0 a6 eb ec 3f be 68 82 bf
       4.4415636 -4.870844 1.8509414 -1.0188215
0002c0 95 be 6d 40 97 7e 77 40 62 ec 91 40 70 ca 7c c0
       3.7147572 3.8671014 4.5601053 -3.9498558
0002d0 04 0b 2c 40 58 ca 2f 40 af 03 9c 40 c5 15 cf be
       2.6881723 2.746725 4.8754497 -0.40446296
0002e0 d2 c6 8a bf 8d 33 3e 40 c9 13 c0 40 3e 52 d0 3f
       -1.0841925 2.9718964 6.002415 1.6275098
0002f0 05 7f 88 c0 45 37 c7 3f a6 60 8d 3e 29 cf 1f 3f
       -4.2655053 1.5563742 0.276128 0.62425476
000300 65 41 80 40 e6 35 50 40 38 ba cc bf 60 04 e0 bf
       4.0079827 3.2532897 -1.599433 -1.7501335
000310 80 9c 89 bf 92 0f af 40 d6 08 c8 3f 09 96 68 40
       -1.0750885 5.4706507 1.5627697 3.6341574
000320 c2 a3 04 c0 cb fe d8 bc 8d 61 ee be 7c 3a b7 40
       -2.072495 -0.026488682 -0.465588 5.725889
000330 24 62 47 3f cf 40 f6 bf a6 d8 36 c0 f4 5b 77 3f
       0.77884126 -1.9238528 -2.8569732 0.96624684
000340 28 1c fc 3f 2c cc 72 c0 47 93 5f 40 06 01 59 40
       1.9696093 -3.7937117 3.493364 3.3906875
000350 4d 62 17 c0 02 69 11 40 85 3c a6 40 b1 4f cb 40
       -2.3653748 2.2720342 5.1948876 6.353478
000360 a6 a9 e6 3f 49 62 7d 3f 25 14 8b 40 e8 85 28 bf
       1.8020523 0.98978096 4.346209 -0.65829325
000370 80 f5 e0 be 2c 02 f5 3f e1 e9 a7 3f 70 87 29 c0
       -0.43937302 1.9141288 1.3118249 -2.6488914
000380 2e 75 a2 c0 87 e6 3f 40 02 9a c6 3f 7e e6 b5 40
       -5.076804 2.9984453 1.551575 5.6843863
000390 27 ca 43 c0 bc 67 54 bd 49 ba 88 be 62 52 13 40
       -3.0592134 -0.05185674 -0.26704624 2.3019032
0003a0 0d 6d 9d bf 4d 5d e5 40 f2 f2 0a 40 67 82 b9 3e
       -1.2298905 7.1676393 2.1710782 0.36232302
0003b0 f1 a1 cd c0 b3 a7 17 bf f0 09 52 c0 97 75 10 40
       -6.426018 -0.59240264 -3.2818565 2.257177
0003c0 8a aa f5 3f e9 e3 4a c0 03 03 56 3f ec 22 54 3f
       1.9192669 -3.1701605 0.83598346 0.82865787
0003d0 ad 64 8b 3f 26 1f ca c0 b6 a9 f7 3f 34 a0 b5 3f
       1.0890099 -6.3163023 1.9348667 1.4189515
0003e0 15 79 50 40 71 b0 8f 40 1e 8b 7a 40 8c 52 3b c0
       3.2573903 4.4902883 3.914741 -2.9269133
0003f0 d3 ab 8f 3f 75 ba 61 be 08 55 d0 be 4d f8 d2 bf
       1.1224312 -0.22043784 -0.40689874 -1.6482025

conv_layers.0.bias f4 [64]
000000 9c 9e c6 3d 2c df 24 40 87 b1 2e 3f 19 b8 83 3f
       0.09698221 2.5761213 0.68239635 1.0290557
000010 db f6 6f 40 02 c9 ac 40 47 6b 48 40 e0 4d 0e 40
       3.7494419 5.399537 3.1315477 2.223503
000020 d3 07 11 40 10 d7 ab 3f f1 60 b1 40 b0 66 d1 40
       2.2661026 1.3425007 5.5430837 6.543785
000030 10 1a b9 40 e7 df 28 40 76 56 eb 3f 6e 85 93 40
       5.7844315 2.638666 1.8385761 4.610038
000040 7a 6f 87 40 ec fc 99 3f 87 c5 b4 3f 31 1a 11 40
       4.232358 1.2030311 1.412278 2.2672236
000050 7f 23 d4 40 14 df a8 3f ca e9 ee 3f 24 95 88 40
       6.629333 1.3193078 1.8665097 4.2682056
000060 11 e7 02 40 c2 ea b5 3f ab bb 24 40 0f 60 51 3f
       2.0453532 1.4212267 2.5739543 0.817872
000070 4d 22 45 40 51 29 63 40 73 f0 0a c0 08 aa c6 40
       3.0802186 3.5493968 -2.1709259 6.208256
000080 e1 62 76 40 cd 99 fb 3f 98 9e b9 3f 4b 56 b0 be
       3.849785 1.9656311 1.4501524 -0.34440836
000090 bd 67 b6 40 2e 7b 8c 40 91 68 ce 40 4b 88 0e 40
       5.7001634 4.3900366 6.4502645 2.2270687
0000a0 74 9c 56 40 2d 88 75 3f 71 19 62 3f ed 7a be 40
       3.3532991 0.9591091 0.8832007 5.9525056
0000b0 09 44 fd 3f 52 b8 2f 40 67 3f 18 3e 99 8b b0 40
       1.9786388 2.745625 0.14867936 5.5170407
0000c0 44 ce 29 3f e4 1d 84 40 13 d2 2a 40 90 dd 49 40
       0.6633036 4.1286488 2.669072 3.154148
0000d0 5c e5 97 3f a6 5a ec 40 17 13 a3 40 3c c0 fd be
       1.186687 7.3860655 5.0960803 -0.49560726
0000e0 0d e3 0e 40 88 00 93 3f c9 a9 70 40 03 35 93 40
       2.232608 1.1484537 3.7603629 4.600221
0000f0 56 ad 16 3f 7c 26 88 3f 14 01 a4 40 d2 80 23 40
       0.5885824 1.0636744 5.1251316 2.5547376

conv_layers.2.weight f4 [64, 64, 2, 2]
000000 8d 4c 39 40 68 5a 77 bf 7d 70 2e 40 40 41 b5 40
       2.8952973 -0.96622324 2.7256157 5.664215
000010 df f3 ee bf ac e9 1f 40 b9 8e cb 3f 16 83 0a bf
       -1.8668174 2.4986372 1.590293 -0.5410627
000020 bc 01 9a c0 b9 70 65 40 b9 bd 9c 40 33 9e 3c c0
       -4.8127117 3.585005 4.8981595 -2.9471557
000030 b1 a8 27 bf 03 0d 87 40 dc 41 7e 40 0c 3e 7b 40
       -0.6549178 4.2203383 3.9727697 3.925662
000040 07 cb 03 40 16 41 96 3f 1d 8f a5 3f 9b 17 d8 40
       2.0592668 1.1738613 1.29343 6.7528815
000050 02 15 78 40 c9 ee 4d c0 80 79 59 3f 0a 34 b5 40
       3.8762822 -3.2176993 0.8495102 5.6626024
000060 a5 6a 89 40 72 e0 45 c0 c9 76 6a 3f 31 42 95 40
       4.294268 -3.091824 0.915875 4.66433
000070 06 20 1d bf be 95 24 40 be 53 59 40 9a bb 9b 40
       -0.6137699 2.5716395 3.3957362 4.8666506
000080 2b 19 be 3f c1 62 7c 40 1f ff 9b 3f c7 98 da bf
       1.4851431 3.9435275 1.2187232 -1.7077874
000090 bb 29 70 3f 2b ba 58 3d c9 5f 34 40 6a 27 ba 40
       0.93813676 0.05291192 2.8183463 5.8173113
0000a0 89 13 80 40 80 9a 0c c0 ff dd ac 3f b4 0f 60 bf
       4.0023847 -2.19693 1.3505248 -0.8752396
0000b0 96 a8 ac c0 17 e1 4a 40 8f 78 a2 3f c4 01 18 be
       -5.3955793 3.1699884 1.2693042 -0.14844424
0000c0 dd 4d 92 be 97 38 a4 c0 5e bf 29 40 e7 ef 7c 40
       -0.2857503 -5.131908 2.6523051 3.9521425
0000d0 97 ab 2e 40 60 cd 18 3f c6 9f 16 40 8b 61 95 c0
       2.729223 0.5968838 2.3535018 -4.668157
0000e0 61 fe 98 c0 a7 41 79 3e fa 3f 9f 40 12 aa 10 40
       -4.781052 0.2434145 4.9765596 2.2603803
0000f0 5e de 01 c0 6e 38 0c 40 e9 4b 29 3f ac 66 5e bf
       -2.0291972 2.1909442 0.66131455 -0.86875415
000100 19 60 77 40 fb 49 45 c0 4c ca 9c 3f 2d f2 93 40
       3.8652403 -3.0826404 1.2249236 4.6233125
000110 55 20 82 bf 9c 0a 4c 40 99 36 2c 40 88 0c 50 40
       -1.0166117 3.1881475 2.6908324 3.2507648
000120 30 54 60 40 9e c2 95 c0 40 b5 78 c0 7a 35 34 3e
       3.5051384 -4.680007 -3.8860626 0.17598525
000130 6e 77 0c bf 0f dc 97 40 41 50 9c 3f f9 5b 0d c0
       -0.54869735 4.7456126 1.2211992 -2.2087386
000140 b6 b8 54 40 12 71 39 3e e9 2a 00 c0 94 c2 40 c0
       3.3237739 0.18109539 -2.002619 -3.011876
000150 3e 53 58 40 f7 d9 41 c0 4b d4 1f 40 7f b7 b8 40
       3.3800807 -3.0289285 2.4973323 5.7723994
000160 3b fe 3a c0 86 43 92 40 6e 47 07 40 1d 5a 9e c0
       -2.921767 4.5707426 2.1137347 -4.9485
000170 ea 97 1e be 4f 8f e0 3f 7f fb 14 40 24 9f c0 40
       -0.15487638 1.7543734 2.32785 6.0194263
000180 1c 67 42 40 05 7f 7f c0 cd b7 80 c0 8b b9 ca be
       3.0375433 -3.9921277 -4.0224366 -0.39594683
000190 24 dc 90 40 51 6a 20 c0 af 72 16 bf 9d 64 a4 40
       4.5268726 -2.506489 -0.58768743 5.137282
0001a0 87 3b 88 bf 49 f8 c5 40 64 a1 ab 40 54 64 95 c0
       -1.0643166 6.1865582 5.363451 -4.668497
0001b0 f3 59 37 c0 10 15 ba 40 f0 3d 18 40 0e d1 f0 bf
       -2.864865 5.815071 2.3787804 -1.8813798
0001c0 e8 36 2b 40 e4 e7 2e bf fa 9c bc 3e 76 e1 e2 40
       2.6752262 -0.68322587 0.36838514 7.090022
0001d0 61 37 93 bf 14 55 98 40 d5 d8 67 3f 96 d3 e5 bf
       -1.1501275 4.7603855 0.90565234 -1.7955196
0001e0 25 cf 81 be 3f 3d 08 c0 33 c7 43 40 f0 22 b3 40
       -0.2535335 -2.1287382 3.0590332 5.598015
0001f0 d9 48 82 c0 e7 01 81 3f 61 c5 5c 40 7a 42 c4 40
       -4.0713925 1.0078706 3.449547 6.133115
000200 34 d8 8f 40 cd e7 d2 bf 20 20 a4 bf 26 dc 37 c0
       4.495142 -1.647699 -1.2822304 -2.8728118
000210 cc 17 44 40 e0 07 8a c0 26 4a 07 40 93 97 d3 40
       3.0639524 -4.3134613 2.1139007 6.6122527
000220 cf 2c 6f 3f 29 40 49 c0 6e 84 fb 3f 13 8a f6 40
       0.9342775 -3.144541 1.9649789 7.704355
000230 93 20 94 bf 35 c8 7c 3f 4a bc d3 3f f1 d6 9a 40
       -1.1572441 0.9874299 1.6541836 4.838738
000240 2a 28 9e 3f eb a8 91 c0 2d eb 81 3f 1b f5 a7 3f
       1.2356007 -4.55187 1.0149895 1.3121675
000250 36 12 2b c0 95 1b 76 3f b8 52 10 40 2c 62 1e 3f
       -2.6729865 0.96135837 2.2550488 0.6186855
000260 28 5e 5c c0 26 95 39 3e cd 99 80 40 58 39 c8 40
       -3.4432468 0.18123302 4.0187745 6.257
000270 7d cf b8 3f 6d 47 34 be 3f 50 b8 3f 28 84 4f c0
       1.443832 -0.17605372 1.4399489 -3.2424412
000280 fe 4f 57 c0 d4 ff 9d 40 41 df 8b 40 73 97 56 c0
       -3.3642573 4.937479 4.3710027 -3.3529937
000290 03 7f 6f 3f 77 e2 fb 3f 52 a3 0d c0 fa de 9a c0
       0.9355318 1.9678487 -2.2130933 -4.839719
0002a0 31 56 7c 40 fd 0a fc bf d0 dd aa bf 5e bd ff bf
       3.9427607 -1.9690853 -1.3348942 -1.9979665
0002b0 7b c1 4e 40 6a d0 e5 bf 25 06 6d bf 6c 0f 9a bf
       3.230559 -1.7954228 -0.925875 -1.2035956
0002c0 e0 59 1d 40 b8 a6 6e c0 c1 24 2c 40 42 e1 ff 3f
       2.4586105 -3.7289257 2.6897433 1.9990618
0002d0 2d 18 10 3e b1 a9 17 c0 ac 0c 48 40 bd 5b 33 40
       0.14071722 -2.3697321 3.1257734 2.8024743
0002e0 4d ab 24 bf 22 8c 96 40 7f 35 61 40 5f 56 25 c0
       -0.64323884 4.704606 3.5188901 -2.5833967
0002f0 ab 69 a3 40 8e a3 f3 bf 3a 54 af bf 88 ff 3e c0
       5.106649 -1.9034288 -1.3697579 -2.9843464
000300 7b 8c f1 bf 31 92 a6 40 b0 c9 10 40 04 a8 dd bf
       -1.8870996 5.2053456 2.26231 -1.7316899
000310 ae 95 69 40 9a 0a f3 bf 78 b1 be 3f f7 4a 09 bf
       3.6497607 -1.898761 1.4897909 -0.5363001
000320 ef 7d e0 be 96 4e 97 40 ab e4 1f 40 a0 5d 98 3f
       -0.4384608 4.728343 2.4983318 1.1903572
000330 01 49 9b 40 46 82 64 c0 b9 52 a1 c0 20 33 52 bf
       4.8526616 -3.5704513 -5.041348 -0.8210926
000340 f9 30 c4 bf 7a 2c 94 3d 9d d0 91 40 21 a8 63 c0
       -1.5327445 0.07235046 4.5567155 -3.5571368
000350 19 31 72 bd 30 7e b9 c0 64 aa 27 40 1e dc 92 40
       -0.059128854 -5.7966537 2.6197748 4.58937
000360 83 5e 68 40 d1 2f 00 c0 d5 fd c4 3f e4 d7 40 bf
       3.6307685 -2.0029185 1.5389963 -0.7532942
000370 85 b3 a2 c0 9f 7d 51 40 57 c6 fa 40 32 03 04 bf
       -5.084414 3.2732923 7.8367114 -0.51567376
000380 fe 5f 7b 40 ca 5f 4f bf e9 ff 48 3e b4 a4 98 40
       3.927734 -0.8100554 0.19628872 4.7701054
000390 52 ae b1 bf d9 8b 9d 40 e1 2d 97 40 9a b5 9e 3f
       -1.3881323 4.9233212 4.7243505 1.239917
0003a0 cf f3 37 40 1f 5e 23 c0 42 c0 42 c0 45 34 16 c0
       2.874256 -2.5526197 -3.0429845 -2.3469403
0003b0 ea c9 9f 40 b2 bc 7c c0 ba d2 a4 3f 29 15 c0 40
       4.9933977 -3.949017 1.2876809 6.002583
0003c0 03 01 9e be 0a 20 63 40 f9 0d 1f 40 e7 ce a8 40
       -0.30860147 3.5488305 2.4852278 5.2752566
0003d0 f3 87 b5 c0 f0 3a 92 3f 1b 23 c4 40 52 22 32 40
       -5.6728454 1.1424236 6.1292853 2.7833447
0003e0 55 6b 63 40 ba 7e 18 c0 b5 9d ed 3e 9a 5a a5 c0
       3.553426 -2.3827348 0.46409383 -5.1673098
0003f0 25 eb 4e c0 58 f4 a6 40 a7 a5 a9 40 9f 79 49 c0
       -3.233102 5.217327 5.301471 -3.1480482

conv_layers.2.bias f4 [64]
000000 56 aa a2 3f 14 cd cf be cf ee ed 3c 87 1c 70 40
       1.2708232 -0.4058615 0.029044537 3.7517412
000010 6c 92 1f be ef 78 10 3f 61 34 00 bf a8 42 6a 3f
       -0.155832 0.5643453 -0.50079924 0.9150796
000020 23 34 85 3e 73 ae a2 bf 9e f9 e8 bc ea c6 85 40
       0.2601634 -1.2709488 -0.02843934 4.1805315
000030 54 03 b8 40 e0 db 87 40 28 9f a4 3e 3c 3f 62 40
       5.7504063 4.24559 0.32152677 3.5351095
000040 59 e7 72 bd 6e 6a 2d 40 ab 79 f5 be 90 0a 0a 40
       -0.05930266 2.709621 -0.47944388 2.1568947
000050 5a 37 2f bf 5a 0b 79 be 9d 50 06 3d 03 82 f9 3e
       -0.68443835 -0.24320737 0.032791723 0.48732004
000060 59 6c 01 40 b2 41 94 3d 19 9b 5f bf 1c c1 49 be
       2.022238 0.07239093 -0.87346035 -0.19702572
000070 23 c9 22 3d 6f b0 52 40 41 0f 9d bf 55 d3 07 40
       0.0397426 3.2920187 -1.227028 2.1222737
000080 06 e0 37 40 bf 55 1c 40 8d f0 0d 3e 5f 8d 4b 40
       2.8730483 2.4427335 0.13861294 3.1805036
000090 c3 94 ad 3f 2e 80 fe bd 19 d3 43 be 5e de 12 3f
       1.3561023 -0.12426792 -0.19123496 0.57370555
0000a0 c9 b3 36 bf df 11 cd be d8 c1 51 be ef 0e 64 40
       -0.7136808 -0.40052697 -0.20484102 3.5634115
0000b0 d0 42 35 40 92 99 09 40 37 63 32 bf 8d d0 ab be
       2.832203 2.1499982 -0.6968264 -0.3355755
0000c0 52 3b ad 40 65 36 e4 40 22 a5 a8 40 ff 4f 47 c0
       5.4134912 7.13164 5.270158 -3.1142576
0000d0 dc e6 75 3f c0 63 5d 3f 00 8f 0f 3f 71 f0 65 bf
       0.9605539 0.8648033 0.56077576 -0.8982001
0000e0 14 b8 5b 40 f6 76 40 40 e2 7c d2 3c c1 f1 de 40
       3.4331102 3.0072608 0.025694314 6.967011
0000f0 41 d5 b7 40 fe 1b 28 40 04 f3 d2 40 bb 88 3a be
       5.744782 2.6267085 6.592165 -0.18216221

conv_layers.4.weight f4 [32, 64, 2, 2]
000000 bd 47 d3 3e d2 e5 39 be 4c a8 8e 3f 29 99 ba 3e
       0.4126567 -0.18154076 1.114511 0.36444977
000010 ab 67 94 40 b5 86 c0 40 9c 57 9a 40 09 44 88 40
       4.637655 6.0164437 4.8231945 4.258305
000020 8c d2 af 40 27 65 15 40 cf 6f a4 40 73 57 5b 3f
       5.4944515 2.3342988 5.1386485 0.8568031
000030 4e 31 83 bf 8f 93 43 c0 f3 2d 6e 40 2f 5e 1a c0
       -1.0249422 -3.0558813 3.7215545 -2.4119985
000040 37 14 b2 40 2b 09 92 40 58 e2 ab 40 07 de 1a 40
       5.5649676 4.563619 5.37138 2.4198015
000050 a2 b2 cf 3e 5a 09 56 be 43 17 19 40 ec 5b 68 3f
       0.40565974 -0.20902005 2.3920448 0.9076526
000060 bc a7 a6 40 da a7 b8 40 73 44 ba 40 ff 67 7f 40
       5.2079754 5.7704897 5.8208556 3.9907224
000070 69 d9 b5 3e 51 31 67 40 5b 37 e8 bd c4 b6 81 3e
       0.35517433 3.612385 -0.11338683 0.25334752
000080 d0 c6 fe 3f 0e d8 9b 40 c7 a5 9d bf 07 43 7e 3f
       1.9904423 4.870124 -1.2316216 0.99321026
000090 77 f4 19 40 f0 7e a2 40 7b 3e 5a 40 fc 01 2b 40
       2.405546 5.0779953 3.4100635 2.671996
0000a0 02 c3 48 3f bc 8a 5a 40 41 d8 99 3f 8d 53 70 3f
       0.7842256 3.4147177 1.201912 0.9387749
0000b0 6b d1 6a bf bd 6a 1b 3f d4 63 67 bf 41 18 9b be
       -0.91725796 0.60709745 -0.903867 -0.30291942
0000c0 4f 53 44 bf 61 ed 76 3f 6a fa 32 3e 4e 27 01 3f
       -0.7668962 0.9645596 0.17478338 0.504506
0000d0 5f cb ad be fd 6e 59 bf 66 92 4e be d5 f5 12 be
       -0.33944222 -0.8493498 -0.20173034 -0.1435159
0000e0 0f 7e bb 3f 8e 08 2f 3f ad 76 96 40 fd f0 9d 40
       1.4647845 0.6837243 4.701987 4.9356675
0000f0 61 8b 23 c0 ae b8 04 c0 e2 f6 ba bd 9e b6 2d 40
       -2.555382 -2.073772 -0.091291204 2.714271
000100 03 91 30 be f5 09 dd bd 8a 85 d0 3f 23 de fa 3f
       -0.17242818 -0.10792915 1.6290753 1.9599041
000110 c5 18 e8 bf 1c db 2a c0 6b 98 f0 be e9 12 e1 bf
       -1.8132559 -2.6696234 -0.46991286 -1.7583896
000120 d1 6d f6 3f 82 04 6f 40 c4 20 8a be 40 91 c3 3d
       1.9252263 3.7346501 -0.26978123 0.095491886
000130 33 61 6a c0 67 eb 59 c0 42 ce 58 c0 c3 e0 2b c0
       -3.6621826 -3.4049928 -3.387589 -2.6855934
000140 c2 b3 22 40 40 ae 92 40 66 74 c2 3f a7 5d 20 40
       2.5422215 4.5837708 1.5191772 2.505716
000150 81 ba 8d 40 14 13 e5 3f b6 5a a1 be 6f 00 79 40
       4.4290166 1.7896447 -0.3151452 3.8906515
000160 d7 45 cb 3f 26 1c 85 be 4e a8 0b 40 55 72 51 3f
       1.5880688 -0.25998038 2.1821475 0.8181508
000170 44 21 66 3f 48 9f ba be d1 65 42 40 af 09 f4 3f
       0.8989451 -0.36449647 3.0374644 1.9065455
000180 df 9a 19 c0 19 0b 74 c0 6b 73 5e 40 6b 76 87 c0
       -2.4000776 -3.8131773 3.4757946 -4.2332053
000190 25 e7 b2 40 7f af ea 3f 5f a9 af 40 29 f2 f8 3e
       5.590716 1.8334807 5.489425 0.48622254
0001a0 6e bd 92 3f e8 18 0c 40 f4 9b 03 3f ce 7e e1 3e
       1.1464059 2.1890202 0.5140984 0.44042057
0001b0 b9 2d d0 40 c2 3d 8b 40 4a 17 c4 40 39 6c 53 40
       6.5055814 4.351289 6.127843 3.3034804
0001c0 5e 34 af 3f 1c 6c 41 40 ff e3 16 40 14 db 96 3f
       1.3687856 3.0222235 2.3576658 1.1785607
0001d0 2f 90 ab bf f8 cb 20 c0 82 26 7b bf dd 26 8f bf
       -1.3403376 -2.5124493 -0.98105633 -1.1183735
0001e0 23 77 3f 40 68 c2 a6 40 ff b0 a7 3f 7f cf 15 40
       2.9916465 5.211231 1.310089 2.3407896
0001f0 8e c6 67 c0 78 7a 4b c0 f8 ac 57 c0 92 f0 07 c0
       -3.6214938 -3.17935 -3.3699322 -2.1240582
000200 eb 22 90 bf c4 75 ad 3e d1 3d 3c bf 33 ee 08 bf
       -1.1260656 0.3387891 -0.73531824 -0.53488463
000210 f7 fe 07 c0 df 96 2c c0 2d 4d 03 c0 e2 65 0e c0
       -2.1249368 -2.6967084 -2.0515854 -2.2249684
000220 2b 01 ac 40 7f 4a 81 40 93 08 a5 40 8e 1b f1 3f
       5.3751426 4.0403438 5.1572967 1.8836534
000230 70 74 ca bf 2a 1b 1a c0 26 55 6a be 5a 8a 5c bf
       -1.5816784 -2.407908 -0.22884044 -0.8614861
000240 5b 39 ca bd 53 fa 3e 40 01 ed ad 3e e7 b6 c3 be
       -0.09874221 2.9840286 0.33969882 -0.3822548
000250 6e 4c f1 40 3f ca 66 40 92 c6 a8 40 5d 3d 8a 40
       7.54058 3.6060941 5.2742395 4.3199906
000260 8f 1c b0 40 10 f1 1a 40 10 88 9b 3f 19 d3 63 40
       5.503486 2.4209633 1.2150898 3.5597594
000270 dc 51 2d 3f 5d 09 d5 be 27 48 04 bf 95 a3 5e 40
       0.6770303 -0.41608706 -0.51672596 3.4787343
000280 d2 34 1e 40 9d 5c 0e 40 19 15 79 bd 7e 64 9d 40
       2.471974 2.2244027 -0.060811136 4.918517
000290 3c 57 de ba f2 41 23 3f 8f 40 70 40 fc a8 98 40
       -0.0016963254 0.637725 3.7539403 4.770628
0002a0 95 bd 6f 40 27 14 00 40 bb 06 2c 40 1e 20 36 3f
       3.7459462 2.00123 2.6879108 0.71142757
0002b0 43 6b ac bd 35 c7 ce be dd f6 d9 3f dd 3c 82 3e
       -0.08418896 -0.40386358 1.7028462 0.2543706
0002c0 9d 32 8d bf ea 9b 0d c0 96 74 8e bf ab 12 cd bf
       -1.1031071 -2.2126412 -1.1129329 -1.6021322
0002d0 33 7b bf 3f 44 e9 62 be c2 44 79 3e 2b 6d fc be
       1.4959472 -0.22159296 0.24342635 -0.4930204
0002e0 02 f9 12 40 eb 73 1e 40 45 94 5a 40 6c b1 00 3f
       2.2964482 2.475825 3.4152997 0.50270724
0002f0 9c 47 d3 3f cd 1a 83 40 4f fd 1e 3f d9 8e 85 3f
       1.6506228 4.0970216 0.6210527 1.0434219
000300 fa 6a db be e2 ca 99 bf d9 21 3c 3f ee 01 b1 be
       -0.42855054 -1.201504 0.7348915 -0.34571785
000310 d8 ec 35 bf 11 cd 38 bf fd fb bf 3e 5a c6 83 3f
       -0.7106452 -0.72187907 0.3749694 1.0294907
000320 e7 00 42 bf 9f fa 24 3e bb 76 03 3f 99 aa c1 3e
       -0.75782627 0.1611123 0.51353043 0.37825468
000330 87 68 3d bf e3 34 a7 3f 4c 2a d2 3f eb b8 78 40
       -0.7398762 1.3063015 1.6419158 3.8862865
000340 47 5e e4 3f c5 65 8a 3e cf 6b 30 3f 32 cd ca be
       1.7841271 0.2703077 0.689145 -0.39609677
000350 48 c1 52 be 71 65 e2 3f 37 43 80 3f ec f7 06 3f
       -0.20581543 1.7687207 1.0020512 0.5272205
000360 9a 38 aa 3e 2d 3a c4 bd 53 50 28 40 f7 a4 0b 40
       0.3324631 -0.09581409 2.6299026 2.1819437
000370 0f ff 8f 40 68 89 c7 40 a7 bd a6 40 85 40 8f 40
       4.499885 6.235523 5.210651 4.476626
000380 a5 b1 ca bf b0 7a 0a c0 61 3f 5c 3f b2 cd 05 bf
       -1.5835463 -2.1637383 0.8603421 -0.5226699
000390 3d 49 c5 bf 65 99 e8 bf fe 90 07 c0 82 b0 be bf
       -1.5412976 -1.8171812 -2.1182246 -1.4897616
0003a0 41 e8 78 40 fe df a7 40 64 c3 8b 40 b3 77 18 40
       3.8891757 5.246093 4.3676014 2.3823059
0003b0 d0 4a a5 bd 5e b3 3b bf b9 75 a1 3f e9 16 74 be
       -0.0807091 -0.7332057 1.2614051 -0.23836865
0003c0 0f 20 2a be 21 59 d1 be 82 c1 6a be 94 55 79 3e
       -0.16613792 -0.40888312 -0.2292538 0.24349052
0003d0 60 30 60 be 5c c1 e6 3f b0 22 8f 3e 6a 42 a6 bd
       -0.21893454 1.8027759 0.27956152 -0.08118136
0003e0 0d a9 af be 15 5a 01 bf a8 c6 25 3e c3 cc 01 3d
       -0.34308663 -0.5052808 0.16189063 0.031689417
0003f0 bd cf be 40 4a 51 b2 3f 0d 36 9e 40 73 70 05 40
       5.9628587 1.3931057 4.944098 2.0849884

conv_layers.4.bias f4 [32]
000000 1b 1c 9d bf fb eb 15 40 5b 5b de 3c 86 a3 07 bf
       -1.2274202 2.342528 0.027143171 -0.5298389
000010 70 c8 b0 40 ef 2a 98 40 fa 66 69 40 8e ec 43 bf
       5.5244675 4.755241 3.6469102 -0.7653283
000020 0d 63 43 bf e7 7d 73 3f f9 28 5b bf d2 bb 7c 3f
       -0.76323014 0.95113987 -0.85609394 0.9872409
000030 12 58 7d bf ff a2 1b 40 5e c9 91 3f 28 77 6f bf
       -0.9896251 2.4318235 1.1389577 -0.93541193
000040 61 fd 30 40 de 6b 22 40 c4 3f 34 40 6d 37 1e 40
       2.765465 2.5378337 2.816392 2.472133
000050 f1 48 85 bf f6 fc 46 40 b5 b3 63 bf f5 14 1f 3e
       -1.0412885 3.1091895 -0.88946086 0.15535338
000060 7b 0b 33 40 19 56 7e 40 5c be 97 40 29 3d cd 3e
       2.7975757 3.974005 4.741987 0.40085724
000070 0a 1b 92 be 2a 09 fb be 1b fe 9c bf d3 97 db be
       -0.28536254 -0.4903043 -1.2265047 -0.4288927

fc_state.0.weight f4 [256, 128]
000000 fc c7 a4 c0 0f da ae c0 cb 1a 12 c0 c5 42 88 c0
       -5.149412 -5.4641185 -2.2828853 -4.2581506
000010 9a 56 4a bf b3 66 33 40 f6 20 23 3e 24 4c a9 c0
       -0.79038393 2.8031433 0.15930542 -5.2905445
000020 5a 0d 8e c0 89 9e 66 40 1c 19 84 c0 06 be 99 c0
       -4.43913 3.6034262 -4.128065 -4.804446
000030 ba c4 b3 c0 0e d6 e7 3f 4d ba 92 c0 6f 69 9d c0
       -5.6177645 1.8112199 -4.585242 -4.9191203
000040 57 40 d3 be 21 d7 7a 40 f5 ec 38 40 6a 71 ac c0
       -0.41260025 3.9193804 2.8894627 -5.3888445
000050 17 74 a5 3f 22 c5 8f 40 4e b1 5e 40 97 a6 a4 c0
       1.2926053 4.492814 3.4795718 -5.1453357
000060 cd f0 14 c0 5a f1 2d 40 b5 35 eb 3f 1c 5e b4 c0
       -2.3271973 2.717856 1.8375765 -5.636488
000070 f0 a9 92 c0 fd 14 b3 c0 dc fb 18 bf 50 56 87 c0
       -4.5832443 -5.596312 -0.59759307 -4.229286
000080 e7 38 bf c0 1b b0 c7 c0 34 47 89 c0 9b d5 26 c0
       -5.975696 -6.2402472 -4.289942 -2.6067874
000090 72 9f d4 3f 16 77 b1 c0 b2 15 a0 c0 b0 17 73 40
       1.6611159 -5.545787 -5.0026484 3.7983208
0000a0 7d da d0 c0 3e c9 ca c0 76 65 c0 c0 2a 8a 22 c0
       -6.526671 -6.3370657 -6.0123854 -2.5396829
0000b0 4a 31 0a 40 93 3c ae c0 c6 b8 92 c0 01 95 78 40
       2.1592584 -5.4448943 -4.5850554 3.8840945
0000c0 4a 4e c7 c0 ec f2 c6 c0 3b 5a ac c0 58 19 0f c0
       -6.228307 -6.2171535 -5.3860145 -2.2359219
0000d0 57 63 82 40 fc 17 9c 40 df 42 0a c0 80 5f 18 c0
       4.0746264 4.877928 -2.1603315 -2.3808289
0000e0 a0 60 61 bf 8b 8f e4 3e 28 e0 c7 3f 9c 93 c6 c0
       -0.88038063 0.44640765 1.5615282 -6.2055187
0000f0 0c b8 bf c0 b3 6f cd c0 33 e3 a6 c0 f2 b6 74 c0
       -5.9912167 -6.419885 -5.2152343 -3.823666
000100 ce cc 1e 40 87 12 50 40 a3 e4 79 c0 3d a7 2d 40
       2.4812503 3.2511308 -3.9045799 2.7133324
000110 6e f4 66 40 20 c5 6a 40 0a d5 3f c0 a4 0b 8c 40
       3.6086688 3.6682816 -2.9973779 4.376421
000120 ce 1e 35 40 70 8d 3c 40 a4 e7 81 c0 d0 1f 6d 40
       2.8300052 2.9461327 -4.0595264 3.7050667
000130 db e0 4a 40 ce 68 ac c0 08 c1 89 c0 62 df 89 40
       3.169974 -5.3877935 -4.3048134 4.3085184
000140 78 e0 9a c0 06 fa bc c0 18 2c 11 c0 c0 72 96 c0
       -4.839901 -5.9055204 -2.2683163 -4.7015076
000150 9d fe 6b 40 8f 78 2a 40 3e 41 59 c0 4a d8 8f 40
       3.6874154 2.6636083 -3.394607 4.4951525
000160 4f 21 cc c0 9f be bb c0 d0 5f d0 c0 60 0b 3e bd
       -6.379066 -5.867019 -6.511696 -0.046397567
000170 29 23 b0 bd 61 71 b5 c0 de a2 8d c0 29 a5 3a 40
       -0.08600456 -5.67009 -4.4261312 2.9163306
000180 8a c0 47 40 08 a8 39 40 92 d8 73 c0 92 22 71 40
       3.1211267 2.9008808 -3.8100934 3.767735
000190 77 92 d9 be ea a9 a8 40 41 23 90 40 ed af 8a c0
       -0.42494556 5.2707415 4.5043035 -4.3339753
0001a0 e5 92 39 40 e2 4e a3 c0 f5 cb 99 3f 5b 3b 5b 40
       2.8995907 -5.1033792 1.2015368 3.4254978
0001b0 e0 56 37 40 8b 38 c0 c0 d0 95 8c c0 f2 e9 35 40
       2.8646774 -6.006902 -4.3932877 2.842404
0001c0 4e 7a a3 c0 e3 a2 4e 40 50 50 80 c0 ce 14 8f c0
       -5.10868 3.2286918 -4.009804 -4.4712896
0001d0 5b 72 d3 c0 2b a1 c2 c0 fe d9 bb c0 63 da 49 bf
       -6.6077094 -6.082174 -5.8703604 -0.78848857
0001e0 5c e5 a3 c0 5e 89 c5 c0 6c 60 a2 c0 80 40 9a c0
       -5.121748 -6.1730185 -5.0742702 -4.8203735
0001f0 85 c6 87 c0 dc 8f 9b c0 8d f4 70 3f aa d8 4f c0
       -4.2429833 -4.861311 0.94123155 -3.2475991
000200 45 ec ad c0 7b 68 b2 c0 b3 de 11 c0 52 08 8d c0
       -5.4350915 -5.575254 -2.2792175 -4.4072657
000210 4d 18 44 bf aa 82 35 40 63 3f 5d 3c 32 7b b2 c0
       -0.7659958 2.8361 0.013503882 -5.5775385
000220 38 47 9b c0 4b 47 7e 40 b5 b4 93 c0 4e 32 a3 c0
       -4.8524437 3.9731014 -4.615809 -5.0998907
000230 45 1f b7 c0 35 7f ed 3f eb ca 9c c0 77 bb 9e c0
       -5.722567 1.8554446 -4.8997703 -4.960384
000240 de 3f b4 be 89 bc 7e 40 16 d3 36 40 da 59 ab c0
       -0.35204977 3.9802573 2.8566337 -5.354718
000250 0c 55 9d 3f 0c 63 8f 40 cb a1 77 40 ce e0 ae c0
       1.2291579 4.4808407 3.86925 -5.464942
000260 fa ae 1f c0 0f b1 3b 40 5b ea fc 3f 8b 05 b9 c0
       -2.4950547 2.9326818 1.975902 -5.7819266
000270 cc 3b 97 c0 67 b5 c1 c0 db b4 15 bf 5d 98 89 c0
       -4.7260494 -6.053394 -0.5847909 -4.299849
000280 7c c7 c2 c0 67 4c ca c0 89 6e 8b c0 3a 52 32 c0
       -6.086851 -6.3218265 -4.357243 -2.7862687
000290 25 7a d7 3f 2d 50 bd c0 92 18 a6 c0 e8 82 83 40
       1.683415 -5.916037 -5.1904993 4.10973
0002a0 d8 66 ce c0 e8 19 c9 c0 12 ee bc c0 93 12 2b c0
       -6.450054 -6.2844124 -5.9040613 -2.6730087
0002b0 a2 61 0e 40 b6 c9 b6 c0 10 a4 98 c0 92 33 84 40
       2.224709 -5.712123 -4.770027 4.131295
0002c0 0e 38 ce c0 eb 13 cd c0 41 38 ab c0 79 1f 1d c0
       -6.4443426 -6.4086814 -5.350617 -2.455046
0002d0 21 a0 87 40 f1 ff a3 40 98 3a 16 c0 67 c3 2f c0
       4.238297 5.124993 -2.3473263 -2.7463014
0002e0 a8 d8 39 bf 45 f8 0a 3f dd 7a be 3f a7 d4 c5 c0
       -0.72596216 0.5428508 1.4881245 -6.1822085
0002f0 48 5e c6 c0 d7 53 d2 c0 4d 47 b1 c0 68 25 83 c0
       -6.199009 -6.5727344 -5.5399537 -4.098316
000300 62 33 20 40 66 57 4e 40 bf de 78 c0 cc 49 2f 40
       2.5031362 3.2240844 -3.8885953 2.7388792
000310 68 79 6d 40 4a f7 76 40 33 95 4e c0 37 b8 90 40
       3.710535 3.8588433 -3.2278564 4.522487
000320 30 2b 38 40 70 5f 46 40 81 77 82 c0 4d 62 80 40
       2.877636 3.099575 -4.077088 4.0119996
000330 4d c5 53 40 1d 4b ae c0 fd 16 90 c0 bb 61 88 40
       3.3089173 -5.446669 -4.502806 4.26193
000340 7c 57 9b c0 f7 92 c5 c0 ed 2c 0d c0 03 e2 9f c0
       -4.8544292 -6.17419 -2.205867 -4.9963393
000350 94 90 79 40 36 aa 2c 40 2b c3 6b c0 c5 14 94 40
       3.8994493 2.6978889 -3.683787 4.6275353
000360 8e ce cb c0 03 b3 bf c0 40 24 d0 c0 9e ad 08 bc
       -6.368964 -5.990602 -6.504425 -0.008342175
000370 4f b4 94 3c ca 8b c0 c0 02 ff 92 c0 6a e4 3e 40
       0.018152384 -6.017064 -4.593629 2.9826913
000380 f9 8f 56 40 3c 70 3f 40 90 67 75 c0 50 07 7b 40
       3.3525374 2.9912252 -3.834446 3.9223213
000390 5d 60 d4 be 58 ec a4 40 28 6a 94 40 89 73 8a c0
       -0.4147977 5.1538506 4.6379585 -4.3266034
0003a0 b1 5b 39 40 14 63 a5 c0 c6 1e a0 3f e5 8b 61 40
       2.8962214 -5.1683445 1.2509391 3.5241635
0003b0 41 24 37 40 fd a3 bd c0 5d 33 95 c0 45 86 26 40
       2.8615878 -5.926268 -4.66252 2.6019452
0003c0 99 49 ab c0 dd d0 54 40 b5 97 85 c0 52 46 95 c0
       -5.352734 3.325248 -4.174769 -4.664834
0003d0 7d 26 d5 c0 cf bd ca c0 75 ea c3 c0 b7 a1 49 bf
       -6.6609483 -6.33567 -6.1223702 -0.7876238
0003e0 10 64 a9 c0 6c 46 ca c0 3e 11 a7 c0 4d cc 9d c0
       -5.2934647 -6.3210964 -5.2208548 -4.931189
0003f0 7e 25 89 c0 68 96 a2 c0 1b e9 4f 3f c7 2b 4e c0
       -4.2858267 -5.08086 0.81215066 -3.221422

fc_state.0.bias f4 [256]
000000 5b a5 96 3f 38 f3 94 3f 05 bc 7f be 4c f5 8e 40
       1.1769212 1.1636724 -0.24974068 4.4674435
000010 94 af 94 3e 45 48 44 3f ae 1d 0e 3f 56 96 8e 3f
       0.29040205 0.76672775 0.5551404 1.1139629
000020 0c 5d 94 3f 9c 4c 6f 40 4a a1 9b 3f 60 3a 99 3f
       1.1590896 3.7390509 1.2158597 1.197094
000030 c1 8a e5 3f 2c ab 88 3f 7d 54 94 3f 5a 95 df 3e
       1.7932969 1.0677238 1.1588284 0.43668634
000040 72 8f a1 40 0c 10 9b 3f 26 fd 89 3f f7 ed 89 3f
       5.0487604 1.2114272 1.078038 1.0775746
000050 a3 7b d8 bf e1 91 b7 3e 77 0a 7e 3e 5c 6a ce 3e
       -1.6912731 0.35853484 0.2480868 0.4031552
000060 a7 e4 9b 40 3c e6 95 3f 0f b1 42 be 61 35 19 3e
       4.8716617 1.1710887 -0.19012855 0.14961769
000070 1b bc 44 bf 6e 4c 80 3f 93 7e d5 3e bf c9 b2 40
       -0.76849526 1.0023324 0.4169813 5.587127
000080 1a 42 82 3f bc 43 9c 3f df 84 94 3f 1d 7b 82 3f
       1.0176423 1.2208171 1.1603049 1.0193821
000090 c4 7e 91 3f 09 98 8f 3f 25 67 88 3f e0 9b 85 3f
       1.1366811 1.1218272 1.0656477 1.0438194
0000a0 8c de 88 3f 6e 1e a1 3f e1 21 96 3f c9 8b 05 3f
       1.0692916 1.2587411 1.1729089 0.5216642
0000b0 91 3d ee 3e 93 51 8d 3f 68 e6 9e 3e 12 9f 1f be
       0.46531346 1.104052 0.3103516 -0.15588024
0000c0 c6 80 23 3f ad 38 90 3d 89 ce 9c 3f 62 2b 8e 3f
       0.6386837 0.0704206 1.225053 1.1106989
0000d0 f6 63 b4 3c 7e 47 8e 3f db b8 c0 40 99 59 94 3f
       0.022020321 1.1115568 6.0225654 1.1589843
0000e0 25 2a 37 bc ed dd 85 3f 99 9a 8e 3f 9a 5d 72 3f
       -0.011179482 1.0458351 1.114093 0.94674075
0000f0 45 fd 8b 3f 15 d9 9a 3f 35 19 97 be 73 b1 b1 3e
       1.0936667 1.2097498 -0.2951142 0.34705696
000100 4c 15 3a 3f 8a cb 2d be 93 58 95 3f 5b de 52 40
       0.72688746 -0.16972175 1.1667656 3.2948215
000110 0d fe 71 3f 5b 06 9b 40 ef 8a aa bd bf ae b7 40
       0.94528276 4.844526 -0.08327281 5.7400813
000120 4d 0e 74 3f 30 ce d1 3e 6e 97 9f 3f 00 dd 0f 3f
       0.9533432 0.4097762 1.2468088 0.56196594
000130 2d fb bc 40 b4 67 00 3f dc 33 2e 3f f6 54 59 3e
       5.905661 0.5015824 0.6804788 0.21223816
000140 90 cb a1 3e 0d 5b 7c 3f 26 9f 97 40 71 55 a0 3f
       0.31600618 0.9857643 4.7381773 1.2526075
000150 68 a2 aa 40 29 05 8c 3f 80 0e 95 3f 0b 11 b1 40
       5.332325 1.0939075 1.164505 5.5333304
000160 81 ea 2c 3f 4d 6a 82 3f 99 a5 10 3f d5 9c 9b 3f
       0.67545325 1.018869 0.5650268 1.2157236
000170 32 27 03 3f df 55 bb 40 4e 34 bc 3e f6 df 8d 3f
       0.5123168 5.8542323 0.36758655 1.1083972
000180 4b 67 5a bd 68 7c 32 3e 2f 2a 52 bd bb d0 95 bf
       -0.053321164 0.1743027 -0.05130976 -1.1704324
000190 65 8f 94 3f 71 42 84 3f be a0 19 3f a2 e5 87 3e
       1.160626 1.0332776 0.600109 0.26542383
0001a0 c6 a8 88 3f e4 43 95 3f 06 88 93 3f 58 f0 b6 3e
       1.0676506 1.1661344 1.1525886 0.35730243
0001b0 47 4d 88 40 16 c2 94 3f c8 60 80 3f 59 f0 ba 3e
       4.2594333 1.162173 1.0029535 0.36511496
0001c0 ab a1 c9 bd a6 b0 ac 3e 41 95 96 3e 09 fd 80 3f
       -0.09845289 0.33728522 0.29410747 1.007722
0001d0 8e 4e f4 3f 3a f3 a0 3f a8 fe 3c 3f 2d 55 a4 40
       1.9086473 1.2574227 0.73826075 5.1353974
0001e0 55 5b 78 3e 18 ce 98 3f 52 22 df 3e f5 b6 90 3f
       0.2425359 1.1937895 0.43580872 1.1305834
0001f0 f3 89 85 3f 17 f2 3f 3f 3e 41 94 3f cd 7b 8f 3f
       1.0432724 0.74978775 1.158241 1.1209656
000200 ef ac 9b 3f 01 55 e4 3e e6 f3 a7 3e 6a 58 64 40
       1.216215 0.44596103 0.32803267 3.5678964
000210 68 74 ad 3e b5 e4 8e 3f e8 ff 81 3f 52 58 37 3f
       0.33877873 1.1163546 1.0156221 0.7161914
000220 19 64 8d 3f 71 a7 0c 3e d6 03 93 3f a1 5e ab 40
       1.1046172 0.13735749 1.1485546 5.3553014
000230 e1 e2 0b 3f 95 54 56 3f b9 fd 2c bd 5d d0 9a 3f
       0.54643065 0.8372281 -0.042234156 1.2094837
000240 c6 55 3c bd 66 8b 95 3f bf 2c ad 40 26 cb ad 40
       -0.045980237 1.1683166 5.411712 5.4310484
000250 9d 2c 70 3e 01 86 96 3f 93 89 84 3f 83 ee 98 3f
       0.23454519 1.1759645 1.0354484 1.1947788
000260 86 d3 c0 be 26 73 12 be d2 bc 84 40 8a 50 8e 3f
       -0.3766138 -0.14301738 4.1480494 1.1118329
000270 57 f4 e2 3f 16 0f 27 bd 8c 81 c8 3e 0a f0 21 3f
       1.7730817 -0.04078587 0.39161336 0.63256896
000280 d9 51 60 3e 25 07 55 3e 84 5d 94 3e 19 03 5a 3f
       0.21906222 0.20803507 0.28977597 0.85160977
000290 41 35 9f 40 53 2d 9e bf 82 48 5f bf 62 60 9d 40
       4.9752507 -1.2357582 -0.87220013 4.9180155
0002a0 8f 86 bd 40 ee c3 42 3f 74 60 8c 3f d6 74 f0 3d
       5.9226756 0.76080215 1.0966935 0.11741035
0002b0 c6 3c cd 3f a5 67 89 bf e5 6b 00 3f 0c dd 98 3f
       1.6034172 -1.0734755 0.50164634 1.1942458
0002c0 32 3b e0 3e f6 a6 92 3e c5 65 56 3f d2 44 89 40
       0.43795162 0.28643006 0.8374904 4.289651
0002d0 70 20 bb 40 56 b0 b2 40 f3 9f 21 3f c0 bd c3 3e
       5.8477097 5.5840254 0.6313469 0.38230705
0002e0 1a 8d 52 3e 95 d6 9a 3f 88 69 2c 3e f5 d9 d8 bf
       0.20561638 1.2096735 0.16837132 -1.6941515
0002f0 07 1f 8c 40 03 6f 9b 3f c0 89 c7 3f 60 df 95 3f
       4.3787875 1.2143253 1.5588913 1.1708794
000300 05 ab 98 3f a6 ba d3 bf e3 53 85 3f b6 01 c2 40
       1.1927191 -1.6541336 1.0416225 6.062709
000310 56 c2 a4 bd 37 c7 a8 bf f1 67 8c 3f 4a e0 2c be
       -0.08044879 -1.3185796 1.096922 -0.16882434
000320 c3 f8 97 3f 4f 1e c2 3e b8 58 93 bd c8 e4 35 3f
       1.1872791 0.3791375 -0.07194656 0.7105222
000330 b6 a0 9b 40 e6 45 8b 3f 40 fb 10 3f 18 e1 8c 3f
       4.863368 1.0880706 0.5663338 1.1006193
000340 51 13 4f bf de a9 99 3f a1 3e ac 3e 77 ec 5c bd
       -0.8088885 1.2004964 0.33641532 -0.053936448
000350 8f 66 83 bd cc 15 8e 3d b2 16 89 3f 14 48 c3 40
       -0.06416046 0.06937751 1.0710051 6.1025486
000360 7e a0 34 3f 0e 94 d5 3e ec d4 92 3f 76 0c 13 3d
       0.7055739 0.4171452 1.1471229 0.035900556
000370 6d 0d 38 3f 01 3f 14 3f f7 40 c3 3e 73 02 8c 3f
       0.71895486 0.57908636 0.38135502 1.0938247
000380 d9 9b c6 bd cc 6f 9e 3f ad 87 f1 3e 1c d4 c3 3c
       -0.09697694 1.2377868 0.47173825 0.023904853
000390 ad 6a a9 40 2f cf 99 3e b7 a0 81 3f 28 ab 87 3f
       5.294272 0.3004088 1.0127171 1.0599108
0003a0 95 62 fd bd 01 a2 9f bf e7 3d 9c 3f 7f b3 96 40
       -0.12372319 -1.2471315 1.2206391 4.709411
0003b0 46 60 7c 3f 6c da 4e 3f a7 1c ae 3e a6 c5 76 3f
       0.985844 0.80802035 0.34006235 0.9639534
0003c0 0c e6 27 3f ea af 97 3f b5 6a 95 3f 67 5c 88 3f
       0.655854 1.185056 1.1673189 1.0653199
0003d0 8e c5 8b 3f 69 61 7b 3f ba d6 8b 3f 64 4e 53 3f
       1.0919664 0.9819551 1.0924904 0.8254149
0003e0 66 6a 9f 3f a7 06 6b 3e 67 07 95 3f 2a fc 8a 3f
       1.2454345 0.22951756 1.1642884 1.0858204
0003f0 34 7e 89 3f 06 09 a0 3e 08 c3 85 3f 31 12 9c 3f
       1.0741639 0.31256884 1.0450144 1.2193052

fc_state.2.weight f4 [64, 256]
000000 4c 00 e8 bf d4 0a f9 bf 0c 93 57 3f 7e b1 fe 3f
       -1.8125091 -1.945643 0.8420875 1.9897916
000010 7a fe 5c bf 46 f9 63 3d 38 9a 15 3e f5 86 ef bf
       -0.863258 0.055657648 0.14609611 -1.8713061
000020 cb 26 20 c0 c8 38 d5 3f f5 1b b8 bf 79 f3 bf bf
       -2.5023677 1.6657953 -1.4383532 -1.4996177
000030 31 34 06 40 c7 c3 e8 bf 7c d7 dd bf 83 78 fa 3d
       2.0969355 -1.8184747 -1.7331386 0.12230017
000040 e4 ed d4 3f e0 39 df bf 80 c4 e5 bf d4 9e e5 bf
       1.6635098 -1.7439537 -1.7950592 -1.7939095
000050 39 55 a0 40 7d e2 01 3e aa b8 9f 3d 08 8f 49 3e
       5.010403 0.12684055 0.07798894 0.19683468
000060 51 ca 0b 40 b6 5c f2 bf 2b b0 c1 3e 51 f1 39 3e
       2.1842234 -1.8934543 0.37829718 0.18158461
000070 d0 2b 98 40 83 8c fa bf bf ee 7c bf c1 49 dd 3f
       4.755348 -1.9574131 -0.988018 1.7288133
000080 ea 24 0f c0 13 d0 cd bf a5 d0 e8 bf 26 64 04 c0
       -2.236628 -1.6079124 -1.8188673 -2.0686126
000090 5b 4d f1 bf bc 41 01 c0 75 57 0d c0 a8 c9 f8 bf
       -1.8851732 -2.019637 -2.208463 -1.9436541
0000a0 ba ac 0d c0 7d 4e c5 bf c3 df b9 bf 4f 8b b0 3d
       -2.2136674 -1.5414578 -1.4521412 0.08620321
0000b0 c9 63 45 3d 97 03 e3 bf d1 f4 74 bf 97 25 6f 3e
       0.048190866 -1.773547 -0.9568606 0.23354183
0000c0 d4 77 f5 b9 24 b9 0c be 7b 4f d5 bf 42 b1 01 c0
       -0.0004681932 -0.137425 -1.666488 -2.026444
0000d0 72 7a 19 bf 07 49 cd bf f7 2f fc 3f 72 a5 e4 bf
       -0.5995246 -1.6037911 1.9702138 -1.786299
0000e0 5c f7 5e 3e f3 3b f5 bf aa ba 08 c0 4a 74 03 c0
       0.21774048 -1.915892 -2.136393 -2.0539727
0000f0 b8 6c 09 c0 25 02 d6 bf 33 56 bc 3e 2a bc d1 3d
       -2.1472607 -1.6719404 0.36784515 0.102409676
000100 32 8a fd 3d bd 60 d1 3e ea 3c 93 bf 92 6d 89 3f
       0.12379874 0.40894118 -1.1502964 1.0736563
000110 9a e3 09 c0 70 81 e6 3f 51 f1 1d bd e8 01 02 40
       -2.1545167 1.8008251 -0.038560215 2.0313663
000120 01 2e 11 c0 bb 35 e2 3d 91 3b e7 bf 21 55 d2 3d
       -2.2684329 0.110454045 -1.8065053 0.10270143
000130 d2 c6 07 40 ab 4c fc 3d 22 65 54 3d a7 b0 9b bf
       2.12151 0.12319311 0.05185426 -1.2163285
000140 48 64 9b 3d a8 19 12 c0 3d 90 af 3f 5b 51 d5 bf
       0.075874865 -2.282816 1.3715893 -1.6665453
000150 07 ba 0a 40 d2 72 04 c0 72 4c d5 bf af 22 09 40
       2.1676042 -2.069508 -1.6663954 2.142742
000160 f3 58 a2 ba c6 9a 0f c0 21 f3 5c 3d 27 40 cd bf
       -0.0012386128 -2.2438216 0.053942803 -1.6035203
000170 85 11 b0 3d 12 9d 03 40 33 c0 2b 3e 90 ba dc bf
       0.085970916 2.0564618 0.16772537 -1.7244434
000180 ff 60 6a 3e d7 84 36 3e a3 c9 b7 3f 93 fb 1b 40
       0.22888564 0.17824112 1.435841 2.4372299
000190 06 a7 ec bf cf 95 11 c0 5a 27 50 3e 1c e8 69 bf
       -1.8488472 -2.2747686 0.20327511 -0.91369796
0001a0 e0 3d da bf 97 bb dc bf a0 a1 ef bf 48 e1 63 bf
       -1.7050133 -1.7244748 -1.8721199 -0.89015627
0001b0 af 6f d0 3f 8c db d2 be 84 60 00 c0 0f 07 6a 3e
       1.6284083 -0.41183126 -2.0058908 0.22854255
0001c0 3f a3 b8 bc 47 17 b4 3d b8 33 4f bf e1 d5 f6 bf
       -0.02253878 0.08793502 -0.8093829 -1.9284021
0001d0 6c 89 48 40 f6 36 8b bf df d9 a0 3d 6a b3 04 40
       3.1333876 -1.0876148 0.078540556 2.0734506
0001e0 55 bd 0a 3e 87 68 f2 bf 55 81 ca 3d 6a e5 d5 bf
       0.13548787 -1.8938149 0.098879494 -1.6710637
0001f0 88 3c da bf 5c 91 c3 3c cc 0f de bf d0 11 8a bf
       -1.7049723 0.023873024 -1.7348571 -1.0786686
000200 86 2c eb bf 2f 5d 31 3e 97 6e 8f bf 98 c8 e1 3f
       -1.8372962 0.17320703 -1.1205624 1.7639341
000210 c8 a4 18 3e 01 2e 22 c0 7a 04 f1 bf 71 18 13 3e
       0.14906609 -2.5340579 -1.8829491 0.14364792
000220 a7 85 ff bf b7 bf c1 3d 50 bc db bf ee c1 05 40
       -1.9962662 0.09460395 -1.7166843 2.0899615
000230 39 1f 9b 3d 2d 77 fe 3d 7c 5d 04 3e 74 e2 d9 bf
       0.075743146 0.12425075 0.12926286 -1.7022233
000240 87 d6 89 be 79 5f eb bf dd df bb 3f 06 20 d3 3f
       -0.26921484 -1.8388511 1.4677693 1.6494148
000250 44 e1 f9 3d 51 12 d2 bf e5 f7 ec bf b6 d8 75 bf
       0.12201169 -1.641184 -1.8513151 -0.960338
000260 a5 99 a7 3f 6b b2 53 3e 30 b0 ef 3f 3c 42 08 c0
       1.3093764 0.2067353 1.8725643 -2.1290426
000270 a4 23 6b 40 51 70 61 3e ee 45 38 3e c9 bf cb 3d
       3.6740503 0.22015502 0.17995426 0.099486895
000280 78 27 20 3e d2 46 da 3c a9 72 3e 3e 76 94 eb 3d
       0.15640056 0.026645098 0.18598427 0.11502926
000290 3f dd 11 40 fc 74 98 40 e9 89 e2 3f 9c dd c6 3f
       2.2791288 4.7642803 1.7698337 1.553638
0002a0 f7 a0 e9 3f 69 e7 b3 3d fd d9 ec bf 90 b6 62 3e
       1.8252248 0.08784372 -1.8504025 0.22139955
0002b0 20 3a 64 3f 9d 31 64 40 a0 53 73 3d 06 af f3 bf
       0.8915119 3.5655282 0.059405923 -1.9037788
0002c0 6a c4 87 3d 45 bc 29 3e cd d5 3a 3d a1 25 f0 3f
       0.0662926 0.16575725 0.045614053 1.8761483
0002d0 bb fe eb 3f fa 4e ed 3f 86 38 cb 3d 97 80 7b bf
       1.8437113 1.8539727 0.0992289 -0.9824309
0002e0 6b ec dd 3d b7 06 a0 bf 2a fc 26 3e 51 72 9c 40
       0.10836109 -1.2502049 0.1630713 4.8889546
0002f0 81 2b 0d 40 af b7 05 c0 3b 03 96 40 ba 07 e9 bf
       2.2057803 -2.0893362 4.6878943 -1.8205483
000300 b0 b6 d5 bf 6e d6 8e 40 c1 6e 00 c0 14 85 01 40
       -1.6696377 4.4636755 -2.00676 2.0237474
000310 43 1e 90 be b1 0a 89 40 8a 8e e0 bf b4 4a a0 3e
       -0.28148088 4.282555 -1.75435 0.31306994
000320 5a be e7 bf b8 ad 18 3e 17 02 c3 be 0c 60 19 3e
       -1.8104966 0.14910018 -0.38087532 0.14978045
000330 1d 04 0a 40 f5 8d f4 bf f7 64 fd 3d 65 59 ce bf
       2.156501 -1.9105822 0.12372773 -1.6121031
000340 3d 7b c0 3f 69 c9 d1 bf 88 45 be 3d 62 45 83 3f
       1.5037609 -1.638959 0.09290606 1.0255549
000350 c4 4f 89 3e 18 33 14 be a7 f9 e2 bf aa b0 ea 3f
       0.2681867 -0.14472616 -1.7732438 1.8335164
000360 15 6e 17 3e fa 93 09 3e 62 ba d3 bf 18 94 08 3e
       0.14788087 0.13435355 -1.6541255 0.13337743
000370 2b 4a 69 3d 19 a7 4e 3d d2 6c 1f 3e d1 a2 dd bf
       0.056955498 0.050452325 0.15568855 -1.7315313
000380 9f e4 01 bf 2b b3 dc 3e 0d 55 f6 3d ad 9d fb bb
       -0.50739473 0.43105444 0.12027941 -0.0076787085
000390 3d 91 0c 40 29 0c 41 3e 1f b0 07 c0 38 23 10 c0
       2.1963646 0.18852295 -2.1201246 -2.2521496
0003a0 d4 97 2a 3e 94 33 96 40 cb 29 e3 bf f9 ac ff 3f
       0.1665948 4.693796 -1.7747129 1.9974662
0003b0 5f 60 06 c0 e2 37 21 3e d5 e8 2b 3e ab 5d da bf
       -2.099632 0.15743974 0.16788037 -1.7059835
0003c0 05 85 9f 3d 14 11 91 bf 25 bb dc bf d6 11 cc bf
       0.07789043 -1.1333337 -1.7244612 -1.5942943
0003d0 ae 22 bf bf 44 3c 14 c0 2a be 2c c0 72 71 1d 3e
       -1.4932458 -2.3161783 -2.6991067 0.15375307
0003e0 7a 61 d8 bf 18 21 17 3e 40 3f fa bf 09 23 ed bf
       -1.6904747 0.14758718 -1.9550552 -1.8526317
0003f0 e0 0a f8 bf fe df 18 3e 41 e3 02 c0 39 69 f2 bf
       -1.9378319 0.14929196 -2.0451205 -1.8938361

fc_state.2.bias f4 [64]
000000 de a0 d9 3e e6 e9 d0 3e 89 93 fb 3e f2 60 7c bd
       0.42505544 0.4080345 0.49135998 -0.06161589
000010 ec 81 e0 3e e3 d5 b2 3f 70 be fb 3e 76 bc 8c 3e
       0.43849123 1.3971523 0.4916873 0.27487534
000020 d5 01 01 3f dc a4 09 3f 54 b5 b9 3e e8 4e 07 3f
       0.5039342 0.5376718 0.36271155 0.52854776
000030 86 b0 ff 3e cc eb 07 3f 7c f9 ff 3e 66 fa 90 3e
       0.49939364 0.5309417 0.4999503 0.2831604
000040 f3 0a 49 bd 4b 1a 06 3f 59 31 c5 3e 4f 4c f2 3e
       -0.049082708 0.5238387 0.38514212 0.47323844
000050 3c 3b fb 3e 5f 4f a1 3e 97 55 ec 3e f1 b7 9c bd
       0.4906863 0.31505868 0.4615905 -0.076522715
000060 96 82 e0 3e 60 1a a5 3e a8 2b 09 3f e8 c3 ea 3e
       0.4384963 0.32246685 0.5358224 0.4585259
000070 d6 62 06 3f ae 3e a1 3e c3 d4 e3 3e 5b 46 9b 3e
       0.5249456 0.31493133 0.44498262 0.30327114
000080 b1 61 f5 3e b2 4b 09 3f 42 a9 ab 3e ec a0 ac 3e
       0.47926095 0.53631127 0.3352757 0.33716524
000090 b8 78 ac 3e 82 91 03 3f 92 93 d0 3f 8f 2d f2 3e
       0.3368585 0.513939 1.6295035 0.47300383
0000a0 6e 09 ef bc b7 91 09 3f 63 ab c7 3e 97 5c 0f 3f
       -0.029179301 0.5373797 0.38997945 0.56000656
0000b0 31 cd df 3e ac 02 d0 3e d7 79 dc 3e 06 0a d8 3e
       0.43711236 0.40627038 0.43061706 0.42195147
0000c0 fb 62 9b 3e 35 aa cd 3e fc bb bd 3e 11 21 df 3f
       0.30348954 0.4016892 0.37057483 1.7431966
0000d0 96 4d d0 3f 9b 9e 06 bd 9e 6a 02 3f b1 10 f5 3e
       1.6273677 -0.0328661 0.50943935 0.47864297
0000e0 82 dc f8 3e ad aa 0e 3f b3 fb 00 3f 3f ab 83 39
       0.48605734 0.5572918 0.5038406 0.00025113855
0000f0 23 0e dd 3e cb 98 06 3f 23 26 09 3f 56 fc db bb
       0.43174848 0.52576894 0.53573817 -0.0067134304

fc_state.4.weight f4 [1, 64]
000000 3a a3 07 c0 56 f6 07 c0 35 90 03 41 a1 ec ce 3c
       -2.1193376 -2.1244102 8.222707 0.025259318
000010 60 d0 09 c0 31 41 22 41 a5 c8 04 41 94 bb 8b 3f
       -2.1533432 10.140916 8.2989855 1.0916619
000020 a6 cd 04 41 af a7 04 41 2e df 05 c0 69 70 05 41
       8.300207 8.290938 -2.0917468 8.339944
000030 4f 9b 06 41 bb 4c 06 41 dd 7b 03 41 74 76 97 3f
       8.412917 8.393733 8.21774 1.1833024
000040 76 96 58 3c 0f 0d 04 41 65 de 05 c0 05 35 03 41
       0.013219466 8.253188 -2.091699 8.200444
000050 d7 1e 03 41 72 b7 03 c0 75 9b 03 41 5a 0d 87 3d
       8.195029 -2.0580716 8.225453 0.065943435
000060 cb a3 0a c0 3d aa 0d c0 7d f6 04 41 46 89 02 41
       -2.1662471 -2.2135155 8.310178 8.158514
000070 ad 52 05 41 41 77 31 c0 8b 62 02 41 28 9e 0a c0
       8.3326845 -2.7729037 8.149058 -2.165903
000080 3f 5a 04 c0 e5 60 04 41 af 2c 04 c0 5c d2 03 c0
       -2.0680082 8.273656 -2.0652273 -2.0597143
000090 60 4d 18 c0 ee 99 04 41 3c 41 41 41 70 b0 02 41
       -2.3797226 8.2875805 12.078426 8.168076
0000a0 e0 3a 78 3d cc 7c 04 41 ff 64 08 c0 37 81 03 41
       0.060603023 8.280468 -2.1311643 8.219047
0000b0 d0 a6 08 c0 21 56 0c c0 20 f5 0c c0 cb 1e 05 c0
       -2.1351814 -2.192757 -2.2024612 -2.0800045
0000c0 85 1e 29 c0 cd 2b 0a c0 4d 0a 08 c0 db 98 33 41
       -2.6424878 -2.1589234 -2.1256287 11.224818
0000d0 8c 9c 3e 41 b8 ae d9 3d de 46 03 41 5c a1 02 41
       11.913219 0.10629028 8.204802 8.164394
0000e0 95 fe 04 41 2b 0f 03 41 63 9e 03 41 64 21 22 bb
       8.312154 8.191203 8.226169 -0.002473914
0000f0 9e aa 03 c0 08 4b 02 41 6c 81 05 41 3b 0e 0d be
       -2.0572886 8.143318 8.344097 -0.1377496
