data/Torch/Dueling/002_CNN-1_E_L/checkpoints/weights_1400000steps.pth (torch, 286623 bytes, 13 tensors)

conv_layers.0.weight f4 [32, 1, 3, 3]
00000000: 298f 6bbd f1ea f8bc 8e66 efbb bd66 0a3e
00000010: 00f4 93be aee7 f1bc 5c1d 5d3e e97c 9c3d
00000020: 3a18 8d3e 9b85 9dbe da86 963e d310 a73c
00000030: 241f d2bd f4cd bfbd e554 543e 6eb8 cb3e
00000040: a97d e7bd d9d6 6abe f1f7 0cbf f6e1 ccbc
00000050: 5db1 393d 36f5 a63e 6798 e03d 1bd4 cfbc
00000060: 272a e23c 58cc db3d 6eb1 56be db2d fabf
00000070: 1be8 0a3d c426 0d3e f241 933d a736 0f3d
00000080: f7f6 993c 8961 843c 4eab 363b 221b b9bb
00000090: 2e7c 5f3e 6493 29be aa98 923d 4602 ef3d
000000a0: 2dd3 163e ce14 59bc 5a84 5cbc 8d71 3dbd
000000b0: 3011 dfbc 6093 fc3e 4f02 a73b d678 683c
000000c0: 5e16 89bf c10d 563e d54c 0cbd dc7f 61bd
000000d0: cecb 623d 94e7 9cbc 2285 303f b7c9 82bc
000000e0: 17e1 b9bc 4318 323b 40f7 f4be 16d6 1f3d
000000f0: 7ad5 d2bc dda2 48bc bb5e 6abd 51fb 45bf
00000100: 003e 3a3d 82bc 33bf 87ad b83d 06e4 6fbd
00000110: 380a 5dbf 2ee2 f8bb ca3b 053d bd33 5e3c
00000120: a4d3 2cbf 10b3 303e 9607 f63c 83a0 0f3c
00000130: 7520 873e e323 83bd bf83 30bd 7f3c 553e
00000140: 8e1f e33d 19c7 9b3e 3d04 5cbe 6aaf 433c
00000150: 79d9 a9be d0a6 c7bd 2a62 3f3e 6eef 84bd
00000160: 9508 20be 8844 a03e fd7f 8cbe a1ec b53d
00000170: a1b5 3a3e 09aa d13a e5fa 4b3e 5d8c ce3c
00000180: 23ff 25be eded 4fbe f0b9 1b3d 5122 aebd
00000190: f5f0 b8be c2af 0d3e b3b6 ea3e b144 203e
000001a0: 32bf f93c 0d0c 473d 8292 b7bc 9bf8 03bf
000001b0: 314e 263e 0a56 d4bc 3675 d6bc bd4c 43be
000001c0: 8915 a5bd 2d60 953e 8316 56bc 86b5 9b3d
000001d0: eaf5 a9bc 732a b0bf 15fd af3d c7c6 183d
000001e0: 2045 013e 4270 e93c 1dcb 943d 1cc3 053d
000001f0: 76ff 203d ab46 253d fb77 eb3e c3e3 3c3e
00000200: d23a f3bd 9441 663d b804 46be 1081 a13d
00000210: 8526 09bd 7f3c 5abc 6af0 45be 1e02 083f
00000220: 9956 f1be 6cf0 fbbc 582e 70bc 5faa 25bc
00000230: 409a c93c 6ca2 0c3b 2abe 9c3a a55c 893c
00000240: f779 af3d e420 273e 6a99 393e b9d8 1e3e
00000250: e2b9 053d 73b0 13be 9229 89bd a3a1 bdbd
00000260: 241b 5cbe 272b debc 6b7f 3d3e 1622 813d
00000270: 026b 80be 66f6 0fbe bc5f 1d3d 9019 fcbd
00000280: aa6b c33d cdd4 8e3d 81bf 07bf db07 21bc
00000290: aeee 903b f36e d2bc 451b 013e f1ab a1bd
000002a0: cbba f43c ef0c 013e dbf3 9b3e 4ba8 fe3e
000002b0: 85f6 d5bd eec0 013e 9ab0 953b 26e2 14bf
000002c0: dd09 05be 1130 993d 2069 e6bd 3066 21be
000002d0: 7897 423e 964e 8ebe 1a2c 6e3c 1f58 89be
000002e0: 4d62 debd cd31 1e3b c94f 39be 97fb 263e
000002f0: 0fa7 cb3d 1595 283f 8fe9 cebd 6464 e53d
00000300: d9b6 26be dde4 2dbe fa6c d1bc 9f03 a5bd
00000310: eabd 713d 062c 763c ffaa 8fbc 823e 8fba
00000320: 7da0 303c 93ce 233e 707e 21be d071 74be
00000330: 9a52 8e3c ad13 4e3c c1fb bf3c 0895 45be
00000340: 8162 af3e add8 b03e c821 a9bd 8981 c2bc
00000350: e6f1 adbb f82f 30be 9035 d43d 0ba6 82bc
00000360: ca08 2f3d dc8e 55be 12be 0d3e 4c1f 6d3e
00000370: cc1a 31bd e14d b3b8 2785 91be f6cd bd3d
00000380: 2502 38be f917 693e debb da3d db75 3fbb
00000390: 2925 813d 35df 28be 65d0 983d d3f0 16be
000003a0: fd01 01be 8ebf 2abe 25da b7be 9620 ee3c
000003b0: b2d7 8b3d 3647 183e aef6 b63d 4d79 58be
000003c0: 0a07 0c3d d00e 803d 7aae 423c 0f8f 683e
000003d0: 78fb 8b3d 214a ecbe c0c0 a23e d565 72bd
000003e0: d7be 6a3d 1ced 64be 5199 013e ac1a 8f3c
000003f0: ce56 003f 46c4 40bd a2e8 4d3d e8fe efbe
-0.057509575 -0.030385466 -0.0073059266 0.13515754 -0.28897095 -0.029529419 0.21593231 0.07641012
0.27557546 -0.30765995 0.2939976 0.020393765 -0.10259846 -0.09365454 0.2073551 0.39789146
-0.11303265 -0.2293352 -0.5506583 -0.02501009 0.045335162 0.32608956 0.109665684 -0.025369694
0.02760799 0.10732335 -0.20966122 -1.9545244 0.03391276 0.13784319 0.071903124 0.03496423
0.01879452 0.01615979 0.0027873102 -0.0056489864 0.21824715 -0.16560131 0.071580246 0.116703555
0.14728995 -0.013249589 -0.013459289 -0.04625087 -0.027229875 0.49331188 0.0050967108 0.014188966
-1.0709951 0.20903684 -0.03425296 -0.055053577 0.055370145 -0.019153394 0.68953145 -0.015965326
-0.022690339 0.0027175106 -0.47844887 0.039022528 -0.02573656 -0.012245861 -0.05721925 -0.77336603
0.045469284 -0.70209515 0.09017473 -0.05856707 -0.8634372 -0.007595322 0.032527722 0.01356214
-0.6751044 0.17255807 0.030032914 0.008766296 0.2639195 -0.06403329 -0.043094393 0.20823859
0.11090003 0.30425337 -0.21485992 0.011943677 -0.3317373 -0.09748614 0.1868979 -0.0649098
-0.15628274 0.31302285 -0.27441397 0.08883024 0.18233348 0.0015996109 0.19919927 0.025213415
-0.16210608 -0.20305605 0.03801912 -0.08502639 -0.36121336 0.13836578 0.45842513 0.15651204
0.030486677 0.048595477 -0.022408728 -0.51551217 0.16240765 -0.025919933 -0.026178937 -0.19072242
-0.08060748 0.2917494 -0.013066891 0.07602982 -0.020747144 -1.3762954 0.085931934 0.037298944
0.12624025 0.028495912 0.07265303 0.032656774 0.039306127 0.040350597 0.45989975 0.18446259
-0.118764535 0.056214884 -0.19337738 0.07885945 -0.033484 -0.013320087 -0.19329992 0.5312823
-0.4713638 -0.03075429 -0.014659487 -0.01011142 0.024609685 0.0021459116 0.0011958529 0.01676781
0.08568185 0.1632114 0.18124929 0.1551236 0.032647975 -0.14422779 -0.06697382 -0.092593454
-0.21494728 -0.027120186 0.18505637 0.063053295 -0.2508164 -0.14058837 0.038421378 -0.12309563
0.0954202 0.06974182 -0.53026587 -0.009828533 0.004422984 -0.02568767 0.12608059 -0.07894123
0.029874226 0.1260259 0.30459484 0.49737772 -0.104474105 0.12671253 0.0045681717 -0.58157575
-0.12992044 0.07479871 -0.1125052 -0.15761638 0.19003093 -0.2779433 0.014536882 -0.26825044
-0.10858593 0.002413857 -0.18096842 0.16306911 0.09943973 0.6585248 -0.101031415 0.112007886
-0.16280688 -0.16981836 -0.02556466 -0.08057331 0.059019007 0.015025144 -0.017537592 -0.0010928663
0.010780451 0.1599677 -0.15770888 -0.23871541 0.017373372 0.012577933 0.023435475 -0.19295132
0.3425484 0.3454031 -0.082583964 -0.023743408 -0.0053083776 -0.17205799 0.10361779 -0.015948316
0.04273299 -0.20855278 0.13842037 0.2315647 -0.043238446 -8.549891e-05 -0.284219 0.092677996
-0.17969568 0.22763051 0.10680364 -0.0029214534 0.06305916 -0.16491397 0.07461623 -0.14740305
-0.12598415 -0.16674635 -0.3590862 0.029068273 0.0682825 0.14870915 0.08933769 -0.21140023
0.0341864 0.06252825 0.011882419 0.22710823 0.06835073 -0.46150306 0.31787682 -0.059179146
0.057310905 -0.22356075 0.12656142 0.017468773 0.50132453 -0.04706218 0.050270684 -0.46874166

conv_layers.0.bias f4 [32]
00000000: 210b 4bbf ff25 23bf f73b 123f 3d34 263f
00000010: f938 e4be 5cc0 133e d211 a43c 008a 1c3f
00000020: 009e 743c 1ab7 98be fc8c ab3e 5e11 04be
00000030: 7fca 1fbf c435 2f3f b30c 35bf ff9d 993e
00000040: 851d 10bf f814 013f 6ff8 0a3f 6938 bb3e
00000050: 277e 0d3f 37db 2ebf 1086 aa3e 1880 72bf
00000060: 3057 f03e be1e e03e b0b1 223f 1a22 35bf
00000070: 88cb 5ebd 12cb c43e 7819 0d3f 8b63 34bf
-0.79313856 -0.6372985 0.5712275 0.6492346 -0.44574717 0.14428848 0.020028029 0.6114807
0.014930248 -0.29827195 0.33506 -0.1289725 -0.6241836 0.68441415 -0.707225 0.30003354
-0.56295043 0.5042262 0.5428533 0.36566475 0.5527062 -0.68303245 0.33305407 -0.94726706
0.4694152 0.43773454 0.6355238 -0.7075516 -0.05439332 0.3843618 0.5511699 -0.7046439

fc_state.0.weight f4 [64, 512]
00000000: a058 2b3c e34d 88bc 9678 a5bc bc7b f7bb
00000010: b50c 013d 5d39 10bd 4534 a83c 3058 21bd
00000020: b126 fe3c afbd 82bc e6f8 b6bc 1524 0e3d
00000030: 7647 dd3c 4584 bebb ac5c a13a 80cd c23c
00000040: d55a f43c f0f5 e6bc df5b 2dbc bc73 eb3c
00000050: 082e de3c cd7d 24bb f56d 06bc b7e4 d53b
00000060: dd5d 8fbc 6a79 d33c 1106 04bd 3c9d 423c
00000070: a796 633c 0635 95bc cacf d73c dcb8 063d
00000080: cb0f 033c a383 42bd 2f56 a83c fb26 f03b
00000090: eb83 303c b347 8b37 031d 65bb 52a7 c8bc
000000a0: bccb 16bb 062f 0cbd 8ddb ed3c b0c9 6d3c
000000b0: 65e6 ce3a 2cc5 3dbb 9efc bd3b 198b 25bd
000000c0: 7db4 ccbc 1312 3ebd 40e8 e0bb e86b 093d
000000d0: e8ba 41bd 1962 f13c 0417 4e3c 890a 6abc
000000e0: fd79 25bd 7194 0fbd d4a4 ccbc 67cd 233c
000000f0: 5941 393c d421 2a3b e376 36bd 8eb7 2fbd
00000100: a260 9d3c c93a 483c 00b9 273c f0e4 ccbb
00000110: e747 fb3c 9d29 b43c be22 973c 3165 b23c
00000120: 44fc cc3b ffd9 ec3b ef97 df3c e61f 123c
00000130: f072 d5bb caa4 cabc 7854 0abd 1596 f5bc
00000140: d48e f83b a1fd 203d 083d 23bd 206e 03bc
00000150: d6b0 183d e825 343c a497 0b3d 12d1 223d
00000160: 4c8c 1e3c b731 5cbc 4118 c1bc c092 40ba
00000170: a4b1 15bc ac4c c53a 20e5 94bb 0d4e 6d3c
00000180: 217a 47bd 748e dabc 28a2 923c e618 40bc
00000190: c17b 35bc 2d6a 9bbb d1bc 22bd 8302 30bc
000001a0: c02f 12bd a5f0 3cba 3f19 00bd 35c3 12bd
000001b0: 9332 193c 3387 da3b 31e1 c23c 6c3f 833c
000001c0: bca7 853c cbb5 41bb 3e53 7c3b d61f 9f3b
000001d0: 274e 253c 3464 0abc f69b a33c 20dd 8bbc
000001e0: 1f8a e23c de9c 3fbd 7aee 083d 2633 213d
000001f0: aef6 053d 0214 21bd 49a9 f2bc abfa a1bc
00000200: c838 063d 9a3b 123c a4df 2cbd ba98 a1bc
00000210: df6b 173d 48d3 9d3b cd2c 0ebd a938 74bc
00000220: 330b 303d 3f32 9a3c ce11 ae3c 32a9 4e3c
00000230: c0ec 383c 6054 0fbb 23df 8c3c 294b d33c
00000240: 074e f53c e237 afbc a784 26bd baaf 033d
00000250: a087 743c 6e38 d43c 5aa4 40bd f970 1b3c
00000260: af25 2a3d a46d 2cbd b515 e3bb f92b c33a
00000270: 906b 22bd e0dc 1f3d e3b4 ae3c e414 8c3c
00000280: d05e b1bb 029c ccbc 4406 d83b 918f 85bc
00000290: 1d8d c43c 4e61 ba3c d03b 72bc c093 d33c
000002a0: f350 15bb a585 2ebd aeba e33b 56b1 013d
000002b0: 05a4 c23c 6fc5 d93a 5a24 d6bc d3a9 11bd
000002c0: 8a0b 1cbd 112c a1bc 963d 2abd 1756 e3bc
000002d0: abc6 003d c873 173a 969e 1f3d bc56 dfbc
000002e0: c613 b23c 6030 043b 8080 c43a 8f84 233d
000002f0: 4b3e 2ebd 80bf 81bc c0cf 7cba 187a b7bb
00000300: 2427 b0bc 179e bcbc 982a 1dbd cbb7 29bd
00000310: 697a a73c 5cc0 4b3a 965c 1ebd 624f 0cbd
00000320: 18a2 eebc 37c4 4abc 36e2 943c dd19 21bc
00000330: aa80 03bd f72b 21bc 8c5d 3dbd 6302 e0bc
00000340: 34c3 03bd def4 61bc 03ab cfbc 8cda 12bc
00000350: 8ef5 1d3d 0456 f53b 0870 5c3c 4904 2bbd
00000360: 48c2 083d 7daf c1bc 003d 91bb e66e 27bc
00000370: 38f4 a3bc 970c 8abc 675d 1abc 990c fe3c
00000380: 76ab 2bbd ca77 683b 881f 833c bacb 183b
00000390: 614f 0ebd eade ad3c 73a3 ffbc 888a a0bb
000003a0: 1e33 28bd 9fbb 1c3c 959f bc3c d97d eebb
000003b0: 28b8 1a3d 367b 0cbd a570 18bc 4b8e 1e3a
000003c0: e947 f1bc 3345 98bc 9872 2ebd 2029 b03c
000003d0: 3215 963c 60eb 3d3c 4885 0c3d b9aa fdba
000003e0: 8171 c2bc b876 32bd 6804 8f3c b706 10bd
000003f0: 9ed6 a23c 9616 25bd 2ab6 0a3d 7b36 d5bc
0.010458142 -0.016638702 -0.020199101 -0.007552592 0.03150626 -0.035210956 0.020532737 -0.039390743
0.031024309 -0.015959589 -0.02233548 0.03470238 0.027011614 -0.0058141076 0.0012310944 0.02377963
0.029828468 -0.028193444 -0.010580986 0.02874171 0.027121559 -0.0025099397 -0.008204927 0.006527509
-0.017500812 0.02581473 -0.032232348 0.011878308 0.013890899 -0.01821376 0.026344199 0.03289114
0.007999371 -0.04748882 0.020548908 0.0073288656 0.010773639 1.6603479e-05 -0.003495992 -0.024493847
-0.0023009619 -0.034224533 0.029035354 0.014513418 0.0015785216 -0.0028956635 0.0057979366 -0.040415857
-0.024988407 -0.046403956 -0.006863624 0.033550173 -0.04729739 0.029465722 0.01257873 -0.014284738
-0.04039954 -0.035053674 -0.02498094 0.009997702 0.011307084 0.0025960105 -0.044546973 -0.04289966
0.019211117 0.012221047 0.0102369785 -0.0062528774 0.030673934 0.021992499 0.018449184 0.021776767
0.0062556583 0.0072281356 0.027294127 0.008918738 -0.0065139458 -0.02473678 -0.033771962 -0.029978791
0.007585386 0.03930438 -0.039853126 -0.008021861 0.03727802 0.010995366 0.034080163 0.039750166
0.009677004 -0.013439587 -0.023571135 -0.0007346086 -0.009136591 0.0015052757 -0.0045439154 0.014483941
-0.048700456 -0.026679255 0.017899588 -0.011724686 -0.0110768685 -0.0047428817 -0.03973085 -0.010742786
-0.03569007 -0.00072074897 -0.031274077 -0.035830695 0.009350437 0.006668949 0.02378902 0.016021453
0.016315334 -0.002955782 0.0038501765 0.00485609 0.010089434 -0.008446742 0.019971829 -0.017073214
0.027653752 -0.04678046 0.033430554 0.03935542 0.032705955 -0.03932572 -0.029621737 -0.019772848
0.032768995 0.008925343 -0.042205468 -0.019726146 0.03696811 0.0048164465 -0.034710694 -0.014906087
0.04297943 0.018822787 0.021248724 0.0126135815 0.011286914 -0.002187036 0.017196244 0.025792675
0.029944433 -0.021388952 -0.04065385 0.032150008 0.014924914 0.025905814 -0.047031738 0.009487384
0.041539844 -0.04209675 -0.006930078 0.0014890424 -0.03965336 0.039029002 0.021326488 0.017099805
-0.005412914 -0.024976734 0.006592544 -0.01630381 0.02399307 0.022751477 -0.014784768 0.025827289
-0.0022783845 -0.042607922 0.006949744 0.03166326 0.023759851 0.0016614626 -0.02614038 -0.035562348
-0.038096942 -0.019674333 -0.04156264 -0.027751012 0.031439465 0.00057774456 0.0389696 -0.027263038
0.021737944 0.0020170435 0.0014991909 0.03992134 -0.042539876 -0.015838385 -0.0009643994 -0.0055992715
-0.021503039 -0.023024602 -0.0383707 -0.041435044 0.020444112 0.0007772499 -0.038662516 -0.034255393
-0.029130027 -0.012375883 0.018174272 -0.009832826 -0.032105125 -0.009837142 -0.04623179 -0.027344888
-0.032168582 -0.013791291 -0.0253501 -0.008963238 0.038564257 0.0074870605 0.013454445 -0.041752134
0.033388406 -0.02364325 -0.0044323206 -0.010219311 -0.020013914 -0.016851706 -0.009421683 0.031011866
-0.041911565 0.003547179 0.016006246 0.002331479 -0.03474367 0.021224458 -0.031205868 -0.0048993267
-0.041064374 0.009566217 0.023025313 -0.007278186 0.03777328 -0.03429719 -0.0093042 0.0006048425
-0.029453235 -0.018587684 -0.042589754 0.021503985 0.018320654 0.011591762 0.034306794 -0.0019353247
-0.023735764 -0.04357025 0.017458156 -0.035162654 0.019877728 -0.040304743 0.03386513 -0.026026955

fc_state.0.bias f4 [64]
00000000: d4cb 6ebb bc22 02bd 98eb 873d 9c2c f9bc
00000010: 8185 c239 36e3 16bc 0a75 acbc 9b48 e23c
00000020: 54aa 643d 7cb7 043d 3272 ef3c 2376 d0bd
00000030: 738e cebc dc50 0f3d c33b bd3c 9770 4e3d
00000040: bf98 cabc 7e5f 3bbd 68b7 41bd b7e5 d83d
00000050: 7844 2fbd 7fed dfbc 9530 8cbc 4be7 12bd
00000060: 208f ab3c e74a ed3d c780 6c3c b6d3 02bb
00000070: 27ef 1bbd dcb0 ca3d d804 b9bc a2ba e53a
00000080: dcc2 40bd 0433 adbd a141 14bd f6b9 873d
00000090: a3bc 31bd b34b 35bd fbe1 833d 1714 b5bd
000000a0: 995d f6bb 8350 36bd 0521 c83c f6ab e0bc
000000b0: e26f d43d 3ab2 3bbb daaf 143d 49e9 b4bc
000000c0: 3099 05bd 9b33 ad3d 89f9 fabc 3395 c13b
000000d0: 388b 3abd 5400 6ebd b5c5 733d 2ac7 6bbd
000000e0: 351e e2bb 4b7d e33d b0ff d6bc d8ad a43c
000000f0: a101 94bd 6a2f 373c f52d 7ebd a08e d23c
-0.003643741 -0.031771407 0.06636733 -0.03041678 0.00037102032 -0.009209445 -0.021051902 0.027622512
0.0558265 0.032401547 0.029229257 -0.10178783 -0.02521441 0.034989223 0.023099786 0.050400343
-0.024731038 -0.045745365 -0.04729405 0.1059069 -0.042789906 -0.027334927 -0.01711301 -0.03586511
0.02094227 0.11586552 0.014435 -0.0019962615 -0.03806987 0.098970145 -0.022585317 0.0017526934
-0.047060832 -0.08456996 -0.0361954 0.06627266 -0.04339279 -0.044261646 0.06439587 -0.088417225
-0.007518482 -0.044510376 0.024429807 -0.027425747 0.103729025 -0.0028640167 0.036300518 -0.022083895
-0.032616794 0.084571086 -0.030636566 0.0059076785 -0.045542926 -0.05810578 0.05951472 -0.057562985
-0.0069005736 0.11107882 -0.026244968 0.020102426 -0.07226873 0.011180738 -0.062055547 0.025702775

fc_state.2.weight f4 [32, 64]
00000000: f9f2 debd 8add b83d a4a2 933d a0f0 513d
00000010: 3e9b ec3d 4775 a1bd 47ba 28bc 55c1 eb3c
00000020: d63b 13be 3158 d5bd 0b09 4e3d 3bdb f2bd
00000030: 6807 eabd 8d62 24bf baf7 4bbd da89 003e
00000040: 2fda efbd aede e33d e999 8a3d be14 cbbd
00000050: 5395 dcbd 06b0 123d b5cd b2bd 9748 82bd
00000060: 8bb9 e83d a560 bebd 3121 53bc fc4b 843d
00000070: 0dcb f63c e353 513a 6add 8dbb 19b4 0fbf
00000080: ef84 053e e1e6 53be c10a d7bd 5e7e fabe
00000090: e6e5 85bd 90d6 773c 59fd 82be 8c9f 8fbe
000000a0: 850e 913d bffc e1bb 7f4b a63d 090b 1ebd
000000b0: 1769 073e b9cc 38bc 1c47 09be c3de 90bd
000000c0: 8700 e43d dcce 3ebd 9522 553e 4c73 6e3d
000000d0: 4c4c a83d b5a0 b23d 0440 3d3b b8c1 c8bd
000000e0: c960 e13c 0099 ccba 22d3 e33d 441a 203e
000000f0: 821a cd3d fc7f 6f3b a76f 6dbd 9425 c8bc
00000100: efa4 be3d 8d77 f1bd 726a e63d 282b 33bb
00000110: cd17 753d d960 873d ae79 093d 67c3 8cbd
00000120: ee35 c53c e8f1 e5bd 1fae e03d 103e c4bd
00000130: d3d3 813d 6282 d93d 5757 69bc 0b32 0abc
00000140: 0277 0dbd 38aa 453d 754b 15ba a747 1a3e
00000150: 646f babb 5ca8 3b3d 53e1 053d bbfd b73c
00000160: a58f 4bbc 6d72 2cbd 9a3d 923d 7c14 aa3c
00000170: a991 993d ac7d 343e 7848 4cbb 494a 933e
00000180: 3fee a63d 1c2b ee3d ebed 753d 05cc 943c
00000190: 0213 0f3e 7222 f5bd bde2 133e a470 73bc
000001a0: d2ea e03d eac6 5b3d 46c8 633d 85e7 cfbd
000001b0: 2e1d 8d3d 8d76 86bd 2388 4a3e 0f3f a63d
000001c0: 04eb 30bc aaf8 6c3e 50f7 133d 86cb a13d
000001d0: ef48 b9bc b8fe 6a3d 499b 5ebd b077 17bd
000001e0: 8522 45bd 5517 6a3e 7ef4 c7bd 4889 68be
000001f0: eeb0 4ebd 6c00 693d 7b61 0b3d b9e3 403e
00000200: 9186 dc3d b092 28bd c06c 4b3c e93e d63d
00000210: 0538 c73d 8579 e03d 9e6c 7cbd 67bf 85bd
00000220: fdfe df3e f0bd 8a3d 8609 373b 5ee1 6fbe
00000230: 28c7 09be 04d1 65be 9bb3 9dbd 7c6a 16be
00000240: 1787 adbc 006f 063d f186 a5bd d045 46be
00000250: d158 f8bd ff8d 8f3d 526e b43d aee9 5ebd
00000260: aaba bbbd 8c68 193e 8497 edbd 42c1 f23d
00000270: 2968 4dbd 963f 143e 9ef6 8a3d 938d aebe
00000280: 8175 c83d 332e dabd 40b1 f6bd 101a 05be
00000290: 6187 33bd 72e4 d73d 7076 d73b 2f43 57bd
000002a0: 7117 e33d 0ba2 30bc 8a65 e43d d1c9 f93d
000002b0: f98a cabc 8385 cabd 6018 0d3c d266 f9bc
000002c0: e803 643b 9d46 703e 05d4 f1ba 9282 eabc
000002d0: 4807 e2bd a834 e53d bbb5 a2be d90e 973d
000002e0: ae48 91bd 3a5c a5bc f2dd 38bd a5ca 65be
000002f0: 82cd d73b b5fc 493d a32e a4bc d86a b8ba
00000300: 424d f43d 5b12 ebbd 8e94 afbe e895 743d
00000310: a99e 713d 082e bf3c 4852 30bd 54b2 a23d
00000320: 9927 dfbe a967 503d 746b c8bc d04c f13c
00000330: 8ade abbd ddf2 d3bc 5aae 1d3d 8047 0ebf
00000340: cf6d b5bd f79e 1dbd 392e 723d f722 1f3e
00000350: f2a7 8fba 8c4e 9ebd 183e 59bc fe1d 29bd
00000360: 6fd3 063d 31ab e33d 7c1e c33d 55de b7ba
00000370: 40f1 7a3d 2906 e4bc 2217 e9bd d44b ee3d
00000380: ae11 11be 4284 1b3c 0586 9e3d 3032 a83d
00000390: 266a bb3d 1e42 48bd 8352 e6bd 8f47 e73a
000003a0: 7ed1 a73d 0dd9 4b3d 57dd 133c ae2b 853d
000003b0: 72b8 543e dc3c e9bd 0661 97be 959a 84bc
000003c0: f2b4 a23d b901 613e a8c1 f4bd 6643 03bd
000003d0: 0d64 a2bd b37b e43d cb7f 6d3c dbc6 7fbd
000003e0: fc5e f03d 9166 033e ee18 42bd 8d9d 4ebd
000003f0: 6394 7bbd df4f cbbb 2c9b bfbd 9820 16bf
-0.10886187 0.0902663 0.072087556 0.05125487 0.115530476 -0.07883697 -0.010298318 0.028778711
-0.14378294 -0.10417212 0.050301593 -0.11858221 -0.11427194 -0.64212877 -0.049796797 0.12552586
-0.11711537 0.11126457 0.06767637 -0.09916066 -0.10770669 0.0358124 -0.08730642 -0.06361502
0.113635145 -0.09295777 -0.012886331 0.06459805 0.030126119 0.00079852174 -0.004329373 -0.5613418
0.13038991 -0.20693542 -0.10500098 -0.48924536 -0.0653799 0.015126839 -0.25583914 -0.28051412
0.070828475 -0.0068965848 0.081198685 -0.038584743 0.13223682 -0.011279278 -0.13406032 -0.070737384
0.11132913 -0.046583995 0.20813973 0.058215424 0.082176775 0.08722059 0.0028877268 -0.09802574
0.027511971 -0.0015609562 0.11124255 0.1563502 0.100148216 0.003654479 -0.057967808 -0.024431981
0.09308802 -0.117903806 0.112507716 -0.0027338956 0.05983715 0.06610269 0.03356331 -0.068732075
0.024073567 -0.112277806 0.10970711 -0.0958215 0.063392304 0.10620572 -0.014242015 -0.008434783
-0.034537323 0.048258036 -0.0005695143 0.15066396 -0.0056895483 0.045814857 0.03268559 0.022459855
-0.012424384 -0.042101312 0.07140656 0.02076172 0.074984856 0.17626065 -0.0031171124 0.28767613
0.081509106 0.11629316 0.06004135 0.01816369 0.13972095 -0.119694605 0.14441963 -0.014858399
0.109822884 0.053656496 0.055610918 -0.10151581 0.06890331 -0.065655805 0.19778495 0.08117496
-0.01079822 0.23141733 0.036124527 0.07900147 -0.022617785 0.057371825 -0.05434731 -0.036979377
-0.048128624 0.22860463 -0.0976343 -0.22708619 -0.050461702 0.056885168 0.03402851 0.1883687
0.10767854 -0.041155517 0.012416065 0.10461218 0.09727482 0.10960678 -0.061627023 -0.06530648
0.43749228 0.06774509 0.002792926 -0.23425815 -0.13454878 -0.22443014 -0.07700273 -0.14689058
-0.02118258 0.0328207 -0.08082379 -0.19362569 -0.121263154 0.070095055 0.088101044 -0.054422073
-0.09166463 0.14981288 -0.11601165 0.11853267 -0.050148163 0.14477381 0.0678532 -0.34092388
0.09788037 -0.10653343 -0.120455265 -0.12998223 -0.04383028 0.10541619 0.006575398 -0.052554306
0.110884555 -0.010780822 0.111521795 0.121966965 -0.02472447 -0.098887466 0.0086117685 -0.030444536
0.0034792367 0.23464437 -0.0018450028 -0.028626714 -0.11036545 0.11191684 -0.31779274 0.07375879
-0.07093941 -0.020185579 -0.04513354 -0.22440584 0.0065857777 0.049313266 -0.02004177 -0.0014069928
0.11928798 -0.114781104 -0.34293026 0.059713274 0.0589892 0.02333738 -0.04304722 0.0794417
-0.43584898 0.050880108 -0.0244653 0.029455572 -0.08392055 -0.025872642 0.038496353 -0.5557785
-0.08858835 -0.03848168 0.059126113 0.15540682 -0.0010960086 -0.077298254 -0.013259433 -0.04128837
0.032916483 0.111166365 0.09527299 -0.0014028052 0.06126523 -0.027834969 -0.11381365 0.11635557
-0.141669 0.009491982 0.07740406 0.082126975 0.091511056 -0.04889118 -0.112462066 0.0017645227
0.08194254 0.049767543 0.0090249395 0.06502472 0.20773485 -0.11388561 -0.2956621 -0.016186992
0.07944669 0.21973313 -0.119509995 -0.032046698 -0.079292394 0.11156406 0.0144958 -0.062445503
0.11736867 0.12832095 -0.047387056 -0.05044322 -0.06142081 -0.0062045897 -0.093557686 -0.58643484

fc_state.2.bias f4 [32]
00000000: 176f 283d e812 323e 4c18 00bc d100 3d3e
00000010: ae80 21be 5c76 713e 41e2 413d 4461 97bd
00000020: c095 9a3d 5b6b 3c3d 7648 20be be10 1a3e
00000030: 7ce8 4abe b1d4 573e c319 f9bc 0454 1abd
00000040: b7af 02bd 86da 80be 6a1e 2a3e d290 333e
00000050: ca85 02be b0ce c63c 63bd 2ebe 537a f23a
00000060: f5ea 7a3d a892 4dbd fb0b 843e 6676 5e3e
00000070: ed3a a1bd 87f5 3a3e 18c5 563d 0f95 86be
0.04112157 0.17390025 -0.007818293 0.18457343 -0.15771744 0.23580307 0.047334913 -0.07391599
0.07548094 0.04600082 -0.15652642 0.15045449 -0.19815248 0.21077229 -0.030407792 -0.03767778
-0.031905856 -0.2516672 0.16613165 0.17535713 -0.12746349 0.024268478 -0.17064433 0.001849959
0.06125923 -0.05018869 0.2579039 0.21724853 -0.07872567 0.18257724 0.052434057 -0.26285598

fc_state.4.weight f4 [1, 32]
00000000: 1603 d6be c4be 2b3e 1160 7d3e d66f b4be
00000010: 5cf1 47be 2fb5 92bd 928d c73d f285 54be
00000020: d8af 1ebe c3c3 a4bd e7c3 4f3d 2c5b 94be
00000030: 83a6 e8bd 63e3 42bd 9a6a 28bb 6325 fc3d
00000040: bd57 843e 5b5b 6ebe 7345 193e 47b3 c43d
00000050: a8eb 4a3e 5ea6 d43d 439f 12be 1aad 5bbe
00000060: 6ee4 14be cb94 0dbe d9c4 27be b380 a5be
00000070: a9a7 913b 0337 1ebd ed25 343e 4b00 8cbe
-0.4179923 0.1677199 0.24743678 -0.35241574 -0.19525665 -0.07163464 0.09743799 -0.20754221
-0.15496767 -0.08045151 0.050723936 -0.2897581 -0.113598846 -0.047580134 -0.0025698305 0.123118185
0.2584819 -0.23277037 0.14967899 0.09604507 0.19816458 0.103832945 -0.14318566 -0.21452752
-0.14540264 -0.13826291 -0.16383685 -0.32324752 0.0044450355 -0.038626682 0.17592593 -0.27343974

fc_advantage.0.weight f4 [64, 512]
00000000: b647 2cbd fd05 18bd e4bd ddbc 23d4 753c
00000010: bf21 be3c 393e e9bc 6a2f ecb8 7299 c23c
00000020: 0e41 423c 573e dfbc 4e06 ecbc 5e9e 50bd
00000030: 26a8 87bc 1b8b 3bbd 78c5 2ebd 0903 733b
00000040: b4c6 54bd 6b7e 08bd 2b05 bb3c b481 853c
00000050: 1dd6 f23c 603a c93c 4360 e4bc cae8 16bd
00000060: 87d4 8e3c 73d9 81bc 3773 323d 3bcb 933b
00000070: d4f6 1fbd b1dd 39bd bc2e f23c 7182 cf3c
00000080: 39b0 f03c e226 c3bc 0cfe e23c 1233 1cbd
00000090: 0068 bc3c 6713 04bd a102 8bbc 882e 09ba
000000a0: 3fdc 313c 9530 1bbc f00c 093c 5ea6 fabc
000000b0: df3f 9bbc e13f e93c e562 d93c 0e21 45bc
000000c0: 691f 313c 848a adbb 2579 38bc 2f34 33bd
000000d0: cbc1 e33b e76c a3bc 59bb 87bc 741d 263d
000000e0: 501d 07bd ab24 9bb9 020d 833c b7ee 25bd
000000f0: 874f 11bd a324 8a3c 8409 59bb 3716 233d
00000100: b24e 74bc 87db 33bd 8753 15bd 17d1 13bd
00000110: 18de ecbc dc81 a8bc 44dd 34bd a65f c6bc
00000120: a963 af3a 774f 6c3c c98d 07bd 738e 26bd
00000130: dd50 16bc 43e4 36bd 388d a23c ef80 4cbd
00000140: 23a4 743c 8954 0bbd 6d45 c4bb 2d53 2c3b
00000150: 74b0 4abd 38ba 123d 51fb 09bd fd30 07bd
00000160: 5f18 b9bc 9006 95bc 1df8 a13c 3b5e 233d
00000170: 0606 ab3c 1c4b 80bb 211e 06bd eb15 0d39
00000180: d4c6 6d3c 0aa3 c53c b72e 863c 5d11 40bb
00000190: bfce 073d 2d8c 663b 3b7c 2a3d d9c0 ee3c
000001a0: ad6f 83bc 3b9b 913b 5a6a b8bb 166d 273c
000001b0: 2f40 a53c c368 2cbd 6f98 bd3c 5345 933c
000001c0: b75e 0a3c f845 9d3c bd45 7abc dd69 a23c
000001d0: 77eb b43c 3f46 8dbc 5fb9 bebc 3d45 0b3d
000001e0: 7891 8bbc 572c 42bd 92e7 0f3c 604e cdba
000001f0: a3b1 35bd cf4c 2ebd f7c5 8a3c bc11 f53c
00000200: 67cb 813c 0e31 95bc d23f 9c3c a87c 323c
00000210: 6541 80bc 979f 06bd 5422 14bd 0e35 2fbb
00000220: a7bc 6dbb 23eb 013d 3067 19bd c098 79bc
00000230: 908d db3c 45ca a83b 7fb5 70bb af88 23bd
00000240: 3399 0abb d1ed d03c a39d 633b 882b 163c
00000250: 14be 1e3c c965 61bc a881 853c 732f 4c3c
00000260: 5d82 e3bc 6e49 d93b 3e27 d83c b3d9 cb3c
00000270: 80e0 fd3c 7d38 0e3d 52f4 3bbd ad9f 6d3c
00000280: 9e26 3f3c 9718 cfbc 8598 59bd 578c 683b
00000290: 18f8 80bc 5e3a 83bc ce29 43bd b0a7 40bd
000002a0: 96eb 93bb de74 883b 4295 e0bb 2e8b 49bb
000002b0: a8db 013d 50aa c439 f442 07bd a26d 883c
000002c0: 3990 183d 8a0b c3bc e4ae 193d 3cf1 acbb
000002d0: cd52 08bd 1b1e acb9 297a 323d 405f 273d
000002e0: 453a 1c3d 60cc 77bb 2137 1abd 1815 273d
000002f0: 8bce 23bd aadf b63a 313f b2bc efb1 6dbc
00000300: d1a8 b8bb 089e 6cbd 0b92 853c 56ae c13c
00000310: 1bbe 503c 7cf8 003d f85a e33b 2c34 c2bc
00000320: d028 3bb9 3219 ef3b 15c4 a73c e776 23bc
00000330: 77c6 eb3c 39f6 623c 10ce 353d b2eb 9a3c
00000340: 54ae c7bb 25bb 8e3c 908b 203d a87a ab3c
00000350: 0d45 d1bc 9d57 a8bb 5e33 1e3b 9c7e abbc
00000360: 4e40 0a3d 5188 4fbc e91e 15bd 1859 6d3c
00000370: d91b ad3c 936c 853c 85dc ab3c b8b6 3bbd
00000380: 975a dbba fc6c ebbc 8f6b c63b 8a3f 26bd
00000390: b9c7 3dbc 46f3 d6bb 51b7 49bd d1d5 e83a
000003a0: da88 bcbc f081 13bc 9421 92bb cdd5 62bc
000003b0: 7683 643c 3001 10bd bbce 22bd 77c4 f63c
000003c0: 8aed c0bb c1f4 ff3c 41ea 3abc 3338 e0bc
000003d0: ea1c 153c f28f 93bc ab31 30bd a27a 853c
000003e0: 5fca 36bd 4df1 3bbd 639d 1abd 635e 20bd
000003f0: 758d 6e3c 53f8 0c3d 70b3 3bbd 83ea aa3c
-0.042060576 -0.037115086 -0.027068086 0.015004191 0.02320945 -0.028472053 -0.000112621885 0.023754809
0.011856331 -0.027251406 -0.0288116 -0.05093228 -0.016559672 -0.04578696 -0.04266879 0.0037080667
-0.05194731 -0.033323687 0.022829613 0.016297199 0.029643113 0.024563968 -0.027877932 -0.0368431
0.017435325 -0.015850758 0.04356691 0.004510311 -0.039053753 -0.045377437 0.0295633 0.025330754
0.029380905 -0.023822252 0.02770903 -0.038134642 0.02299881 -0.032245066 -0.016969027 -0.0005233069
0.010855733 -0.009472032 0.008364901 -0.030596908 -0.018951355 0.028472843 0.026536414 -0.012031807
0.010810711 -0.0052960534 -0.011259352 -0.043750938 0.006950592 -0.01994939 -0.016568827 0.040555432
-0.03298694 -0.00029591224 0.015997414 -0.04051086 -0.035476234 0.016863173 -0.0033117244 0.039816108
-0.014911341 -0.04391053 -0.03645661 -0.036088075 -0.028914496 -0.020569734 -0.044156328 -0.02421553
0.0013381141 0.014423243 -0.0330942 -0.040663194 -0.009174553 -0.04465128 0.019842729 -0.04992765
0.014931711 -0.034016166 -0.0059897215 0.0026294694 -0.049484685 0.035822123 -0.03368694 -0.033005703
-0.022594629 -0.018191606 0.01977163 0.039884787 0.020876896 -0.0039152037 -0.032743577 0.00013454973
0.014512736 0.024125595 0.016379697 -0.0029307224 0.033156153 0.0035178766 0.04162238 0.029144691
-0.016044462 0.0044435537 -0.0056279125 0.010218879 0.020172207 -0.042092096 0.023143975 0.017977392
0.008445433 0.019198403 -0.015275416 0.01982587 0.022084935 -0.01724541 -0.023281751 0.034001578
-0.017037138 -0.047405567 0.008783238 -0.0015663616 -0.04435886 -0.04255372 0.0169401 0.029915683
0.01584406 -0.018211868 0.0190734 0.010893978 -0.015656183 -0.03286704 -0.03616555 -0.0026734504
-0.0036275776 0.031718384 -0.037451923 -0.015234172 0.0268009 0.0051510655 -0.0036729274 -0.039925274
-0.0021148443 0.025504025 0.003473141 0.009165652 0.009688873 -0.013757178 0.016297176 0.012462485
-0.027772123 0.006631068 0.0263859 0.02488408 0.030990839 0.03472184 -0.0458873 0.014503402
0.011666922 -0.02528028 -0.05312397 0.003548404 -0.0157433 -0.016019043 -0.04764729 -0.04703492
-0.004514168 0.0041643223 -0.0068537304 -0.0030753124 0.03170362 0.00037510926 -0.033022836 0.01665384
0.037246916 -0.023809213 0.037520304 -0.005277781 -0.03328209 -0.00032828827 0.043573532 0.04086232
0.038141508 -0.0037811026 -0.03765023 0.0407916 -0.039991897 0.0013952155 -0.021758648 -0.014507755
-0.005635359 -0.057767898 0.01630499 0.0236427 0.012740637 0.031486973 0.0069383346 -0.023706518
-0.00017848914 0.0072967047 0.020479241 -0.009977079 0.028781159 0.013852649 0.04438597 0.018911216
-0.0060937796 0.017423222 0.039195597 0.02093251 -0.025545621 -0.0051373974 0.0024139504 -0.020934395
0.033752732 -0.012666778 -0.03640643 0.014486574 0.021131443 0.016287124 0.020979175 -0.04582855
-0.0016735372 -0.028738491 0.0060553025 -0.04058794 -0.011583262 -0.006559762 -0.04924709 0.0017763918
-0.023014475 -0.0090031475 -0.004459569 -0.013844919 0.013947358 -0.035157382 -0.039747935 0.030122979
-0.005887692 0.031244637 -0.01140839 -0.027370548 0.009101132 -0.018012974 -0.043016117 0.016293827
-0.04462659 -0.04588442 -0.037747752 -0.039152514 0.014560093 0.034416508 -0.04582542 0.020863777

fc_advantage.0.bias f4 [64]
00000000: 26d3 4bbd ecc1 413e fefc 85be 8563 51bb
00000010: 9315 73be 107d e3be 7fce d03d 66c8 52bc
00000020: eb9e bcbc 59e7 46be 6a3c b53e d902 7fbd
00000030: 31c5 41bd 03af fcbd f3e2 51bd 9e25 8dbd
00000040: 5ed0 e5be 7d8c a83d a7c7 32bc 64c1 d1bd
00000050: 745e c73c 1fc9 30bc 507c 29bd d905 4f3e
00000060: efe0 063f 77de e7bc 546c 923d 30b7 0b3e
00000070: 86a7 be3d d37f 0bbd 05b6 00be 2adf 2fbc
00000080: 7ea1 3f3f e3bb a33d 97d9 123f c23b bebe
00000090: 95b5 29be d897 ec3d 0e3f 77be 91c5 a93d
000000a0: aebf c13e 51f7 cdba dac9 45ba d1f2 813d
000000b0: ddc7 c6bd 2043 5cbd 846d 0ebd 93ec 2ebc
000000c0: e859 993e 2872 0a3d d495 c73e 27f4 033e
000000d0: 8d41 b93e e77b 8c3d 5b4e c7bc 92dc 66be
000000e0: fe3f 143e 7258 013e c6d7 c0bc e3df 26bd
000000f0: 040a 293d 7926 88bd b2d6 b9bd b9da 8ebe
-0.049761914 0.18921632 -0.2616958 -0.0031950187 -0.23738699 -0.44431353 0.10195636 -0.0128651615
-0.023024997 -0.1942419 0.35397655 -0.062258575 -0.047307197 -0.12338068 -0.051241826 -0.068919405
-0.44885534 0.08229921 -0.010911859 -0.102419645 0.024337031 -0.0107901385 -0.04137832 0.20217074
0.5268697 -0.028304322 0.07149568 0.13644099 0.09309296 -0.03405745 -0.12569435 -0.010734359
0.7485579 0.07994821 0.57363266 -0.37154967 -0.16573174 0.115523994 -0.24145147 0.08289636
0.37841552 -0.0015713965 -0.0007545032 0.06345142 -0.0970609 -0.053774953 -0.03477241 -0.010676521
0.29951406 0.033800274 0.38981497 0.12886105 0.36182824 0.0685957 -0.024329355 -0.22545078
0.14477536 0.12631395 -0.023540389 -0.04074086 0.041269317 -0.06647963 -0.09074153 -0.27901247

fc_advantage.2.weight f4 [32, 64]
00000000: 7a20 c8bd 4666 56be e628 cc3d 9abc 6dbd
00000010: c12e 5ebd 4691 04be c24d e0bd c3b0 2e3e
00000020: d81a 2fbd 1650 0dbe f7ce 513c b168 193c
00000030: 3d8d 4e3d 7581 86bd b250 1e3d 6576 8abd
00000040: 0392 81bd 3936 323d e618 503d 7d3e 233e
00000050: 4510 cdbd e769 d0bc 2550 c2bd a7df 4fbe
00000060: 1a94 843d f9be aebd 7991 53be 6ea1 653e
00000070: 59a1 69bb 9dc3 7abc 2295 fc3d 5a4a 033d
00000080: 1b65 b23d 90a6 cbbc 5728 953b 99e3 43be
00000090: 7a78 993d 71bf e5bd 041c 81bd 77a4 e8bd
000000a0: a593 f0bb 92e3 0e3d d02c 4b3d 1dcd f6be
000000b0: 88db a53d 7577 863d 7332 4dbd 849a 7bbd
000000c0: a170 ed3d 25e5 58bd a157 6bbd 4acb b3bb
000000d0: 5105 303d 7f62 5ebe 9aa5 b13d 4d24 0abd
000000e0: 74e2 c4be fc41 ffbd 244d 69bb 29dd e43d
000000f0: 916c 033d 11b9 3abd c6c9 81be 79d8 9ebe
00000100: 7d57 29bd 4fed d4be 9fb3 1a3e 282a af3c
00000110: e844 21bd 4ff7 42bd bc44 7cbe e1dd 9f3c
00000120: 0f9f 9b3c 17ab 3ebe f4b8 36be 0a1d 87bc
00000130: b24b e4bc ad1b 5b3d f525 00be b6ae 29bd
00000140: f559 77bd 0516 a83e e0fe 893d c0e8 96bd
00000150: e868 35bd 0865 4cbe e9ad a3bd e2fb 4bbe
00000160: fc3d 5c3e b39f 603d edbe c4bd e15a 0d3f
00000170: f74c b73d 33c0 d53d dac4 c0bd fb76 89be
00000180: 1cf1 d63c 0f77 c73d c03e 093d 65d4 5abc
00000190: 214a fcbc 629e e3bd 5768 84be 0daa 503e
000001a0: de94 e0be 5098 0fbc 730a 66bd e825 13be
000001b0: 8879 6c3e 8714 7ebc 1fe1 1cbf d8da f6bd
000001c0: 1c5a 11bc d679 3ebe b14d ac3d 649d 02be
000001d0: 3dfd 093e f169 07bf 49db 62ba f3f2 373e
000001e0: 8652 3fbe fdbb cabc 3eaf 86be 1131 ad3c
000001f0: abe3 0f3e e424 3fbd a27c b2be e30d 2c3e
00000200: 36d7 96bd 7828 7dbe f7f3 7c3d 446b e23c
00000210: dfc2 1e3e 98d8 d83c 3b50 67be 6e6f fa3c
00000220: dc5e 9b3d 26c6 b33c 3fa2 a5bd 9a36 823d
00000230: 90e3 493d 4dae a3bd 3d59 603b 7070 913d
00000240: 26d6 203e 523a b63d 9281 8cbc 9b72 473e
00000250: 26be 54bd c4c9 453e 98bb 633d 0d57 3dbe
00000260: 275a 70bd 3534 e2bd 7fb4 8c3e 424a 1bbe
00000270: d8b4 503d 44fb 053e 1e11 c43d ebfa 3d3e
00000280: 4e94 23be 7d6e 363e 5aca 25be 5cdc 823c
00000290: 7d08 803d f839 a03e 5f47 f13d 3aeb c63d
000002a0: 2e44 583d 7b36 5b3d a56d 023e 6703 f1bd
000002b0: 5c9d fc3d e105 423b b002 d9be 1ca5 e33c
000002c0: 5364 cfbd 8383 413e 4f73 2fbe 59ee 4fbe
000002d0: cdb9 61bc 8304 64be a0d5 98bd ffea 5f3e
000002e0: 149c d83b b697 2a3e d2f6 69be 4493 1c3d
000002f0: 5610 9f3d dbc4 ae3d 6c34 5fbd 3716 583c
00000300: c78e e3bc 7d08 c13d cd5d 9abe 5871 ccbc
00000310: b0be 2cbe 50ba dcbe c17a 2cbb f3b5 30bf
00000320: 5137 cc3d 7298 0c3e 0b5e 2ebd 0c11 903e
00000330: 9cae dabd d579 36be 64ad b4bd eeda 013d
00000340: 5c77 513d c0e2 21be bc08 05be 667a e9bb
00000350: c6e6 3dbd 1228 823d 8cdd 7dbd 310f 8f3e
00000360: 1781 b4bd 9c50 02bd 8b02 0f3d d1a8 54bd
00000370: fdd5 e8bd d18a 4c3d 0841 32be 0231 7c3e
00000380: 01cd b737 9db6 71be fd6d 683d 8936 d3be
00000390: 72bb 73be f872 8e3d f81a 48bd 94a8 b2be
000003a0: 987f 2d3e de04 693d 0f1a f23d 1c61 673e
000003b0: b10b 9fbe 75d0 54bd 4129 d8bc b10e bb3d
000003c0: 1867 3cbe d3b7 193e 21cb 90bd 7783 953e
000003d0: b92b d4bc eb66 9f3e c171 473d e28d 5bbe
000003e0: dcb1 573e e211 063e 835c b73d e4ea c33d
000003f0: dae9 2fbe 899b b5bd 9bdc 583d 4e1e 1bbd
-0.097718194 -0.20937452 0.09968738 -0.058041193 -0.054243807 -0.12946042 -0.10952331 0.17059617
-0.04275021 -0.13800082 0.012805692 0.009363339 0.050427664 -0.06567661 0.038651176 -0.06760863
-0.06326678 0.043508742 0.050804995 0.15941806 -0.10012869 -0.025441123 -0.094879426 -0.2030016
0.06473561 -0.08532519 -0.20660962 0.22424862 -0.003564915 -0.015305427 0.12333132 0.03205333
0.087106906 -0.024859697 0.004551928 -0.1912979 0.07493682 -0.11218155 -0.06304172 -0.11359494
-0.0073418193 0.034884997 0.049603283 -0.48203364 0.08098513 0.06565753 -0.05009694 -0.061426654
0.11593748 -0.052952904 -0.057456616 -0.0054868804 0.04297382 -0.21717261 0.08674164 -0.033726025
-0.3845402 -0.124637574 -0.0035598958 0.111749955 0.03208596 -0.04558665 -0.25349253 -0.3102453
-0.0413432 -0.41587302 0.15107583 0.021382406 -0.039372355 -0.047599133 -0.24635595 0.01951498
0.018996743 -0.18619953 -0.17843992 -0.01649334 -0.027868126 0.05349319 -0.1251448 -0.041426383
-0.060388524 0.328293 0.06738067 -0.07368612 -0.0442895 -0.19960415 -0.07992155 -0.19920304
0.2150802 0.0548398 -0.09606729 0.55216795 0.08950227 0.1043705 -0.094125465 -0.26848587
0.026238017 0.097395055 0.03350711 -0.013356303 -0.030797066 -0.111141935 -0.25860855 0.20377369
-0.43863577 -0.0087643415 -0.05616231 -0.14369929 0.23093235 -0.015507824 -0.6128101 -0.1205346
-0.008871581 -0.18601164 0.08413256 -0.12755352 0.13475509 -0.5289603 -0.0008653892 0.17963772
-0.18683824 -0.024747843 -0.26305574 0.02114156 0.14051692 -0.04666604 -0.34860712 0.16802172
-0.07365267 -0.24722469 0.0617561 0.027639039 0.15504025 0.026470467 -0.22589199 0.030570712
0.07586452 0.02194507 -0.080875866 0.06358071 0.049289286 -0.079922296 0.0034232878 0.07101524
0.15706691 0.088978425 -0.017151628 0.19477312 -0.051939152 0.19315249 0.055598825 -0.18490238
-0.058679726 -0.11045114 0.27481458 -0.15165046 0.050953716 0.13084131 0.09573577 0.18552749
-0.15974542 0.17815585 -0.16190472 0.015974216 0.06251619 0.31294227 0.11781191 0.09712835
0.052799396 0.053518753 0.12737139 -0.11768227 0.123347014 0.0029605555 -0.42384863 0.027788691
-0.10126557 0.18897824 -0.1713383 -0.20305766 -0.0137772085 -0.22267346 -0.07462621 0.21866988
0.006610403 0.16659436 -0.2284806 0.03822638 0.07766788 0.08533641 -0.054493353 0.01318889
-0.027778042 0.09425447 -0.3014969 -0.02495639 -0.16869617 -0.43110895 -0.0026318284 -0.6902763
0.09971488 0.13730028 -0.042570155 0.28138006 -0.10677835 -0.17819913 -0.08822134 0.03170293
0.05113922 -0.15809155 -0.12991613 -0.0071251867 -0.04636266 0.06355299 -0.06197886 0.27941278
-0.088136844 -0.031815156 0.034914535 -0.05191881 -0.1136894 0.049937073 -0.1740762 0.2462807
2.1910762e-05 -0.23604818 0.056745518 -0.41252545 -0.23801973 0.06955522 -0.048853844 -0.3489424
0.16943204 0.056889407 0.118213765 0.22595638 -0.31063607 -0.051956613 -0.026386859 0.091336615
-0.18398702 0.1501153 -0.07069994 0.29201862 -0.025899755 0.31133208 0.04869247 -0.21440843
0.21063942 0.13092759 0.08953192 0.09566286 -0.17179051 -0.088675566 0.05294476 -0.037870698

fc_advantage.2.bias f4 [32]
00000000: 84eb 393d b45e 543e 2358 1cbe c507 fbbc
00000010: 1798 43be 41e8 4d3e 4362 e7bc eff6 643e
00000020: 8a21 a43c 473c 87bd 2f9b a43e f30d 5dbe
00000030: 9739 19bf 97ac 3d3b 149e 453d 28d9 3dbe
00000040: ef00 60bd 2328 283d af12 b4bb d762 043e
00000050: f8bb dcbd 790e 59bc c289 fc3d f350 083d
00000060: 45f3 163e 1b53 a6bd 110a 993e f190 cebe
00000070: 145c 043f 708e eb3d e9c5 0cbf ee2a cf3e
0.04539062 0.20739251 -0.15267996 -0.030643353 -0.19100986 0.20108129 -0.028245097 0.22359823
0.020035524 -0.06603294 0.32149646 -0.21587352 -0.598535 0.0028941983 0.04824646 -0.1853987
-0.05468839 0.041053902 -0.0054953913 0.1292833 -0.1077804 -0.013248079 0.12330963 0.033280324
0.14741237 -0.0812132 0.29890493 -0.40344957 0.51703 0.11501777 -0.54989487 0.4046244

fc_advantage.4.weight f4 [6, 32]
00000000: 78a6 563e 548d fcbd c3a4 493d 7c67 fd3c
00000010: 3d38 243d 68c4 a33d bfdb 47bd 0cbc 713e
00000020: 61c7 973c 0cf1 743e f7ad 4dbe c744 773d
00000030: 542d e53c 1a88 743c bbd0 7dbd 27c2 06bd
00000040: b5c9 c5bb 3ef7 c6bd b278 6a3d 6d0c d0be
00000050: 7669 15be 6642 243e 714d e23d 13dc babe
00000060: e359 a13d fe2b a83e c50b bbbd 4a5d 4b3e
00000070: 1625 283e 3c50 cfbc ab2a 313d a15a 23be
00000080: 05c7 a6bd 6a29 773c efcb f9bc 3baf 373d
00000090: ba5e f0bd a01f db3d 73af d5bd a57d 62be
000000a0: 7736 703e b0bd 16bc 70ce 8eba 8a7a e83c
000000b0: 2492 043e c33f ea3e 89e1 8abe b97d 263d
000000c0: 7a75 2d3d 3bd2 84bd f151 123e 30e1 13bd
000000d0: 99ab 93bd 69b9 b7bd 4a71 d1bd 0a03 6c3d
000000e0: 09e4 80bf aaa4 873e a472 7bbe 6e3e 133e
000000f0: b56a 153e bcc9 ac3e 7a2c d9bc 3dda e3bc
00000100: a623 393e 838b 93be 842b a53d 84ed e7be
00000110: ed80 99be 9853 16bf bb85 65bd 1fb8 9bbd
00000120: 8317 aebe 99d1 2ebd c5c3 3c3e c6fb d0bd
00000130: 1c9d 023e 8269 e2be d0c9 69bc 6fa2 803b
00000140: a0bb 503d 32aa f13e b4a6 7e3d d3f4 303d
00000150: 4006 573e 2566 04be b85d 24bd da7b b03d
00000160: db61 c93e 5d6a 3a3c 5e1b 47be aa6e 603e
00000170: a197 fd3d 4813 dabe d0e5 3a3d 05dc 0dbd
00000180: 1074 583d 7ec5 84bd be56 86be 6d87 b3bd
00000190: e250 ab3e 1c89 3c3e 3924 f43e c719 503d
000001a0: cf2a 113d f6fb 183d 5d59 43be 5cc7 96be
000001b0: 1df3 38be bb24 1f3d 5f39 473e a96b 98b9
000001c0: 3fec e03d f31b 00bf 3ad1 b2be 164d 123e
000001d0: 48d0 ac3e 7c06 273e 2bd7 ccbd 64c3 b53d
000001e0: 7b81 4d3d 1dbc b5be edb3 21bf 4634 f53e
000001f0: f8db 7e3e 246d f73d 4634 b83e 8841 833e
00000200: 5f3e c13e 3369 9d3e 3814 22be 7a1f 30be
00000210: 1054 df3d 2a96 a03d ce62 6bbe 30ca b83d
00000220: 3496 a1bd 8547 aa3d 2c81 65be 4035 173f
00000230: 5939 bcbe 2e10 0a3d 7e3f af3c 9931 60bd
00000240: 51a3 9a3d eee9 86be ca2f 4c3e c4b7 8e3e
00000250: b9b7 08be b7ac babe c12a adbe 55c2 9bbd
00000260: a683 133e 36ef 83be 3fba d43e f422 28bf
00000270: f2c8 b63c d576 953d d443 10bf 4b54 b3bd
00000280: 738a 9a3d dd81 fe3d 3aa7 503e 5731 973c
00000290: ab27 8f3d 7fe3 e43d 315e 65be e5d9 aabd
000002a0: d14f 35bd 332c 873e 4183 58be 94eb 3cbe
000002b0: 2d87 063e 363c 80bd f0d4 033e 18d7 bf3d
000002c0: 9ed0 733b f0e7 38be f415 923d 4a88 483e
000002d0: d7d2 123d db3a a33e eb94 b7bb f693 223e
000002e0: f0c3 07bd 3911 333d e46f f33c 692d ed3c
000002f0: 5c82 91be d55f f6bc 3375 533e a917 cabe
0.2096194 -0.12331644 0.049229395 0.030933134 0.040092696 0.07996446 -0.04879355 0.2360689
0.018527688 0.23920077 -0.20085894 0.060368326 0.027975716 0.014925027 -0.06196664 -0.0329
-0.0060360082 -0.097151265 0.05724401 -0.4063448 -0.14591011 0.16040954 0.11049927 -0.36496028
0.07878473 0.32846063 -0.09133104 0.19859806 0.16420397 -0.025306813 0.043253582 -0.15952541
-0.08143429 0.0150855575 -0.03049275 0.044844847 -0.11736818 0.10699391 -0.10433855 -0.22118242
0.23458277 -0.009200498 -0.0010895263 0.028378744 0.12946373 0.4575177 -0.27125195 0.040647242
0.042348363 -0.06485411 0.1428907 -0.036103427 -0.07210464 -0.08970911 -0.10226686 0.057620086
-1.0069591 0.26492816 -0.2455545 0.14379284 0.14591487 0.3374766 -0.026510466 -0.027814025
0.18080005 -0.28817376 0.080649406 -0.45298398 -0.29981175 -0.58721304 -0.05603574 -0.07603478
-0.34002313 -0.042680357 0.18434055 -0.10204272 0.12755245 -0.4422112 -0.014269307 0.0039256136
0.050960183 0.4720016 0.0621707 0.043202233 0.20998478 -0.1292959 -0.04012844 0.08617373
0.3933247 0.011377898 -0.19444034 0.21917215 0.123824365 -0.42592835 0.045629323 -0.034633655
0.05284506 -0.06482981 -0.26238054 -0.08766065 0.33460146 0.18411678 0.47683886 0.050805833
0.035441216 0.037349664 -0.19077058 -0.29448974 -0.1806149 0.03885339 0.19455479 -0.00029071912
0.1098256 -0.5004265 -0.34925252 0.14287218 0.33752656 0.16311067 -0.100019775 0.088751584
0.05017231 -0.35495082 -0.6316517 0.47891444 0.24888599 0.12081364 0.3597738 0.25635934
0.37742898 0.30744323 -0.15828025 -0.17199507 0.109047055 0.078411415 -0.2298691 0.09022939
-0.07889977 0.083144225 -0.22412556 0.5906563 -0.36762503 0.033706836 0.02139258 -0.0547348
0.075506814 -0.2635035 0.19940105 0.27874577 -0.13351335 -0.36459896 -0.3382168 -0.07605425
0.14405689 -0.2576844 0.41548344 -0.65678334 0.022312615 0.07298056 -0.563535 -0.08756312
0.07545938 0.12427113 0.20376292 0.018456144 0.06989988 0.11176204 -0.22399212 -0.08342341
-0.044265572 0.2640091 -0.2114382 -0.18449241 0.13137503 -0.06261484 0.12874198 0.09367198
0.0037203203 -0.18057227 0.071330935 0.1958324 0.035845604 0.3188084 -0.005602469 0.15876755
-0.033145845 0.043717597 0.02971644 0.028952317 -0.2841977 -0.030074993 0.20650177 -0.39471176

fc_advantage.4.bias f4 [6]
00000000: 3d4d 1f3e af2e eabd 6553 4fbd 1074 b13d
00000010: 95a5 39be 5b4e 1dbe
0.15556808 -0.114346854 -0.05061664 0.08664715 -0.18129571 -0.15361921
