data/Torch/Dueling/002_CNN-1_E_L/checkpoints/weights_1200000steps.pth (torch, 286623 bytes, 13 tensors)

conv_layers.0.weight f4 [32, 1, 3, 3]
000000 a1 02 41 bd 61 05 8a bc 12 fc 19 bc c5 df 0b 3e
       -0.047121648 -0.016848268 -0.009398477 0.1365958
000010 da da 9b be 3e 68 11 bd 47 a8 43 3e 2f 12 a4 3d
       -0.30440408 -0.035499804 0.19107161 0.08011281
000020 d1 25 82 3e 13 fc 9e be 36 85 9f 3e 0e e0 63 3d
       0.25419477 -0.31051692 0.3115632 0.055633597
000030 c6 1f c8 bd 2d 39 ae bd 4c 97 5c 3e 4a a9 b2 3e
       -0.09771685 -0.08506999 0.2154209 0.34894782
000040 bf c7 de bd 08 bf 5f be bb ad 10 bf 12 3f f8 bc
       -0.10877942 -0.21850216 -0.5651509 -0.030303512
000050 24 e8 43 3d 71 65 a6 3e e2 5e ec 3d 92 56 a4 bc
       0.04782881 0.3249927 0.11541535 -0.020060811
000060 12 19 a3 3c c1 7c e3 3d 4c b8 49 be b4 9f e6 bf
       0.019909415 0.11107779 -0.1969921 -1.8017488
000070 d9 4f fe 3c 82 28 00 3e 06 53 68 3d 93 ea 9b 3c
       0.031043934 0.12515453 0.056719802 0.019032752
000080 56 d2 02 3b 1e 8e 41 3c cb 82 92 bc b5 98 cc bc
       0.0019961796 0.0118136685 -0.017884633 -0.02497516
000090 11 40 6a 3e 75 da 28 be 41 03 8c 3d ad 7d 07 3e
       0.22876002 -0.16489585 0.06836558 0.13231535
0000a0 b3 c4 1b 3e 4a 12 67 bc 66 40 3a bc ae 26 62 bd
       0.15211754 -0.014103482 -0.011367893 -0.05521267
0000b0 e9 07 0c bd f8 ab f4 3e 4b e2 28 3a 4c 55 33 3c
       -0.03418723 0.47787452 0.00064424117 0.010945629
0000c0 2d dd 85 bf 53 b5 72 3e 94 89 1f bd 3d 20 a2 bd
       -1.0458122 0.23701982 -0.038949564 -0.07916305
0000d0 1c a2 8c 3d 55 cd 35 ba e8 e5 30 3f ea f6 8a bc
       0.068668574 -0.0006935199 0.6910081 -0.01696344
0000e0 39 eb a5 bc 29 76 2f 3c f4 01 f6 be dc db 39 3d
       -0.020253764 0.010709324 -0.48048365 0.04537569
0000f0 a0 0d b4 bc c9 ba 3e bc 24 d7 80 bd d1 7c 54 bf
       -0.021979153 -0.011641213 -0.06291035 -0.83002955
000100 4f 91 e4 3c 8d ea 31 bf 4a e4 bc 3c 90 de bf bd
       0.02790132 -0.6949852 0.023058075 -0.09368622
000110 be ee 56 bf bc 03 51 bc 27 25 07 3b 4b 0f 3e 3c
       -0.8395804 -0.012757238 0.002062151 0.011600326
000120 45 c8 2e bf 94 28 26 3e f0 41 05 3d 56 6b 18 3c
       -0.6827434 0.16226417 0.032533586 0.009302935
000130 44 b6 8b 3e 46 1c 9d bd dd d1 3f bd 34 10 58 3e
       0.27287495 -0.07671408 -0.046831 0.21099931
000140 55 23 e9 3d c4 6f ab 3e 7d a7 73 be ce f8 be 3c
       0.11383692 0.33483708 -0.2379436 0.023311999
000150 81 08 a4 be 0b e1 ac bd 33 b0 3d 3e a8 7b 4c bd
       -0.32037738 -0.08441361 0.18524246 -0.049922615
000160 91 87 06 be 89 e7 89 3e 63 8a 90 be 8e 53 b4 3d
       -0.13137652 0.2693446 -0.2823058 0.08804999
000170 06 d8 30 3e f5 c4 5e bb dc 51 5b 3e bf c5 ff 3c
       0.17269906 -0.0033991907 0.21417946 0.031222222
000180 d3 c6 1d be ae f1 55 be 63 47 26 3d 80 3e 92 bd
       -0.15407877 -0.20892975 0.040595423 -0.07140827
000190 68 08 b0 be 10 48 ef 3d 02 99 ea 3e c2 01 2c 3e
       -0.34381413 0.11683667 0.4581986 0.16797546
0001a0 28 8b 96 3c 60 9b 67 3d c9 8f b6 bd 14 31 e1 be
       0.018376902 0.05654466 -0.089141436 -0.43982756
0001b0 55 eb 23 3e 11 83 b4 bc 00 65 d8 bc c6 e0 45 be
       0.16007741 -0.022035154 -0.026415348 -0.19324026
0001c0 1e d1 a3 bd 05 8d 87 3e b1 cc 02 bc 6d 4a a0 3d
       -0.0799887 0.26474777 -0.007983373 0.078266956
0001d0 78 d9 98 bc 53 3a b3 bf a5 bd a3 3d 71 94 36 3d
       -0.018658385 -1.4002174 0.07995156 0.04457516
0001e0 4f fd 01 3e 38 e4 41 3c 68 bd b3 3d 7f 15 1f 3d
       0.12694286 0.011834197 0.08776361 0.03883886
0001f0 29 38 00 3d 54 aa 5a 3d 8d 4e e6 3e 3a 02 41 3e
       0.03130356 0.053385094 0.44981804 0.18848506
000200 a5 df f1 bd 27 16 46 3d 56 0c 4c be 8c 22 c4 3d
       -0.11810235 0.04836097 -0.19926581 0.09576902
000210 3f c5 44 bd a9 e3 a6 bc 0b 4d 47 be c7 f9 08 3f
       -0.04803967 -0.020372229 -0.19462983 0.5350613
000220 66 40 ec be 5c e7 fa bc 20 41 bd bc fa 05 88 bc
       -0.46142882 -0.030627899 -0.023102343 -0.016604412
000230 95 5b 19 3d b3 23 3c bc 6b 4e eb 3b cf 76 b0 3c
       0.037440855 -0.011483121 0.007180979 0.021541027
000240 bd 3f bf 3d 13 0e 2b 3e 55 c8 29 3e 70 1b 1a 3e
       0.09338329 0.16704588 0.16580327 0.15049529
000250 9f bd 17 3d 86 33 04 be bf c4 7b bd 04 8d c2 bd
       0.03704607 -0.1291028 -0.06146693 -0.09499553
000260 ea 31 5d be f9 fd 98 bc 54 70 3c 3e 6e 68 90 3d
       -0.21601072 -0.018675791 0.18402225 0.070511684
000270 ae ff 82 be fb 40 18 be d6 e4 05 3d 2e cf fc bd
       -0.25585693 -0.14868538 0.032688938 -0.12344204
000280 3f 17 c4 3d 46 cc 89 3d 73 d0 06 bf c8 b7 32 bb
       0.09574746 0.06728415 -0.5266182 -0.0027270187
000290 76 a2 8f 3a 79 32 c7 bc 74 33 05 3e 42 e2 a9 bd
       0.0010958451 -0.02431606 0.13007909 -0.082951084
0002a0 0b 1f fb 3c 19 bf 08 3e a3 49 96 3e 20 5d f7 3e
       0.03065445 0.13354148 0.29353055 0.48313236
0002b0 b6 26 dd bd 58 08 e9 3d 0f 51 e7 3b 70 c0 12 bf
       -0.10798399 0.113785446 0.0070592235 -0.57324886
0002c0 ff 37 11 be fb eb a8 3d 5f f3 15 be c5 d0 19 be
       -0.14181517 0.08248135 -0.1464362 -0.15021046
0002d0 d7 f4 4c 3e 73 0d 95 be f4 30 8e 3c 4b 50 8c be
       0.20015274 -0.29111823 0.017357327 -0.2740501
0002e0 d8 af fb bd ca 53 85 ba 45 94 2e be c7 4c 30 3e
       -0.12289399 -0.0010172066 -0.17048748 0.17216788
0002f0 c4 19 e6 3d a4 c6 28 3f 08 4d c7 bd 72 a5 eb 3d
       0.11235383 0.659281 -0.097314894 0.115061656
000300 20 7f 25 be 83 6f 39 be a8 0d 79 bc bf 64 a7 bd
       -0.16161776 -0.18108945 -0.01520101 -0.08173513
000310 c5 6a 72 3d 94 e1 16 3c 4c cd f9 bc 11 1e 5e 3b
       0.059183855 0.009209055 -0.030493401 0.0033892433
000320 32 ab 78 3c f3 a2 22 3e c7 2f 34 be 17 72 57 be
       0.015177535 0.15882473 -0.1759635 -0.21039616
000330 0e 75 8a 3c 07 e7 94 3b d1 b6 01 3d c2 68 4a be
       0.01690152 0.004544142 0.031668488 -0.19766524
000340 f3 14 b7 3e 93 81 ab 3e fc 63 b2 bd b2 57 aa bc
       0.3575817 0.33497295 -0.08710477 -0.02079377
000350 a4 d9 d4 3b 5c 69 30 be 2f 04 e4 3d ba c7 dd bc
       0.0064956713 -0.17227691 0.111336105 -0.027072776
000360 61 f0 63 3d de c5 50 be d4 71 01 3e 60 04 68 3e
       0.055649165 -0.2038798 0.12641078 0.22657919
000370 c8 02 79 bd e7 aa c5 bc be 1e 80 be b2 23 9b 3d
       -0.060793668 -0.024129344 -0.25023454 0.07575168
000380 30 ba 35 be d9 1f 65 3e c3 0f d4 3d f3 31 af bb
       -0.17746806 0.2237543 0.10354569 -0.0053465306
000390 f5 10 82 3d 15 f7 32 be 79 66 9c 3d 14 18 1d be
       0.063508905 -0.17477067 0.076367326 -0.15341216
0003a0 97 dc ed bd 50 17 25 be f3 47 bd be bd 10 cf 3c
       -0.1161434 -0.16122174 -0.36968955 0.025276536
0003b0 66 c3 8e 3d 9b b1 11 3e c0 6f ba 3d eb 81 64 be
       0.06970863 0.14227907 0.09103346 -0.22315185
0003c0 b9 3b 35 3d 4b 40 91 3d de 60 d1 3c 1e c8 68 3e
       0.04424641 0.07092341 0.025558885 0.22732589
0003d0 7b e9 8c 3d 6f ce cf be ea 98 9a 3e 40 6e 86 bd
       0.0688047 -0.40587184 0.3019479 -0.06563997
0003e0 c4 cf 45 3d 8f 7c 4d be 0c c9 f3 3d fd 6f b9 3c
       0.048293844 -0.20067047 0.11903581 0.022636408
0003f0 aa 91 00 3f 6e e0 4a bd 6a e5 49 3d dc d7 eb be
       0.50222266 -0.04953044 0.049291052 -0.46063125

conv_layers.0.bias f4 [32]
000000 d6 f3 44 bf 8f 89 29 bf 15 e5 0c 3f 5f a9 23 3f
       -0.76934564 -0.6622552 0.5503705 0.63930315
000010 0e 8b e4 be 45 2d 14 3e af 02 d1 3c ca 99 17 3f
       -0.4463734 0.14470394 0.025513975 0.5921904
000020 e5 7e 2d bb 30 9c 81 be 9f 24 ad 3e ca d1 11 be
       -0.002647334 -0.25314474 0.33817002 -0.14240184
000030 b7 76 14 bf 15 cf 34 3f b4 74 2a bf 84 90 94 3e
       -0.57993644 0.7062848 -0.66584325 0.29016507
000040 7e cf 0e bf 92 bd 09 3f ee 4d 0d 3f b7 ae c1 3e
       -0.5578536 0.53804886 0.55197036 0.3782861
000050 a8 c8 0c 3f 59 81 22 bf c9 99 a1 3e 31 f8 67 bf
       0.5499368 -0.6347862 0.3156264 -0.90613085
000060 09 52 ff 3e 48 90 e8 3e 5a 78 25 3f 1a 2c 3b bf
       0.49867275 0.45422578 0.64636767 -0.7311417
000070 13 8a 4b bd 20 f5 c8 3e 42 95 02 3f 2e 64 26 bf
       -0.049692225 0.39249516 0.51009 -0.6499661

fc_state.0.weight f4 [64, 512]
000000 a0 58 2b 3c e3 4d 88 bc 96 78 a5 bc bc 7b f7 bb
       0.010458142 -0.016638702 -0.020199101 -0.007552592
000010 b5 0c 01 3d 5d 39 10 bd 45 34 a8 3c 30 58 21 bd
       0.03150626 -0.035210956 0.020532737 -0.039390743
000020 b1 26 fe 3c af bd 82 bc e6 f8 b6 bc 15 24 0e 3d
       0.031024309 -0.015959589 -0.02233548 0.03470238
000030 76 47 dd 3c 45 84 be bb ac 5c a1 3a 80 cd c2 3c
       0.027011614 -0.0058141076 0.0012310944 0.02377963
000040 d5 5a f4 3c f0 f5 e6 bc df 5b 2d bc bc 73 eb 3c
       0.029828468 -0.028193444 -0.010580986 0.02874171
000050 08 2e de 3c cd 7d 24 bb f5 6d 06 bc b7 e4 d5 3b
       0.027121559 -0.0025099397 -0.008204927 0.006527509
000060 dd 5d 8f bc 6a 79 d3 3c 11 06 04 bd 3c 9d 42 3c
       -0.017500812 0.02581473 -0.032232348 0.011878308
000070 a7 96 63 3c 06 35 95 bc ca cf d7 3c dc b8 06 3d
       0.013890899 -0.01821376 0.026344199 0.03289114
000080 cb 0f 03 3c a3 83 42 bd 2f 56 a8 3c fb 26 f0 3b
       0.007999371 -0.04748882 0.020548908 0.0073288656
000090 eb 83 30 3c b3 47 8b 37 03 1d 65 bb 52 a7 c8 bc
       0.010773639 1.6603479e-05 -0.003495992 -0.024493847
0000a0 bc cb 16 bb 06 2f 0c bd 8d db ed 3c b0 c9 6d 3c
       -0.0023009619 -0.034224533 0.029035354 0.014513418
0000b0 65 e6 ce 3a 2c c5 3d bb 9e fc bd 3b 19 8b 25 bd
       0.0015785216 -0.0028956635 0.0057979366 -0.040415857
0000c0 7d b4 cc bc 13 12 3e bd 40 e8 e0 bb e8 6b 09 3d
       -0.024988407 -0.046403956 -0.006863624 0.033550173
0000d0 e8 ba 41 bd 19 62 f1 3c 04 17 4e 3c 89 0a 6a bc
       -0.04729739 0.029465722 0.01257873 -0.014284738
0000e0 fd 79 25 bd 71 94 0f bd d4 a4 cc bc 67 cd 23 3c
       -0.04039954 -0.035053674 -0.02498094 0.009997702
0000f0 59 41 39 3c d4 21 2a 3b e3 76 36 bd 8e b7 2f bd
       0.011307084 0.0025960105 -0.044546973 -0.04289966
000100 a2 60 9d 3c c9 3a 48 3c 00 b9 27 3c f0 e4 cc bb
       0.019211117 0.012221047 0.0102369785 -0.0062528774
000110 e7 47 fb 3c 9d 29 b4 3c be 22 97 3c 31 65 b2 3c
       0.030673934 0.021992499 0.018449184 0.021776767
000120 44 fc cc 3b ff d9 ec 3b ef 97 df 3c e6 1f 12 3c
       0.0062556583 0.0072281356 0.027294127 0.008918738
000130 f0 72 d5 bb ca a4 ca bc 78 54 0a bd 15 96 f5 bc
       -0.0065139458 -0.02473678 -0.033771962 -0.029978791
000140 d4 8e f8 3b a1 fd 20 3d 08 3d 23 bd 20 6e 03 bc
       0.007585386 0.03930438 -0.039853126 -0.008021861
000150 d6 b0 18 3d e8 25 34 3c a4 97 0b 3d 12 d1 22 3d
       0.03727802 0.010995366 0.034080163 0.039750166
000160 4c 8c 1e 3c b7 31 5c bc 41 18 c1 bc c0 92 40 ba
       0.009677004 -0.013439587 -0.023571135 -0.0007346086
000170 a4 b1 15 bc ac 4c c5 3a 20 e5 94 bb 0d 4e 6d 3c
       -0.009136591 0.0015052757 -0.0045439154 0.014483941
000180 21 7a 47 bd 74 8e da bc 28 a2 92 3c e6 18 40 bc
       -0.048700456 -0.026679255 0.017899588 -0.011724686
000190 c1 7b 35 bc 2d 6a 9b bb d1 bc 22 bd 83 02 30 bc
       -0.0110768685 -0.0047428817 -0.03973085 -0.010742786
0001a0 c0 2f 12 bd a5 f0 3c ba 3f 19 00 bd 35 c3 12 bd
       -0.03569007 -0.00072074897 -0.031274077 -0.035830695
0001b0 93 32 19 3c 33 87 da 3b 31 e1 c2 3c 6c 3f 83 3c
       0.009350437 0.006668949 0.02378902 0.016021453
0001c0 bc a7 85 3c cb b5 41 bb 3e 53 7c 3b d6 1f 9f 3b
       0.016315334 -0.002955782 0.0038501765 0.00485609
0001d0 27 4e 25 3c 34 64 0a bc f6 9b a3 3c 20 dd 8b bc
       0.010089434 -0.008446742 0.019971829 -0.017073214
0001e0 1f 8a e2 3c de 9c 3f bd 7a ee 08 3d 26 33 21 3d
       0.027653752 -0.04678046 0.033430554 0.03935542
0001f0 ae f6 05 3d 02 14 21 bd 49 a9 f2 bc ab fa a1 bc
       0.032705955 -0.03932572 -0.029621737 -0.019772848
000200 c8 38 06 3d 9a 3b 12 3c a4 df 2c bd ba 98 a1 bc
       0.032768995 0.008925343 -0.042205468 -0.019726146
000210 df 6b 17 3d 48 d3 9d 3b cd 2c 0e bd a9 38 74 bc
       0.03696811 0.0048164465 -0.034710694 -0.014906087
000220 33 0b 30 3d 3f 32 9a 3c ce 11 ae 3c 32 a9 4e 3c
       0.04297943 0.018822787 0.021248724 0.0126135815
000230 c0 ec 38 3c 60 54 0f bb 23 df 8c 3c 29 4b d3 3c
       0.011286914 -0.002187036 0.017196244 0.025792675
000240 07 4e f5 3c e2 37 af bc a7 84 26 bd ba af 03 3d
       0.029944433 -0.021388952 -0.04065385 0.032150008
000250 a0 87 74 3c 6e 38 d4 3c 5a a4 40 bd f9 70 1b 3c
       0.014924914 0.025905814 -0.047031738 0.009487384
000260 af 25 2a 3d a4 6d 2c bd b5 15 e3 bb f9 2b c3 3a
       0.041539844 -0.04209675 -0.006930078 0.0014890424
000270 90 6b 22 bd e0 dc 1f 3d e3 b4 ae 3c e4 14 8c 3c
       -0.03965336 0.039029002 0.021326488 0.017099805
000280 d0 5e b1 bb 02 9c cc bc 44 06 d8 3b 91 8f 85 bc
       -0.005412914 -0.024976734 0.006592544 -0.01630381
000290 1d 8d c4 3c 4e 61 ba 3c d0 3b 72 bc c0 93 d3 3c
       0.02399307 0.022751477 -0.014784768 0.025827289
0002a0 f3 50 15 bb a5 85 2e bd ae ba e3 3b 56 b1 01 3d
       -0.0022783845 -0.042607922 0.006949744 0.03166326
0002b0 05 a4 c2 3c 6f c5 d9 3a 5a 24 d6 bc d3 a9 11 bd
       0.023759851 0.0016614626 -0.02614038 -0.035562348
0002c0 8a 0b 1c bd 11 2c a1 bc 96 3d 2a bd 17 56 e3 bc
       -0.038096942 -0.019674333 -0.04156264 -0.027751012
0002d0 ab c6 00 3d c8 73 17 3a 96 9e 1f 3d bc 56 df bc
       0.031439465 0.00057774456 0.0389696 -0.027263038
0002e0 c6 13 b2 3c 60 30 04 3b 80 80 c4 3a 8f 84 23 3d
       0.021737944 0.0020170435 0.0014991909 0.03992134
0002f0 4b 3e 2e bd 80 bf 81 bc c0 cf 7c ba 18 7a b7 bb
       -0.042539876 -0.015838385 -0.0009643994 -0.0055992715
000300 24 27 b0 bc 17 9e bc bc 98 2a 1d bd cb b7 29 bd
       -0.021503039 -0.023024602 -0.0383707 -0.041435044
000310 69 7a a7 3c 5c c0 4b 3a 96 5c 1e bd 62 4f 0c bd
       0.020444112 0.0007772499 -0.038662516 -0.034255393
000320 18 a2 ee bc 37 c4 4a bc 36 e2 94 3c dd 19 21 bc
       -0.029130027 -0.012375883 0.018174272 -0.009832826
000330 aa 80 03 bd f7 2b 21 bc 8c 5d 3d bd 63 02 e0 bc
       -0.032105125 -0.009837142 -0.04623179 -0.027344888
000340 34 c3 03 bd de f4 61 bc 03 ab cf bc 8c da 12 bc
       -0.032168582 -0.013791291 -0.0253501 -0.008963238
000350 8e f5 1d 3d 04 56 f5 3b 08 70 5c 3c 49 04 2b bd
       0.038564257 0.0074870605 0.013454445 -0.041752134
000360 48 c2 08 3d 7d af c1 bc 00 3d 91 bb e6 6e 27 bc
       0.033388406 -0.02364325 -0.0044323206 -0.010219311
000370 38 f4 a3 bc 97 0c 8a bc 67 5d 1a bc 99 0c fe 3c
       -0.020013914 -0.016851706 -0.009421683 0.031011866
000380 76 ab 2b bd ca 77 68 3b 88 1f 83 3c ba cb 18 3b
       -0.041911565 0.003547179 0.016006246 0.002331479
000390 61 4f 0e bd ea de ad 3c 73 a3 ff bc 88 8a a0 bb
       -0.03474367 0.021224458 -0.031205868 -0.0048993267
0003a0 1e 33 28 bd 9f bb 1c 3c 95 9f bc 3c d9 7d ee bb
       -0.041064374 0.009566217 0.023025313 -0.007278186
0003b0 28 b8 1a 3d 36 7b 0c bd a5 70 18 bc 4b 8e 1e 3a
       0.03777328 -0.03429719 -0.0093042 0.0006048425
0003c0 e9 47 f1 bc 33 45 98 bc 98 72 2e bd 20 29 b0 3c
       -0.029453235 -0.018587684 -0.042589754 0.021503985
0003d0 32 15 96 3c 60 eb 3d 3c 48 85 0c 3d b9 aa fd ba
       0.018320654 0.011591762 0.034306794 -0.0019353247
0003e0 81 71 c2 bc b8 76 32 bd 68 04 8f 3c b7 06 10 bd
       -0.023735764 -0.04357025 0.017458156 -0.035162654
0003f0 9e d6 a2 3c 96 16 25 bd 2a b6 0a 3d 7b 36 d5 bc
       0.019877728 -0.040304743 0.03386513 -0.026026955

fc_state.0.bias f4 [64]
000000 d4 cb 6e bb bc 22 02 bd fb f4 6f 3d 9c 2c f9 bc
       -0.003643741 -0.031771407 0.05858324 -0.03041678
000010 81 85 c2 39 36 e3 16 bc 9e 6f 92 bc 9b 48 e2 3c
       0.00037102032 -0.009209445 -0.017875489 0.027622512
000020 da 5b 15 3d 7c b7 04 3d 32 72 ef 3c 06 ab d8 bd
       0.03646455 0.032401547 0.029229257 -0.10579495
000030 73 8e ce bc 7e 09 d3 3c c3 3b bd 3c 4a 01 2f 3d
       -0.02521441 0.025761362 0.023099786 0.04272584
000040 bf 98 ca bc bf 5c 2e bd 68 b7 41 bd b6 99 99 3d
       -0.024731038 -0.04256892 -0.04729405 0.07500021
000050 78 44 2f bd 7f ed df bc 95 30 8c bc 4b e7 12 bd
       -0.042789906 -0.027334927 -0.01711301 -0.03586511
000060 e8 87 c5 3c 1d 31 de 3d c7 80 6c 3c b0 b3 9a 3a
       0.024112657 0.10849211 0.014435 0.0011802819
000070 74 ed 0e bd 6b 54 a3 3d d8 04 b9 bc 65 f4 b0 bb
       -0.03489442 0.07975086 -0.022585317 -0.005400228
000080 10 1d 05 bd 06 90 ae bd a1 41 14 bd 21 74 63 3d
       -0.03249842 -0.08523564 -0.0361954 0.05553067
000090 a3 bc 31 bd b3 4b 35 bd d6 15 8c 3d 0e 55 87 bd
       -0.04339279 -0.044261646 0.068401024 -0.0660802
0000a0 80 47 8e bb 83 50 36 bd 05 21 c8 3c f6 ab e0 bc
       -0.0043420196 -0.044510376 0.024429807 -0.027425747
0000b0 7d f3 c2 3d 3a b2 3b bb 78 90 03 3d 49 e9 b4 bc
       0.09519098 -0.0028640167 0.032120198 -0.022083895
0000c0 30 99 05 bd c4 4e 8e 3d 6b ea 2e bb 33 95 c1 3b
       -0.032616794 0.06948617 -0.0026690017 0.0059076785
0000d0 f0 89 2d bd 2a 59 61 bd 27 d2 47 3d 2a c7 6b bd
       -0.042367876 -0.055016674 0.0487844 -0.057562985
0000e0 35 1e e2 bb 7c 7f da 3d 42 2c db bc 83 38 c6 3c
       -0.0069005736 0.10668847 -0.026754502 0.024196869
0000f0 81 80 8d bd 11 14 5e 3c f5 2d 7e bd 50 21 e0 3c
       -0.06909276 0.013554589 -0.062055547 0.027359635

fc_state.2.weight f4 [32, 64]
000000 f9 f2 de bd 8a dd b8 3d 50 46 03 3d a0 f0 51 3d
       -0.10886187 0.0902663 0.032049477 0.05125487
000010 3e 9b ec 3d 47 75 a1 bd 47 ba 28 bc 55 c1 eb 3c
       0.115530476 -0.07883697 -0.010298318 0.028778711
000020 c7 48 f5 bd 31 58 d5 bd 0b 09 4e 3d 3b 44 d6 bd
       -0.11976772 -0.10417212 0.050301593 -0.10462233
000030 68 07 ea bd 50 21 18 bf ba f7 4b bd 36 01 fb 3d
       -0.11427194 -0.5942583 -0.049796797 0.1225609
000040 2f da ef bd ae de e3 3d e9 99 8a 3d 91 62 b0 bd
       -0.11711537 0.11126457 0.06767637 -0.0861255
000050 53 95 dc bd 06 b0 12 3d b5 cd b2 bd 97 48 82 bd
       -0.10770669 0.0358124 -0.08730642 -0.06361502
000060 8b b9 e8 3d 03 23 f5 bd 31 21 53 bc fc 4b 84 3d
       0.113635145 -0.119695686 -0.012886331 0.06459805
000070 0d cb f6 3c 29 c3 92 3b 6a dd 8d bb 4e 2a 0c bf
       0.030126119 0.0044788313 -0.004329373 -0.5475205
000080 3e 5f 33 3e 17 60 29 be c1 0a d7 bd 24 4d fd be
       0.17516801 -0.16540562 -0.10500098 -0.49472916
000090 e6 e5 85 bd 90 d6 77 3c 1e f4 94 be dd 22 8c be
       -0.0653799 0.015126839 -0.29092497 -0.2737035
0000a0 85 0e 91 3d bf fc e1 bb 7f 4b a6 3d 09 0b 1e bd
       0.070828475 -0.0068965848 0.081198685 -0.038584743
0000b0 17 69 07 3e b9 cc 38 bc 8b 80 17 be c3 de 90 bd
       0.13223682 -0.011279278 -0.14795129 -0.070737384
0000c0 87 00 e4 3d 45 bf 66 bd 2a 36 4b 3e 4c 73 6e 3d
       0.11132913 -0.056334753 0.1984488 0.058215424
0000d0 4c 4c a8 3d 23 22 b9 3d 50 8e 4e bc b8 c1 c8 bd
       0.082176775 0.09039714 -0.012607172 -0.09802574
0000e0 c9 60 e1 3c f7 39 ab 3b 95 d4 e3 3d 77 36 fb 3d
       0.027511971 0.005225416 0.11124531 0.12266248
0000f0 82 1a cd 3d e6 b3 fa 39 a7 6f 6d bd 4f 7d 8e bb
       0.100148216 0.0004781775 -0.057967808 -0.004348434
000100 ef a4 be 3d 8d 77 f1 bd bd 9a e8 3d 28 2b 33 bb
       0.09308802 -0.117903806 0.11357639 -0.0027338956
000110 cd 17 75 3d d9 60 87 3d 2a 7c 16 3d 67 c3 8c bd
       0.05983715 0.06610269 0.036739506 -0.068732075
000120 a2 e6 a1 3b e8 f1 e5 bd 1f ae e0 3d b9 b8 a7 bd
       0.0049408237 -0.112277806 0.10970711 -0.0818953
000130 d3 d3 81 3d d4 e0 f3 3d 57 57 69 bc aa ae 35 3c
       0.063392304 0.11908117 -0.014242015 0.011089006
000140 02 77 0d bd fa ac 52 3d 75 4b 15 ba 53 19 db 3d
       -0.034537323 0.051434495 -0.0005695143 0.106981896
000150 64 6f ba bb 5c a8 3b 3d 53 e1 05 3d bb fd b7 3c
       -0.0056895483 0.045814857 0.03268559 0.022459855
000160 a5 8f 4b bc 5f 43 6a bd 9a 3d 92 3d 7c 14 aa 3c
       -0.012424384 -0.057193156 0.07140656 0.02076172
000170 f7 12 a0 3d ef 66 35 3e 78 48 4c bb 42 50 97 3e
       0.07816117 0.17715047 -0.0031171124 0.2955342
000180 99 04 90 3d e6 0d 1a 3e eb ed 75 3d 1c a6 55 3d
       0.07032127 0.15044364 0.06004135 0.052160367
000190 02 13 0f 3e 72 22 f5 bd 30 86 17 3e 13 3e 7d ba
       0.13972095 -0.119694605 0.14797282 -0.0009660434
0001a0 d2 ea e0 3d ea c6 5b 3d 46 c8 63 3d 85 e7 cf bd
       0.109822884 0.053656496 0.055610918 -0.10151581
0001b0 47 57 00 3d 8d 76 86 bd 82 23 39 3e 0f 3f a6 3d
       0.031333234 -0.065655805 0.18079951 0.08117496
0001c0 04 eb 30 bc 09 3e 61 3e 04 09 f9 3c 86 cb a1 3d
       -0.01079822 0.21996321 0.030399807 0.07900147
0001d0 ef 48 b9 bc cd 14 49 3d ee 47 22 bd b0 77 17 bd
       -0.022617785 0.049092103 -0.03961938 -0.036979377
0001e0 85 22 45 bd dd e9 6e 3e 67 03 ca bd a3 ac 65 be
       -0.048128624 0.233314 -0.0986393 -0.22429137
0001f0 b1 b3 5b bd f0 28 8f 3d 7b 61 0b 3d 4c 15 3c 3e
       -0.053638164 0.0699023 0.03402851 0.18367499
000200 91 86 dc 3d b0 92 28 bd 98 f1 f7 3b e9 3e d6 3d
       0.10767854 -0.041155517 0.007566642 0.10461218
000210 05 38 c7 3d 85 79 e0 3d 9e 6c 7c bd 67 bf 85 bd
       0.09727482 0.10960678 -0.061627023 -0.06530648
000220 75 47 f7 3d f0 bd 8a 3d 86 09 37 3b 1f 34 84 be
       0.12074176 0.06774509 0.002792926 -0.25821015
000230 28 c7 09 be cb c4 3f be 9b b3 9d bd b6 ac 03 be
       -0.13454878 -0.18727414 -0.07700273 -0.12858853
000240 17 87 ad bc 00 6f 06 3d f1 86 a5 bd 00 7e 36 be
       -0.02118258 0.0328207 -0.08082379 -0.17821503
000250 d1 58 f8 bd ff 8d 8f 3d 52 6e b4 3d ae e9 5e bd
       -0.121263154 0.070095055 0.088101044 -0.054422073
000260 aa ba bb bd c2 b8 00 3e 84 97 ed bd 42 c1 f2 3d
       -0.09166463 0.1257048 -0.11601165 0.11853267
000270 29 68 4d bd 8d a3 1c 3e 9e f6 8a 3d 03 3e 77 be
       -0.050148163 0.15296765 0.0678532 -0.2414475
000280 6b bd 6b 3d c3 42 cf bd 40 b1 f6 bd 1a eb ac bd
       0.05755369 -0.10120156 -0.120455265 -0.084432796
000290 61 87 33 bd 72 e4 d7 3d e0 7d 82 3c 46 46 67 bd
       -0.04383028 0.10541619 0.015929163 -0.056463502
0002a0 71 17 e3 3d 0b a2 30 bc 8a 65 e4 3d d1 c9 f9 3d
       0.110884555 -0.010780822 0.111521795 0.121966965
0002b0 9f 34 70 bd 83 85 ca bd f7 ce fc bc d2 66 f9 bc
       -0.058643933 -0.098887466 -0.030860407 -0.030444536
0002c0 e8 03 64 3b c3 4e 76 3e 72 f1 24 3d 92 82 ea bc
       0.0034792367 0.24053483 0.040269323 -0.028626714
0002d0 48 07 e2 bd ba 4b e5 3d c7 38 98 be d9 0e 97 3d
       -0.11036545 0.11196084 -0.29730818 0.07375879
0002e0 ae 48 91 bd b2 ed bc 3b f2 dd 38 bd 1b d0 4a be
       -0.07093941 0.00576564 -0.04513354 -0.19805948
0002f0 82 cd d7 3b b5 fc 49 3d a3 2e a4 bc 4a a5 13 3d
       0.0065857777 0.049313266 -0.02004177 0.036046304
000300 42 4d f4 3d 5b 12 eb bd d3 73 a7 be e8 95 74 3d
       0.11928798 -0.114781104 -0.32705554 0.059713274
000310 a9 9e 71 3d 08 2e bf 3c 48 52 30 bd 54 b2 a2 3d
       0.0589892 0.02333738 -0.04304722 0.0794417
000320 38 b9 80 be a9 67 50 3d 74 6b c8 bc 4d 9e c6 3c
       -0.2514131 0.050880108 -0.0244653 0.024245406
000330 8a de ab bd 6f 8b 8e bc 5a ae 1d 3d f5 27 10 bf
       -0.08392055 -0.017400471 0.038496353 -0.5631097
000340 cf 6d b5 bd c7 a1 2a bd 39 2e 72 3d 65 f2 1c 3e
       -0.08858835 -0.04165819 0.059126113 0.15326841
000350 f2 a7 8f ba 8c 4e 9e bd 18 3e 59 bc fe 1d 29 bd
       -0.0010960086 -0.077298254 -0.013259433 -0.04128837
000360 d0 cf 13 3d a7 aa e3 3d 7c 1e c3 3d 55 de b7 ba
       0.036086857 0.11116534 0.09527299 -0.0014028052
000370 40 f1 7a 3d 33 4f 2d bd 22 17 e9 bd c5 ec 04 3e
       0.06126523 -0.04231186 -0.11381365 0.12980945
000380 1f 15 f8 bd 0c 1c b5 bb 05 86 9e 3d 90 ed cf 3d
       -0.121134035 -0.005527025 0.07740406 0.10152733
000390 26 6a bb 3d 1e 42 48 bd 87 c3 a4 bd 2c 0e 80 3c
       0.091511056 -0.04889118 -0.080451064 0.015631758
0003a0 7e d1 a7 3d 0d d9 4b 3d 57 dd 13 3c ae 2b 85 3d
       0.08194254 0.049767543 0.0090249395 0.06502472
0003b0 e4 13 3d 3e dc 3c e9 bd 2e ef 91 be 95 9a 84 bc
       0.18464619 -0.11388561 -0.28502792 -0.016186992
0003c0 f2 b4 a2 3d 05 3e 5c 3e dc 50 ff bd 66 43 03 bd
       0.07944669 0.21508034 -0.124665946 -0.032046698
0003d0 0d 64 a2 bd 00 04 ec 3d a0 38 39 3c db c6 7f bd
       -0.079292394 0.115242004 0.011305004 -0.062445503
0003e0 fc 5e f0 3d 19 15 df 3d 18 16 35 bd 44 f8 e0 bc
       0.11736867 0.10892696 -0.044210523 -0.027462132
0003f0 94 91 6e bd df 4f cb bb 2c 9b bf bd 2f 36 0e bf
       -0.058244303 -0.0062045897 -0.093557686 -0.5555143

fc_state.2.bias f4 [32]
000000 00 80 72 3d 11 7a 10 3e b9 87 6f bc a4 62 25 3e
       0.0592041 0.14109065 -0.014619761 0.1615091
000010 c8 52 2c be cf 8b 5e 3e 12 b5 25 bd 4e 8e 3d bd
       -0.16828454 0.2173302 -0.040455885 -0.04627829
000020 95 5c 94 3d 33 71 a9 3d ed 78 21 be 6a c2 1b 3e
       0.07244221 0.08273544 -0.15768786 0.15210882
000030 a7 0d 24 be 15 71 52 3e c3 19 f9 bc 86 6a 2d bd
       -0.16020833 0.2055095 -0.030407792 -0.042337917
000040 a9 ed 4c bd 98 1f 40 be ec 96 24 3e 7d c6 22 3e
       -0.050031338 -0.18762052 0.16073197 0.1589603
000050 0a 09 07 be fd 08 f8 3b a7 59 f3 bd ee af 83 3c
       -0.13187042 0.007569431 -0.11882334 0.0160751
000060 52 14 89 3d 90 29 5f bd ce ae 80 3e 26 1c 4d 3e
       0.06693329 -0.054482996 0.25133365 0.20030269
000070 ed 3a a1 bd bd 55 22 3e bb 49 1a 3d 3e 1e 55 be
       -0.07872567 0.15853019 0.03766797 -0.20812318

fc_state.4.weight f4 [1, 32]
000000 96 cb ca be b9 d1 38 3e d9 a5 36 3e 3b df b9 be
       -0.3960845 0.18048753 0.17836703 -0.36303124
000010 34 08 2b be 5d e0 85 bd 8b 89 ec 3d 74 ec 6d be
       -0.16702348 -0.065369345 0.11549672 -0.23234731
000020 21 c2 2f be 62 0f 0c be 9b af 54 3d 9e d5 82 be
       -0.17163898 -0.13677743 0.051925283 -0.25553602
000030 eb 7b 10 be 45 c0 67 bd 9a 6a 28 bb 38 50 b1 3d
       -0.14109771 -0.056579847 -0.0025698305 0.08657879
000040 77 5a 83 3e a0 95 52 be 91 7f 1d 3e 85 da d1 3d
       0.25654957 -0.2056489 0.15380694 0.102467574
000050 c7 34 4e 3e fe d7 00 3e 19 dd 0a be 15 ff 53 be
       0.2013732 0.12582394 -0.13560905 -0.20702775
000060 77 86 e5 bd 2c 6a 1b be f4 05 21 be 4c 92 9f be
       -0.11207288 -0.1517722 -0.15724927 -0.31166303
000070 a9 a7 91 3b dd c8 2b bd fb 7a 16 3e 44 15 80 be
       0.0044450355 -0.041939605 0.14695351 -0.25016224

fc_advantage.0.weight f4 [64, 512]
000000 24 45 1f bd 72 03 0b bd ae b8 c3 bc 58 ef 94 3c
       -0.038884297 -0.033938833 -0.023891773 0.018180534
000010 f0 26 d8 3c 5d 39 cf bc c6 c6 48 3b 79 9e dc 3c
       0.026385754 -0.025295908 0.0030636056 0.026931034
000020 2a 4b 76 3c 53 39 c5 bc 5d 01 d2 bc e8 9b 43 bd
       0.015032569 -0.024075186 -0.025635416 -0.047756106
000030 26 a8 87 bc a6 88 2e bd 03 c3 21 bd 73 72 e1 3b
       -0.016559672 -0.042610787 -0.03949262 0.0068800985
000040 47 c4 47 bd 6b 7e 08 bd 2b 05 bb 3c f2 86 9f 3c
       -0.04877117 -0.033323687 0.022829613 0.019473527
000050 1d d6 f2 3c 60 3a c9 3c d3 65 ca bc ca e8 16 bd
       0.029643113 0.024563968 -0.024706757 -0.0368431
000060 87 d4 8e 3c 9c b3 4f bc 37 73 32 3d 3b cb 93 3b
       0.017435325 -0.0126771 0.04356691 0.004510311
000070 d4 f6 1f bd b1 dd 39 bd bc 2e f2 3c 2b 86 e9 3c
       -0.039053753 -0.045377437 0.0295633 0.02850636
000080 d9 5a 05 3d e2 26 c3 bc 95 03 fd 3c 4d 30 0f bd
       0.032557342 -0.023822252 0.030885497 -0.034958173
000090 00 68 bc 3c 67 13 04 bd 76 ff 61 bc 88 2e 09 ba
       0.02299881 -0.032245066 -0.013793817 -0.0005233069
0000a0 ed e3 65 3c d7 52 ce bb f0 0c 09 3c 5e a6 fa bc
       0.0140313925 -0.0062964964 0.008364901 -0.030596908
0000b0 df 3f 9b bc e1 3f e9 3c e5 62 d9 3c fe 23 11 bc
       -0.018951355 0.028472843 0.026536414 -0.008858679
0000c0 03 2a 65 3c 84 8a ad bb 3a 6e 04 bc 89 31 26 bd
       0.013987067 -0.0052960534 -0.008082921 -0.040574584
0000d0 cb c1 e3 3b e7 6c a3 bc 59 bb 87 bc 74 1d 26 3d
       0.006950592 -0.01994939 -0.016568827 0.040555432
0000e0 50 1d 07 bd ab 24 9b b9 02 0d 83 3c b7 ee 25 bd
       -0.03298694 -0.00029591224 0.015997414 -0.04051086
0000f0 87 4f 11 bd a3 24 8a 3c 84 09 59 bb 37 16 23 3d
       -0.035476234 0.016863173 -0.0033117244 0.039816108
000100 b2 4e 74 bc e1 d8 26 bd 05 51 08 bd 17 d1 13 bd
       -0.014911341 -0.040734176 -0.03328039 -0.036088075
000110 f3 d8 d2 bc 92 7c 8e bc ae da 27 bd 41 5a ac bc
       -0.025738215 -0.017393384 -0.040980034 -0.02103913
000120 4a ee 93 3b ff 2c 90 3c 40 16 f5 bc cd 8b 19 bd
       0.0045144903 0.01759958 -0.029917836 -0.03748684
000130 33 8c c4 bb 99 e1 29 bd 91 92 bc 3c 44 7e 3f bd
       -0.0059981584 -0.041474912 0.023019107 -0.046751276
000140 23 a4 74 3c 89 54 0b bd 6d 45 c4 bb 2d 53 2c 3b
       0.014931711 -0.034016166 -0.0059897215 0.0026294694
000150 74 b0 4a bd 38 ba 12 3d 51 fb 09 bd fd 30 07 bd
       -0.049484685 0.035822123 -0.03368694 -0.033005703
000160 5f 18 b9 bc 90 06 95 bc 1d f8 a1 3c 3b 5e 23 3d
       -0.022594629 -0.018191606 0.01977163 0.039884787
000170 06 06 ab 3c 1c 4b 80 bb 21 1e 06 bd eb 15 0d 39
       0.020876896 -0.0039152037 -0.032743577 0.00013454973
000180 d4 c6 6d 3c 16 a8 df 3c b7 2e 86 3c 5d 11 40 bb
       0.014512736 0.02730183 0.016379697 -0.0029307224
000190 1c d1 14 3d 2d 8c 66 3b 3b 7c 2a 3d f2 62 04 3d
       0.036332235 0.0035178766 0.04162238 0.032320924
0001a0 ad 6f 83 bc 3b 9b 91 3b 5a ac 20 bb 3c 77 5b 3c
       -0.016044462 0.0044435537 -0.0024516792 0.013395127
0001b0 4e 45 bf 3c 42 66 1f bd 78 9d d7 3c 78 4a ad 3c
       0.023348477 -0.03891588 0.026320204 0.021153674
0001c0 b7 5e 0a 3c f8 45 9d 3c bd 45 7a bc dd 69 a2 3c
       0.008445433 0.019198403 -0.015275416 0.01982587
0001d0 77 eb b4 3c 3f 46 8d bc 5f b9 be bc 3d 45 0b 3d
       0.022084935 -0.01724541 -0.023281751 0.034001578
0001e0 78 91 8b bc 57 2c 42 bd 92 e7 0f 3c 60 4e cd ba
       -0.017037138 -0.047405567 0.008783238 -0.0015663616
0001f0 a3 b1 35 bd cf 4c 2e bd f7 c5 8a 3c bc 11 f5 3c
       -0.04435886 -0.04255372 0.0169401 0.029915683
000200 f7 d0 9b 3c 0e 31 95 bc 61 45 b6 3c d7 87 66 3c
       0.01902054 -0.018211868 0.02224988 0.014070473
000210 84 80 4c bc b2 3a f3 bc e5 1f 07 bd 0e 35 2f bb
       -0.012481812 -0.029691074 -0.0329894 -0.0026734504
000220 19 c0 ec b9 96 ed 0e 3d 30 67 19 bd c0 98 79 bc
       -0.00045156552 0.03489455 -0.037451923 -0.015234172
000230 08 7e f5 3c 45 ca a8 3b 7f b5 70 bb af 88 23 bd
       0.029967323 0.0051510655 -0.0036729274 -0.039925274
000240 33 99 0a bb c0 f2 ea 3c a3 9d 63 3b 88 2b 16 3c
       -0.0021148443 0.028680205 0.003473141 0.009165652
000250 14 be 1e 3c c9 65 61 bc a8 81 85 3c 73 2f 4c 3c
       0.009688873 -0.013757178 0.016297176 0.012462485
000260 5d 82 e3 bc 6e 49 d9 3b 3e 27 d8 3c b3 d9 cb 3c
       -0.027772123 0.006631068 0.0263859 0.02488408
000270 80 e0 fd 3c 7d 38 0e 3d 52 f4 3b bd ad 9f 6d 3c
       0.030990839 0.03472184 -0.0458873 0.014503402
000280 de 2f 73 3c 97 18 cf bc 0a 96 4c bd cc f6 db 3b
       0.014842955 -0.02528028 -0.049947776 0.00671277
000290 18 f8 80 bc 25 72 52 bc e6 33 36 bd b0 a7 40 bd
       -0.0157433 -0.012844597 -0.044483088 -0.04703492
0002a0 1b 98 af ba 6a 82 f0 3b 42 95 e0 bb 2e 8b 49 bb
       -0.0013396771 0.0073397653 -0.0068537304 -0.0030753124
0002b0 e6 dd 0e 3d 50 aa c4 39 f4 42 07 bd a2 6d 88 3c
       0.034879588 0.00037510926 -0.033022836 0.01665384
0002c0 39 90 18 3d 8a 0b c3 bc 6a b1 26 3d 3c f1 ac bb
       0.037246916 -0.023809213 0.04069654 -0.005277781
0002d0 cd 52 08 bd 1b 1e ac b9 29 7a 32 3d 40 5f 27 3d
       -0.03328209 -0.00032828827 0.043573532 0.04086232
0002e0 45 3a 1c 3d 60 cc 77 bb 21 37 1a bd 18 15 27 3d
       0.038141508 -0.0037811026 -0.03765023 0.0407916
0002f0 8b ce 23 bd aa df b6 3a 31 3f b2 bc 38 ae 39 bc
       -0.039991897 0.0013952155 -0.021758648 -0.011333041
000300 d1 a8 b8 bb c6 9b 5f bd 0b 92 85 3c 56 ae c1 3c
       -0.005635359 -0.054591917 0.01630499 0.0236427
000310 2a 61 82 3c fb e9 0d 3d f8 5a e3 3b 2c 34 c2 bc
       0.015915472 0.03464697 0.0069383346 -0.023706518
000320 d0 28 3b b9 32 19 ef 3b 15 c4 a7 3c e7 76 23 bc
       -0.00017848914 0.0072967047 0.020479241 -0.009977079
000330 77 c6 eb 3c 39 f6 62 3c 10 ce 35 3d 49 26 b4 3c
       0.028781159 0.013852649 0.04438597 0.021990912
000340 f7 2f 3f bb 25 bb 8e 3c 58 8e 2d 3d 3d 80 c5 3c
       -0.0029172876 0.017423222 0.042372078 0.024109
000350 0d 45 d1 bc 9d 57 a8 bb 5e 33 1e 3b 9c 7e ab bc
       -0.025545621 -0.0051373974 0.0024139504 -0.020934395
000360 4e 40 0a 3d 51 88 4f bc e9 1e 15 bd 18 59 6d 3c
       0.033752732 -0.012666778 -0.03640643 0.014486574
000370 d9 1b ad 3c 93 6c 85 3c 85 dc ab 3c b8 b6 3b bd
       0.021131443 0.016287124 0.020979175 -0.04582855
000380 97 5a db ba fc 6c eb bc 8f 6b c6 3b 8a 3f 26 bd
       -0.0016735372 -0.028738491 0.0060553025 -0.04058794
000390 b9 c7 3d bc 46 f3 d6 bb 3d ba 3c bd eb 43 a2 3b
       -0.011583262 -0.006559762 -0.04607605 0.004951944
0003a0 da 88 bc bc f0 81 13 bc 80 3e a8 ba 32 cc 2e bc
       -0.023014475 -0.0090031475 -0.0012836009 -0.010668801
0003b0 87 46 8c 3c f9 fe 02 bd 84 cc 15 bd d1 64 08 3d
       0.017123474 -0.031981442 -0.036571994 0.03329927
0003c0 8a ed c0 bb 2d fd 0c 3d e1 e2 06 bc 33 38 e0 bc
       -0.005887692 0.034421135 -0.008232803 -0.027370548
0003d0 9b 26 49 3c 61 16 73 bc a8 39 23 bd ec 7f 9f 3c
       0.012277271 -0.0148368785 -0.039849907 0.019470178
0003e0 0b c8 29 bd 4d f1 3b bd f9 9a 0d bd f2 5b 13 bd
       -0.04145054 -0.04588442 -0.03457162 -0.035976358
0003f0 9c 4b 91 3c bd fa 19 3d 06 b1 2e bd 42 ef c4 3c
       0.017736249 0.03759264 -0.04264929 0.024039868

fc_advantage.0.bias f4 [64]
000000 85 d0 3e bd 90 8b 3a 3e 40 b3 82 be da 51 98 3b
       -0.04658558 0.18217301 -0.25527382 0.0046484293
000010 50 1b 6b be cb 5f d2 be 30 74 b4 3d 9a dd b5 bc
       -0.22959638 -0.4108871 0.088112235 -0.022200394
000020 eb 9e bc bc 63 d7 3e be 84 b4 ad 3e c6 d9 71 bd
       -0.023024997 -0.18636851 0.33926785 -0.059045576
000030 ed 77 14 bd 38 10 f6 bd 62 bc 0b bd 0f 8b 88 bd
       -0.036247183 -0.12014812 -0.034115203 -0.06667148
000040 fe 1f d6 be 71 dd 74 3d a7 c7 32 bc f4 21 9e bd
       -0.41821283 0.059781495 -0.010911859 -0.0772132
000050 9f b6 f6 3c 91 c3 69 bb 50 7c 29 bd a5 13 3d 3e
       0.030116377 -0.0035669545 -0.04137832 0.18464525
000060 39 8b 02 3f 77 de e7 bc e1 7f 94 3d 1b 8e 08 3e
       0.50993687 -0.028304322 0.072509535 0.13335459
000070 87 c8 b6 3d c7 f6 f1 bc 31 c1 f7 bd 0e 9d 36 bc
       0.08924966 -0.029536618 -0.12097395 -0.011145843
000080 b3 3a 33 3f 5d 04 6a 3d f2 a9 0b 3f 20 11 b6 be
       0.7001144 0.057133067 0.5455619 -0.3555994
000090 e7 6c 1a be c4 0a 01 3e 15 c5 5a be e3 3c 9a 3d
       -0.15080605 0.12601763 -0.21364243 0.075311445
0000a0 35 db c2 3e 51 f7 cd ba ac a3 44 3b 23 97 79 3d
       0.38057867 -0.0015713965 0.0030004783 0.06093515
0000b0 b4 9d d0 bd 20 43 5c bd 7c 5a e7 bc 76 5c 0f bc
       -0.101863295 -0.053774953 -0.028241388 -0.008750072
0000c0 f5 54 9e 3e 93 9e 2a 3d 7e 4d b8 3e 5c fa b3 3d
       0.30924192 0.041655134 0.35996622 0.08787987
0000d0 be 54 bc 3e 3b 36 74 3d 9d 49 ad bc a6 aa 4b be
       0.36783403 0.05962203 -0.021153266 -0.19889316
0000e0 b5 44 0c 3e 86 12 f7 3d 53 ce 8c bc e3 df 26 bd
       0.13698085 0.1206408 -0.017188227 -0.04074086
0000f0 4f 55 15 3d 79 26 88 bd 62 2e ce bd 14 97 85 be
       0.03645831 -0.06647963 -0.100674406 -0.26091826

fc_advantage.2.weight f4 [32, 64]
000000 7a 20 c8 bd 2a 88 4d be f2 ff f7 3d e0 3a b5 bd
       -0.097718194 -0.20071474 0.121093646 -0.0884912
000010 38 cb b5 bc 71 d0 f9 bd d8 ed 9c bd 32 9f 2a 3e
       -0.022191629 -0.1219796 -0.076625526 0.1666229
000020 d8 1a 2f bd aa 93 12 be 95 2d 7c bc 94 3e 4d 3b
       -0.04275021 -0.14314142 -0.015391727 0.0031317817
000030 58 22 ef 3c 26 2f 43 bd b8 17 c6 3d 65 76 8a bd
       0.029191181 -0.047652386 0.09672493 -0.06760863
000040 bd 59 b0 bd f8 30 23 3d e6 18 50 3d f5 fb 31 3e
       -0.08610866 0.039841622 0.050804995 0.1738127
000050 8e 9c 62 bd df 02 ed bc 25 50 c2 bd a4 0f 50 be
       -0.055325083 -0.028932033 -0.094879426 -0.20318466
000060 4f d6 5d 3d f9 be ae bd 78 4f 52 be 67 ea 2c 3e
       0.05415946 -0.08532519 -0.20538127 0.16886292
000070 32 fc 8d bc 23 ed ac bc 37 6c e4 3d e7 c2 83 bc
       -0.01733217 -0.02110917 0.11153453 -0.016084148
000080 93 a2 96 3d 99 ef d6 bc d8 2a 03 bc 9e 37 3c be
       0.07355227 -0.026237296 -0.00800582 -0.18380591
000090 01 ff 8e 3d f2 fe da bd 90 c0 70 bd cb c2 bd bd
       0.06982232 -0.10693158 -0.058777392 -0.092656694
0000a0 14 ab a3 bb 92 e3 0e 3d a5 56 f3 3c c2 85 aa be
       -0.0049947593 0.034884997 0.029704401 -0.33305174
0000b0 24 bb 2a 3d 75 77 86 3d 73 de a4 bd 92 60 82 bd
       0.041682377 0.06565753 -0.08050241 -0.063660756
0000c0 48 28 8d 3d c2 ce 6d bd ba 86 61 bd 9b 35 41 bc
       0.06892449 -0.058058508 -0.055060126 -0.011792566
0000d0 99 f4 dc bc 37 54 38 be 9a a5 b1 3d 25 c6 1d bd
       -0.026972102 -0.18000875 0.08674164 -0.038519043
0000e0 dc 16 9f be 27 ba 9d bd 8c d9 f1 3c 29 dd e4 3d
       -0.31072128 -0.07701521 0.02952268 0.111749955
0000f0 aa 61 f4 3c 11 b9 3a bd 20 df 50 be 78 11 5a be
       0.029831726 -0.04558665 -0.20397615 -0.21295726
000100 c2 54 1c bd 11 0a d4 be 37 39 19 3e d2 a5 e2 3b
       -0.03816677 -0.4141393 0.14963232 0.00691674
000110 fb 23 57 bd 07 21 38 bd 63 69 7d be 2c 90 38 3c
       -0.052524548 -0.044953372 -0.24747233 0.011264842
000120 0f 9f 9b 3c 11 69 1f be 86 08 68 be 10 a3 67 bd
       0.018996743 -0.15567423 -0.22659501 -0.056551993
000130 5a 61 ee bd e0 92 6e 3d b8 02 32 be 62 96 2e bd
       -0.11639662 0.05824554 -0.1738385 -0.042623885
000140 26 1d 8f bd 3f bb 96 3e e0 fe 89 3d 86 8a 8a bd
       -0.069879815 0.29439732 0.06738067 -0.067647025
000150 44 ff 6f bd 4a 33 67 be e9 ad a3 bd e8 0c 6b be
       -0.05859305 -0.22578159 -0.07992155 -0.22954142
000160 8f a5 47 3e b3 9f 60 3d 7b b9 14 bd a8 19 fb 3e
       0.1949675 0.0548398 -0.0363097 0.49043012
000170 5a 56 b5 3d 1a 05 c4 3d 9f 19 b9 bd 19 e2 7f be
       0.08854361 0.095712855 -0.0903809 -0.24988593
000180 32 1e a1 bb 27 19 99 3d ac f3 5d 3a 1b 49 01 bc
       -0.0049169296 0.074755006 0.0008466791 -0.007890965
000190 18 49 c7 bc 10 8a ec bd aa 47 82 be 80 44 4e 3e
       -0.024326846 -0.11549771 -0.254453 0.20143318
0001a0 b2 b0 d0 be 50 98 0f bc f3 3f 2e bd d3 be 13 be
       -0.40759808 -0.0087643415 -0.042541455 -0.14428262
0001b0 70 11 74 3e 87 14 7e bc ef 12 18 bf c7 a9 de bd
       0.23834777 -0.015507824 -0.5940389 -0.10872226
0001c0 1e c1 61 3d 55 23 1b be 6e a6 7d 3d 92 12 10 be
       0.05511581 -0.15150197 0.061926298 -0.14069584
0001d0 08 79 bb 3d 1d 30 0e bf 49 db 62 ba 58 00 30 3e
       0.09153944 -0.55542165 -0.0008653892 0.17187631
0001e0 59 1a 1b be 75 59 43 bd cd 2f 97 be 11 31 ad 3c
       -0.1514677 -0.047692735 -0.29528657 0.02114156
0001f0 8f e0 f5 3d e4 24 3f bd 33 f8 95 be ed 96 0b 3e
       0.12005722 -0.04666604 -0.29290923 0.13631792
000200 36 d7 96 bd a9 d6 8a be 9a 77 4e 3d aa 27 3d 3d
       -0.07365267 -0.27116898 0.05040703 0.046180405
000210 7b 54 15 3e f1 40 14 3d 74 a4 59 be e2 7e be 3c
       0.14583008 0.036194745 -0.2125414 0.023253862
000220 dc 5e 9b 3d f5 da a5 3d 3d 73 2e bd 61 2b 00 3d
       0.07586452 0.08098403 -0.04259037 0.03129137
000230 be fe 88 3d 0d 89 b8 bd 09 4a cd bc ba a0 66 3d
       0.06689213 -0.09010515 -0.025059717 0.056305625
000240 f3 1e 3f 3e 5d 9c e4 3d 92 81 8c bc ba a6 38 3e
       0.1866415 0.111626364 -0.017151628 0.18032351
000250 75 07 36 bd 4c 47 3d 3e 98 bb 63 3d 52 d2 43 be
       -0.044440705 0.18484229 0.055598825 -0.191232
000260 18 78 6d bd 35 34 e2 bd bb f1 6f 3e 09 23 0c be
       -0.05797586 -0.11045114 0.23432057 -0.1368524
000270 8c ef 32 3d 9c 4a fd 3d 34 68 c5 3d 07 96 74 3e
       0.04368548 0.12367746 0.09639016 0.23885356
000280 2d 70 15 be cd 79 43 3e f1 16 15 be 76 60 6b 3c
       -0.14593573 0.19089432 -0.14559533 0.01436626
000290 a2 fa a7 3c 7c b6 9f 3e a3 27 fa 3d c7 d3 b4 3d
       0.020505253 0.31193912 0.12214591 0.08829456
0002a0 4a 42 0b 3d 7b 36 5b 3d 51 b9 f2 3d 3f 67 ad bc
       0.033998765 0.053518753 0.118517525 -0.021167396
0002b0 c0 91 1e 3e e1 05 42 3b 84 41 da be d2 85 05 3d
       0.15485287 0.0029605555 -0.4262811 0.032598324
0002c0 58 cd b0 bd 91 75 1a 3e 7a 02 29 be df d8 4e be
       -0.08632916 0.1508391 -0.16504851 -0.20199917
0002d0 f5 7e ee 3a 79 f1 0a be a0 d5 98 bd ad e0 4d 3e
       0.0018195795 -0.13568677 -0.07462621 0.20105238
0002e0 43 78 d7 3b c7 28 1c 3e 56 c6 00 be 44 93 1c 3d
       0.0065756156 0.1524993 -0.12575659 0.03822638
0002f0 1f ac 6d 3d db c4 ae 3d a2 38 49 bd 8d e4 05 3d
       0.058025476 0.08533641 -0.049126275 0.032688666
000300 c7 8e e3 bc 53 16 be 3d 54 06 b5 be 33 66 1e 3c
       -0.027778042 0.09281602 -0.3535639 0.009667921
000310 40 e9 4d be 1e f9 dc be c6 e2 40 3b 82 c0 3b bf
       -0.20108509 -0.4315881 0.0029432043 -0.7334062
000320 51 37 cc 3d fe b0 0b 3e 8f 83 02 bc 99 3d 92 3e
       0.09971488 0.13641736 -0.007965936 0.2856262
000330 91 20 fd bd a9 42 6b be 02 c2 c1 bd ee da 01 3d
       -0.12359727 -0.22974648 -0.09460832 0.03170293
000340 9c 9f 85 3d 4e 93 29 be bc 08 05 be e6 2f a1 bc
       0.06524584 -0.16560099 -0.12991613 -0.01967616
000350 dd 58 6b bd 96 4b a0 3d 8c dd 7d bd 2e 1c 7a 3e
       -0.057457794 0.07826917 -0.06197886 0.24424812
000360 02 09 7f bd 9c 50 02 bd 2a 09 38 3d 94 57 88 bd
       -0.06226445 -0.031815156 0.044930615 -0.06657329
000370 b3 91 0d be 56 a3 1f 3d f9 c9 35 be b9 df 56 3e
       -0.13825111 0.03897413 -0.17752828 0.20983781
000380 7c 3e b1 3b c3 78 67 be 3d 83 7c 3d d5 91 d9 be
       0.00540906 -0.2260466 0.061648596 -0.42494074
000390 29 f4 6a be 08 72 8c 3d 7a 8d d4 bd 64 6a a1 be
       -0.22944702 0.06857687 -0.10378547 -0.31526482
0003a0 88 53 2a 3e de 04 69 3d d7 02 c8 3d 87 9d 31 3e
       0.16633427 0.056889407 0.09766167 0.17345248
0003b0 2f 24 74 be 75 d0 54 bd 62 e4 e4 ba 29 ed c7 3d
       -0.23841928 -0.051956613 -0.0017463083 0.097620316
0003c0 01 70 fb bd b3 18 0d 3e 9c a2 88 bd a1 d4 82 3e
       -0.122772224 0.13778953 -0.0667164 0.25552848
0003d0 71 a9 96 3c 39 11 aa 3e c1 71 47 3d 91 ca 6e be
       0.018391343 0.33216265 0.04869247 -0.2331946
0003e0 6a 77 65 3e e4 d9 c8 3d a3 d1 84 3d e4 ea c3 3d
       0.22408834 0.09807184 0.064852975 0.09566286
0003f0 57 c1 18 be 89 9b b5 bd dc ae 72 3d 08 9d c5 bc
       -0.14917503 -0.088675566 0.05924879 -0.02412273

fc_advantage.2.bias f4 [32]
000000 7d 28 46 3c b9 dd 24 3e 43 77 08 be a4 d4 c3 bc
       0.012094614 0.16100205 -0.13326745 -0.023905106
000010 9c ba 46 be 28 b6 47 3e ec 67 a3 bc 49 a6 4b 3e
       -0.19407123 0.19503081 -0.019947015 0.19887652
000020 e8 09 ec 3c 4b 37 86 bd 6b 72 a6 3e ae 27 55 be
       0.028813317 -0.06553515 0.3250917 -0.20815918
000030 ee 81 11 bf 64 86 05 bc b5 d3 b6 3c 94 6b 37 be
       -0.5683888 -0.008149717 0.022317747 -0.17912132
000040 c7 a7 32 bd e1 d2 39 3d 13 41 8d bc dd 81 d4 3d
       -0.043617036 0.045367125 -0.017242944 0.10376332
000050 4c 72 df bd 36 c7 77 bc e9 45 0d 3e cb 61 d0 3c
       -0.10910472 -0.015123179 0.137962 0.025437256
000060 44 3a 1d 3e d4 75 94 bd fc 18 85 3e fc 50 c6 be
       0.15354258 -0.072490364 0.25995624 -0.3873366
000070 73 fb 01 3f cf d3 c8 3d 38 12 06 bf 41 fc c7 3e
       0.50774306 0.09806024 -0.5237155 0.39059642

fc_advantage.4.weight f4 [6, 32]
000000 0a 97 3f 3e ea 32 f5 bd dd 7b 23 3d 73 cf 7e 3d
       0.1870996 -0.11972602 0.039913047 0.062209558
000010 9a dc 1a 3d 4f 8d 6b 3d f7 73 1f bd a9 a9 63 3e
       0.03780804 0.05750781 -0.038928952 0.22232689
000020 93 94 d7 3c 40 7a d8 3d d0 f8 4a be 31 c8 32 3d
       0.026315963 0.10570192 -0.19821477 0.04364795
000030 c4 19 3a bd 47 3d 28 bd b5 ae 85 bd 19 c8 1d bd
       -0.04543473 -0.041074064 -0.06527463 -0.038520906
000040 21 87 58 bb 5d b9 aa bd 70 ce 99 3d 7a 57 ca be
       -0.0033039527 -0.083361365 0.07510078 -0.39519864
000050 ae 93 2b be eb 44 19 3d 17 4e 01 3e 1f 3c a4 be
       -0.16755554 0.03741924 0.12627445 -0.3207712
000060 3d d1 a3 3d 24 02 b1 3e b4 b7 d0 bd 47 f5 19 3e
       0.079988934 0.34571946 -0.101912886 0.15034972
000070 f2 35 1a 3e bf aa 3d bd d9 ea b3 3c cb ff 2c be
       0.15059641 -0.046305414 0.02196257 -0.16894452
000080 e6 7c da bc 0a 5c 87 3c 12 7f db bc 2c a1 81 3d
       -0.026670884 0.01652338 -0.02679399 0.06329569
000090 5f e4 e2 bd 23 5e be 3d 8f f0 da bd 95 76 36 be
       -0.110787146 0.09295299 -0.10690414 -0.17818673
0000a0 c4 8a 5f 3e d0 53 17 bd 49 a1 3b 3c 1b bc a1 3c
       0.21830279 -0.036945164 0.011452028 0.019743016
0000b0 0a b5 d8 3d 94 18 fa 3e 6f ee 79 be 8f 7f 43 3d
       0.105814055 0.48846877 -0.24407361 0.04772907
0000c0 ee d0 38 3d f0 85 a6 bd ea 33 00 3e c4 ee d1 3b
       0.045121126 -0.08131015 0.12519804 0.006406637
0000d0 0e b9 b3 bd 15 f9 2f be 19 42 01 be c3 ee 63 3d
       -0.08775531 -0.17184861 -0.1262287 0.055647623
0000e0 30 97 77 bf ed e6 77 3e 18 8b 4c be c4 70 20 3e
       -0.9671507 0.24209185 -0.19974935 0.15668017
0000f0 0d 29 10 3e ee a5 b6 3e c5 9d 78 bd 54 0f 83 bc
       0.1407816 0.3567347 -0.060697336 -0.01599852
000100 d2 93 51 3e 14 f6 89 be 99 bb bd 3d 9a 3f eb be
       0.20466545 -0.26945555 0.09264297 -0.45946962
000110 95 e6 a3 be c3 a7 14 bf 79 b1 98 bd c8 7f c4 bd
       -0.32011858 -0.58068484 -0.07455725 -0.09594685
000120 7c c3 a9 be 4c 9a bb bd b7 e8 32 3e 18 a7 b3 bd
       -0.33156955 -0.09160289 0.17471586 -0.08772105
000130 06 0a aa 3d 01 41 d1 be 33 b9 ec bc 7f 58 34 3c
       0.08302693 -0.40869907 -0.028896904 0.011007427
000140 67 ec 5b 3d 4c 66 f6 3e b7 0a 6f 3d d1 74 ba 3b
       0.053692248 0.4812492 0.058359828 0.005690195
000150 68 3b 6a 3e b1 1c 3a be b7 ef 34 bd 2a 04 8c 3d
       0.22874224 -0.18175007 -0.044173922 0.06836732
000160 ad f1 c3 3e 25 9b 2c bc 05 1e 40 be cb 7b 31 3e
       0.3827032 -0.010535036 -0.18761452 0.1733238
000170 af b2 e6 3d 5d 1b f7 be 54 03 18 3b e9 8e 87 bd
       0.1126455 -0.48263064 0.0023195343 -0.06619055
000180 d7 c2 17 3d 04 79 85 bd c1 6f 92 be 19 05 17 bd
       0.037051048 -0.065172225 -0.28600886 -0.036870096
000190 dc 8d a9 3e 53 cb 50 3e 5a 0d f3 3e 9a 44 41 3d
       0.33116043 0.20390062 0.47471124 0.047184564
0001a0 ec 85 4f 3d c2 6a 12 3d 5a 8c 4f be 3e b4 a2 be
       0.050664827 0.035746343 -0.20268384 -0.3177814
0001b0 62 e7 41 be f0 ce 49 3d 0d 27 3e 3e 76 aa e5 39
       -0.18935922 0.049269617 0.18569584 0.00043805287
0001c0 9d 84 e6 3d b7 0d 0c bf 41 10 b1 be ac fa 12 3e
       0.11255763 -0.5470843 -0.34582713 0.14353436
0001d0 c6 1b 9b 3e 41 e6 c0 3b 5f 6e ce bd 3f f8 c9 3d
       0.30294627 0.0058868234 -0.10079645 0.09861802
0001e0 93 4c 59 3d 1d ee a9 be d9 21 21 bf 0f 9a e8 3e
       0.053051542 -0.3318948 -0.6294227 0.45430037
0001f0 dc 62 81 3e 9f 1a 11 3e 7d a5 a2 3e 3b a8 8a 3e
       0.25270736 0.14170311 0.31766883 0.27081475
000200 96 7f ae 3e 82 1a 9c 3e df da 16 be c2 27 59 be
       0.34081715 0.30488974 -0.1473193 -0.21206573
000210 10 20 ce 3d d7 11 9b 3d c6 db 74 be b3 7d 84 3d
       0.10064709 0.07571762 -0.23911962 0.06469288
000220 22 30 a1 bd aa bc 7e 3d ff ca 4f be a9 c4 1a 3f
       -0.07870509 0.062191643 -0.2029228 0.6045633
000230 a1 c1 b2 be 15 3a 81 3c f0 c8 5e 3c c2 34 63 bd
       -0.34913352 0.015774766 0.013597712 -0.055470236
000240 e2 27 a0 3d 8e aa 80 be 08 94 47 3e 03 ab 82 3e
       0.07820107 -0.25130123 0.19490063 0.25521097
000250 e9 05 ed bd c2 38 9b be cb 20 c2 be c4 ac b6 bd
       -0.11573393 -0.3031674 -0.37915644 -0.08919671
000260 b3 b6 0e 3e b1 76 7b be 0e 20 d5 3e 93 9b 2a bf
       0.13936882 -0.24556996 0.41626018 -0.6664364
000270 2d 64 38 3d f4 88 71 3d 4d 41 0f bf 5f b5 bd bd
       0.04501741 0.0589685 -0.55959016 -0.092631094
000280 8c 4f a1 3d 00 f7 e0 3d 9a 88 4c 3e 9d 18 0a bc
       0.078765005 0.109846115 0.19973984 -0.00842872
000290 52 f0 b5 3d 78 5b ea 3d dc 1e 4f be 56 a6 ca bd
       0.08883728 0.114432275 -0.20226616 -0.09895007
0002a0 97 d7 7a bd d2 ca 7f 3e 8b 06 72 be 0e b6 3b be
       -0.06124076 0.24979714 -0.23635308 -0.18331167
0002b0 af 55 0b 3e a1 8f ef bd a6 91 10 3e 68 52 b4 3d
       0.13606904 -0.11697317 0.1411806 0.0880478
0002c0 f1 ec 15 39 3b 5e 15 be 22 4e 92 3d be 2d 48 3e
       0.00014298015 -0.14586727 0.07143809 0.195487
0002d0 15 01 52 3d d6 18 c1 3e 59 ad e2 bb 20 0e 1e 3e
       0.051270563 0.3771426 -0.0069176373 0.15435076
0002e0 d0 30 95 bd cd 57 b8 3c 06 ea d1 3b 55 f6 5e 3d
       -0.07284701 0.022502804 0.0064060716 0.05443414
0002f0 83 42 85 be a1 ef c9 bc 35 8a 55 3e 4d 4a c1 be
       -0.26027307 -0.024650397 0.20853503 -0.37752

fc_advantage.4.bias f4 [6]
000000 7c e1 1a 3e ab ab aa bd 17 eb 67 bd 2b f1 ae 3d
       0.15125078 -0.08333524 -0.056620684 0.08542093
000010 dd ca 4f be 2e c8 16 be
       -0.2029223 -0.147248
