data/Torch/Dueling/002_CNN-1_E_L/checkpoints/weights_1900000steps.pth (torch, 286623 bytes, 13 tensors)

conv_layers.0.weight f4 [32, 1, 3, 3]
0	0xbd93eb29	-0.072225876
1	0xbd652fe8	-0.05595389
2	0xbc4296c2	-0.011876764
3	0x3de796be	0.11308049
4	0xbe8f8ed7	-0.28038666
5	0xbcf94d06	-0.030432235
6	0x3e866899	0.26251677
7	0x3d3d7359	0.046252582
8	0x3e973570	0.29532957
9	0xbe9c8d98	-0.30576777
10	0x3ea56955	0.32306924
11	0xbc1821eb	-0.00928543
12	0xbddf1412	-0.108925
13	0xbdd2175b	-0.10258361
14	0x3e632da8	0.22185385
15	0x3ee148b7	0.4400079
16	0xbdfb2bcf	-0.12264215
17	0xbe5e5ff2	-0.21716288
18	0xbf06df65	-0.52684623
19	0xbcda0aa0	-0.026616395
20	0x3d1fb339	0.03898928
21	0x3ea50f26	0.3223812
22	0x3dea6332	0.11444701
23	0xbc888f7c	-0.016669981
24	0x3caad747	0.020854605
25	0x3dcca4bd	0.09992359
26	0xbe4fef0d	-0.20306034
27	0xc0114e20	-2.2703934
28	0x3d946b25	0.07246999
29	0x3df5e8e6	0.120073125
30	0x3d92e869	0.07173235
31	0xbc93dfa9	-0.018050985
32	0x3c854db1	0.016272398
33	0x3d5da10c	0.054108664
34	0x3bca9dec	0.0061833765
35	0x3b92068a	0.004456346
36	0x3e39ed2b	0.18156879
37	0xbe2e3a6b	-0.17014472
38	0x3d9048ca	0.070451334
39	0x3da90fc6	0.08254962
40	0x3dff098c	0.12452993
41	0xbcba9656	-0.022776764
42	0xbbd1d64d	-0.0064037205
43	0xbd0a629d	-0.03378545
44	0xbc11f1fe	-0.008907793
45	0x3f026102	0.5092927
46	0x3d193e6a	0.03741304
47	0x3cffdd7d	0.031233544
48	0xbf8b9330	-1.0904293
49	0x3e393f0e	0.1809046
50	0x3b5bedd0	0.0033558495
51	0xbd232033	-0.03982563
52	0x3d262e18	0.040571302
53	0xbcd37923	-0.025814598
54	0x3f2ef658	0.6834464
55	0xbbe86a10	-0.0070927218
56	0xbcdb4198	-0.026764676
57	0x3a4397d3	0.0007461283
58	0xbeef1c9a	-0.4670151
59	0x3d27c4d9	0.040959213
60	0xbcf874f1	-0.0303292
61	0xbc94065c	-0.018069439
62	0xbd1498c8	-0.036278516
63	0xbf567721	-0.83775526
64	0xbd1d7066	-0.03843727
65	0xbf3bae79	-0.733131
66	0x3d40accd	0.047039796
67	0xbca04d3d	-0.01956808
68	0xbf6dab7d	-0.92839795
69	0xbd2ae44e	-0.041721635
70	0xbbfddca7	-0.007747251
71	0xbad3aa2d	-0.0016148739
72	0xbf2b96de	-0.6702708
73	0x3e33b9e9	0.17551388
74	0x3ca73849	0.020412581
75	0x3c103b44	0.0088031925
76	0x3e760ca7	0.24028264
77	0xbd7c30e7	-0.061570074
78	0xbc80a682	-0.015704397
79	0x3e3f3891	0.18673922
80	0x3dc63141	0.09677363
81	0x3ea13779	0.31487635
82	0xbe40d528	-0.18831313
83	0xbd01f156	-0.031724297
84	0xbea8c0bc	-0.32959545
85	0xbddf4261	-0.10901333
86	0x3e076d22	0.13225225
87	0xbd7110e7	-0.05885401
88	0xbe0dab34	-0.1383484
89	0x3ec6ca5c	0.38826263
90	0xbe897660	-0.26848125
91	0x3d9e53f8	0.077308595
92	0x3e394560	0.1809287
93	0xbb2f4fcc	-0.0026750444
94	0x3e38f99e	0.18063971
95	0x3d08fdfb	0.03344534
96	0xbe2056ca	-0.15658107
97	0xbe262c00	-0.16227722
98	0x3d03c6ed	0.032172132
99	0xbda9ba95	-0.08287541
100	0xbeb7aced	-0.3587412
101	0x3e00e97c	0.12589067
102	0x3ef0608b	0.46948656
103	0x3e067554	0.13130695
104	0x3d9dae58	0.07699269
105	0x3d2e412d	0.042542625
106	0x3d12b94a	0.035821237
107	0xbf341f3f	-0.7036018
108	0x3e361db5	0.1778477
109	0xbd1b4be5	-0.037914176
110	0xbd0380a4	-0.032105103
111	0xbe4ff73f	-0.2030916
112	0xbdb33164	-0.08749655
113	0x3eb09411	0.34487966
114	0xbc9fa02c	-0.019485556
115	0x3d366411	0.044529025
116	0xbd343ee0	-0.044005275
117	0xbfaf76f5	-1.3708178
118	0x3de1ff8d	0.110350706
119	0x3d7090b7	0.05873176
120	0x3deb8882	0.11500646
121	0x3d6f7fb9	0.058471415
122	0x3d9625df	0.07331442
123	0x3dc210a1	0.09475828
124	0x3d5badd6	0.05363258
125	0x3d40a914	0.047036245
126	0x3efcddf1	0.49388078
127	0x3e2fb7ae	0.17159912
128	0xbe073026	-0.13201961
129	0x3d964a83	0.07338431
130	0xbe352f02	-0.17693713
131	0x3d84ddb7	0.06487601
132	0xbc677b9c	-0.014128592
133	0xbc02891b	-0.007967259
134	0xbe51cdc2	-0.20488647
135	0x3f027593	0.50960654
136	0xbef1b5a6	-0.472089
137	0xbce1a395	-0.027543822
138	0xbc8181ef	-0.015809027
139	0x3a408759	0.0007344387
140	0x3cf0a581	0.029375793
141	0x3b8aff92	0.004241892
142	0xbbcbbd1f	-0.0062176134
143	0x3c816bb4	0.015798427
144	0x3d7c6045	0.061615247
145	0x3e0e4cdd	0.13896509
146	0x3e589f02	0.21154407
147	0x3e33d197	0.17560421
148	0x3cb14392	0.021638665
149	0xbe19cf9d	-0.15020604
150	0xbd794499	-0.060856435
151	0xbd97c42a	-0.07410462
152	0xbe54d84c	-0.20785636
153	0xbd1505c2	-0.036382444
154	0x3e393bdc	0.18089241
155	0x3d2c5455	0.042072613
156	0xbe589f9f	-0.2115464
157	0xbe015dea	-0.12633482
158	0x3d1f23f7	0.038852658
159	0xbe1328ef	-0.14371084
160	0x3dccc924	0.09999302
161	0x3d562e39	0.052290175
162	0xbf06e7f6	-0.52697694
163	0xbccd527f	-0.025063751
164	0x3c4a9d3b	0.012366588
165	0xbc9d6294	-0.019212045
166	0x3dec7255	0.115452446
167	0xbd6e6621	-0.058202866
168	0x3cf06211	0.029343637
169	0x3ded71a2	0.11593939
170	0x3eac1431	0.33609155
171	0x3f063f9a	0.524408
172	0xbdef3487	-0.11679941
173	0x3dbea78b	0.093093
174	0xbcf830bf	-0.030296681
175	0xbf0ae959	-0.5426231
176	0xbdab24df	-0.08356642
177	0x3d77232f	0.060336288
178	0xbde9c329	-0.11414177
179	0xbe274d13	-0.16337995
180	0x3e377472	0.17915514
181	0xbe9aea4b	-0.30256876
182	0x3c4eed46	0.012629813
183	0xbe8605ac	-0.26176202
184	0xbd8c0c66	-0.06838302
185	0x3ce63cc0	0.02810514
186	0xbe2c29c4	-0.16812807
187	0x3e29aabd	0.16569038
188	0x3dc34aee	0.09535776
189	0x3f2b9844	0.67029214
190	0xbdc3836a	-0.095465496
191	0x3de5b043	0.1121526
192	0xbe164662	-0.14675286
193	0xbe23d828	-0.16000426
194	0xbccca892	-0.024982724
195	0xbd987981	-0.0744505
196	0x3cf26883	0.02959085
197	0x3c262960	0.0101417005
198	0xbca7862e	-0.020449724
199	0x3bcefc9a	0.0063167335
200	0x3c091846	0.008367604
201	0x3e04ea42	0.12979987
202	0xbe0c1c60	-0.13682699
203	0xbe91177c	-0.2833823
204	0x3cc1a0e5	0.02363629
205	0x3c7b466b	0.015336613
206	0x3cc1873e	0.023624059
207	0xbe43247c	-0.19056886
208	0x3e9f74dd	0.31143847
209	0x3ec4df83	0.38451776
210	0xbd85914d	-0.065218545
211	0xbd0961fa	-0.033540703
212	0xbba68600	-0.005081892
213	0xbe46ab53	-0.19401293
214	0x3dae0ecd	0.08498917
215	0x3b601640	0.003419295
216	0x3d2498c4	0.04018475
217	0xbe441736	-0.1914948
218	0x3e1ed53f	0.15511034
219	0x3e5b1c72	0.2139757
220	0x3c400003	0.011718753
221	0x3d4e9605	0.05043604
222	0xbee9388e	-0.4555096
223	0x3dcc926e	0.09988867
224	0xbe3838bb	-0.17990391
225	0x3e629930	0.22128749
226	0x3dc0552e	0.09391247
227	0x3ae96085	0.0017805254
228	0x3d9b1374	0.0757207
229	0xbe16ced8	-0.14727342
230	0x3d78fc69	0.060787592
231	0xbe0a4f6c	-0.1350686
232	0xbdf2fa91	-0.11864198
233	0xbe22e7ff	-0.15908812
234	0xbea83c2c	-0.32858407
235	0x3cca480b	0.024692556
236	0x3d23ec66	0.04002037
237	0x3e17d0ae	0.14825699
238	0x3dbd2b32	0.092367545
239	0xbe39e6d8	-0.18154466
240	0x3cbb8420	0.02289015
241	0x3d5142c7	0.051089074
242	0xbc4ffd7f	-0.0126947155
243	0x3e66a6b4	0.2252453
244	0x3d95d21c	0.07315466
245	0xbf123e50	-0.5712633
246	0x3eb64f83	0.35607538
247	0xbd177dd0	-0.03698522
248	0x3d978ae4	0.07399538
249	0xbe802640	-0.25029182
250	0x3dfe9d80	0.124323845
251	0xbba55af4	-0.005046243
252	0x3ef6d4e1	0.4820929
253	0xbd159b52	-0.036525078
254	0x3d5978ba	0.05309365
255	0xbef59b6a	-0.47970134

conv_layers.0.bias f4 [32]
0	0xbf6420a4	-0.89112306
1	0xbf3d26d3	-0.73887366
2	0x3f1515bb	0.58236283
3	0x3f26061a	0.6485306
4	0xbedfefb6	-0.43737572
5	0x3e22c132	0.1589401
6	0x3d1a578a	0.03768114
7	0x3f2a0797	0.6641783
8	0x3b5a1603	0.003327728
9	0xbedc1426	-0.42984122
10	0x3ea19978	0.315624
11	0xbdc61e38	-0.096737325
12	0xbf3b7f38	-0.73240995
13	0x3f25711e	0.6462573
14	0xbf501392	-0.8127986
15	0x3ea2d36a	0.3180192
16	0xbf197190	-0.5993891
17	0x3ecd0da6	0.40049475
18	0x3f0456af	0.5169477
19	0x3e9e72b9	0.309469
20	0x3f114003	0.567383
21	0xbf49a3af	-0.78765386
22	0x3ed4e401	0.41580203
23	0xbf814d0f	-1.0101641
24	0x3ec6e507	0.3884661
25	0x3ece0c89	0.4024394
26	0x3f0f057b	0.5586774
27	0xbf25d217	-0.64773697
28	0xbd69ee2e	-0.05711191
29	0x3ecc1b6e	0.39864677
30	0x3f169f46	0.5883678
31	0xbf5604f7	-0.83601326

fc_state.0.weight f4 [64, 512]
0	0x3c2b58a0	0.010458142
1	0xbc884de3	-0.016638702
2	0xbca57896	-0.020199101
3	0xbbf77bbc	-0.007552592
4	0x3d010cb5	0.03150626
5	0xbd10395d	-0.035210956
6	0x3ca83445	0.020532737
7	0xbd215830	-0.039390743
8	0x3cfe26b1	0.031024309
9	0xbc82bdaf	-0.015959589
10	0xbcb6f8e6	-0.02233548
11	0x3d0e2415	0.03470238
12	0x3cdd4776	0.027011614
13	0xbbbe8445	-0.0058141076
14	0x3aa15cac	0.0012310944
15	0x3cc2cd80	0.02377963
16	0x3cf45ad5	0.029828468
17	0xbce6f5f0	-0.028193444
18	0xbc2d5bdf	-0.010580986
19	0x3ceb73bc	0.02874171
20	0x3cde2e08	0.027121559
21	0xbb247dcd	-0.0025099397
22	0xbc066df5	-0.008204927
23	0x3bd5e4b7	0.006527509
24	0xbc8f5ddd	-0.017500812
25	0x3cd3796a	0.02581473
26	0xbd040611	-0.032232348
27	0x3c429d3c	0.011878308
28	0x3c6396a7	0.013890899
29	0xbc953506	-0.01821376
30	0x3cd7cfca	0.026344199
31	0x3d06b8dc	0.03289114
32	0x3c030fcb	0.007999371
33	0xbd4283a3	-0.04748882
34	0x3ca8562f	0.020548908
35	0x3bf026fb	0.0073288656
36	0x3c3083eb	0.010773639
37	0x378b47b3	1.6603479e-05
38	0xbb651d03	-0.003495992
39	0xbcc8a752	-0.024493847
40	0xbb16cbbc	-0.0023009619
41	0xbd0c2f06	-0.034224533
42	0x3ceddb8d	0.029035354
43	0x3c6dc9b0	0.014513418
44	0x3acee665	0.0015785216
45	0xbb3dc52c	-0.0028956635
46	0x3bbdfc9e	0.0057979366
47	0xbd258b19	-0.040415857
48	0xbcccb47d	-0.024988407
49	0xbd3e1213	-0.046403956
50	0xbbe0e840	-0.006863624
51	0x3d096be8	0.033550173
52	0xbd41bae8	-0.04729739
53	0x3cf16219	0.029465722
54	0x3c4e1704	0.01257873
55	0xbc6a0a89	-0.014284738
56	0xbd2579fd	-0.04039954
57	0xbd0f9471	-0.035053674
58	0xbccca4d4	-0.02498094
59	0x3c23cd67	0.009997702
60	0x3c394159	0.011307084
61	0x3b2a21d4	0.0025960105
62	0xbd3676e3	-0.044546973
63	0xbd2fb78e	-0.04289966
64	0x3c9d60a2	0.019211117
65	0x3c483ac9	0.012221047
66	0x3c27b900	0.0102369785
67	0xbbcce4f0	-0.0062528774
68	0x3cfb47e7	0.030673934
69	0x3cb4299d	0.021992499
70	0x3c9722be	0.018449184
71	0x3cb26531	0.021776767
72	0x3bccfc44	0.0062556583
73	0x3becd9ff	0.0072281356
74	0x3cdf97ef	0.027294127
75	0x3c121fe6	0.008918738
76	0xbbd572f0	-0.0065139458
77	0xbccaa4ca	-0.02473678
78	0xbd0a5478	-0.033771962
79	0xbcf59615	-0.029978791
80	0x3bf88ed4	0.007585386
81	0x3d20fda1	0.03930438
82	0xbd233d08	-0.039853126
83	0xbc036e20	-0.008021861
84	0x3d18b0d6	0.03727802
85	0x3c3425e8	0.010995366
86	0x3d0b97a4	0.034080163
87	0x3d22d112	0.039750166
88	0x3c1e8c4c	0.009677004
89	0xbc5c31b7	-0.013439587
90	0xbcc11841	-0.023571135
91	0xba4092c0	-0.0007346086
92	0xbc15b1a4	-0.009136591
93	0x3ac54cac	0.0015052757
94	0xbb94e520	-0.0045439154
95	0x3c6d4e0d	0.014483941
96	0xbd477a21	-0.048700456
97	0xbcda8e74	-0.026679255
98	0x3c92a228	0.017899588
99	0xbc4018e6	-0.011724686
100	0xbc357bc1	-0.0110768685
101	0xbb9b6a2d	-0.0047428817
102	0xbd22bcd1	-0.03973085
103	0xbc300283	-0.010742786
104	0xbd122fc0	-0.03569007
105	0xba3cf0a5	-0.00072074897
106	0xbd00193f	-0.031274077
107	0xbd12c335	-0.035830695
108	0x3c193293	0.009350437
109	0x3bda8733	0.006668949
110	0x3cc2e131	0.02378902
111	0x3c833f6c	0.016021453
112	0x3c85a7bc	0.016315334
113	0xbb41b5cb	-0.002955782
114	0x3b7c533e	0.0038501765
115	0x3b9f1fd6	0.00485609
116	0x3c254e27	0.010089434
117	0xbc0a6434	-0.008446742
118	0x3ca39bf6	0.019971829
119	0xbc8bdd20	-0.017073214
120	0x3ce28a1f	0.027653752
121	0xbd3f9cde	-0.04678046
122	0x3d08ee7a	0.033430554
123	0x3d213326	0.03935542
124	0x3d05f6ae	0.032705955
125	0xbd211402	-0.03932572
126	0xbcf2a949	-0.029621737
127	0xbca1faab	-0.019772848
128	0x3d0638c8	0.032768995
129	0x3c123b9a	0.008925343
130	0xbd2cdfa4	-0.042205468
131	0xbca198ba	-0.019726146
132	0x3d176bdf	0.03696811
133	0x3b9dd348	0.0048164465
134	0xbd0e2ccd	-0.034710694
135	0xbc7438a9	-0.014906087
136	0x3d300b33	0.04297943
137	0x3c9a323f	0.018822787
138	0x3cae11ce	0.021248724
139	0x3c4ea932	0.0126135815
140	0x3c38ecc0	0.011286914
141	0xbb0f5460	-0.002187036
142	0x3c8cdf23	0.017196244
143	0x3cd34b29	0.025792675
144	0x3cf54e07	0.029944433
145	0xbcaf37e2	-0.021388952
146	0xbd2684a7	-0.04065385
147	0x3d03afba	0.032150008
148	0x3c7487a0	0.014924914
149	0x3cd4386e	0.025905814
150	0xbd40a45a	-0.047031738
151	0x3c1b70f9	0.009487384
152	0x3d2a25af	0.041539844
153	0xbd2c6da4	-0.04209675
154	0xbbe315b5	-0.006930078
155	0x3ac32bf9	0.0014890424
156	0xbd226b90	-0.03965336
157	0x3d1fdce0	0.039029002
158	0x3caeb4e3	0.021326488
159	0x3c8c14e4	0.017099805
160	0xbbb15ed0	-0.005412914
161	0xbccc9c02	-0.024976734
162	0x3bd80644	0.006592544
163	0xbc858f91	-0.01630381
164	0x3cc48d1d	0.02399307
165	0x3cba614e	0.022751477
166	0xbc723bd0	-0.014784768
167	0x3cd393c0	0.025827289
168	0xbb1550f3	-0.0022783845
169	0xbd2e85a5	-0.042607922
170	0x3be3baae	0.006949744
171	0x3d01b156	0.03166326
172	0x3cc2a405	0.023759851
173	0x3ad9c56f	0.0016614626
174	0xbcd6245a	-0.02614038
175	0xbd11a9d3	-0.035562348
176	0xbd1c0b8a	-0.038096942
177	0xbca12c11	-0.019674333
178	0xbd2a3d96	-0.04156264
179	0xbce35617	-0.027751012
180	0x3d00c6ab	0.031439465
181	0x3a1773c8	0.00057774456
182	0x3d1f9e96	0.0389696
183	0xbcdf56bc	-0.027263038
184	0x3cb213c6	0.021737944
185	0x3b043060	0.0020170435
186	0x3ac48080	0.0014991909
187	0x3d23848f	0.03992134
188	0xbd2e3e4b	-0.042539876
189	0xbc81bf80	-0.015838385
190	0xba7ccfc0	-0.0009643994
191	0xbbb77a18	-0.0055992715
192	0xbcb02724	-0.021503039
193	0xbcbc9e17	-0.023024602
194	0xbd1d2a98	-0.0383707
195	0xbd29b7cb	-0.041435044
196	0x3ca77a69	0.020444112
197	0x3a4bc05c	0.0007772499
198	0xbd1e5c96	-0.038662516
199	0xbd0c4f62	-0.034255393
200	0xbceea218	-0.029130027
201	0xbc4ac437	-0.012375883
202	0x3c94e236	0.018174272
203	0xbc2119dd	-0.009832826
204	0xbd0380aa	-0.032105125
205	0xbc212bf7	-0.009837142
206	0xbd3d5d8c	-0.04623179
207	0xbce00263	-0.027344888
208	0xbd03c334	-0.032168582
209	0xbc61f4de	-0.013791291
210	0xbccfab03	-0.0253501
211	0xbc12da8c	-0.008963238
212	0x3d1df58e	0.038564257
213	0x3bf55604	0.0074870605
214	0x3c5c7008	0.013454445
215	0xbd2b0449	-0.041752134
216	0x3d08c248	0.033388406
217	0xbcc1af7d	-0.02364325
218	0xbb913d00	-0.0044323206
219	0xbc276ee6	-0.010219311
220	0xbca3f438	-0.020013914
221	0xbc8a0c97	-0.016851706
222	0xbc1a5d67	-0.009421683
223	0x3cfe0c99	0.031011866
224	0xbd2bab76	-0.041911565
225	0x3b6877ca	0.003547179
226	0x3c831f88	0.016006246
227	0x3b18cbba	0.002331479
228	0xbd0e4f61	-0.03474367
229	0x3caddeea	0.021224458
230	0xbcffa373	-0.031205868
231	0xbba08a88	-0.0048993267
232	0xbd28331e	-0.041064374
233	0x3c1cbb9f	0.009566217
234	0x3cbc9f95	0.023025313
235	0xbbee7dd9	-0.007278186
236	0x3d1ab828	0.03777328
237	0xbd0c7b36	-0.03429719
238	0xbc1870a5	-0.0093042
239	0x3a1e8e4b	0.0006048425
240	0xbcf147e9	-0.029453235
241	0xbc984533	-0.018587684
242	0xbd2e7298	-0.042589754
243	0x3cb02920	0.021503985
244	0x3c961532	0.018320654
245	0x3c3deb60	0.011591762
246	0x3d0c8548	0.034306794
247	0xbafdaab9	-0.0019353247
248	0xbcc27181	-0.023735764
249	0xbd3276b8	-0.04357025
250	0x3c8f0468	0.017458156
251	0xbd1006b7	-0.035162654
252	0x3ca2d69e	0.019877728
253	0xbd251696	-0.040304743
254	0x3d0ab62a	0.03386513
255	0xbcd5367b	-0.026026955

fc_state.0.bias f4 [64]
0	0xbb6ecbd4	-0.003643741
1	0xbd0222bc	-0.031771407
2	0x3db2d801	0.08732606
3	0xbcf92c9c	-0.03041678
4	0xbb37d1ae	-0.0028048563
5	0xbc16e336	-0.009209445
6	0xbcac750a	-0.021051902
7	0x3ce2489b	0.027622512
8	0x3d9ac4b0	0.075570464
9	0x3cfcad92	0.030844484
10	0x3cef7232	0.029229257
11	0xbe033a8c	-0.12815303
12	0xbcd9eec3	-0.026603108
13	0x3cbce9b8	0.023060665
14	0x3cbd3bc3	0.023099786
15	0x3db3b7fc	0.087753266
16	0xbcca98bf	-0.024731038
17	0xbd3b5f7e	-0.045745365
18	0xbd41b768	-0.04729405
19	0x3e265237	0.162423
20	0xbd2f4478	-0.042789906
21	0xbcdfed7f	-0.027334927
22	0xbc8c3095	-0.01711301
23	0xbd12e74b	-0.03586511
24	0x3cab8f20	0.02094227
25	0x3de9540e	0.11392985
26	0x3c6c80c7	0.014435
27	0xbb02d3b6	-0.0019962615
28	0xbd1bef27	-0.03806987
29	0x3de74994	0.11293331
30	0xbcb904d8	-0.022585317
31	0x3cdeb24c	0.027184628
32	0xbcd1a704	-0.025592335
33	0xbda8e4d5	-0.08246771
34	0xbd1441a1	-0.0361954
35	0x3db44489	0.088021345
36	0xbc3047af	-0.010759278
37	0xbd354bb3	-0.044261646
38	0x3df33ff4	0.118774325
39	0xbe1dea1e	-0.1542134
40	0xbbf65d99	-0.007518482
41	0xbd365083	-0.044510376
42	0x3cc82105	0.024429807
43	0xbd0e67df	-0.034767028
44	0x3dd7d50a	0.10538681
45	0xbb3bb23a	-0.0028640167
46	0x3d1d0265	0.03833236
47	0xbcb4e949	-0.022083895
48	0xbd27ade7	-0.04093733
49	0x3de6a028	0.11261016
50	0xbdbfbb0a	-0.09361847
51	0x3bc1b203	0.005911113
52	0xbd3a8b38	-0.045542926
53	0xbd6e0054	-0.05810578
54	0x3d5fb1c3	0.054612886
55	0xbd6bc72a	-0.057562985
56	0xbbe21e35	-0.0069005736
57	0x3e07ac5b	0.13249342
58	0xbcf104f6	-0.02942131
59	0xbc783100	-0.015148401
60	0xbd9401a1	-0.07226873
61	0x3c372f6a	0.011180738
62	0xbd7e2df5	-0.062055547
63	0x3cf901ba	0.030396331

fc_state.2.weight f4 [32, 64]
0	0xbddef2f9	-0.10886187
1	0x3db8dd8a	0.0902663
2	0x3cb78160	0.022400558
3	0x3d51f0a0	0.05125487
4	0x3dec9b3e	0.115530476
5	0xbda17547	-0.07883697
6	0xbc28ba47	-0.010298318
7	0x3cebc155	0.028778711
8	0xbe505fe2	-0.20349076
9	0xbddbb775	-0.10728351
10	0x3d4e090b	0.050301593
11	0xbe0ad3db	-0.13557379
12	0xbddd0490	-0.10791886
13	0xbf3e29ef	-0.74282736
14	0xbd4bf7ba	-0.049796797
15	0x3e0d9065	0.13824613
16	0xbdefda2f	-0.11711537
17	0x3de3deae	0.11126457
18	0x3d8a99e9	0.06767637
19	0xbd49fc59	-0.049312923
20	0xbddc9553	-0.10770669
21	0x3d12b006	0.0358124
22	0xbdb2cdb5	-0.08730642
23	0xbd824897	-0.06361502
24	0x3de8b98b	0.113635145
25	0xbdaf136a	-0.08548625
26	0xbc532131	-0.012886331
27	0x3d844bfc	0.06459805
28	0x3cf6cb0d	0.030126119
29	0x3b9d8e57	0.004808228
30	0xbb8ddd6a	-0.004329373
31	0xbf1cf39b	-0.6130921
32	0x3d2f7c57	0.04284319
33	0xbe4d58ec	-0.20053452
34	0xbdd70ac1	-0.10500098
35	0xbf03d7d3	-0.51501197
36	0xbd85e60b	-0.06538018
37	0x3c77d690	0.015126839
38	0xbe7bd014	-0.24591094
39	0xbe80f0ed	-0.25183812
40	0x3d910e85	0.070828475
41	0xbbe1fcbf	-0.0068965848
42	0x3da64b7f	0.081198685
43	0xbcbcc01e	-0.023040827
44	0x3e042884	0.1290608
45	0xbc38ccb9	-0.011279278
46	0xbdfbd74c	-0.12296924
47	0xbd90dec3	-0.070737384
48	0x3de285f7	0.11060708
49	0xbc11f1e9	-0.0089077735
50	0x3e8bbb97	0.27291557
51	0x3d6e734c	0.058215424
52	0x3da84c4c	0.082176775
53	0x3db2a0b5	0.08722059
54	0xbc921452	-0.017831955
55	0xbdc8c1b8	-0.09802574
56	0x3ce160c9	0.027511971
57	0x3d0b5f23	0.034026276
58	0x3ddd520b	0.10806664
59	0x3e4b43cc	0.19850081
60	0x3dcd1a82	0.100148216
61	0x3b6f7ffc	0.003654479
62	0xbd6d6fa7	-0.057967808
63	0xbcbd20d2	-0.023086939
64	0x3dbea4ef	0.09308802
65	0xbdf1778d	-0.117903806
66	0x3db72012	0.08941664
67	0xbb332b28	-0.0027338956
68	0x3d7517cd	0.05983715
69	0x3d8760d9	0.06610269
70	0x3d0979ae	0.03356331
71	0xbd8cc367	-0.068732075
72	0x3d3fc294	0.046816424
73	0xbddd7d0c	-0.108148664
74	0x3de0ae1f	0.10970711
75	0xbdb01464	-0.08597639
76	0x3d33bbb9	0.0438802
77	0x3dbec5e1	0.09315086
78	0xbc695757	-0.014242015
79	0x3cebe19f	0.028794108
80	0xbd0d7702	-0.034537323
81	0x3d45aa38	0.048258036
82	0xba154b75	-0.0005695143
83	0x3e4a3125	0.1974531
84	0xbbba6f64	-0.0056895483
85	0x3d3ba85c	0.045814857
86	0x3d05e153	0.03268559
87	0x3cb7fdbb	0.022459855
88	0xbc4b8fa5	-0.012424384
89	0xbd697e1d	-0.057005037
90	0x3d923d9a	0.07140656
91	0x3caa147c	0.02076172
92	0x3d9991a9	0.074984856
93	0x3e62c12a	0.22143999
94	0xbb4c4878	-0.0031171124
95	0x3e971f66	0.29516143
96	0x3dae5e72	0.08514108
97	0x3e172c21	0.14762928
98	0x3d75edeb	0.06004135
99	0x3d28a789	0.0411754
100	0x3e147620	0.14498186
101	0xbdf52272	-0.119694605
102	0x3dd2232f	0.10260617
103	0xbcf90440	-0.030397534
104	0x3de0ead2	0.109822884
105	0x3d5bc6ea	0.053656496
106	0x3d63c846	0.055610918
107	0xbdd27ac4	-0.10277322
108	0x3e0e8bbb	0.1392049
109	0xbd86768d	-0.065655805
110	0x3e328395	0.17433007
111	0x3da63f0f	0.08117496
112	0x3b428d69	0.0029686338
113	0x3e83def0	0.25756025
114	0xbdce7063	-0.1008003
115	0x3da1ce2c	0.07900652
116	0xbcb948ef	-0.022617785
117	0x3d6afeb8	0.057371825
118	0xbd9bca3b	-0.07606932
119	0xbd1777b0	-0.036979377
120	0xbd452285	-0.048128624
121	0x3e806088	0.25073647
122	0xbdc173fa	-0.09445949
123	0xbe92cdc1	-0.28672603
124	0xbd4eb0ee	-0.050461702
125	0x3d69006c	0.056885168
126	0x3d0b617b	0.03402851
127	0x3e47b2c0	0.19501781
128	0x3ddc8691	0.10767854
129	0xbd2892b0	-0.041155517
130	0x3c004714	0.007829446
131	0x3dd63ee9	0.10461218
132	0x3dc73805	0.09727482
133	0x3de07985	0.10960678
134	0xbd7c6c9e	-0.061627023
135	0xbd85bf67	-0.06530648
136	0x3f5dbf9d	0.86620504
137	0x3d891c3b	0.06694838
138	0x3b370986	0.002792926
139	0xbe27937a	-0.16364852
140	0xbe0d07cd	-0.13772507
141	0xbe57e9f6	-0.21085343
142	0xbd9db39b	-0.07700273
143	0xbe1048d5	-0.14090283
144	0xbcad8717	-0.02118258
145	0x3d066f00	0.0328207
146	0xbda586f1	-0.08082379
147	0xbe67e4bd	-0.2264585
148	0xbdf858d1	-0.121263154
149	0x3d8f8dff	0.070095055
150	0x3db46e52	0.088101044
151	0xbd5ee9ae	-0.054422073
152	0xbdbbbaaa	-0.09166463
153	0x3e182c17	0.14860569
154	0xbded9784	-0.11601165
155	0x3df2c142	0.11853267
156	0xbd4d6829	-0.050148163
157	0x3e0a9673	0.13533954
158	0x3d8af69e	0.0678532
159	0xbec9d938	-0.39423537
160	0x3e3eb93a	0.18625346
161	0xbe325b6d	-0.17417689
162	0xbdf6b140	-0.120455265
163	0xbe18f44c	-0.14936942
164	0xbdc5cd70	-0.09658325
165	0x3dd7e472	0.10541619
166	0x3cd76aa0	0.02629596
167	0xbc8f0674	-0.017459132
168	0x3de31771	0.110884555
169	0xbc30a20b	-0.010780822
170	0x3de4658a	0.111521795
171	0x3e10595c	0.14096588
172	0x3e25993f	0.1617174
173	0xbdca8583	-0.098887466
174	0x3d99f630	0.0751766
175	0xbcf966d2	-0.030444536
176	0x3bdd0493	0.00674493
177	0x3e5e8351	0.2172978
178	0x3cd6d58a	0.02622487
179	0xbcd07dba	-0.025450576
180	0xbde20748	-0.11036545
181	0x3de534a8	0.11191684
182	0xbebea88c	-0.37237966
183	0x3d970ed9	0.07375879
184	0xbd9148ae	-0.07093941
185	0xba09b9d5	-0.00052538264
186	0xbd2bdc24	-0.04195799
187	0xbe75cdaa	-0.24004236
188	0x3bd7cd82	0.0065857777
189	0x3d49fcb5	0.049313266
190	0xbca42ea3	-0.02004177
191	0x3c774632	0.015092419
192	0x3df44d42	0.11928798
193	0xbdeb125b	-0.114781104
194	0xbea3f327	-0.32021448
195	0x3d7495e8	0.059713274
196	0x3d719ea9	0.0589892
197	0x3cbf2e08	0.02333738
198	0xbd305248	-0.04304722
199	0x3da2b254	0.0794417
200	0xbf17bbaf	-0.5927076
201	0x3d4dd577	0.050252404
202	0xbcc86b74	-0.0244653
203	0x3b70ccae	0.0036743092
204	0xbd9edc6c	-0.07756886
205	0xbcd5c3fa	-0.026094425
206	0x3d1dae5a	0.038496353
207	0xbf0bd7aa	-0.5462595
208	0xbdb56dcf	-0.08858835
209	0xbd1d9ef7	-0.03848168
210	0x3d722e39	0.059126113
211	0x3e3d7e82	0.1850529
212	0xba8fa7f2	-0.0010960086
213	0xbd9e4e8c	-0.077298254
214	0xbc593e18	-0.013259433
215	0xbd291dfe	-0.04128837
216	0x3d06d36f	0.032916483
217	0x3df02d78	0.117274225
218	0x3dc31e7c	0.09527299
219	0xbab7de55	-0.0014028052
220	0x3d7af140	0.06126523
221	0xbd1e45ca	-0.038640775
222	0xbde91722	-0.11381365
223	0x3df94d59	0.12172956
224	0xbded2709	-0.11579711
225	0xbd136c7c	-0.03599213
226	0x3d9e8605	0.07740406
227	0x3dc02470	0.0938195
228	0x3df18463	0.11792829
229	0xbd48421e	-0.04889118
230	0xbde2cae7	-0.11073857
231	0xbc6c5dd4	-0.014426667
232	0x3da7d17e	0.08194254
233	0x3d4bd90d	0.049767543
234	0x3c13dd57	0.0090249395
235	0x3d800703	0.062513374
236	0x3e85c172	0.2612415
237	0xbde93cdc	-0.11388561
238	0xbe8d4faf	-0.27599856
239	0xbc849a95	-0.016186992
240	0x3d6f5889	0.058434043
241	0x3e7d7b82	0.24754146
242	0xbe1719de	-0.14755961
243	0xbd034366	-0.032046698
244	0xbda2640d	-0.079292394
245	0x3de47bb3	0.11156406
246	0xbcaf0697	-0.021365447
247	0xbd7fc6db	-0.062445503
248	0x3df05efc	0.11736867
249	0x3de0765d	0.10960076
250	0xbd4218ee	-0.047387056
251	0xbd951c77	-0.0728082
252	0xbd7b9463	-0.06142081
253	0xbbcb4fdf	-0.0062045897
254	0xbdbf9b2c	-0.093557686
255	0xbf1f8b6b	-0.6232211

fc_state.2.bias f4 [32]
0	0xbcc6fe54	-0.024291195
1	0x3e8dc9b1	0.2769294
2	0x3c3f085b	0.011659707
3	0x3e4eb8a1	0.20187618
4	0xbe3edc34	-0.18638688
5	0x3e8159c0	0.25263786
6	0x3dd0b11c	0.10190031
7	0xbd9bba4a	-0.07603891
8	0x3d9b2dc6	0.0757709
9	0x3ccf3ef0	0.025298566
10	0xbd94d5f3	-0.0726737
11	0x3e2417fd	0.16024776
12	0xbe860640	-0.26176643
13	0x3e3be53e	0.18349168
14	0xbd098cd9	-0.03358159
15	0xbd91ca2b	-0.071186386
16	0x3cdbeba4	0.02684576
17	0xbe9797bc	-0.29607952
18	0x3e46fb8d	0.19431897
19	0x3e9b7ae7	0.30367205
20	0xbe290dfc	-0.16509241
21	0x3d9c0b16	0.07619302
22	0xbe87c770	-0.26519346
23	0xbcf82444	-0.03029073
24	0x3c866d2c	0.01640948
25	0xbdf6aeec	-0.120450824
26	0x3e80d222	0.2516032
27	0x3e7266d2	0.23672035
28	0xbda13aed	-0.07872567
29	0x3e5facf2	0.21843317
30	0x3dcd7c30	0.100334525
31	0xbeae7a14	-0.34077513

fc_state.4.weight f4 [1, 32]
0	0xbede059d	-0.43363658
1	0x3e313358	0.17304742
2	0x3e84423c	0.25831783
3	0xbe98639e	-0.29763502
4	0xbe61329c	-0.21991962
5	0xbdac0db5	-0.08401052
6	0x3dba1436	0.09085886
7	0xbe26e94c	-0.16299933
8	0xbde980ef	-0.11401545
9	0xbd3db576	-0.046315633
10	0x3d7fd4f6	0.062458955
11	0xbe8d42f8	-0.27590156
12	0xbddc8697	-0.107678585
13	0xbcd830a3	-0.02639038
14	0x3a1f045b	0.00060660177
15	0x3e22a0de	0.15881678
16	0x3e9cd87e	0.3063392
17	0xbea706ce	-0.3262238
18	0x3de89525	0.11356572
19	0x3df7e88d	0.121049024
20	0x3e367f9e	0.1782212
21	0x3db44016	0.08801286
22	0xbe1079e3	-0.14108996
23	0xbe4a9fe3	-0.19787554
24	0xbe34541f	-0.17610215
25	0xbe2e7a3b	-0.17038815
26	0xbe046145	-0.1292773
27	0xbe9d67a9	-0.3074315
28	0x3b91a7a9	0.0044450355
29	0xbd4533a1	-0.04814494
30	0x3e3648e6	0.17801246
31	0xbe61f2e4	-0.22065312

fc_advantage.0.weight f4 [64, 512]
0	0xbd2c47b6	-0.042060576
1	0xbd1805fd	-0.037115086
2	0xbcddbde4	-0.027068086
3	0x3c75d423	0.015004191
4	0x3cbe21bf	0.02320945
5	0xbce93e39	-0.028472053
6	0xb8ec2f6a	-0.000112621885
7	0x3cc29972	0.023754809
8	0x3c42410e	0.011856331
9	0xbcdf3e57	-0.027251406
10	0xbcec064e	-0.0288116
11	0xbd509e5e	-0.05093228
12	0xbc87a826	-0.016559672
13	0xbd3b8b1b	-0.04578696
14	0xbd2ec578	-0.04266879
15	0x3b730309	0.0037080667
16	0xbd54c6b4	-0.05194731
17	0xbd087e6b	-0.033323687
18	0x3cbb052b	0.022829613
19	0x3c8581b4	0.016297199
20	0x3cf2d61d	0.029643113
21	0x3cc93a60	0.024563968
22	0xbce46043	-0.027877932
23	0xbd16e8ca	-0.0368431
24	0x3c8ed487	0.017435325
25	0xbc81d973	-0.015850758
26	0x3d327337	0.04356691
27	0x3b93cb3b	0.004510311
28	0xbd1ff6d4	-0.039053753
29	0xbd39ddb1	-0.045377437
30	0x3cf22ebc	0.0295633
31	0x3ccf8271	0.025330754
32	0x3cf0b039	0.029380905
33	0xbcc326e2	-0.023822252
34	0x3ce2fe0c	0.02770903
35	0xbd1c3312	-0.038134642
36	0x3cbc6800	0.02299881
37	0xbd041367	-0.032245066
38	0xbc8b02a1	-0.016969027
39	0xba092e88	-0.0005233069
40	0x3c31dc3f	0.010855733
41	0xbc1b3095	-0.009472032
42	0x3c090cf0	0.008364901
43	0xbcfaa65e	-0.030596908
44	0xbc9b3fdf	-0.018951355
45	0x3ce93fe1	0.028472843
46	0x3cd962e5	0.026536414
47	0xbc45210e	-0.012031807
48	0x3c311f69	0.010810711
49	0xbbad8a84	-0.0052960534
50	0xbc387925	-0.011259352
51	0xbd33342f	-0.043750938
52	0x3be3c1cb	0.006950592
53	0xbca36ce7	-0.01994939
54	0xbc87bb59	-0.016568827
55	0x3d261d74	0.040555432
56	0xbd071d50	-0.03298694
57	0xb99b24ab	-0.00029591224
58	0x3c830d02	0.015997414
59	0xbd25eeb7	-0.04051086
60	0xbd114f87	-0.035476234
61	0x3c8a24a3	0.016863173
62	0xbb590984	-0.0033117244
63	0x3d231637	0.039816108
64	0xbc744eb2	-0.014911341
65	0xbd33db87	-0.04391053
66	0xbd155387	-0.03645661
67	0xbd13d117	-0.036088075
68	0xbcecde18	-0.028914496
69	0xbca881dc	-0.020569734
70	0xbd34dd44	-0.044156328
71	0xbcc65fa6	-0.02421553
72	0x3aaf63a9	0.0013381141
73	0x3c6c4f77	0.014423243
74	0xbd078dc9	-0.0330942
75	0xbd268e73	-0.040663194
76	0xbc1650dd	-0.009174553
77	0xbd36e443	-0.04465128
78	0x3ca28d38	0.019842729
79	0xbd4c80ef	-0.04992765
80	0x3c74a423	0.014931711
81	0xbd0b5489	-0.034016166
82	0xbbc4456d	-0.0059897215
83	0x3b2c532d	0.0026294694
84	0xbd4ab074	-0.049484685
85	0x3d12ba38	0.035822123
86	0xbd09fb51	-0.03368694
87	0xbd0730fd	-0.033005703
88	0xbcb9185f	-0.022594629
89	0xbc950690	-0.018191606
90	0x3ca1f81d	0.01977163
91	0x3d235e3b	0.039884787
92	0x3cab0606	0.020876896
93	0xbb804b1c	-0.0039152037
94	0xbd061e21	-0.032743577
95	0x390d15eb	0.00013454973
96	0x3c6dc6d4	0.014512736
97	0x3cc5a30a	0.024125595
98	0x3c862eb7	0.016379697
99	0xbb40115d	-0.0029307224
100	0x3d07cebf	0.033156153
101	0x3b668c2d	0.0035178766
102	0x3d2a7c3b	0.04162238
103	0x3ceec0d9	0.029144691
104	0xbc836fad	-0.016044462
105	0x3b919b3b	0.0044435537
106	0xbbb86a5a	-0.0056279125
107	0x3c276d16	0.010218879
108	0x3ca5402f	0.020172207
109	0xbd2c68c3	-0.042092096
110	0x3cbd986f	0.023143975
111	0x3c934553	0.017977392
112	0x3c0a5eb7	0.008445433
113	0x3c9d45f8	0.019198403
114	0xbc7a45bd	-0.015275416
115	0x3ca269dd	0.01982587
116	0x3cb4eb77	0.022084935
117	0xbc8d463f	-0.01724541
118	0xbcbeb95f	-0.023281751
119	0x3d0b453d	0.034001578
120	0xbc8b9178	-0.017037138
121	0xbd422c57	-0.047405567
122	0x3c0fe792	0.008783238
123	0xbacd4e60	-0.0015663616
124	0xbd35b1a3	-0.04435886
125	0xbd2e4ccf	-0.04255372
126	0x3c8ac5f7	0.0169401
127	0x3cf511bc	0.029915683
128	0x3c81cb67	0.01584406
129	0xbc95310e	-0.018211868
130	0x3c9c3fd2	0.0190734
131	0x3c327ca8	0.010893978
132	0xbc804165	-0.015656183
133	0xbd069f97	-0.03286704
134	0xbd142254	-0.03616555
135	0xbb2f350e	-0.0026734504
136	0xbb6dbca7	-0.0036275776
137	0x3d01eb23	0.031718384
138	0xbd196730	-0.037451923
139	0xbc7998c0	-0.015234172
140	0x3cdb8d90	0.0268009
141	0x3ba8ca45	0.0051510655
142	0xbb70b57f	-0.0036729274
143	0xbd2388af	-0.039925274
144	0xbb0a9933	-0.0021148443
145	0x3cd0edd1	0.025504025
146	0x3b639da3	0.003473141
147	0x3c162b88	0.009165652
148	0x3c1ebe14	0.009688873
149	0xbc6165c9	-0.013757178
150	0x3c8581a8	0.016297176
151	0x3c4c2f73	0.012462485
152	0xbce3825d	-0.027772123
153	0x3bd9496e	0.006631068
154	0x3cd8273e	0.0263859
155	0x3ccbd9b3	0.02488408
156	0x3cfde080	0.030990839
157	0x3d0e387d	0.03472184
158	0xbd3bf452	-0.0458873
159	0x3c6d9fad	0.014503402
160	0x3c3f269e	0.011666922
161	0xbccf1897	-0.02528028
162	0xbd599885	-0.05312397
163	0x3b688c57	0.003548404
164	0xbc80f818	-0.0157433
165	0xbc833a5e	-0.016019043
166	0xbd4329ce	-0.04764729
167	0xbd40a7b0	-0.04703492
168	0xbb93eb96	-0.004514168
169	0x3b8874de	0.0041643223
170	0xbbe09542	-0.0068537304
171	0xbb498b2e	-0.0030753124
172	0x3d01dba8	0.03170362
173	0x39c4aa50	0.00037510926
174	0xbd0742f4	-0.033022836
175	0x3c886da2	0.01665384
176	0x3d189039	0.037246916
177	0xbcc30b8a	-0.023809213
178	0x3d19aee4	0.037520304
179	0xbbacf13c	-0.005277781
180	0xbd0852cd	-0.03328209
181	0xb9ac1e1b	-0.00032828827
182	0x3d327a29	0.043573532
183	0x3d275f40	0.04086232
184	0x3d1c3a45	0.038141508
185	0xbb77cc60	-0.0037811026
186	0xbd1a3721	-0.03765023
187	0x3d271518	0.0407916
188	0xbd23ce8b	-0.039991897
189	0x3ab6dfaa	0.0013952155
190	0xbcb23f31	-0.021758648
191	0xbc6db1ef	-0.014507755
192	0xbbb8a8d1	-0.005635359
193	0xbd6c9e08	-0.057767898
194	0x3c85920b	0.01630499
195	0x3cc1ae56	0.0236427
196	0x3c50be1b	0.012740637
197	0x3d00f87c	0.031486973
198	0x3be35af8	0.0069383346
199	0xbcc2342c	-0.023706518
200	0xb93b28d0	-0.00017848914
201	0x3bef1932	0.0072967047
202	0x3ca7c415	0.020479241
203	0xbc2376e7	-0.009977079
204	0x3cebc677	0.028781159
205	0x3c62f639	0.013852649
206	0x3d35ce10	0.04438597
207	0x3c9aebb2	0.018911216
208	0xbbc7ae54	-0.0060937796
209	0x3c8ebb25	0.017423222
210	0x3d208b90	0.039195597
211	0x3cab7aa8	0.02093251
212	0xbcd1450d	-0.025545621
213	0xbba8579d	-0.0051373974
214	0x3b1e335e	0.0024139504
215	0xbcab7e9c	-0.020934395
216	0x3d0a404e	0.033752732
217	0xbc4f8851	-0.012666778
218	0xbd151ee9	-0.03640643
219	0x3c6d5918	0.014486574
220	0x3cad1bd9	0.021131443
221	0x3c856c93	0.016287124
222	0x3cabdc85	0.020979175
223	0xbd3bb6b8	-0.04582855
224	0xbadb5a97	-0.0016735372
225	0xbceb6cfc	-0.028738491
226	0x3bc66b8f	0.0060553025
227	0xbd263f8a	-0.04058794
228	0xbc3dc7b9	-0.011583262
229	0xbbd6f346	-0.006559762
230	0xbd49b751	-0.04924709
231	0x3ae8d5d1	0.0017763918
232	0xbcbc88da	-0.023014475
233	0xbc1381f0	-0.0090031475
234	0xbb922194	-0.004459569
235	0xbc62d5cd	-0.013844919
236	0x3c648376	0.013947358
237	0xbd100130	-0.035157382
238	0xbd22cebb	-0.039747935
239	0x3cf6c477	0.030122979
240	0xbbc0ed8a	-0.005887692
241	0x3cfff4c1	0.031244637
242	0xbc3aea41	-0.01140839
243	0xbce03833	-0.027370548
244	0x3c151cea	0.009101132
245	0xbc938ff2	-0.018012974
246	0xbd3031ab	-0.043016117
247	0x3c857aa2	0.016293827
248	0xbd36ca5f	-0.04462659
249	0xbd3bf14d	-0.04588442
250	0xbd1a9d63	-0.037747752
251	0xbd205e63	-0.039152514
252	0x3c6e8d75	0.014560093
253	0x3d0cf853	0.034416508
254	0xbd3bb370	-0.04582542
255	0x3caaea83	0.020863777

fc_advantage.0.bias f4 [64]
0	0xbd4bd326	-0.049761914
1	0x3e692a25	0.22769983
2	0xbe71d267	-0.23615418
3	0xbbd0c7eb	-0.0063714883
4	0xbe7f8921	-0.24954654
5	0xbf01b939	-0.5067325
6	0x3e0b181c	0.13583416
7	0x3d11bd9f	0.035581227
8	0xbcd6a417	-0.026201291
9	0xbe4b329e	-0.19843528
10	0x3eb52a65	0.35383907
11	0xbdc0da07	-0.094165854
12	0xbdc08719	-0.09400768
13	0xbe089c55	-0.13340886
14	0xbd1e9cda	-0.038723804
15	0xbd952394	-0.072821766
16	0xbf07a48b	-0.5298545
17	0x3dc9d884	0.0985575
18	0xbc66d269	-0.014088252
19	0xbe24e39d	-0.16102453
20	0x3d15a597	0.036534872
21	0xbd0d2f8b	-0.03446917
22	0xbd297c50	-0.04137832
23	0x3e7a5c12	0.24449185
24	0x3f0b9f7b	0.5454022
25	0xbce7de77	-0.028304322
26	0x3dac6298	0.08417243
27	0x3e134a14	0.14383727
28	0x3de054de	0.10953687
29	0xbd99fe51	-0.0751921
30	0xbdff9e16	-0.124813244
31	0xbd556e05	-0.052106876
32	0x3f5ee672	0.8707038
33	0x3e071d98	0.13194883
34	0x3f1a1cb2	0.60200036
35	0xbed1c735	-0.40972295
36	0xbe46a50c	-0.19398898
37	0x3dd333f0	0.10312641
38	0xbe88aa0c	-0.26692235
39	0x3e1051da	0.14093724
40	0x3ec7e1d8	0.39039493
41	0xbacdf751	-0.0015713965
42	0xbceef9da	-0.029171873
43	0x3d83e538	0.064402044
44	0xbd73690a	-0.059426345
45	0xbd5c4320	-0.053774953
46	0xbcb30b7b	-0.02185606
47	0xbc62f6b5	-0.013852765
48	0x3ea3b04e	0.31970447
49	0x3ca48b38	0.020085916
50	0x3eca8163	0.3955184
51	0x3e3309b5	0.17484172
52	0x3ec29f03	0.3801194
53	0x3da7e863	0.08198621
54	0xbce14390	-0.027498037
55	0xbe8718b1	-0.26386026
56	0x3e11dedd	0.14245172
57	0x3e0154bc	0.1262998
58	0xbd1b5d61	-0.03793085
59	0xbd33e2b8	-0.043917388
60	0x3d6b1719	0.057395075
61	0xbd882679	-0.06647963
62	0xbe004452	-0.12526062
63	0xbea0d48a	-0.31412154

fc_advantage.2.weight f4 [32, 64]
0	0xbdc8207a	-0.097718194
1	0xbe13b8c9	-0.14425959
2	0x3d51ef66	0.0512537
3	0xbd6dbc9a	-0.058041193
4	0xbe160fe2	-0.14654496
5	0xbd7fdf1e	-0.06246864
6	0xbe3f5919	-0.18686332
7	0x3e4305c8	0.19045174
8	0xbd2f1ad8	-0.04275021
9	0xbdd0b09d	-0.10189936
10	0x3e4ace35	0.19805224
11	0xbc0d44d0	-0.008622363
12	0x3ccb37ef	0.024806945
13	0xbddbcf7f	-0.10732936
14	0xbdd44606	-0.103649184
15	0xbd6abd46	-0.05730941
16	0xbd8dd019	-0.06924457
17	0x3d859201	0.06521989
18	0x3d5018e6	0.050804995
19	0x3e27b25a	0.1637663
20	0xbe173658	-0.14766824
21	0xbd5330aa	-0.05156008
22	0xbdc25025	-0.094879426
23	0xbe82c41d	-0.25540248
24	0x3dd114da	0.10209055
25	0xbdaebef9	-0.08532519
26	0xbe289e18	-0.16466558
27	0x3ea73b2d	0.32662335
28	0x3c84790a	0.016170997
29	0x3dbdcb2f	0.0926727
30	0x3de2a2d6	0.11066215
31	0x3dad94ac	0.084756225
32	0x3dfb8e8f	0.1228305
33	0xbc922025	-0.017837593
34	0x3cc48df5	0.023993472
35	0xbe79a943	-0.24380974
36	0x3ddca4b7	0.10773604
37	0xbdd40ca3	-0.10353973
38	0xbdd55141	-0.104158886
39	0xbe54ee09	-0.20793928
40	0x3b470bc5	0.0030372005
41	0x3d0ee392	0.034884997
42	0x3d824ae6	0.06361942
43	0xbf0af673	-0.542823
44	0x3dd91ca3	0.10601165
45	0x3d867775	0.06565753
46	0x3d39813c	0.045289263
47	0xbd7b9a84	-0.061426654
48	0x3d76e2ce	0.06027489
49	0xbba0ac51	-0.004903354
50	0xbd9dab70	-0.07698715
51	0xbd9cd217	-0.07657259
52	0x3d71c48d	0.059025336
53	0xbedd4261	-0.43214706
54	0x3db1a59a	0.08674164
55	0xbde15a55	-0.110035576
56	0xbef80f6a	-0.4844926
57	0xbe2483c7	-0.16065894
58	0xbdbcd67a	-0.09220596
59	0x3de4dd29	0.111749955
60	0x3cc0a825	0.023517678
61	0xbd3ab911	-0.04558665
62	0xbe8cb6ff	-0.27483365
63	0xbea42058	-0.32055926
64	0xbd29577d	-0.0413432
65	0xbec71946	-0.3888647
66	0x3e1e082b	0.15432803
67	0x3cc92e85	0.024558315
68	0xbd9c501d	-0.07632468
69	0xbd3f3f54	-0.046691254
70	0xbe80d014	-0.2515875
71	0x3ccceddb	0.025015762
72	0x3c9b9f0f	0.018996743
73	0xbe8692dd	-0.26283923
74	0xbdb52bab	-0.0884622
75	0x3b9db76d	0.004813126
76	0x3c959cd1	0.018263252
77	0x3d479a37	0.048731055
78	0xbdafa702	-0.08576776
79	0xbd0a55d4	-0.03377326
80	0xbdf813e0	-0.12113166
81	0x3eb6fede	0.35741323
82	0x3d837dc0	0.06420469
83	0xbd881bf5	-0.066459574
84	0xbd0f5cbf	-0.03500056
85	0xbe670952	-0.22562149
86	0xbda3ade9	-0.07992155
87	0xbe4b137d	-0.19831653
88	0x3e6f56a2	0.23372892
89	0x3d609fb3	0.0548398
90	0xbe5b6307	-0.21424495
91	0x3f18f65c	0.59750915
92	0x3d9a7d96	0.07543485
93	0x3dc5537d	0.09635065
94	0xbdb42fa3	-0.087981485
95	0xbe8c5db6	-0.27415246
96	0x3d0b15c1	0.033956293
97	0x3dfcf9c8	0.123523295
98	0x3d157c29	0.03649536
99	0xbd5989d3	-0.053109955
100	0x3ce1ce34	0.027564146
101	0xbe10c546	-0.14137754
102	0xbe699c88	-0.22813618
103	0x3e4b2be4	0.19840962
104	0xbf273df6	-0.6532892
105	0xbc0f9850	-0.0087643415
106	0xbd98c81b	-0.07460042
107	0xbe33ee30	-0.1757133
108	0x3e71224b	0.23548238
109	0xbc7e1487	-0.015507824
110	0xbf0f286a	-0.5592104
111	0xbdfd4bf8	-0.123680055
112	0xbe29d248	-0.16584122
113	0xbe1ed3b4	-0.15510446
114	0x3da637f8	0.08116144
115	0xbda1fb63	-0.07909276
116	0x3e470ddb	0.19438879
117	0xbf26e622	-0.65194905
118	0xba62db49	-0.0008653892
119	0x3e2633f8	0.16230762
120	0xbebd7ec5	-0.3701078
121	0xbd1f0756	-0.038825355
122	0xbe61bb3f	-0.22044085
123	0x3c9332f6	0.017968636
124	0x3dd92b1e	0.10603927
125	0xbd3f24e4	-0.04666604
126	0xbee085a8	-0.43851972
127	0x3e50aa27	0.20377408
128	0xbd96d736	-0.07365267
129	0xbe2e3d1a	-0.17015496
130	0x3dbae6e8	0.09126073
131	0x3cc86865	0.024463842
132	0x3e4ba2b5	0.19886287
133	0x3d9224dd	0.07135937
134	0xbe8e86a5	-0.278371
135	0x3d91eb10	0.07124913
136	0x3da17c48	0.07885033
137	0x3d3f0e62	0.046644576
138	0xbe5e8e2c	-0.21733922
139	0x3dafe39c	0.08588335
140	0x3dd77297	0.10519903
141	0xbd68447d	-0.05670594
142	0xbd322d90	-0.043500483
143	0x3d7f9bac	0.06240432
144	0x3e4b56ef	0.19857381
145	0x3d4dab5b	0.050212245
146	0xbc64fc86	-0.013976222
147	0x3e3c0f7a	0.18365279
148	0xba790ef4	-0.00095008244
149	0x3e80c84b	0.2515281
150	0x3d63bb98	0.055598825
151	0xbe0e306b	-0.13885657
152	0xbda5ccb7	-0.08095687
153	0xbde23435	-0.11045114
154	0x3e97994a	0.29609138
155	0xbe1a150b	-0.1504709
156	0x3d9fee4a	0.07809122
157	0x3e1127cd	0.14175339
158	0x3d281ea2	0.04104484
159	0x3e57c3a5	0.21070726
160	0xbe20a3c6	-0.15687475
161	0x3e2da72f	0.16958307
162	0xbe26b2c1	-0.16279127
163	0x3cd83c25	0.026395867
164	0x3d0e6234	0.034761623
165	0x3e9e0d2d	0.30869427
166	0x3e1e41c2	0.15454772
167	0x3dcebc8c	0.10094556
168	0x3d96615d	0.07342789
169	0x3d5b367b	0.053518753
170	0x3e731e8a	0.23742118
171	0xbe45567d	-0.19271274
172	0x3d9b7089	0.07589824
173	0x3b4205e1	0.0029605555
174	0xbe9150cb	-0.28381953
175	0x3cfd23b5	0.030900816
176	0xbcc8f0bc	-0.024528854
177	0x3e415572	0.18880251
178	0xbe0927f3	-0.13394146
179	0xbe4efff0	-0.2021482
180	0xbc848a0e	-0.01617911
181	0xbea60969	-0.32429054
182	0xbd98d5a0	-0.07462621
183	0x3e8a8ae7	0.270591
184	0x3c95a81d	0.01826864
185	0x3e0981c1	0.13428403
186	0xbebecec0	-0.37267113
187	0x3d0fceb8	0.03510925
188	0x3de6ca4d	0.112690546
189	0x3daec4db	0.08533641
190	0xbd168fdb	-0.036758285
191	0x3d1de5a9	0.0385491
192	0xbce38ec7	-0.027778042
193	0x3d8f9583	0.07010939
194	0xbe9efc94	-0.31052077
195	0xbccc7158	-0.02495639
196	0xbdf8e02a	-0.12152131
197	0xbee82396	-0.4533965
198	0xbc8d8048	-0.017273083
199	0xbf30e337	-0.690967
200	0x3dcc3751	0.09971488
201	0x3e0ae906	0.13565454
202	0xbe157f5f	-0.1459937
203	0x3e872a72	0.2639957
204	0xbdafc95e	-0.085833296
205	0xbe1b9094	-0.15191871
206	0xbe4753cd	-0.19465561
207	0x3d07239f	0.032992955
208	0x3dc6cafd	0.09706686
209	0xbe258ea9	-0.16167702
210	0xbe0508bc	-0.12991613
211	0xb9bbe953	-0.0003584126
212	0xbd02b6d2	-0.031912632
213	0x3d4a06c2	0.04932285
214	0xbd7ddd8c	-0.06197886
215	0x3ea4b368	0.32168126
216	0xbdd32187	-0.10309129
217	0xbd02509c	-0.031815156
218	0xbc5004d3	-0.012696463
219	0x3ce8388b	0.028347274
220	0xbdbf6cc0	-0.09346914
221	0xbcb43c2b	-0.022001347
222	0xbe4404b2	-0.19142416
223	0x3e7ea8e9	0.24869122
224	0xbc943419	-0.018091248
225	0xbe755aa4	-0.23960358
226	0x3d449b5d	0.04799973
227	0xbee83768	-0.45354772
228	0xbe800333	-0.2500244
229	0x3dbe2657	0.092846565
230	0x3d929099	0.07156486
231	0xbee7cece	-0.45274967
232	0x3e3fd429	0.18733276
233	0x3d6904de	0.056889407
234	0x3e1dd517	0.15413319
235	0x3ea7de0f	0.32786605
236	0xbeebc239	-0.46046618
237	0xbd54d075	-0.051956613
238	0xbdbe09ff	-0.0927925
239	0x3dbb0eb1	0.091336615
240	0xbe42f906	-0.19040307
241	0x3e15a8aa	0.14615121
242	0xbd3f8d00	-0.046765327
243	0x3e99df82	0.30053335
244	0xbd09951b	-0.033589464
245	0x3e975654	0.2955805
246	0x3d4771c1	0.04869247
247	0xbe317c85	-0.17332657
248	0x3eae6621	0.34062293
249	0x3e4482e2	0.19190553
250	0x3d6f2a49	0.058389936
251	0x3dc3eae4	0.09566286
252	0xbe443ee5	-0.19164617
253	0xbdb59b89	-0.088675566
254	0x3d66d88f	0.05635887
255	0xbd530bea	-0.051525034

fc_advantage.2.bias f4 [32]
0	0x3dc6e3e7	0.09711438
1	0x3e8d4580	0.27592087
2	0xbe234f58	-0.15948236
3	0xbd381fbc	-0.04495214
4	0xbe54605d	-0.20739885
5	0x3e5fc9c7	0.21854316
6	0xbd9a410f	-0.0753194
7	0x3e7bf90d	0.24606724
8	0x394591d3	0.00018841708
9	0xbd41d306	-0.04732039
10	0x3eb64e13	0.3560644
11	0xbe71caa7	-0.23612462
12	0xbf310aa0	-0.6915684
13	0x3c9bbd8d	0.019011283
14	0x3d52d035	0.051468093
15	0xbe445a7f	-0.19175147
16	0xbd8382b2	-0.064214125
17	0x3d23e952	0.040017433
18	0x3d022a6c	0.031778738
19	0x3e4b7bf8	0.19871509
20	0xbdfd4bc7	-0.12367969
21	0xbd1db8f4	-0.038506463
22	0x3dc49e7a	0.096005395
23	0x3d949c88	0.072564185
24	0x3e11f10b	0.14252107
25	0xbdcfd14e	-0.101473436
26	0x3ec90426	0.39260978
27	0xbee5f334	-0.44912112
28	0x3f13ca64	0.577307
29	0x3df351f0	0.11880863
30	0xbf16c825	-0.58899146
31	0x3ed97364	0.4247085

fc_advantage.4.weight f4 [6, 32]
0	0x3ea25a94	0.3170973
1	0xbdcd7cb5	-0.100335516
2	0x3d4508bc	0.048104033
3	0x3c2bd726	0.010488307
4	0x3d40a15a	0.047028877
5	0x3df4e232	0.11957206
6	0xbd8f8600	-0.0700798
7	0x3e759c4a	0.23985401
8	0x3ca1ed71	0.019766541
9	0x3e970781	0.29497913
10	0xbe23b00c	-0.15985125
11	0x3d8a7d33	0.06762161
12	0x3dfc042d	0.12305484
13	0x3dbb977e	0.09159754
14	0xbd960fca	-0.0732723
15	0xbd3acb6b	-0.04560415
16	0xbb3b65ee	-0.002859469
17	0xbdc42eed	-0.09579263
18	0x3db2e962	0.087359205
19	0xbed5b810	-0.4174199
20	0xbd95efef	-0.07321154
21	0x3e84765c	0.2587155
22	0x3debb79e	0.115096316
23	0xbefce342	-0.49392134
24	0x3dfc88b8	0.123307645
25	0x3e9d0a18	0.30671763
26	0xbdc5d764	-0.09660223
27	0x3e79ad91	0.24382617
28	0x3e4ec265	0.20191343
29	0xba7f3fca	-0.00097369833
30	0x3dacf1ad	0.084445335
31	0xbe26a924	-0.1627546
32	0xbca80c3c	-0.020513646
33	0x3d2eb5f2	0.042653985
34	0xbba4b5ed	-0.00502657
35	0xbbe2de86	-0.0069234995
36	0xbddf5830	-0.10905492
37	0x3e0a06e0	0.13479185
38	0xbdb0a947	-0.08626037
39	0xbe8a406b	-0.27002272
40	0x3e80950a	0.25113708
41	0xbc82e34c	-0.015977524
42	0xbc17254b	-0.0092252
43	0x3d20b647	0.039236333
44	0x3e5778b0	0.21042132
45	0x3ecd1067	0.40051576
46	0xbe70850c	-0.23488253
47	0x3ce4e8e6	0.027943086
48	0x3d3a784f	0.04552489
49	0xbd3f09b9	-0.04664013
50	0x3e20773e	0.15670487
51	0xbdae9248	-0.08523995
52	0xbd5b2464	-0.0535015
53	0xbc243a91	-0.010023729
54	0xbd575835	-0.052574355
55	0x3d56b7f3	0.05242152
56	0xbf855b93	-1.0418571
57	0x3ea0c026	0.31396598
58	0xbe60bd67	-0.21947251
59	0x3e0f86b6	0.14016232
60	0x3e3cfa25	0.18454798
61	0x3e9e5e78	0.3093145
62	0x3e0204bf	0.12697123
63	0xbb0eed9f	-0.0021809114
64	0x3d7089dd	0.058725227
65	0xbe91d3f2	-0.28482014
66	0x3de374e7	0.11106282
67	0xbedddec3	-0.43334016
68	0xbe9a3591	-0.30118993
69	0xbf16de30	-0.5893278
70	0xbd2e068b	-0.04248671
71	0xbd404da2	-0.046949036
72	0xbea733f7	-0.32656834
73	0x3d8e995f	0.06962847
74	0x3e3a4852	0.1819165
75	0xbd8846e7	-0.066541485
76	0x3e5b8002	0.2143555
77	0xbeeacd54	-0.45859778
78	0xbbcb4464	-0.006203221
79	0xbc0fd430	-0.008778617
80	0x3d5dbe51	0.054136578
81	0x3eee0723	0.4648982
82	0x3da1f3af	0.07907807
83	0x3da198f5	0.07890502
84	0x3e4f474e	0.20242044
85	0x3dc42f3b	0.09579321
86	0xbd65349f	-0.055958387
87	0x3dd1ad19	0.10238094
88	0x3ee27f6f	0.4423785
89	0x3cafa59b	0.021441272
90	0xbe6a2e34	-0.22869188
91	0x3e8d9fb0	0.27660894
92	0x3e14822a	0.14502779
93	0xbe9b8007	-0.30371115
94	0x3e06a085	0.13147171
95	0xbce78555	-0.02826182
96	0x3dec8693	0.115491055
97	0xbdd6a7e4	-0.10481241
98	0xbe5e5a48	-0.21714127
99	0xbe1e3332	-0.15449217
100	0x3eb5c19c	0.35499275
101	0x3e26227f	0.16224097
102	0x3ef2206c	0.4729036
103	0x3d9d8136	0.07690661
104	0xbd1bf6c4	-0.03807713
105	0xbd31b97e	-0.04338979
106	0xbe30329e	-0.17206809
107	0xbe93a6ed	-0.28838292
108	0xbe3023e0	-0.17201185
109	0x3d982b14	0.074300915
110	0x3e5e604e	0.21716425
111	0xbbd9a5d3	-0.0066420822
112	0x3de76daa	0.11300214
113	0xbee686dd	-0.45024768
114	0xbeb5b855	-0.35492197
115	0x3e1f16f4	0.155361
116	0x3eca1973	0.3947254
117	0x3ebd9db0	0.3703437
118	0xbdf45d1a	-0.1193182
119	0x3e00a5fd	0.1256332
120	0x3cf38885	0.029728184
121	0xbeb5ab3e	-0.3548221
122	0xbf23884b	-0.6387984
123	0x3f0244a5	0.50885993
124	0x3e8ae542	0.27128035
125	0x3dd762e6	0.1051691
126	0x3ee8ff33	0.45507202
127	0x3e7be366	0.24598464
128	0x3ec98ec7	0.39366743
129	0x3e9880cc	0.29785764
130	0xbe59b95c	-0.21262115
131	0xbe351060	-0.17682028
132	0x3e1c7f80	0.15283012
133	0x3dddf70e	0.108381376
134	0xbe417b83	-0.18894772
135	0x3ddcb6c7	0.107770495
136	0xbcb7cf95	-0.02243785
137	0x3e214dc5	0.15752323
138	0xbe810686	-0.2520029
139	0x3f1733c8	0.59063387
140	0xbebf6153	-0.3737894
141	0x3dbb90b1	0.09158457
142	0x3c1d263e	0.009591637
143	0xbd602f7f	-0.054732796
144	0x3d9421f0	0.072330356
145	0xbe9bc473	-0.30423316
146	0x3e4255af	0.18977998
147	0x3e9cf847	0.3065817
148	0xbe5f55ff	-0.21810149
149	0xbf005956	-0.50136316
150	0xbe96b89a	-0.29437715
151	0xbc9f2b76	-0.019429903
152	0x3e306417	0.17225681
153	0xbe9db1b3	-0.30799636
154	0x3ed38905	0.41315475
155	0xbf1eea6a	-0.6207644
156	0xbd2d03ea	-0.04224006
157	0x3d90b632	0.07066001
158	0xbf1171cc	-0.56814265
159	0xbd8252fc	-0.06363484
160	0x3cdabf1b	0.026702454
161	0x3e07455b	0.13210051
162	0x3e49d7fa	0.19711295
163	0x3e0c3373	0.13691501
164	0x3e082f29	0.1329924
165	0x3d928823	0.07154872
166	0xbe842907	-0.2581255
167	0xbc997a86	-0.018735182
168	0xbd0fdba7	-0.035121586
169	0x3e6ee029	0.23327698
170	0xbe53f381	-0.20698358
171	0xbe38bf89	-0.18041815
172	0x3e0c5559	0.13704433
173	0xbca010d5	-0.019539276
174	0x3dc8fd93	0.098139904
175	0x3db2d435	0.087318815
176	0x3be1fefe	0.0068968525
177	0xbe4d9ece	-0.2008011
178	0x3d3440ef	0.044007238
179	0x3e561d76	0.20909676
180	0x3d2968f6	0.041359864
181	0x3e98e6d1	0.298636
182	0x3b6d38a6	0.0036197095
183	0x3e1a7d57	0.15086876
184	0xbd090667	-0.03345337
185	0x3d8bf7a7	0.06834345
186	0x3dbae950	0.09126532
187	0x3c005c0b	0.007834445
188	0xbec18191	-0.37794164
189	0xbc97bb3d	-0.0185219
190	0x3e4eeac8	0.2020675
191	0xbed5257b	-0.41630158

fc_advantage.4.bias f4 [6]
0	0x3e22a9cf	0.1588509
1	0xbe07ec66	-0.13273773
2	0xbd162fad	-0.03666656
3	0x3d906815	0.07051102
4	0xbe1e9615	-0.15486939
5	0xbe2940a3	-0.16528563
