data/Torch/Dueling/002_CNN-1_E_L/checkpoints/weights_800000steps.pth (torch, 286623 bytes, 13 tensors)

conv_layers.0.weight f4 [32, 1, 3, 3]
0	0xbc18dbb9	-0.00932973
1	0x3b54c06a	0.003246332
2	0x3bf8d335	0.007593537
3	0x3e22c4cc	0.15895385
4	0xbe9e3f73	-0.30907783
5	0xbd259a20	-0.04043019
6	0x3e25d574	0.16194707
7	0x3dc98256	0.09839313
8	0x3e5cbba6	0.21555957
9	0xbea7fc75	-0.32809797
10	0x3ea9b776	0.33147782
11	0x3e12040a	0.14259353
12	0xbdcf77f5	-0.10130302
13	0xbdadfb01	-0.08495141
14	0x3e636489	0.2220632
15	0x3e74231d	0.2384152
16	0xbdf18a81	-0.11793996
17	0xbe5ad9ac	-0.21372098
18	0xbf13f031	-0.5778838
19	0xbcb9b9fd	-0.022671694
20	0x3d9a2de0	0.07528281
21	0x3ea3f7a7	0.3202488
22	0x3e0aafea	0.13543668
23	0xbd2f57c2	-0.0428083
24	0x3c437a15	0.011930962
25	0x3e08ae7f	0.13347815
26	0xbe33ddf5	-0.17565139
27	0xbfce7014	-1.6127954
28	0x3c3f0523	0.0116589395
29	0x3e014cf9	0.12627019
30	0x3d6f5441	0.05842996
31	0x3c995655	0.018717924
32	0x3c8d1508	0.017221943
33	0xbbeea519	-0.007282865
34	0xbcb78870	-0.022403926
35	0x3b067051	0.0020513723
36	0x3e88d6f6	0.26726502
37	0xbe19fa44	-0.15036875
38	0x3dac5cc8	0.08416134
39	0x3e326aef	0.17423604
40	0x3e373fb9	0.17895402
41	0x3b176c17	0.0023105198
42	0x3bbf40cf	0.005836583
43	0xbd3497f5	-0.04409023
44	0xbd14f923	-0.036370408
45	0x3eea266d	0.45732442
46	0xbb2f1fd4	-0.0026721852
47	0xbb4c54a3	-0.0031178377
48	0xbf7500dd	-0.9570444
49	0x3e884ef3	0.26622733
50	0xbdc7fc0f	-0.09764873
51	0xbdc7a16e	-0.09747587
52	0x3e01c2bb	0.1267194
53	0x3b6cd9db	0.0036140594
54	0x3f2ee261	0.68314177
55	0xbcd0a757	-0.025470419
56	0xbc9c9f1e	-0.019118842
57	0x3d1e3379	0.038623307
58	0xbeefed7f	-0.46860883
59	0x3d3c3558	0.04594931
60	0xbb024d0a	-0.0019882345
61	0x38a44359	7.832674e-05
62	0xbdbca85b	-0.09211799
63	0xbf63a690	-0.8892603
64	0x3d96420e	0.07336818
65	0xbf12b355	-0.5730489
66	0x3cb68c53	0.022283709
67	0xbd243a65	-0.040094752
68	0xbf278dfd	-0.6545103
69	0x3d45497e	0.04816579
70	0x3cbf745e	0.023370918
71	0xbc01cfc4	-0.00792307
72	0xbf2f5663	-0.6849119
73	0x3e2b7ab2	0.16746023
74	0x3d3bcb22	0.04584802
75	0xbb5539e1	-0.003253572
76	0x3e8c3e51	0.27391294
77	0xbdce4eb9	-0.10073609
78	0xbd93aa42	-0.072102085
79	0x3e6e918d	0.2329771
80	0x3ded7c55	0.1159598
81	0x3ea468c2	0.32111174
82	0xbe89d900	-0.2692337
83	0x3c893837	0.016750438
84	0xbec7618b	-0.38941607
85	0xbdbb2e30	-0.09139669
86	0x3e3a31e6	0.18183097
87	0xbd8dae47	-0.069180064
88	0xbe211c35	-0.15733416
89	0x3e50968f	0.20369934
90	0xbe92f6c1	-0.28703883
91	0x3dc09b64	0.094046384
92	0x3e1a4c83	0.1506825
93	0x3c22dbc3	0.009940091
94	0x3e70c54c	0.23512763
95	0x3c296622	0.010339292
96	0xbdf67318	-0.12033671
97	0xbe7ab03c	-0.2448129
98	0x3d3e219d	0.046418775
99	0xbe083e52	-0.13305023
100	0xbeab506f	-0.33459803
101	0x3dade33f	0.084906094
102	0x3ed0305b	0.40661892
103	0x3e4e4cd0	0.20146489
104	0x3d6fd6a0	0.05855429
105	0x3d94b404	0.07260898
106	0xbe2736e9	-0.1632954
107	0xbe9935d1	-0.2992387
108	0x3e1833af	0.14863466
109	0xbbf0176b	-0.0073270104
110	0xbcabe322	-0.020982329
111	0xbe521fc9	-0.20519938
112	0xbdade8c1	-0.0849166
113	0x3e62b394	0.22138816
114	0x3c1ebabf	0.009688078
115	0x3dabdc04	0.08391574
116	0xbc9e8f8c	-0.019355558
117	0xbfb7cefb	-1.436004
118	0x3d487334	0.04893799
119	0x3ca3f075	0.02001212
120	0x3de3fc7e	0.111321434
121	0xbd372b34	-0.044718936
122	0x3dda48d6	0.106584236
123	0x3cad9914	0.021191157
124	0x399c0ad2	0.000297627
125	0x3d6ec104	0.058289543
126	0x3edb2d11	0.4280782
127	0x3e58d4f9	0.21174993
128	0xbdd456cb	-0.10368117
129	0x3d11686f	0.035499986
130	0xbe50d8c7	-0.20395194
131	0x3deac732	0.11463775
132	0xbd746a6f	-0.059671815
133	0xbc9ba726	-0.019000601
134	0xbe37d044	-0.17950541
135	0x3f0969f1	0.5367728
136	0xbede2ba9	-0.43392685
137	0xbd1bf46e	-0.038074903
138	0xbc70c4c9	-0.014695355
139	0xbd426afb	-0.047465306
140	0x3d293d93	0.041318487
141	0xbd0c51f0	-0.03425783
142	0x390e32b6	0.00013561067
143	0x3d241f16	0.04006871
144	0x3dd043d3	0.101691864
145	0x3e31c193	0.17358999
146	0x3df50da9	0.11965496
147	0x3e136f1e	0.14397857
148	0x3d4c30d9	0.049851272
149	0xbdd82d45	-0.105555095
150	0xbd5a82ac	-0.053347275
151	0xbddafc73	-0.10692682
152	0xbe4a015e	-0.19727084
153	0xba8df5fa	-0.0010830753
154	0x3e42e70c	0.1903345
155	0x3dab0117	0.08349817
156	0xbe8222fe	-0.25417322
157	0xbe11eaf9	-0.14249791
158	0x3cd83e9e	0.026397046
159	0xbe08aba7	-0.1334673
160	0x3defcd50	0.11709082
161	0x3dab204e	0.08355771
162	0xbf048b1a	-0.5177475
163	0x3ca7e71e	0.020495947
164	0xbbf5dd48	-0.0075031854
165	0xbc7407bb	-0.014894421
166	0x3e0c3b39	0.13694467
167	0xbdda4cf0	-0.10659206
168	0x3d1327c0	0.03592658
169	0x3e126f53	0.1430028
170	0x3e89e42b	0.2693189
171	0x3efdd67b	0.49577698
172	0xbddba1a3	-0.10724189
173	0x3e10d796	0.1414474
174	0x3d514c6c	0.051098272
175	0xbf0869e2	-0.53286564
176	0xbe4d4d84	-0.20049101
177	0x3da044d4	0.07825628
178	0xbe482e85	-0.19548996
179	0xbe115007	-0.14190684
180	0x3e45bf31	0.19311215
181	0xbe965f3c	-0.29369533
182	0x3ce4bfaf	0.027923433
183	0xbe927815	-0.2860724
184	0xbe320666	-0.17385253
185	0x3c061cac	0.008185547
186	0xbe36bf2d	-0.17846365
187	0x3e2c5c33	0.16832046
188	0x3e08205a	0.13293591
189	0x3f211cf6	0.62934816
190	0xbdba7bec	-0.091056675
191	0x3e0120dc	0.12610191
192	0xbe3c55c9	-0.183921
193	0xbe4a2570	-0.19740844
194	0xbc9e2ae6	-0.019307565
195	0xbdc4cc86	-0.09609322
196	0x3da401e3	0.08008172
197	0x3c6cd62c	0.014455359
198	0xbd43bfad	-0.04779022
199	0x3d520014	0.051269606
200	0x3d041b5d	0.03225266
201	0x3e27a8b8	0.16372955
202	0xbe57ff9b	-0.210936
203	0xbe22d02c	-0.15899724
204	0x3ba91cc0	0.005160898
205	0xbd7b8a01	-0.061410908
206	0x3d131cb0	0.03591603
207	0xbe4f68d3	-0.20254831
208	0x3ebc726c	0.36806047
209	0x3e9a097c	0.3008536
210	0xbdbbc228	-0.09167892
211	0xbcbb069a	-0.022830296
212	0x3becc5e9	0.007225741
213	0xbe3aa50c	-0.18227023
214	0x3e02430f	0.12720893
215	0xbd4ee0b6	-0.05050727
216	0x3dcc13c4	0.099647075
217	0xbe3f0246	-0.18653211
218	0x3e0da987	0.13834201
219	0x3e837d7d	0.25681677
220	0xbd9fdbaa	-0.078055695
221	0xbd244493	-0.04010446
222	0xbe6c6c9f	-0.2308831
223	0x3d548db7	0.051892962
224	0xbe31f28d	-0.17377682
225	0x3e72b2a5	0.2370096
226	0x3df4091a	0.119157985
227	0xb8fb4591	-0.000119815704
228	0x3da171e6	0.078830525
229	0xbe4851d8	-0.19562471
230	0x3d9d68cb	0.07686003
231	0xbe17b173	-0.14813785
232	0xbe05aed7	-0.13054977
233	0xbe111f24	-0.14172035
234	0xbec75653	-0.38933048
235	0x3d085245	0.033281583
236	0x3da6109f	0.08108639
237	0x3e033200	0.12812042
238	0x3dc01266	0.09378509
239	0xbe7caa61	-0.2467437
240	0x3d68226e	0.05667346
241	0x3dba79fe	0.091052994
242	0x3d4cb22a	0.049974598
243	0x3e6a5cf0	0.22887015
244	0x3da32efe	0.079679474
245	0xbeae0e27	-0.33995172
246	0x3e97429b	0.29543003
247	0xbd9edad5	-0.07756583
248	0x3d448c2a	0.047985233
249	0xbe5ff389	-0.21870245
250	0x3dfc9e9b	0.12334939
251	0x3d84b745	0.064802684
252	0x3f024919	0.5089279
253	0xbd871e05	-0.06597523
254	0x3d461300	0.048357964
255	0xbed8367b	-0.42229065

conv_layers.0.bias f4 [32]
0	0xbf354b9e	-0.7081851
1	0xbf27f746	-0.65611684
2	0x3f0b9a25	0.5453208
3	0x3f1d72ea	0.6150347
4	0xbeed1d6d	-0.46311513
5	0x3e191d6b	0.14952628
6	0x3c3d03a2	0.011536511
7	0x3f0b4985	0.54409057
8	0x3cb57ea1	0.022155108
9	0xbe248c06	-0.1606904
10	0x3ed5f3d9	0.41787603
11	0xbe3f3fd1	-0.18676688
12	0xbee88673	-0.45415077
13	0x3f336f42	0.7009164
14	0xbf0e73b4	-0.556453
15	0x3e8b80d4	0.27246726
16	0xbf04a67f	-0.5181655
17	0x3f0f48fb	0.55970734
18	0x3f10312c	0.5632503
19	0x3ebd28fc	0.3694533
20	0x3f006cc4	0.50165963
21	0xbf0e9755	-0.55699664
22	0x3e7be971	0.2460077
23	0xbf4df190	-0.8044672
24	0x3efeb66d	0.49748555
25	0x3efa3102	0.48865515
26	0x3f26c997	0.6515135
27	0xbf235e70	-0.63815975
28	0xbd806562	-0.06269337
29	0x3ecc8763	0.39947042
30	0x3eec4851	0.46148923
31	0xbf0d8c24	-0.5529196

fc_state.0.weight f4 [64, 512]
0	0x3c2b58a0	0.010458142
1	0xbc884de3	-0.016638702
2	0xbca57896	-0.020199101
3	0xbbf77bbc	-0.007552592
4	0x3d010cb5	0.03150626
5	0xbd10395d	-0.035210956
6	0x3ca83445	0.020532737
7	0xbd215830	-0.039390743
8	0x3cfe26b1	0.031024309
9	0xbc82bdaf	-0.015959589
10	0xbcb6f8e6	-0.02233548
11	0x3d0e2415	0.03470238
12	0x3cdd4776	0.027011614
13	0xbbbe8445	-0.0058141076
14	0x3aa15cac	0.0012310944
15	0x3cc2cd80	0.02377963
16	0x3cf45ad5	0.029828468
17	0xbce6f5f0	-0.028193444
18	0xbc2d5bdf	-0.010580986
19	0x3ceb73bc	0.02874171
20	0x3cde2e08	0.027121559
21	0xbb247dcd	-0.0025099397
22	0xbc066df5	-0.008204927
23	0x3bd5e4b7	0.006527509
24	0xbc8f5ddd	-0.017500812
25	0x3cd3796a	0.02581473
26	0xbd040611	-0.032232348
27	0x3c429d3c	0.011878308
28	0x3c6396a7	0.013890899
29	0xbc953506	-0.01821376
30	0x3cd7cfca	0.026344199
31	0x3d06b8dc	0.03289114
32	0x3c030fcb	0.007999371
33	0xbd4283a3	-0.04748882
34	0x3ca8562f	0.020548908
35	0x3bf026fb	0.0073288656
36	0x3c3083eb	0.010773639
37	0x378b47b3	1.6603479e-05
38	0xbb651d03	-0.003495992
39	0xbcc8a752	-0.024493847
40	0xbb16cbbc	-0.0023009619
41	0xbd0c2f06	-0.034224533
42	0x3ceddb8d	0.029035354
43	0x3c6dc9b0	0.014513418
44	0x3acee665	0.0015785216
45	0xbb3dc52c	-0.0028956635
46	0x3bbdfc9e	0.0057979366
47	0xbd258b19	-0.040415857
48	0xbcccb47d	-0.024988407
49	0xbd3e1213	-0.046403956
50	0xbbe0e840	-0.006863624
51	0x3d096be8	0.033550173
52	0xbd41bae8	-0.04729739
53	0x3cf16219	0.029465722
54	0x3c4e1704	0.01257873
55	0xbc6a0a89	-0.014284738
56	0xbd2579fd	-0.04039954
57	0xbd0f9471	-0.035053674
58	0xbccca4d4	-0.02498094
59	0x3c23cd67	0.009997702
60	0x3c394159	0.011307084
61	0x3b2a21d4	0.0025960105
62	0xbd3676e3	-0.044546973
63	0xbd2fb78e	-0.04289966
64	0x3c9d60a2	0.019211117
65	0x3c483ac9	0.012221047
66	0x3c27b900	0.0102369785
67	0xbbcce4f0	-0.0062528774
68	0x3cfb47e7	0.030673934
69	0x3cb4299d	0.021992499
70	0x3c9722be	0.018449184
71	0x3cb26531	0.021776767
72	0x3bccfc44	0.0062556583
73	0x3becd9ff	0.0072281356
74	0x3cdf97ef	0.027294127
75	0x3c121fe6	0.008918738
76	0xbbd572f0	-0.0065139458
77	0xbccaa4ca	-0.02473678
78	0xbd0a5478	-0.033771962
79	0xbcf59615	-0.029978791
80	0x3bf88ed4	0.007585386
81	0x3d20fda1	0.03930438
82	0xbd233d08	-0.039853126
83	0xbc036e20	-0.008021861
84	0x3d18b0d6	0.03727802
85	0x3c3425e8	0.010995366
86	0x3d0b97a4	0.034080163
87	0x3d22d112	0.039750166
88	0x3c1e8c4c	0.009677004
89	0xbc5c31b7	-0.013439587
90	0xbcc11841	-0.023571135
91	0xba4092c0	-0.0007346086
92	0xbc15b1a4	-0.009136591
93	0x3ac54cac	0.0015052757
94	0xbb94e520	-0.0045439154
95	0x3c6d4e0d	0.014483941
96	0xbd477a21	-0.048700456
97	0xbcda8e74	-0.026679255
98	0x3c92a228	0.017899588
99	0xbc4018e6	-0.011724686
100	0xbc357bc1	-0.0110768685
101	0xbb9b6a2d	-0.0047428817
102	0xbd22bcd1	-0.03973085
103	0xbc300283	-0.010742786
104	0xbd122fc0	-0.03569007
105	0xba3cf0a5	-0.00072074897
106	0xbd00193f	-0.031274077
107	0xbd12c335	-0.035830695
108	0x3c193293	0.009350437
109	0x3bda8733	0.006668949
110	0x3cc2e131	0.02378902
111	0x3c833f6c	0.016021453
112	0x3c85a7bc	0.016315334
113	0xbb41b5cb	-0.002955782
114	0x3b7c533e	0.0038501765
115	0x3b9f1fd6	0.00485609
116	0x3c254e27	0.010089434
117	0xbc0a6434	-0.008446742
118	0x3ca39bf6	0.019971829
119	0xbc8bdd20	-0.017073214
120	0x3ce28a1f	0.027653752
121	0xbd3f9cde	-0.04678046
122	0x3d08ee7a	0.033430554
123	0x3d213326	0.03935542
124	0x3d05f6ae	0.032705955
125	0xbd211402	-0.03932572
126	0xbcf2a949	-0.029621737
127	0xbca1faab	-0.019772848
128	0x3d0638c8	0.032768995
129	0x3c123b9a	0.008925343
130	0xbd2cdfa4	-0.042205468
131	0xbca198ba	-0.019726146
132	0x3d176bdf	0.03696811
133	0x3b9dd348	0.0048164465
134	0xbd0e2ccd	-0.034710694
135	0xbc7438a9	-0.014906087
136	0x3d300b33	0.04297943
137	0x3c9a323f	0.018822787
138	0x3cae11ce	0.021248724
139	0x3c4ea932	0.0126135815
140	0x3c38ecc0	0.011286914
141	0xbb0f5460	-0.002187036
142	0x3c8cdf23	0.017196244
143	0x3cd34b29	0.025792675
144	0x3cf54e07	0.029944433
145	0xbcaf37e2	-0.021388952
146	0xbd2684a7	-0.04065385
147	0x3d03afba	0.032150008
148	0x3c7487a0	0.014924914
149	0x3cd4386e	0.025905814
150	0xbd40a45a	-0.047031738
151	0x3c1b70f9	0.009487384
152	0x3d2a25af	0.041539844
153	0xbd2c6da4	-0.04209675
154	0xbbe315b5	-0.006930078
155	0x3ac32bf9	0.0014890424
156	0xbd226b90	-0.03965336
157	0x3d1fdce0	0.039029002
158	0x3caeb4e3	0.021326488
159	0x3c8c14e4	0.017099805
160	0xbbb15ed0	-0.005412914
161	0xbccc9c02	-0.024976734
162	0x3bd80644	0.006592544
163	0xbc858f91	-0.01630381
164	0x3cc48d1d	0.02399307
165	0x3cba614e	0.022751477
166	0xbc723bd0	-0.014784768
167	0x3cd393c0	0.025827289
168	0xbb1550f3	-0.0022783845
169	0xbd2e85a5	-0.042607922
170	0x3be3baae	0.006949744
171	0x3d01b156	0.03166326
172	0x3cc2a405	0.023759851
173	0x3ad9c56f	0.0016614626
174	0xbcd6245a	-0.02614038
175	0xbd11a9d3	-0.035562348
176	0xbd1c0b8a	-0.038096942
177	0xbca12c11	-0.019674333
178	0xbd2a3d96	-0.04156264
179	0xbce35617	-0.027751012
180	0x3d00c6ab	0.031439465
181	0x3a1773c8	0.00057774456
182	0x3d1f9e96	0.0389696
183	0xbcdf56bc	-0.027263038
184	0x3cb213c6	0.021737944
185	0x3b043060	0.0020170435
186	0x3ac48080	0.0014991909
187	0x3d23848f	0.03992134
188	0xbd2e3e4b	-0.042539876
189	0xbc81bf80	-0.015838385
190	0xba7ccfc0	-0.0009643994
191	0xbbb77a18	-0.0055992715
192	0xbcb02724	-0.021503039
193	0xbcbc9e17	-0.023024602
194	0xbd1d2a98	-0.0383707
195	0xbd29b7cb	-0.041435044
196	0x3ca77a69	0.020444112
197	0x3a4bc05c	0.0007772499
198	0xbd1e5c96	-0.038662516
199	0xbd0c4f62	-0.034255393
200	0xbceea218	-0.029130027
201	0xbc4ac437	-0.012375883
202	0x3c94e236	0.018174272
203	0xbc2119dd	-0.009832826
204	0xbd0380aa	-0.032105125
205	0xbc212bf7	-0.009837142
206	0xbd3d5d8c	-0.04623179
207	0xbce00263	-0.027344888
208	0xbd03c334	-0.032168582
209	0xbc61f4de	-0.013791291
210	0xbccfab03	-0.0253501
211	0xbc12da8c	-0.008963238
212	0x3d1df58e	0.038564257
213	0x3bf55604	0.0074870605
214	0x3c5c7008	0.013454445
215	0xbd2b0449	-0.041752134
216	0x3d08c248	0.033388406
217	0xbcc1af7d	-0.02364325
218	0xbb913d00	-0.0044323206
219	0xbc276ee6	-0.010219311
220	0xbca3f438	-0.020013914
221	0xbc8a0c97	-0.016851706
222	0xbc1a5d67	-0.009421683
223	0x3cfe0c99	0.031011866
224	0xbd2bab76	-0.041911565
225	0x3b6877ca	0.003547179
226	0x3c831f88	0.016006246
227	0x3b18cbba	0.002331479
228	0xbd0e4f61	-0.03474367
229	0x3caddeea	0.021224458
230	0xbcffa373	-0.031205868
231	0xbba08a88	-0.0048993267
232	0xbd28331e	-0.041064374
233	0x3c1cbb9f	0.009566217
234	0x3cbc9f95	0.023025313
235	0xbbee7dd9	-0.007278186
236	0x3d1ab828	0.03777328
237	0xbd0c7b36	-0.03429719
238	0xbc1870a5	-0.0093042
239	0x3a1e8e4b	0.0006048425
240	0xbcf147e9	-0.029453235
241	0xbc984533	-0.018587684
242	0xbd2e7298	-0.042589754
243	0x3cb02920	0.021503985
244	0x3c961532	0.018320654
245	0x3c3deb60	0.011591762
246	0x3d0c8548	0.034306794
247	0xbafdaab9	-0.0019353247
248	0xbcc27181	-0.023735764
249	0xbd3276b8	-0.04357025
250	0x3c8f0468	0.017458156
251	0xbd1006b7	-0.035162654
252	0x3ca2d69e	0.019877728
253	0xbd251696	-0.040304743
254	0x3d0ab62a	0.03386513
255	0xbcd5367b	-0.026026955

fc_state.0.bias f4 [64]
0	0xbb6ecbd4	-0.003643741
1	0xbd0222bc	-0.031771407
2	0x3d1b4275	0.037905175
3	0xbcf92c9c	-0.03041678
4	0x39c28581	0.00037102032
5	0xbc16e336	-0.009209445
6	0xbc5d027d	-0.013489363
7	0x3ce2489b	0.027622512
8	0x3c064072	0.008194076
9	0x3d04b77c	0.032401547
10	0x3cef7232	0.029229257
11	0xbdb936c8	-0.09043652
12	0xbcad93f2	-0.02118871
13	0x3d576249	0.052583966
14	0x3cbd3bc3	0.023099786
15	0x3cf79427	0.030222012
16	0xbcca98bf	-0.024731038
17	0xbd2e5cbf	-0.04256892
18	0xbd41b768	-0.04729405
19	0x3cc5ae0b	0.024130842
20	0xbd2f4478	-0.042789906
21	0xbcdfed7f	-0.027334927
22	0xbc8c3095	-0.01711301
23	0xbd05e47c	-0.032688603
24	0x3cc587e8	0.024112657
25	0x3dc1c1ed	0.094608165
26	0x3c904406	0.017610561
27	0x3a9ab3b0	0.0011802819
28	0xbd0eed74	-0.03489442
29	0x3d6e2680	0.058142185
30	0xbcb904d8	-0.022585317
31	0xbcae067d	-0.021243328
32	0xbc7e3665	-0.015515898
33	0xbde21f6f	-0.11041152
34	0xbd1441a1	-0.0361954
35	0x3d0f8526	0.03503909
36	0xbd24b9c9	-0.04021624
37	0xbd354bb3	-0.044261646
38	0x3d228a23	0.03968252
39	0xbcbbfe37	-0.022948368
40	0xbb8e4780	-0.0043420196
41	0xbd365083	-0.044510376
42	0x3cc82105	0.024429807
43	0xbce0abf6	-0.027425747
44	0x3d93ac7a	0.07210632
45	0xbb3bb23a	-0.0028640167
46	0x3c1bda6a	0.009512523
47	0xbcb4e949	-0.022083895
48	0xbd059930	-0.032616794
49	0x3d2e5d39	0.042569373
50	0xbc740157	-0.014892898
51	0x3bc19533	0.0059076785
52	0xbd2d89f0	-0.042367876
53	0xbd61592a	-0.055016674
54	0x3d5b3f71	0.0535273
55	0xbd6bc72a	-0.057562985
56	0xbbe21e35	-0.0069005736
57	0x3dbf68ce	0.09346162
58	0xbcdb2c42	-0.026754502
59	0x3c8a8487	0.016908897
60	0xbd8d8081	-0.06909276
61	0x3c5ce5e3	0.013482544
62	0xbd7e2df5	-0.062055547
63	0x3ce735bf	0.02822387

fc_state.2.weight f4 [32, 64]
0	0xbddef2f9	-0.10886187
1	0x3db8dd8a	0.0902663
2	0xbb68f386	-0.0035545542
3	0x3d51f0a0	0.05125487
4	0x3dec9b3e	0.115530476
5	0xbda17547	-0.07883697
6	0xbc338560	-0.010957092
7	0x3cebc155	0.028778711
8	0xbd72dddf	-0.059293624
9	0xbdd55831	-0.10417212
10	0x3d4e090b	0.050301593
11	0xbd5ebfab	-0.054382008
12	0xbe0360bd	-0.12829871
13	0xbec75b0f	-0.3893666
14	0xbd4bf7ba	-0.049796797
15	0x3e0598f9	0.13046636
16	0xbdefda2f	-0.11711537
17	0x3de3deae	0.11126457
18	0x3d8a99e9	0.06767637
19	0xbc61c571	-0.013779984
20	0xbddc9553	-0.10770669
21	0x3d12b006	0.0358124
22	0xbdb2cdb5	-0.08730642
23	0xbd824897	-0.06361502
24	0x3de8b98b	0.113635145
25	0xbd293ef6	-0.04131981
26	0xbc1f19c6	-0.009710735
27	0x3d844bfc	0.06459805
28	0x3cf6cb0d	0.030126119
29	0x3d0a9eb0	0.033842742
30	0xbb8ddd6a	-0.004329373
31	0xbeda5521	-0.42643073
32	0x3e10f5d3	0.14156274
33	0xbe220e9e	-0.15825889
34	0xbdd70ac1	-0.10500098
35	0xbec03d76	-0.3754689
36	0xbd85e5e6	-0.0653799
37	0x3c77d690	0.015126839
38	0xbe8725c7	-0.2639601
39	0xbe61fd9e	-0.22069404
40	0x3d910e85	0.070828475
41	0xbbe1fcbf	-0.0068965848
42	0x3da64b7f	0.081198685
43	0xbd1e0b09	-0.038584743
44	0x3e076917	0.13223682
45	0xbc38ccb9	-0.011279278
46	0xbe341575	-0.1758631
47	0xbd90dec3	-0.070737384
48	0x3de40087	0.11132913
49	0x3d055620	0.03255284
50	0x3e1dba51	0.15403105
51	0x3d6e734c	0.058215424
52	0x3da84c4c	0.082176775
53	0x3db92223	0.09039714
54	0xbd14ef6e	-0.03636115
55	0xbdc8c1b8	-0.09802574
56	0x3ce160c9	0.027511971
57	0x3c4387d1	0.011934237
58	0x3de3d495	0.11124531
59	0x3c56b908	0.013105638
60	0x3dcd1a82	0.100148216
61	0x39fab3e6	0.0004781775
62	0xbd6d6fa7	-0.057967808
63	0xbc175f79	-0.009239071
64	0x3dbea4ef	0.09308802
65	0xbdf1778d	-0.117903806
66	0x3d91f377	0.07126515
67	0xbb332b28	-0.0027338956
68	0x3d7517cd	0.05983715
69	0x3d8760d9	0.06610269
70	0x3cd91c4f	0.026502756
71	0xbd8cc367	-0.068732075
72	0xbd56449f	-0.052311536
73	0xbde5f1e8	-0.112277806
74	0x3de0ae1f	0.10970711
75	0xbd4f0d7a	-0.05054996
76	0x3d887d95	0.06664578
77	0x3dfbe066	0.1229866
78	0xbc695757	-0.014242015
79	0x3cca89e8	0.024723962
80	0xbd0d7702	-0.034537323
81	0x3d52acfa	0.051434495
82	0xba154b75	-0.0005695143
83	0xba301ce4	-0.0006718172
84	0xbbba6f64	-0.0056895483
85	0x3d3ba85c	0.045814857
86	0x3d05e153	0.03268559
87	0x3c9df82f	0.019283382
88	0xbc4b8fa5	-0.012424384
89	0xbd8d0d25	-0.06887273
90	0x3d8bbd2d	0.06823192
91	0x3caa147c	0.02076172
92	0x3da012f7	0.07816117
93	0x3e401507	0.18758021
94	0xbb4c4878	-0.0031171124
95	0x3ea3a96a	0.3196519
96	0x3ca6df4d	0.02037015
97	0x3e5eff5b	0.21777098
98	0x3d75edeb	0.06004135
99	0x3d89e022	0.06732203
100	0x3e1253ac	0.14289731
101	0xbdf52272	-0.119694605
102	0x3ded12d4	0.11575857
103	0x3c35e22d	0.011101288
104	0x3de0ead2	0.109822884
105	0x3d5bc6ea	0.053656496
106	0x3d63c846	0.055610918
107	0xbdcfe785	-0.10151581
108	0xbab7117a	-0.0013967
109	0xbd86768d	-0.065655805
110	0x3dc9143d	0.09818313
111	0x3da63f0f	0.08117496
112	0xbc30eb04	-0.01079822
113	0x3e4741c5	0.19458683
114	0x3bfd076b	0.0077218316
115	0x3da1cb86	0.07900147
116	0xbcb948ef	-0.022617785
117	0x3d4914cd	0.049092103
118	0xbd1a513e	-0.037675135
119	0xbd1777b0	-0.036979377
120	0xbd452285	-0.048128624
121	0x3e39b342	0.18134788
122	0xbdca0367	-0.0986393
123	0xbe6963c1	-0.2279196
124	0xbd5bb3b1	-0.053638164
125	0x3d9912df	0.074743025
126	0x3d0b617b	0.03402851
127	0x3e38bbbd	0.18040366
128	0x3ddc8691	0.10767854
129	0xbd2892b0	-0.041155517
130	0xbdcc65fc	-0.099803895
131	0x3dd63ee9	0.10461218
132	0x3dc73805	0.09727482
133	0x3de07985	0.10960678
134	0xbd8ceb3d	-0.06880806
135	0xbd85bf67	-0.06530648
136	0xbd8c0a39	-0.06837887
137	0x3d8abdf0	0.06774509
138	0x3b370986	0.002792926
139	0xbe149b95	-0.14512475
140	0xbe06888e	-0.13138029
141	0xbdf17b60	-0.1179111
142	0xbd9db39b	-0.07700273
143	0xbe32f8d2	-0.1747773
144	0xbcad8717	-0.02118258
145	0x3d066f00	0.0328207
146	0xbda586f1	-0.08082379
147	0xbdb62b01	-0.08894921
148	0xbdf858d1	-0.121263154
149	0x3d8f8dff	0.070095055
150	0x3db46e52	0.088101044
151	0xbd5ee9ae	-0.054422073
152	0xbdbbbaaa	-0.09166463
153	0x3df945eb	0.12171539
154	0xbded9784	-0.11601165
155	0x3df2c142	0.11853267
156	0xbd4d6829	-0.050148163
157	0x3d905e49	0.070492335
158	0x3d8af69e	0.0678532
159	0xbe4224b3	-0.18959312
160	0xbbe32083	-0.006931366
161	0xbcf44443	-0.029817706
162	0xbdf6b140	-0.120455265
163	0xbd873efe	-0.06603812
164	0xbd338761	-0.04383028
165	0x3dd7e472	0.10541619
166	0x3c12ffb2	0.008972095
167	0xbd2575af	-0.040395435
168	0x3de31771	0.110884555
169	0xbc30a20b	-0.010780822
170	0x3de4658a	0.111521795
171	0x3df9c9d1	0.121966965
172	0xbdb1760f	-0.08665096
173	0xbdca8583	-0.098887466
174	0xbd995a97	-0.07487982
175	0xbcf966d2	-0.030444536
176	0x3b6403e8	0.0034792367
177	0x3e668b97	0.22514187
178	0x3cb03364	0.02150888
179	0xbcea8292	-0.028626714
180	0xbde20748	-0.11036545
181	0x3de54bba	0.11196084
182	0xbe33bfad	-0.17553587
183	0x3d970ed9	0.07375879
184	0xbd9148ae	-0.07093941
185	0xbda2220a	-0.07916649
186	0xbd38ddf2	-0.04513354
187	0xbd1910f8	-0.0373697
188	0x3bd7cd82	0.0065857777
189	0x3d49fcb5	0.049313266
190	0xbca42ea3	-0.02004177
191	0x3d977f89	0.07397372
192	0x3df44d42	0.11928798
193	0xbdeb125b	-0.114781104
194	0xbe62aefa	-0.22137061
195	0x3d7495e8	0.059713274
196	0x3d719ea9	0.0589892
197	0x3cbf2e08	0.02333738
198	0xbd3e9ff3	-0.04653926
199	0x3da2b254	0.0794417
200	0xbe00bbd2	-0.12571648
201	0x3d5067a9	0.050880108
202	0xbcc86b74	-0.0244653
203	0xbad60813	-0.0016329311
204	0xbdabde8a	-0.08392055
205	0x3c6296d3	0.013829905
206	0x3d1dae5a	0.038496353
207	0xbf03e82c	-0.5152614
208	0xbdb56dcf	-0.08858835
209	0xbd2aa1c7	-0.04165819
210	0x3d722e39	0.059126113
211	0x3dfb00da	0.12256022
212	0xba8fa7f2	-0.0010960086
213	0xbd9e4e8c	-0.077298254
214	0xbc593e18	-0.013259433
215	0xbd291dfe	-0.04128837
216	0x3d13cfd0	0.036086857
217	0x3de19897	0.11015432
218	0x3dc31e7c	0.09527299
219	0xbab7de55	-0.0014028052
220	0x3d7af140	0.06126523
221	0xbda004e5	-0.078134336
222	0xbde91722	-0.11381365
223	0x3de71bf5	0.11284629
224	0xbdbf0efe	-0.093290314
225	0xbbbacce4	-0.0057006944
226	0x3d9e8605	0.07740406
227	0x3dc56438	0.09638256
228	0x3dbb6a26	0.091511056
229	0xbd48421e	-0.04889118
230	0xbd319611	-0.043356005
231	0x3a0ccdfd	0.0005371271
232	0x3da7d17e	0.08194254
233	0x3d4bd90d	0.049767543
234	0x3c13dd57	0.0090249395
235	0x3d852bae	0.06502472
236	0x3de45d4c	0.111506075
237	0xbde93cdc	-0.11388561
238	0xbe993aba	-0.29927617
239	0xbc849a95	-0.016186992
240	0x3da2b4f2	0.07944669
241	0x3e52b293	0.20575933
242	0xbcf3f96d	-0.029782021
243	0xbd034366	-0.032046698
244	0xbda2640d	-0.079292394
245	0x3dec0400	0.115242004
246	0x3aa3649c	0.0012465897
247	0xbd7fc6db	-0.062445503
248	0x3df05efc	0.11736867
249	0x3dc83ab5	0.097768225
250	0xbd351618	-0.044210523
251	0xbd11c40c	-0.035587355
252	0xbd6e9194	-0.058244303
253	0xbbcb4fdf	-0.0062045897
254	0xbdbf9b2c	-0.093557686
255	0xbee261e9	-0.44215325

fc_state.2.bias f4 [32]
0	0x3e0bc8b2	0.13650778
1	0x3daf2d87	0.085536055
2	0xbcf8650b	-0.030321619
3	0x3e060a6c	0.13089913
4	0xbe054690	-0.13015199
5	0x3e499ba1	0.19688274
6	0xbe07c628	-0.13259184
7	0xbccc9261	-0.024972143
8	0x3d407d68	0.046994597
9	0x3db7c6ac	0.089734405
10	0xbe0999f8	-0.1343764
11	0x3e17219d	0.14758916
12	0xbda6da8e	-0.08147155
13	0x3e2f03ae	0.17091247
14	0x3bfb3486	0.0076661734
15	0xbdaeab0a	-0.08528717
16	0xbdef3565	-0.11680106
17	0xbda8a7f1	-0.08235157
18	0x3e0836e9	0.13302197
19	0x3d879869	0.06620867
20	0xbdcf1c45	-0.10112814
21	0xbd1cb8b8	-0.0382621
22	0xbd6d12cf	-0.057879265
23	0x3c514c8f	0.012774601
24	0x3da3cce7	0.079980664
25	0xbd1d854e	-0.038457207
26	0x3e5d0e1f	0.21587418
27	0x3e14c862	0.14529565
28	0xbda13aed	-0.07872567
29	0x3e0155ad	0.12630339
30	0x3d856fa6	0.06515436
31	0xbe0a750a	-0.1352121

fc_state.4.weight f4 [1, 32]
0	0xbe92c44f	-0.28665397
1	0x3e43b6c9	0.19112696
2	0x3dbb5bb2	0.09148349
3	0xbeba5485	-0.36392608
4	0xbe0d6962	-0.13809732
5	0xbdbe7688	-0.09299952
6	0x3e0b4f86	0.13604555
7	0xbe553350	-0.20820355
8	0xbe175fca	-0.14782634
9	0xbe1a4305	-0.15064628
10	0x3da9068e	0.08253203
11	0xbde9e1dc	-0.114200324
12	0xbdeb56c4	-0.114911586
13	0xbdd7efcf	-0.10543787
14	0x3b62800d	0.0034561187
15	0x3d58c654	0.052923515
16	0x3e3c20b9	0.18371858
17	0xbe052dfe	-0.13005826
18	0x3e1145a2	0.14186719
19	0x3debdcc6	0.115167186
20	0x3e3808ba	0.17972079
21	0x3de55e77	0.11199658
22	0xbda3b8bd	-0.079942204
23	0xbe2ccf1f	-0.16875885
24	0xbda1bc4e	-0.078972444
25	0xbe366760	-0.17812872
26	0xbe0a9c26	-0.13536128
27	0xbe90d386	-0.2828638
28	0x3b91a7a9	0.0044450355
29	0xbd44fb3c	-0.04809116
30	0x3de7096a	0.112810925
31	0xbe701147	-0.23444091

fc_advantage.0.weight f4 [64, 512]
0	0xbd1f4524	-0.038884297
1	0xbd0b0372	-0.033938833
2	0xbcc3b8ae	-0.023891773
3	0x3c94ef58	0.018180534
4	0x3cd826f0	0.026385754
5	0xbccf395d	-0.025295908
6	0x3b48c6c6	0.0030636056
7	0x3cdc9e79	0.026931034
8	0x3c764b2a	0.015032569
9	0xbcc53953	-0.024075186
10	0xbcd2015d	-0.025635416
11	0xbd439be8	-0.047756106
12	0xbc87a826	-0.016559672
13	0xbd2e88a6	-0.042610787
14	0xbd21c303	-0.03949262
15	0x3be17273	0.0068800985
16	0xbd47c447	-0.04877117
17	0xbd087e6b	-0.033323687
18	0x3cbb052b	0.022829613
19	0x3c9f86f2	0.019473527
20	0x3cf2d61d	0.029643113
21	0x3cc93a60	0.024563968
22	0xbcca65d3	-0.024706757
23	0xbd16e8ca	-0.0368431
24	0x3c8ed487	0.017435325
25	0xbc4fb39c	-0.0126771
26	0x3d327337	0.04356691
27	0x3b93cb3b	0.004510311
28	0xbd1ff6d4	-0.039053753
29	0xbd39ddb1	-0.045377437
30	0x3cf22ebc	0.0295633
31	0x3ce9862b	0.02850636
32	0x3d055ad9	0.032557342
33	0xbcc326e2	-0.023822252
34	0x3cfd0395	0.030885497
35	0xbd0f304d	-0.034958173
36	0x3cbc6800	0.02299881
37	0xbd041367	-0.032245066
38	0xbc61ff76	-0.013793817
39	0xba092e88	-0.0005233069
40	0x3c65e3ed	0.0140313925
41	0xbbce52d7	-0.0062964964
42	0x3c090cf0	0.008364901
43	0xbcfaa65e	-0.030596908
44	0xbc9b3fdf	-0.018951355
45	0x3ce93fe1	0.028472843
46	0x3cd962e5	0.026536414
47	0xbc1123fe	-0.008858679
48	0x3c652a03	0.013987067
49	0xbbad8a84	-0.0052960534
50	0xbc046e3a	-0.008082921
51	0xbd263189	-0.040574584
52	0x3be3c1cb	0.006950592
53	0xbca36ce7	-0.01994939
54	0xbc87bb59	-0.016568827
55	0x3d261d74	0.040555432
56	0xbd071d50	-0.03298694
57	0xb99b24ab	-0.00029591224
58	0x3c830d02	0.015997414
59	0xbd25eeb7	-0.04051086
60	0xbd114f87	-0.035476234
61	0x3c8a24a3	0.016863173
62	0xbb590984	-0.0033117244
63	0x3d231637	0.039816108
64	0xbc744eb2	-0.014911341
65	0xbd26d8e1	-0.040734176
66	0xbd085105	-0.03328039
67	0xbd13d117	-0.036088075
68	0xbcd2d8f3	-0.025738215
69	0xbc8e7c92	-0.017393384
70	0xbd27daae	-0.040980034
71	0xbcac5a41	-0.02103913
72	0x3b93ee4a	0.0045144903
73	0x3c902cff	0.01759958
74	0xbcf51640	-0.029917836
75	0xbd198bcd	-0.03748684
76	0xbbc48c33	-0.0059981584
77	0xbd29e199	-0.041474912
78	0x3cbc9291	0.023019107
79	0xbd3f7e44	-0.046751276
80	0x3c74a423	0.014931711
81	0xbd0b5489	-0.034016166
82	0xbbc4456d	-0.0059897215
83	0x3b2c532d	0.0026294694
84	0xbd4ab074	-0.049484685
85	0x3d12ba38	0.035822123
86	0xbd09fb51	-0.03368694
87	0xbd0730fd	-0.033005703
88	0xbcb9185f	-0.022594629
89	0xbc950690	-0.018191606
90	0x3ca1f81d	0.01977163
91	0x3d235e3b	0.039884787
92	0x3cab0606	0.020876896
93	0xbb804b1c	-0.0039152037
94	0xbd061e21	-0.032743577
95	0x390d15eb	0.00013454973
96	0x3c6dc6d4	0.014512736
97	0x3cdfa816	0.02730183
98	0x3c862eb7	0.016379697
99	0xbb40115d	-0.0029307224
100	0x3d14d11c	0.036332235
101	0x3b668c2d	0.0035178766
102	0x3d2a7c3b	0.04162238
103	0x3d0462f2	0.032320924
104	0xbc836fad	-0.016044462
105	0x3b919b3b	0.0044435537
106	0xbb20ac5a	-0.0024516792
107	0x3c5b773c	0.013395127
108	0x3cbf454e	0.023348477
109	0xbd1f6642	-0.03891588
110	0x3cd79d78	0.026320204
111	0x3cad4a78	0.021153674
112	0x3c0a5eb7	0.008445433
113	0x3c9d45f8	0.019198403
114	0xbc7a45bd	-0.015275416
115	0x3ca269dd	0.01982587
116	0x3cb4eb77	0.022084935
117	0xbc8d463f	-0.01724541
118	0xbcbeb95f	-0.023281751
119	0x3d0b453d	0.034001578
120	0xbc8b9178	-0.017037138
121	0xbd422c57	-0.047405567
122	0x3c0fe792	0.008783238
123	0xbacd4e60	-0.0015663616
124	0xbd35b1a3	-0.04435886
125	0xbd2e4ccf	-0.04255372
126	0x3c8ac5f7	0.0169401
127	0x3cf511bc	0.029915683
128	0x3c9bd0f7	0.01902054
129	0xbc95310e	-0.018211868
130	0x3cb64561	0.02224988
131	0x3c6687d7	0.014070473
132	0xbc4c8084	-0.012481812
133	0xbcf33ab2	-0.029691074
134	0xbd071fe5	-0.0329894
135	0xbb2f350e	-0.0026734504
136	0xb9ecc019	-0.00045156552
137	0x3d0eed96	0.03489455
138	0xbd196730	-0.037451923
139	0xbc7998c0	-0.015234172
140	0x3cf57e08	0.029967323
141	0x3ba8ca45	0.0051510655
142	0xbb70b57f	-0.0036729274
143	0xbd2388af	-0.039925274
144	0xbb0a9933	-0.0021148443
145	0x3ceaf2c0	0.028680205
146	0x3b639da3	0.003473141
147	0x3c162b88	0.009165652
148	0x3c1ebe14	0.009688873
149	0xbc6165c9	-0.013757178
150	0x3c8581a8	0.016297176
151	0x3c4c2f73	0.012462485
152	0xbce3825d	-0.027772123
153	0x3bd9496e	0.006631068
154	0x3cd8273e	0.0263859
155	0x3ccbd9b3	0.02488408
156	0x3cfde080	0.030990839
157	0x3d0e387d	0.03472184
158	0xbd3bf452	-0.0458873
159	0x3c6d9fad	0.014503402
160	0x3c732fde	0.014842955
161	0xbccf1897	-0.02528028
162	0xbd4c960a	-0.049947776
163	0x3bdbf6cc	0.00671277
164	0xbc80f818	-0.0157433
165	0xbc527225	-0.012844597
166	0xbd3633e6	-0.044483088
167	0xbd40a7b0	-0.04703492
168	0xbaaf981b	-0.0013396771
169	0x3bf0826a	0.0073397653
170	0xbbe09542	-0.0068537304
171	0xbb498b2e	-0.0030753124
172	0x3d0edde6	0.034879588
173	0x39c4aa50	0.00037510926
174	0xbd0742f4	-0.033022836
175	0x3c886da2	0.01665384
176	0x3d189039	0.037246916
177	0xbcc30b8a	-0.023809213
178	0x3d26b16a	0.04069654
179	0xbbacf13c	-0.005277781
180	0xbd0852cd	-0.03328209
181	0xb9ac1e1b	-0.00032828827
182	0x3d327a29	0.043573532
183	0x3d275f40	0.04086232
184	0x3d1c3a45	0.038141508
185	0xbb77cc60	-0.0037811026
186	0xbd1a3721	-0.03765023
187	0x3d271518	0.0407916
188	0xbd23ce8b	-0.039991897
189	0x3ab6dfaa	0.0013952155
190	0xbcb23f31	-0.021758648
191	0xbc39ae38	-0.011333041
192	0xbbb8a8d1	-0.005635359
193	0xbd5f9bc6	-0.054591917
194	0x3c85920b	0.01630499
195	0x3cc1ae56	0.0236427
196	0x3c82612a	0.015915472
197	0x3d0de9fb	0.03464697
198	0x3be35af8	0.0069383346
199	0xbcc2342c	-0.023706518
200	0xb93b28d0	-0.00017848914
201	0x3bef1932	0.0072967047
202	0x3ca7c415	0.020479241
203	0xbc2376e7	-0.009977079
204	0x3cebc677	0.028781159
205	0x3c62f639	0.013852649
206	0x3d35ce10	0.04438597
207	0x3cb42649	0.021990912
208	0xbb3f2ff7	-0.0029172876
209	0x3c8ebb25	0.017423222
210	0x3d2d8e58	0.042372078
211	0x3cc5803d	0.024109
212	0xbcd1450d	-0.025545621
213	0xbba8579d	-0.0051373974
214	0x3b1e335e	0.0024139504
215	0xbcab7e9c	-0.020934395
216	0x3d0a404e	0.033752732
217	0xbc4f8851	-0.012666778
218	0xbd151ee9	-0.03640643
219	0x3c6d5918	0.014486574
220	0x3cad1bd9	0.021131443
221	0x3c856c93	0.016287124
222	0x3cabdc85	0.020979175
223	0xbd3bb6b8	-0.04582855
224	0xbadb5a97	-0.0016735372
225	0xbceb6cfc	-0.028738491
226	0x3bc66b8f	0.0060553025
227	0xbd263f8a	-0.04058794
228	0xbc3dc7b9	-0.011583262
229	0xbbd6f346	-0.006559762
230	0xbd3cba3d	-0.04607605
231	0x3ba243eb	0.004951944
232	0xbcbc88da	-0.023014475
233	0xbc1381f0	-0.0090031475
234	0xbaa83e80	-0.0012836009
235	0xbc2ecc32	-0.010668801
236	0x3c8c4687	0.017123474
237	0xbd02fef9	-0.031981442
238	0xbd15cc84	-0.036571994
239	0x3d0864d1	0.03329927
240	0xbbc0ed8a	-0.005887692
241	0x3d0cfd2d	0.034421135
242	0xbc06e2e1	-0.008232803
243	0xbce03833	-0.027370548
244	0x3c49269b	0.012277271
245	0xbc731661	-0.0148368785
246	0xbd2339a8	-0.039849907
247	0x3c9f7fec	0.019470178
248	0xbd29c80b	-0.04145054
249	0xbd3bf14d	-0.04588442
250	0xbd0d9af9	-0.03457162
251	0xbd135bf2	-0.035976358
252	0x3c914b9c	0.017736249
253	0x3d19fabd	0.03759264
254	0xbd2eb106	-0.04264929
255	0x3cc4ef42	0.024039868

fc_advantage.0.bias f4 [64]
0	0xbd3ed085	-0.04658558
1	0x3e13694e	0.1439564
2	0xbe78c359	-0.24293269
3	0x3c003442	0.007824959
4	0xbe5001c3	-0.20313172
5	0xbeb67f49	-0.35643986
6	0x3d97e4f7	0.074167185
7	0xbd22804f	-0.039673146
8	0xbcbc9eeb	-0.023024997
9	0xbe0b02d1	-0.13575293
10	0x3ea3abb6	0.31966943
11	0xbcd8cdb9	-0.026465284
12	0xbae9675a	-0.001780729
13	0xbdbd955e	-0.09257005
14	0xbce8ec70	-0.028433055
15	0xbd888b0f	-0.06667148
16	0xbeae86a5	-0.340871
17	0x3cf59857	0.029979868
18	0xbc32c7a7	-0.010911859
19	0xbd3d36a9	-0.046194706
20	0x3cd50547	0.026003493
21	0x3d357359	0.044299457
22	0xbd297c50	-0.04137832
23	0x3e126e31	0.14299847
24	0x3ee8e506	0.4548723
25	0xbccdd947	-0.02512802
26	0x3d74d698	0.059774965
27	0x3dfeb8ad	0.12437568
28	0x3da19700	0.07890129
29	0xbcdb73fb	-0.026788702
30	0xbdcc8364	-0.09985998
31	0xbc2a49a5	-0.010393535
32	0x3f179bf1	0.5922232
33	0x3cf3621e	0.029709872
34	0x3efb9723	0.49138746
35	0xbe9227b8	-0.28545928
36	0xbdd10124	-0.10205296
37	0x3dfa6bb3	0.12227573
38	0xbe390501	-0.18068315
39	0x3d90d63d	0.07072113
40	0x3ec4f20e	0.38465923
41	0xbacdf751	-0.0015713965
42	0x3ce69609	0.028147714
43	0x3d3400e4	0.043946162
44	0xbdebf9c8	-0.11522251
45	0xbd5c4320	-0.053774953
46	0xbcd2c47a	-0.025728453
47	0xbc0f5c76	-0.008750072
48	0x3ea04376	0.3130147
49	0x3d6f7ee9	0.05847064
50	0x3eb8a998	0.3606689
51	0x3d4917ac	0.04909484
52	0x3ec2a240	0.38014412
53	0x3d55b625	0.05217566
54	0xbcad499d	-0.021153266
55	0xbe35e8df	-0.17764615
56	0x3e2a8840	0.16653538
57	0x3df1a13f	0.117983334
58	0xbbb8ef33	-0.005643749
59	0xbd26dfe3	-0.04074086
60	0x3ce8fa82	0.028439764
61	0xbd46f56c	-0.048573896
62	0xbd9622e5	-0.07330874
63	0xbe64bfa6	-0.22338733

fc_advantage.2.weight f4 [32, 64]
0	0xbdc8207a	-0.097718194
1	0xbe2689bc	-0.16263479
2	0x3da99cd0	0.08281863
3	0xbdb53ae0	-0.0884912
4	0xbc349a0c	-0.011023056
5	0xbd4c0b24	-0.049815312
6	0xbd5acf03	-0.053420078
7	0x3deb65db	0.11494037
8	0xbd2f1ad8	-0.04275021
9	0x3d1f29f3	0.038858365
10	0xbcebaa80	-0.028767824
11	0xbc8972f2	-0.016778443
12	0x3d97c366	0.07410316
13	0xbca9557b	-0.020670643
14	0x3e1f345f	0.15547322
15	0xbd8a7665	-0.06760863
16	0xbdc838a3	-0.097764276
17	0x3d97cbb6	0.07411902
18	0x3d5018e6	0.050804995
19	0x3e056021	0.13024952
20	0xbc92448f	-0.017854957
21	0xbd844fc0	-0.064605236
22	0xbdc25025	-0.094879426
23	0xbdff3244	-0.12460759
24	0x3d55d876	0.052208386
25	0xbdaebef9	-0.08532519
26	0xbd879702	-0.06620599
27	0xbbb090af	-0.0053883414
28	0xbcff3177	-0.031151516
29	0xbd78bd91	-0.06072766
30	0x3de046ec	0.10951027
31	0xbd77fc59	-0.06054339
32	0x3d310a88	0.043222934
33	0xbda7b934	-0.081896216
34	0xbcd6569f	-0.026164351
35	0xbe065f8a	-0.13122383
36	0x3d2fa637	0.042883124
37	0xbdadf43a	-0.08493848
38	0xbd27f6f4	-0.041006997
39	0xbdfa393c	-0.12217948
40	0xbcd6e661	-0.0262329
41	0x3d0ee392	0.034884997
42	0xbcdd42df	-0.027009426
43	0xbd70f0ad	-0.058823276
44	0x3ce189c7	0.027531518
45	0x3d867775	0.06565753
46	0xbd1f5a9f	-0.038904782
47	0xbd826092	-0.063660756
48	0x3b897f60	0.0041960925
49	0xbd77e3fc	-0.060520157
50	0x3c49dd44	0.01232082
51	0xbd56c877	-0.052437272
52	0xbd878b87	-0.066184096
53	0x3da3a09a	0.07989617
54	0x3db1a59a	0.08674164
55	0xbd47632c	-0.048678562
56	0xbe029eb9	-0.1275586
57	0x3caa2a97	0.020772262
58	0x3d4e7fc6	0.050414823
59	0x3de4dd29	0.111749955
60	0x3d855b3a	0.06511541
61	0xbcc10d40	-0.023565888
62	0xbde90d68	-0.1137951
63	0xbd8a27ba	-0.067458585
64	0xbd1c54c2	-0.03816677
65	0xbea6a376	-0.32546586
66	0x3e1bfcd8	0.15233171
67	0x3be2a5d2	0.00691674
68	0xbd86dde3	-0.0658529
69	0x3b8a85ee	0.0042273914
70	0xbe78c0fb	-0.24292366
71	0xbad78337	-0.0016442303
72	0x3c9b9f0f	0.018996743
73	0xbe1b2519	-0.1515087
74	0xbe615259	-0.2200407
75	0xbd87b9e1	-0.066272505
76	0xbe51e530	-0.20497584
77	0x3d632c82	0.055462368
78	0xbe01d8b2	-0.12680319
79	0xbd2e9662	-0.042623885
80	0xbc42d262	-0.0118909795
81	0x3e82e0d7	0.25562164
82	0x3d89fee0	0.06738067
83	0xbd99d185	-0.07510666
84	0xbda3abf8	-0.07991785
85	0xbe5873b0	-0.21137881
86	0xbda3ade9	-0.07992155
87	0xbe81e369	-0.25368813
88	0x3e28c3e4	0.16480976
89	0x3d6d5e51	0.057951275
90	0x3d1c8d35	0.038220603
91	0x3ec3b4e1	0.38223937
92	0x3dc0db99	0.09416885
93	0x3dae57c9	0.085128374
94	0xbd38d3e1	-0.04512394
95	0xbe23239e	-0.15931556
96	0xbbaeedae	-0.005338392
97	0x3cc34c2f	0.023840038
98	0xbb9e5ea2	-0.0048330585
99	0x3d0bbd94	0.034116343
100	0xbd814cf5	-0.063135065
101	0xbdea9488	-0.11454111
102	0xbe057f4c	-0.13036841
103	0x3e463169	0.19354786
104	0xbe956a76	-0.29182786
105	0xbc0f9850	-0.0087643415
106	0xbde6a76b	-0.11262401
107	0xbcb05866	-0.021526527
108	0x3e269884	0.16269118
109	0xbc7e1487	-0.015507824
110	0xbefd5a76	-0.4948308
111	0xbddea9c7	-0.10872226
112	0x3d968a10	0.07350552
113	0xbd74d96b	-0.05977766
114	0x3d3c442a	0.045963444
115	0xbe2420b2	-0.16028097
116	0x3d05f5f3	0.03270526
117	0xbec1da92	-0.37862068
118	0xba62db49	-0.0008653892
119	0x3e3976e6	0.18111762
120	0xbd8e23cd	-0.06940422
121	0xbc3cdf6e	-0.011527879
122	0xbe96902d	-0.29406872
123	0x3cad3111	0.02114156
124	0x3e0c5d94	0.13707572
125	0xbd2e7abc	-0.042597517
126	0xbe67402b	-0.22583072
127	0x3dffd5dd	0.12491963
128	0xbd96d736	-0.07365267
129	0xbe81e725	-0.25371662
130	0x3d2f2d90	0.04276806
131	0x3d3d27aa	0.046180405
132	0x3e090308	0.13380063
133	0x3d6acd3a	0.057324626
134	0xbe363572	-0.17793825
135	0x3b986222	0.00465037
136	0x3d9b5edc	0.07586452
137	0x3e108280	0.14112282
138	0xbcf3e2dd	-0.029771263
139	0xbcdf7bf4	-0.027280785
140	0x3dd116c4	0.1020942
141	0xbd926036	-0.07147257
142	0xbd5b55bc	-0.05354856
143	0x3d66a0ba	0.056305625
144	0x3e43b752	0.191129
145	0x3e184783	0.1487103
146	0xbc8c8192	-0.017151628
147	0x3e51c3a4	0.20484787
148	0xbd24e670	-0.040258825
149	0x3e3d4894	0.18484718
150	0x3d63bb98	0.055598825
151	0xbe436ba2	-0.19084027
152	0xbc8c58ce	-0.01713219
153	0xbde23435	-0.11045114
154	0x3dabc55c	0.08387253
155	0xbd9ae460	-0.0756309
156	0x3d8804a9	0.06641514
157	0x3dcbfa6e	0.09959875
158	0x3d96b75b	0.07359191
159	0x3e7d97ea	0.24764982
160	0xbdfd53bb	-0.12369486
161	0x3e47b8f4	0.19504148
162	0xbe09624d	-0.13416405
163	0x3c6abec1	0.014327706
164	0x3d7008a8	0.058602005
165	0x3e939d12	0.28830773
166	0x3dfdd670	0.12394416
167	0x3db9652d	0.09052501
168	0xbcbaa9a3	-0.022785967
169	0x3d5b367b	0.053518753
170	0x3dc3c37f	0.09558772
171	0x3e153da2	0.14574292
172	0x3e34b5ca	0.17647472
173	0x3b4205e1	0.0029605555
174	0xbed5f56d	-0.41788808
175	0x3d0585d2	0.032598324
176	0xbc930f3c	-0.0179516
177	0x3db31eed	0.08746133
178	0xbe0610ee	-0.13092396
179	0xbe13dd5a	-0.14439908
180	0x3cf0e1c6	0.029404532
181	0xbdc2e799	-0.0951683
182	0xbd98d5a0	-0.07462621
183	0x3e2daac5	0.16959675
184	0x39d81960	0.00041217636
185	0x3db686ef	0.08912455
186	0xbd6969b3	-0.05698557
187	0x3d1c9344	0.03822638
188	0x3d4efb3b	0.05053256
189	0x3db794b2	0.08963908
190	0xbcf73c51	-0.030180128
191	0x3d9f889a	0.077897266
192	0xbce38ec7	-0.027778042
193	0x3da13bc1	0.07872725
194	0xbe96e106	-0.29468554
195	0x3c1e6633	0.009667921
196	0xbe175f2d	-0.147824
197	0xbeaf26c7	-0.34209272
198	0x3cbb09b4	0.022831775
199	0xbf37d368	-0.71806955
200	0x3dcc3751	0.09971488
201	0x3dbb9011	0.09158338
202	0x3d708ef2	0.058730073
203	0x3e9ffeed	0.3124918
204	0xbe130ec1	-0.14361097
205	0xbe7d832e	-0.24757072
206	0xbdad6426	-0.084663674
207	0x3d01daee	0.03170293
208	0x3db2d8eb	0.0873278
209	0xbdf88b09	-0.12135894
210	0xbe0508bc	-0.12991613
211	0xbcbf7a11	-0.023373635
212	0xbcad9c5d	-0.021192724
213	0x3da899e9	0.08232481
214	0xbd7ddd8c	-0.06197886
215	0x3e774208	0.24146283
216	0xbd334328	-0.043765217
217	0xbd02509c	-0.031815156
218	0x3d2fe797	0.04294547
219	0xbe14117b	-0.14459793
220	0xbe18b82c	-0.14914006
221	0xbd0c726b	-0.034288805
222	0xbe340f86	-0.17584047
223	0x3e4181b6	0.18897137
224	0x3c0a2ec3	0.008434
225	0xbe48a67c	-0.19594759
226	0x3d66c91b	0.056344133
227	0xbef7357e	-0.48283
228	0xbe6ca6cc	-0.23110503
229	0x3d5baec5	0.05363347
230	0xbc66b8c2	-0.014082136
231	0xbe491a9a	-0.19639054
232	0x3e0a03f9	0.13478078
233	0x3d6904de	0.056889407
234	0x3cf9ba63	0.030484384
235	0x3d92597f	0.07145976
236	0xbdc83dbd	-0.09777401
237	0xbd54d075	-0.051956613
238	0x3cc2f4c7	0.02379836
239	0x3dc7ed29	0.097620316
240	0xbd9f9f8e	-0.077941045
241	0x3e1affc3	0.15136628
242	0xbd6ea1ee	-0.058259897
243	0x3e82d87b	0.25555786
244	0x3d642ceb	0.0557069
245	0x3eb88001	0.3603516
246	0x3d4771c1	0.04869247
247	0xbe701a6a	-0.23447576
248	0x3e188382	0.14893916
249	0x3da5d347	0.080969386
250	0xbd2d6b02	-0.04233838
251	0x3dc3eae4	0.09566286
252	0xbe37f5ee	-0.17964908
253	0xbdb59b77	-0.08867543
254	0x3d28dd85	0.041226882
255	0x3c73ba57	0.01487597

fc_advantage.2.bias f4 [32]
0	0xbc260527	-0.010133064
1	0x3dd16852	0.10224976
2	0xbdd5b995	-0.104357876
3	0x3916dbd6	0.0001438701
4	0xbe3f04a7	-0.18654118
5	0x3e4ab3a0	0.19795084
6	0x3c90f05c	0.017692737
7	0x3e1fe145	0.15613277
8	0x3cb25219	0.021767663
9	0xbda48b75	-0.08034412
10	0x3ea40de3	0.32041845
11	0xbe435d3a	-0.19078532
12	0xbf04664d	-0.517186
13	0xbc67e58e	-0.014153851
14	0x3cd8a2d4	0.02644483
15	0xbe29a9e0	-0.16568708
16	0xbd3faaa0	-0.04679358
17	0x3d5155a1	0.051107053
18	0xbd041a32	-0.032251544
19	0x3d7a64ee	0.06113141
20	0xbddf1028	-0.108917534
21	0x3c3df82d	0.011594814
22	0x3e0a5ca3	0.135119
23	0x3c654211	0.013992802
24	0x3e1120d9	0.14172687
25	0xbd598774	-0.053107694
26	0x3e4e09a6	0.20120868
27	0xbeaa0365	-0.33205715
28	0x3eeddc71	0.46457246
29	0x3dd2ca15	0.1029245
30	0xbeee7cdb	-0.46579632
31	0x3eb82df2	0.35972553

fc_advantage.4.weight f4 [6, 32]
0	0x3e1921cd	0.149543
1	0xbde120be	-0.10992573
2	0x3d60e96e	0.054910116
3	0xbb95d3cd	-0.0045723678
4	0x3d37c96a	0.044869818
5	0x3d3a35f5	0.045461614
6	0xbcca7b47	-0.024716986
7	0x3e668ab8	0.22513855
8	0x3cae475c	0.021274261
9	0xbca58451	-0.020204695
10	0xbe5aab30	-0.21354365
11	0x3c851837	0.016246898
12	0xbdc27ba9	-0.094962426
13	0xbe1814be	-0.14851663
14	0xbd6ad0e1	-0.05732811
15	0xbd51b9ca	-0.051202573
16	0xbbd45886	-0.0064802794
17	0xbd91434c	-0.07092914
18	0x3da963b8	0.08270973
19	0xbeab0041	-0.3339863
20	0xbe58a088	-0.21154988
21	0xbd2d57dd	-0.04232012
22	0x3e1b2d16	0.15153918
23	0xbe8c31db	-0.27381787
24	0x3d884e2a	0.066555336
25	0x3ebaf96f	0.36518428
26	0xbdedf606	-0.11619191
27	0x3d17e8c5	0.03708722
28	0x3e1949d0	0.14969563
29	0xbd2e833d	-0.042605627
30	0xbca24bc7	-0.019811524
31	0xbdf3986e	-0.11894308
32	0x3dc77cc8	0.09740597
33	0x3c68ea6a	0.014216045
34	0xbd67b97a	-0.05657337
35	0x3e284c5e	0.16435382
36	0xbda9216d	-0.082583286
37	0x3ddc5f36	0.107603475
38	0xbdcd9e90	-0.10040009
39	0xbe3aa7bd	-0.1822805
40	0x3e597673	0.21236591
41	0xbcf09b67	-0.029370977
42	0x3cb049cf	0.02151957
43	0xbcad3295	-0.021142283
44	0x3d8f5a3a	0.06999631
45	0x3f027f19	0.50975186
46	0xbe790c19	-0.24321021
47	0x3d8e6c9a	0.06954308
48	0x3d2bce55	0.04194482
49	0xbde84194	-0.11340633
50	0x3e139f76	0.14416298
51	0x3873179b	5.79577e-05
52	0xbdd093e8	-0.10184461
53	0xbe348268	-0.17627871
54	0xbe2959fa	-0.1653823
55	0x3d9a8b1a	0.07546063
56	0xbf5965ae	-0.84920776
57	0x3e746623	0.23867087
58	0xbe14f98f	-0.14548324
59	0x3d44e82e	0.048072986
60	0x3dc7e6c7	0.09760814
61	0x3eca2b2e	0.39486068
62	0xbe0a7354	-0.13520557
63	0x3ac83ebd	0.0015277487
64	0x3e4a45ed	0.19753237
65	0xbe6af078	-0.22943294
66	0x3d90f172	0.07077302
67	0xbf005414	-0.50128293
68	0xbeb14c31	-0.34628442
69	0xbf13467e	-0.5752944
70	0xbdcdde71	-0.10052193
71	0xbd90f42f	-0.07077824
72	0xbeb69c75	-0.35666242
73	0xbdc8ee0a	-0.09811027
74	0x3e07ec19	0.13273658
75	0xbd92e28c	-0.07172117
76	0xbc4706a0	-0.012147576
77	0xbebb4c75	-0.3658177
78	0xbd1a29d7	-0.037637558
79	0x3d2bbfe6	0.041931055
80	0x3d4ee9ce	0.050515942
81	0x3ef3ebe2	0.47640902
82	0x3d19e064	0.03756751
83	0xbb9fa4ed	-0.0048719556
84	0x3e990142	0.29883772
85	0xbe86035a	-0.26174432
86	0xbd5cfb8a	-0.053950824
87	0x3d38b9cb	0.04509906
88	0x3eb802cb	0.3593963
89	0xbd0c0d74	-0.034192517
90	0xbe293d8f	-0.16527389
91	0x3d6bbc36	0.05755254
92	0x3dbe392c	0.092882484
93	0xbf0eaad1	-0.55729395
94	0xbdd8dabd	-0.10588596
95	0xbd96d109	-0.07364089
96	0xbd6d7b11	-0.057978693
97	0xbd5a713a	-0.053330638
98	0xbea2e07f	-0.31811902
99	0x3d66972b	0.05629651
100	0x3e9c224e	0.30494922
101	0x3e62f4ac	0.22163647
102	0x3efbeed7	0.49205658
103	0x3a9f6f55	0.0012163917
104	0x3d296e11	0.041364733
105	0x3c6af9cd	0.014341784
106	0xbe502c06	-0.20329294
107	0xbea8d8fb	-0.32978043
108	0xbe7e1d16	-0.24815783
109	0x3d691c96	0.056912027
110	0x3e3e7558	0.1859945
111	0x3d25af95	0.04045065
112	0x3de0034f	0.10938131
113	0xbf1a7df5	-0.60348445
114	0xbeafbebf	-0.34325215
115	0x3e01c86e	0.12674114
116	0x3e44389d	0.19162221
117	0xbe1970dd	-0.1498446
118	0xbdf03a28	-0.117298424
119	0x3de6c066	0.11267166
120	0x3d851552	0.06498207
121	0xbea0e8ca	-0.31427604
122	0xbf1a43fd	-0.6025999
123	0x3ea97167	0.33094332
124	0x3e8adbf3	0.27120933
125	0x3e3c3630	0.18380046
126	0x3e490c60	0.19633627
127	0x3e7046bc	0.23464483
128	0x3e620d8d	0.22075482
129	0x3e911dcc	0.28343046
130	0xbdd45020	-0.10366845
131	0xbe38eb8e	-0.18058607
132	0x3dc737ba	0.09727426
133	0x3d905fbe	0.070495114
134	0xbe8dc0d6	-0.27686185
135	0x3cec42db	0.028840473
136	0xbb69ab4d	-0.0035655082
137	0x3d47904d	0.0487216
138	0xbe2194cf	-0.15779422
139	0x3f1d675b	0.6148583
140	0xbe9db608	-0.3080294
141	0xbd70ca43	-0.05878664
142	0x3bf33ed3	0.0074232607
143	0xbd0198dc	-0.03163992
144	0x3d99a694	0.075024754
145	0xbe18b5b9	-0.14913072
146	0x3e2daeee	0.16961262
147	0x3e48ea9d	0.19620748
148	0xbdab0ae3	-0.08351686
149	0xbe82bc6f	-0.25534388
150	0xbea28702	-0.31743628
151	0xbe02091e	-0.1269879
152	0x3dc987b9	0.0984034
153	0xbe4ddfd4	-0.20104915
154	0x3edd995e	0.43281072
155	0xbf2ab58c	-0.6668327
156	0x3d925728	0.0714553
157	0xbca9b2c7	-0.02071513
158	0xbf1a9616	-0.6038526
159	0xbdb67f25	-0.0891097
160	0x3e21b72b	0.1579253
161	0x3dc7df86	0.097594306
162	0x3e4b37a3	0.19845442
163	0xbe07770f	-0.13229011
164	0x3d8edb4b	0.069754206
165	0x3dc5f73f	0.09666299
166	0xbe39ab09	-0.18131651
167	0xbe060139	-0.13086404
168	0xbd4195d2	-0.04726202
169	0x3e0b436e	0.13599941
170	0xbe7cb10a	-0.2467691
171	0xbe3a3b9f	-0.18186806
172	0x3e14f5d6	0.14546904
173	0xbde15861	-0.11003185
174	0x3e14dfea	0.14538541
175	0x3dc308d4	0.09523168
176	0x3b598c28	0.0033195112
177	0xbdd59717	-0.10429209
178	0x3dac3792	0.08409037
179	0x3e475ae1	0.19468261
180	0x3dcadd68	0.09905511
181	0x3ebfaf15	0.37438264
182	0xbd858baa	-0.065207794
183	0x3e0d063c	0.1377191
184	0xbdb425e3	-0.08796289
185	0xbd7bdcb7	-0.061489787
186	0xbd4bcd13	-0.04975612
187	0x3e177a3a	0.1479272
188	0xbe4c96a9	-0.19979347
189	0xbcff4152	-0.031159077
190	0x3e884740	0.2661686
191	0xbec560ea	-0.38550502

fc_advantage.4.bias f4 [6]
0	0x3e082bf5	0.13298018
1	0xbd8442ee	-0.06458078
2	0xbd6b8e49	-0.05750874
3	0x3d929ff5	0.07159416
4	0xbe5795e7	-0.21053277
5	0xbe012554	-0.12611896
