data/Torch/Dueling/002_CNN-1_E_L/checkpoints/weights_1300000steps.pth (torch, 286623 bytes, 13 tensors)

conv_layers.0.weight f4 [32, 1, 3, 3]
00000000: c25b 57bd 0742 b3bc 022e 24bb d674 093e
00000010: b4c2 98be 787b f9bc 098c 543e e86e a13d
00000020: 1aa7 893e a20d 9abe b7d3 9a3e dc0f 1e3d
00000030: 5ad8 c4bd 794a b5bd a1fd 553e e1ee c13e
00000040: bcaf f0bd a8f2 68be 7ab5 0ebf a22c d0bc
00000050: 9de7 473d 1432 a83e ba90 dc3d c829 c8bc
00000060: 2507 f13c 7f99 d93d 6d81 54be e0a9 efbf
00000070: 2338 d83c b8b6 0c3e 8bb9 863d 7d48 d33c
00000080: 5603 1bbb b3d2 923c 81ed 09bb 829f 87bc
00000090: e58e 683e 5f88 26be 58b8 983d e37c 013e
000000a0: 3517 1d3e f46a 21bc 80a3 4cbc dadd 42bd
000000b0: 12e7 c6bc 82c0 f93e 8e68 aa3b a539 da3c
000000c0: 4852 87bf 6d4f 6c3e ee37 e4bc 5dec 7ebd
000000d0: fda4 753d 0b48 27bc 1220 313f ea79 88bc
000000e0: 8840 acbc dbcd 7a3b 462f f6be 6945 303d
000000f0: c4b1 dbbc 6bb4 13bc f4af 5dbd cf0b 47bf
00000100: 155d 733d 9240 31bf f9eb 973d 0890 17bd
00000110: c199 56bf e92c 963b fa06 cb3c 8614 a73c
00000120: 079a 2ebf 2d26 283e 93db de3c 24ba 223c
00000130: e758 873e 1efe 9cbd e16e 3bbd 7657 573e
00000140: 7751 df3d c8a6 a03e 005f 68be 728b b53c
00000150: 550a adbe e01c c3bd 2c7f 3f3e 860e 67bd
00000160: 8505 14be 3cd2 923e e3e2 8ebe 05d7 ba3d
00000170: d093 3a3e 62ad 63b9 2fd1 533e 64b0 f73c
00000180: 4438 24be 95f5 54be a3fa 153d a257 9fbd
00000190: 559c b5be 09be fc3d e9eb e63e ff25 253e
000001a0: 5a35 9d3c e0cb 433d 7c41 58bd 5acd f2be
000001b0: 47e2 253e 7ae1 eebc 52c4 e9bc 905d 45be
000001c0: 0c35 abbd 6518 8f3e f620 66bc 7782 993d
000001d0: 060f c7bc 20fa afbf a88c b13d 5fe9 463d
000001e0: d051 fd3d 3af5 da3c e3ae b13d 750b 323d
000001f0: fde4 6a3d b0ae 4c3d 472f ea3e 883c 423e
00000200: 6e0a f0bd fc61 703d 27e5 46be cfac b93d
00000210: 3cec 13bd abed 44bc 0426 45be 906e 083f
00000220: 0355 f0be 73fc 13bd 532e 95bc b964 2abc
00000230: 763b 0c3d f0d7 09bc 1e15 8d3b e50e d13c
00000240: 6182 be3d 5f34 303e 208a 363e 9d0d 1f3e
00000250: 8289 263d 513f 09be 604e 6ebd 610b b7bd
00000260: 5f19 53be 6b6b ccbc bff2 3c3e 5ed0 8a3d
00000270: 1ca2 82be af97 13be 4dc8 233d 8e7f efbd
00000280: dc6a c63d 21a0 8e3d 450d 07bf e1d9 d2ba
00000290: dbc1 d63b c45d bcbc 6b75 053e eba7 a0bd
000002a0: c720 0e3d 3ad7 083e 6f7b 9a3e 207b f93e
000002b0: cc72 dcbd 71e4 f93d 2a64 083c 28ef 14bf
000002c0: 9f75 08be 05ab 863d 8627 05be 7e9e 21be
000002d0: 953c 533e 1764 91be a004 873c 72e5 89be
000002e0: 17e5 dabd c957 5a3b a67a 2ebe 78e6 2b3e
000002f0: a68e e03d 00b3 283f 4af4 cabd 53a5 e63d
00000300: bfad 21be 39cd 39be fb3a c1bc 8f7d b5bd
00000310: d0eb 683d 99d4 223c 2f06 e0bc 0d31 a03b
00000320: 1c62 713c acee 1e3e d643 2bbe fbb9 5abe
00000330: 9ba0 bc3c f5a1 863c 5b9b f63c 794a 43be
00000340: f4b7 b53e 5f07 ac3e 6cbf abbd 3c48 bfbc
00000350: 3b0c 1eba 5f53 30be 56ed d53d 3cd5 c2bc
00000360: 0eb3 403d f8d2 4ebe 6844 033e 213a 6a3e
00000370: 44c6 50bd 73ce afbb d986 8dbe 194f ae3d
00000380: a0ed 2bbe 91d4 693e 3565 d03d 1647 3abc
00000390: 732b 813d 6f92 2fbe 4a58 a23d 6316 1cbe
000003a0: 12f2 ebbd 624c 24be b7ef b9be 4c0d 023d
000003b0: 8276 9a3d 4be2 163e ad9b ba3d 38e7 5abe
000003c0: 2b4a 2f3d 0e7e 8e3d c2b8 993c c6ff 643e
000003d0: ff36 8e3d 07d2 ddbe 6f58 9b3e 2947 7dbd
000003e0: 65ca 583d 023b 65be 1888 f53d 742c 873c
000003f0: a41a 003f 8e24 42bd 3079 693d fb0f edbe
-0.05257774 -0.02188207 -0.0025051837 0.13423476 -0.29836047 -0.030454382 0.20756544 0.07882482
0.268853 -0.30088526 0.3023965 0.038589343 -0.09611578 -0.08852095 0.20897533 0.37877563
-0.11752269 -0.22748816 -0.5574566 -0.025411908 0.048804868 0.32850707 0.10769792 -0.024433985
0.029422352 0.1062498 -0.20752497 -1.8723717 0.026393956 0.13741577 0.06578358 0.025791401
-0.0023653111 0.017922735 -0.0021046104 -0.016555551 0.2271076 -0.16262959 0.07457036 0.12645297
0.15340884 -0.00985216 -0.012490153 -0.047574855 -0.024280105 0.48779684 0.005200452 0.026638815
-1.0571985 0.23077174 -0.0278587 -0.062237132 0.0599718 -0.0102100475 0.6918956 -0.016659696
-0.021026865 0.0038269672 -0.48082942 0.043034945 -0.026818164 -0.009015183 -0.05412288 -0.77752393
0.05941494 -0.6923915 0.07418055 -0.037002593 -0.8382836 0.0045829904 0.0247836 0.020395529
-0.6820378 0.16420813 0.02720431 0.009932075 0.26435015 -0.076656565 -0.04576004 0.21029457
0.1090421 0.31377244 -0.2269249 0.02216122 -0.33796945 -0.09526992 0.18700856 -0.056410335
-0.1445523 0.2867602 -0.27907476 0.09123043 0.18220448 -0.00021712997 0.20685266 0.030235477
-0.16037089 -0.20796807 0.03661598 -0.077803865 -0.35470834 0.12340934 0.4510186 0.16127776
0.01919048 0.047801852 -0.052796826 -0.47422296 0.16199599 -0.02916025 -0.028535996 -0.19273973
-0.08359727 0.279483 -0.014045944 0.07495587 -0.024299156 -1.3748207 0.08669406 0.048562404
0.1236912 0.026728261 0.08675935 0.043467958 0.057347286 0.049971282 0.45739195 0.18968403
-0.11720739 0.058687195 -0.19423352 0.09066164 -0.036113963 -0.012019555 -0.19252783 0.53293705
-0.4693986 -0.036129426 -0.018210566 -0.010399991 0.034236394 -0.0084133 0.004305496 0.025519798
0.093022116 0.17207478 0.17826128 0.15532537 0.04065848 -0.1340306 -0.058180213 -0.08937717
-0.20615147 -0.024953565 0.18451975 0.06778024 -0.25514305 -0.14413331 0.039985944 -0.11694251
0.096883506 0.06964136 -0.5275462 -0.0016086661 0.006553871 -0.02299393 0.13033073 -0.07844528
0.034699228 0.13363352 0.30172297 0.4872675 -0.10764083 0.12201775 0.008324662 -0.58177423
-0.13326119 0.06575588 -0.13003358 -0.15783116 0.20628579 -0.28396675 0.016481698 -0.26932865
-0.10688227 0.0033316484 -0.17038974 0.16787136 0.10964708 0.6589813 -0.09909876 0.11262002
-0.15788935 -0.18144692 -0.023587694 -0.08861839 0.056865513 0.009938383 -0.027346699 0.00488866
0.014732864 0.15520734 -0.16725096 -0.21360008 0.023025801 0.016434649 0.030103376 -0.19071378
0.35491908 0.33599374 -0.0838612 -0.023349874 -0.0006029044 -0.17219304 0.10445659 -0.023783319
0.04704576 -0.20197666 0.12819064 0.22873737 -0.05097033 -0.005365187 -0.27641943 0.085111804
-0.16789865 0.22834994 0.10175554 -0.011369487 0.063071154 -0.17145704 0.07926996 -0.15242915
-0.115207806 -0.16044763 -0.363157 0.031750962 0.07542135 0.14734761 0.09111724 -0.21377265
0.04279534 0.06957637 0.018764857 0.22363195 0.069440834 -0.433243 0.30340907 -0.06183544
0.052927393 -0.22385791 0.119888484 0.01650069 0.5004065 -0.047398143 0.05700034 -0.46301255

conv_layers.0.bias f4 [32]
00000000: 4703 47bf 001c 28bf ee4e 0f3f 20cb 223f
00000010: f324 e2be 94b4 043e 1818 e53c b2f4 1b3f
00000020: 3f64 1d3b 2d7c 8dbe e7f4 ab3e 118c 14be
00000030: 4e3d 1abf cb3d 323f 4ed5 2fbf c3d8 983e
00000040: f7e1 0ebf a3b7 053f f04d 0c3f 5d0d bd3e
00000050: 2efe 0e3f 157f 28bf bd02 a73e de0b 6ebf
00000060: b982 fc3e 7db1 e43e e318 243f 6c12 3bbf
00000070: f584 4bbd 9508 c93e 83ff 073f 1171 2dbf
-0.77739376 -0.65667725 0.5597981 0.63591194 -0.44168815 0.1295951 0.02796559 0.6092025
0.002401605 -0.276338 0.33585283 -0.14506556 -0.60249794 0.6962554 -0.6868485 0.29852876
-0.55813545 0.5223333 0.54806423 0.36924258 0.558566 -0.6581891 0.32619277 -0.9298686
0.49318483 0.44666663 0.64100474 -0.73074985 -0.049687345 0.3926436 0.53124255 -0.6775065

fc_state.0.weight f4 [64, 512]
00000000: a058 2b3c e34d 88bc 9678 a5bc bc7b f7bb
00000010: b50c 013d 5d39 10bd 4534 a83c 3058 21bd
00000020: b126 fe3c afbd 82bc e6f8 b6bc 1524 0e3d
00000030: 7647 dd3c 4584 bebb ac5c a13a 80cd c23c
00000040: d55a f43c f0f5 e6bc df5b 2dbc bc73 eb3c
00000050: 082e de3c cd7d 24bb f56d 06bc b7e4 d53b
00000060: dd5d 8fbc 6a79 d33c 1106 04bd 3c9d 423c
00000070: a796 633c 0635 95bc cacf d73c dcb8 063d
00000080: cb0f 033c a383 42bd 2f56 a83c fb26 f03b
00000090: eb83 303c b347 8b37 031d 65bb 52a7 c8bc
000000a0: bccb 16bb 062f 0cbd 8ddb ed3c b0c9 6d3c
000000b0: 65e6 ce3a 2cc5 3dbb 9efc bd3b 198b 25bd
000000c0: 7db4 ccbc 1312 3ebd 40e8 e0bb e86b 093d
000000d0: e8ba 41bd 1962 f13c 0417 4e3c 890a 6abc
000000e0: fd79 25bd 7194 0fbd d4a4 ccbc 67cd 233c
000000f0: 5941 393c d421 2a3b e376 36bd 8eb7 2fbd
00000100: a260 9d3c c93a 483c 00b9 273c f0e4 ccbb
00000110: e747 fb3c 9d29 b43c be22 973c 3165 b23c
00000120: 44fc cc3b ffd9 ec3b ef97 df3c e61f 123c
00000130: f072 d5bb caa4 cabc 7854 0abd 1596 f5bc
00000140: d48e f83b a1fd 203d 083d 23bd 206e 03bc
00000150: d6b0 183d e825 343c a497 0b3d 12d1 223d
00000160: 4c8c 1e3c b731 5cbc 4118 c1bc c092 40ba
00000170: a4b1 15bc ac4c c53a 20e5 94bb 0d4e 6d3c
00000180: 217a 47bd 748e dabc 28a2 923c e618 40bc
00000190: c17b 35bc 2d6a 9bbb d1bc 22bd 8302 30bc
000001a0: c02f 12bd a5f0 3cba 3f19 00bd 35c3 12bd
000001b0: 9332 193c 3387 da3b 31e1 c23c 6c3f 833c
000001c0: bca7 853c cbb5 41bb 3e53 7c3b d61f 9f3b
000001d0: 274e 253c 3464 0abc f69b a33c 20dd 8bbc
000001e0: 1f8a e23c de9c 3fbd 7aee 083d 2633 213d
000001f0: aef6 053d 0214 21bd 49a9 f2bc abfa a1bc
00000200: c838 063d 9a3b 123c a4df 2cbd ba98 a1bc
00000210: df6b 173d 48d3 9d3b cd2c 0ebd a938 74bc
00000220: 330b 303d 3f32 9a3c ce11 ae3c 32a9 4e3c
00000230: c0ec 383c 6054 0fbb 23df 8c3c 294b d33c
00000240: 074e f53c e237 afbc a784 26bd baaf 033d
00000250: a087 743c 6e38 d43c 5aa4 40bd f970 1b3c
00000260: af25 2a3d a46d 2cbd b515 e3bb f92b c33a
00000270: 906b 22bd e0dc 1f3d e3b4 ae3c e414 8c3c
00000280: d05e b1bb 029c ccbc 4406 d83b 918f 85bc
00000290: 1d8d c43c 4e61 ba3c d03b 72bc c093 d33c
000002a0: f350 15bb a585 2ebd aeba e33b 56b1 013d
000002b0: 05a4 c23c 6fc5 d93a 5a24 d6bc d3a9 11bd
000002c0: 8a0b 1cbd 112c a1bc 963d 2abd 1756 e3bc
000002d0: abc6 003d c873 173a 969e 1f3d bc56 dfbc
000002e0: c613 b23c 6030 043b 8080 c43a 8f84 233d
000002f0: 4b3e 2ebd 80bf 81bc c0cf 7cba 187a b7bb
00000300: 2427 b0bc 179e bcbc 982a 1dbd cbb7 29bd
00000310: 697a a73c 5cc0 4b3a 965c 1ebd 624f 0cbd
00000320: 18a2 eebc 37c4 4abc 36e2 943c dd19 21bc
00000330: aa80 03bd f72b 21bc 8c5d 3dbd 6302 e0bc
00000340: 34c3 03bd def4 61bc 03ab cfbc 8cda 12bc
00000350: 8ef5 1d3d 0456 f53b 0870 5c3c 4904 2bbd
00000360: 48c2 083d 7daf c1bc 003d 91bb e66e 27bc
00000370: 38f4 a3bc 970c 8abc 675d 1abc 990c fe3c
00000380: 76ab 2bbd ca77 683b 881f 833c bacb 183b
00000390: 614f 0ebd eade ad3c 73a3 ffbc 888a a0bb
000003a0: 1e33 28bd 9fbb 1c3c 959f bc3c d97d eebb
000003b0: 28b8 1a3d 367b 0cbd a570 18bc 4b8e 1e3a
000003c0: e947 f1bc 3345 98bc 9872 2ebd 2029 b03c
000003d0: 3215 963c 60eb 3d3c 4885 0c3d b9aa fdba
000003e0: 8171 c2bc b876 32bd 6804 8f3c b706 10bd
000003f0: 9ed6 a23c 9616 25bd 2ab6 0a3d 7b36 d5bc
0.010458142 -0.016638702 -0.020199101 -0.007552592 0.03150626 -0.035210956 0.020532737 -0.039390743
0.031024309 -0.015959589 -0.02233548 0.03470238 0.027011614 -0.0058141076 0.0012310944 0.02377963
0.029828468 -0.028193444 -0.010580986 0.02874171 0.027121559 -0.0025099397 -0.008204927 0.006527509
-0.017500812 0.02581473 -0.032232348 0.011878308 0.013890899 -0.01821376 0.026344199 0.03289114
0.007999371 -0.04748882 0.020548908 0.0073288656 0.010773639 1.6603479e-05 -0.003495992 -0.024493847
-0.0023009619 -0.034224533 0.029035354 0.014513418 0.0015785216 -0.0028956635 0.0057979366 -0.040415857
-0.024988407 -0.046403956 -0.006863624 0.033550173 -0.04729739 0.029465722 0.01257873 -0.014284738
-0.04039954 -0.035053674 -0.02498094 0.009997702 0.011307084 0.0025960105 -0.044546973 -0.04289966
0.019211117 0.012221047 0.0102369785 -0.0062528774 0.030673934 0.021992499 0.018449184 0.021776767
0.0062556583 0.0072281356 0.027294127 0.008918738 -0.0065139458 -0.02473678 -0.033771962 -0.029978791
0.007585386 0.03930438 -0.039853126 -0.008021861 0.03727802 0.010995366 0.034080163 0.039750166
0.009677004 -0.013439587 -0.023571135 -0.0007346086 -0.009136591 0.0015052757 -0.0045439154 0.014483941
-0.048700456 -0.026679255 0.017899588 -0.011724686 -0.0110768685 -0.0047428817 -0.03973085 -0.010742786
-0.03569007 -0.00072074897 -0.031274077 -0.035830695 0.009350437 0.006668949 0.02378902 0.016021453
0.016315334 -0.002955782 0.0038501765 0.00485609 0.010089434 -0.008446742 0.019971829 -0.017073214
0.027653752 -0.04678046 0.033430554 0.03935542 0.032705955 -0.03932572 -0.029621737 -0.019772848
0.032768995 0.008925343 -0.042205468 -0.019726146 0.03696811 0.0048164465 -0.034710694 -0.014906087
0.04297943 0.018822787 0.021248724 0.0126135815 0.011286914 -0.002187036 0.017196244 0.025792675
0.029944433 -0.021388952 -0.04065385 0.032150008 0.014924914 0.025905814 -0.047031738 0.009487384
0.041539844 -0.04209675 -0.006930078 0.0014890424 -0.03965336 0.039029002 0.021326488 0.017099805
-0.005412914 -0.024976734 0.006592544 -0.01630381 0.02399307 0.022751477 -0.014784768 0.025827289
-0.0022783845 -0.042607922 0.006949744 0.03166326 0.023759851 0.0016614626 -0.02614038 -0.035562348
-0.038096942 -0.019674333 -0.04156264 -0.027751012 0.031439465 0.00057774456 0.0389696 -0.027263038
0.021737944 0.0020170435 0.0014991909 0.03992134 -0.042539876 -0.015838385 -0.0009643994 -0.0055992715
-0.021503039 -0.023024602 -0.0383707 -0.041435044 0.020444112 0.0007772499 -0.038662516 -0.034255393
-0.029130027 -0.012375883 0.018174272 -0.009832826 -0.032105125 -0.009837142 -0.04623179 -0.027344888
-0.032168582 -0.013791291 -0.0253501 -0.008963238 0.038564257 0.0074870605 0.013454445 -0.041752134
0.033388406 -0.02364325 -0.0044323206 -0.010219311 -0.020013914 -0.016851706 -0.009421683 0.031011866
-0.041911565 0.003547179 0.016006246 0.002331479 -0.03474367 0.021224458 -0.031205868 -0.0048993267
-0.041064374 0.009566217 0.023025313 -0.007278186 0.03777328 -0.03429719 -0.0093042 0.0006048425
-0.029453235 -0.018587684 -0.042589754 0.021503985 0.018320654 0.011591762 0.034306794 -0.0019353247
-0.023735764 -0.04357025 0.017458156 -0.035162654 0.019877728 -0.040304743 0.03386513 -0.026026955

fc_state.0.bias f4 [64]
00000000: d4cb 6ebb bc22 02bd 3dd8 833d 9c2c f9bc
00000010: 8185 c239 36e3 16bc 0a75 acbc 9b48 e23c
00000020: 9a24 3d3d 7cb7 043d 3272 ef3c c97a d2bd
00000030: 738e cebc 6281 e63c c33b bd3c 70df 4b3d
00000040: bf98 cabc bf5c 2ebd 68b7 41bd 1739 a73d
00000050: 7844 2fbd 7fed dfbc 9530 8cbc 4be7 12bd
00000060: e887 c53c a350 d93d c780 6c3c b0b3 9a3a
00000070: 74ed 0ebd 1e2a b63d d804 b9bc 801f 5f3a
00000080: 1a67 47bd 220a bfbd a141 14bd 665a 723d
00000090: a3bc 31bd b34b 35bd d57c 8d3d 56f8 92bd
000000a0: 8047 8ebb 8350 36bd 0521 c83c f6ab e0bc
000000b0: 2ac5 c43d 3ab2 3bbb 88b2 e43c 49e9 b4bc
000000c0: 3099 05bd fad0 993d adf1 99bc 3395 c13b
000000d0: 388b 3abd 2a59 61bd b9b3 6c3d 2ac7 6bbd
000000e0: 351e e2bb aa18 d03d 422c dbbc c547 be3c
000000f0: a101 94bd b5b2 743c f52d 7ebd 0cee 053d
-0.003643741 -0.031771407 0.064377286 -0.03041678 0.00037102032 -0.009209445 -0.021051902 0.027622512
0.046177484 0.032401547 0.029229257 -0.10277326 -0.02521441 0.028137866 0.023099786 0.049773633
-0.024731038 -0.04256892 -0.04729405 0.08165186 -0.042789906 -0.027334927 -0.01711301 -0.03586511
0.024112657 0.10611083 0.014435 0.0011802819 -0.03489442 0.08894752 -0.022585317 0.0008511469
-0.04868231 -0.093281046 -0.0361954 0.059168242 -0.04339279 -0.044261646 0.069085754 -0.071762726
-0.0043420196 -0.044510376 0.024429807 -0.027425747 0.096079186 -0.0028640167 0.027917162 -0.022083895
-0.032616794 0.07510562 -0.018791998 0.0059076785 -0.045542926 -0.055016674 0.057788584 -0.057562985
-0.0069005736 0.10160954 -0.026754502 0.023227582 -0.07226873 0.014935185 -0.062055547 0.032697722

fc_state.2.weight f4 [32, 64]
00000000: f9f2 debd 8add b83d 2bb7 333d a0f0 513d
00000010: 3e9b ec3d 4775 a1bd 47ba 28bc 55c1 eb3c
00000020: 7e46 e5bd 3158 d5bd 0b09 4e3d 30a3 f6bd
00000030: 6807 eabd 5741 1dbf baf7 4bbd 3590 ea3d
00000040: 2fda efbd aede e33d e999 8a3d 05f3 bbbd
00000050: 5395 dcbd 06b0 123d b5cd b2bd 9748 82bd
00000060: 8bb9 e83d 8b65 9bbd 3121 53bc fc4b 843d
00000070: 0dcb f63c a808 73bc 6add 8dbb bbdd 0cbf
00000080: a425 303e 6097 27be c10a d7bd bad2 f3be
00000090: e6e5 85bd 90d6 773c 1473 89be aa6d 9dbe
000000a0: 850e 913d bffc e1bb 7f4b a63d 090b 1ebd
000000b0: 1769 073e b9cc 38bc c8b3 05be c3de 90bd
000000c0: 8700 e43d 3b27 4bbd d7cd 5e3e 4c73 6e3d
000000d0: 4c4c a83d 2322 b93d bb9d c7bc b8c1 c8bd
000000e0: c960 e13c 3156 a43b 95d4 e33d 6fa8 193e
000000f0: 821a cd3d fc7f 6f3b a76f 6dbd 8820 a2bc
00000100: efa4 be3d 8d77 f1bd 3e02 ff3d 282b 33bb
00000110: cd17 753d d960 873d ae79 093d 67c3 8cbd
00000120: 6f53 1a3b e8f1 e5bd 1fae e03d d178 b8bd
00000130: d3d3 813d 1acf ea3d 5757 69bc 86b2 de3b
00000140: 0277 0dbd faac 523d 754b 15ba 9fb0 e93d
00000150: 646f babb 5ca8 3b3d 53e1 053d bbfd b73c
00000160: a58f 4bbc 4949 55bd 9a3d 923d 7c14 aa3c
00000170: f712 a03d 59d5 353e 7848 4cbb 0845 9e3e
00000180: d9df 543d 65ca 0c3e ebed 753d e385 1c3d
00000190: 0213 0f3e 7222 f5bd 4e4a 1e3e 1267 663c
000001a0: d2ea e03d eac6 5b3d 46c8 633d 85e7 cfbd
000001b0: e9a5 873d 8d76 86bd 305c 4d3e 0f3f a63d
000001c0: 04eb 30bc 7bc6 6e3e 7ec0 c43c 86cb a13d
000001d0: ef48 b9bc cd14 493d 077d abbc b077 17bd
000001e0: 8522 45bd 214c 6f3e 6703 cabd 18a2 64be
000001f0: eeb0 4ebd a2a7 883d 7b61 0b3d 25bf 3f3e
00000200: 9186 dc3d b092 28bd ee30 d83c e93e d63d
00000210: 0538 c73d 8579 e03d 9e6c 7cbd 67bf 85bd
00000220: 620a 833e f0bd 8a3d 8609 373b cc52 7cbe
00000230: 28c7 09be dcae 56be 9bb3 9dbd 7a3a 14be
00000240: 1787 adbc 006f 063d f186 a5bd 1e6a 3bbe
00000250: d158 f8bd ff8d 8f3d 526e b43d aee9 5ebd
00000260: aaba bbbd 1c4e 183e 8497 edbd 42c1 f23d
00000270: 2968 4dbd f424 0f3e 9ef6 8a3d bf7f 94be
00000280: ff98 7e3d 5165 a2bd 40b1 f6bd 9890 e5bd
00000290: 6187 33bd 72e4 d73d f9a6 d03c 29fc 71bd
000002a0: 7117 e33d 0ba2 30bc 8a65 e43d d1c9 f93d
000002b0: 18fd 49bd 8385 cabd 1a26 553c d266 f9bc
000002c0: e803 643b e6d8 783e 9f05 203d 9282 eabc
000002d0: 4807 e2bd ba4b e53d 06ea 9abe d90e 973d
000002e0: ae48 91bd 1675 c8bb f2dd 38bd 7880 57be
000002f0: 82cd d73b b5fc 493d a32e a4bc 9d47 e23c
00000300: 424d f43d 5b12 ebbd 285c b3be e895 743d
00000310: a99e 713d 082e bf3c 4852 30bd 54b2 a23d
00000320: 2cbb aabe a967 503d 746b c8bc 07d8 ef3c
00000330: 8ade abbd 6705 61bc 5aae 1d3d 25f6 0abf
00000340: cf6d b5bd c7a1 2abd 392e 723d 51a2 2d3e
00000350: f2a7 8fba 8c4e 9ebd 183e 59bc fe1d 29bd
00000360: d0cf 133d 395d e33d 7c1e c33d 55de b7ba
00000370: 40f1 7a3d 0dc0 1ebd 2217 e9bd bad7 eb3d
00000380: d6a3 f5bd a419 a539 0586 9e3d 927a 923d
00000390: 266a bb3d 1e42 48bd 8d75 d8bd 280e e03b
000003a0: 7ed1 a73d 0dd9 4b3d 57dd 133c ae2b 853d
000003b0: 88c9 333e dc3c e9bd da0f 92be 959a 84bc
000003c0: f2b4 a23d ecdf 5a3e e036 fbbd 6643 03bd
000003d0: 0d64 a2bd 0004 ec3d 8607 d5bb dbc6 7fbd
000003e0: fc5e f03d ec32 cf3d 1816 35bd bd88 febc
000003f0: 6394 7bbd df4f cbbb 2c9b bfbd f4c0 14bf
-0.10886187 0.0902663 0.043875854 0.05125487 0.115530476 -0.07883697 -0.010298318 0.028778711
-0.11195086 -0.10417212 0.050301593 -0.12042844 -0.11427194 -0.61427826 -0.049796797 0.114532866
-0.11711537 0.11126457 0.06767637 -0.09177212 -0.10770669 0.0358124 -0.08730642 -0.06361502
0.113635145 -0.07587727 -0.012886331 0.06459805 0.030126119 -0.014833607 -0.004329373 -0.55025834
0.17201859 -0.16366339 -0.10500098 -0.4762171 -0.0653799 0.015126839 -0.2684561 -0.3074773
0.070828475 -0.0068965848 0.081198685 -0.038584743 0.13223682 -0.011279278 -0.13056862 -0.070737384
0.11132913 -0.04959796 0.21758209 0.058215424 0.082176775 0.09039714 -0.024367204 -0.09802574
0.027511971 0.0050151576 0.11124531 0.15005659 0.100148216 0.003654479 -0.057967808 -0.019790903
0.09308802 -0.117903806 0.124515995 -0.0027338956 0.05983715 0.06610269 0.03356331 -0.068732075
0.0023548265 -0.112277806 0.10970711 -0.09007419 0.063392304 0.11465283 -0.014242015 0.006796184
-0.034537323 0.051434495 -0.0005695143 0.11410641 -0.0056895483 0.045814857 0.03268559 0.022459855
-0.012424384 -0.052071843 0.07140656 0.02076172 0.07816117 0.17757167 -0.0031171124 0.30912042
0.05197129 0.13749082 0.06004135 0.03821362 0.13972095 -0.119694605 0.15458032 0.01406266
0.109822884 0.053656496 0.055610918 -0.10151581 0.06623442 -0.065655805 0.20054698 0.08117496
-0.01079822 0.23317902 0.024017569 0.07900147 -0.022617785 0.049092103 -0.020933641 -0.036979377
-0.048128624 0.23368885 -0.0986393 -0.22327459 -0.050461702 0.066725984 0.03402851 0.1872526
0.10767854 -0.041155517 0.026390519 0.10461218 0.09727482 0.10960678 -0.061627023 -0.06530648
0.2559386 0.06774509 0.002792926 -0.2464096 -0.13454878 -0.20965141 -0.07700273 -0.14475432
-0.02118258 0.0328207 -0.08082379 -0.18302199 -0.121263154 0.070095055 0.088101044 -0.054422073
-0.09166463 0.14873546 -0.11601165 0.11853267 -0.050148163 0.1397894 0.0678532 -0.29003713
0.062157627 -0.07929481 -0.120455265 -0.1120922 -0.04383028 0.10541619 0.025470244 -0.05907837
0.110884555 -0.010780822 0.111521795 0.121966965 -0.049313635 -0.098887466 0.013009572 -0.030444536
0.0034792367 0.2430149 0.03906786 -0.028626714 -0.11036545 0.11196084 -0.3025667 0.07375879
-0.07093941 -0.0061174734 -0.04513354 -0.210451 0.0065857777 0.049313266 -0.02004177 0.027622038
0.11928798 -0.114781104 -0.35031247 0.059713274 0.0589892 0.02333738 -0.04304722 0.0794417
-0.33345926 0.050880108 -0.0244653 0.029277815 -0.08392055 -0.013734198 0.038496353 -0.54281837
-0.08858835 -0.04165819 0.059126113 0.1695645 -0.0010960086 -0.077298254 -0.013259433 -0.04128837
0.036086857 0.11101765 0.09527299 -0.0014028052 0.06126523 -0.038757373 -0.11381365 0.11515756
-0.1199414 0.00031490356 0.07740406 0.07152285 0.091511056 -0.04889118 -0.10569296 0.006837625
0.08194254 0.049767543 0.0090249395 0.06502472 0.17557347 -0.11388561 -0.2852772 -0.016186992
0.07944669 0.21374482 -0.12266326 -0.032046698 -0.079292394 0.115242004 -0.006501141 -0.062445503
0.11736867 0.101171345 -0.044210523 -0.031071061 -0.06142081 -0.0062045897 -0.093557686 -0.58106923

fc_state.2.bias f4 [32]
00000000: 2154 3a3d 3763 253e d778 48bc 080c 2b3e
00000010: 2bb6 40be 14d4 673e 39b1 323b f31d abbd
00000020: a094 623d 8415 433d 1f62 19be 058b 183e
00000030: 6038 35be 1968 523e c319 f9bc c251 30bd
00000040: fc56 1cbd d9f0 50be 5a91 193e 5145 2d3e
00000050: 6ba7 fabd ba62 833c 455b 1cbe 4fa0 713c
00000060: 6754 863d b33d 2cbd f55a 843e 1bfa 513e
00000070: ed3a a1bd 9a06 2e3e a9c8 483d 6881 73be
0.045490388 0.16151129 -0.012235842 0.16703808 -0.18819492 0.22639495 0.0027266277 -0.08355322
0.05531752 0.04762794 -0.14978836 0.14896782 -0.17697287 0.20547523 -0.030407792 -0.04304672
-0.038168892 -0.20404376 0.14996853 0.16920973 -0.12238964 0.016038287 -0.15269192 0.014747693
0.06559067 -0.04205103 0.25850645 0.20505564 -0.07872567 0.16994706 0.04901949 -0.23779833

fc_state.4.weight f4 [1, 32]
00000000: 9a30 d1be d549 3b3e baf0 5e3e 87d6 b2be
00000010: 8603 2abe 6065 8abd f23a c73d a668 65be
00000020: 8227 2abe c909 c2bd 8587 5d3d dd92 90be
00000030: 85ae 0cbe a73e 5bbd 9a6a 28bb 8697 da3d
00000040: 4bb1 883e 6899 70be 1269 193e 108a d43d
00000050: 4e06 5a3e bb2e f93d 353a 0cbe e90b 52be
00000060: e50b e3bd 23b7 0cbe 6dcf 20be 93d7 a3be
00000070: a9a7 913b 6181 1fbd 9551 2e3e 12fa 84be
-0.40857393 0.18289883 0.21771517 -0.34929296 -0.16602907 -0.06757617 0.0972804 -0.22403201
-0.16616634 -0.094745226 0.05408432 -0.28237048 -0.13738449 -0.053526547 -0.0025698305 0.10673432
0.26697764 -0.2349602 0.14981487 0.10377896 0.21291468 0.12167116 -0.13694079 -0.20512356
-0.11086253 -0.13741736 -0.15704127 -0.32000408 0.0044450355 -0.038941745 0.17023309 -0.25972039

fc_advantage.0.weight f4 [64, 512]
00000000: 2445 1fbd 7203 0bbd aeb8 c3bc 58ef 943c
00000010: f026 d83c 5d39 cfbc c6c6 483b 799e dc3c
00000020: 2a4b 763c 5339 c5bc 5d01 d2bc e89b 43bd
00000030: 26a8 87bc a688 2ebd 03c3 21bd 7372 e13b
00000040: 47c4 47bd 6b7e 08bd 2b05 bb3c f286 9f3c
00000050: 1dd6 f23c 603a c93c d365 cabc cae8 16bd
00000060: 87d4 8e3c 9cb3 4fbc 3773 323d 3bcb 933b
00000070: d4f6 1fbd b1dd 39bd bc2e f23c 2b86 e93c
00000080: d95a 053d e226 c3bc 9503 fd3c 4d30 0fbd
00000090: 0068 bc3c 6713 04bd 76ff 61bc 882e 09ba
000000a0: ede3 653c d752 cebb f00c 093c 5ea6 fabc
000000b0: df3f 9bbc e13f e93c e562 d93c fe23 11bc
000000c0: 032a 653c 848a adbb 3a6e 04bc 8931 26bd
000000d0: cbc1 e33b e76c a3bc 59bb 87bc 741d 263d
000000e0: 501d 07bd ab24 9bb9 020d 833c b7ee 25bd
000000f0: 874f 11bd a324 8a3c 8409 59bb 3716 233d
00000100: b24e 74bc e1d8 26bd 0551 08bd 17d1 13bd
00000110: f3d8 d2bc 927c 8ebc aeda 27bd 415a acbc
00000120: 4aee 933b ff2c 903c 4016 f5bc cd8b 19bd
00000130: 338c c4bb 99e1 29bd 9192 bc3c 447e 3fbd
00000140: 23a4 743c 8954 0bbd 6d45 c4bb 2d53 2c3b
00000150: 74b0 4abd 38ba 123d 51fb 09bd fd30 07bd
00000160: 5f18 b9bc 9006 95bc 1df8 a13c 3b5e 233d
00000170: 0606 ab3c 1c4b 80bb 211e 06bd eb15 0d39
00000180: d4c6 6d3c 16a8 df3c b72e 863c 5d11 40bb
00000190: 1cd1 143d 2d8c 663b 3b7c 2a3d f262 043d
000001a0: ad6f 83bc 3b9b 913b 5aac 20bb 3c77 5b3c
000001b0: 4e45 bf3c 4266 1fbd 789d d73c 784a ad3c
000001c0: b75e 0a3c f845 9d3c bd45 7abc dd69 a23c
000001d0: 77eb b43c 3f46 8dbc 5fb9 bebc 3d45 0b3d
000001e0: 7891 8bbc 572c 42bd 92e7 0f3c 604e cdba
000001f0: a3b1 35bd cf4c 2ebd f7c5 8a3c bc11 f53c
00000200: f7d0 9b3c 0e31 95bc 6145 b63c d787 663c
00000210: 8480 4cbc b23a f3bc e51f 07bd 0e35 2fbb
00000220: 19c0 ecb9 96ed 0e3d 3067 19bd c098 79bc
00000230: 087e f53c 45ca a83b 7fb5 70bb af88 23bd
00000240: 3399 0abb c0f2 ea3c a39d 633b 882b 163c
00000250: 14be 1e3c c965 61bc a881 853c 732f 4c3c
00000260: 5d82 e3bc 6e49 d93b 3e27 d83c b3d9 cb3c
00000270: 80e0 fd3c 7d38 0e3d 52f4 3bbd ad9f 6d3c
00000280: de2f 733c 9718 cfbc 0a96 4cbd ccf6 db3b
00000290: 18f8 80bc 2572 52bc e633 36bd b0a7 40bd
000002a0: 1b98 afba 6a82 f03b 4295 e0bb 2e8b 49bb
000002b0: e6dd 0e3d 50aa c439 f442 07bd a26d 883c
000002c0: 3990 183d 8a0b c3bc 6ab1 263d 3cf1 acbb
000002d0: cd52 08bd 1b1e acb9 297a 323d 405f 273d
000002e0: 453a 1c3d 60cc 77bb 2137 1abd 1815 273d
000002f0: 8bce 23bd aadf b63a 313f b2bc 38ae 39bc
00000300: d1a8 b8bb c69b 5fbd 0b92 853c 56ae c13c
00000310: 2a61 823c fbe9 0d3d f85a e33b 2c34 c2bc
00000320: d028 3bb9 3219 ef3b 15c4 a73c e776 23bc
00000330: 77c6 eb3c 39f6 623c 10ce 353d 4926 b43c
00000340: f72f 3fbb 25bb 8e3c 588e 2d3d 3d80 c53c
00000350: 0d45 d1bc 9d57 a8bb 5e33 1e3b 9c7e abbc
00000360: 4e40 0a3d 5188 4fbc e91e 15bd 1859 6d3c
00000370: d91b ad3c 936c 853c 85dc ab3c b8b6 3bbd
00000380: 975a dbba fc6c ebbc 8f6b c63b 8a3f 26bd
00000390: b9c7 3dbc 46f3 d6bb 3dba 3cbd eb43 a23b
000003a0: da88 bcbc f081 13bc 803e a8ba 32cc 2ebc
000003b0: 8746 8c3c f9fe 02bd 84cc 15bd d164 083d
000003c0: 8aed c0bb 2dfd 0c3d e1e2 06bc 3338 e0bc
000003d0: 9b26 493c 6116 73bc a839 23bd ec7f 9f3c
000003e0: 0bc8 29bd 4df1 3bbd f99a 0dbd f25b 13bd
000003f0: 9c4b 913c bdfa 193d 06b1 2ebd 42ef c43c
-0.038884297 -0.033938833 -0.023891773 0.018180534 0.026385754 -0.025295908 0.0030636056 0.026931034
0.015032569 -0.024075186 -0.025635416 -0.047756106 -0.016559672 -0.042610787 -0.03949262 0.0068800985
-0.04877117 -0.033323687 0.022829613 0.019473527 0.029643113 0.024563968 -0.024706757 -0.0368431
0.017435325 -0.0126771 0.04356691 0.004510311 -0.039053753 -0.045377437 0.0295633 0.02850636
0.032557342 -0.023822252 0.030885497 -0.034958173 0.02299881 -0.032245066 -0.013793817 -0.0005233069
0.0140313925 -0.0062964964 0.008364901 -0.030596908 -0.018951355 0.028472843 0.026536414 -0.008858679
0.013987067 -0.0052960534 -0.008082921 -0.040574584 0.006950592 -0.01994939 -0.016568827 0.040555432
-0.03298694 -0.00029591224 0.015997414 -0.04051086 -0.035476234 0.016863173 -0.0033117244 0.039816108
-0.014911341 -0.040734176 -0.03328039 -0.036088075 -0.025738215 -0.017393384 -0.040980034 -0.02103913
0.0045144903 0.01759958 -0.029917836 -0.03748684 -0.0059981584 -0.041474912 0.023019107 -0.046751276
0.014931711 -0.034016166 -0.0059897215 0.0026294694 -0.049484685 0.035822123 -0.03368694 -0.033005703
-0.022594629 -0.018191606 0.01977163 0.039884787 0.020876896 -0.0039152037 -0.032743577 0.00013454973
0.014512736 0.02730183 0.016379697 -0.0029307224 0.036332235 0.0035178766 0.04162238 0.032320924
-0.016044462 0.0044435537 -0.0024516792 0.013395127 0.023348477 -0.03891588 0.026320204 0.021153674
0.008445433 0.019198403 -0.015275416 0.01982587 0.022084935 -0.01724541 -0.023281751 0.034001578
-0.017037138 -0.047405567 0.008783238 -0.0015663616 -0.04435886 -0.04255372 0.0169401 0.029915683
0.01902054 -0.018211868 0.02224988 0.014070473 -0.012481812 -0.029691074 -0.0329894 -0.0026734504
-0.00045156552 0.03489455 -0.037451923 -0.015234172 0.029967323 0.0051510655 -0.0036729274 -0.039925274
-0.0021148443 0.028680205 0.003473141 0.009165652 0.009688873 -0.013757178 0.016297176 0.012462485
-0.027772123 0.006631068 0.0263859 0.02488408 0.030990839 0.03472184 -0.0458873 0.014503402
0.014842955 -0.02528028 -0.049947776 0.00671277 -0.0157433 -0.012844597 -0.044483088 -0.04703492
-0.0013396771 0.0073397653 -0.0068537304 -0.0030753124 0.034879588 0.00037510926 -0.033022836 0.01665384
0.037246916 -0.023809213 0.04069654 -0.005277781 -0.03328209 -0.00032828827 0.043573532 0.04086232
0.038141508 -0.0037811026 -0.03765023 0.0407916 -0.039991897 0.0013952155 -0.021758648 -0.011333041
-0.005635359 -0.054591917 0.01630499 0.0236427 0.015915472 0.03464697 0.0069383346 -0.023706518
-0.00017848914 0.0072967047 0.020479241 -0.009977079 0.028781159 0.013852649 0.04438597 0.021990912
-0.0029172876 0.017423222 0.042372078 0.024109 -0.025545621 -0.0051373974 0.0024139504 -0.020934395
0.033752732 -0.012666778 -0.03640643 0.014486574 0.021131443 0.016287124 0.020979175 -0.04582855
-0.0016735372 -0.028738491 0.0060553025 -0.04058794 -0.011583262 -0.006559762 -0.04607605 0.004951944
-0.023014475 -0.0090031475 -0.0012836009 -0.010668801 0.017123474 -0.031981442 -0.036571994 0.03329927
-0.005887692 0.034421135 -0.008232803 -0.027370548 0.012277271 -0.0148368785 -0.039849907 0.019470178
-0.04145054 -0.04588442 -0.03457162 -0.035976358 0.017736249 0.03759264 -0.04264929 0.024039868

fc_advantage.0.bias f4 [64]
00000000: 85d0 3ebd ea93 413e a9c3 84be 7844 9b3b
00000010: e128 6dbe 2147 d8be 4fcd c53d 5726 3ebc
00000020: eb9e bcbc aa14 3ebe 7b01 b13e df81 5dbd
00000030: 9b66 22bd c948 f6bd ddd3 46bd 0f8b 88bd
00000040: a019 ddbe ed75 8a3d a7c7 32bc 8c3c b9bd
00000050: c5c6 0d3d adbe 8abb 507c 29bd db9d 423e
00000060: d429 023f 77de e7bc 260d 8b3d c8a0 0c3e
00000070: cdec b73d c0e1 ccbc 8cbb 07be fcbe 9ebc
00000080: 9853 393f 72fc 893d cbbf 103f 5385 bbbe
00000090: 9879 1fbe bb4d f33d adab 6fbe f620 b83d
000000a0: d8d5 c33e 51f7 cdba 1787 613b 73ec 663d
000000b0: d08d dabd 2043 5cbd 44ad e7bc 765c 0fbc
000000c0: c62f 9b3e ca4d 133d 83ab c13e 4023 cf3d
000000d0: 09b8 b63e f604 6a3d 5b4e c7bc 98d3 59be
000000e0: 0e28 0a3e 7ed4 f33d 3770 a2bc e3df 26bd
000000f0: 6610 f73c 7926 88bd aebc c9bd dbc5 87be
-0.04658558 0.18904081 -0.25930527 0.0047383867 -0.23160125 -0.42241767 0.096583 -0.011605821
-0.023024997 -0.1856257 0.34571442 -0.054078933 -0.039648633 -0.120256014 -0.048541892 -0.06667148
-0.43183613 0.06760774 -0.010911859 -0.090447515 0.03461339 -0.004234156 -0.04137832 0.1900553
0.50845075 -0.028304322 0.06789617 0.13733208 0.08980713 -0.02500999 -0.13255137 -0.019378178
0.7239318 0.06737603 0.5654265 -0.36625156 -0.15573728 0.1188006 -0.23405333 0.08990662
0.38249087 -0.0015713965 0.0034412795 0.05637784 -0.1067158 -0.053774953 -0.028280862 -0.008750072
0.30309886 0.035962857 0.37826166 0.10114145 0.35687283 0.057133637 -0.024329355 -0.21272123
0.13491842 0.11905764 -0.019828899 -0.04074086 0.030159187 -0.06647963 -0.09850441 -0.2651814

fc_advantage.2.weight f4 [32, 64]
00000000: 7a20 c8bd f45c 53be 4303 ea3d 66d8 63bd
00000010: df62 06bd fe17 02be 76cd cdbd 5c4b 253e
00000020: d81a 2fbd 165e 20be e5f0 67bc 0eed 583c
00000030: 0c59 ee3c 7352 04bd 76e5 2d3d 6576 8abd
00000040: fd62 68bd 3334 723d e618 503d 7ca6 343e
00000050: 06a2 aabd 0f0a c2bc 2550 c2bd f20d 45be
00000060: ae43 823d f9be aebd a22e 51be 3368 533e
00000070: 2ccd e4bb c894 acbc 4607 ee3d df6a 27bc
00000080: fdbf a83d 1d91 c1bc 5c5d 243b b721 34be
00000090: 3e64 6d3d dece e6bd fb83 b6bd 6e61 e4bd
000000a0: cd04 38bb 92e3 0e3d fd04 313d 7a5e d3be
000000b0: 72f2 ad3d 7577 863d 41dd 60bd 9260 82bd
000000c0: c5ca cd3d 5529 0ebd fdd5 4abd 919d ca3c
000000d0: fc3a 983c fad0 4fbe 9aa5 b13d 2472 04bd
000000e0: c7db b0be 7fb8 dfbd b4f5 673c 29dd e43d
000000f0: 3317 cc3c 11b9 3abd 726d 56be 8d55 8cbe
00000100: c254 1cbd 6b77 d6be d650 193e f51d ae3c
00000110: c090 63bd bd32 28bd 91a5 79be 7295 5d3c
00000120: 0f9f 9b3c 38c2 32be 797b 57be 56cb 01bd
00000130: 0bb9 9dbd 78bf 4a3d 975b 20be 6296 2ebd
00000140: c111 8bbd 99e0 a43e e0fe 893d 68eb a2bd
00000150: 9886 51bd 456f 77be e9ad a3bd 288e 58be
00000160: 2f39 523e b39f 603d f080 8abd 65d6 073f
00000170: 3e85 ba3d dc78 d83d 5d16 ddbd 5159 93be
00000180: b21d ec3b 7d25 b33d 6c4e 993c 6651 bbbc
00000190: 0937 53bd 61f2 ddbd 616a 81be 1398 4f3e
000001a0: 7bec d4be 5098 0fbc c133 79bd 7808 19be
000001b0: d839 6c3e 8714 7ebc 0989 18bf c7a9 debd
000001c0: 30f1 843c e933 30be b185 973d b46b 07be
000001d0: e058 d93d 7a37 11bf 49db 62ba 5f75 2f3e
000001e0: 438e 33be 334e 28bd 7485 91be 1131 ad3c
000001f0: 0011 063e e424 3fbd d0a7 a1be 9620 1c3e
00000200: 36d7 96bd fad5 83be 270b 5c3d c4fb c23c
00000210: abf3 193e 685f df3c 8333 65be c37d f63c
00000220: dc5e 9b3d fcf0 833d ef52 95bd e8d9 203d
00000230: a6f0 883d 0b60 afbd 86be 343b baa0 663d
00000240: 636e 353e 99ae d63d 9281 8cbc 252c 3c3e
00000250: 2442 36bd 9002 293e 98bb 633d 6cdb 38be
00000260: 77b8 55bd 3534 e2bd fa0d 8a3e 688d 25be
00000270: 4049 2f3d 7209 fd3d 8c34 be3d f585 4f3e
00000280: 45e7 14be 5d58 413e a1f7 18be 0b2c 913c
00000290: 9646 1b3d 93d1 a03e ebd6 023e 503f b83d
000002a0: 10e9 323d 7b36 5b3d f22e f33d 2a9c a7bd
000002b0: 3941 173e e105 423b 77de d3be d285 053d
000002c0: 748d 8fbd 9f7e 1a3e 40ca 1ebe 7687 4ebe
000002d0: c9ec bc3c 4e7f 2bbe a0d5 98bd a447 5c3e
000002e0: a4a9 13bc a6e4 3a3e 9e2f 35be 4493 1c3d
000002f0: fed5 863d dbc4 ae3d 5e53 4ebd 0c0b 4f3c
00000300: c78e e3bc c3b3 b93d f22a adbe a89c 96bc
00000310: 954e 37be 98ad d7be 0d88 32bc 0fb2 36bf
00000320: 5137 cc3d b1ae 1e3e 8990 d1bc 923b 913e
00000330: ad14 f6bd 44c2 56be 5590 b8bd eeda 013d
00000340: 468c 983c 204e 1dbe bc08 05be fcea a6bc
00000350: a675 86bd 18e4 a73d 8cdd 7dbd f086 833e
00000360: d481 a5bd 9c50 02bd b537 1c3d 8787 74bd
00000370: 15ef 08be 080a 2d3d fd10 37be 78ba 663e
00000380: 7413 9e3a 6424 6dbe 161d 6e3d 3a1b cebe
00000390: cb4d 74be 3d37 8e3d bd18 9ebd 96af a3be
000003a0: 070b 2e3e de04 693d 433e d73d 6dd2 583e
000003b0: 94d4 89be 75d0 54bd 1736 61bc 29ed c73d
000003c0: 488f 1abe be7a 0e3e 43fa 93bd 06c7 813e
000003d0: 9f24 d93a 6d4a ac3e c171 473d 6b4e 75be
000003e0: 3662 643e 72dd d63d fecb 703d e4ea c33d
000003f0: c651 1cbe 899b b5bd b749 0e3d 25d6 18bc
-0.097718194 -0.20640928 0.114264034 -0.055626296 -0.032809135 -0.12704465 -0.10048954 0.16142029
-0.04275021 -0.15660891 -0.014156555 0.013240112 0.029095195 -0.032305192 0.04245516 -0.06760863
-0.056735028 0.059131812 0.050804995 0.17641634 -0.08331685 -0.023686437 -0.094879426 -0.19243601
0.06360565 -0.08532519 -0.20427945 0.20645218 -0.006982466 -0.021067038 0.11622481 -0.010218351
0.08239744 -0.023628766 0.002508006 -0.17590986 0.057956927 -0.112699255 -0.08911892 -0.11151396
-0.0028079033 0.034884997 0.043217648 -0.41283017 0.084935084 0.06565753 -0.054898504 -0.063660756
0.10048441 -0.034707386 -0.04952048 0.024733337 0.018582813 -0.20294562 0.08674164 -0.032335415
-0.34542677 -0.10923862 0.014157701 0.111749955 0.024913406 -0.04558665 -0.20940188 -0.2740902
-0.03816677 -0.41887984 0.14972243 0.021254519 -0.055557966 -0.041064013 -0.24379565 0.0135244
0.018996743 -0.17456901 -0.21043195 -0.031688057 -0.0770131 0.049499005 -0.15659939 -0.042623885
-0.06790496 0.32202604 0.06738067 -0.079550564 -0.05115375 -0.2416354 -0.07992155 -0.21147978
0.20529626 0.0548398 -0.06762874 0.53061515 0.09107445 0.10569927 -0.10795281 -0.2877908
0.0072056884 0.08747385 0.018714152 -0.022865962 -0.051566157 -0.10837246 -0.25276473 0.20272855
-0.4158667 -0.0087643415 -0.060840372 -0.14944637 0.2306894 -0.015507824 -0.595841 -0.10872226
0.016228288 -0.17207302 0.073985465 -0.13224679 0.10612655 -0.56725276 -0.0008653892 0.17134617
-0.17534737 -0.0410902 -0.2842213 0.02114156 0.13092422 -0.04666604 -0.31573343 0.15246806
-0.07365267 -0.2574919 0.053721573 0.023801692 0.15034358 0.027267173 -0.22382931 0.030089265
0.07586452 0.064424485 -0.07291209 0.03927031 0.06686525 -0.085632406 0.002757938 0.056305625
0.1771789 0.104825206 -0.017151628 0.18376215 -0.04449667 0.16504884 0.055598825 -0.18052453
-0.052177873 -0.11045114 0.26963788 -0.16167223 0.042794466 0.12355317 0.09287366 0.20265944
-0.14541347 0.18881364 -0.14938213 0.017721197 0.037909113 0.31409892 0.12777297 0.08996451
0.043679297 0.053518753 0.118741885 -0.08184083 0.14770974 0.0029605555 -0.41380665 0.032598324
-0.07009402 0.15087365 -0.1550684 -0.20168862 0.023062127 -0.16747782 -0.07462621 0.21511704
-0.009012613 0.18251285 -0.17693946 0.03822638 0.065837845 0.08533641 -0.050372474 0.012636911
-0.027778042 0.0906749 -0.33821827 -0.018385246 -0.1790107 -0.4212463 -0.010896695 -0.71365446
0.09971488 0.15496327 -0.025581615 0.2836576 -0.12015662 -0.20972544 -0.09011904 0.03170293
0.018621575 -0.15361834 -0.12991613 -0.020375721 -0.065654084 0.08197802 -0.06197886 0.25688887
-0.080814034 -0.031815156 0.038139064 -0.05969956 -0.13372453 0.042245895 -0.17877574 0.2253207
0.0012060241 -0.23158413 0.058133207 -0.40255147 -0.238578 0.069441296 -0.07719562 -0.319699
0.16996394 0.056889407 0.10509922 0.21174021 -0.26919997 -0.051956613 -0.013745806 0.097620316
-0.1509372 0.1391401 -0.07225468 0.25347155 0.00165667 0.33650532 0.04869247 -0.23955695
0.2230309 0.10491456 0.058788292 0.09566286 -0.15265569 -0.088675566 0.03473827 -0.0093284

fc_advantage.2.bias f4 [32]
00000000: 89e4 f43c 7b62 3d3e 4112 10be d372 e8bc
00000010: 1c77 46be 3c2e 4d3e d66d abbc 3368 4e3e
00000020: 0f2d ac3c 1502 7abd 0557 a53e e1a5 53be
00000030: beb5 16bf 500a f9bb 04ef ef3c 976b 37be
00000040: 1dfe 45bd 81fe 293d aba3 69bc ea16 f73d
00000050: f753 d7bd 9b50 bcbb 8d65 043e 9f31 063d
00000060: 3713 1e3e ad55 92bd 6fd8 8f3e 2318 c9be
00000070: 28f8 033f cef9 d73d 9fb2 08bf f80e ca3e
0.02989413 0.18494599 -0.14069463 -0.028375065 -0.19381374 0.20037168 -0.020926397 0.20156936
0.02101758 -0.06103714 0.32292953 -0.20668747 -0.58871067 -0.0076001063 0.029288776 -0.17912136
-0.048338044 0.04150248 -0.014260213 0.120649174 -0.10514062 -0.0057469136 0.12929364 0.032762166
0.15437017 -0.071452476 0.28094813 -0.39276227 0.5155053 0.10545693 -0.53397554 0.39464545

fc_advantage.4.weight f4 [6, 32]
00000000: aff0 3e3e 3c70 f4bd f215 453d 0bba 243d
00000010: 59df 263d d35a 6c3d 19a3 31bd 2386 633e
00000020: 93ea bc3c 0044 223e 8639 4abe 6dca 4e3d
00000030: 6114 deba dc83 1cbc bad4 68bd 93c8 1dbd
00000040: 01ed 4abc fbbe cbbd d763 913d 3a47 c6be
00000050: 8259 1bbe 6be0 b63d f567 f53d ab7e b1be
00000060: c55f 953d 7f81 af3e 2b14 c3bd 4fc1 433e
00000070: e1cf 123e fc4b 46bd c185 113d 6839 34be
00000080: 2997 acbd 5948 b53c 8437 aebc bdb1 573d
00000090: 7c7a edbd 7fc3 d03d 3103 cdbd b87a 30be
000000a0: 6b69 673e 962c 9dbc 1e32 ad3b d238 d73c
000000b0: 74c0 e43d 7a97 ef3e 6102 84be fb7c 293d
000000c0: 9075 2d3d bd02 90bd f334 033e 58b6 99bc
000000d0: b25d a5bd 5d08 19be db8e f3bd 93bf 503d
000000e0: 55ee 7dbf 97e6 873e 06bd 6bbe 8f16 1c3e
000000f0: e643 143e 6d48 b43e 63cf 5fbd 3750 50bc
00000100: fc1f 573e e399 91be 834e a23d 8174 eabe
00000110: 840b 9fbe 1a5c 16bf d216 90bd 4e3f acbd
00000120: 1c9f abbe 43ce 7fbd 7781 2f3e 8594 aebd
00000130: 0554 e43d 44ca debe 4db4 bfbc 3b9c 983b
00000140: a1b9 363d dddd f43e c4f5 803d 0503 0a3d
00000150: 20b6 5f3e 3939 3cbe 262b 1dbd c5b2 873d
00000160: 8b31 c63e 776b 07bc 09d9 4bbe 75bb 533e
00000170: 03a7 f93d ed6f eebe abdc d03c f347 41bd
00000180: f42d 3e3d 859d 8ebd d201 8abe 262e 55bd
00000190: 9280 ac3e cdfb 4a3e 79e3 f63e faad 133d
000001a0: 043f 433d f26f 3d3d 63a3 3ebe 8b8f a0be
000001b0: 082a 43be 2c3e 3b3d fc64 463e 1cba c1bb
000001c0: 3beb d33d 00cf 02bf 7afe b2be 5f47 083e
000001d0: 17b4 a23e b40b cc3c 787c cabd 7e21 d93d
000001e0: 56fa 5f3d e28f afbe b680 21bf b148 ef3e
000001f0: 143a 843e e127 0c3e f27b aa3e 3192 843e
00000200: d68f b63e ee27 9f3e 3d26 22be ed9e 2fbe
00000210: a655 d53d 6ffc 983d 8d9b 78be 08b9 ab3d
00000220: d7fe a1bd 9d77 7e3d 34de 5cbe a9bb 193f
00000230: 5438 b6be a571 513c c0ca 553c 5637 7dbd
00000240: c7a4 9a3d c403 88be cc2e 483e a5aa 8e3e
00000250: ee6d f2bd a9fc a4be d601 b8be ffdd acbd
00000260: 5248 103e 2750 85be 752f d73e 876f 2abf
00000270: cf16 163d 5374 993d 88d8 0ebf d8ca bbbd
00000280: 9dda bf3d a4fd e43d 6ebd 4a3e 6f84 2dbb
00000290: c82a 9a3d 1e28 fb3d 400a 57be 1d19 b2bd
000002a0: f238 81bd 4b7d 7e3e 06cc 67be 4f95 42be
000002b0: 1f12 063e 04d9 8dbd 5c92 073e e353 b43d
000002c0: 0950 2cbb 2654 29be 3d0a 983d f0ff 3d3e
000002d0: 8220 233d 7d10 b63e 4566 52bc e267 2d3e
000002e0: 915d 3cbd 18ab 0c3d ee3d 943c fefe 143d
000002f0: c37e 8cbe 9478 eabc 75a4 553e 97b2 c2be
0.18646501 -0.119354695 0.04811663 0.040216487 0.040740345 0.057703804 -0.043368433 0.22219138
0.023061072 0.15846252 -0.19748506 0.050486017 -0.0016943329 -0.009552922 -0.056843497 -0.03852136
-0.012385608 -0.09948536 0.07099121 -0.38726217 -0.15170863 0.08929523 0.11982719 -0.34666952
0.07293657 0.34278485 -0.09525331 0.1911671 0.14337112 -0.048412308 0.03552795 -0.17600024
-0.08427269 0.022129225 -0.021266706 0.05265974 -0.11595628 0.10193538 -0.10010374 -0.17234313
0.22598808 -0.0191863 0.0052855154 0.026272211 0.1116952 0.46795255 -0.25783065 0.041378956
0.042348444 -0.07031772 0.12813167 -0.018763706 -0.080745116 -0.14944597 -0.11892482 0.05096395
-0.9919179 0.26543114 -0.23021325 0.1524298 0.14479026 0.35211506 -0.05464114 -0.012714437
0.21008295 -0.2843772 0.07925131 -0.4579201 -0.31063473 -0.58734286 -0.07035603 -0.08410512
-0.33519828 -0.062452566 0.1713923 -0.085244216 0.11148838 -0.4351369 -0.023401404 0.004657296
0.044610623 0.47825518 0.06296876 0.033694286 0.21846819 -0.18381204 -0.038371228 0.066258945
0.38709673 -0.008265368 -0.19907011 0.20676978 0.12190058 -0.46569768 0.025495848 -0.047187757
0.046430543 -0.06963638 -0.26954514 -0.052045964 0.3369184 0.19822617 0.48220423 0.03605459
0.04766752 0.046249337 -0.18617015 -0.31359515 -0.19059002 0.04571359 0.1937446 -0.0059120785
0.10347601 -0.51097107 -0.34959775 0.13308476 0.31778023 0.024907924 -0.09887022 0.10602091
0.0546821 -0.3428946 -0.6308702 0.46735147 0.2582556 0.13687088 0.33297688 0.25892785
0.35656613 0.3108515 -0.15834899 -0.17150469 0.10416727 0.07470023 -0.24278088 0.08384901
-0.07909935 0.06212579 -0.21569139 0.6005197 -0.3558985 0.012783443 0.013048828 -0.06182035
0.0755096 -0.26565373 0.19549102 0.27864566 -0.11837374 -0.32224014 -0.359389 -0.0844078
0.14090088 -0.26037714 0.42028394 -0.6657643 0.036642846 0.0749289 -0.5579915 -0.09169549
0.09367869 0.111811906 0.19798824 -0.0026476642 0.07527691 0.12263511 -0.21000004 -0.08696196
-0.063096896 0.24852483 -0.22636423 -0.19002269 0.1309285 -0.06926158 0.13239425 0.088050626
-0.0026292822 -0.16536006 0.07423828 0.18554664 0.039825924 0.35559455 -0.012841766 0.1693416
-0.04598767 0.034342855 0.018095937 0.036375992 -0.27440462 -0.02862195 0.20863517 -0.38026878

fc_advantage.4.bias f4 [6]
00000000: aab6 183e e3ea cdbd 4e18 5cbd 3fbd b73d
00000010: 1771 45be 7b01 17be
0.14913431 -0.10054567 -0.053734116 0.08971643 -0.19281422 -0.14746659
