data/Torch/Dueling/002_CNN-1_E_L/checkpoints/weights_600000steps.pth (torch, 286623 bytes, 13 tensors)

conv_layers.0.weight f4 [32, 1, 3, 3]
0.009679158 0.011154137 0.0131394435 0.15123865 -0.3110566 -0.044638447 0.15652698 0.10017741
0.20507582 -0.32129276 0.33015794 0.15905124 -0.11513892 -0.090394214 0.22230649 0.22753343
-0.13081495 -0.21958055 -0.57448393 -0.036681123 0.07747407 0.30598596 0.1479475 -0.058904044
0.021944977 0.16532561 -0.1890605 -1.4698576 -0.0063192635 0.10722649 0.06859932 0.015065233
0.004125623 -0.00859151 0.00021202894 0.013926417 0.2842515 -0.1445771 0.09075368 0.19919486
0.19795214 0.0143196 0.023876542 -0.038349558 -0.03532738 0.42224854 -0.014946951 -0.013691526
-0.9156659 0.29292575 -0.104579456 -0.13780627 0.17582642 -0.011332337 0.6644881 -0.022423608
-0.024703857 0.04919098 -0.4417432 0.05446358 -0.005060848 0.016608616 -0.107554324 -0.846333
0.08308571 -0.5682353 0.013616767 -0.0103506455 -0.46903175 0.0495266 0.03790418 -0.015500362
-0.65844655 0.16719398 0.05907989 0.00038806614 0.27589127 -0.12010377 -0.09058286 0.24665657
0.10628728 0.3166969 -0.21712337 0.055463545 -0.41106918 -0.07891702 0.22459692 -0.09546667
-0.16055602 0.19848317 -0.27606407 0.10672262 0.16025698 0.018794851 0.24227661 0.011620626
-0.12645899 -0.26889634 0.05768433 -0.14384802 -0.32371938 0.06939924 0.38456 0.22626455
0.062910676 0.06667383 -0.22239491 -0.28441834 0.1469867 0.011533197 -0.004012825 -0.20988823
-0.08303848 0.21491276 0.019014172 0.08355848 -0.036394607 -1.3973389 0.020689974 -0.0060550594
0.11108601 -0.0928026 0.10789221 0.019642869 0.004098936 0.086742684 0.41391572 0.22510687
-0.102998324 0.028401492 -0.20617336 0.1226283 -0.06351795 -0.0140815 -0.18294871 0.5250591
-0.3898191 -0.04164195 0.0025654628 -0.0650431 0.043117914 -0.04267667 -0.0033786094 0.034532752
0.09953576 0.17502569 0.11936199 0.14947574 0.06187254 -0.096682355 -0.057834677 -0.10512823
-0.19423433 0.002595605 0.19202968 0.081017375 -0.2561546 -0.14566866 0.023692096 -0.14919099
0.121944755 0.092999324 -0.5010191 0.028780647 -0.015939543 -0.015133348 0.13792615 -0.12677526
0.037695065 0.14829853 0.26399595 0.48736486 -0.123698905 0.1548096 0.07746447 -0.49896282
-0.18651699 0.09388913 -0.22079143 -0.13247834 0.21633832 -0.29298097 0.044480834 -0.29189548
-0.1870792 0.010968795 -0.19614108 0.19104488 0.16626956 0.6008111 -0.084359564 0.14667842
-0.1924255 -0.20843391 -0.014363468 -0.104751766 0.09107202 0.012588427 -0.03372781 0.0963493
0.030720718 0.16595225 -0.2176824 -0.1519118 -0.012341421 -0.09647287 0.057406716 -0.20930633
0.36763164 0.29861397 -0.09711998 -0.025194135 0.007270502 -0.19260317 0.13414033 -0.047067888
0.11370425 -0.17719343 0.16528708 0.26601833 -0.081946306 -0.048313413 -0.24498226 0.054400526
-0.19078587 0.23282655 0.13319944 0.012423831 0.08091336 -0.1996265 0.07088571 -0.17064886
-0.133636 -0.16080251 -0.389546 0.028559083 0.09062836 0.12410883 0.09547366 -0.25605968
0.06271954 0.10046665 0.06712895 0.21791013 0.09180399 -0.33443162 0.29470015 -0.08373908
0.052084785 -0.24306142 0.11308734 0.074504815 0.5007047 -0.07380788 0.0430223 -0.3989711
00000000: 5595 1e3c d7bf 363c d246 573c 4ede 1a3e
00000010: d042 9fbe ced6 36bd 9c48 203e d029 cd3d
00000020: 65ff 513e 7c80 a4be 760a a93e 54de 223e
00000030: f4cd ebbd 9a20 b9bd 50a4 633e 86fe 683e
00000040: 5bf4 05be b9d9 60be 6111 13bf f23e 16bd
00000050: baaa 9e3d 31aa 9c3e 8d7f 173e 5e45 71bd
00000060: f4c5 b33c 1e4b 293e 1399 41be 4b24 bcbf
00000070: d311 cfbb 9099 db3d cd7d 8c3d 2bd4 763c
00000080: 3c30 873b 68c3 0cbc 1654 5e39 a02b 643c
00000090: 6a89 913e 050c 14be 11dd b93d bdf9 4b3e
000000a0: f7b3 4a3e c19c 6a3c bd98 c33c 6d14 1dbd
000000b0: 71b3 10bd f630 d83e 0ee4 74bc 6c52 60bc
000000c0: 1569 6abf 5dfa 953e c12d d6bd 161d 0dbe
000000d0: d70b 343e 44ab 39bc e41b 2a3f b7b1 b7bc
000000e0: be5f cabc 7b7c 493d 2a2c e2be 3415 5f3d
000000f0: 78d5 a5bb cb0e 883c 7145 dcbd 48a9 58bf
00000100: d728 aa3d de77 11bf dc18 5f3c c195 29bc
00000110: ee24 f0be 67dc 4a3d 6a41 1b3d 3bf5 7dbc
00000120: f48f 28bf e634 2b3e c1fd 713d 5b75 cb39
00000130: 9f41 8d3e f7f8 f5bd 8283 b9bd 8a93 7c3e
00000140: 25ad d93d 1926 a23e 9755 5ebe be2d 633d
00000150: a977 d2be 3f9f a1bd bcfc 653e 0884 c3bd
00000160: cc68 24be 2c3f 4b3e 4558 8dbe 6491 da3d
00000170: 681a 243e a9f7 993c 5c17 783e 7064 3e3c
00000180: 777e 01be c8ac 89be 6746 6c3d e54c 13be
00000190: 8cbe a5be 3021 8e3d 0ce5 c43e e5b1 673e
000001a0: 50d7 803d 4a8c 883d 7ebb 63be 489f 91be
000001b0: ae83 163e bcf5 3c3c 047e 83bb f1ec 56be
000001c0: 1410 aabd 1712 5c3e 9cc3 9b3c b520 ab3d
000001d0: 8312 15bd 00dc b2bf 057e a93c 8569 c6bb
000001e0: 1081 e33d 4a0f bebd 97f6 dc3d 15ea a03c
000001f0: 5e50 863b 26a6 b13d c3ec d33e 6a82 663e
00000200: c9f0 d2bd 3faa e83c 1c1f 53be 8c24 fb3d
00000210: b315 82bd 17b6 66bc e856 3bbe 466a 063f
00000220: 5e96 c7be c090 2abd 5321 283b 5135 85bd
00000230: 699c 303d bbcd 2ebd a96b 5dbb 3772 0d3d
00000240: 68d9 cb3d ef39 333e 0f74 f43d 2b10 193e
00000250: 0f6e 7d3d 6601 c6bd 0ee4 6cbd 784d d7bd
00000260: 5de5 46be 071b 2a3b 6ea3 443e 70ec a53d
00000270: b226 83be 2a2a 15be ed15 c23c 86c5 18be
00000280: 2cbe f93d 6e76 be3d ca42 00bf 64c5 eb3c
00000290: a593 82bc ddf1 77bc 833c 0d3e 60d1 01be
000002a0: 2466 1a3d 92db 173e 7a2a 873e e387 f93e
000002b0: da55 fdbd 6886 1e3e b1a5 9e3d 0e78 ffbe
000002c0: 4ffe 3ebe f248 c03d 2617 62be 67a8 07be
000002d0: cb87 5d3e 9a01 96be 8931 363d 5373 95be
000002e0: b191 3fbe 76b6 333c 35d9 48be 45a1 433e
000002f0: 9142 2a3e c2ce 193f b5c4 acbd de32 163e
00000300: 310b 45be b36f 55be c054 6bbc 1888 d6bd
00000310: f883 ba3d b13f 4e3c 2c26 0abd c852 c53d
00000320: 04aa fb3c 63ef 293e 23e8 5ebe c48e 1bbe
00000330: ac33 4abc 9193 c5bd 4e23 6b3d 6654 56be
00000340: 373a bc3e eee3 983e d7e6 c6bd ee63 cebc
00000350: 643d ee3b c439 45be 155c 093e 42ca 40bd
00000360: c6dd e83d 3272 35be 0441 293e 8e33 883e
00000370: 77d3 a7bd 49e4 45bd a1dc 7abe 16d3 5e3d
00000380: 5f5d 43be 156a 6e3e 6f65 083e 538d 4b3c
00000390: e7b5 a53d e46a 4cbe 872c 913d 93be 2ebe
000003a0: e0d7 08be 6aa9 24be 9372 c7be bdf4 e93c
000003b0: 5d9b b93d c52c fe3d b287 c33d 411a 83be
000003c0: 1a73 803d 76c1 cd3d e77a 893d d523 5f3e
000003d0: bb03 bc3d 9f3a abbe f0e2 963e 657f abbd
000003e0: db56 553d 18e5 78be 569a e73d fb95 983d
000003f0: 2f2e 003f 9628 97bd 2738 303d f145 ccbe

conv_layers.0.bias f4 [32]
-0.6699247 -0.6156782 0.5102198 0.5813958 -0.46298596 0.09891767 -0.007829785 0.48620462
0.012180911 -0.13701077 0.42271313 -0.16762534 -0.38700795 0.67580694 -0.4884175 0.245736
-0.46268982 0.53669935 0.5627773 0.32922783 0.46163285 -0.5061181 0.23414084 -0.7342947
0.49310505 0.48848954 0.6272204 -0.56992054 -0.086597815 0.39166644 0.41592416 -0.49893188
00000000: 2f80 2bbf 169d 1dbf c49d 023f 5bd6 143f
00000010: 7f0c edbe 5995 ca3d 8048 00bc d0ef f83e
00000020: 7292 473c 8d4c 0cbe db6d d83e faa5 2bbe
00000030: e825 c6be af01 2d3f dc11 fabe 38a2 7b3e
00000040: aee5 ecbe 2165 093f 2c12 103f 8d90 a83e
00000050: 245b ec3e f590 01bf 9ec2 6f3e bdfa 3bbf
00000060: 4478 fc3e 4d1b fa3e 8491 203f 50e6 11bf
00000070: 325a b1bd 8188 c83e 03f4 d43e 0074 ffbe

fc_state.0.weight f4 [64, 512]
0.010458142 -0.016638702 -0.020199101 -0.007552592 0.03150626 -0.035210956 0.020532737 -0.039390743
0.031024309 -0.015959589 -0.02233548 0.03470238 0.027011614 -0.0058141076 0.0012310944 0.02377963
0.029828468 -0.028193444 -0.010580986 0.02874171 0.027121559 -0.0025099397 -0.008204927 0.006527509
-0.017500812 0.02581473 -0.032232348 0.011878308 0.013890899 -0.01821376 0.026344199 0.03289114
0.007999371 -0.04748882 0.020548908 0.0073288656 0.010773639 1.6603479e-05 -0.003495992 -0.024493847
-0.0023009619 -0.034224533 0.029035354 0.014513418 0.0015785216 -0.0028956635 0.0057979366 -0.040415857
-0.024988407 -0.046403956 -0.006863624 0.033550173 -0.04729739 0.029465722 0.01257873 -0.014284738
-0.04039954 -0.035053674 -0.02498094 0.009997702 0.011307084 0.0025960105 -0.044546973 -0.04289966
0.019211117 0.012221047 0.0102369785 -0.0062528774 0.030673934 0.021992499 0.018449184 0.021776767
0.0062556583 0.0072281356 0.027294127 0.008918738 -0.0065139458 -0.02473678 -0.033771962 -0.029978791
0.007585386 0.03930438 -0.039853126 -0.008021861 0.03727802 0.010995366 0.034080163 0.039750166
0.009677004 -0.013439587 -0.023571135 -0.0007346086 -0.009136591 0.0015052757 -0.0045439154 0.014483941
-0.048700456 -0.026679255 0.017899588 -0.011724686 -0.0110768685 -0.0047428817 -0.03973085 -0.010742786
-0.03569007 -0.00072074897 -0.031274077 -0.035830695 0.009350437 0.006668949 0.02378902 0.016021453
0.016315334 -0.002955782 0.0038501765 0.00485609 0.010089434 -0.008446742 0.019971829 -0.017073214
0.027653752 -0.04678046 0.033430554 0.03935542 0.032705955 -0.03932572 -0.029621737 -0.019772848
0.032768995 0.008925343 -0.042205468 -0.019726146 0.03696811 0.0048164465 -0.034710694 -0.014906087
0.04297943 0.018822787 0.021248724 0.0126135815 0.011286914 -0.002187036 0.017196244 0.025792675
0.029944433 -0.021388952 -0.04065385 0.032150008 0.014924914 0.025905814 -0.047031738 0.009487384
0.041539844 -0.04209675 -0.006930078 0.0014890424 -0.03965336 0.039029002 0.021326488 0.017099805
-0.005412914 -0.024976734 0.006592544 -0.01630381 0.02399307 0.022751477 -0.014784768 0.025827289
-0.0022783845 -0.042607922 0.006949744 0.03166326 0.023759851 0.0016614626 -0.02614038 -0.035562348
-0.038096942 -0.019674333 -0.04156264 -0.027751012 0.031439465 0.00057774456 0.0389696 -0.027263038
0.021737944 0.0020170435 0.0014991909 0.03992134 -0.042539876 -0.015838385 -0.0009643994 -0.0055992715
-0.021503039 -0.023024602 -0.0383707 -0.041435044 0.020444112 0.0007772499 -0.038662516 -0.034255393
-0.029130027 -0.012375883 0.018174272 -0.009832826 -0.032105125 -0.009837142 -0.04623179 -0.027344888
-0.032168582 -0.013791291 -0.0253501 -0.008963238 0.038564257 0.0074870605 0.013454445 -0.041752134
0.033388406 -0.02364325 -0.0044323206 -0.010219311 -0.020013914 -0.016851706 -0.009421683 0.031011866
-0.041911565 0.003547179 0.016006246 0.002331479 -0.03474367 0.021224458 -0.031205868 -0.0048993267
-0.041064374 0.009566217 0.023025313 -0.007278186 0.03777328 -0.03429719 -0.0093042 0.0006048425
-0.029453235 -0.018587684 -0.042589754 0.021503985 0.018320654 0.011591762 0.034306794 -0.0019353247
-0.023735764 -0.04357025 0.017458156 -0.035162654 0.019877728 -0.040304743 0.03386513 -0.026026955
00000000: a058 2b3c e34d 88bc 9678 a5bc bc7b f7bb
00000010: b50c 013d 5d39 10bd 4534 a83c 3058 21bd
00000020: b126 fe3c afbd 82bc e6f8 b6bc 1524 0e3d
00000030: 7647 dd3c 4584 bebb ac5c a13a 80cd c23c
00000040: d55a f43c f0f5 e6bc df5b 2dbc bc73 eb3c
00000050: 082e de3c cd7d 24bb f56d 06bc b7e4 d53b
00000060: dd5d 8fbc 6a79 d33c 1106 04bd 3c9d 423c
00000070: a796 633c 0635 95bc cacf d73c dcb8 063d
00000080: cb0f 033c a383 42bd 2f56 a83c fb26 f03b
00000090: eb83 303c b347 8b37 031d 65bb 52a7 c8bc
000000a0: bccb 16bb 062f 0cbd 8ddb ed3c b0c9 6d3c
000000b0: 65e6 ce3a 2cc5 3dbb 9efc bd3b 198b 25bd
000000c0: 7db4 ccbc 1312 3ebd 40e8 e0bb e86b 093d
000000d0: e8ba 41bd 1962 f13c 0417 4e3c 890a 6abc
000000e0: fd79 25bd 7194 0fbd d4a4 ccbc 67cd 233c
000000f0: 5941 393c d421 2a3b e376 36bd 8eb7 2fbd
00000100: a260 9d3c c93a 483c 00b9 273c f0e4 ccbb
00000110: e747 fb3c 9d29 b43c be22 973c 3165 b23c
00000120: 44fc cc3b ffd9 ec3b ef97 df3c e61f 123c
00000130: f072 d5bb caa4 cabc 7854 0abd 1596 f5bc
00000140: d48e f83b a1fd 203d 083d 23bd 206e 03bc
00000150: d6b0 183d e825 343c a497 0b3d 12d1 223d
00000160: 4c8c 1e3c b731 5cbc 4118 c1bc c092 40ba
00000170: a4b1 15bc ac4c c53a 20e5 94bb 0d4e 6d3c
00000180: 217a 47bd 748e dabc 28a2 923c e618 40bc
00000190: c17b 35bc 2d6a 9bbb d1bc 22bd 8302 30bc
000001a0: c02f 12bd a5f0 3cba 3f19 00bd 35c3 12bd
000001b0: 9332 193c 3387 da3b 31e1 c23c 6c3f 833c
000001c0: bca7 853c cbb5 41bb 3e53 7c3b d61f 9f3b
000001d0: 274e 253c 3464 0abc f69b a33c 20dd 8bbc
000001e0: 1f8a e23c de9c 3fbd 7aee 083d 2633 213d
000001f0: aef6 053d 0214 21bd 49a9 f2bc abfa a1bc
00000200: c838 063d 9a3b 123c a4df 2cbd ba98 a1bc
00000210: df6b 173d 48d3 9d3b cd2c 0ebd a938 74bc
00000220: 330b 303d 3f32 9a3c ce11 ae3c 32a9 4e3c
00000230: c0ec 383c 6054 0fbb 23df 8c3c 294b d33c
00000240: 074e f53c e237 afbc a784 26bd baaf 033d
00000250: a087 743c 6e38 d43c 5aa4 40bd f970 1b3c
00000260: af25 2a3d a46d 2cbd b515 e3bb f92b c33a
00000270: 906b 22bd e0dc 1f3d e3b4 ae3c e414 8c3c
00000280: d05e b1bb 029c ccbc 4406 d83b 918f 85bc
00000290: 1d8d c43c 4e61 ba3c d03b 72bc c093 d33c
000002a0: f350 15bb a585 2ebd aeba e33b 56b1 013d
000002b0: 05a4 c23c 6fc5 d93a 5a24 d6bc d3a9 11bd
000002c0: 8a0b 1cbd 112c a1bc 963d 2abd 1756 e3bc
000002d0: abc6 003d c873 173a 969e 1f3d bc56 dfbc
000002e0: c613 b23c 6030 043b 8080 c43a 8f84 233d
000002f0: 4b3e 2ebd 80bf 81bc c0cf 7cba 187a b7bb
00000300: 2427 b0bc 179e bcbc 982a 1dbd cbb7 29bd
00000310: 697a a73c 5cc0 4b3a 965c 1ebd 624f 0cbd
00000320: 18a2 eebc 37c4 4abc 36e2 943c dd19 21bc
00000330: aa80 03bd f72b 21bc 8c5d 3dbd 6302 e0bc
00000340: 34c3 03bd def4 61bc 03ab cfbc 8cda 12bc
00000350: 8ef5 1d3d 0456 f53b 0870 5c3c 4904 2bbd
00000360: 48c2 083d 7daf c1bc 003d 91bb e66e 27bc
00000370: 38f4 a3bc 970c 8abc 675d 1abc 990c fe3c
00000380: 76ab 2bbd ca77 683b 881f 833c bacb 183b
00000390: 614f 0ebd eade ad3c 73a3 ffbc 888a a0bb
000003a0: 1e33 28bd 9fbb 1c3c 959f bc3c d97d eebb
000003b0: 28b8 1a3d 367b 0cbd a570 18bc 4b8e 1e3a
000003c0: e947 f1bc 3345 98bc 9872 2ebd 2029 b03c
000003d0: 3215 963c 60eb 3d3c 4885 0c3d b9aa fdba
000003e0: 8171 c2bc b876 32bd 6804 8f3c b706 10bd
000003f0: 9ed6 a23c 9616 25bd 2ab6 0a3d 7b36 d5bc

fc_state.0.bias f4 [64]
-0.003643741 -0.031771407 0.034538887 -0.03041678 0.00037102032 -0.009209445 -0.013489363 0.027622512
-0.013791169 0.032401547 0.029229257 -0.057595864 -0.0035661603 0.054409493 0.023099786 0.02921345
-0.024731038 -0.04256892 -0.04729405 0.00253184 -0.042789906 -0.027334927 -0.01711301 -0.032688603
0.024112657 0.09684524 0.017596582 0.0011802819 -0.03489442 0.05808508 -0.022585317 -0.015823582
-0.02934314 -0.102731004 -0.0361954 0.02436404 -0.04021624 -0.044261646 0.039385673 -6.503048e-05
-0.0043420196 -0.044510376 0.027606307 -0.027425747 0.060563415 -0.0028640167 -0.0045810943 -0.022083895
-0.032616794 0.037043214 -0.028712152 0.0059076785 -0.042367876 -0.055016674 0.06816596 -0.057562985
-0.0069005736 0.084117785 -0.021845426 0.020906921 -0.06553402 0.013482544 -0.058879018 0.010090878
00000000: d4cb 6ebb bc22 02bd a678 0d3d 9c2c f9bc
00000010: 8185 c239 36e3 16bc 7d02 5dbc 9b48 e23c
00000020: 5bf4 61bc 7cb7 043d 3272 ef3c a4e9 6bbd
00000030: 3eb6 69bb 7ddc 5e3d c33b bd3c 0c51 ef3c
00000040: bf98 cabc bf5c 2ebd 68b7 41bd 3aed 253b
00000050: 7844 2fbd 7fed dfbc 9530 8cbc 7ce4 05bd
00000060: e887 c53c cc56 c63d b526 903c b0b3 9a3a
00000070: 74ed 0ebd 9fea 6d3d d804 b9bc 75a0 81bc
00000080: 0661 f0bc a264 d2bd a141 14bd 1897 c73c
00000090: c9b9 24bd b34b 35bd df52 213d f960 88b8
000000a0: 8047 8ebb 8350 36bd 9f26 e23c f6ab e0bc
000000b0: 5811 783d 3ab2 3bbb 011d 96bb 49e9 b4bc
000000c0: 3099 05bd a0ba 173d bf35 ebbc 3395 c13b
000000d0: f089 2dbd 2a59 61bd 989a 8b3d 2ac7 6bbd
000000e0: 351e e2bb f245 ac3d 2ef5 b2bc fe44 ab3c
000000f0: b336 86bd e3e5 5c3c 202b 71bd 3654 253c

fc_state.2.weight f4 [32, 64]
-0.10886187 0.0902663 -0.0424094 0.05125487 0.115530476 -0.07883697 -0.010957092 0.028778711
0.021480976 -0.10417212 0.050301593 -2.0719654e-05 -0.15105142 -0.16859247 -0.049796797 0.09544276
-0.11711537 0.11126457 0.06767637 -0.000119076314 -0.10770669 0.0358124 -0.08730642 -0.06361502
0.113635145 -0.047560256 -0.012886425 0.06459805 0.030126119 0.045521088 -0.004329373 -0.26404214
0.08952266 -0.11563047 -0.10500098 -0.25706476 -0.0653799 0.015126839 -0.19482736 -0.15783668
0.070828475 -0.0068965848 0.081198685 -0.038584743 0.1256692 -0.011279278 -0.18440308 -0.070737384
0.11132913 0.036894888 0.11448603 0.058215424 0.082176775 0.09039714 -0.021895913 -0.09802574
0.027511971 -0.015403111 0.09961807 -0.056605924 0.110652484 0.0004781775 -0.057967808 0.02252642
0.09308802 -0.117903806 0.05968278 -0.0027338956 0.05983715 0.06610269 0.026502756 -0.068732075
-0.10451543 -0.112277806 0.10970711 -0.04293703 0.06341272 0.103771955 -0.014242015 0.031506106
-0.034537323 0.051434495 -0.0005695143 -0.0085923895 -0.0056895483 0.045814857 0.03268559 0.019283382
-0.012424384 -0.041074492 0.07457214 0.02076172 0.07816117 0.15578498 -0.0031171124 0.29821303
0.029734772 0.21187128 0.06004135 0.06081883 0.14289731 -0.119694605 0.096898735 0.0008799747
0.109822884 0.053656496 0.055610918 -0.10151581 -0.021992153 -0.065655805 0.07216462 0.08117496
-0.01079822 0.16326216 0.0017423724 0.07900147 -0.022617785 0.049092103 -0.021952521 -0.036979377
-0.048128624 0.14183632 -0.09447016 -0.18275133 -0.052195687 0.074743025 0.030851964 0.18162861
0.10767854 -0.041155517 -0.09953288 0.10461218 0.09727482 0.10960678 -0.06880806 -0.06530648
-0.043388177 0.06774509 0.002792926 -0.14378992 -0.12292519 -0.16145957 -0.07700273 -0.0792548
-0.02118258 0.0328207 -0.08082379 -0.07165989 -0.121263154 0.070095055 0.088101044 -0.054422073
-0.09166463 0.09135382 -0.11601165 0.11853267 -0.050148163 0.04974449 0.0678532 -0.23473409
0.03626381 -0.060636774 -0.120455265 -0.037614472 -0.04383028 0.10541619 0.0761423 0.0038121534
0.110884555 -0.010780822 0.111521795 0.121966965 -0.06566831 -0.098887466 -0.122651376 -0.030444536
0.0034792367 0.15346368 -0.0044001606 -0.028626714 -0.11036545 0.11196084 -0.11184244 0.07375879
-0.07093941 -0.15072069 -0.050168216 -0.049330946 -0.004842729 0.049313266 -0.02004177 0.07799649
0.11928798 -0.114781104 -0.16437413 0.059713274 0.0589892 0.02333738 -0.04653926 0.0794417
-0.107751384 0.050880108 -0.0244653 -0.01633251 -0.08074416 0.016944783 0.038496353 -0.45976827
-0.08858835 -0.04165819 0.059126113 0.115167946 -0.0010960086 -0.077298254 -0.013259433 -0.04128837
0.036086857 0.1096653 0.09527299 -0.0014028052 0.06126523 -0.064088754 -0.11381365 0.090141766
-0.109591715 0.0316976 0.07740406 0.08059536 0.091511056 -0.04889118 -0.038447756 0.013936359
0.08194254 0.049767543 0.0090249395 0.06502472 0.0662591 -0.11388561 -0.31905168 -0.016186992
0.07944669 0.1943022 0.0012723095 -0.032046698 -0.079292394 0.115242004 -0.011410269 -0.062445503
0.11736867 0.08975013 -0.048986215 -0.04626235 -0.06530459 -0.0062045897 -0.093557686 -0.3110151
00000000: f9f2 debd 8add b83d 7bb5 2dbd a0f0 513d
00000010: 3e9b ec3d 4775 a1bd 6085 33bc 55c1 eb3c
00000020: dff8 af3c 3158 d5bd 0b09 4e3d 1ecf adb7
00000030: 39ad 1abe 81a3 2cbe baf7 4bbd 7e77 c33d
00000040: 2fda efbd aede e33d e999 8a3d 9cb8 f9b8
00000050: 5395 dcbd 06b0 123d b5cd b2bd 9748 82bd
00000060: 8bb9 e83d 8bce 42bd 9521 53bc fc4b 843d
00000070: 0dcb f63c 5274 3a3d 6add 8dbb 8830 87be
00000080: a857 b73d abcf ecbd c10a d7bd fe9d 83be
00000090: e6e5 85bd 90d6 773c d380 47be f09f 21be
000000a0: 850e 913d bffc e1bb 7f4b a63d 090b 1ebd
000000b0: 6daf 003e b9cc 38bc 29d4 3cbe c3de 90bd
000000c0: 8700 e43d 181f 173d a777 ea3d 4c73 6e3d
000000d0: 4c4c a83d 2322 b93d 0f5f b3bc b8c1 c8bd
000000e0: c960 e13c 555d 7cbc 8f04 cc3d 9ddb 67bd
000000f0: c59d e23d e6b3 fa39 a76f 6dbd 5489 b83c
00000100: efa4 be3d 8d77 f1bd ee75 743d 282b 33bb
00000110: cd17 753d d960 873d 4f1c d93c 67c3 8cbd
00000120: 300c d6bd e8f1 e5bd 1fae e03d bdde 2fbd
00000130: 87de 813d 6486 d43d 5757 69bc 8c0c 013d
00000140: 0277 0dbd faac 523d 754b 15ba 18c7 0cbc
00000150: 646f babb 5ca8 3b3d 53e1 053d 2ff8 9d3c
00000160: a58f 4bbc ba3d 28bd 47b9 983d 7c14 aa3c
00000170: f712 a03d 1986 1f3e 7848 4cbb 61af 983e
00000180: 5696 f33c c9f4 583e ebed 753d 2a1d 793d
00000190: ac53 123e 7222 f5bd d872 c63d 1aae 663a
000001a0: d2ea e03d eac6 5b3d 46c8 633d 85e7 cfbd
000001b0: e328 b4bc 8d76 86bd 0bcb 933d 0f3f a63d
000001c0: 04eb 30bc 322e 273e 5160 e43a 86cb a13d
000001d0: ef48 b9bc cd14 493d c6d5 b3bc b077 17bd
000001e0: 8522 45bd 8a3d 113e 9279 c1bd 2a23 3bbe
000001f0: 25cb 55bd df12 993d 42bd fc3c dafc 393e
00000200: 9186 dc3d b092 28bd e5d7 cbbd e93e d63d
00000210: 0538 c73d 8579 e03d 3deb 8cbd 67bf 85bd
00000220: cdb7 31bd f0bd 8a3d 8609 373b aa3d 13be
00000230: 34c0 fbbd a855 25be 9bb3 9dbd 5750 a2bd
00000240: 1787 adbc 006f 063d f186 a5bd 6cc2 92bd
00000250: d158 f8bd ff8d 8f3d 526e b43d aee9 5ebd
00000260: aaba bbbd b617 bb3d 8497 edbd 42c1 f23d
00000270: 2968 4dbd e1c0 4b3d 9ef6 8a3d 225e 70be
00000280: 5c89 143d 445e 78bd 40b1 f6bd a211 1abd
00000290: 6187 33bd 72e4 d73d 7ff0 9b3d 52d5 793b
000002a0: 7117 e33d 0ba2 30bc 8a65 e43d d1c9 f93d
000002b0: 1b7d 86bd 8385 cabd a530 fbbd d266 f9bc
000002c0: e803 643b 9525 1d3e 392f 90bb 9282 eabc
000002d0: 4807 e2bd ba4b e53d a60d e5bd d90e 973d
000002e0: ae48 91bd 8656 1abe 307d 4dbd 3f0f 4abd
000002f0: c1af 9ebb b5fc 493d a32e a4bc a0bc 9f3d
00000300: 424d f43d 5b12 ebbd b151 28be e895 743d
00000310: a99e 713d 082e bf3c f39f 3ebd 54b2 a23d
00000320: c2ac dcbd a967 503d 746b c8bc c2cb 85bc
00000330: 325d a5bd c9cf 8a3c 5aae 1d3d bf66 ebbe
00000340: cf6d b5bd c7a1 2abd 392e 723d 2cdd eb3d
00000350: f2a7 8fba 8c4e 9ebd 183e 59bc fe1d 29bd
00000360: d0cf 133d 3398 e03d 7c1e c33d 55de b7ba
00000370: 40f1 7a3d f740 83bd 2217 e9bd 3f9c b83d
00000380: 9f71 e0bd 58d5 013d 0586 9e3d 2e0f a53d
00000390: 266a bb3d 1e42 48bd 657b 1dbd 5455 643c
000003a0: 7ed1 a73d 0dd9 4b3d 57dd 133c ae2b 853d
000003b0: dab2 873d dc3c e9bd be5a a3be 959a 84bc
000003c0: f2b4 a23d 28f7 463e 9fc3 a63a 6643 03bd
000003d0: 0d64 a2bd 0004 ec3d 23f2 3abc dbc6 7fbd
000003e0: fc5e f03d ebce b73d c5a5 48bd 977d 3dbd
000003f0: 6abe 85bd df4f cbbb 2c9b bfbd 5f3d 9fbe

fc_state.2.bias f4 [32]
0.1529443 0.060365025 -0.07669183 0.14050718 -0.103448674 0.22538166 -0.18819569 -0.050384376
0.08593935 0.10861761 -0.13638246 0.16195728 -0.08272532 0.17370583 0.041726314 -0.07810554
-0.068699524 -0.06442036 0.09115231 0.028044794 -0.1154749 -0.032907482 -0.028964262 0.02757573
0.10076919 -0.021913638 0.20909718 0.14449999 -0.07871996 0.14464909 0.051637515 -0.120794125
00000000: 6e9d 1c3e 5141 773d 9b10 9dbd 1de1 0f3e
00000010: e6dc d3bd 73ca 663e 5fb6 40be d95f 4ebd
00000020: f800 b03d e972 de3d d8a7 0bbe 21d8 253e
00000030: e46b a9bd f1df 313e 36e9 2a3d ccf5 9fbd
00000040: 56b2 8cbd d2ee 83bd 10ae ba3d 32be e53c
00000050: 1b7e ecbd ffc9 06bd 7646 edbc 7fe6 e13c
00000060: 1460 ce3d 3b84 b3bc 921d 563e cef7 133e
00000070: ee37 a1bd e41e 143e dc81 533d e962 f7bd

fc_state.4.weight f4 [1, 32]
-0.15126768 0.16568792 0.06425401 -0.33823794 -0.14694208 -0.1243593 0.11005309 -0.16222176
-0.11975216 -0.15669933 0.080759466 -0.06090318 -0.11649498 -0.06950739 0.03800609 0.0012568476
0.12451145 -0.13081558 0.09498476 0.086039975 0.17087165 0.11563732 -0.049494017 -0.12911943
-0.08201219 -0.16057067 -0.12138748 -0.27688962 -0.001907691 -0.0719351 0.080850795 -0.21008095
00000000: eae5 1abe 18aa 293e 9b97 833d 862d adbe
00000010: fc77 16be 17b0 febd 8463 e13d 761d 26be
00000020: 9f40 f5bd ca75 20be 3865 a53d 9d75 79bd
00000030: ec94 eebd e459 8ebd 46ac 1b3d cfbc a43a
00000040: dcff fe3d 85f4 05be 5f87 c23d ba35 b03d
00000050: faf8 2e3e 42d3 ec3d 3dba 4abd e237 04be
00000060: 02f6 a7bd a36c 24be 009a f8bd 7ac4 8dbe
00000070: 7d0b faba b652 93bd 1a95 a53d 761f 57be

fc_advantage.0.weight f4 [64, 512]
-0.038884297 -0.033938833 -0.023891773 0.018180534 0.026385754 -0.025295908 0.0030636056 0.026931034
0.015032569 -0.024075186 -0.025635416 -0.047756106 -0.016559672 -0.042610787 -0.03949262 0.0068800985
-0.04877117 -0.033323687 0.022829613 0.019473527 0.029643113 0.024563968 -0.024706757 -0.0368431
0.017435325 -0.0126771 0.04356691 0.004510311 -0.039053753 -0.045377437 0.0295633 0.02850636
0.032557342 -0.023822252 0.030885497 -0.034958173 0.02299881 -0.032245066 -0.013793817 -0.0005233069
0.0140313925 -0.0062964964 0.008364901 -0.030596908 -0.018951355 0.028472843 0.026536414 -0.008858679
0.013987067 -0.0052960534 -0.008082921 -0.040574584 0.006950592 -0.01994939 -0.016568827 0.040555432
-0.03298694 -0.00029591224 0.015997414 -0.04051086 -0.035476234 0.016863173 -0.0033117244 0.039816108
-0.014911341 -0.040734176 -0.03328039 -0.036088075 -0.025738215 -0.017393384 -0.040980034 -0.02103913
0.0045144903 0.01759958 -0.029917836 -0.03748684 -0.0059981584 -0.041474912 0.023019107 -0.046751276
0.014931711 -0.034016166 -0.0059897215 0.0026294694 -0.049484685 0.035822123 -0.03368694 -0.033005703
-0.022594629 -0.018191606 0.01977163 0.039884787 0.020876896 -0.0039152037 -0.032743577 0.00013454973
0.014512736 0.02730183 0.016379697 -0.0029307224 0.036332235 0.0035178766 0.04162238 0.032320924
-0.016044462 0.0044435537 -0.0024516792 0.013395127 0.023348477 -0.03891588 0.026320204 0.021153674
0.008445433 0.019198403 -0.015275416 0.01982587 0.022084935 -0.01724541 -0.023281751 0.034001578
-0.017037138 -0.047405567 0.008783238 -0.0015663616 -0.04435886 -0.04255372 0.0169401 0.029915683
0.01902054 -0.018211868 0.02224988 0.014070473 -0.012481812 -0.029691074 -0.0329894 -0.0026734504
-0.00045156552 0.03489455 -0.037451923 -0.015234172 0.029967323 0.0051510655 -0.0036729274 -0.039925274
-0.0021148443 0.028680205 0.003473141 0.009165652 0.009688873 -0.013757178 0.016297176 0.012462485
-0.027772123 0.006631068 0.0263859 0.02488408 0.030990839 0.03472184 -0.0458873 0.014503402
0.014842955 -0.02528028 -0.049947776 0.00671277 -0.0157433 -0.012844597 -0.044483088 -0.04703492
-0.0013396771 0.0073397653 -0.0068537304 -0.0030753124 0.034879588 0.00037510926 -0.033022836 0.01665384
0.037246916 -0.023809213 0.04069654 -0.005277781 -0.03328209 -0.00032828827 0.043573532 0.04086232
0.038141508 -0.0037811026 -0.03765023 0.0407916 -0.039991897 0.0013952155 -0.021758648 -0.011333041
-0.005635359 -0.054591917 0.01630499 0.0236427 0.015915472 0.03464697 0.0069383346 -0.023706518
-0.00017848914 0.0072967047 0.020479241 -0.009977079 0.028781159 0.013852649 0.04438597 0.021990912
-0.0029172876 0.017423222 0.042372078 0.024109 -0.025545621 -0.0051373974 0.0024139504 -0.020934395
0.033752732 -0.012666778 -0.03640643 0.014486574 0.021131443 0.016287124 0.020979175 -0.04582855
-0.0016735372 -0.028738491 0.0060553025 -0.04058794 -0.011583262 -0.006559762 -0.04607605 0.004951944
-0.023014475 -0.0090031475 -0.0012836009 -0.010668801 0.017123474 -0.031981442 -0.036571994 0.03329927
-0.005887692 0.034421135 -0.008232803 -0.027370548 0.012277271 -0.0148368785 -0.039849907 0.019470178
-0.04145054 -0.04588442 -0.03457162 -0.035976358 0.017736249 0.03759264 -0.04264929 0.024039868
00000000: 2445 1fbd 7203 0bbd aeb8 c3bc 58ef 943c
00000010: f026 d83c 5d39 cfbc c6c6 483b 799e dc3c
00000020: 2a4b 763c 5339 c5bc 5d01 d2bc e89b 43bd
00000030: 26a8 87bc a688 2ebd 03c3 21bd 7372 e13b
00000040: 47c4 47bd 6b7e 08bd 2b05 bb3c f286 9f3c
00000050: 1dd6 f23c 603a c93c d365 cabc cae8 16bd
00000060: 87d4 8e3c 9cb3 4fbc 3773 323d 3bcb 933b
00000070: d4f6 1fbd b1dd 39bd bc2e f23c 2b86 e93c
00000080: d95a 053d e226 c3bc 9503 fd3c 4d30 0fbd
00000090: 0068 bc3c 6713 04bd 76ff 61bc 882e 09ba
000000a0: ede3 653c d752 cebb f00c 093c 5ea6 fabc
000000b0: df3f 9bbc e13f e93c e562 d93c fe23 11bc
000000c0: 032a 653c 848a adbb 3a6e 04bc 8931 26bd
000000d0: cbc1 e33b e76c a3bc 59bb 87bc 741d 263d
000000e0: 501d 07bd ab24 9bb9 020d 833c b7ee 25bd
000000f0: 874f 11bd a324 8a3c 8409 59bb 3716 233d
00000100: b24e 74bc e1d8 26bd 0551 08bd 17d1 13bd
00000110: f3d8 d2bc 927c 8ebc aeda 27bd 415a acbc
00000120: 4aee 933b ff2c 903c 4016 f5bc cd8b 19bd
00000130: 338c c4bb 99e1 29bd 9192 bc3c 447e 3fbd
00000140: 23a4 743c 8954 0bbd 6d45 c4bb 2d53 2c3b
00000150: 74b0 4abd 38ba 123d 51fb 09bd fd30 07bd
00000160: 5f18 b9bc 9006 95bc 1df8 a13c 3b5e 233d
00000170: 0606 ab3c 1c4b 80bb 211e 06bd eb15 0d39
00000180: d4c6 6d3c 16a8 df3c b72e 863c 5d11 40bb
00000190: 1cd1 143d 2d8c 663b 3b7c 2a3d f262 043d
000001a0: ad6f 83bc 3b9b 913b 5aac 20bb 3c77 5b3c
000001b0: 4e45 bf3c 4266 1fbd 789d d73c 784a ad3c
000001c0: b75e 0a3c f845 9d3c bd45 7abc dd69 a23c
000001d0: 77eb b43c 3f46 8dbc 5fb9 bebc 3d45 0b3d
000001e0: 7891 8bbc 572c 42bd 92e7 0f3c 604e cdba
000001f0: a3b1 35bd cf4c 2ebd f7c5 8a3c bc11 f53c
00000200: f7d0 9b3c 0e31 95bc 6145 b63c d787 663c
00000210: 8480 4cbc b23a f3bc e51f 07bd 0e35 2fbb
00000220: 19c0 ecb9 96ed 0e3d 3067 19bd c098 79bc
00000230: 087e f53c 45ca a83b 7fb5 70bb af88 23bd
00000240: 3399 0abb c0f2 ea3c a39d 633b 882b 163c
00000250: 14be 1e3c c965 61bc a881 853c 732f 4c3c
00000260: 5d82 e3bc 6e49 d93b 3e27 d83c b3d9 cb3c
00000270: 80e0 fd3c 7d38 0e3d 52f4 3bbd ad9f 6d3c
00000280: de2f 733c 9718 cfbc 0a96 4cbd ccf6 db3b
00000290: 18f8 80bc 2572 52bc e633 36bd b0a7 40bd
000002a0: 1b98 afba 6a82 f03b 4295 e0bb 2e8b 49bb
000002b0: e6dd 0e3d 50aa c439 f442 07bd a26d 883c
000002c0: 3990 183d 8a0b c3bc 6ab1 263d 3cf1 acbb
000002d0: cd52 08bd 1b1e acb9 297a 323d 405f 273d
000002e0: 453a 1c3d 60cc 77bb 2137 1abd 1815 273d
000002f0: 8bce 23bd aadf b63a 313f b2bc 38ae 39bc
00000300: d1a8 b8bb c69b 5fbd 0b92 853c 56ae c13c
00000310: 2a61 823c fbe9 0d3d f85a e33b 2c34 c2bc
00000320: d028 3bb9 3219 ef3b 15c4 a73c e776 23bc
00000330: 77c6 eb3c 39f6 623c 10ce 353d 4926 b43c
00000340: f72f 3fbb 25bb 8e3c 588e 2d3d 3d80 c53c
00000350: 0d45 d1bc 9d57 a8bb 5e33 1e3b 9c7e abbc
00000360: 4e40 0a3d 5188 4fbc e91e 15bd 1859 6d3c
00000370: d91b ad3c 936c 853c 85dc ab3c b8b6 3bbd
00000380: 975a dbba fc6c ebbc 8f6b c63b 8a3f 26bd
00000390: b9c7 3dbc 46f3 d6bb 3dba 3cbd eb43 a23b
000003a0: da88 bcbc f081 13bc 803e a8ba 32cc 2ebc
000003b0: 8746 8c3c f9fe 02bd 84cc 15bd d164 083d
000003c0: 8aed c0bb 2dfd 0c3d e1e2 06bc 3338 e0bc
000003d0: 9b26 493c 6116 73bc a839 23bd ec7f 9f3c
000003e0: 0bc8 29bd 4df1 3bbd f99a 0dbd f25b 13bd
000003f0: 9c4b 913c bdfa 193d 06b1 2ebd 42ef c43c

fc_advantage.0.bias f4 [64]
-0.04658558 0.12456631 -0.23017254 0.007824959 -0.19975899 -0.32468897 0.063522264 -0.04532288
-0.023024997 -0.10191384 0.30979547 -0.020308979 0.009599318 -0.08470759 -0.023462629 -0.06349491
-0.28823495 0.01602514 -0.010911859 -0.0227304 0.036173847 0.05118534 -0.04137832 0.114854276
0.41314337 -0.02512802 0.061892495 0.11741988 0.080240056 -0.029036324 -0.088341035 -0.00014913386
0.5250949 0.024923049 0.43221188 -0.25603625 -0.07893479 0.124760106 -0.15541244 0.061005626
0.35621655 -0.0015713965 0.02762977 0.0366784 -0.10722555 -0.053774953 -0.026197087 -0.008750072
0.30072656 0.06062429 0.35773665 0.035616428 0.3457666 0.047770973 -0.021153266 -0.14954309
0.17906697 0.11712806 -0.0034634315 -0.04074086 0.026701495 -0.048573896 -0.05822628 -0.1996913
00000000: 85d0 3ebd 9f1c ff3d 5ab2 6bbe 4234 003c
00000010: 9f8d 4cbe a23d a6be f617 823d 7ca4 39bd
00000020: eb9e bcbc 34b8 d0bd 839d 9e3e 045f a6bc
00000030: 7546 1d3c 2c7b adbd b334 c0bc 9f09 82bd
00000040: 8893 93be 2847 833c a7c7 32bc 1b35 babc
00000050: 072b 143d b8a7 513d 507c 29bd b838 eb3d
00000060: 8787 d33e 47d9 cdbc fc82 7d3d d679 f03d
00000070: e654 a43d 96dd edbc 25ec b4bd d160 1cb9
00000080: 9f6c 063f 6c2b cc3c e04a dd3e 2f17 83be
00000090: 90a8 a1bd 3a82 ff3d 7024 1fbe 09e1 793d
000000a0: 0462 b63e 51f7 cdba d457 e23c 173c 163d
000000b0: 1299 dbbd 2043 5cbd 469b d6bc 765c 0fbc
000000c0: d5f8 993e 2d51 783d 4229 b73e 88e2 113d
000000d0: 5208 b13e 7fab 433d 9d49 adbc d321 19be
000000e0: 555d 373e d6e0 ef3d bdfa 62bb e3df 26bd
000000f0: 18bd da3c 6cf5 46bd ae7e 6ebd e07b 4cbe

fc_advantage.2.weight f4 [32, 64]
-0.097718194 -0.11613337 0.08669817 -0.0884912 0.013222088 -0.08857759 -0.039577376 0.107827425
-0.04275021 0.07739954 -0.052479923 -0.0030809415 0.053675216 -0.014484896 0.11223474 -0.06760863
-0.09597428 0.042179845 0.050804995 0.113581955 -0.025863692 -0.10834891 -0.094879426 -0.06497681
0.049523745 -0.08532519 -0.017330954 0.01855638 -0.037689842 -0.027586639 0.09465689 -0.039627124
0.0152606545 -0.11308891 -0.039318155 -0.07969904 0.014016792 -0.092048615 0.048321676 -0.13023965
-0.0654293 0.034884997 -0.042921346 -0.057754327 0.057611402 0.06565753 -0.071851976 -0.063660756
-0.033913523 -0.091855034 0.02479397 -0.04432146 -0.062216837 0.098505124 0.08674164 -0.064315066
-0.11211036 -0.008377143 0.055021726 0.111749955 0.073605195 -0.023565888 -0.109862655 -0.079464816
-0.03816677 -0.23429415 0.15661915 0.00691674 -0.047967624 0.013162817 -0.19807309 -0.008470784
0.018996743 -0.10358577 -0.07910186 -0.01557359 -0.2480772 0.060853187 -0.12435268 -0.04580015
0.057588715 0.16931258 0.06738067 -0.05142203 -0.0887885 -0.116668805 -0.07992155 -0.24911246
0.1433933 0.057951275 0.12081683 0.27670583 0.0858237 0.0703414 -0.018662656 -0.12196737
0.00893385 0.007083154 -0.0150392335 0.041605886 -0.08255807 -0.058457986 -0.0877343 0.17466944
-0.10958074 -0.0087643415 -0.10927827 0.070446946 0.067934595 -0.015507824 -0.42886513 -0.10872226
0.09084963 -0.010267338 0.027604196 -0.14842391 -0.02372287 -0.1632379 -0.0008653892 0.17991322
-0.014655408 0.008999212 -0.2396098 0.02114156 0.13861303 -0.042597517 -0.2218431 0.1061686
-0.07365267 -0.2263191 0.044398498 0.046180405 0.11711048 0.10136953 -0.1407498 0.0065607703
0.07586452 0.13030115 -0.004675447 -0.06985501 0.1307744 -0.0521775 -0.09903078 0.053129107
0.1890477 0.16020004 -0.017151628 0.20469098 -0.04450193 0.13935022 0.055598825 -0.17113915
-0.006856105 -0.11045114 0.023780663 -0.025735075 0.08708837 0.12602405 0.069130085 0.24783894
-0.10248203 0.19986041 -0.12052674 -0.0054879305 0.055471275 0.22577591 0.08301516 0.10235406
-0.06121561 0.053518753 0.11947641 0.18555686 0.14946489 0.0029605555 -0.40890658 0.032598324
-0.042736173 0.049675643 -0.11394144 -0.11122765 0.037219364 -0.022711612 -0.07462621 0.15373038
0.02343765 0.068786494 -0.04946042 0.03822638 0.01744894 0.08963908 -0.043465346 0.10362001
-0.027778042 0.06874897 -0.2281756 0.009667921 -0.13570678 -0.26139534 0.040972307 -0.6592409
0.09971488 0.09355078 0.075738765 0.33324277 -0.16436785 -0.17742427 -0.094507106 0.03170293
0.11288152 -0.08585634 -0.12991613 -0.039083853 -0.010267757 0.059428446 -0.06197886 0.2341874
-0.047392134 -0.031815156 0.038916882 -0.17511988 -0.16227955 -0.08341541 -0.16907537 0.112219505
-0.008883215 -0.1851994 0.03901347 -0.42973608 -0.21017021 0.073616445 0.011830705 -0.13382156
0.09326435 0.056889407 0.00045926715 0.03635941 0.0067543364 -0.051956613 0.040842753 0.097620316
-0.059564702 0.16649738 -0.06443829 0.27145952 0.065527804 0.3515315 0.04869247 -0.23265435
0.1293332 0.07451368 -0.08636699 0.09566286 -0.14899743 -0.08867543 0.037750736 0.07230229
00000000: 7a20 c8bd 55d7 edbd cf8e b13d e03a b5bd
00000010: 75a1 583c 2b68 b5bd e31b 22bd a0d4 dc3d
00000020: d81a 2fbd a683 9e3d 30f5 56bd 9fe9 49bb
00000030: 8bda 5b3d 0f52 6dbc 54db e53d 6576 8abd
00000040: 2a8e c4bd c6c4 2c3d e618 503d a89d e83d
00000050: 18e0 d3bc 09e6 ddbd 2550 c2bd 9012 85bd
00000060: 69d9 4a3d f9be aebd a5f9 8dbc 8d03 983c
00000070: aa60 1abd 60fd e1bc 79db c13d 0d50 22bd
00000080: d307 7a3c 299b e7bd 130c 21bd 4039 a3bd
00000090: b0a6 653c fc83 bcbd f3ec 453d 8b5d 05be
000000a0: ccff 85bd 92e3 0e3d 4bce 2fbd cd8f 6cbd
000000b0: eff9 6b3d 7577 863d 2127 93bd 9260 82bd
000000c0: e8e8 0abd 7e1e bcbd b91c cb3c 6b8a 35bd
000000d0: 15d7 7ebd 0ebd c93d 9aa5 b13d 9eb7 83bd
000000e0: 1e9a e5bd 4940 09bc 765e 613d 29dd e43d
000000f0: 52be 963d 400d c1bc acff e0bd 73be a2bd
00000100: c254 1cbd ceea 6fbe c560 203e d2a5 e23b
00000110: b379 44bd dba8 573c acd3 4abe 0bc9 0abc
00000120: 0f9f 9b3c c724 d4bd 2800 a2bd 5f28 7fbc
00000130: f307 7ebe 3141 793d 9eac febd f098 3bbd
00000140: 25e2 6b3d 4760 2d3e e0fe 893d e89f 52bd
00000150: bfd6 b5bd 0ef0 eebd e9ad a3bd 5617 7fbe
00000160: b1d5 123e 515e 6d3d d06e f73d 63ac 8d3e
00000170: 56c4 af3d 270f 903d 6de2 98bc 07ca f9bd
00000180: 485f 123c cd19 e83b 1e67 76bc ef6a 2a3d
00000190: 3514 a9bd a471 6fbd 0aae b3bd 8cdc 323e
000001a0: de6b e0bd 5098 0fbc 49cd dfbd 7d46 903d
000001b0: 4b21 8b3d 8714 7ebc 3694 dbbe c7a9 debd
000001c0: 5f0f ba3d 5638 28bc 3222 e23c 70fc 17be
000001d0: 7756 c2bc d627 27be 49db 62ba 2c3b 383e
000001e0: 3d1d 70bc 6e71 133c 455c 75be 1131 ad3c
000001f0: 93f0 0d3e bc7a 2ebd d62a 63be ec6e d93d
00000200: 36d7 96bd 32c0 67be 33db 353d aa27 3d3d
00000210: 9fd7 ef3d d49a cf3d b720 10be bbfb d63b
00000220: dc5e 9b3d aa6d 053e 7e34 99bb 2510 8fbd
00000230: b9e9 053e 13b8 55bd a6d0 cabd e89d 593d
00000240: b895 413e 7b0b 243e 9281 8cbc 839a 513e
00000250: a847 36bd d3b1 0e3e 98bb 633d 1a3f 2fbe
00000260: 2da9 e0bb 3534 e2bd aacf c23c 5dd2 d2bc
00000270: 635b b23d 730c 013e 1394 8d3d 7ec9 7d3e
00000280: 19e2 d1bd 35a8 4c3e b9d6 f6bd 19d4 b3bb
00000290: d935 633d cd31 673e da03 aa3d 019f d13d
000002a0: 38bd 7abd 7b36 5b3d 0cb0 f43d 9e02 3e3e
000002b0: 530d 193e e105 423b 345c d1be d285 053d
000002c0: 200c 2fbd b078 4b3d 215a e9bd 52cb e3bd
000002d0: 5573 183d b40d babc a0d5 98bd 7f6b 1d3e
000002e0: 5100 c03c efdf 8c3d 0297 4abd 4493 1c3d
000002f0: 14f1 8e3c b294 b73d b808 32bd ba36 d43d
00000300: c78e e3bc 43cc 8c3d dda6 69be 3366 1e3c
00000310: b8f6 0abe 9cd5 85be 94d2 273d 03c4 28bf
00000320: 5137 cc3d 8d97 bf3d ed1c 9b3d cc9e aa3e
00000330: 0c50 28be b5ae 35be f18c c1bd eeda 013d
00000340: 6d2e e73d 73d5 afbd bc08 05be 6416 20bd
00000350: 183a 28bc 3e6b 733d 8cdd 7dbd d2ce 6f3e
00000360: 411e 42bd 9c50 02bd 4f67 1f3d a052 33be
00000370: 9c2c 26be b3d5 aabd 1822 2dbe 57d3 e53d
00000380: e78a 11bc e9a4 3dbe 97cc 1f3d 5e06 dcbe
00000390: dc36 57be 38c4 963d 93d5 413c 8508 09be
000003a0: 6101 bf3d de04 693d cbc9 f039 9bed 143d
000003b0: 7b53 dd3b 75d0 54bd bb4a 273d 29ed c73d
000003c0: 1efa 73bd 4a7e 2a3e 39f8 83bd befc 8a3e
000003d0: 7133 863d f0fb b33e c171 473d f13c 6ebe
000003e0: ec6f 043e a19a 983d 2de1 b0bd e4ea c33d
000003f0: c892 18be 779b b5bd 84a0 1a3d 3913 943d

fc_advantage.2.bias f4 [32]
-0.022167465 0.080656536 -0.08138534 0.0006438383 -0.15798599 0.19573183 0.03794487 0.13039362
0.022213824 -0.07559842 0.299261 -0.17560717 -0.507615 -0.010376989 0.02142867 -0.16339014
-0.04679358 0.047811557 -0.030574122 0.073279075 -0.09479753 0.03243643 0.13862965 0.012218427
0.14021313 -0.035917576 0.17341392 -0.29562753 0.42497614 0.1048828 -0.43910077 0.3284265
00000000: 8b98 b5bc 412f a53d 5bad a6bd 42c7 283a
00000010: 14c7 21be ed6d 483e 146c 1b3d e885 053e
00000020: c4f9 b53c 58d3 9abd bd38 993e 5ed2 33be
00000030: 0ef3 01bf 3f04 2abc 2e8b af3c bf4f 27be
00000040: a0aa 3fbd 0dd6 433d 9576 fabc 5713 963d
00000050: 3525 c2bd 10dc 043d eef4 0d3e cc2f 483c
00000060: 0894 0f3e 4f1e 13bd 6b93 313e 7e5c 97be
00000070: 7996 d93e cbcc d63d d1d1 e0be 8527 a83e

fc_advantage.4.weight f4 [6, 32]
0.17652391 -0.10300271 0.062257513 -0.031428512 0.07262099 0.053082634 -0.029026886 0.21236633
0.0032512867 -0.028181398 -0.2188108 0.010860063 -0.103586055 -0.15405641 -0.06727559 -0.053480983
-0.0064802794 -0.08630474 0.091101594 -0.2959752 -0.19591478 -0.06728252 0.17950247 -0.2619757
0.0589933 0.3610409 -0.11783746 0.013174575 0.14549464 -0.07181817 -0.010974375 -0.10620477
0.08043614 0.015756087 -0.048193723 0.22243433 -0.10569624 0.07981139 -0.09533169 -0.16868377
0.24277155 -0.030994667 0.02612361 0.009607677 0.06203092 0.4670611 -0.23612146 0.08603444
0.04194482 -0.12550387 0.16264042 0.018408814 -0.0858484 -0.096758135 -0.1641572 0.088339426
-0.81125623 0.22815742 -0.13603692 0.01427674 0.09720766 0.3833137 -0.1578409 0.03933493
0.106508166 -0.16562392 0.062248144 -0.49706984 -0.31571573 -0.55325735 -0.11362443 -0.05703028
-0.36428127 -0.0997339 0.103345744 -0.022665214 -0.032831352 -0.26089534 -0.032409724 0.04500956
0.050515942 0.47237715 -0.016545206 -0.014689021 0.30977166 -0.16641785 -0.10081294 0.024228927
0.3614883 -0.0027059882 -0.15033464 0.04466186 0.10408796 -0.5515808 -0.118281014 -0.09969
-0.079632506 -0.043312404 -0.32287514 0.039291408 0.26129818 0.2357195 0.48285452 -0.01366767
0.02343991 0.021560067 -0.20265444 -0.33695513 -0.2852091 0.08204282 0.17419836 0.031928945
0.10938131 -0.5868328 -0.3371473 0.12118515 0.15193166 -0.17483298 -0.09946262 0.10680938
0.07382475 -0.29860005 -0.5735015 0.30842707 0.27346587 0.19509877 0.18699868 0.23558965
0.16934553 0.2145729 -0.09189585 -0.19746703 0.08858166 0.07427975 -0.26941013 0.03243916
-0.036086243 0.051409632 -0.1307823 0.5764996 -0.3135497 -0.105594195 0.015704028 -0.03945818
0.075024754 -0.13597144 0.16446646 0.17503214 -0.08621918 -0.1714674 -0.31103054 -0.10795862
0.07613725 -0.194402 0.43246514 -0.6436656 0.038200587 0.032072507 -0.6037787 -0.093913294
0.11302932 0.10895166 0.17759594 -0.13288411 0.07714518 0.08134193 -0.17775787 -0.13593856
-0.0006212999 0.1362584 -0.2589982 -0.18022373 0.16692053 -0.1189076 0.14431648 0.09368797
0.0033195112 -0.0870265 0.10205647 0.20481566 0.12655212 0.2759682 -0.0838866 0.12418994
-0.08651098 -0.11306423 -0.071698666 0.16832197 -0.17118758 -0.077460684 0.26618227 -0.38883877
00000000: afc2 343e 16f3 d2bd bc01 7f3d 2fbb 00bd
00000010: 50ba 943d 2d6d 593d cbc9 edbc 8f76 593e
00000020: 8a13 553b addc e6bc f00f 60be 68ee 313c
00000030: ed24 d4bd f7c0 1dbe c9c7 89bd e00e 5bbd
00000040: 8658 d4bb 8ac0 b0bd 7993 ba3d 108a 97be
00000050: e29d 48be 6bcb 89bd 7fcf 373e ae21 86be
00000060: f5a2 713d 5ada b83e c454 f1bd 2cda 573c
00000070: 8cfc 143e 6815 93bd ddcd 33bc e381 d9bd
00000080: b4bb a43d e912 813c c866 45bd d3c5 633e
00000090: 4577 d8bd 2774 a33d 433d c3bd 70bb 2cbe
000000a0: 1b99 783e 87e8 fdbc 2e01 d63c 8569 1d3c
000000b0: 2214 7e3d a222 ef3e d3c9 71be d332 b03d
000000c0: 55ce 2b3d 1684 00be 368b 263e 15ce 963c
000000d0: 49d1 afbd 2129 c6bd d318 28be 4deb b43d
000000e0: 7dae 4fbf 19a2 693e 434d 0bbe fde8 693c
000000f0: cf14 c73d b141 c43e 0ba1 21be aa1d 213d
00000100: f420 da3d 5199 29be e9f7 7e3d f07f febe
00000110: 7ea5 a1be 46a2 0dbf edb3 e8bd 9598 69bd
00000120: 1383 babe 4941 ccbd efa6 d33d 66ac b9bc
00000130: 2b7a 06bd 1394 85be 0fc0 04bd f25b 383d
00000140: cee9 4e3d 6bdb f13e d089 87bc 38aa 70bc
00000150: 649a 9e3e 7169 2abe 0477 cebd be7b c63c
00000160: ff14 b93e f356 31bb 53f1 19be 5bef 363d
00000170: 122c d53d 6634 0dbf 513d f2bd 452a ccbd
00000180: 5e16 a3bd 5968 31bd e44f a5be 07f0 203d
00000190: e0c8 853e 7460 713e b538 f73e 5dee 5fbc
000001a0: 0e05 c03c bd9e b03c a584 4fbe 6285 acbe
000001b0: ed06 92be 1106 a83d 0e61 323e edc7 023d
000001c0: 4f03 e03d ad3a 16bf 929e acbe ec2f f83d
000001d0: f993 1b3e 6b07 33be 0fb3 cbbd e0be da3d
000001e0: 6e31 973d 1be2 98be ffd0 12bf 27ea 9d3e
000001f0: b803 8c3e f9c7 473e 957c 3f3e 6a3e 713e
00000200: ea68 2d3e 00b9 5b3e e433 bcbd cc34 4abe
00000210: 4d6a b53d fb1f 983d 20f0 89be edde 043d
00000220: 2bcf 13bd e892 523d cceb 05be 7a95 133f
00000230: 9689 a0be c541 d8bd bca5 803c e79e 21bd
00000240: 94a6 993d 193c 0bbe e569 283e a03b 333e
00000250: ae93 b0bd 2695 2fbe 653f 9fbe 6919 ddbd
00000260: d9ed 9b3d 5111 47be 126c dd3e 45c7 24bf
00000270: 3878 1c3d 765e 033d 3e91 1abf 9d55 c0bd
00000280: eb7b e73d 0c22 df3d b6db 353e c612 08be
00000290: 4bfe 9d3d 9996 a63d 2906 36be 7a33 0bbe
000002a0: bbde 22ba 5287 0b3e 699b 84be 928c 38be
000002b0: 37ed 2a3e d485 f3bd b3c7 133e 7adf bf3d
000002c0: 288c 593b f33a b2bd fc02 d13d 32bb 513e
000002d0: e196 013e b44b 8d3e bdcc abbd 4c57 fe3d
000002e0: ab2c b1bd 388e e7bd c0d6 92bd 985c 2c3e
000002f0: cc4b 2fbe b5a3 9ebd 0b49 883e e015 c7be

fc_advantage.4.bias f4 [6]
0.11078333 -0.044493176 -0.063899115 0.057023447 -0.21032521 -0.105541945
00000000: 5fe2 e23d 7a3e 36bd 8add 82bd 6b91 693d
00000010: 7e5f 57be 6026 d8bd
