data/Torch/Dueling/002_CNN-1_E_L/checkpoints/weights_1600000steps.pth (torch, 286623 bytes, 13 tensors)

conv_layers.0.weight f4 [32, 1, 3, 3]
-0.06724206 -0.04107153 -0.00640947 0.12555878 -0.28171015 -0.032132685 0.23689502 0.06203784
0.28797424 -0.30567074 0.3044301 0.009512622 -0.10462716 -0.10413019 0.21130453 0.41301513
-0.13245872 -0.22841549 -0.54051006 -0.017653443 0.043328017 0.32207084 0.10432156 -0.022906555
0.016938977 0.093004204 -0.20562212 -2.1153677 0.031782754 0.14083079 0.062217925 0.009145059
0.013313498 0.039775003 -0.001079076 -0.0013997173 0.20833991 -0.1646222 0.073111326 0.102795996
0.13476299 -0.0157906 -0.014346727 -0.045110907 -0.021842092 0.49467608 0.011374298 0.015117694
-1.0761391 0.20697872 -0.00886759 -0.041437116 0.055836555 -0.016967159 0.6905705 -0.010294524
-0.025305247 0.010882543 -0.48044115 0.03686295 -0.02129999 -0.01787732 -0.05012768 -0.7342919
0.028860986 -0.7371677 0.110380545 -0.022243584 -0.90169585 -0.0003668962 0.008458081 0.013373895
-0.6764967 0.16547678 0.024594001 0.009192056 0.24465628 -0.06539295 -0.031038817 0.19415382
0.10859229 0.30505255 -0.2115203 -0.015367311 -0.32379642 -0.10105296 0.18731064 -0.069287136
-0.1747182 0.34745368 -0.27280676 0.08678626 0.18227156 0.0034236463 0.19585639 0.03380234
-0.15460104 -0.18645397 0.047974724 -0.07964872 -0.35832244 0.13265045 0.46114272 0.15021199
0.048579812 0.04589309 0.013443413 -0.6039711 0.17075066 -0.032660257 -0.025636774 -0.18768759
-0.08178312 0.31704232 -0.023388201 0.067491665 -0.03190648 -1.4002869 0.07574355 0.053224664
0.12578739 0.044816747 0.07524125 0.056580793 0.040102545 0.050733127 0.47096476 0.17740525
-0.1223928 0.06609356 -0.19003448 0.07561001 -0.026007507 -0.010216876 -0.19471635 0.5275536
-0.46286723 -0.024880273 -0.015322727 -0.009667021 0.03398624 0.012709717 -0.0027196307 0.020683192
0.081673466 0.16134873 0.20258269 0.16489485 0.034954507 -0.14478384 -0.06277194 -0.08141212
-0.20726661 -0.034427565 0.18235447 0.057509746 -0.24019493 -0.13808437 0.04076962 -0.13401477
0.09798498 0.06507149 -0.528431 -0.015279204 0.009818221 -0.020252416 0.12222364 -0.069528125
0.031041617 0.121546336 0.31840664 0.5050002 -0.09898528 0.12745115 -0.0105074365 -0.5685968
-0.098379634 0.059411246 -0.117035314 -0.15331659 0.18318081 -0.28362313 -0.0057444093 -0.28303757
-0.09373895 -0.00054311263 -0.16735512 0.1632063 0.089495264 0.66189265 -0.096165575 0.11539889
-0.15227982 -0.17105776 -0.029121676 -0.08052674 0.044682458 0.020368038 -0.023992967 0.003570576
-0.00014517701 0.14565602 -0.15479127 -0.25521427 0.014806962 0.028405001 0.020946229 -0.18867376
0.33522564 0.36554968 -0.07656933 -0.027347831 0.0065236334 -0.18828188 0.091858044 -0.0018907231
0.027280059 -0.20468985 0.13424496 0.22158651 -0.02807926 0.025432475 -0.3408667 0.10965294
-0.1906667 0.22950707 0.10622216 -0.0025069977 0.068816185 -0.15358159 0.06976674 -0.14150259
-0.114663914 -0.16402093 -0.3463511 0.033649396 0.062613234 0.15014358 0.08939197 -0.20085628
0.0296427 0.05291697 0.005585601 0.23812321 0.07233117 -0.503627 0.3409677 -0.046873186
0.07113605 -0.25063673 0.12617737 0.006509798 0.488839 -0.03568333 0.05856449 -0.47259852
00000000: 35b6 89bd 9f3a 28bd 8806 d2bb 7b92 003e
00000010: 503c 90be 909d 03bd 9c94 723e 641b 7e3d
00000020: 5c71 933e e080 9cbe 43de 9b3e d4da 1b3c
00000030: c446 d6bd 3642 d5bd 3760 583e b876 d33e
00000040: 42a3 07be c0e5 69be de5e 0abf f49d 90bc
00000050: b878 313d 78e6 a43e 8ba6 d53d 87a6 bbbc
00000060: 9cc3 8a3c fd78 be3d 9b8e 52be 2f62 07c0
00000070: a22e 023d f235 103e 39d8 7e3d 28d5 153c
00000080: dc20 5a3c 1deb 223d c86f 8dba b876 b7ba
00000090: 0f57 553e b992 28be 64bb 953d b586 d23d
000000a0: 4fff 093e 4a5b 81bc 890e 6bbc 37c6 38bd
000000b0: 30ee b2bc 2f46 fd3e 435b 3a3c 34b0 773c
000000c0: edbe 89bf 3bf2 533e 5e49 11bc f7b9 29bd
000000d0: dfb4 643d b6fe 8abc 3ac9 303f 5daa 28bc
000000e0: f34c cfbc b24c 323c 62fc f5be 9bfd 163d
000000f0: 517d aebc 7573 92bc af52 4dbd 8efa 3bbf
00000100: e06d ec3c 06b7 3cbf 320f e23d 2d38 b6bc
00000110: 8ad5 66bf f95b c0b9 c393 0a3c 2e1e 5b3c
00000120: e32e 2dbf bf72 293e 5c79 c93c 479a 163c
00000130: 2d87 7a3e bdec 85bd 1e45 febc 42d0 463e
00000140: a265 de3d d92f 9c3e c798 58be 2dc7 7bbc
00000150: a5c8 a5be dbf4 cebd 5cce 3f3e 6ae6 8dbd
00000160: 54e9 32be 73e5 b13e 54ad 8bbe ffbc b13d
00000170: 65a5 3a3e 415f 603b 948e 483e 5374 0a3d
00000180: bc4f 1ebe caed 3ebe 2581 443d de1e a3bd
00000190: 0a76 b7be 85d5 073e e61a ec3e 2cd1 193e
000001a0: a0fb 463d 65fa 3b3d c341 5c3c da9d 1abf
000001b0: 43d9 2e3e c3c6 05bd 3604 d2bc 2d31 40be
000001c0: e97d a7bd 5f53 a23e 9d98 bfbc 1239 8a3d
000001d0: 5fb0 02bd 9a3c b3bf 6f1f 9b3d 1b02 5a3d
000001e0: 69ce 003e c491 373d 1618 9a3d 43c1 673d
000001f0: 9142 243d 8acd 4f3d 4b22 f13e b9a9 353e
00000200: 14a9 fabd 0f5c 873d 6698 42be 6cd9 9a3d
00000210: b20d d5bc af64 27bc b963 47be c10d 073f
00000220: effc ecbe b7d1 cbbc 2d0c 7bbc 6d62 1ebc
00000230: 2835 0b3d 6b3c 503c d53b 32bb cc6f a93c
00000240: 6b44 a73d 9a38 253e d671 4f3e 32da 283e
00000250: 752c 0f3d 3742 14be 938e 80bd 66bb a6bd
00000260: b33d 54be eb03 0dbd 21bb 3a3e 578f 6b3d
00000270: a9f5 75be fd65 0dbe 0cfe 263d 2b3b 09be
00000280: 59ac c83d 3444 853d 4147 07bf a055 7abc
00000290: 9bdc 203c 65e8 a5bc 6350 fa3d c364 8ebd
000002a0: fd4a fe3c 49ed f83d 3206 a33e b147 013f
000002b0: cbb8 cabd 8e82 023e 6227 2cbc 8f8f 11bf
000002c0: 437b c9bd 3559 733d 36b0 efbd 06ff 1cbe
000002d0: c093 3b3e 0d37 91be 993b bcbb 4dea 90be
000002e0: 35fa bfbd ac5f 0eba 245f 2bbe 8d1f 273e
000002f0: 4b49 b73d cc71 293f 75f2 c4bd 4156 ec3d
00000300: 3eef 1bbe c429 2fbe 9590 eebc 34eb a4bd
00000310: f404 373d dfda a63c e68c c4bc 5300 6a3b
00000320: a83a 18b9 da26 153e 9a81 1ebe 72ab 82be
00000330: e698 723c 9bb1 e83c 6d97 ab3c b233 41be
00000340: b2a2 ab3e 5429 bb3e 62d0 9cbd 8f08 e0bc
00000350: 34c4 d53b f7cc 40be 1220 bc3d 24d2 f7ba
00000360: 6e7a df3c 379a 51be 8377 093e 93e7 623e
00000370: 7a06 e6bc c457 d03c 1586 aebe b891 e03d
00000380: 223e 43be e703 6b3e 018b d93d 714c 24bb
00000390: 80ef 8c3d 7e44 1dbe dde1 8e3d 0ee6 10be
000003a0: ead4 eabd 1af5 27be ee54 b1be f3d3 093d
000003b0: 5e3b 803d 3dbf 193e 2313 b73d 45ad 4dbe
000003c0: 3fd5 f23c 77bf 583d 6b07 b73b 92d6 733e
000003d0: 5d22 943d b3ed 00bf 5293 ae3e 19fe 3fbd
000003e0: c7af 913d 7553 80be a434 013e 2550 d53b
000003f0: 1b49 fa3e af28 12bd 52e1 6f3d 6ff8 f1be

conv_layers.0.bias f4 [32]
-0.83179194 -0.6625048 0.5764417 0.63964236 -0.43890837 0.16447033 0.023942921 0.6404462
0.0053752693 -0.34738296 0.3336951 -0.12524888 -0.6651718 0.66406596 -0.75154364 0.30092138
-0.5574247 0.45971477 0.529397 0.34860644 0.5609156 -0.72270495 0.36766577 -0.96237004
0.4204375 0.42086428 0.6081506 -0.66573036 -0.060777072 0.38926095 0.56814533 -0.7641213
00000000: 51f0 54bf ea99 29bf af91 133f 9abf 233f
00000010: 99b8 e0be e96a 283e f223 c43c 48f4 233f
00000020: 0723 b03b 2edc b1be 16da aa3e 3e41 00be
00000030: b348 2abf 3a00 2a3f 2a65 40bf 5e12 9a3e
00000040: 63b3 0ebf bc5f eb3e 9086 073f 8b7c b23e
00000050: 2a98 0f3f 3103 39bf b03e bc3e e25d 76bf
00000060: 9643 d73e 867b d73e c2af 1b3f 4e6d 2abf
00000070: 61f1 78bd 364d c73e f971 113f 749d 43bf

fc_state.0.weight f4 [64, 512]
0.010458142 -0.016638702 -0.020199101 -0.007552592 0.03150626 -0.035210956 0.020532737 -0.039390743
0.031024309 -0.015959589 -0.02233548 0.03470238 0.027011614 -0.0058141076 0.0012310944 0.02377963
0.029828468 -0.028193444 -0.010580986 0.02874171 0.027121559 -0.0025099397 -0.008204927 0.006527509
-0.017500812 0.02581473 -0.032232348 0.011878308 0.013890899 -0.01821376 0.026344199 0.03289114
0.007999371 -0.04748882 0.020548908 0.0073288656 0.010773639 1.6603479e-05 -0.003495992 -0.024493847
-0.0023009619 -0.034224533 0.029035354 0.014513418 0.0015785216 -0.0028956635 0.0057979366 -0.040415857
-0.024988407 -0.046403956 -0.006863624 0.033550173 -0.04729739 0.029465722 0.01257873 -0.014284738
-0.04039954 -0.035053674 -0.02498094 0.009997702 0.011307084 0.0025960105 -0.044546973 -0.04289966
0.019211117 0.012221047 0.0102369785 -0.0062528774 0.030673934 0.021992499 0.018449184 0.021776767
0.0062556583 0.0072281356 0.027294127 0.008918738 -0.0065139458 -0.02473678 -0.033771962 -0.029978791
0.007585386 0.03930438 -0.039853126 -0.008021861 0.03727802 0.010995366 0.034080163 0.039750166
0.009677004 -0.013439587 -0.023571135 -0.0007346086 -0.009136591 0.0015052757 -0.0045439154 0.014483941
-0.048700456 -0.026679255 0.017899588 -0.011724686 -0.0110768685 -0.0047428817 -0.03973085 -0.010742786
-0.03569007 -0.00072074897 -0.031274077 -0.035830695 0.009350437 0.006668949 0.02378902 0.016021453
0.016315334 -0.002955782 0.0038501765 0.00485609 0.010089434 -0.008446742 0.019971829 -0.017073214
0.027653752 -0.04678046 0.033430554 0.03935542 0.032705955 -0.03932572 -0.029621737 -0.019772848
0.032768995 0.008925343 -0.042205468 -0.019726146 0.03696811 0.0048164465 -0.034710694 -0.014906087
0.04297943 0.018822787 0.021248724 0.0126135815 0.011286914 -0.002187036 0.017196244 0.025792675
0.029944433 -0.021388952 -0.04065385 0.032150008 0.014924914 0.025905814 -0.047031738 0.009487384
0.041539844 -0.04209675 -0.006930078 0.0014890424 -0.03965336 0.039029002 0.021326488 0.017099805
-0.005412914 -0.024976734 0.006592544 -0.01630381 0.02399307 0.022751477 -0.014784768 0.025827289
-0.0022783845 -0.042607922 0.006949744 0.03166326 0.023759851 0.0016614626 -0.02614038 -0.035562348
-0.038096942 -0.019674333 -0.04156264 -0.027751012 0.031439465 0.00057774456 0.0389696 -0.027263038
0.021737944 0.0020170435 0.0014991909 0.03992134 -0.042539876 -0.015838385 -0.0009643994 -0.0055992715
-0.021503039 -0.023024602 -0.0383707 -0.041435044 0.020444112 0.0007772499 -0.038662516 -0.034255393
-0.029130027 -0.012375883 0.018174272 -0.009832826 -0.032105125 -0.009837142 -0.04623179 -0.027344888
-0.032168582 -0.013791291 -0.0253501 -0.008963238 0.038564257 0.0074870605 0.013454445 -0.041752134
0.033388406 -0.02364325 -0.0044323206 -0.010219311 -0.020013914 -0.016851706 -0.009421683 0.031011866
-0.041911565 0.003547179 0.016006246 0.002331479 -0.03474367 0.021224458 -0.031205868 -0.0048993267
-0.041064374 0.009566217 0.023025313 -0.007278186 0.03777328 -0.03429719 -0.0093042 0.0006048425
-0.029453235 -0.018587684 -0.042589754 0.021503985 0.018320654 0.011591762 0.034306794 -0.0019353247
-0.023735764 -0.04357025 0.017458156 -0.035162654 0.019877728 -0.040304743 0.03386513 -0.026026955
00000000: a058 2b3c e34d 88bc 9678 a5bc bc7b f7bb
00000010: b50c 013d 5d39 10bd 4534 a83c 3058 21bd
00000020: b126 fe3c afbd 82bc e6f8 b6bc 1524 0e3d
00000030: 7647 dd3c 4584 bebb ac5c a13a 80cd c23c
00000040: d55a f43c f0f5 e6bc df5b 2dbc bc73 eb3c
00000050: 082e de3c cd7d 24bb f56d 06bc b7e4 d53b
00000060: dd5d 8fbc 6a79 d33c 1106 04bd 3c9d 423c
00000070: a796 633c 0635 95bc cacf d73c dcb8 063d
00000080: cb0f 033c a383 42bd 2f56 a83c fb26 f03b
00000090: eb83 303c b347 8b37 031d 65bb 52a7 c8bc
000000a0: bccb 16bb 062f 0cbd 8ddb ed3c b0c9 6d3c
000000b0: 65e6 ce3a 2cc5 3dbb 9efc bd3b 198b 25bd
000000c0: 7db4 ccbc 1312 3ebd 40e8 e0bb e86b 093d
000000d0: e8ba 41bd 1962 f13c 0417 4e3c 890a 6abc
000000e0: fd79 25bd 7194 0fbd d4a4 ccbc 67cd 233c
000000f0: 5941 393c d421 2a3b e376 36bd 8eb7 2fbd
00000100: a260 9d3c c93a 483c 00b9 273c f0e4 ccbb
00000110: e747 fb3c 9d29 b43c be22 973c 3165 b23c
00000120: 44fc cc3b ffd9 ec3b ef97 df3c e61f 123c
00000130: f072 d5bb caa4 cabc 7854 0abd 1596 f5bc
00000140: d48e f83b a1fd 203d 083d 23bd 206e 03bc
00000150: d6b0 183d e825 343c a497 0b3d 12d1 223d
00000160: 4c8c 1e3c b731 5cbc 4118 c1bc c092 40ba
00000170: a4b1 15bc ac4c c53a 20e5 94bb 0d4e 6d3c
00000180: 217a 47bd 748e dabc 28a2 923c e618 40bc
00000190: c17b 35bc 2d6a 9bbb d1bc 22bd 8302 30bc
000001a0: c02f 12bd a5f0 3cba 3f19 00bd 35c3 12bd
000001b0: 9332 193c 3387 da3b 31e1 c23c 6c3f 833c
000001c0: bca7 853c cbb5 41bb 3e53 7c3b d61f 9f3b
000001d0: 274e 253c 3464 0abc f69b a33c 20dd 8bbc
000001e0: 1f8a e23c de9c 3fbd 7aee 083d 2633 213d
000001f0: aef6 053d 0214 21bd 49a9 f2bc abfa a1bc
00000200: c838 063d 9a3b 123c a4df 2cbd ba98 a1bc
00000210: df6b 173d 48d3 9d3b cd2c 0ebd a938 74bc
00000220: 330b 303d 3f32 9a3c ce11 ae3c 32a9 4e3c
00000230: c0ec 383c 6054 0fbb 23df 8c3c 294b d33c
00000240: 074e f53c e237 afbc a784 26bd baaf 033d
00000250: a087 743c 6e38 d43c 5aa4 40bd f970 1b3c
00000260: af25 2a3d a46d 2cbd b515 e3bb f92b c33a
00000270: 906b 22bd e0dc 1f3d e3b4 ae3c e414 8c3c
00000280: d05e b1bb 029c ccbc 4406 d83b 918f 85bc
00000290: 1d8d c43c 4e61 ba3c d03b 72bc c093 d33c
000002a0: f350 15bb a585 2ebd aeba e33b 56b1 013d
000002b0: 05a4 c23c 6fc5 d93a 5a24 d6bc d3a9 11bd
000002c0: 8a0b 1cbd 112c a1bc 963d 2abd 1756 e3bc
000002d0: abc6 003d c873 173a 969e 1f3d bc56 dfbc
000002e0: c613 b23c 6030 043b 8080 c43a 8f84 233d
000002f0: 4b3e 2ebd 80bf 81bc c0cf 7cba 187a b7bb
00000300: 2427 b0bc 179e bcbc 982a 1dbd cbb7 29bd
00000310: 697a a73c 5cc0 4b3a 965c 1ebd 624f 0cbd
00000320: 18a2 eebc 37c4 4abc 36e2 943c dd19 21bc
00000330: aa80 03bd f72b 21bc 8c5d 3dbd 6302 e0bc
00000340: 34c3 03bd def4 61bc 03ab cfbc 8cda 12bc
00000350: 8ef5 1d3d 0456 f53b 0870 5c3c 4904 2bbd
00000360: 48c2 083d 7daf c1bc 003d 91bb e66e 27bc
00000370: 38f4 a3bc 970c 8abc 675d 1abc 990c fe3c
00000380: 76ab 2bbd ca77 683b 881f 833c bacb 183b
00000390: 614f 0ebd eade ad3c 73a3 ffbc 888a a0bb
000003a0: 1e33 28bd 9fbb 1c3c 959f bc3c d97d eebb
000003b0: 28b8 1a3d 367b 0cbd a570 18bc 4b8e 1e3a
000003c0: e947 f1bc 3345 98bc 9872 2ebd 2029 b03c
000003d0: 3215 963c 60eb 3d3c 4885 0c3d b9aa fdba
000003e0: 8171 c2bc b876 32bd 6804 8f3c b706 10bd
000003f0: 9ed6 a23c 9616 25bd 2ab6 0a3d 7b36 d5bc

fc_state.0.bias f4 [64]
-0.003643741 -0.031771407 0.077222615 -0.03041678 -0.0028048563 -0.009209445 -0.021051902 0.027622512
0.061774455 0.034020964 0.029229257 -0.11529509 -0.019348005 0.02703821 0.023099786 0.06567006
-0.024731038 -0.045745365 -0.04729405 0.12502608 -0.042789906 -0.027334927 -0.01711301 -0.03586511
0.02094227 0.1196563 0.014435 -0.0019962615 -0.03806987 0.10370053 -0.022585317 0.005646128
-0.03713581 -0.095181525 -0.0361954 0.06927007 -0.04339279 -0.044261646 0.08895768 -0.11599927
-0.007518482 -0.044510376 0.024429807 -0.027425747 0.1014153 -0.0028640167 0.03851537 -0.022083895
-0.032616794 0.0903877 -0.06309064 0.0059076785 -0.045542926 -0.05810578 0.04883079 -0.057562985
-0.0069005736 0.13138837 -0.026244968 0.00162483 -0.07226873 0.011180738 -0.062055547 0.011722472
00000000: d4cb 6ebb bc22 02bd e426 9e3d 9c2c f9bc
00000010: aed1 37bb 36e3 16bc 0a75 acbc 9b48 e23c
00000020: 3607 7d3d 9159 0b3d 3272 ef3c d51f ecbd
00000030: b57f 9ebc 3c7f dd3c c33b bd3c 067e 863d
00000040: bf98 cabc 7e5f 3bbd 68b7 41bd d606 003e
00000050: 7844 2fbd 7fed dfbc 9530 8cbc 4be7 12bd
00000060: 208f ab3c 5d0e f53d c780 6c3c b6d3 02bb
00000070: 27ef 1bbd f260 d43d d804 b9bc 2803 b93b
00000080: b81b 18bd 88ee c2bd a141 14bd 77dd 8d3d
00000090: a3bc 31bd b34b 35bd 722f b63d 0691 edbd
000000a0: 995d f6bb 8350 36bd 0521 c83c f6ab e0bc
000000b0: d3b2 cf3d 3ab2 3bbb 4bc2 1d3d 49e9 b4bc
000000c0: 3099 05bd 301d b93d aa35 81bd 3395 c13b
000000d0: 388b 3abd 5400 6ebd cb02 483d 2ac7 6bbd
000000e0: 351e e2bb ac8a 063e b0ff d6bc 3ff8 d43a
000000f0: a101 94bd 6a2f 373c f52d 7ebd 9c0f 403c

fc_state.2.weight f4 [32, 64]
-0.10886187 0.0902663 0.07391752 0.05125487 0.115530476 -0.07883697 -0.010298318 0.028778711
-0.20830387 -0.10728351 0.050301593 -0.16446397 -0.10791886 -0.68490434 -0.049796797 0.12153749
-0.11711537 0.11126457 0.06767637 -0.08680546 -0.10770669 0.0358124 -0.08730642 -0.06361502
0.113635145 -0.12918971 -0.012886331 0.06459805 0.030126119 -0.008596319 -0.004329373 -0.5662912
0.054211978 -0.22744608 -0.10500098 -0.47993216 -0.0653799 0.015126839 -0.24378656 -0.26694524
0.070828475 -0.0068965848 0.081198685 -0.038584743 0.1290608 -0.011279278 -0.14084736 -0.070737384
0.11132913 -0.0031551183 0.23218386 0.058215424 0.082176775 0.08722059 -0.017183105 -0.09802574
0.027511971 0.010210075 0.11124255 0.17126083 0.100148216 0.003654479 -0.057967808 -0.052123524
0.09308802 -0.117903806 0.110855475 -0.0027338956 0.05983715 0.06610269 0.03356331 -0.068732075
0.07092412 -0.11132483 0.10970711 -0.111034915 0.045891806 0.10535891 -0.014242015 0.01821234
-0.034537323 0.048258036 -0.0005695143 0.16298188 -0.0056895483 0.045814857 0.03268559 0.022459855
-0.012424384 -0.052108977 0.07140656 0.02076172 0.074984856 0.1996034 -0.0031171124 0.26520988
0.058756392 0.11855518 0.06004135 0.03810364 0.13972095 -0.119694605 0.1284734 -0.03484971
0.109822884 0.053656496 0.055610918 -0.10151581 0.08396322 -0.065655805 0.19387352 0.08117496
-0.01079822 0.24983035 0.018357437 0.07900147 -0.022617785 0.057371825 -0.05207416 -0.036979377
-0.048128624 0.25093418 -0.0976343 -0.24057238 -0.050461702 0.056885168 0.03402851 0.19258209
0.10767854 -0.041155517 -0.0022491128 0.10461218 0.09727482 0.10960678 -0.061627023 -0.06530648
0.71553993 0.06694838 0.002792926 -0.21500997 -0.13772507 -0.23205766 -0.07700273 -0.13280217
-0.02118258 0.0328207 -0.08082379 -0.19550581 -0.121263154 0.070095055 0.088101044 -0.054422073
-0.09166463 0.1470291 -0.11601165 0.11853267 -0.050148163 0.17260705 0.0678532 -0.37511173
0.12526657 -0.10448758 -0.120455265 -0.118729085 -0.04383028 0.10541619 0.01577651 -0.012730593
0.110884555 -0.010780822 0.111521795 0.121966965 0.034959957 -0.098887466 0.022813685 -0.030444536
0.0034792367 0.23264067 0.036047544 -0.028626714 -0.11036545 0.11191684 -0.3267422 0.07375879
-0.07093941 0.016457906 -0.04513354 -0.2550355 0.0065857777 0.049313266 -0.02004177 0.011036619
0.11928798 -0.114781104 -0.3007186 0.059713274 0.0589892 0.02333738 -0.04304722 0.0794417
-0.5907084 0.050252404 -0.0244653 0.02477756 -0.083921514 -0.030065319 0.038496353 -0.56428915
-0.08858835 -0.03848168 0.059126113 0.15462196 -0.0010960086 -0.077298254 -0.013259433 -0.04128837
0.032916483 0.12191382 0.09527299 -0.0014028052 0.06126523 -0.050174486 -0.11381365 0.11108995
-0.12789908 0.0011585025 0.07740406 0.09038559 0.091511056 -0.04889118 -0.09307954 -0.0013168122
0.08194254 0.049767543 0.0090249395 0.06502472 0.23223397 -0.11388561 -0.32438114 -0.016186992
0.07944669 0.21796805 -0.0707718 -0.032046698 -0.079292394 0.11156406 -0.0067910133 -0.062445503
0.11736867 0.12495416 -0.047387056 -0.04524753 -0.06142081 -0.0062045897 -0.093557686 -0.58380324
00000000: f9f2 debd 8add b83d 1262 973d a0f0 513d
00000010: 3e9b ec3d 4775 a1bd 47ba 28bc 55c1 eb3c
00000020: 9c4d 55be 75b7 dbbd 0b09 4e3d 3e69 28be
00000030: 9004 ddbd e455 2fbf baf7 4bbd a6e8 f83d
00000040: 2fda efbd aede e33d e999 8a3d 10c7 b1bd
00000050: 5395 dcbd 06b0 123d b5cd b2bd 9748 82bd
00000060: 8bb9 e83d 4f4a 04be 3121 53bc fc4b 843d
00000070: 0dcb f63c 93d7 0cbc 6add 8dbb 76f8 10bf
00000080: 610d 5e3d a0e7 68be c10a d7bd abb9 f5be
00000090: e6e5 85bd 90d6 773c 2fa3 79be 0cad 88be
000000a0: 850e 913d bffc e1bb 7f4b a63d 090b 1ebd
000000b0: 8428 043e b9cc 38bc 4a3a 10be c3de 90bd
000000c0: 8700 e43d 1ac6 4ebb 9bc1 6d3e 4c73 6e3d
000000d0: 4c4c a83d b5a0 b23d 95c3 8cbc b8c1 c8bd
000000e0: c960 e13c 2948 273c 22d3 e33d 005f 2f3e
000000f0: 821a cd3d fc7f 6f3b a76f 6dbd 7a7f 55bd
00000100: efa4 be3d 8d77 f1bd 3208 e33d 282b 33bb
00000110: cd17 753d d960 873d ae79 093d 67c3 8cbd
00000120: aa40 913d 46fe e3bd 1fae e03d 4666 e3bd
00000130: 0cf9 3b3d 6ac6 d73d 5757 69bc 0c32 953c
00000140: 0277 0dbd 38aa 453d 754b 15ba b9e4 263e
00000150: 646f babb 5ca8 3b3d 53e1 053d bbfd b73c
00000160: a58f 4bbc 3970 55bd 9a3d 923d 7c14 aa3c
00000170: a991 993d d564 4c3e 7848 4cbb 97c9 873e
00000180: 8baa 703d 0fcd f23d ebed 753d 9012 1c3d
00000190: 0213 0f3e 7222 f5bd 888e 033e 92be 0ebd
000001a0: d2ea e03d eac6 5b3d 46c8 633d 85e7 cfbd
000001b0: e9f4 ab3d 8d76 86bd c886 463e 0f3f a63d
000001c0: 04eb 30bc 87d3 7f3e 5662 963c 86cb a13d
000001d0: ef48 b9bc b8fe 6a3d b74b 55bd b077 17bd
000001e0: 8522 45bd 727a 803e 7ef4 c7bd 9b58 76be
000001f0: eeb0 4ebd 6c00 693d 7b61 0b3d 3d34 453e
00000200: 9186 dc3d b092 28bd da65 13bb e93e d63d
00000210: 0538 c73d 8579 e03d 9e6c 7cbd 67bf 85bd
00000220: a02d 373f 3b1c 893d 8609 373b 932b 5cbe
00000230: cd07 0dbe 86a0 6dbe 9bb3 9dbd 4bfd 07be
00000240: 1787 adbc 006f 063d f186 a5bd ad32 48be
00000250: d158 f8bd ff8d 8f3d 526e b43d aee9 5ebd
00000260: aaba bbbd cc8e 163e 8497 edbd 42c1 f23d
00000270: 2968 4dbd e7bf 303e 9ef6 8a3d a50e c0be
00000280: e145 003e 96fd d5bd 40b1 f6bd 3c28 f3bd
00000290: 6187 33bd 72e4 d73d bd3d 813c fa93 50bc
000002a0: 7117 e33d 0ba2 30bc 8a65 e43d d1c9 f93d
000002b0: 2c32 0f3d 8385 cabd c4e3 ba3c d266 f9bc
000002c0: e803 643b 5b39 6e3e 97a6 133d 9282 eabc
000002d0: 4807 e2bd a834 e53d c14a a7be d90e 973d
000002e0: ae48 91bd bbd2 863c f2dd 38bd 0394 82be
000002f0: 82cd d73b b5fc 493d a32e a4bc efd2 343c
00000300: 424d f43d 5b12 ebbd caf7 99be e895 743d
00000310: a99e 713d 082e bf3c 4852 30bd 54b2 a23d
00000320: aa38 17bf 77d5 4d3d 746b c8bc 4ffa ca3c
00000330: 0bdf abbd 8b4b f6bc 5aae 1d3d 4175 10bf
00000340: cf6d b5bd f79e 1dbd 392e 723d 3855 1e3e
00000350: f2a7 8fba 8c4e 9ebd 183e 59bc fe1d 29bd
00000360: 6fd3 063d f4ad f93d 7c1e c33d 55de b7ba
00000370: 40f1 7a3d c383 4dbd 2217 e9bd 2183 e33d
00000380: faf7 02be e5d8 973a 0586 9e3d 151c b93d
00000390: 266a bb3d 1e42 48bd 7ca0 bebd e398 acba
000003a0: 7ed1 a73d 0dd9 4b3d 57dd 133c ae2b 853d
000003b0: bece 6d3e dc3c e9bd 4915 a6be 959a 84bc
000003c0: f2b4 a23d 0433 5f3e cef0 90bd 6643 03bd
000003d0: 0d64 a2bd b37b e43d 2687 debb dbc6 7fbd
000003e0: fc5e f03d f7e7 ff3d ee18 42bd 7955 39bd
000003f0: 6394 7bbd df4f cbbb 2c9b bfbd 2174 15bf

fc_state.2.bias f4 [32]
0.0044006193 0.22218923 0.011353394 0.1906631 -0.18979752 0.253605 0.072973646 -0.09342907
0.06242294 0.024585564 -0.14953113 0.16323614 -0.21139313 0.22528437 -0.030407792 -0.036853597
-0.012438257 -0.264251 0.15947747 0.24727283 -0.13549533 0.05664208 -0.22149883 -0.009304708
0.048011012 -0.0704972 0.24404822 0.22724256 -0.07872567 0.20404485 0.06219033 -0.27721018
00000000: 1233 903b 9385 633e 9603 3a3c 303d 433e
00000010: 485a 42be 84d8 813e 3573 953d be57 bfbd
00000020: 32af 7f3d aa67 c93c b01e 19be 6027 273e
00000030: 7177 58be f2b0 663e c319 f9bc ccf3 16bd
00000040: d5c9 4bbc e84b 87be 104e 233e 1735 7d3e
00000050: 4abf 0abe 8701 683d 97d0 62be c672 18bc
00000060: 32a7 443d d660 90bd c7e7 793e 46b2 683e
00000070: ed3a a1bd 22f1 503e 4abb 7e3d 7eee 8dbe

fc_state.4.weight f4 [1, 32]
-0.4222264 0.16609518 0.2829793 -0.32383102 -0.20093161 -0.07326529 0.08923551 -0.18376507
-0.14318176 -0.05954607 0.061162632 -0.30722806 -0.101574846 -0.029550109 -0.0025698305 0.12917285
0.28678125 -0.28008434 0.14471348 0.107659355 0.19465216 0.1011401 -0.14070038 -0.19973865
-0.17663881 -0.1747122 -0.14230219 -0.30767167 0.0044450355 -0.038458336 0.19806889 -0.25306287
00000000: 0f2e d8be db14 2a3e aae2 903e 2ecd a5be
00000010: 04c1 4dbe 1d0c 96bd 1bc1 b63d e92c 3cbe
00000020: 3d9e 12be 94e6 73bd ab85 7a3d ff4c 9dbe
00000030: 7906 d0bd 1213 f2bc 9a6a 28bb e345 043e
00000040: fed4 923e 3767 8fbe c52f 143e 827c dc3d
00000050: e552 473e 8a22 cf3d c313 10be 4a88 4cbe
00000060: cee0 34be c1e7 32be aab7 11be 2487 9dbe
00000070: a9a7 913b 7d86 1dbd 92d2 4a3e 7591 81be

fc_advantage.0.weight f4 [64, 512]
-0.042060576 -0.037115086 -0.027068086 0.015004191 0.02320945 -0.028472053 -0.000112621885 0.023754809
0.011856331 -0.027251406 -0.0288116 -0.05093228 -0.016559672 -0.04578696 -0.04266879 0.0037080667
-0.05194731 -0.033323687 0.022829613 0.016297199 0.029643113 0.024563968 -0.027877932 -0.0368431
0.017435325 -0.015850758 0.04356691 0.004510311 -0.039053753 -0.045377437 0.0295633 0.025330754
0.029380905 -0.023822252 0.02770903 -0.038134642 0.02299881 -0.032245066 -0.016969027 -0.0005233069
0.010855733 -0.009472032 0.008364901 -0.030596908 -0.018951355 0.028472843 0.026536414 -0.012031807
0.010810711 -0.0052960534 -0.011259352 -0.043750938 0.006950592 -0.01994939 -0.016568827 0.040555432
-0.03298694 -0.00029591224 0.015997414 -0.04051086 -0.035476234 0.016863173 -0.0033117244 0.039816108
-0.014911341 -0.04391053 -0.03645661 -0.036088075 -0.028914496 -0.020569734 -0.044156328 -0.02421553
0.0013381141 0.014423243 -0.0330942 -0.040663194 -0.009174553 -0.04465128 0.019842729 -0.04992765
0.014931711 -0.034016166 -0.0059897215 0.0026294694 -0.049484685 0.035822123 -0.03368694 -0.033005703
-0.022594629 -0.018191606 0.01977163 0.039884787 0.020876896 -0.0039152037 -0.032743577 0.00013454973
0.014512736 0.024125595 0.016379697 -0.0029307224 0.033156153 0.0035178766 0.04162238 0.029144691
-0.016044462 0.0044435537 -0.0056279125 0.010218879 0.020172207 -0.042092096 0.023143975 0.017977392
0.008445433 0.019198403 -0.015275416 0.01982587 0.022084935 -0.01724541 -0.023281751 0.034001578
-0.017037138 -0.047405567 0.008783238 -0.0015663616 -0.04435886 -0.04255372 0.0169401 0.029915683
0.01584406 -0.018211868 0.0190734 0.010893978 -0.015656183 -0.03286704 -0.03616555 -0.0026734504
-0.0036275776 0.031718384 -0.037451923 -0.015234172 0.0268009 0.0051510655 -0.0036729274 -0.039925274
-0.0021148443 0.025504025 0.003473141 0.009165652 0.009688873 -0.013757178 0.016297176 0.012462485
-0.027772123 0.006631068 0.0263859 0.02488408 0.030990839 0.03472184 -0.0458873 0.014503402
0.011666922 -0.02528028 -0.05312397 0.003548404 -0.0157433 -0.016019043 -0.04764729 -0.04703492
-0.004514168 0.0041643223 -0.0068537304 -0.0030753124 0.03170362 0.00037510926 -0.033022836 0.01665384
0.037246916 -0.023809213 0.037520304 -0.005277781 -0.03328209 -0.00032828827 0.043573532 0.04086232
0.038141508 -0.0037811026 -0.03765023 0.0407916 -0.039991897 0.0013952155 -0.021758648 -0.014507755
-0.005635359 -0.057767898 0.01630499 0.0236427 0.012740637 0.031486973 0.0069383346 -0.023706518
-0.00017848914 0.0072967047 0.020479241 -0.009977079 0.028781159 0.013852649 0.04438597 0.018911216
-0.0060937796 0.017423222 0.039195597 0.02093251 -0.025545621 -0.0051373974 0.0024139504 -0.020934395
0.033752732 -0.012666778 -0.03640643 0.014486574 0.021131443 0.016287124 0.020979175 -0.04582855
-0.0016735372 -0.028738491 0.0060553025 -0.04058794 -0.011583262 -0.006559762 -0.04924709 0.0017763918
-0.023014475 -0.0090031475 -0.004459569 -0.013844919 0.013947358 -0.035157382 -0.039747935 0.030122979
-0.005887692 0.031244637 -0.01140839 -0.027370548 0.009101132 -0.018012974 -0.043016117 0.016293827
-0.04462659 -0.04588442 -0.037747752 -0.039152514 0.014560093 0.034416508 -0.04582542 0.020863777
00000000: b647 2cbd fd05 18bd e4bd ddbc 23d4 753c
00000010: bf21 be3c 393e e9bc 6a2f ecb8 7299 c23c
00000020: 0e41 423c 573e dfbc 4e06 ecbc 5e9e 50bd
00000030: 26a8 87bc 1b8b 3bbd 78c5 2ebd 0903 733b
00000040: b4c6 54bd 6b7e 08bd 2b05 bb3c b481 853c
00000050: 1dd6 f23c 603a c93c 4360 e4bc cae8 16bd
00000060: 87d4 8e3c 73d9 81bc 3773 323d 3bcb 933b
00000070: d4f6 1fbd b1dd 39bd bc2e f23c 7182 cf3c
00000080: 39b0 f03c e226 c3bc 0cfe e23c 1233 1cbd
00000090: 0068 bc3c 6713 04bd a102 8bbc 882e 09ba
000000a0: 3fdc 313c 9530 1bbc f00c 093c 5ea6 fabc
000000b0: df3f 9bbc e13f e93c e562 d93c 0e21 45bc
000000c0: 691f 313c 848a adbb 2579 38bc 2f34 33bd
000000d0: cbc1 e33b e76c a3bc 59bb 87bc 741d 263d
000000e0: 501d 07bd ab24 9bb9 020d 833c b7ee 25bd
000000f0: 874f 11bd a324 8a3c 8409 59bb 3716 233d
00000100: b24e 74bc 87db 33bd 8753 15bd 17d1 13bd
00000110: 18de ecbc dc81 a8bc 44dd 34bd a65f c6bc
00000120: a963 af3a 774f 6c3c c98d 07bd 738e 26bd
00000130: dd50 16bc 43e4 36bd 388d a23c ef80 4cbd
00000140: 23a4 743c 8954 0bbd 6d45 c4bb 2d53 2c3b
00000150: 74b0 4abd 38ba 123d 51fb 09bd fd30 07bd
00000160: 5f18 b9bc 9006 95bc 1df8 a13c 3b5e 233d
00000170: 0606 ab3c 1c4b 80bb 211e 06bd eb15 0d39
00000180: d4c6 6d3c 0aa3 c53c b72e 863c 5d11 40bb
00000190: bfce 073d 2d8c 663b 3b7c 2a3d d9c0 ee3c
000001a0: ad6f 83bc 3b9b 913b 5a6a b8bb 166d 273c
000001b0: 2f40 a53c c368 2cbd 6f98 bd3c 5345 933c
000001c0: b75e 0a3c f845 9d3c bd45 7abc dd69 a23c
000001d0: 77eb b43c 3f46 8dbc 5fb9 bebc 3d45 0b3d
000001e0: 7891 8bbc 572c 42bd 92e7 0f3c 604e cdba
000001f0: a3b1 35bd cf4c 2ebd f7c5 8a3c bc11 f53c
00000200: 67cb 813c 0e31 95bc d23f 9c3c a87c 323c
00000210: 6541 80bc 979f 06bd 5422 14bd 0e35 2fbb
00000220: a7bc 6dbb 23eb 013d 3067 19bd c098 79bc
00000230: 908d db3c 45ca a83b 7fb5 70bb af88 23bd
00000240: 3399 0abb d1ed d03c a39d 633b 882b 163c
00000250: 14be 1e3c c965 61bc a881 853c 732f 4c3c
00000260: 5d82 e3bc 6e49 d93b 3e27 d83c b3d9 cb3c
00000270: 80e0 fd3c 7d38 0e3d 52f4 3bbd ad9f 6d3c
00000280: 9e26 3f3c 9718 cfbc 8598 59bd 578c 683b
00000290: 18f8 80bc 5e3a 83bc ce29 43bd b0a7 40bd
000002a0: 96eb 93bb de74 883b 4295 e0bb 2e8b 49bb
000002b0: a8db 013d 50aa c439 f442 07bd a26d 883c
000002c0: 3990 183d 8a0b c3bc e4ae 193d 3cf1 acbb
000002d0: cd52 08bd 1b1e acb9 297a 323d 405f 273d
000002e0: 453a 1c3d 60cc 77bb 2137 1abd 1815 273d
000002f0: 8bce 23bd aadf b63a 313f b2bc efb1 6dbc
00000300: d1a8 b8bb 089e 6cbd 0b92 853c 56ae c13c
00000310: 1bbe 503c 7cf8 003d f85a e33b 2c34 c2bc
00000320: d028 3bb9 3219 ef3b 15c4 a73c e776 23bc
00000330: 77c6 eb3c 39f6 623c 10ce 353d b2eb 9a3c
00000340: 54ae c7bb 25bb 8e3c 908b 203d a87a ab3c
00000350: 0d45 d1bc 9d57 a8bb 5e33 1e3b 9c7e abbc
00000360: 4e40 0a3d 5188 4fbc e91e 15bd 1859 6d3c
00000370: d91b ad3c 936c 853c 85dc ab3c b8b6 3bbd
00000380: 975a dbba fc6c ebbc 8f6b c63b 8a3f 26bd
00000390: b9c7 3dbc 46f3 d6bb 51b7 49bd d1d5 e83a
000003a0: da88 bcbc f081 13bc 9421 92bb cdd5 62bc
000003b0: 7683 643c 3001 10bd bbce 22bd 77c4 f63c
000003c0: 8aed c0bb c1f4 ff3c 41ea 3abc 3338 e0bc
000003d0: ea1c 153c f28f 93bc ab31 30bd a27a 853c
000003e0: 5fca 36bd 4df1 3bbd 639d 1abd 635e 20bd
000003f0: 758d 6e3c 53f8 0c3d 70b3 3bbd 83ea aa3c

fc_advantage.0.bias f4 [64]
-0.049761914 0.2014633 -0.24328108 -0.0063714883 -0.25132537 -0.46551597 0.113387495 0.006002647
-0.023024997 -0.19120884 0.3510352 -0.06681133 -0.07172566 -0.12509412 -0.04272297 -0.068919405
-0.4888815 0.09742707 -0.010911859 -0.1301698 0.045173503 -0.015203613 -0.04137832 0.21871793
0.5346152 -0.028304322 0.06976769 0.14437993 0.100443445 -0.058750216 -0.12018794 -0.026818302
0.8006197 0.102504246 0.59437925 -0.38270026 -0.17228796 0.10869587 -0.25409585 0.095277414
0.38391054 -0.0015713965 -0.012854248 0.0596356 -0.08461979 -0.053774953 -0.03436762 -0.013852765
0.30922028 0.03256057 0.3872369 0.13067405 0.37320232 0.07350337 -0.024329355 -0.23510377
0.14249685 0.122698076 -0.035515383 -0.043917388 0.049133983 -0.06647963 -0.11129326 -0.28826058
00000000: 26d3 4bbd 654c 4e3e ad1e 79be ebc7 d0bb
00000010: b8ad 80be 1c58 eebe b437 e83d dab1 c43b
00000020: eb9e bcbc 40cc 43be e3ba b33e 61d4 88bd
00000030: e7e4 92bd ac18 00be 48fe 2ebd 9e25 8dbd
00000040: ad4e fabe d887 c73d a7c7 32bc 3b4b 05be
00000050: da07 393d 9318 79bc 507c 29bd 98f7 5f3e
00000060: 8bdc 083f 77de e7bc 5de2 8e3d 55d8 133e
00000070: 4bb5 cd3d 11a4 70bd 1825 f6bd 0eb2 dbbc
00000080: 6af5 4c3f bfed d13d 3d29 183f 4af1 c3be
00000090: 416c 30be f19b de3d da18 82be ce20 c33d
000000a0: ec8f c43e 51f7 cdba a09a 52bc 7544 743d
000000b0: 244d adbd 2043 5cbd 10c5 0cbd b5f6 62bc
000000c0: 1f52 9e3e 3b5e 053d ea43 c63e 6bcf 053e
000000d0: 6014 bf3e ef88 963d 5b4e c7bc 0bbf 70be
000000e0: b2ea 113e 2149 fb3d 9478 11bd b8e2 33bd
000000f0: b740 493d 7926 88bd b8ed e3bd e496 93be

fc_advantage.2.weight f4 [32, 64]
-0.097718194 -0.18108796 0.09408861 -0.058041193 -0.040638033 -0.1263884 -0.14919227 0.19457681
-0.04275021 -0.119504526 0.060452335 -0.0056128963 0.03309362 -0.04517568 -0.02138541 -0.06760863
-0.07643603 0.030246772 0.050804995 0.13501059 -0.12555982 -0.046963193 -0.094879426 -0.19789518
0.111995555 -0.08532519 -0.18035927 0.28526437 0.002003966 0.003300087 0.11862648 0.07354742
0.10643419 -0.020460926 0.019617004 -0.1888315 0.08534459 -0.07543127 -0.08568474 -0.15341464
0.009601446 0.034884997 0.06498562 -0.48917434 0.10625183 0.06565753 0.00326404 -0.061426654
0.14006014 -0.041971345 -0.046680707 0.0086721135 0.07062701 -0.25482622 0.08674164 -0.050673045
-0.39009482 -0.1401118 -0.0035729767 0.111749955 0.04760276 -0.04558665 -0.28114337 -0.35528558
-0.0413432 -0.4069416 0.14882106 0.024558315 -0.055902656 -0.052327447 -0.24901651 0.02025259
0.018996743 -0.2380071 -0.1507618 -0.014447931 -0.021285055 0.043730773 -0.12719382 -0.041426383
-0.10799996 0.3458751 0.06738067 -0.070809074 -0.03238695 -0.23347998 -0.07992155 -0.20195743
0.22893551 0.0548398 -0.14266051 0.5703997 0.073578164 0.102114804 -0.07693154 -0.3273906
0.028524248 0.11619239 0.03558091 -0.039755933 0.034070063 -0.12056591 -0.27242994 0.19537047
-0.52859604 -0.0087643415 -0.09578698 -0.15911947 0.23659036 -0.015507824 -0.61282533 -0.123680055
-0.0446377 -0.21176249 0.092771664 -0.11712923 0.15221584 -0.56734324 -0.0008653892 0.16070636
-0.2682708 -0.03513096 -0.27675334 0.017968636 0.12296293 -0.04666604 -0.3722345 0.18097454
-0.07365267 -0.21805234 0.078312546 0.024463842 0.17415717 0.032929175 -0.24225384 0.052174915
0.07586452 0.020423561 -0.0973742 0.08798842 0.062283672 -0.07303209 0.010144862 0.07101524
0.18675871 0.058043394 -0.017151628 0.16913214 -0.0366989 0.21161574 0.055598825 -0.1752998
-0.07590534 -0.11045114 0.32614785 -0.16782008 0.058114786 0.15885562 0.08487292 0.1568538
-0.14351211 0.18617718 -0.14606471 0.019701965 0.014027546 0.31131482 0.1158127 0.09559368
0.061523262 0.053518753 0.16576052 -0.11793703 0.12357202 0.0029605555 -0.35450676 0.030900816
-0.09491338 0.23115358 -0.14421615 -0.21724482 0.011494897 -0.2481414 -0.07462621 0.239592
0.038576655 0.17527379 -0.29686397 0.03510925 0.09430479 0.08533641 -0.028454613 0.01547236
-0.027778042 0.09434844 -0.3055287 -0.02495639 -0.13629714 -0.4844044 -0.015607201 -0.672182
0.09971488 0.12576887 -0.06732063 0.2688946 -0.108832225 -0.19934113 -0.14456609 0.03170293
0.04297737 -0.16840719 -0.12991613 -0.013301141 -0.050311062 0.07464992 -0.06197886 0.29343453
-0.10791022 -0.031815156 0.04184765 0.00952167 -0.11284944 0.07687958 -0.18316254 0.2539887
0.0025157544 -0.23789991 0.055473838 -0.39536792 -0.26852027 0.07577298 0.005621624 -0.40627307
0.18626928 0.056889407 0.13988672 0.24752188 -0.3550913 -0.051956613 -0.05264369 0.091336615
-0.21553554 0.15418933 -0.06345754 0.30157292 -0.04683323 0.31481177 0.04869247 -0.2092935
0.23815578 0.14742447 0.062132146 0.09566286 -0.18841214 -0.088675566 0.068211325 -0.07436426
00000000: 7a20 c8bd 1f6f 39be 87b1 c03d 9abc 6dbd
00000010: 1174 26bd f66b 01be dcc5 18be 253f 473e
00000020: d81a 2fbd cabe f4bd de9c 773d 63ec b7bb
00000030: 2d8d 073d 220a 39bd 7530 afbc 6576 8abd
00000040: 7e8a 9cbd 14c8 f73c e618 503d 3740 0a3e
00000050: c192 00be 7a5c 40bd 2550 c2bd 09a5 4abe
00000060: ed5d e53d f9be aebd 1ab0 38be 2c0e 923e
00000070: f854 033b 4646 583b 71f2 f23d 08a0 963d
00000080: 2bfa d93d ac9d a7bc d7b3 a03c 0b5d 41be
00000090: 25c9 ae3d b67b 9abd 7b7b afbd ba18 1dbe
000000a0: 624f 1d3c 92e3 0e3d 2e17 853d 0f75 fabe
000000b0: 8f9a d93d 7577 863d 81e9 553b 849a 7bbd
000000c0: ed6b 0f3e 25ea 2bbd 4534 3fbd 7b15 0e3c
000000d0: e5a4 903d 9578 82be 9aa5 b13d 8a8e 4fbd
000000e0: 82ba c7be 7879 0fbe 9a28 6abb 29dd e43d
000000f0: 1dfb 423d 11b9 3abd 06f2 8fbe fee7 b5be
00000100: 7d57 29bd a65a d0be 8c64 183e 852e c93c
00000110: 2ffa 64bd 4e55 56bd 2ffe 7ebe c2e8 a53c
00000120: 0f9f 9b3c 22b8 73be 4d61 1abe 04b7 6cbc
00000130: ff5d aebc 0a1f 333d 193f 02be b6ae 29bd
00000140: 152f ddbd 8b16 b13e e0fe 893d 5904 91bd
00000150: 2ea8 04bd 6015 6fbe e9ad a3bd eecd 4ebe
00000160: 126e 6a3e b39f 603d 9915 12be b705 123f
00000170: 26b0 963d 9121 d13d 498e 9dbd be9f a7be
00000180: afab e93c 47f6 ed3d 4abd 113d 1ed7 22bd
00000190: 0d8d 0b3d 43eb f6bd f07b 8bbe 320f 483e
000001a0: 1252 07bf 5098 0fbc f72b c4bd 37f0 22be
000001b0: be44 723e 8714 7ebc 1fe2 1cbf f84b fdbd
000001c0: 05d6 36bd 44d8 58be 12ff bd3d 73e1 efbd
000001d0: 78de 1b3e 683d 11bf 49db 62ba 3590 243e
000001e0: ca5a 89be 7be5 0fbd 9db2 8dbe f632 933c
000001f0: fdd3 fb3d e424 3fbd 8595 bebe 6451 393e
00000200: 36d7 96bd 1d49 5fbe 5462 a03d 6568 c83c
00000210: 4256 323e bee0 063d 6411 78be 5db5 553d
00000220: dc5e 9b3d 504f a73c 206c c7bd 4633 b43d
00000230: 2a1d 7f3d d991 95bd a336 263c 7070 913d
00000240: ad3d 3f3e e9be 6d3d 9281 8cbc fa30 2d3e
00000250: 9651 16bd ccb1 583e 98bb 633d ca81 33be
00000260: 4274 9bbd 3534 e2bd dafc a63e 07d9 2bbe
00000270: c509 6e3d 0cab 223e dad1 ad3d 489e 203e
00000280: d7f4 12be 3ba5 3e3e fd91 15be 0466 a13c
00000290: cbd3 653c a864 9f3e 352f ed3d 9fc6 c33d
000002a0: d1ff 7b3d 7b36 5b3d 20bd 293e f888 f1bd
000002b0: 5413 fd3d e105 423b e981 b5be b523 fd3c
000002c0: f261 c2bd 86b3 6c3e 66ad 13be 6d75 5ebe
000002d0: 1855 3c3c c718 7ebe a0d5 98bd 9b57 753e
000002e0: 8e02 1e3d f97a 333e 8efe 97be b8ce 0f3d
000002f0: df22 c13d dbc4 ae3d a619 e9bc c87f 7d3c
00000300: c78e e3bc c139 c13d 426e 9cbe 5871 ccbc
00000310: 7a91 0bbe db03 f8be 58b5 7fbc 1f14 2cbf
00000320: 5137 cc3d 8ec9 003e 66df 89bd 8eac 893e
00000330: 6ee3 debd 1520 4cbe 2209 14be eeda 013d
00000340: 0a09 303d ef72 2cbe bc08 05be 07ed 59bc
00000350: f912 4ebd 0fe2 983d 8cdd 7dbd 0d3d 963e
00000360: 0900 ddbd 9c50 02bd 7168 2b3d c700 1c3c
00000370: 9b1d e7bd 0b73 9d3d f68e 3bbe cf0a 823e
00000380: 5bdf 243b 099c 73be 8938 633d aa6d cabe
00000390: 7d7b 89be dd2e 9b3d 9a35 b83b 0603 d0be
000003a0: 60bd 3e3e de04 693d 773e 0f3e 6076 7d3e
000003b0: 87ce b5be 75d0 54bd e9a0 57bd b10e bb3d
000003c0: 59b5 5cbe cfe3 1d3e 07f6 81bd c467 9a3e
000003d0: 33d4 3fbd 022f a13e c171 473d 0951 56be
000003e0: 1cdf 733e 71f6 163e 477e 7e3d e4ea c33d
000003f0: 1def 40be 899b b5bd 61b2 8b3d 4a4c 98bd

fc_advantage.2.bias f4 [32]
0.07606687 0.23320007 -0.14651534 -0.032546442 -0.19916655 0.2135842 -0.04625589 0.2272806
0.0094012935 -0.043823637 0.33029658 -0.22717507 -0.6459699 0.00917556 0.047433797 -0.18857497
-0.05468839 0.04128729 0.012809722 0.17059706 -0.10303993 -0.031077312 0.11746607 0.046721224
0.14293954 -0.08740241 0.34017938 -0.42197838 0.54766667 0.114227414 -0.5557282 0.41438508
00000000: f2c8 9b3d 00cc 6e3e 1e08 16be 6b4f 05bd
00000010: 51f2 4bbe d1b5 5a3e d176 3dbd 3fbc 683e
00000020: e207 1a3c 6a80 33bd a21c a93e 95a0 68be
00000030: 495e 25bf 1755 163c f149 423d cc19 41be
00000040: ef00 60bd dd1c 293d dedf 513c ffb0 2e3e
00000050: 9906 d3bd d995 febc 0d92 f03d c15e 3f3d
00000060: be5e 123e 0900 b3bd fe2b ae3e 8d0d d8be
00000070: e233 0c3f 10f0 e93d 3444 0ebf 482a d43e

fc_advantage.4.weight f4 [6, 32]
0.2533147 -0.12582938 0.045086075 0.03721807 0.041226838 0.10066745 -0.064004645 0.2509412
0.00894307 0.25966296 -0.18554159 0.06786559 0.06921659 0.033732258 -0.05207821 -0.042427644
-0.0060360082 -0.09062074 0.0775341 -0.43212104 -0.12162011 0.1842498 0.1146774 -0.43953255
0.05777543 0.32248485 -0.097342685 0.20773275 0.1818377 -0.022936245 0.073895805 -0.15046242
-0.06520271 0.031799953 -0.0198092 0.014003242 -0.11258878 0.10928535 -0.10068415 -0.24353206
0.25557527 0.026962684 0.0013148545 0.02713594 0.16697142 0.44385335 -0.2511101 0.031119587
0.042348363 -0.052753296 0.13870074 -0.0472222 -0.06414378 -0.061906766 -0.105603 0.06583552
-1.0242293 0.2931254 -0.22992922 0.14188793 0.15746757 0.32662413 0.060792573 -0.013185584
0.13950738 -0.29708126 0.08279893 -0.46358424 -0.29420337 -0.58500504 -0.044035137 -0.079470344
-0.3344459 -0.029465092 0.178028 -0.08711192 0.14283021 -0.44130006 -0.012846601 -0.005602109
0.050960183 0.46417484 0.06947784 0.051047236 0.19514239 -0.025809692 -0.05698613 0.09106864
0.41140997 0.020908253 -0.22004563 0.23738046 0.14022928 -0.38110644 0.06936971 -0.046277538
0.09291438 -0.06984576 -0.24267362 -0.112409584 0.33921552 0.17634527 0.46654052 0.035117485
0.0039043096 -0.010064308 -0.1898586 -0.28880364 -0.17194816 0.04581585 0.20274906 -0.0034655726
0.1098256 -0.4797802 -0.33964458 0.13246003 0.36566436 0.26121223 -0.114211164 0.111763656
0.040409908 -0.35059053 -0.6300055 0.5010273 0.24099042 0.13569532 0.43091193 0.2530303
0.37067246 0.30947208 -0.17591599 -0.14726476 0.1238063 0.08151959 -0.21712026 0.11373981
-0.06351147 0.15977241 -0.23631927 0.59116477 -0.3711924 0.071118124 0.009493147 -0.05790934
0.075506814 -0.2777732 0.17494929 0.29590926 -0.15200321 -0.35717914 -0.30417395 -0.058384012
0.17295185 -0.2945208 0.41371012 -0.651037 -0.0011095543 0.060101505 -0.5637419 -0.06874906
0.058514576 0.11965099 0.2097118 0.055704188 0.073063456 0.10312789 -0.21811895 -0.073061824
-0.052147627 0.2490299 -0.20551564 -0.20071435 0.13957453 -0.035826404 0.10952096 0.09049532
0.0037203203 -0.20167407 0.07263031 0.21652184 0.034393106 0.2891714 0.020373037 0.15106232
-0.0142969685 0.047355194 0.059851833 0.032331094 -0.30801988 -0.017990375 0.19446397 -0.41285858
00000000: 77b2 813e 6bd9 00be 2dac 383d fa71 183d
00000010: 79dd 283d bc2a ce3d de14 83bd 5d7b 803e
00000020: f485 123c 8bf2 843e 9dfe 3dbe 1dfd 8a3d
00000030: 6dc1 8d3d d62a 0a3d f64f 55bd 9cc8 2dbd
00000040: b5c9 c5bb 5e97 b9bd 33ca 9e3d f83e ddbe
00000050: f713 f9bd fbab 3c3e fcdb ea3d 690a e1be
00000060: eea5 6c3d bc1c a53e 9a5b c7bd e5b7 543e
00000070: a933 3a3e cbe4 bbbc af56 973d d212 1abe
00000080: 0089 85bd ab40 023d e746 a2bc db6d 653c
00000090: f294 e6bd ffd0 df3d 7e33 cebd 7860 79be
000000a0: c3da 823e d9e0 dc3c 3257 ac3a 314c de3c
000000b0: 8efa 2a3e bf40 e33e 8191 80be 81ee fe3c
000000c0: 7a75 2d3d d713 58bd 9107 0e3e 116c 41bd
000000d0: d05d 83bd f391 7dbd 6346 d8bd c6d4 863d
000000e0: f219 83bf 8814 963e 9172 6bbe 124b 113e
000000f0: 2e3f 213e 473b a73e a201 793d 5908 58bc
00000100: 06db 0e3e 091b 98be 7c92 a93d ea5a edbe
00000110: d3a1 96be e4c2 15bf 305e 34bd 59c1 a2bd
00000120: 7e3c abbe c760 f1bc f94c 363e bc67 b2bd
00000130: 1542 123e 15f2 e1be 8d7a 52bc e591 b7bb
00000140: a0bb 503d 53a8 ed3e 664a 8e3d e816 513d
00000150: 68d3 473e d96e d3bc 4a6a 69bd 3282 ba3d
00000160: 54a4 d23e c947 ab3c a453 61be dd13 733e
00000170: 4498 0f3e 6220 c3be b511 8e3d 848d 3dbd
00000180: e549 be3d 4b0b 8fbd 6f7f 78be ff36 e6bd
00000190: a8ad ad3e db93 343e 66de ee3e 5ad7 0f3d
000001a0: 72df 7f3b c4e4 24bc 4b6a 42be 12de 93be
000001b0: 2e13 30be 67a9 3b3d 739d 4f3e a91e 63bb
000001c0: 3fec e03d c0a5 f5be e5e5 adbe 9aa3 073e
000001d0: 5c38 bb3e 9cbd 853e 8be7 e9bd 58e4 e43d
000001e0: dc84 253d 9a80 b3be 0a48 21bf 5343 003f
000001f0: 31c6 763e b7f3 0a3e 7da0 dc3e 308d 813e
00000200: c8c8 bd3e 2073 9e3e 5223 34be 93cc 16be
00000210: 288e fd3d bef3 a63d c654 5ebe 6bf0 e83d
00000220: 4d12 82bd 619b 233e aefd 71be 9356 173f
00000230: ee0c bebe 61a6 913d 2589 1b3c 5832 6dbd
00000240: 51a3 9a3d 4a38 8ebe e825 333e 6b81 973e
00000250: bba6 1bbe 2fe0 b6be b0bc 9bbe 1324 6fbd
00000260: 4a1a 313e 6ecb 96be d0d1 d33e 5caa 26bf
00000270: 776e 91ba ff2c 763d 6451 10bf 4fcc 8cbd
00000280: fbac 6f3d 940b f53d b1be 563e 132a 643d
00000290: 4ba2 953d b734 d33d 935a 5fbe 70a1 95bd
000002a0: c098 55bd b201 7f3e b172 52be 1088 4dbe
000002b0: a0ec 0e3e b5be 12bd 864c e03d 9c55 b93d
000002c0: 9ed0 733b a683 4ebe 33bf 943d e7b7 5d3e
000002d0: c9df 0c3d 460e 943e 5be5 a63c 15b0 1a3e
000002e0: d53d 6abc 85f7 413d 3227 753d 9c6d 043d
000002f0: c8b4 9dbe 8d60 93bc 9021 473e 3362 d3be

fc_advantage.4.bias f4 [6]
0.16643474 -0.12286052 -0.04810119 0.07980108 -0.17436492 -0.15883653
00000000: de6d 2a3e 4c9e fbbd c105 45bd c06e a33d
00000010: b88c 32be 0ba6 22be
