data/Torch/Dueling/002_CNN-1_E_L/checkpoints/weights_1000000steps.pth (torch, 286623 bytes, 13 tensors)

conv_layers.0.weight f4 [32, 1, 3, 3]
-0.030465841 -0.005224581 -0.0027642455 0.15191822 -0.30406633 -0.03536414 0.17617707 0.09556917
0.23483887 -0.32347634 0.32879212 0.099472396 -0.088742614 -0.086331345 0.2099836 0.28822026
-0.119837865 -0.19803679 -0.57078624 -0.020253368 0.066786595 0.32507905 0.1295261 -0.02010794
0.016080393 0.11512044 -0.17708063 -1.734418 0.038677584 0.15281469 0.042150203 0.035945904
0.013501411 -0.0042958613 -0.02055627 0.0031970362 0.25098336 -0.15745148 0.07471052 0.15936029
0.16726926 -0.006100242 0.0015487177 -0.0469252 -0.036027603 0.46975157 0.003965298 -0.00077764963
-1.005995 0.2525005 -0.07020836 -0.08299414 0.095584765 -0.0009876777 0.69105965 -0.018109592
-0.027133705 0.032633707 -0.47566566 0.044228323 -0.0089266 -0.0046076295 -0.07085754 -0.84341437
0.048712604 -0.6714538 0.04640884 -0.011390024 -0.7157295 0.038763177 0.026603734 0.061864477
-0.6886407 0.16826719 0.035009064 0.0022903117 0.2752168 -0.084617615 -0.050674304 0.21701698
0.11853849 0.33834305 -0.24426812 0.018080248 -0.3658625 -0.085085765 0.187118 -0.053096216
-0.121027276 0.23157935 -0.28405103 0.09628652 0.15239885 0.011096389 0.2246698 0.013024657
-0.13621762 -0.23033062 0.04665052 -0.095596075 -0.33349484 0.09343291 0.4422134 0.18736583
0.02888906 0.061426822 -0.117021605 -0.34828597 0.1496707 -0.011849678 -0.021294327 -0.20437862
-0.083658375 0.23704244 -0.0061074765 0.08660143 -0.015361712 -1.4292734 0.07188045 0.043344274
0.12414767 -0.0051368154 0.09194841 0.030357573 0.02052077 0.057393942 0.4395249 0.19758372
-0.109020345 0.042831615 -0.20259647 0.105514616 -0.056285772 -0.019739967 -0.18777865 0.5388559
-0.45201674 -0.037437327 -0.013770283 -0.029413126 0.04015738 -0.017074628 0.0043950723 0.031233177
0.10019385 0.17111894 0.1373162 0.15127443 0.042030305 -0.11821731 -0.04838382 -0.0927034
-0.2063244 -0.009298327 0.18621257 0.07611509 -0.25413942 -0.14507665 0.028252497 -0.1270278
0.10679586 0.07785002 -0.52290046 0.00861205 -0.0040877555 -0.018340228 0.13550133 -0.093237154
0.03652957 0.13780594 0.28000212 0.4936405 -0.112426266 0.11608197 0.020880975 -0.55064315
-0.1646363 0.080096416 -0.17392711 -0.14219947 0.20196858 -0.27674592 0.023763524 -0.2743114
-0.13513328 0.018241737 -0.16903275 0.1757221 0.13075572 0.6443388 -0.09517363 0.11468163
-0.17032036 -0.18852086 -0.024294443 -0.090355195 0.073298134 0.009664422 -0.050983608 0.014384206
0.0041827215 0.16994926 -0.20634645 -0.1737378 0.029069036 -0.023135688 0.032069348 -0.19927606
0.36583716 0.31338137 -0.08385478 -0.021648245 0.010941183 -0.17176661 0.118680485 -0.037716582
0.076396726 -0.20099773 0.12280596 0.24251904 -0.071255706 -0.03219425 -0.237834 0.055583525
-0.17026964 0.23504871 0.109626286 -0.007345219 0.079895444 -0.18633042 0.07739129 -0.14912437
-0.12138897 -0.15029491 -0.38489896 0.028508725 0.06832611 0.1326443 0.09010791 -0.23883834
0.051514547 0.07899317 0.043197773 0.23016559 0.067337304 -0.34504887 0.29393217 -0.07507022
0.04038785 -0.20110606 0.12721187 0.053096462 0.5088376 -0.053375233 0.034442086 -0.43779716
00000000: 8093 f9bc f632 abbb 5828 35bb 7390 1b3e
00000010: 95ae 9bbe fdd9 10bd c367 343e c5b9 c33d
00000020: 9a79 703e b19e a5be 7157 a83e 2fb8 cb3d
00000030: b0be b5bd 7dce b0bd f105 573e 9b91 933e
00000040: 8e6d f5bd 28ca 4abe 0c1f 12bf 64ea a5bc
00000050: 69c7 883d c370 a63e 7da2 043e 68b9 a4bc
00000060: 07bb 833c 44c4 eb3d a054 35be 6901 debf
00000070: 636c 1e3d 747b 1c3e b1a5 2c3d 033c 133d
00000080: 0635 5d3c 4cc4 8cbb 9f65 a8bc 5e85 513b
00000090: e480 803e f63a 21be d401 993d 582f 233e
000000a0: a248 2b3e 8ae4 c7bb 58fe ca3a a334 40bd
000000b0: ae91 13bd 4783 f03e 55ef 813b 2fdb 4bba
000000c0: 72c4 80bf bf47 813e 67c9 8fbd d5f8 a9bd
000000d0: f2c1 c33d f774 81ba 49e9 303f 915a 94bc
000000e0: 8147 debc ecaa 053d 738a f3be c228 353d
000000f0: e040 12bc 99fb 96bb c21d 91bd 01ea 57bf
00000100: de86 473d 65e4 2bbf 3217 3e3d 399d 3abc
00000110: 0c3a 37bf 23c6 1e3d 13f0 d93c 9b65 7d3d
00000120: c24a 30bf 3c4e 2c3e aa65 0f3d 0e19 163b
00000130: 37e9 8c3e 004c adbd dc8f 4fbd b339 5e3e
00000140: 4fc4 f23d 4d3b ad3e 6c21 7abe 071d 943c
00000150: 5452 bbbe 7241 aebd dc9b 3f3e 6b7b 59bd
00000160: 26dd f7bd 2323 6d3e 236f 91be de31 c53d
00000170: 720e 1c3e a1cd 353c d70f 663e 5f65 553c
00000180: a27c 0bbe cadb 6bbe 9e14 3f3d e0c7 c3bd
00000190: d6bf aabe c159 bf3d cb69 e23e d4dc 3f3e
000001a0: c0a8 ec3c b19a 7b3d 06a9 efbd 8a52 b2be
000001b0: 4743 193e 2725 42bc 7171 aebc a148 51be
000001c0: 1555 abbd 41bb 723e 3a21 c8bb 175c b13d
000001d0: b1af 7bbc 6ef2 b6bf 0f36 933d c489 313d
000001e0: 2241 fe3d bb52 a8bb 734f bc3d 72b0 f83c
000001f0: 2d1b a83c e915 6b3d 6809 e13e 6353 4a3e
00000200: 0f46 dfbd 3470 2f3d 7375 4fbe 0c18 d83d
00000210: e98b 66bd b6b5 a1bc 0c49 40be 76f2 093f
00000220: bd6e e7be e257 19bd c19c 61bc ccf3 f0bc
00000230: 117c 243d 17e0 8bbc 8a04 903b b8dc ff3c
00000240: 6f32 cd3d ce39 2f3e 9e9c 0c3e afe7 1a3e
00000250: f827 2c3d eb1b f2bd 1d2e 46bd 48db bdbd
00000260: b446 53be 0358 18bc 82ae 3e3e 3ae2 9b3d
00000270: 901e 82be f98e 14be c871 e73c 9313 02be
00000280: cab7 da3d d56f 9f3d cedc 05bf 8e19 0d3c
00000290: 94f2 85bb 3f3e 96bc dcc0 0a3e 1ff3 bebd
000002a0: 08a0 153d 001d 0d3e 705c 8f3e 73be fc3e
000002b0: be3f e6bd 62bc ed3d 940e ab3c f3f6 0cbf
000002c0: 6b96 28be 9709 a43d f319 32be bd9c 11be
000002d0: dad0 4e3e a4b1 8dbe b9ab c23c 8b72 8cbe
000002e0: 6160 0abe b26f 953c ec16 2dbe 7ff0 333e
000002f0: d4e4 053e 63f3 243f 64ea c2bd 34de ea3d
00000300: 7668 2ebe 9d0b 41be 2405 c7bc 250c b9bd
00000310: 551d 963d 8657 1e3c 30d4 50bd bcab 6b3c
00000320: 360f 893b 2e07 2e3e 7c4c 53be 52e8 31be
00000330: 3022 ee3c 0e87 bdbc 265b 033d 060f 4cbe
00000340: 024f bb3e 8673 a03e 0ebc abbd a957 b1bc
00000350: a642 333c 96e3 2fbe c10e f33d b47c 1abd
00000360: e375 9c3d 59d2 4dbe b181 fb3d e956 783e
00000370: 83ee 91bd 1ede 03bd c28a 73be 8dab 633d
00000380: 2a5b 2ebe 9cb0 703e bf83 e03d 2ab0 f0bb
00000390: 39a0 a33d 67cd 3ebe 537f 9e3d 0fb4 18be
000003a0: c89a f8bd e9e6 19be 7a11 c5be 218b e93c
000003b0: 8fee 8b3d e8d3 073e 7f8a b83d 0a92 74be
000003c0: eb00 533d 2cc7 a13d 26f0 303d 87b0 6b3e
000003d0: 24e8 893d 3faa b0be 477e 963e 6abe 99bd
000003e0: bb6d 253d bfee 4dbe d443 023e ad7b 593d
000003f0: 2e43 023f fd9f 5abd 2513 0d3d f326 e0be

conv_layers.0.bias f4 [32]
-0.7361969 -0.6681502 0.54950744 0.62667656 -0.44810843 0.14977366 0.015536547 0.5632418
0.004250114 -0.19775148 0.3693286 -0.18931371 -0.52430403 0.703179 -0.6136526 0.2876847
-0.54645944 0.560014 0.5634911 0.3793866 0.5435392 -0.59861684 0.28466544 -0.8618017
0.49840513 0.46160454 0.6577998 -0.70437545 -0.054478742 0.39462787 0.49138233 -0.60123205
00000000: 6677 3cbf e40b 2bbf 85ac 0c3f e06d 203f
00000010: 786e e5be 445e 193e 008d 7e3c 9d30 103f
00000020: 8a44 8b3b 5d7f 4abe a318 bd3e 74db 41be
00000030: ca38 06bf 8a03 343f 5618 1dbf 694b 933e
00000040: c4e4 0bbf 145d 0f3f f440 103f f63e c23e
00000050: 6325 0b3f f43e 19bf abbf 913e 099f 5cbf
00000060: f52e ff3e 6e57 ec3e 9165 283f f351 34bf
00000070: 1a25 5fbd aa0c ca3e 7796 fb3e 58ea 19bf

fc_state.0.weight f4 [64, 512]
0.010458142 -0.016638702 -0.020199101 -0.007552592 0.03150626 -0.035210956 0.020532737 -0.039390743
0.031024309 -0.015959589 -0.02233548 0.03470238 0.027011614 -0.0058141076 0.0012310944 0.02377963
0.029828468 -0.028193444 -0.010580986 0.02874171 0.027121559 -0.0025099397 -0.008204927 0.006527509
-0.017500812 0.02581473 -0.032232348 0.011878308 0.013890899 -0.01821376 0.026344199 0.03289114
0.007999371 -0.04748882 0.020548908 0.0073288656 0.010773639 1.6603479e-05 -0.003495992 -0.024493847
-0.0023009619 -0.034224533 0.029035354 0.014513418 0.0015785216 -0.0028956635 0.0057979366 -0.040415857
-0.024988407 -0.046403956 -0.006863624 0.033550173 -0.04729739 0.029465722 0.01257873 -0.014284738
-0.04039954 -0.035053674 -0.02498094 0.009997702 0.011307084 0.0025960105 -0.044546973 -0.04289966
0.019211117 0.012221047 0.0102369785 -0.0062528774 0.030673934 0.021992499 0.018449184 0.021776767
0.0062556583 0.0072281356 0.027294127 0.008918738 -0.0065139458 -0.02473678 -0.033771962 -0.029978791
0.007585386 0.03930438 -0.039853126 -0.008021861 0.03727802 0.010995366 0.034080163 0.039750166
0.009677004 -0.013439587 -0.023571135 -0.0007346086 -0.009136591 0.0015052757 -0.0045439154 0.014483941
-0.048700456 -0.026679255 0.017899588 -0.011724686 -0.0110768685 -0.0047428817 -0.03973085 -0.010742786
-0.03569007 -0.00072074897 -0.031274077 -0.035830695 0.009350437 0.006668949 0.02378902 0.016021453
0.016315334 -0.002955782 0.0038501765 0.00485609 0.010089434 -0.008446742 0.019971829 -0.017073214
0.027653752 -0.04678046 0.033430554 0.03935542 0.032705955 -0.03932572 -0.029621737 -0.019772848
0.032768995 0.008925343 -0.042205468 -0.019726146 0.03696811 0.0048164465 -0.034710694 -0.014906087
0.04297943 0.018822787 0.021248724 0.0126135815 0.011286914 -0.002187036 0.017196244 0.025792675
0.029944433 -0.021388952 -0.04065385 0.032150008 0.014924914 0.025905814 -0.047031738 0.009487384
0.041539844 -0.04209675 -0.006930078 0.0014890424 -0.03965336 0.039029002 0.021326488 0.017099805
-0.005412914 -0.024976734 0.006592544 -0.01630381 0.02399307 0.022751477 -0.014784768 0.025827289
-0.0022783845 -0.042607922 0.006949744 0.03166326 0.023759851 0.0016614626 -0.02614038 -0.035562348
-0.038096942 -0.019674333 -0.04156264 -0.027751012 0.031439465 0.00057774456 0.0389696 -0.027263038
0.021737944 0.0020170435 0.0014991909 0.03992134 -0.042539876 -0.015838385 -0.0009643994 -0.0055992715
-0.021503039 -0.023024602 -0.0383707 -0.041435044 0.020444112 0.0007772499 -0.038662516 -0.034255393
-0.029130027 -0.012375883 0.018174272 -0.009832826 -0.032105125 -0.009837142 -0.04623179 -0.027344888
-0.032168582 -0.013791291 -0.0253501 -0.008963238 0.038564257 0.0074870605 0.013454445 -0.041752134
0.033388406 -0.02364325 -0.0044323206 -0.010219311 -0.020013914 -0.016851706 -0.009421683 0.031011866
-0.041911565 0.003547179 0.016006246 0.002331479 -0.03474367 0.021224458 -0.031205868 -0.0048993267
-0.041064374 0.009566217 0.023025313 -0.007278186 0.03777328 -0.03429719 -0.0093042 0.0006048425
-0.029453235 -0.018587684 -0.042589754 0.021503985 0.018320654 0.011591762 0.034306794 -0.0019353247
-0.023735764 -0.04357025 0.017458156 -0.035162654 0.019877728 -0.040304743 0.03386513 -0.026026955
00000000: a058 2b3c e34d 88bc 9678 a5bc bc7b f7bb
00000010: b50c 013d 5d39 10bd 4534 a83c 3058 21bd
00000020: b126 fe3c afbd 82bc e6f8 b6bc 1524 0e3d
00000030: 7647 dd3c 4584 bebb ac5c a13a 80cd c23c
00000040: d55a f43c f0f5 e6bc df5b 2dbc bc73 eb3c
00000050: 082e de3c cd7d 24bb f56d 06bc b7e4 d53b
00000060: dd5d 8fbc 6a79 d33c 1106 04bd 3c9d 423c
00000070: a796 633c 0635 95bc cacf d73c dcb8 063d
00000080: cb0f 033c a383 42bd 2f56 a83c fb26 f03b
00000090: eb83 303c b347 8b37 031d 65bb 52a7 c8bc
000000a0: bccb 16bb 062f 0cbd 8ddb ed3c b0c9 6d3c
000000b0: 65e6 ce3a 2cc5 3dbb 9efc bd3b 198b 25bd
000000c0: 7db4 ccbc 1312 3ebd 40e8 e0bb e86b 093d
000000d0: e8ba 41bd 1962 f13c 0417 4e3c 890a 6abc
000000e0: fd79 25bd 7194 0fbd d4a4 ccbc 67cd 233c
000000f0: 5941 393c d421 2a3b e376 36bd 8eb7 2fbd
00000100: a260 9d3c c93a 483c 00b9 273c f0e4 ccbb
00000110: e747 fb3c 9d29 b43c be22 973c 3165 b23c
00000120: 44fc cc3b ffd9 ec3b ef97 df3c e61f 123c
00000130: f072 d5bb caa4 cabc 7854 0abd 1596 f5bc
00000140: d48e f83b a1fd 203d 083d 23bd 206e 03bc
00000150: d6b0 183d e825 343c a497 0b3d 12d1 223d
00000160: 4c8c 1e3c b731 5cbc 4118 c1bc c092 40ba
00000170: a4b1 15bc ac4c c53a 20e5 94bb 0d4e 6d3c
00000180: 217a 47bd 748e dabc 28a2 923c e618 40bc
00000190: c17b 35bc 2d6a 9bbb d1bc 22bd 8302 30bc
000001a0: c02f 12bd a5f0 3cba 3f19 00bd 35c3 12bd
000001b0: 9332 193c 3387 da3b 31e1 c23c 6c3f 833c
000001c0: bca7 853c cbb5 41bb 3e53 7c3b d61f 9f3b
000001d0: 274e 253c 3464 0abc f69b a33c 20dd 8bbc
000001e0: 1f8a e23c de9c 3fbd 7aee 083d 2633 213d
000001f0: aef6 053d 0214 21bd 49a9 f2bc abfa a1bc
00000200: c838 063d 9a3b 123c a4df 2cbd ba98 a1bc
00000210: df6b 173d 48d3 9d3b cd2c 0ebd a938 74bc
00000220: 330b 303d 3f32 9a3c ce11 ae3c 32a9 4e3c
00000230: c0ec 383c 6054 0fbb 23df 8c3c 294b d33c
00000240: 074e f53c e237 afbc a784 26bd baaf 033d
00000250: a087 743c 6e38 d43c 5aa4 40bd f970 1b3c
00000260: af25 2a3d a46d 2cbd b515 e3bb f92b c33a
00000270: 906b 22bd e0dc 1f3d e3b4 ae3c e414 8c3c
00000280: d05e b1bb 029c ccbc 4406 d83b 918f 85bc
00000290: 1d8d c43c 4e61 ba3c d03b 72bc c093 d33c
000002a0: f350 15bb a585 2ebd aeba e33b 56b1 013d
000002b0: 05a4 c23c 6fc5 d93a 5a24 d6bc d3a9 11bd
000002c0: 8a0b 1cbd 112c a1bc 963d 2abd 1756 e3bc
000002d0: abc6 003d c873 173a 969e 1f3d bc56 dfbc
000002e0: c613 b23c 6030 043b 8080 c43a 8f84 233d
000002f0: 4b3e 2ebd 80bf 81bc c0cf 7cba 187a b7bb
00000300: 2427 b0bc 179e bcbc 982a 1dbd cbb7 29bd
00000310: 697a a73c 5cc0 4b3a 965c 1ebd 624f 0cbd
00000320: 18a2 eebc 37c4 4abc 36e2 943c dd19 21bc
00000330: aa80 03bd f72b 21bc 8c5d 3dbd 6302 e0bc
00000340: 34c3 03bd def4 61bc 03ab cfbc 8cda 12bc
00000350: 8ef5 1d3d 0456 f53b 0870 5c3c 4904 2bbd
00000360: 48c2 083d 7daf c1bc 003d 91bb e66e 27bc
00000370: 38f4 a3bc 970c 8abc 675d 1abc 990c fe3c
00000380: 76ab 2bbd ca77 683b 881f 833c bacb 183b
00000390: 614f 0ebd eade ad3c 73a3 ffbc 888a a0bb
000003a0: 1e33 28bd 9fbb 1c3c 959f bc3c d97d eebb
000003b0: 28b8 1a3d 367b 0cbd a570 18bc 4b8e 1e3a
000003c0: e947 f1bc 3345 98bc 9872 2ebd 2029 b03c
000003d0: 3215 963c 60eb 3d3c 4885 0c3d b9aa fdba
000003e0: 8171 c2bc b876 32bd 6804 8f3c b706 10bd
000003f0: 9ed6 a23c 9616 25bd 2ab6 0a3d 7b36 d5bc

fc_state.0.bias f4 [64]
-0.003643741 -0.031771407 0.04070155 -0.03041678 0.00037102032 -0.009209445 -0.013489363 0.027622512
0.030453667 0.032401547 0.029229257 -0.110952064 -0.02521441 0.04731921 0.023099786 0.034653436
-0.024731038 -0.04256892 -0.04729405 0.03972323 -0.042789906 -0.027334927 -0.01711301 -0.032688603
0.024112657 0.09130335 0.014435 0.0011802819 -0.03489442 0.0751906 -0.022585317 -0.0146094365
-0.033680018 -0.10473634 -0.0361954 0.03877369 -0.04021624 -0.044261646 0.050782405 -0.03798101
-0.0043420196 -0.044510376 0.024429807 -0.027425747 0.085036784 -0.0028640167 0.022852756 -0.022083895
-0.032616794 0.052151788 0.004807436 0.0059076785 -0.042367876 -0.055016674 0.052440207 -0.057562985
-0.0069005736 0.10556975 -0.026754502 0.030818656 -0.06909276 0.013482544 -0.062055547 0.031302407
00000000: d4cb 6ebb bc22 02bd abb6 263d 9c2c f9bc
00000010: 8185 c239 36e3 16bc 7d02 5dbc 9b48 e23c
00000020: f879 f93c 7cb7 043d 3272 ef3c d63a e3bd
00000030: 738e cebc cad1 413d c33b bd3c c3f0 0d3d
00000040: bf98 cabc bf5c 2ebd 68b7 41bd d3b4 223d
00000050: 7844 2fbd 7fed dfbc 9530 8cbc 7ce4 05bd
00000060: e887 c53c 40fd ba3d c780 6c3c b0b3 9a3a
00000070: 74ed 0ebd 87fd 993d d804 b9bc 6b5c 6fbc
00000080: 0ff4 09bd 0280 d6bd a141 14bd 29d1 1e3d
00000090: c9b9 24bd b34b 35bd 3601 503d fa91 1bbd
000000a0: 8047 8ebb 8350 36bd 0521 c83c f6ab e0bc
000000b0: c427 ae3d 3ab2 3bbb b435 bb3c 49e9 b4bc
000000c0: 3099 05bd 1d9d 553d b287 9d3b 3395 c13b
000000d0: f089 2dbd 2a59 61bd 8bcb 563d 2ac7 6bbd
000000e0: 351e e2bb f434 d83d 422c dbbc 6877 fc3c
000000f0: 8180 8dbd e3e5 5c3c f52d 7ebd f436 003d

fc_state.2.weight f4 [32, 64]
-0.10886187 0.0902663 -0.008768494 0.05125487 0.115530476 -0.07883697 -0.010957092 0.028778711
-0.08710256 -0.10417212 0.050301593 -0.09967432 -0.11427194 -0.5072505 -0.049796797 0.12885919
-0.11711537 0.11126457 0.06767637 -0.07194705 -0.10770669 0.0358124 -0.08730642 -0.06361502
0.113635145 -0.090564355 -0.012886331 0.06459805 0.030126119 -0.0011318369 -0.004329373 -0.50404054
0.16979454 -0.16388178 -0.10500098 -0.45228398 -0.0653799 0.015126839 -0.24489188 -0.26155904
0.070828475 -0.0068965848 0.081198685 -0.038584743 0.13223682 -0.011279278 -0.17105465 -0.070737384
0.11132913 -0.048157286 0.18431671 0.058215424 0.082176775 0.09039714 -0.04683675 -0.09802574
0.027511971 -0.017781507 0.11124531 0.06366258 0.100148216 0.0004781775 -0.057967808 -0.0267201
0.09308802 -0.117903806 0.114222385 -0.0027338956 0.05983715 0.06610269 0.026502756 -0.068732075
-0.03648631 -0.112277806 0.10970711 -0.116295844 0.063392304 0.120450236 -0.014242015 0.023103347
-0.034537323 0.051434495 -0.0005695143 0.043600675 -0.0056895483 0.045814857 0.03268559 0.019283382
-0.012424384 -0.049263477 0.07140656 0.02076172 0.07816117 0.17803194 -0.0031171124 0.30675206
0.034775592 0.2028553 0.06004135 0.045314606 0.14289731 -0.119694605 0.1352829 0.004332549
0.109822884 0.053656496 0.055610918 -0.10151581 -0.0012616257 -0.065655805 0.15316771 0.08117496
-0.01079822 0.20580056 0.0068678763 0.07900147 -0.022617785 0.049092103 -0.053970702 -0.036979377
-0.048128624 0.19692433 -0.0986393 -0.22470197 -0.053638164 0.074743025 0.03402851 0.17597954
0.10767854 -0.041155517 -0.065505624 0.10461218 0.09727482 0.10960678 -0.06880806 -0.06530648
-0.098097965 0.06774509 0.002792926 -0.22763145 -0.13454878 -0.15498947 -0.07700273 -0.16276006
-0.02118258 0.0328207 -0.08082379 -0.1515193 -0.121263154 0.070095055 0.088101044 -0.054422073
-0.09166463 0.12089613 -0.11601165 0.11853267 -0.050148163 0.1306884 0.0678532 -0.23587714
0.018245125 -0.06640548 -0.120455265 -0.055162348 -0.04383028 0.10541619 0.026183875 -0.12454992
0.110884555 -0.010780822 0.111521795 0.121966965 -0.09192552 -0.098887466 -0.043344848 -0.030444536
0.0034792367 0.24054284 0.01152179 -0.028626714 -0.11036545 0.11196084 -0.24955326 0.07375879
-0.07093941 -0.015610271 -0.04513354 -0.15398343 0.0065857777 0.049313266 -0.02004177 0.064498544
0.11928798 -0.114781104 -0.30677453 0.059713274 0.0589892 0.02333738 -0.04653926 0.0794417
-0.16072313 0.050880108 -0.0244653 0.023362637 -0.08392055 -0.0017600044 0.038496353 -0.5832611
-0.08858835 -0.04165819 0.059126113 0.1426858 -0.0010960086 -0.077298254 -0.013259433 -0.04128837
0.036086857 0.103494935 0.09527299 -0.0014028052 0.06126523 -0.0784138 -0.11381365 0.12669739
-0.080003455 -0.01399187 0.07740406 0.08471736 0.091511056 -0.04889118 -0.03369491 0.014117365
0.08194254 0.049767543 0.0090249395 0.06502472 0.1673398 -0.11388561 -0.30124635 -0.016186992
0.07944669 0.21200502 -0.07282103 -0.032046698 -0.079292394 0.115242004 -0.0019016238 -0.062445503
0.11736867 0.10013173 -0.044210523 -0.013882627 -0.058244303 -0.0062045897 -0.093557686 -0.5259135
00000000: f9f2 debd 8add b83d bba9 0fbc a0f0 513d
00000010: 3e9b ec3d 4775 a1bd 6085 33bc 55c1 eb3c
00000020: d462 b2bd 3158 d5bd 0b09 4e3d 0d22 ccbd
00000030: 6807 eabd 2bdb 01bf baf7 4bbd aaf3 033e
00000040: 2fda efbd aede e33d e999 8a3d fa58 93bd
00000050: 5395 dcbd 06b0 123d b5cd b2bd 9748 82bd
00000060: 8bb9 e83d ce79 b9bd 3121 53bc fc4b 843d
00000070: 0dcb f63c 255a 94ba 6add 8dbb cd08 01bf
00000080: 9fde 2d3e a0d0 27be c10a d7bd c491 e7be
00000090: e6e5 85bd 90d6 773c f0c4 7abe 11eb 85be
000000a0: 850e 913d bffc e1bb 7f4b a63d 090b 1ebd
000000b0: 1769 073e b9cc 38bc f328 2fbe c3de 90bd
000000c0: 8700 e43d 9340 45bd 85bd 3c3e 4c73 6e3d
000000d0: 4c4c a83d 2322 b93d e4d7 3fbd b8c1 c8bd
000000e0: c960 e13c 86aa 91bc 95d4 e33d 8761 823d
000000f0: 821a cd3d e6b3 fa39 a76f 6dbd 1ce4 dabc
00000100: efa4 be3d 8d77 f1bd 6ded e93d 282b 33bb
00000110: cd17 753d d960 873d 4f1c d93c 67c3 8cbd
00000120: ab72 15bd e8f1 e5bd 1fae e03d 842c eebd
00000130: d3d3 813d 9dae f63d 5757 69bc 3b43 bd3c
00000140: 0277 0dbd faac 523d 754b 15ba 9f96 323d
00000150: 646f babb 5ca8 3b3d 53e1 053d 2ff8 9d3c
00000160: a58f 4bbc 80c8 49bd 9a3d 923d 7c14 aa3c
00000170: f712 a03d 014e 363e 7848 4cbb 9b0e 9d3e
00000180: da70 0e3d 4db9 4f3e ebed 753d cf9b 393d
00000190: ac53 123e 7222 f5bd 9a87 0a3e 0ef8 8d3b
000001a0: d2ea e03d eac6 5b3d 46c8 633d 85e7 cfbd
000001b0: 225d a5ba 8d76 86bd ffd7 1c3e 0f3f a63d
000001c0: 04eb 30bc 62bd 523e ec0b e13b 86cb a13d
000001d0: ef48 b9bc cd14 493d 6210 5dbd b077 17bd
000001e0: 8522 45bd 88a6 493e 6703 cabd 4618 66be
000001f0: b1b3 5bbd df12 993d 7b61 0b3d fb33 343e
00000200: 9186 dc3d b092 28bd d027 86bd e93e d63d
00000210: 0538 c73d 8579 e03d 3deb 8cbd 67bf 85bd
00000220: 96e7 c8bd f0bd 8a3d 8609 373b 3818 69be
00000230: 28c7 09be 8fb5 1ebe 9bb3 9dbd 93aa 26be
00000240: 1787 adbc 006f 063d f186 a5bd e027 1bbe
00000250: d158 f8bd ff8d 8f3d 526e b43d aee9 5ebd
00000260: aaba bbbd 6498 f73d 8497 edbd 42c1 f23d
00000270: 2968 4dbd 2ed3 053e 9ef6 8a3d c789 71be
00000280: cd76 953c 99ff 87bd 40b1 f6bd eaf1 61bd
00000290: 6187 33bd 72e4 d73d 917f d63c 0714 ffbd
000002a0: 7117 e33d 0ba2 30bc 8a65 e43d d1c9 f93d
000002b0: 7243 bcbd 8385 cabd 5e8a 31bd d266 f9bc
000002c0: e803 643b dd50 763e e4c5 3c3c 9282 eabc
000002d0: 4807 e2bd ba4b e53d e48a 7fbe d90e 973d
000002e0: ae48 91bd 39c2 7fbc f2dd 38bd d5ad 1dbe
000002f0: 82cd d73b b5fc 493d a32e a4bc d017 843d
00000300: 424d f43d 5b12 ebbd 8d11 9dbe e895 743d
00000310: a99e 713d 082e bf3c f39f 3ebd 54b2 a23d
00000320: 9b94 24be a967 503d 746b c8bc 0063 bf3c
00000330: 8ade abbd f3af e6ba 5aae 1d3d 9950 15bf
00000340: cf6d b5bd c7a1 2abd 392e 723d 3a1c 123e
00000350: f2a7 8fba 8c4e 9ebd 183e 59bc fe1d 29bd
00000360: d0cf 133d 27f5 d33d 7c1e c33d 55de b7ba
00000370: 40f1 7a3d 6a97 a0bd 2217 e9bd f6bc 013e
00000380: dad8 a3bd 283e 65bc 0586 9e3d 4c80 ad3d
00000390: 266a bb3d 1e42 48bd ad03 0abd 854c 673c
000003a0: 7ed1 a73d 0dd9 4b3d 57dd 133c ae2b 853d
000003b0: 205b 2b3e dc3c e9bd f63c 9abe 959a 84bc
000003c0: f2b4 a23d d817 593e 3123 95bd 6643 03bd
000003d0: 0d64 a2bd 0004 ec3d e83f f9ba dbc6 7fbd
000003e0: fc5e f03d dd11 cd3d 1816 35bd f573 63bc
000003f0: 9491 6ebd df4f cbbb 2c9b bfbd 44a2 06bf

fc_state.2.bias f4 [32]
0.09589721 0.1073675 -0.026031252 0.13754436 -0.16157149 0.22979283 -0.084046036 -0.019581256
0.04688412 0.08090675 -0.14965282 0.14813803 -0.1276792 0.19344515 -0.004173919 -0.063659266
-0.09112848 -0.14056064 0.14700975 0.086171895 -0.11158811 -0.018612586 -0.07784862 0.007252185
0.06867117 -0.04099696 0.23302424 0.18306515 -0.07872567 0.14044479 0.049315453 -0.17122895
00000000: c265 c43d 7ee3 db3d 7e3f d5bc 6ed8 0c3e
00000010: ff72 25be d04e 6b3e 5420 acbd df68 a0bc
00000020: 9009 403d 70b2 a53d 973e 19be 7fb1 173e
00000030: 56be 02be 7c16 463e 5fc5 88bb ca5f 82bd
00000040: 92a1 babd 21ef 0fbe b989 163e e47a b03d
00000050: 4f88 e4bd 6c79 98bc 196f 9fbd bda3 ed3b
00000060: 78a3 8c3d 6eec 27bd e89d 6e3e 6e75 3b3e
00000070: ed3a a1bd c2d0 0f3e 00ff 493d a456 2fbe

fc_state.4.weight f4 [1, 32]
-0.35778067 0.18391061 0.16544344 -0.37198782 -0.123166196 -0.07969369 0.13157031 -0.22466478
-0.15947382 -0.13259046 0.056493666 -0.1933356 -0.12956807 -0.09034461 -0.011143932 0.08501925
0.22673915 -0.15053397 0.16103838 0.105159104 0.19658324 0.10957973 -0.138322 -0.19728431
-0.0962957 -0.1522703 -0.14450333 -0.2991883 0.0044450355 -0.042682193 0.14493932 -0.25466213
00000000: 072f b7be 1053 3c3e 016a 293e 3075 bebe
00000010: 8f3e fcbd 7236 a3bd 5eba 063e 860e 66be
00000020: 1b4d 23be cbc5 07be e765 673d c4f9 45be
00000030: 7ead 04be 9806 b9bd 0a95 36bc 931e ae3d
00000040: 4f2e 683e 9425 1abe 3fe7 243e a85d d73d
00000050: 1e4d 493e 566b e03d 48a4 0dbe e604 4abe
00000060: ae36 c5bd bfec 1bbe aef8 13be 352f 99be
00000070: a9a7 913b 86d3 2ebd f96a 143e 1363 82be

fc_advantage.0.weight f4 [64, 512]
-0.038884297 -0.033938833 -0.023891773 0.018180534 0.026385754 -0.025295908 0.0030636056 0.026931034
0.015032569 -0.024075186 -0.025635416 -0.047756106 -0.016559672 -0.042610787 -0.03949262 0.0068800985
-0.04877117 -0.033323687 0.022829613 0.019473527 0.029643113 0.024563968 -0.024706757 -0.0368431
0.017435325 -0.0126771 0.04356691 0.004510311 -0.039053753 -0.045377437 0.0295633 0.02850636
0.032557342 -0.023822252 0.030885497 -0.034958173 0.02299881 -0.032245066 -0.013793817 -0.0005233069
0.0140313925 -0.0062964964 0.008364901 -0.030596908 -0.018951355 0.028472843 0.026536414 -0.008858679
0.013987067 -0.0052960534 -0.008082921 -0.040574584 0.006950592 -0.01994939 -0.016568827 0.040555432
-0.03298694 -0.00029591224 0.015997414 -0.04051086 -0.035476234 0.016863173 -0.0033117244 0.039816108
-0.014911341 -0.040734176 -0.03328039 -0.036088075 -0.025738215 -0.017393384 -0.040980034 -0.02103913
0.0045144903 0.01759958 -0.029917836 -0.03748684 -0.0059981584 -0.041474912 0.023019107 -0.046751276
0.014931711 -0.034016166 -0.0059897215 0.0026294694 -0.049484685 0.035822123 -0.03368694 -0.033005703
-0.022594629 -0.018191606 0.01977163 0.039884787 0.020876896 -0.0039152037 -0.032743577 0.00013454973
0.014512736 0.02730183 0.016379697 -0.0029307224 0.036332235 0.0035178766 0.04162238 0.032320924
-0.016044462 0.0044435537 -0.0024516792 0.013395127 0.023348477 -0.03891588 0.026320204 0.021153674
0.008445433 0.019198403 -0.015275416 0.01982587 0.022084935 -0.01724541 -0.023281751 0.034001578
-0.017037138 -0.047405567 0.008783238 -0.0015663616 -0.04435886 -0.04255372 0.0169401 0.029915683
0.01902054 -0.018211868 0.02224988 0.014070473 -0.012481812 -0.029691074 -0.0329894 -0.0026734504
-0.00045156552 0.03489455 -0.037451923 -0.015234172 0.029967323 0.0051510655 -0.0036729274 -0.039925274
-0.0021148443 0.028680205 0.003473141 0.009165652 0.009688873 -0.013757178 0.016297176 0.012462485
-0.027772123 0.006631068 0.0263859 0.02488408 0.030990839 0.03472184 -0.0458873 0.014503402
0.014842955 -0.02528028 -0.049947776 0.00671277 -0.0157433 -0.012844597 -0.044483088 -0.04703492
-0.0013396771 0.0073397653 -0.0068537304 -0.0030753124 0.034879588 0.00037510926 -0.033022836 0.01665384
0.037246916 -0.023809213 0.04069654 -0.005277781 -0.03328209 -0.00032828827 0.043573532 0.04086232
0.038141508 -0.0037811026 -0.03765023 0.0407916 -0.039991897 0.0013952155 -0.021758648 -0.011333041
-0.005635359 -0.054591917 0.01630499 0.0236427 0.015915472 0.03464697 0.0069383346 -0.023706518
-0.00017848914 0.0072967047 0.020479241 -0.009977079 0.028781159 0.013852649 0.04438597 0.021990912
-0.0029172876 0.017423222 0.042372078 0.024109 -0.025545621 -0.0051373974 0.0024139504 -0.020934395
0.033752732 -0.012666778 -0.03640643 0.014486574 0.021131443 0.016287124 0.020979175 -0.04582855
-0.0016735372 -0.028738491 0.0060553025 -0.04058794 -0.011583262 -0.006559762 -0.04607605 0.004951944
-0.023014475 -0.0090031475 -0.0012836009 -0.010668801 0.017123474 -0.031981442 -0.036571994 0.03329927
-0.005887692 0.034421135 -0.008232803 -0.027370548 0.012277271 -0.0148368785 -0.039849907 0.019470178
-0.04145054 -0.04588442 -0.03457162 -0.035976358 0.017736249 0.03759264 -0.04264929 0.024039868
00000000: 2445 1fbd 7203 0bbd aeb8 c3bc 58ef 943c
00000010: f026 d83c 5d39 cfbc c6c6 483b 799e dc3c
00000020: 2a4b 763c 5339 c5bc 5d01 d2bc e89b 43bd
00000030: 26a8 87bc a688 2ebd 03c3 21bd 7372 e13b
00000040: 47c4 47bd 6b7e 08bd 2b05 bb3c f286 9f3c
00000050: 1dd6 f23c 603a c93c d365 cabc cae8 16bd
00000060: 87d4 8e3c 9cb3 4fbc 3773 323d 3bcb 933b
00000070: d4f6 1fbd b1dd 39bd bc2e f23c 2b86 e93c
00000080: d95a 053d e226 c3bc 9503 fd3c 4d30 0fbd
00000090: 0068 bc3c 6713 04bd 76ff 61bc 882e 09ba
000000a0: ede3 653c d752 cebb f00c 093c 5ea6 fabc
000000b0: df3f 9bbc e13f e93c e562 d93c fe23 11bc
000000c0: 032a 653c 848a adbb 3a6e 04bc 8931 26bd
000000d0: cbc1 e33b e76c a3bc 59bb 87bc 741d 263d
000000e0: 501d 07bd ab24 9bb9 020d 833c b7ee 25bd
000000f0: 874f 11bd a324 8a3c 8409 59bb 3716 233d
00000100: b24e 74bc e1d8 26bd 0551 08bd 17d1 13bd
00000110: f3d8 d2bc 927c 8ebc aeda 27bd 415a acbc
00000120: 4aee 933b ff2c 903c 4016 f5bc cd8b 19bd
00000130: 338c c4bb 99e1 29bd 9192 bc3c 447e 3fbd
00000140: 23a4 743c 8954 0bbd 6d45 c4bb 2d53 2c3b
00000150: 74b0 4abd 38ba 123d 51fb 09bd fd30 07bd
00000160: 5f18 b9bc 9006 95bc 1df8 a13c 3b5e 233d
00000170: 0606 ab3c 1c4b 80bb 211e 06bd eb15 0d39
00000180: d4c6 6d3c 16a8 df3c b72e 863c 5d11 40bb
00000190: 1cd1 143d 2d8c 663b 3b7c 2a3d f262 043d
000001a0: ad6f 83bc 3b9b 913b 5aac 20bb 3c77 5b3c
000001b0: 4e45 bf3c 4266 1fbd 789d d73c 784a ad3c
000001c0: b75e 0a3c f845 9d3c bd45 7abc dd69 a23c
000001d0: 77eb b43c 3f46 8dbc 5fb9 bebc 3d45 0b3d
000001e0: 7891 8bbc 572c 42bd 92e7 0f3c 604e cdba
000001f0: a3b1 35bd cf4c 2ebd f7c5 8a3c bc11 f53c
00000200: f7d0 9b3c 0e31 95bc 6145 b63c d787 663c
00000210: 8480 4cbc b23a f3bc e51f 07bd 0e35 2fbb
00000220: 19c0 ecb9 96ed 0e3d 3067 19bd c098 79bc
00000230: 087e f53c 45ca a83b 7fb5 70bb af88 23bd
00000240: 3399 0abb c0f2 ea3c a39d 633b 882b 163c
00000250: 14be 1e3c c965 61bc a881 853c 732f 4c3c
00000260: 5d82 e3bc 6e49 d93b 3e27 d83c b3d9 cb3c
00000270: 80e0 fd3c 7d38 0e3d 52f4 3bbd ad9f 6d3c
00000280: de2f 733c 9718 cfbc 0a96 4cbd ccf6 db3b
00000290: 18f8 80bc 2572 52bc e633 36bd b0a7 40bd
000002a0: 1b98 afba 6a82 f03b 4295 e0bb 2e8b 49bb
000002b0: e6dd 0e3d 50aa c439 f442 07bd a26d 883c
000002c0: 3990 183d 8a0b c3bc 6ab1 263d 3cf1 acbb
000002d0: cd52 08bd 1b1e acb9 297a 323d 405f 273d
000002e0: 453a 1c3d 60cc 77bb 2137 1abd 1815 273d
000002f0: 8bce 23bd aadf b63a 313f b2bc 38ae 39bc
00000300: d1a8 b8bb c69b 5fbd 0b92 853c 56ae c13c
00000310: 2a61 823c fbe9 0d3d f85a e33b 2c34 c2bc
00000320: d028 3bb9 3219 ef3b 15c4 a73c e776 23bc
00000330: 77c6 eb3c 39f6 623c 10ce 353d 4926 b43c
00000340: f72f 3fbb 25bb 8e3c 588e 2d3d 3d80 c53c
00000350: 0d45 d1bc 9d57 a8bb 5e33 1e3b 9c7e abbc
00000360: 4e40 0a3d 5188 4fbc e91e 15bd 1859 6d3c
00000370: d91b ad3c 936c 853c 85dc ab3c b8b6 3bbd
00000380: 975a dbba fc6c ebbc 8f6b c63b 8a3f 26bd
00000390: b9c7 3dbc 46f3 d6bb 3dba 3cbd eb43 a23b
000003a0: da88 bcbc f081 13bc 803e a8ba 32cc 2ebc
000003b0: 8746 8c3c f9fe 02bd 84cc 15bd d164 083d
000003c0: 8aed c0bb 2dfd 0c3d e1e2 06bc 3338 e0bc
000003d0: 9b26 493c 6116 73bc a839 23bd ec7f 9f3c
000003e0: 0bc8 29bd 4df1 3bbd f99a 0dbd f25b 13bd
000003f0: 9c4b 913c bdfa 193d 06b1 2ebd 42ef c43c

fc_advantage.0.bias f4 [64]
-0.04658558 0.16251172 -0.24666081 0.0046484293 -0.2123139 -0.38073143 0.079525575 -0.027711533
-0.023024997 -0.15963349 0.32168078 -0.03398852 -0.017864391 -0.102661796 -0.03978687 -0.06667148
-0.37654865 0.047900964 -0.010911859 -0.05662396 0.029043758 0.022286287 -0.04137832 0.1554736
0.4913471 -0.028304322 0.06965774 0.13126045 0.08398429 -0.024051268 -0.11133641 -0.006767499
0.64774424 0.04558143 0.5307426 -0.32695183 -0.13353331 0.12803328 -0.18937445 0.08794994
0.3931277 -0.0015713965 0.00730767 0.049399275 -0.11327445 -0.053774953 -0.022475911 -0.008750072
0.31434593 0.057667 0.36760017 0.06164653 0.3805143 0.047561556 -0.021153266 -0.1834356
0.14230178 0.12032017 -0.010546034 -0.04074086 0.031822946 -0.048373617 -0.089249186 -0.24501497
00000000: 85d0 3ebd 7969 263e a794 7cbe da51 983b
00000010: d168 59be 3bef c2be 4ede a23d 4c03 e3bc
00000020: eb9e bcbc f676 23be 58b3 a43e 8c37 0bbd
00000030: 5858 92bc 5940 d2bd 8ff7 22bd 0f8b 88bd
00000040: fcca c0be cd33 443d a7c7 32bc 87ee 67bd
00000050: 2ded ed3c bb91 b63c 507c 29bd 7934 1f3e
00000060: d991 fb3e 77de e7bc b8a8 8e3d 2469 063e
00000070: f5ff ab3d 2a07 c5bc 5804 e4bd e5c1 ddbb
00000080: 91d2 253f 98b3 3a3d bfde 073f 3b66 a7be
00000090: f5bc 08be 281b 033e 60eb 41be 191f b43d
000000a0: 0948 c93e 51f7 cdba 2e75 ef3b e556 4a3d
000000b0: 6ffc e7bd 2043 5cbd 671f b8bc 765c 0fbc
000000c0: f3f1 a03e 3b34 6c3d 1736 bc3e 1281 7c3d
000000d0: c5d2 c23e e8cf 423d 9d49 adbc 8bd6 3bbe
000000e0: 8fb7 113e 6c6a f63d 46c9 2cbc e3df 26bd
000000f0: c758 023d 6a23 46bd 47c8 b6bd 34e5 7abe

fc_advantage.2.weight f4 [32, 64]
-0.097718194 -0.1876321 0.12962186 -0.0884912 0.03407474 -0.08989854 -0.043420177 0.15896942
-0.04275021 -0.012828501 -0.03997876 -0.0044786246 0.044703424 -0.008944578 0.15867132 -0.06760863
-0.08443025 0.043729953 0.050804995 0.16438745 -0.032858565 -0.024872977 -0.094879426 -0.14919369
0.05825037 -0.08532519 -0.15154587 0.0157111 -0.027354524 -0.042421885 0.09083686 -0.07661446
0.06957076 -0.031042792 -0.014272209 -0.12151945 0.050414033 -0.08555421 -0.04264497 -0.110860266
-0.017110553 0.034884997 0.0049803127 -0.14456187 0.030730322 0.06565753 -0.06490913 -0.063660756
0.03223965 -0.031518992 -0.0035507788 -0.018755857 -0.044148613 -0.061023507 0.08674164 -0.029445276
-0.19641554 -0.015595376 0.030616373 0.111749955 0.0525084 -0.023565888 -0.13331321 -0.10921216
-0.03816677 -0.37432176 0.14556031 0.00691674 -0.08395048 -0.016234798 -0.25871834 -0.0016575505
0.018996743 -0.16539943 -0.25312555 -0.08659859 -0.14929952 0.050361395 -0.18942045 -0.042623885
-0.06046916 0.28093097 0.06738067 -0.059388824 -0.07197337 -0.20907176 -0.07992155 -0.25127146
0.17694955 0.0548398 0.0423442 0.45844367 0.08435797 0.09414348 -0.071978636 -0.24205157
-0.0026249264 0.043537177 0.0043078787 0.009864954 -0.042695582 -0.13472886 -0.21299832 0.18991895
-0.33153978 -0.0087643415 -0.09563521 -0.103648104 0.18021643 -0.015507824 -0.5222481 -0.10872226
0.089247756 -0.115954176 0.066063695 -0.15178303 0.078013726 -0.5155047 -0.0008653892 0.16465974
-0.09543076 -0.052062355 -0.28462398 0.02114156 0.11779556 -0.046154987 -0.27537283 0.114684165
-0.07365267 -0.2871408 0.04278306 0.046180405 0.13646866 0.04489867 -0.19709672 0.01089737
0.07586452 0.12413174 -0.008744392 0.018464223 0.08321855 -0.09187576 -0.05304191 0.056305625
0.18508351 0.14724302 -0.017151628 0.20382762 -0.04479046 0.17311731 0.055598825 -0.20270763
-0.031680506 -0.11045114 0.14654732 -0.11049162 0.050619513 0.11230064 0.077945285 0.22453143
-0.14505924 0.20109229 -0.14239441 0.0056129033 0.027999962 0.29642484 0.101274125 0.08757843
-0.0037675218 0.053518753 0.078870356 0.087413475 0.16461869 0.0029605555 -0.42090434 0.032598324
-0.059518084 0.1216732 -0.1472592 -0.17942873 0.0059856847 -0.08208614 -0.07462621 0.17803557
-0.020910896 0.119287476 -0.047089178 0.03822638 0.055847228 0.086806886 -0.05014281 0.058035087
-0.027778042 0.084940225 -0.31333545 0.009667921 -0.21114309 -0.37593853 0.016301889 -0.754147
0.09971488 0.10184392 0.048486616 0.29520997 -0.15413469 -0.24518472 -0.101942904 0.03170293
0.056123793 -0.12673785 -0.12991613 -0.02907189 -0.04195979 0.069787085 -0.06197886 0.24197814
-0.05384745 -0.031815156 0.05278137 -0.08545368 -0.15499663 -0.01142189 -0.1692136 0.17643169
0.007850529 -0.2197657 0.059505284 -0.4343698 -0.2308179 0.07226372 -0.057575922 -0.24589102
0.14365046 0.056889407 0.054622624 0.13617359 -0.15105666 -0.051956613 0.014403316 0.097620316
-0.10105091 0.12873206 -0.062559046 0.24104184 0.025621852 0.36001205 0.04869247 -0.24633138
0.17581919 0.08965236 0.026666267 0.09566286 -0.15914847 -0.08867543 0.031431124 -0.005696378
00000000: 7a20 c8bd a122 40be 98bb 043e e03a b5bd
00000010: f491 0b3d ba1c b8bd 5bd9 31bd e1c8 223e
00000020: d81a 2fbd a22e 52bc c5c0 23bd 6dc1 92bb
00000030: f01a 373d 478c 12bc bc7a 223e 6576 8abd
00000040: c4e9 acbd 2e1e 333d e618 503d 2f55 283e
00000050: b496 06bd 6ac2 cbbc 2550 c2bd 3bc6 18be
00000060: f197 6e3d f9be aebd d72e 1bbe 91b4 803c
00000070: 9816 e0bc 92c2 2dbd ad08 ba3d 0be8 9cbd
00000080: 1d7b 8e3d 744d febc fcd5 69bc 30df f8bd
00000090: f27e 4e3d 0c37 afbd 7eac 2ebd b50a e3bd
000000a0: 6e2b 8cbc 92e3 0e3d e431 a33b 0708 14be
000000b0: 28be fb3c 7577 863d 14ef 84bd 9260 82bd
000000c0: b90d 043d 0f1a 01bd 2fb4 68bb e2a5 99bc
000000d0: 2dd5 34bd c9f3 79bd 9aa5 b13d 3837 f1bc
000000e0: 2821 49be bf83 7fbc 30cf fa3c 29dd e43d
000000f0: 0c13 573d 400d c1bc 4283 08be a0aa dfbd
00000100: c254 1cbd 1aa7 bfbe c30d 153e d2a5 e23b
00000110: 3bee abbd d7fe 84bc bb76 84be 2a42 d9ba
00000120: 0f9f 9b3c 785e 29be ac99 81be 9a5a b1bd
00000130: f9e1 18be c047 4e3d 6ff7 41be 6296 2ebd
00000140: 83ae 77bd 2fd6 8f3e e0fe 893d b241 73bd
00000150: c666 93bd e816 56be e9ad a3bd a7a6 80be
00000160: 4332 353e b39f 603d 1d71 2d3d 21b9 ea3e
00000170: dfc3 ac3d 4cce c03d 8969 93bd 5edc 77be
00000180: f506 2cbb 0a54 323d 1b29 8d3b 9ea0 213c
00000190: 90e1 2ebd 5df6 09be 3b1c 5abe 1d7a 423e
000001a0: 95bf a9be 5098 0fbc 65dc c3bd 7545 d4bd
000001b0: a88a 383e 8714 7ebc 0db2 05bf c7a9 debd
000001c0: 87c7 b63d 6279 edbd 674c 873d 036d 1bbe
000001d0: a9c5 9f3d 1ef8 03bf 49db 62ba 909c 283e
000001e0: 3471 c3bd 563f 55bd 3cba 91be 1131 ad3c
000001f0: cc3e f13d 030d 3dbd abfd 8cbe 88df ea3d
00000200: 36d7 96bd 1e04 93be 4a3d 2f3d aa27 3d3d
00000210: 71be 0b3e abe7 373d b9d3 49be e28a 323c
00000220: dc5e 9b3d c838 fe3d a344 0fbc 4842 973c
00000230: 7d6e aa3d 5c29 bcbd 7942 59bd baa0 663d
00000240: 8886 3d3e e0c6 163e 9281 8cbc 30b8 503e
00000250: 3476 37bd aa45 313e 98bb 633d 9792 4fbe
00000260: 6bc3 01bd 3534 e2bd 8010 163e 6e49 e2bd
00000270: 6856 4f3d e1fd e53d c7a1 9f3d 91eb 653e
00000280: 698a 14be 23eb 4d3e d7cf 11be 72ec b73b
00000290: 2d60 e53c ffc4 973e cf68 cf3d 525c b33d
000002a0: 87e8 76bb 7b36 5b3d c886 a13d d605 b33d
000002b0: cd91 283e e105 423b c680 d7be d285 053d
000002c0: 3cc9 73bd cc2f f93d 1ecb 16be 2abc 37be
000002d0: 9023 c43b c71c a8bd a0d5 98bd f54e 363e
000002e0: 544d abbc fe4c f43d 95e0 40bd 4493 1c3d
000002f0: 10c0 643d cfc7 b13d 8c62 4dbd 33b6 6d3d
00000300: c78e e3bc 24f5 ad3d 816d a0be 3366 1e3c
00000310: e535 58be 047b c0be 8a8b 853c c70f 41bf
00000320: 5137 cc3d 8c93 d03d e799 463d c325 973e
00000330: 7cd5 1dbe b411 7bbe 71c7 d0bd eeda 013d
00000340: 10e2 653d 91c7 01be bc08 05be 2c28 eebc
00000350: 07de 2bbd 88ec 8e3d 8cdd 7dbd 1ec9 773e
00000360: 258f 5cbd 9c50 02bd 4731 583d 5702 afbd
00000370: 70b7 1ebe e122 3bbc 5446 2dbe 82aa 343e
00000380: 819f 003c 420a 61be d0bb 733d b865 debe
00000390: 875b 6cbe 00ff 933d bbd4 6bbd dbca 7bbe
000003a0: 1b19 133e de04 693d f9bb 5f3d 1771 0b3e
000003b0: 99ae 1abe 75d0 54bd e3fb 6b3c 29ed c73d
000003c0: c8f3 cebd 56d2 033e f51e 80bd acd3 763e
000003d0: ebe4 d13c 8053 b83e c171 473d 4b3e 7cbe
000003e0: f209 343e a89b b73d 3773 da3c e4ea c33d
000003f0: d1f7 22be 779b b5bd ecbd 003d afa8 babb

fc_advantage.2.bias f4 [32]
0.0047707134 0.12649162 -0.12017334 -0.011619361 -0.19197299 0.19527206 -0.0052593634 0.17990918
0.02179914 -0.061834868 0.3233211 -0.1936926 -0.5350157 -0.008572675 0.026613675 -0.16525288
-0.04679358 0.05132509 -0.022987114 0.07314445 -0.11227645 0.0034270224 0.13128892 0.011369691
0.14157894 -0.06299673 0.23653266 -0.36174104 0.4876007 0.10573863 -0.49428794 0.38213983
00000000: a553 9c3b 0587 013e 711d f6bd 225f 3ebc
00000010: 9194 44be 66f5 473e bd56 acbb 1d3a 383e
00000020: 1c94 b23c 8f46 7dbd 588a a53e 5a57 46be
00000030: caf6 08bf 6874 0cbc ec04 da3c 0d38 29be
00000040: a0aa 3fbd 423a 523d 794f bcbc c2cc 953d
00000050: 32f1 e5bd e597 603b 9a70 063e f147 3a3c
00000060: 12fa 103e 6e04 81bd 9e35 723e 1f36 b9be
00000070: cda6 f93e 7f8d d83d 4f13 fdbe d5a7 c33e

fc_advantage.4.weight f4 [6, 32]
0.17107841 -0.1269252 0.052008595 0.042851914 0.031719696 0.035098445 -0.030786334 0.22103357
0.0071879937 -0.015776405 -0.19751318 0.008854959 -0.09035448 -0.08726237 -0.06265232 -0.057328925
-0.0064802794 -0.083086066 0.076168835 -0.35264942 -0.19189636 0.013368598 0.14368016 -0.28314814
0.063601956 0.3600001 -0.11689126 0.0670747 0.14435656 -0.0543991 -0.023613032 -0.13979684
0.07624687 0.022966703 -0.050875705 0.092336856 -0.10163623 0.09303114 -0.11074027 -0.17518346
0.21630491 -0.06733201 0.0043736766 -0.0054420684 0.075513944 0.49220896 -0.23377489 0.06688537
0.04194482 -0.095916376 0.12706512 -0.012649565 -0.13287406 -0.1979137 -0.14467141 0.06431776
-0.90251315 0.23297977 -0.1728417 0.091157876 0.11583014 0.3891522 -0.10629495 -0.017727684
0.19072336 -0.23978212 0.07899547 -0.48787615 -0.3454922 -0.568066 -0.07927826 -0.10142662
-0.32832617 -0.10556419 0.16047767 -0.056600224 0.02837873 -0.43464544 -0.0417259 0.03403717
0.050515942 0.48491558 0.062263902 0.004696174 0.26739958 -0.27581418 -0.04002924 0.046870317
0.3771001 -0.02957983 -0.18420258 0.09631633 0.10011825 -0.53364843 -0.08333011 -0.079572335
-0.018669046 -0.06746434 -0.2979814 0.032323845 0.3240963 0.21678549 0.4827813 0.019532032
0.05372752 -0.016974946 -0.20820163 -0.32617256 -0.21738075 0.11937711 0.18808284 0.03255676
0.10938131 -0.58396214 -0.34769484 0.14277463 0.24056569 -0.14526115 -0.1242702 0.11055172
0.07212343 -0.30542767 -0.6238613 0.39331052 0.26465583 0.16696192 0.24060446 0.25430927
0.24286422 0.30093762 -0.124400474 -0.16831867 0.1057253 0.07703866 -0.24913442 0.062569715
-0.04238595 0.073896185 -0.17713779 0.61537164 -0.31811792 -0.017688455 0.010365492 -0.033191152
0.075024754 -0.19909576 0.1794854 0.21596476 -0.07449758 -0.24442507 -0.34710005 -0.1012371
0.12628867 -0.23543738 0.43803018 -0.6720876 0.06857241 0.026725983 -0.56636614 -0.080133125
0.13520138 0.09989251 0.20320636 -0.06933781 0.081408516 0.1170473 -0.20552681 -0.12416576
-0.06256042 0.17083713 -0.23670122 -0.18686137 0.14341891 -0.12905537 0.14129174 0.08733769
0.0033195112 -0.11938146 0.08105895 0.18645379 0.10191316 0.3867279 -0.051651347 0.14110918
-0.10593187 -0.013771646 -0.026307922 0.109409854 -0.22417794 -0.020458153 0.24566536 -0.38587523
00000000: 2e2f 2f3e aef8 01be f706 553d 7d85 2f3d
00000010: 83ec 013d 63c3 0f3d 9f33 fcbc a056 623e
00000020: 4389 eb3b 853d 81bc e540 4abe 6414 113c
00000030: c50b b9bd 9db6 b2bd dc4f 80bd bcd1 6abd
00000040: 8658 d4bb 0729 aabd 68fe 9b3d 778e b4be
00000050: 7b80 44be f707 5b3c e420 133e cbf8 90be
00000060: be41 823d ef51 b83e af64 efbd 765e 893d
00000070: 35d2 133e 97d1 5ebd 1e70 c1bc e726 0fbe
00000080: 5227 9c3d ab24 bc3c 0b63 50bd 1b1b bd3d
00000090: a826 d0bd 1c87 be3d cbcb e2bd 4b63 33be
000000a0: 097f 5d3e 5de5 89bd 0f51 8f3b 6153 b2bb
000000b0: 0ea7 9a3d d002 fc3e af62 6fbe 32fb 883d
000000c0: 55ce 2b3d ce6f c4bd 5c1d 023e 1f40 4fbc
000000d0: 2310 08be e4a9 4abe be24 14be 08b9 833d
000000e0: 1a0b 67bf 4092 6e3e 6afd 30be fbb0 ba3d
000000f0: 5a38 ed3d f53e c73e 2bb1 d9bd a639 91bc
00000100: fc4c 433e 7289 75be 61c8 a13d e7ca f9be
00000110: 5be4 b0be c66c 11bf a45c a2bd c2b8 cfbd
00000120: 5e1a a8be 0a32 d8bd 4254 243e a3d5 67bd
00000130: 837a e83c d989 debe c7e8 2abd 8f6a 0b3d
00000140: cee9 4e3d db46 f83e 6f08 7f3d 5de2 993b
00000150: 99e8 883e 8437 8dbe b3f5 23bd 17fb 3f3d
00000160: 4413 c13e 6651 f2bc 9a9f 3cbe 7f41 c53d
00000170: cc0a cd3d 2f9d 08bf faa8 aabd d2f6 a2bd
00000180: d4ef 98bc be2a 8abd 0591 98be 0266 043d
00000190: f3ef a53e 04fd 5d3e 1c2f f73e a401 a03c
000001a0: 6311 5c3d 0b0f 8bbc cf32 55be 1700 a7be
000001b0: 0f99 5ebe fc7b f43d ca98 403e 3d5a 053d
000001c0: 4f03 e03d 8b7e 15bf 0f05 b2be 8333 123e
000001d0: da56 763e 57bf 14be 6081 febd f168 e23d
000001e0: 73b5 933d 0461 9cbe 60b5 1fbf ff5f c93e
000001f0: f880 873e 11f8 2a3e 0461 763e d334 823e
00000200: 66b1 783e 7f14 9a3e adc5 febd bb5b 2cbe
00000210: 8286 d83d 72c6 9d3d 181d 7fbe 8d24 803d
00000220: e49c 2dbd e256 973d 9c63 35be ff88 1d3f
00000230: 5ae0 a2be 61e7 90bc 06d4 293c 72f3 07bd
00000240: 94a6 993d c2df 4bbe 05cb 373e de25 5d3e
00000250: 3092 98bd 914a 7abe 19b7 b1be 6655 cfbd
00000260: d151 013e 7f16 71be 7e45 e03e ef0d 2cbf
00000270: b16f 8c3d 73f0 da3c 5ffd 10bf d61c a4bd
00000280: 3b72 0a3e 7294 cc3d 5415 503e fb00 8ebd
00000290: 82b9 a63d 7fb6 ef3d 9f75 52be 9e4a febd
000002a0: ad1f 80bd eeef 2e3e ce61 72be 9658 3fbe
000002b0: 68dc 123e 1727 04be c8ae 103e 1ade b23d
000002c0: 288c 593b 447e f4bd 3c02 a63d beed 3e3e
000002d0: d9b7 d03d 3301 c63e 5d90 53bd ed7e 103e
000002e0: cff2 d8bd 78a2 61bc b683 d7bc 4612 e03d
000002f0: e78e 65be db97 a7bc b38f 7b3e 7091 c5be

fc_advantage.4.bias f4 [6]
0.1392022 -0.07574769 -0.061477788 0.07957684 -0.19829096 -0.1365463
00000000: 068b 0e3e 9b21 9bbd 22d0 7bbd 2ff9 a23d
00000010: c90c 4bbe cbd2 0bbe
