data/Torch/Dueling/002_CNN-1_E_L/checkpoints/weights_300000steps.pth (torch, 286623 bytes, 13 tensors)

conv_layers.0.weight f4 [32, 1, 3, 3]
000000 90 5a c6 3c 30 b2 26 3c 91 fc 20 3d a1 4a 09 3e
       0.024213105 0.010174319 0.039303366 0.13407375
000010 7a 92 9d be bf b3 4b bd db 21 1d 3e 90 a2 b9 3d
       -0.30775815 -0.049731966 0.15344946 0.090642095
000020 cf 7b 49 3e c3 0f 94 be f0 51 a7 3e 33 a9 49 3e
       0.19676135 -0.28918275 0.326797 0.1969345
000030 d3 b0 ce bd 01 8d af bd f4 2e 76 3e c0 70 75 3e
       -0.1009232 -0.08571816 0.24041349 0.23968792
000040 ed 17 09 be f9 2a 74 be 9c 13 0b bf 1e d5 43 bd
       -0.13388033 -0.23844518 -0.54326797 -0.047810666
000050 f7 c9 e5 3d 5e 4d 91 3e 1b f0 34 3e 9c b8 93 bd
       0.11220162 0.2837934 0.17669718 -0.07212946
000060 c4 25 12 3d fc 0d 5c 3e 7c 0b 6a be 54 34 86 bf
       0.035680547 0.2148971 -0.22855943 -1.0484719
000070 46 79 14 be db d5 de 3d 16 3a eb 3d 54 ae b2 3b
       -0.14499387 0.108806334 0.114856884 0.0054529104
000080 5e 2d 86 3d d2 83 9b bc 8a 88 32 3a 14 f9 a2 3c
       0.06551622 -0.018983755 0.0006810507 0.01989416
000090 17 49 95 3e e3 53 18 be 50 5f d0 3d 3a c8 5d 3e
       0.29157326 -0.1487575 0.101744294 0.21658412
0000a0 ca 66 52 3e f5 b4 88 3c fa cd 34 3d 3f b1 0d bd
       0.20547023 0.01668785 0.044141747 -0.034592863
0000b0 ba 3a 3c bd ff 41 b0 3e 35 7d 20 3d ed f1 79 bd
       -0.045954444 0.3442535 0.039181907 -0.061021734
0000c0 41 0d 58 bf 83 14 95 3e 20 1b ff bd 81 99 70 be
       -0.84395224 0.29117212 -0.124563456 -0.23496057
0000d0 5c 12 7f 3e c6 93 5f bd 06 55 18 3f cf d1 f2 bb
       0.24909347 -0.054584287 0.59504735 -0.007410265
0000e0 bb 4d a4 bc 10 f0 9b 3d 53 99 be be 12 4e 68 3d
       -0.020056596 0.07614148 -0.37226352 0.05671508
0000f0 54 80 6d bb c1 e9 c4 3c 59 9b 2e be f2 8b 3c bf
       -0.003623982 0.024037244 -0.17051448 -0.7365104
000100 6d 5b 95 3d 1f 27 00 bf 51 e7 4c 3d 3d 36 83 3d
       0.07292829 -0.50059694 0.050025288 0.064068295
000110 f8 e2 67 be bd 3a 00 3e ea ae 9e 3d 25 54 b9 bd
       -0.22645175 0.12522407 0.07748206 -0.090492524
000120 72 14 12 bf 4b 5a 28 3e 40 12 aa 3d d9 76 fe bb
       -0.5706245 0.16440694 0.08304262 -0.0077656326
000130 57 82 8f 3e c2 42 2a be 14 8c 1b be 47 08 8d 3e
       0.2802913 -0.16627029 -0.15190154 0.27545378
000140 b9 90 ba 3d a9 15 72 3e 49 4b 39 be 6a 07 7c 3d
       0.09109635 0.23641075 -0.18095125 0.061530508
000150 d7 c3 c4 be 55 0d be bd f7 16 94 3e af f2 48 be
       -0.38430664 -0.09279887 0.2892377 -0.19623826
000160 22 12 40 be 53 84 5f 3e c6 36 7c be 7c 4d f3 3d
       -0.18756917 0.21827821 -0.2463027 0.11880013
000170 c7 ef 40 3e a4 50 37 3d 68 44 7f 3e ec c1 bf 3c
       0.18841468 0.04475464 0.24928439 0.023407899
000180 34 a7 19 be 94 d0 95 be d8 b6 8f 3d 39 03 04 be
       -0.15005189 -0.29260695 0.070172966 -0.12891854
000190 2b 59 a8 be 37 ec b3 3d 37 00 bb 3e ff c4 60 3e
       -0.3288053 0.08785289 0.365236 0.21950148
0001a0 2c ef d9 3d 15 e1 64 3d 46 c3 91 be c7 c0 8f be
       0.106413215 0.055878717 -0.28469294 -0.28076765
0001b0 5c 39 1c 3e 8b e9 02 3d 52 e9 98 3c 8c 77 44 be
       0.15256256 0.031961005 0.018665943 -0.19186229
0001c0 8d 79 91 bd cc d9 6b 3e 95 bc 52 3d 50 39 df 3d
       -0.07103262 0.23032302 0.051449377 0.10899603
0001d0 f4 fb 26 bd 09 11 94 bf 11 a9 bd bd fa 11 75 bd
       -0.040767625 -1.1567699 -0.092607625 -0.059831597
0001e0 5b 0f 17 3e 1a 1f 20 be a8 d0 37 3e 23 d8 7f 39
       0.14751951 -0.15636864 0.1795069 0.00024399212
0001f0 aa 0b 8b bc 53 8d f6 3d 1a e2 bf 3e f5 b3 6e 3e
       -0.016973335 0.12038674 0.3747719 0.23310836
000200 ea 67 e3 bd 6f 41 d9 3b da a5 51 be f6 42 0f 3e
       -0.111038044 0.0066301147 -0.20473424 0.13990387
000210 a5 bd a1 bd 55 4e 49 bc ce fd 40 be 33 49 ea 3e
       -0.078975 -0.012286742 -0.18846819 0.45758972
000220 be e1 9e be 66 ec 72 bd b7 97 b1 3d 92 ac ad bd
       -0.31031603 -0.05930748 0.086715154 -0.08480181
000230 73 7b a4 3d 76 54 d1 bd 9c 3c 10 ba 63 7e 3a 3c
       0.080313586 -0.10221188 -0.00055021956 0.011382672
000240 d5 e7 96 3d a2 df 2e 3e 82 da 09 3e 61 e0 09 3e
       0.07368437 0.17077497 0.1346226 0.134645
000250 b5 9f 6f 3d f0 7d b8 bd 61 79 a1 bd 76 c5 e9 bd
       0.058501918 -0.09008396 -0.07884479 -0.11414616
000260 9b 67 49 be 7f e8 60 3c 8a c1 52 3e 7b 79 be 3d
       -0.19668429 0.013727306 0.20581642 0.09300514
000270 7f f9 81 be 51 23 0d be c9 d5 1e 3d 98 df 24 be
       -0.25385663 -0.13783003 0.0387781 -0.16100919
000280 d9 bc 0a 3e 00 38 f6 3d 75 47 f0 be 1c dd f5 3c
       0.13548602 0.120224 -0.46929517 0.03001266
000290 e5 7a 55 bd f2 b2 0d bd 06 92 fe 3d 2e b8 29 be
       -0.052119154 -0.034594484 0.124301955 -0.16574165
0002a0 eb 4b 21 3d ee 92 27 3e 29 9a 8d 3e 86 d6 ec 3e
       0.03937904 0.16364643 0.27656677 0.46257418
0002b0 83 12 2e be b6 8a 4d 3e 7e 4f bb 3d c0 ef e0 be
       -0.16999249 0.20072445 0.09146021 -0.43932915
0002c0 28 a3 29 be eb 2c 94 3d 8e 7f 84 be 9d 8b 16 be
       -0.16566145 0.0723513 -0.25878567 -0.14701696
0002d0 be d6 4a 3e 7e 57 91 be 6d 65 c7 3d c3 4b 9a be
       0.1980848 -0.28387064 0.09736142 -0.30135927
0002e0 f8 77 46 be fe 4b 82 3d 78 c3 43 be da aa 7f 3e
       -0.19381702 0.063621506 -0.19117534 0.24967518
0002f0 a6 48 82 3e 1b 40 0b 3f 84 42 99 bd fe 09 31 3e
       0.2544605 0.5439469 -0.0748339 0.17288968
000300 45 e7 51 be 1a 0b 60 be 30 20 d2 ba 43 2a e8 bd
       -0.20498379 -0.21879235 -0.0016031321 -0.11336186
000310 de 56 e7 3d 7b fe 42 3c ab 41 29 3d 06 ff 19 3e
       0.112958655 0.011901493 0.04132239 0.1503869
000320 6c f7 b3 3d 3f d2 48 3e e0 c1 4c be a9 a4 4f be
       0.08787426 0.19611453 -0.19995832 -0.20277657
000330 28 44 9f bb 0f 7a 18 be 39 cd af 3d 0f c6 59 be
       -0.00486042 -0.14890312 0.08584065 -0.2126696
000340 df 22 ba 3e b7 97 9d 3e bc 60 de bd e1 22 d7 bc
       0.3635473 0.30779812 -0.10858294 -0.026261749
000350 0f 26 74 3c ad b4 56 be 27 2e 1d 3e 63 ff 42 bd
       0.014901652 -0.2096736 0.15349637 -0.047606837
000360 a5 fb 04 3e 36 ba 2f be d7 73 52 3e 86 71 8e 3e
       0.1298662 -0.17160878 0.20552002 0.27820987
000370 60 1c 99 bd 64 14 40 bd a7 26 84 be 73 d8 60 3d
       -0.07476115 -0.046894446 -0.2581074 0.054893922
000380 cd aa 55 be ff 15 79 3e e3 8b 2c 3e 4d e4 4f 3d
       -0.20865937 0.24324797 0.16850238 0.050754834
000390 9b ab e5 3d 0f d3 42 be a4 f1 8e 3d 3d b1 35 be
       0.11214372 -0.19025825 0.06979683 -0.17743392
0003a0 eb 46 0b be 4a 4d 34 be 02 82 c1 be 76 d3 de 3c
       -0.13601272 -0.17607608 -0.377945 0.027200442
0003b0 1a 6c d3 3d 24 1a 02 3e ac 41 d8 3d 2f 60 88 be
       0.10323353 0.12705284 0.10559401 -0.26635882
0003c0 5b 55 a2 3d f5 81 05 3e 6f 72 b4 3d c8 a9 4a 3e
       0.079264365 0.13037856 0.08810889 0.19791329
0003d0 a8 31 c6 3d 61 54 b2 be fe 71 98 3e 75 7d aa bd
       0.0967744 -0.3483 0.2977447 -0.0832471
0003e0 36 67 72 3d 34 81 85 be 31 cc da 3d c7 b2 ac 3d
       0.05918046 -0.26075137 0.10683478 0.084325366
0003f0 98 4e ed 3e 95 f3 0f bd f6 c1 b0 3d 81 6e aa be
       0.46349025 -0.035144407 0.08630745 -0.33287433

conv_layers.0.bias f4 [32]
000000 a1 9b 18 bf b4 49 fa be 46 bc dc 3e 18 b9 f0 3e
       -0.5961247 -0.48884356 0.4311239 0.47016215
000010 9c 41 f1 be d6 a9 ed 3b 91 c8 81 bc 87 d9 c0 3e
       -0.47120368 0.007252912 -0.015842708 0.3766596
000020 06 2e 5f bc 76 8e 14 be f2 6d c2 3e 13 71 f7 bd
       -0.013621813 -0.1450747 0.37974507 -0.12082114
000030 43 e9 b9 be 63 47 0a 3f f0 81 b8 be 9e de 4e 3e
       -0.36310777 0.5401518 -0.36036634 0.20202109
000040 4f a4 ae be 48 a1 f0 3e 52 2a 04 3f 7e 13 91 3e
       -0.34109733 0.46998048 0.51627076 0.28335184
000050 eb fa eb 3e 31 97 c9 be 54 3f 8b 3e ed 90 19 bf
       0.46089873 -0.39373162 0.27196753 -0.59986764
000060 cc 76 e1 3e 2a b8 e5 3e 5a 72 0d 3f 6f 15 db be
       0.44035947 0.4486707 0.5525261 -0.4278979
000070 25 62 15 be 73 85 b1 3e 78 ca b4 3e 69 9e ba be
       -0.1458822 0.34672126 0.3531072 -0.36448982

fc_state.0.weight f4 [64, 512]
000000 a0 58 2b 3c e3 4d 88 bc 96 78 a5 bc bc 7b f7 bb
       0.010458142 -0.016638702 -0.020199101 -0.007552592
000010 b5 0c 01 3d 5d 39 10 bd 45 34 a8 3c 30 58 21 bd
       0.03150626 -0.035210956 0.020532737 -0.039390743
000020 b1 26 fe 3c af bd 82 bc e6 f8 b6 bc 15 24 0e 3d
       0.031024309 -0.015959589 -0.02233548 0.03470238
000030 76 47 dd 3c 45 84 be bb ac 5c a1 3a 80 cd c2 3c
       0.027011614 -0.0058141076 0.0012310944 0.02377963
000040 d5 5a f4 3c f0 f5 e6 bc df 5b 2d bc bc 73 eb 3c
       0.029828468 -0.028193444 -0.010580986 0.02874171
000050 08 2e de 3c cd 7d 24 bb f5 6d 06 bc b7 e4 d5 3b
       0.027121559 -0.0025099397 -0.008204927 0.006527509
000060 dd 5d 8f bc 6a 79 d3 3c 11 06 04 bd 3c 9d 42 3c
       -0.017500812 0.02581473 -0.032232348 0.011878308
000070 a7 96 63 3c 06 35 95 bc ca cf d7 3c dc b8 06 3d
       0.013890899 -0.01821376 0.026344199 0.03289114
000080 cb 0f 03 3c a3 83 42 bd 2f 56 a8 3c fb 26 f0 3b
       0.007999371 -0.04748882 0.020548908 0.0073288656
000090 eb 83 30 3c b3 47 8b 37 03 1d 65 bb 52 a7 c8 bc
       0.010773639 1.6603479e-05 -0.003495992 -0.024493847
0000a0 bc cb 16 bb 06 2f 0c bd 8d db ed 3c b0 c9 6d 3c
       -0.0023009619 -0.034224533 0.029035354 0.014513418
0000b0 65 e6 ce 3a 2c c5 3d bb 9e fc bd 3b 19 8b 25 bd
       0.0015785216 -0.0028956635 0.0057979366 -0.040415857
0000c0 7d b4 cc bc 13 12 3e bd 40 e8 e0 bb e8 6b 09 3d
       -0.024988407 -0.046403956 -0.006863624 0.033550173
0000d0 e8 ba 41 bd 19 62 f1 3c 04 17 4e 3c 89 0a 6a bc
       -0.04729739 0.029465722 0.01257873 -0.014284738
0000e0 fd 79 25 bd 71 94 0f bd d4 a4 cc bc 67 cd 23 3c
       -0.04039954 -0.035053674 -0.02498094 0.009997702
0000f0 59 41 39 3c d4 21 2a 3b e3 76 36 bd 8e b7 2f bd
       0.011307084 0.0025960105 -0.044546973 -0.04289966
000100 a2 60 9d 3c c9 3a 48 3c 00 b9 27 3c f0 e4 cc bb
       0.019211117 0.012221047 0.0102369785 -0.0062528774
000110 e7 47 fb 3c 9d 29 b4 3c be 22 97 3c 31 65 b2 3c
       0.030673934 0.021992499 0.018449184 0.021776767
000120 44 fc cc 3b ff d9 ec 3b ef 97 df 3c e6 1f 12 3c
       0.0062556583 0.0072281356 0.027294127 0.008918738
000130 f0 72 d5 bb ca a4 ca bc 78 54 0a bd 15 96 f5 bc
       -0.0065139458 -0.02473678 -0.033771962 -0.029978791
000140 d4 8e f8 3b a1 fd 20 3d 08 3d 23 bd 20 6e 03 bc
       0.007585386 0.03930438 -0.039853126 -0.008021861
000150 d6 b0 18 3d e8 25 34 3c a4 97 0b 3d 12 d1 22 3d
       0.03727802 0.010995366 0.034080163 0.039750166
000160 4c 8c 1e 3c b7 31 5c bc 41 18 c1 bc c0 92 40 ba
       0.009677004 -0.013439587 -0.023571135 -0.0007346086
000170 a4 b1 15 bc ac 4c c5 3a 20 e5 94 bb 0d 4e 6d 3c
       -0.009136591 0.0015052757 -0.0045439154 0.014483941
000180 21 7a 47 bd 74 8e da bc 28 a2 92 3c e6 18 40 bc
       -0.048700456 -0.026679255 0.017899588 -0.011724686
000190 c1 7b 35 bc 2d 6a 9b bb d1 bc 22 bd 83 02 30 bc
       -0.0110768685 -0.0047428817 -0.03973085 -0.010742786
0001a0 c0 2f 12 bd a5 f0 3c ba 3f 19 00 bd 35 c3 12 bd
       -0.03569007 -0.00072074897 -0.031274077 -0.035830695
0001b0 93 32 19 3c 33 87 da 3b 31 e1 c2 3c 6c 3f 83 3c
       0.009350437 0.006668949 0.02378902 0.016021453
0001c0 bc a7 85 3c cb b5 41 bb 3e 53 7c 3b d6 1f 9f 3b
       0.016315334 -0.002955782 0.0038501765 0.00485609
0001d0 27 4e 25 3c 34 64 0a bc f6 9b a3 3c 20 dd 8b bc
       0.010089434 -0.008446742 0.019971829 -0.017073214
0001e0 1f 8a e2 3c de 9c 3f bd 7a ee 08 3d 26 33 21 3d
       0.027653752 -0.04678046 0.033430554 0.03935542
0001f0 ae f6 05 3d 02 14 21 bd 49 a9 f2 bc ab fa a1 bc
       0.032705955 -0.03932572 -0.029621737 -0.019772848
000200 c8 38 06 3d 9a 3b 12 3c a4 df 2c bd ba 98 a1 bc
       0.032768995 0.008925343 -0.042205468 -0.019726146
000210 df 6b 17 3d 48 d3 9d 3b cd 2c 0e bd a9 38 74 bc
       0.03696811 0.0048164465 -0.034710694 -0.014906087
000220 33 0b 30 3d 3f 32 9a 3c ce 11 ae 3c 32 a9 4e 3c
       0.04297943 0.018822787 0.021248724 0.0126135815
000230 c0 ec 38 3c 60 54 0f bb 23 df 8c 3c 29 4b d3 3c
       0.011286914 -0.002187036 0.017196244 0.025792675
000240 07 4e f5 3c e2 37 af bc a7 84 26 bd ba af 03 3d
       0.029944433 -0.021388952 -0.04065385 0.032150008
000250 a0 87 74 3c 6e 38 d4 3c 5a a4 40 bd f9 70 1b 3c
       0.014924914 0.025905814 -0.047031738 0.009487384
000260 af 25 2a 3d a4 6d 2c bd b5 15 e3 bb f9 2b c3 3a
       0.041539844 -0.04209675 -0.006930078 0.0014890424
000270 90 6b 22 bd e0 dc 1f 3d e3 b4 ae 3c e4 14 8c 3c
       -0.03965336 0.039029002 0.021326488 0.017099805
000280 d0 5e b1 bb 02 9c cc bc 44 06 d8 3b 91 8f 85 bc
       -0.005412914 -0.024976734 0.006592544 -0.01630381
000290 1d 8d c4 3c 4e 61 ba 3c d0 3b 72 bc c0 93 d3 3c
       0.02399307 0.022751477 -0.014784768 0.025827289
0002a0 f3 50 15 bb a5 85 2e bd ae ba e3 3b 56 b1 01 3d
       -0.0022783845 -0.042607922 0.006949744 0.03166326
0002b0 05 a4 c2 3c 6f c5 d9 3a 5a 24 d6 bc d3 a9 11 bd
       0.023759851 0.0016614626 -0.02614038 -0.035562348
0002c0 8a 0b 1c bd 11 2c a1 bc 96 3d 2a bd 17 56 e3 bc
       -0.038096942 -0.019674333 -0.04156264 -0.027751012
0002d0 ab c6 00 3d c8 73 17 3a 96 9e 1f 3d bc 56 df bc
       0.031439465 0.00057774456 0.0389696 -0.027263038
0002e0 c6 13 b2 3c 60 30 04 3b 80 80 c4 3a 8f 84 23 3d
       0.021737944 0.0020170435 0.0014991909 0.03992134
0002f0 4b 3e 2e bd 80 bf 81 bc c0 cf 7c ba 18 7a b7 bb
       -0.042539876 -0.015838385 -0.0009643994 -0.0055992715
000300 24 27 b0 bc 17 9e bc bc 98 2a 1d bd cb b7 29 bd
       -0.021503039 -0.023024602 -0.0383707 -0.041435044
000310 69 7a a7 3c 5c c0 4b 3a 96 5c 1e bd 62 4f 0c bd
       0.020444112 0.0007772499 -0.038662516 -0.034255393
000320 18 a2 ee bc 37 c4 4a bc 36 e2 94 3c dd 19 21 bc
       -0.029130027 -0.012375883 0.018174272 -0.009832826
000330 aa 80 03 bd f7 2b 21 bc 8c 5d 3d bd 63 02 e0 bc
       -0.032105125 -0.009837142 -0.04623179 -0.027344888
000340 34 c3 03 bd de f4 61 bc 03 ab cf bc 8c da 12 bc
       -0.032168582 -0.013791291 -0.0253501 -0.008963238
000350 8e f5 1d 3d 04 56 f5 3b 08 70 5c 3c 49 04 2b bd
       0.038564257 0.0074870605 0.013454445 -0.041752134
000360 48 c2 08 3d 7d af c1 bc 00 3d 91 bb e6 6e 27 bc
       0.033388406 -0.02364325 -0.0044323206 -0.010219311
000370 38 f4 a3 bc 97 0c 8a bc 67 5d 1a bc 99 0c fe 3c
       -0.020013914 -0.016851706 -0.009421683 0.031011866
000380 76 ab 2b bd ca 77 68 3b 88 1f 83 3c ba cb 18 3b
       -0.041911565 0.003547179 0.016006246 0.002331479
000390 61 4f 0e bd ea de ad 3c 73 a3 ff bc 88 8a a0 bb
       -0.03474367 0.021224458 -0.031205868 -0.0048993267
0003a0 1e 33 28 bd 9f bb 1c 3c 95 9f bc 3c d9 7d ee bb
       -0.041064374 0.009566217 0.023025313 -0.007278186
0003b0 28 b8 1a 3d 36 7b 0c bd a5 70 18 bc 4b 8e 1e 3a
       0.03777328 -0.03429719 -0.0093042 0.0006048425
0003c0 e9 47 f1 bc 33 45 98 bc 98 72 2e bd 20 29 b0 3c
       -0.029453235 -0.018587684 -0.042589754 0.021503985
0003d0 32 15 96 3c 60 eb 3d 3c 48 85 0c 3d b9 aa fd ba
       0.018320654 0.011591762 0.034306794 -0.0019353247
0003e0 81 71 c2 bc b8 76 32 bd 68 04 8f 3c b7 06 10 bd
       -0.023735764 -0.04357025 0.017458156 -0.035162654
0003f0 9e d6 a2 3c 96 16 25 bd 2a b6 0a 3d 7b 36 d5 bc
       0.019877728 -0.040304743 0.03386513 -0.026026955

fc_state.0.bias f4 [64]
000000 d4 cb 6e bb 78 54 dd bc d6 f5 c9 3c 9c 2c f9 bc
       -0.003643741 -0.027017817 0.024653357 -0.03041678
000010 87 7a 68 3b 36 e3 16 bc 7d 02 5d bc 9b 48 e2 3c
       0.0035473423 -0.009209445 -0.013489363 0.027622512
000020 43 dd c9 bc 7c b7 04 3d 32 72 ef 3c 64 73 f9 bb
       -0.024641639 0.032401547 0.029229257 -0.0076126326
000030 dc 21 be bb 01 52 9b 3d c3 3b bd 3c 26 88 f4 3c
       -0.005802376 0.075840004 0.023099786 0.029850077
000040 bf 98 ca bc bf 5c 2e bd 68 b7 41 bd a2 34 ea 3a
       -0.024731038 -0.04256892 -0.04729405 0.0017868469
000050 78 44 2f bd d5 ec c5 bc 95 30 8c bc 3f c4 f1 bc
       -0.042789906 -0.024160782 -0.01711301 -0.029512523
000060 e8 87 c5 3c 48 62 b3 3d b5 26 90 3c b0 b3 9a 3a
       0.024112657 0.0875898 0.017596582 0.0011802819
000070 74 ed 0e bd 07 6a 57 3d d8 04 b9 bc 99 2d 1e bc
       -0.03489442 0.05259135 -0.022585317 -0.009654426
000080 4e 29 20 bd c3 a5 63 bd a1 41 14 bd 6c 46 29 b8
       -0.03910189 -0.055578005 -0.0361954 -4.0358325e-05
000090 f4 b6 17 bd b3 4b 35 bd 17 6f ea 3c 86 11 05 3d
       -0.037039712 -0.044261646 0.028617425 0.032487415
0000a0 80 47 8e bb 83 50 36 bd 9f 26 e2 3c f6 ab e0 bc
       -0.0043420196 -0.044510376 0.027606307 -0.027425747
0000b0 a0 15 5d 3d 3a b2 3b bb b9 c0 40 bb ae e3 9a bc
       0.0539757 -0.0028640167 -0.0029411747 -0.018907394
0000c0 30 99 05 bd 71 04 3e 3d 96 38 23 bd 33 95 c1 3b
       -0.032616794 0.046390954 -0.039848886 0.0059076785
0000d0 7d 97 13 bd 2a 59 61 bd e5 d7 87 3d 48 5b 61 bd
       -0.036033142 -0.055016674 0.066329755 -0.055018693
0000e0 35 1e e2 bb 5a 93 c9 3d 95 f8 b2 bc 57 55 3d bb
       -0.0069005736 0.09842558 -0.021847049 -0.0028889978
0000f0 83 a7 87 bd e3 e5 5c 3c c9 ca 45 bc 8b 66 51 bc
       -0.06623747 0.013482544 -0.0120722735 -0.012780796

fc_state.2.weight f4 [32, 64]
000000 f9 f2 de bd ef 5b c0 3d 6a ae a5 bd a0 f0 51 3d
       -0.10886187 0.09392535 -0.080899075 0.05125487
000010 01 1c f3 3d 47 75 a1 bd 60 85 33 bc 55 c1 eb 3c
       0.11870576 -0.07883697 -0.010957092 0.028778711
000020 0d 4d d5 3d 31 58 d5 bd 0b 09 4e 3d 05 63 ad 3d
       0.10415087 -0.10417212 0.050301593 0.08466152
000030 e1 be fb bd 18 e0 95 bd ba f7 4b bd 27 d7 12 3d
       -0.12292267 -0.07318133 -0.049796797 0.035849717
000040 2f da ef bd ae de e3 3d e9 99 8a 3d 9c b8 f9 b8
       -0.11711537 0.11126457 0.06767637 -0.000119076314
000050 53 95 dc bd 06 b0 12 3d b5 cd b2 bd 97 48 82 bd
       -0.10770669 0.0358124 -0.08730642 -0.06361502
000060 8b b9 e8 3d c6 c7 8e 3d 95 21 53 bc fc 4b 84 3d
       0.113635145 0.069716975 -0.012886425 0.06459805
000070 0d cb f6 3c 21 db 26 3d 6a dd 8d bb 22 cc b1 bd
       0.030126119 0.04073632 -0.004329373 -0.08681513
000080 66 17 8d 3c 15 51 31 bd c1 0a d7 bd 47 10 41 bd
       0.017223071 -0.043290216 -0.10500098 -0.047134664
000090 e6 e5 85 bd 90 d6 77 3c 10 30 1a be f5 7a d9 bd
       -0.0653799 0.015126839 -0.15057397 -0.10619155
0000a0 85 0e 91 3d bf fc e1 bb 7f 4b a6 3d 09 0b 1e bd
       0.070828475 -0.0068965848 0.081198685 -0.038584743
0000b0 9f 80 4e bd b9 cc 38 bc c9 30 79 be c3 de 90 bd
       -0.05041563 -0.011279278 -0.24335016 -0.070737384
0000c0 87 00 e4 3d c1 20 96 3d 5f 7d e1 3d 4c 73 6e 3d
       0.11132913 0.07330466 0.11010241 0.058215424
0000d0 27 4c a8 3d 23 22 b9 3d 04 aa 0b 3c b8 c1 c8 bd
       0.0821765 0.09039714 0.008524422 -0.09802574
0000e0 c9 60 e1 3c 53 3d 05 bd fe 85 d2 3d 3f 6c c1 bd
       0.027511971 -0.032529186 0.10279463 -0.094444744
0000f0 0e 70 e2 3d e6 b3 fa 39 7f 0a 39 bd 7a 24 55 3d
       0.11056529 0.0004781775 -0.045176025 0.05203674
000100 ef a4 be 3d 76 f7 f8 bd 8c e8 33 3d 28 2b 33 bb
       0.09308802 -0.121565744 0.043922946 -0.0027338956
000110 c0 15 68 3d d9 60 87 3d 4f 1c d9 3c 67 c3 8c bd
       0.056661367 0.06610269 0.026502756 -0.068732075
000120 04 94 b0 bd e8 f1 e5 bd 1f ae e0 3d 7f 0c dd 3b
       -0.08621982 -0.112277806 0.10970711 0.0067458744
000130 5a 50 94 3d d5 33 95 3d 57 57 69 bc 57 88 ed 3c
       0.07241888 0.07285277 -0.014242015 0.028995676
000140 02 77 0d bd fa ac 52 3d 75 4b 15 ba dd 26 f1 bb
       -0.034537323 0.051434495 -0.0005695143 -0.007359369
000150 64 6f ba bb 33 1a 33 3d 53 e1 05 3d 2f f8 9d 3c
       -0.0056895483 0.043726157 0.03268559 0.019283382
000160 a5 8f 4b bc f6 67 28 bd 47 b9 98 3d 7c 14 aa 3c
       -0.012424384 -0.04111477 0.07457214 0.02076172
000170 f7 12 a0 3d 58 1f 12 3e 78 48 4c bb ad de 3d 3e
       0.07816117 0.14269769 -0.0031171124 0.18541975
000180 16 51 7d 3d cb 97 fc 3d eb ed 75 3d 7e a2 37 bc
       0.061844908 0.1233364 0.06004135 -0.011208175
000190 65 92 15 3e 72 22 f5 bd b9 12 82 3d 7d 57 db 3c
       0.14606626 -0.119694605 0.06351227 0.026775116
0001a0 d2 ea e0 3d ea c6 5b 3d 46 c8 63 3d 85 e7 cf bd
       0.109822884 0.053656496 0.055610918 -0.10151581
0001b0 13 af e3 bb 8d 76 86 bd 18 c6 a4 3d 4a c0 ac 3d
       -0.0069483607 -0.065655805 0.08045596 0.08435114
0001c0 04 eb 30 bc b3 96 ce 3d 99 70 9d bc 86 cb a1 3d
       -0.01079822 0.10087337 -0.01921873 0.07900147
0001d0 44 4e d3 bc cd 14 49 3d 5e 7a 5d bb 32 af 0c bd
       -0.025794156 0.049092103 -0.003379486 -0.034346767
0001e0 85 22 45 bd 0e 91 8e 3d 5d 77 c1 bd d5 92 1d be
       -0.048128624 0.06961261 -0.09446595 -0.15388043
0001f0 68 cf 3f bd df 12 99 3d 72 6d a2 bc d5 91 18 3e
       -0.046828657 0.074743025 -0.019827578 0.1489938
000200 91 86 dc 3d d9 87 2a bd db 29 33 bd e9 3e d6 3d
       0.10767854 -0.04163346 -0.04374109 0.10461218
000210 05 38 c7 3d 85 79 e0 3d 3d eb 8c bd 67 bf 85 bd
       0.09727482 0.10960678 -0.06880806 -0.06530648
000220 a5 55 90 bd f0 bd 8a 3d 86 09 37 3b 63 9a f5 bd
       -0.070475854 0.06774509 0.002792926 -0.119923376
000230 e0 6e 90 bd 5d 7e 13 be 9b b3 9d bd 11 fe b2 bb
       -0.07052398 -0.14403673 -0.07700273 -0.005462416
000240 17 87 ad bc 00 6f 06 3d f1 86 a5 bd 6c c2 92 bd
       -0.02118258 0.0328207 -0.08082379 -0.07165989
000250 d1 58 f8 bd ff 8d 8f 3d 52 6e b4 3d ae e9 5e bd
       -0.121263154 0.070095055 0.088101044 -0.054422073
000260 aa ba bb bd ef 57 fb 3c 84 97 ed bd 42 c1 f2 3d
       -0.09166463 0.030681578 -0.11601165 0.11853267
000270 29 68 4d bd fc 90 8e 3d 9e f6 8a 3d 9f d6 41 be
       -0.050148163 0.06961247 0.0678532 -0.18929528
000280 c4 c3 e5 3d ae 9c 25 bd 40 b1 f6 bd 25 3e 06 bd
       0.1121898 -0.040432625 -0.120455265 -0.03277411
000290 61 87 33 bd 72 e4 d7 3d 5a 0e 2c 3d d2 d3 20 3b
       -0.04383028 0.10541619 0.042005874 0.0024540317
0002a0 71 17 e3 3d 0b a2 30 bc 8a 65 e4 3d d1 c9 f9 3d
       0.110884555 -0.010780822 0.111521795 0.121966965
0002b0 d0 d2 48 bd 83 85 ca bd 92 44 c6 bd d2 66 f9 bc
       -0.04902917 -0.098887466 -0.096810475 -0.030444536
0002c0 e8 03 64 3b ad e2 e0 3d 12 0a 46 bc 92 82 ea bc
       0.0034792367 0.10980735 -0.012087362 -0.028626714
0002d0 48 07 e2 bd ba 4b e5 3d 21 6e ae bd d9 0e 97 3d
       -0.11036545 0.11196084 -0.08517099 0.07375879
0002e0 ae 48 91 bd c5 f1 1b be 30 7d 4d bd 92 2e c6 bc
       -0.07093941 -0.15228947 -0.050168216 -0.024192128
0002f0 c1 af 9e bb b5 fc 49 3d 12 d9 a1 3c 71 75 e5 3d
       -0.004842729 0.049313266 0.019756828 0.11204041
000300 42 4d f4 3d 5b 12 eb bd 63 b3 0a be e8 95 74 3d
       0.11928798 -0.114781104 -0.13544993 0.059713274
000310 2a a1 7e 3d 08 2e bf 3c f3 9f 3e bd 54 b2 a2 3d
       0.062165417 0.02333738 -0.04653926 0.0794417
000320 05 30 e3 bd a9 67 50 3d 74 6b c8 bc 17 c4 dd bc
       -0.110931434 0.050880108 -0.0244653 -0.027071042
000330 1f d6 88 bd 4d 12 b9 3c 5a ae 1d 3d 20 3d c4 be
       -0.06681465 0.022591734 0.038496353 -0.38327885
000340 cf 6d b5 bd c7 a1 2a bd 39 2e 72 3d 75 57 e9 3d
       -0.08858835 -0.04165819 0.059126113 0.11393634
000350 f2 a7 8f ba 8c 4e 9e bd 18 3e 59 bc fe 1d 29 bd
       -0.0010960086 -0.077298254 -0.013259433 -0.04128837
000360 d0 cf 13 3d 48 45 d0 3d 7c 1e c3 3d 55 de b7 ba
       0.036086857 0.10169464 0.09527299 -0.0014028052
000370 40 f1 7a 3d 19 1b 60 bd 22 17 e9 bd 75 73 c5 bd
       0.06126523 -0.054713342 -0.11381365 -0.09641162
000380 eb 0c 09 be 7a b5 59 bc 05 86 9e 3d 11 4d 23 bd
       -0.13383834 -0.013287896 0.07740406 -0.039868418
000390 26 6a bb 3d 1e 42 48 bd 00 dd 2a be f5 67 fa 3c
       0.091511056 -0.04889118 -0.16685867 0.030567149
0003a0 7e d1 a7 3d 0d d9 4b 3d 57 dd 13 3c ae 2b 85 3d
       0.08194254 0.049767543 0.0090249395 0.06502472
0003b0 d8 7f 30 be dc 3c e9 bd 8d e8 68 be 95 9a 84 bc
       -0.17236269 -0.11388561 -0.22744961 -0.016186992
0003c0 f2 b4 a2 3d 51 91 f6 3d 02 01 0a 3c 66 43 03 bd
       0.07944669 0.12039436 0.008423092 -0.032046698
0003d0 79 e5 a8 bd 00 04 ec 3d 5d d1 23 ba d5 64 86 bd
       -0.082468934 0.115242004 -0.0006249154 -0.06562201
0003e0 fc 5e f0 3d 62 e7 c0 3d c5 a5 48 bd 11 c0 46 3d
       0.11736867 0.09419133 -0.048986215 0.048523013
0003f0 9c d7 91 bd df 4f cb bb ff fa b4 bd 7a c5 12 be
       -0.07121202 -0.0062045897 -0.08836936 -0.14333144

fc_state.2.bias f4 [32]
000000 6d 06 1d 3e e4 12 69 3d 9c 52 81 bd 15 ef 0e 3e
       0.15334482 0.05690278 -0.063145846 0.1395839
000010 b1 0c 08 be b3 d2 37 3e 6f 88 07 be 80 a7 63 bd
       -0.13286091 0.17951469 -0.13235639 -0.055579662
000020 22 77 be 3d ec 54 df 3d 8e e8 0e be 86 e7 01 3e
       0.093000665 0.109048694 -0.139559 0.12685975
000030 97 7d 01 be b8 96 2b 3e 51 53 b2 3d b4 86 94 bd
       -0.12645565 0.16756713 0.087072976 -0.07252255
000040 1f ee 43 bd b2 c8 9f bd d7 4c fa 3d 6d 3f 30 3d
       -0.04783451 -0.078019515 0.12221687 0.043029238
000050 23 30 b1 bd fa 9b 6f bc 7d 49 2e bc 30 10 a7 3c
       -0.086517595 -0.01462459 -0.010637638 0.020393461
000060 65 9f 10 3e 85 ea 40 bd 1a b1 3d 3e ea a5 1a 3e
       0.14123304 -0.047098655 0.1852459 0.15102354
000070 1e 64 1b bd ac 8b 11 3e 29 8d 05 3c 8f f3 ab bd
       -0.037937276 0.14213437 0.008151331 -0.083960645

fc_state.4.weight f4 [1, 32]
000000 73 d8 8e bd 05 63 e2 3d 52 79 be 3d 60 e9 82 be
       -0.06974878 0.11054043 0.09300484 -0.25568676
000010 16 b0 33 be e9 2e 0f be d9 20 05 bd 28 38 0a be
       -0.1754764 -0.13982739 -0.03250203 -0.13497984
000020 14 2f f6 bd a3 53 15 be b1 e3 9e 3d b5 cf 87 bd
       -0.12020698 -0.14582686 0.077582724 -0.06631414
000030 9d f1 e2 bd 8e 8c 01 bd 0e c5 8b 3d 2f d9 1a 3d
       -0.1108124 -0.031628184 0.068246946 0.03780478
000040 57 db 99 3d 7f 1a 23 be 8d c9 ac 3d 37 80 50 3d
       0.07512539 -0.15928076 0.0843688 0.050903525
000050 47 3b 1b 3e 4e 66 06 3e 0b 93 05 bd 13 a1 18 bd
       0.15159331 0.13124964 -0.032610934 -0.037262987
000060 e4 f3 f8 bc 32 24 1b be db 3a a7 bd 76 9a 66 be
       -0.030389734 -0.15150526 -0.08165523 -0.2251986
000070 f2 5e 8d bb 1f 19 b6 bd 0e c4 a6 3d f3 62 24 be
       -0.004314297 -0.0889151 0.08142863 -0.16053371

fc_advantage.0.weight f4 [64, 512]
000000 c8 42 12 bd bd 26 19 bd 25 a7 dd bc 70 73 7c 3c
       -0.03570822 -0.03739046 -0.02705724 0.015408382
000010 8b 9c be 3c 70 34 dc bc c9 21 0b 3c 96 8b f3 3c
       0.023268005 -0.026880473 0.008491942 0.029729646
000020 b8 5c 85 3c 55 a0 c9 bc 32 0b f2 bc 41 53 42 bd
       0.016279563 -0.024612585 -0.029546354 -0.04744268
000030 d5 16 78 bc 2f 65 35 bd f7 e0 2e bd 39 36 00 3c
       -0.015142162 -0.04428595 -0.042695012 0.007825428
000040 47 c4 47 bd 6b 7e 08 bd c5 0a d5 3c e7 e5 9d 3c
       -0.04877117 -0.033323687 0.026006112 0.019274665
000050 89 ae 10 3d 27 d1 bc 3c f0 67 e4 bc ca e8 16 bd
       0.0353227 0.02304895 -0.027881593 -0.0368431
000060 53 a0 69 3c 70 f0 78 bc d6 b3 21 3d 31 fe ac 3a
       0.014259416 -0.0151940435 0.039478146 0.0013198314
000070 f2 fe 1f bd d6 de 2c bd f8 f6 f6 3c b7 6b cb 3c
       -0.039061494 -0.0422047 0.03014706 0.024831636
000080 4a 9d 06 3d 00 b1 a1 bc c4 59 e9 3c d4 e9 15 bd
       0.032864846 -0.01973772 0.028485186 -0.03659995
000090 7e f6 af 3c bf 67 0b bd 56 8b 21 bc 06 67 e3 ba
       0.021479841 -0.034034487 -0.00985988 -0.0017349429
0000a0 3d 4b 53 3c 97 fa f0 bb 49 58 f5 3b 83 77 d5 bc
       0.012896356 -0.0073540914 0.007487331 -0.026057964
0000b0 45 82 96 bc e5 e4 d6 3c 8f f2 e3 3c a7 5b 38 bc
       -0.018372664 0.026232192 0.027825622 -0.01125232
0000c0 04 1e 61 3c 27 8c 99 bb 37 b2 29 bc d9 11 2f bd
       0.013740066 -0.004685897 -0.010357431 -0.04274163
0000d0 3d a4 ab 3b 10 ca 9a bc 66 99 82 bc 87 89 13 3d
       0.0052380846 -0.018895179 -0.015942287 0.03601983
0000e0 5d 00 09 bd 56 2b ec ba e9 ac 84 3c 45 ec 18 bd
       -0.033447612 -0.0018018286 0.016195731 -0.0373347
0000f0 f0 9e 07 bd 46 b4 a1 3c e8 39 3f bb 64 13 16 3d
       -0.03311056 0.019739281 -0.0029178802 0.036639586
000100 6e c2 13 bc 09 27 20 bd b7 52 dc bc 84 d8 e8 bc
       -0.009018524 -0.039099727 -0.02689491 -0.028423555
000110 3c 8f ca bc a9 de 80 bc f3 77 2a bd 91 17 ab bc
       -0.024726503 -0.015731173 -0.0416183 -0.02088526
000120 ff 9d 25 3b 60 a1 62 3c d1 75 ea bc 3f e6 0e bd
       0.0025271175 0.01383242 -0.028620632 -0.03488755
000130 3f 7f ce bb c2 b0 22 bd 84 e0 a9 3c f9 d7 40 bd
       -0.00630179 -0.03971935 0.02073694 -0.047080968
000140 e3 32 85 3c ae dc 02 bd 60 42 c8 bb 20 da 12 3b
       0.016259616 -0.031948738 -0.006111428 0.0022407845
000150 5c db 4e bd fb a7 0a 3d a6 ee 0a bd ab 5c f4 bc
       -0.050502166 0.033851605 -0.033919 -0.029829344
000160 bd cd 82 bc fc 27 76 bc a1 ff c8 3c 53 af 18 3d
       -0.015967244 -0.015024181 0.024535956 0.037276577
000170 23 94 e5 3c 35 7d 81 bb 78 85 01 bd 00 95 4e b9
       0.028024739 -0.0039516934 -0.031621426 -0.00019701198
000180 2b 15 9f 3c 3a 97 e5 3c 98 3a 91 3c ce ee 9e 3a
       0.019419273 0.028026212 0.017728135 0.0012125613
000190 ea d6 0f 3d 33 d8 9e ba 56 97 28 3d 08 09 23 3d
       0.035117067 -0.0012118876 0.04115995 0.039803535
0001a0 32 24 53 bc a6 bb 1c b9 59 f5 25 bb 09 00 8b 3c
       -0.012887048 -0.00014947224 -0.002532324 0.01696779
0001b0 46 2e bb 3c 99 f8 23 bd 87 86 ae 3c 37 36 af 3c
       0.022849213 -0.040032003 0.021304382 0.021388156
0001c0 32 0c be 3b c6 23 9b 3c b5 4b a8 bc 87 70 8a 3c
       0.0057997936 0.018937957 -0.020543912 0.01689936
0001d0 22 61 a0 3c 66 fb 65 bc 35 23 be bc 26 ae 05 3d
       0.019577567 -0.014036989 -0.023210147 0.032636784
0001e0 b5 61 50 bc 06 2a 35 bd 00 e9 0f 3c 69 05 d3 3a
       -0.012718608 -0.04422953 0.008783579 0.0016099635
0001f0 cb 65 35 bd e5 5e 21 bd 7b cb a4 3c 03 9a e8 3c
       -0.04428653 -0.03939714 0.020116558 0.028393751
000200 fe cb 81 3c de 8a 77 bc e8 49 d1 3c 98 75 83 3c
       0.015844341 -0.015108792 0.025547937 0.016047284
000210 e3 d1 8d bc 4a b8 e3 bc 87 25 f5 bc 98 2c 2f bb
       -0.017311996 -0.027797837 -0.029925121 -0.002672946
000220 74 64 fa b9 84 81 0d 3d 34 36 11 bd 92 cd 7f bc
       -0.0004775856 0.034547344 -0.035452083 -0.015612977
000230 e8 61 08 3d a4 3f e3 3b 1d b4 75 bb 5d 7c 27 bd
       0.033296496 0.006935077 -0.003749139 -0.040890086
000240 30 92 e3 3b 44 c3 04 3d 2f 50 29 3b dd 41 c4 3b
       0.006944917 0.032412782 0.0025835147 0.005989297
000250 2d 2c 2a 3c 80 45 5b bc 98 f7 5b 3c 73 2f 4c 3c
       0.010386509 -0.013383269 0.01342573 0.012462485
000260 5d 82 e3 bc 94 ee 1f 3c 24 e8 d7 3c a6 d0 8f 3c
       -0.027772123 0.009761471 0.02635581 0.017555546
000270 2c 90 09 3d c3 6a 08 3d c1 f1 2e bd 09 d2 8e 3c
       0.03358476 0.03330494 -0.042711023 0.017434137
000280 47 c5 5e 3c 98 b0 bb bc d9 d9 1f bd 6c 33 3d 3c
       0.013596839 -0.022911355 -0.039026115 0.011547904
000290 06 13 45 bc 9f d3 13 bc ff 27 29 bd 76 c3 48 bd
       -0.012028461 -0.009022622 -0.04129791 -0.04901453
0002a0 dc f6 9e ba f2 fc 11 3c 4d f4 c1 bb 69 dc 1b bb
       -0.0012128013 0.0089104045 -0.0059190155 -0.0023782498
0002b0 42 05 f2 3c 59 f1 89 3b 04 4c c4 bc 16 b6 89 3c
       0.029543523 0.004209679 -0.023962028 0.016810458
0002c0 39 90 18 3d 8a 0b c3 bc f3 b2 33 3d 00 61 09 bb
       0.037246916 -0.023809213 0.04387183 -0.0020962358
0002d0 1a db f6 bc ae a4 9a bb 40 ff 24 3d f3 5a 1f 3d
       -0.030133773 -0.0047193384 0.040282488 0.038905095
0002e0 7c d8 27 3d 17 a4 1d bc da 39 27 bd f1 3e 21 3d
       0.04097794 -0.009621642 -0.040826656 0.039366666
0002f0 08 cc 16 bd 98 e2 fd 3b f5 ad bf bc 38 ae 39 bc
       -0.036815673 0.0077479593 -0.023398379 -0.011333041
000300 36 18 2d bb fd ec 46 bd 4f 4e 9c 3c e8 85 ae 3c
       -0.0026412136 -0.048565853 0.01908031 0.021304086
000310 4c 88 80 3c f7 37 06 3d 99 b1 a8 3b ac 45 a4 bc
       0.015689991 0.032768216 0.0051481244 -0.020052753
000320 25 9d b2 3a 54 ae 3c 3c 53 fa af 3c f2 72 41 bc
       0.0013627155 0.011516172 0.021481669 -0.01180719
000330 63 09 e7 3c a2 69 96 3c ee 2f 32 3d 36 3e 9c 3c
       0.028202718 0.018360917 0.04350274 0.019072633
000340 c0 c2 53 bb ce 24 8b 3c 29 e9 28 3d c4 59 ba 3c
       -0.0032312125 0.016985323 0.041237984 0.022747882
000350 98 22 e3 bc 69 e6 a6 bb 0c ed 7a 3b 75 2f dd bc
       -0.027726457 -0.005093385 0.0038288264 -0.027000168
000360 10 0c 09 3d 70 19 72 bc 22 f4 15 bd 18 59 6d 3c
       0.03345877 -0.014776573 -0.036609776 0.014486574
000370 e1 84 c1 3c e4 87 9d 3c 47 06 a4 3c f3 96 4c bd
       0.023622932 0.019229837 0.020022525 -0.049948644
000380 cf bd b7 3b fc 6c eb bc 0e 1f 15 3c 04 3d 19 bd
       0.0056073437 -0.028738491 0.009101642 -0.037411705
000390 72 ad 4c bc 70 58 1f bc 9a b8 2f bd 3e 2d 05 3c
       -0.012492524 -0.009725675 -0.04290066 0.008128462
0003a0 da 88 bc bc f0 81 13 bc 89 38 05 bb f6 bb 71 bc
       -0.023014475 -0.0090031475 -0.0020327887 -0.014754286
0003b0 63 d7 75 3c 33 12 02 bd 78 84 1a bd 80 04 ef 3c
       0.0150049655 -0.031755637 -0.03772399 0.02917695
0003c0 f0 6c 48 bb ab f9 01 3d 0b 60 0b bc 2e 7f d5 bc
       -0.003058251 0.031732243 -0.008506785 -0.02606162
0003d0 31 10 9e 3c 91 b2 8f bc bb d5 30 bd f8 53 b1 3c
       0.01929483 -0.017541202 -0.04317258 0.021646485
0003e0 9f e7 24 bd c9 c3 20 bd e4 59 11 bd 0e c8 1c bd
       -0.040259954 -0.039249215 -0.035486117 -0.038276725
0003f0 ae 5c 90 3c b5 36 17 3d a9 89 3a bd 68 bb e6 3c
       0.017622318 0.036917407 -0.04554144 0.028165534

fc_advantage.0.bias f4 [64]
000000 20 df 41 bd 87 85 87 3d 56 d6 5b be 42 34 00 3c
       -0.04733193 0.06617265 -0.21468481 0.007824959
000010 7a 02 5b be e9 2a 58 be ab 8b 25 3d 10 be 3b bd
       -0.21387663 -0.21110119 0.0404164 -0.045835555
000020 eb 9e bc bc c9 d1 81 bd 8d 4f 94 3e e0 c4 a7 bb
       -0.023024997 -0.063388415 0.28966942 -0.005119905
000030 ec e7 dc 3c ee 72 9c bd cc 07 f7 ba 9f 09 82 bd
       0.026966058 -0.076391086 -0.0018846928 -0.06349491
000040 8b 7d 23 be d5 08 89 bc a7 c7 32 bc 1a 75 cf 3c
       -0.1596586 -0.016727844 -0.010911859 0.025324393
000050 8e 83 5a 3d 40 2f 9b 3d a9 79 1c bd d0 32 8e 3d
       0.053348117 0.075773716 -0.03820196 0.069432855
000060 00 94 a9 3e de c1 ce bc 1b 8e 43 3d 52 30 f9 3d
       0.33120728 -0.025238927 0.047742944 0.121674195
000070 a2 e5 a8 3d cc 9f 76 bd a4 da 52 bd fa 55 d6 3b
       0.08246924 -0.060210988 -0.051478043 0.006541011
000080 03 96 bf 3e e4 19 09 3c b0 f8 a8 3e 81 ef 54 be
       0.37419137 0.008367989 0.33002234 -0.20794488
000090 12 b4 04 bd 34 e3 f6 3d 24 f9 df bd 15 ac 5f 3d
       -0.03239829 0.12055054 -0.10936192 0.05460747
0000a0 67 fb 98 3e 65 5c d2 3a 75 d6 1c 3d 24 61 86 3c
       0.29879305 0.0016049264 0.03829046 0.016403742
0000b0 2b e1 ad bd ef 64 49 bd 34 3e ca bb 76 5c 0f bc
       -0.08490213 -0.049168523 -0.006171966 -0.008750072
0000c0 0d 8a 8f 3e f1 2b 8d 3d 4d d8 96 3e 0e bd 85 3c
       0.28035012 0.06893147 0.294619 0.0163255
0000d0 95 e1 8c 3e 33 b7 4c 3d 24 44 93 bc ab 00 c9 bd
       0.27515855 0.0499794 -0.017976828 -0.098145805
0000e0 bd 96 1a 3e 48 54 00 3e b6 51 31 3c e3 df 26 bd
       0.15096565 0.12532151 0.010822704 -0.04074086
0000f0 5a f4 14 bc 6a bc 10 bd 11 98 19 bd c5 f1 06 be
       -0.009091461 -0.035335936 -0.037498537 -0.13178165

fc_advantage.2.weight f4 [32, 64]
000000 7a 20 c8 bd 59 37 ef bd 6e d6 ad 3d e0 3a b5 bd
       -0.097718194 -0.116804786 0.08488165 -0.0884912
000010 1c e2 5a 3c de 60 b2 bd 7d 65 3e bd 4d 0e d7 3d
       0.013359573 -0.08709882 -0.046483506 0.105007745
000020 d8 1a 2f bd 15 cf a8 3d 2a 77 72 bd 5c ba e9 ba
       -0.04275021 0.08242623 -0.059195675 -0.0017832029
000030 75 b8 4f 3d 80 84 81 bc 49 09 ca 3d 65 76 8a bd
       0.05071302 -0.015810251 0.09865052 -0.06760863
000040 b3 6f a1 bd 26 da 43 3d e6 18 50 3d 76 bf e6 3d
       -0.07882633 0.047815464 0.050804995 0.11266987
000050 f2 8b eb bc 21 81 c6 bd 25 50 c2 bd d9 b1 56 bd
       -0.028753255 -0.09692598 -0.094879426 -0.052415702
000060 11 f1 4e 3d f9 be ae bd 10 5c 8a bc f2 da c1 3c
       0.050522868 -0.08532519 -0.016889602 0.023663972
000070 55 4a 21 bd 96 07 e2 bc 8b ce be 3d 86 b3 0e bd
       -0.03937753 -0.027591508 0.09316739 -0.034839176
000080 eb f6 69 3c 82 ab de bd ce bb 1c bd d3 85 a5 bd
       0.014280061 -0.10872556 -0.038265042 -0.080821656
000090 ba 07 93 3b bc 6f ba bd 4c bd 36 3d 07 bd f9 bd
       0.004487005 -0.09103343 0.04461412 -0.12194257
0000a0 9c 69 93 bd 92 e3 0e 3d a0 f9 35 bd 94 2e 6b bd
       -0.07197878 0.034884997 -0.044427514 -0.057417467
0000b0 18 d7 78 3d 75 77 86 3d 7f 17 94 bd 92 60 82 bd
       0.060752004 0.06565753 -0.07231044 -0.063660756
0000c0 2b 41 88 bc 9e 74 db bd 7c ac d6 3c 90 18 24 bd
       -0.016632637 -0.10715602 0.026205294 -0.040062487
0000d0 c6 19 5d bd 6f 97 d6 3d 9a a5 b1 3d 51 9f 85 bd
       -0.053979658 0.104781024 0.08674164 -0.06524528
0000e0 4e e7 e5 bd 73 9a 37 bc 3d 73 3d 3d 29 dd e4 3d
       -0.112257585 -0.011206257 0.046252478 0.111749955
0000f0 e5 07 a7 3d 40 0d c1 bc 26 8b dc bd 69 6a a1 bd
       0.08155803 -0.023565888 -0.10768728 -0.07881624
000100 fc b8 09 bd 5f c8 6c be de 3d 11 3e d2 a5 e2 3b
       -0.03362368 -0.2312331 0.14183757 0.00691674
000110 0c 9b 2c bc 87 dc 2e 3d 27 5b 2a be 0d 9d 9b bc
       -0.010535013 0.04269078 -0.16636334 -0.018995786
000120 0f 9f 9b 3c 3d e5 87 bd 86 57 34 bd 39 9f aa bd
       0.018996743 -0.066355206 -0.04402878 -0.083311506
000130 20 ca 03 bd 63 9b d7 3d d3 cc b2 bd f0 98 3b bd
       -0.032175183 0.105276845 -0.08730473 -0.04580015
000140 e4 ee 93 3d 98 45 d0 3d e0 fe 89 3d a8 fd 24 bd
       0.07223299 0.10169524 0.06738067 -0.040280968
000150 5e 5f c2 bd 7d bf 00 bc 20 2f aa bd 79 b4 5f be
       -0.09490846 -0.007858154 -0.0830977 -0.21846189
000160 e9 44 d1 3d 61 55 5c 3d 63 eb 0d 3e a4 42 08 3e
       0.10218222 0.05379236 0.13859324 0.13306671
000170 9e a3 7a 3d 98 c9 90 3d 40 8b 7f bc 6d 48 19 be
       0.061191194 0.07069701 -0.015597165 -0.14969034
000180 b9 b9 0e bd c9 74 af bc c0 d7 2a bd e6 6e 89 3c
       -0.034845088 -0.021417992 -0.04170966 0.016776513
000190 ee 04 38 be d8 ae 75 bd db 90 92 bd 5b 6a 2a 3e
       -0.1797063 -0.059981197 -0.07156535 0.16642134
0001a0 60 2d 87 3c f1 9c 43 bc 24 01 e7 bd 0a d0 18 3c
       0.016501129 -0.011939273 -0.112795144 0.009326944
0001b0 55 e6 9a 3d c9 40 b3 bc 19 98 fa bd c7 a9 de bd
       0.075634636 -0.021881478 -0.122360416 -0.10872226
0001c0 48 f3 a4 3d 9d 15 35 bd 35 a6 64 bb 90 46 fa bd
       0.08054215 -0.044210065 -0.0034889106 -0.1222049
0001d0 b1 6f 95 bd e1 a7 60 bc 49 db 62 ba 4a 42 19 3e
       -0.07296694 -0.0137119 -0.0008653892 0.14966694
0001e0 27 53 bb bb b5 63 14 bc 96 a8 46 be 11 31 ad 3c
       -0.0057166996 -0.009056975 -0.19400248 0.02114156
0001f0 c3 b7 d6 3d 31 35 e0 bc bf f2 7d be 9e c9 cd 3d
       0.104842685 -0.027369114 -0.24799632 0.10048221
000200 82 71 92 bd 4a 35 0c be cd 65 f4 3c aa 27 3d 3d
       -0.07150556 -0.13692203 0.029833699 0.046180405
000210 46 77 de 3d fe d8 96 3d b3 ff cd bd a5 83 d1 bb
       0.10862593 0.07365607 -0.100585364 -0.006393867
000220 dc 5e 9b 3d 7c 44 f6 3d 11 89 81 bc c5 ac 1a be
       0.07586452 0.12024781 -0.015812429 -0.15104969
000230 39 88 29 3e ad 8f 1a bd 43 2d af bd e8 9d 59 3d
       0.16555871 -0.037734676 -0.08553555 0.053129107
000240 26 1d 4a 3e 89 cd c6 3d 92 81 8c bc 16 16 38 3e
       0.19737682 0.097071715 -0.017151628 0.17977175
000250 0b 10 43 bd 4d aa dd 3d 1f be 70 3d aa e1 d6 bd
       -0.04762272 0.10823498 0.058775064 -0.10492261
000260 b1 c8 b1 3c fe 61 d6 bd 38 84 3d bd 9b 8f 83 bd
       0.021702142 -0.10467909 -0.04626867 -0.06423875
000270 61 e4 70 3d 57 62 dd 3d da d8 60 bb 09 e9 6b 3e
       0.05881155 0.108097725 -0.003430894 0.23038115
000280 9a b7 0d be 77 16 19 3e f4 b6 bb bd b7 63 62 bb
       -0.1383957 0.14949976 -0.09165755 -0.0034544298
000290 47 94 70 3c 7e 3b 47 3e ab 72 27 3d 5c ff c2 3d
       0.01468379 0.19456288 0.04088084 0.09521362
0002a0 16 dc 11 be b7 34 4e 3d fa a9 e3 3c 46 81 7f 3e
       -0.14244112 0.05034324 0.027791012 0.24951658
0002b0 8f df 83 3d 73 33 ae bb d1 43 66 be d2 85 05 3d
       0.06439125 -0.005316192 -0.22486807 0.032598324
0002c0 44 8d ab bd 9c dd 87 3d c4 17 06 be 9d 5f 63 bd
       -0.08376554 0.066340655 -0.13095003 -0.055511106
0002d0 94 62 24 3d 1c 82 6a bd a0 d5 98 bd 06 33 06 3e
       0.040133074 -0.05725299 -0.07462621 0.13105401
0002e0 3d d1 94 3b 0b ce 73 3d 3e 24 1a bd 44 93 1c 3d
       0.0045415447 0.05952267 -0.03763222 0.03822638
0002f0 6d 88 82 3c ea 48 b9 3d 7f 8c 3b bc d3 e2 a2 3d
       0.015934194 0.090471104 -0.011447071 0.079534195
000300 56 91 e3 bc a4 e7 9d 3d c6 0f 1a be 33 66 1e 3c
       -0.027779263 0.077101976 -0.1504508 0.009667921
000310 ae c0 69 be f2 72 81 be be e4 2c 3d 61 17 f1 be
       -0.22827408 -0.2528301 0.042210333 -0.4708815
000320 51 37 cc 3d 81 6e ab 3d d4 da b8 3d 3d ab 90 3e
       0.09971488 0.08370686 0.09026113 0.28255644
000330 2d e3 20 be 8d d7 89 bd bb 00 e4 bd ee da 01 3d
       -0.1571166 -0.06730566 -0.11132952 0.03170293
000340 3b 36 7c 3d 12 2e e1 bd bc 08 05 be c2 9f 0d bd
       0.061575156 -0.10995115 -0.12991613 -0.034576185
000350 dd b3 4a 3a 62 a5 e1 3d 8c dd 7d bd e6 b0 5d 3e
       0.000773249 0.110178724 -0.06197886 0.21649513
000360 6a 9d 68 bd f7 6f 0a bd 3b 1b 9b 3d 1d 60 2f be
       -0.056790747 -0.033798184 0.07573553 -0.17126508
000370 83 b5 5b be 99 10 ee bd e3 90 50 be 0b bb e7 3c
       -0.2145596 -0.116242595 -0.2036777 0.028287431
000380 bc e9 13 bd c3 32 2f be 31 74 01 3d 3f dd bd be
       -0.03611158 -0.17109208 0.03160495 -0.3708286
000390 91 27 3b be 22 9a 7a 3d 72 60 83 bc c5 9d f0 bd
       -0.18276812 0.06118215 -0.0160372 -0.11748842
0003a0 52 3b 76 3d de 04 69 3d 75 4b e3 bc 98 39 aa bc
       0.060115166 0.056889407 -0.027745942 -0.020779416
0003b0 c2 44 15 3d c9 3b 40 bd 79 fa 84 3d 29 ed c7 3d
       0.036442526 -0.046932016 0.06493086 0.097620316
0003c0 e0 9c 71 bd 3a 6e e7 3d f6 70 78 bd 14 09 8b 3e
       -0.0589875 0.11300321 -0.060654603 0.27155364
0003d0 9b d8 a4 3d c2 71 85 3e c1 71 47 3d 2c 64 93 be
       0.08049127 0.26063353 0.04869247 -0.28787363
0003e0 2f 79 a4 3d a2 e5 c2 3d e9 8a 28 bd e4 ea c3 3d
       0.080309264 0.09516455 -0.0411481 0.09566286
0003f0 a1 ef e9 bd 57 b1 c5 bd 89 f7 11 3d cb 5f 5f bc
       -0.11422659 -0.096529655 0.03563646 -0.013633679

fc_advantage.2.bias f4 [32]
000000 52 15 9e bc c6 6a 78 3d 7b 1b 88 bd 2b 4c 3c bc
       -0.019297276 0.060648702 -0.066458665 -0.011492769
000010 01 92 09 be 0b b7 58 3e cc ca 25 3d 70 aa d1 3d
       -0.13434602 0.21163575 0.040476605 0.102375865
000020 a3 2e 76 3d 7c cd 80 bd 96 44 7d 3e c6 21 d0 bd
       0.06010307 -0.06289193 0.24733195 -0.10162692
000030 98 a4 d8 be 89 65 94 bd b5 20 89 3b 47 3d 1e be
       -0.42313075 -0.07245929 0.004184807 -0.15453063
000040 a0 aa 3f bd 1c 48 09 3d db 70 0f bc 6e 24 8d 3d
       -0.04679358 0.033516034 -0.008754934 0.06891714
000050 24 3c 92 bd 4c 47 45 3d 92 c2 e7 3d 0a 47 f6 ba
       -0.07140377 0.048163697 0.11316408 -0.0018789482
000060 17 8c 29 3e 95 59 74 bc f8 ea db 3d 08 28 45 be
       0.16557346 -0.014913936 0.10738176 -0.19253552
000070 2a 3a b4 3e 5b cf ee 3d 72 1a ac be a5 47 78 3e
       0.35200626 0.11660644 -0.33613926 0.2424608

fc_advantage.4.weight f4 [6, 32]
000000 e0 f0 26 3e b4 16 82 bd 75 8e b7 3d a4 13 77 bd
       0.16302824 -0.063519865 0.089627184 -0.060321465
000010 7b 32 b8 3d c7 af 50 3d 8b 58 64 bd 55 f7 56 3e
       0.089940034 0.050948884 -0.055748504 0.20992787
000020 9a ce 89 bc 7a 75 0d bd 41 1b 57 be ef 3a a7 bc
       -0.016822148 -0.034535863 -0.2100649 -0.020413844
000030 63 df 3d bd 76 3e 26 be 5c f8 45 bd 42 d1 83 bd
       -0.046355616 -0.16234764 -0.048332557 -0.06436397
000040 86 58 d4 bb dc 43 a0 bd 52 7f ce 3d 2b 10 76 be
       -0.0064802794 -0.07825443 0.10082878 -0.24029605
000050 d1 25 1a be 56 57 fb bd 63 2e 6e 3e 0c b6 86 be
       -0.15053488 -0.122725174 0.23259883 -0.26310766
000060 57 72 8d 3d 2b 58 c4 3e 03 c4 1a be 1f b7 9b bc
       0.06906574 0.38348517 -0.15113835 -0.019008217
000070 32 4e 06 3e a0 53 60 bd 4a af f2 3c 54 e0 c7 bd
       0.13115767 -0.05476725 0.0296246 -0.09759584
000080 70 45 b7 3d 2f 75 5a 3d 66 b4 6c bd 4d 19 97 3e
       0.08948791 0.05333441 -0.05778923 0.2951149
000090 39 cd 0e be bc d4 b8 3d b4 8a 13 be 87 af 40 be
       -0.13945474 0.09024951 -0.1440838 -0.18816958
0000a0 a6 9d 9e 3e e4 ec fd bc f6 3b fb 3c 38 2c 28 3e
       0.3097965 -0.030996747 0.03066824 0.16423118
0000b0 f6 b0 84 3d 84 79 16 3e fc 73 80 be 5e 15 c3 3d
       0.06479065 0.14694792 -0.2508849 0.0952556
0000c0 55 ce 2b 3d ae df 2f be 5a 35 27 3e ee c7 0e bc
       0.04194482 -0.17175171 0.16328946 -0.008714659
0000d0 f8 5f 0c bc 46 94 fb bd 06 54 07 be 36 12 d4 3d
       -0.008567803 -0.1228414 -0.13215646 0.10355036
0000e0 6b 0c 2b bf 54 50 11 3e 8c 52 14 be cd 52 21 3c
       -0.66815823 0.14190799 -0.14484614 0.009846401
0000f0 3c 0d c0 3d 92 d2 dd 3e 4e 06 19 be 97 74 68 3d
       0.09377524 0.43324715 -0.14943811 0.056751814
000100 2d 4c d3 3d bb cd 1e be 09 fa a8 3d 2c 6f ef be
       0.10317264 -0.15508167 0.082508154 -0.46764505
000110 0f 7d 8a be 35 8b fd be 5a 68 27 be b7 6f 70 3d
       -0.27048537 -0.4952027 -0.163484 0.05870029
000120 0d af b2 be e4 43 d9 bd 5f 26 6a 3d aa e8 80 bd
       -0.34899178 -0.10608652 0.0571655 -0.06294377
000130 cc 87 15 bd ad 37 df bd 3a d0 c4 b9 25 6f 0b 3d
       -0.03650646 -0.10899291 -0.00037539174 0.034041543
000140 ce e9 4e 3d f9 f9 f3 3e 4f a3 95 bd 56 a1 46 bd
       0.050515942 0.47651652 -0.07306539 -0.048493706
000150 1e 6c 49 3e 5d e1 4e bd ff a4 23 bd 4d d8 a2 3c
       0.1967015 -0.050507892 -0.039952274 0.01987853
000160 b4 c0 8e 3e ce 30 06 3c b8 15 1f be 60 45 84 3d
       0.27881396 0.008190347 -0.15535629 0.06458545
000170 c1 a1 c7 3d 48 4a 08 bf 75 e2 9e bd a8 d4 00 be
       0.09747649 -0.53238344 -0.07758037 -0.12581122
000180 19 30 b7 bd 43 2c 05 bd 72 15 98 be 28 e7 e4 bb
       -0.08944721 -0.032512914 -0.2970386 -0.006985564
000190 85 25 7b 3e 54 34 83 3e 24 3b b0 3e 38 c0 38 bd
       0.24526031 0.2562586 0.3442012 -0.04510519
0001a0 78 25 85 bc 73 56 b0 3c 50 0e 39 be bd 34 9d bd
       -0.016253218 0.021525597 -0.18071866 -0.07676075
0001b0 c9 55 97 be 64 c1 1b 3e ec 0b 21 3e 61 9f 35 3d
       -0.29557636 0.15210491 0.15727204 0.04434145
0001c0 4f 03 e0 3d 23 99 00 bf 0b 75 8c be 2f db cd 3d
       0.10938131 -0.5023367 -0.27433047 0.100515716
0001d0 62 f3 00 3e df 09 82 bd ff bc 14 be bf cf cd 3d
       0.12592843 -0.06349539 -0.14525221 0.1004939
0001e0 d2 b5 0c 3e aa 27 67 be 0f cf e5 be 9b 0d a6 3e
       0.13741234 -0.22573724 -0.44884536 0.32432255
0001f0 2f a9 86 3e ea 91 01 3e 4d 5a 5e 3e 29 95 5b 3e
       0.26300952 0.12653318 0.21714135 0.21443619
000200 82 25 2b 3e 98 79 10 3e d7 78 ad bd 16 17 27 be
       0.16713527 0.14108884 -0.08470314 -0.163174
000210 c3 fc df 3d 3b 15 cc 3d 8c 94 ff bc c2 2b 57 37
       0.10936882 0.09964987 -0.031198762 1.2825187e-05
000220 59 3f 79 bd c4 4d 83 3d 02 ef 0d be 52 27 ed 3d
       -0.06085143 0.06411317 -0.13860705 0.115797654
000230 f6 91 8d be 26 c3 b5 3d 11 72 95 3c 3d 39 3c bd
       -0.27650422 0.08875112 0.018242868 -0.045953024
000240 94 a6 99 3d 94 5e 10 be 77 da f9 3d 05 a2 77 3e
       0.075024754 -0.14098579 0.12199872 0.241829
000250 de f0 ae b9 9e 9e dc bd 48 e1 b2 be b5 ec 7f bd
       -0.00033367326 -0.10772441 -0.349375 -0.0624816
000260 14 48 b9 3c 6c ad de bd 3d 98 c4 3e cb b4 18 bf
       0.022617377 -0.10872921 0.383974 -0.5965087
000270 d5 25 5c 3d b5 23 56 bb 03 0a 17 bf c5 b9 e3 bd
       0.053747017 -0.0032675092 -0.5899965 -0.11119417
000280 7d 01 f9 3d f0 21 ed 3d 60 39 00 3e 7a 90 ff bd
       0.12158487 0.11578739 0.12521887 -0.124787286
000290 70 b3 40 3d c3 9c c8 3c e2 bd 4b be 39 bd 00 be
       0.047046125 0.024488812 -0.19896653 -0.12572183
0002a0 39 20 96 3b c0 86 0b 3e 91 ab 7a be 2b dc 1f 3e
       0.004581478 0.13625622 -0.2447951 0.15611331
0002b0 b9 1d 1d 3e 7d 2b e0 bd 95 f0 06 3e 60 6e 96 3d
       0.1534337 -0.10945795 0.13177712 0.07345271
0002c0 28 8c 59 3b ce d3 cb bd 15 b2 17 3e 48 4f 34 3e
       0.0033195112 -0.09952508 0.14814027 0.17608368
0002d0 4f 60 f7 3d de c6 c1 3d 1a cc 0f be 71 9f a7 3d
       0.12078916 0.09461759 -0.14042702 0.08184708
0002e0 21 19 e7 bc 1f 95 dc bd 4e 57 67 bd c9 8b 23 3e
       -0.028210225 -0.1077063 -0.056479745 0.15971293
0002f0 ce 81 0c be fb 4a 98 bd f3 de 67 3e fc 0b ac be
       -0.13721392 -0.074361764 0.22643642 -0.33602893

fc_advantage.4.bias f4 [6]
000000 35 2a a8 3d 93 c1 2a bd 08 c9 66 bd 94 13 99 bb
       0.08211175 -0.041688513 -0.056344062 -0.0046715233
000010 70 f1 32 be e5 a3 6e bd
       -0.17474914 -0.05826177
