data/Torch/Dueling/002_CNN-1_E_L/checkpoints/weights_200000steps.pth (torch, 286623 bytes, 13 tensors)

conv_layers.0.weight f4 [32, 1, 3, 3]
000000 2a dc 03 3d 6f 45 85 3c b4 b5 48 3d 70 1c 0d 3e
       0.032192387 0.01626846 0.04900141 0.1378038
000010 2a 3f 99 be c4 da 36 bd 05 07 2b 3e 54 76 c3 3d
       -0.29931003 -0.044642225 0.16701896 0.09544054
000020 d7 6a 4d 3e d3 9c 90 be 72 3f a4 3e 62 bf 4f 3e
       0.20060287 -0.28244647 0.32079655 0.2028785
000030 b4 f8 d4 bd de e5 bc bd 72 c2 75 3e 24 2c 73 3e
       -0.10398999 -0.09223531 0.23999956 0.23747307
000040 82 d5 0d be 40 4d 7a be 74 87 05 bf b9 a8 77 bd
       -0.13850978 -0.24443531 -0.5215981 -0.06046364
000050 7d c0 f2 3d 8f ff 8e 3e c9 e3 3a 3e 2f 49 aa bd
       0.118531205 0.2792935 0.18250956 -0.0831474
000060 cb c8 15 3d e4 6c 68 3e df 62 79 be 26 2d 4a bf
       0.036568444 0.22697788 -0.24354123 -0.7897514
000070 a1 11 6e be 68 1b 9c 3d f9 d9 29 3e 70 6d 22 3b
       -0.23248912 0.07622415 0.16587056 0.0024784468
000080 32 5d 8c 3d 73 4e 59 bd db 40 04 bc 13 38 dc 3c
       0.06853713 -0.05305333 -0.008072103 0.026882207
000090 f8 63 94 3e 35 5a 15 be 8c 72 e7 3d ba 0c 65 3e
       0.2898252 -0.14585193 0.11301145 0.22368136
0000a0 58 d9 56 3e 57 23 f1 3c 6b 5a 5d 3d c6 f2 eb bc
       0.20981348 0.029435797 0.054041307 -0.028802287
0000b0 08 82 32 bd 88 54 a2 3e 56 1d 02 3d e2 48 a7 bd
       -0.04358104 0.31705117 0.03176626 -0.08168198
0000c0 39 05 40 bf 62 00 95 3e 41 c3 09 be ad 06 8f be
       -0.7500797 0.29101855 -0.1345339 -0.2793478
0000d0 98 ac 92 3e 75 e7 a9 bd ef 6e 0a 3f 5d 99 b3 bb
       0.28647304 -0.082961 0.5407552 -0.005480929
0000e0 a6 25 84 bc 37 d1 bc 3d d4 a9 ae be 93 a8 8b 3d
       -0.016131233 0.09219592 -0.34113944 0.06819262
0000f0 6c 19 fb b9 6e 9b 15 3d a0 1c 45 be 9d 86 1a bf
       -0.00047893391 0.036525182 -0.19249201 -0.60361654
000100 63 08 c8 3c 85 b2 02 bf aa 89 b6 3c 52 22 9a 3d
       0.024418062 -0.5105365 0.02228244 0.07526077
000110 0e c0 56 be 04 37 01 3e 17 45 ae 3d 99 85 fe bd
       -0.209717 0.12618643 0.085092716 -0.124278255
000120 97 25 06 bf d6 ee 23 3e d9 06 b6 3d e1 1e 23 bc
       -0.5240111 0.16009077 0.08888025 -0.009956093
000130 65 99 8d 3e 22 47 3c be 5f d1 2e be 3c 63 91 3e
       0.27656093 -0.1838651 -0.17072056 0.28396022
000140 89 d3 b8 3d f4 64 55 3e 1f e0 2e be e4 9a b3 3d
       0.09024722 0.20839292 -0.17077683 0.087697774
000150 ca 51 ae be 26 17 b8 bd b1 88 a2 3e 94 65 72 be
       -0.34046775 -0.0898879 0.31744912 -0.23671561
000160 56 a3 54 be a7 61 73 3e e0 9e 6c be dd 70 fa 3d
       -0.20765433 0.2376772 -0.23107481 0.12228558
000170 f2 fb 4b 3e 48 be 5d 3d cb 96 7f 3e f6 3b c4 3c
       0.19920328 0.054136544 0.24959867 0.023954373
000180 4c 9a 21 be ee 31 9a be f9 b8 8f 3d 69 b9 6e be
       -0.15781516 -0.30116218 0.070177026 -0.23312916
000190 d1 26 bd be b2 a2 62 3a 50 3e 91 3e d1 d1 32 3e
       -0.36943677 0.00086454593 0.28367853 0.17462851
0001a0 36 fb 92 3d 3a 1f 0f 3c 66 81 87 be 69 63 90 be
       0.07176821 0.008735472 -0.2646591 -0.28200844
0001b0 3b 85 1b 3e 1a bf 23 3d f6 dc de 3c 07 d3 3c be
       0.15187542 0.03997717 0.027204972 -0.18439876
0001c0 7a b6 87 bd 75 63 74 3e 0c 67 80 3d 2a ca f7 3d
       -0.066266015 0.23866065 0.06269655 0.120991066
0001d0 a2 2b 3c bd af 92 6d bf d5 ce 20 be 9b f4 ee bd
       -0.04594005 -0.92801946 -0.157039 -0.116677485
0001e0 11 29 3e 3e c1 4c 3a be 27 1b 48 3e db 0f e8 bc
       0.18570353 -0.18193342 0.19541608 -0.028327873
0001f0 00 8a ee bc 7e d0 15 3e 39 31 b6 3e 82 74 73 3e
       -0.029118538 0.14630315 0.3558443 0.23774913
000200 f4 68 e4 bd f4 33 2e ba 04 b2 4a be 10 56 18 3e
       -0.11152831 -0.0006645315 -0.1979447 0.1487658
000210 08 fe ae bd 61 1a 53 bc 65 c4 47 be 3b e3 c6 3e
       -0.08544546 -0.012884707 -0.19508512 0.38845238
000220 05 df 91 be 82 e2 5c bd 00 83 00 3e 6d e3 bb bd
       -0.28490463 -0.053926952 0.12549973 -0.091742374
000230 d2 df d9 3d 32 11 12 be 32 24 7f bb b1 a0 53 3c
       0.106383935 -0.14264372 -0.0038931486 0.01291673
000240 2c 31 90 3d 26 9c 2e 3e 6b 07 13 3e 6f 62 03 3e
       0.07040629 0.17051753 0.14358298 0.12830518
000250 be ff 70 3d db 4a a8 bd 53 59 a8 bd 12 a2 e9 bd
       0.058837645 -0.082174025 -0.08220162 -0.114078656
000260 1c cb 46 be 5e cf a2 3c 5d 54 55 3e 5a ca c3 3d
       -0.19413418 0.019874271 0.20832963 0.0956008
000270 eb 42 80 be 23 53 0d be c1 bb 22 3d 14 b1 27 be
       -0.25051054 -0.13801245 0.039729837 -0.16376144
000280 71 ca 0e 3e 48 27 03 3e d1 72 e5 be 61 f9 fb 3c
       0.13944413 0.12807953 -0.4481416 0.030758562
000290 81 ce 90 bd 4e c0 14 bd 0b 36 fc 3d 45 19 2f be
       -0.070706375 -0.03631621 0.123149954 -0.17099483
0002a0 88 06 3a 3d c6 87 34 3e e5 b3 94 3e 15 fe e6 3e
       0.045416385 0.17629918 0.290435 0.45115724
0002b0 3d 92 35 be 4e 4e 53 3e d6 85 d4 3d 43 df d8 be
       -0.17731567 0.2063534 0.1037709 -0.42357835
0002c0 41 fc 2a be 2e 14 cb 3d 00 44 7d be 91 07 21 be
       -0.1669779 0.09915958 -0.24732971 -0.15725543
0002d0 a4 de 3e 3e 43 7a 94 be a7 1a cd 3d f3 51 9c be
       0.18639618 -0.28999528 0.10014849 -0.30531272
0002e0 09 c7 4d be 55 97 8a 3d 5a 56 43 be a9 6c 85 3e
       -0.20095457 0.067671455 -0.1907591 0.26059464
0002f0 b1 ce 8c 3e 15 3d 04 3f c6 06 91 bd 26 d5 44 3e
       0.27501443 0.51655704 -0.0708137 0.19221935
000300 7a d7 58 be a4 10 57 be 29 b4 09 3c 50 99 f6 bd
       -0.21175948 -0.21002442 0.00840477 -0.12040961
000310 c1 13 fe 3d 55 3d 3b 3c a7 1a 62 3d 9e 9d 24 3e
       0.124061115 0.011428197 0.0552012 0.16075751
000320 5a c6 c6 3d 52 0b 4e 3e 03 41 48 be 20 31 5b be
       0.09705801 0.20121506 -0.1955605 -0.21405458
000330 e4 75 1c bc 81 3a 24 be f8 9b b4 3d c1 a8 5b be
       -0.009549592 -0.16037942 0.08818811 -0.21451093
000340 50 58 b7 3e 5e d7 a1 3e 7c d6 e1 bd 96 21 eb bc
       0.35809565 0.31609625 -0.11027238 -0.028702538
000350 9c 1a 9b 3c dd a7 5d be 85 aa 20 3e cc 9b 30 bd
       0.018933587 -0.21646066 0.15690048 -0.04311733
000360 e3 38 09 3e d9 a5 29 be ab 24 5d 3e c7 27 90 3e
       0.13400607 -0.16567172 0.21596019 0.28155348
000370 78 ac 9b bd c7 42 47 bd de 3e 87 be 03 8b 4b 3d
       -0.07601255 -0.04864767 -0.2641515 0.04969312
000380 41 d2 5b be d8 26 79 3e 2e 05 37 3e f0 1c 81 3d
       -0.21466924 0.24331224 0.1787307 0.063043475
000390 b4 70 f6 3d ee 1e 3f be 02 86 8e 3d 02 9a 3b be
       0.12033215 -0.18664142 0.06959154 -0.18320468
0003a0 a3 d4 10 be 10 f1 3b be a7 2e bc be bf 5c df 3c
       -0.14143614 -0.18353677 -0.36754343 0.027265904
0003b0 3e f1 dd 3d e4 96 03 3e 77 9e e2 3d 32 c4 87 be
       0.10837029 0.12850529 0.11065381 -0.26516873
0003c0 cc da ad 3d d2 a6 0c 3e 87 f6 c9 3d 4a 47 44 3e
       0.08488998 0.13735512 0.098614745 0.1916782
0003d0 52 5d be 3d 68 89 b6 be bd 0a 9a 3e 4e ba a5 bd
       0.09295143 -0.35651708 0.30086318 -0.080921754
0003e0 24 30 66 3d 03 5e 85 be 6b d9 d9 3d 73 00 ac 3d
       0.056198254 -0.26048288 0.10637172 0.08398523
0003f0 a4 5a d6 3e ab eb 44 bc 05 c6 ec 3d 60 9e a2 be
       0.41866028 -0.012019078 0.11561207 -0.31761456

conv_layers.0.bias f4 [32]
000000 8d 01 0b bf 08 83 dc be 5b 57 ba 3e 46 61 d0 3e
       -0.5429924 -0.4306872 0.36394772 0.40699214
000010 a0 97 e8 be 8e dd 73 bc 93 47 e8 bb 58 87 a3 3e
       -0.4542818 -0.014884366 -0.0070886104 0.31939197
000020 d1 cf 45 bd 2c a8 06 be 78 26 ae 3e 37 79 41 be
       -0.048293892 -0.1315009 0.34013724 -0.18893896
000030 d1 50 b4 be ae a7 f2 3e e4 b6 93 be c2 dd 3c 3e
       -0.35217908 0.47393554 -0.28850472 0.18443969
000040 90 72 89 be 6f 71 db 3e 4d c3 e4 3e ce c2 91 3e
       -0.26845217 0.4285998 0.44680253 0.28468937
000050 20 68 de 3e 8f ac ad be cf 99 7c 3e 39 48 0a bf
       0.43438816 -0.33920714 0.24668048 -0.54016453
000060 7f 0c cc 3e 47 c8 d1 3e de 9f 01 3f 05 24 b8 be
       0.39853284 0.40973112 0.5063456 -0.3596498
000070 c2 08 1c be c0 9b a4 3e 60 49 99 3e fb bf 9b be
       -0.15237716 0.32150078 0.29938793 -0.30419907

fc_state.0.weight f4 [64, 512]
000000 0d 62 5f 3c ff 91 5c bc 27 73 8b bc 53 6a 8f bb
       0.013634217 -0.013462543 -0.017022682 -0.0043766885
000010 24 0f 0e 3d 1b 37 03 bd c4 38 c2 3c 30 58 21 bd
       0.034682408 -0.032034975 0.023708709 -0.039390743
000020 47 15 0c 3d ab 80 51 bc 09 f4 9c bc 88 26 1b 3d
       0.03419998 -0.0127870245 -0.019159334 0.037878543
000030 9f 4c f7 3c 45 84 be bb ac 5c a1 3a 7f c9 dc 3c
       0.030187903 -0.0058141076 0.0012310944 0.02695155
000040 97 2f 07 3d f0 f5 e6 bc df 5b 2d bc 84 bc 02 3d
       0.03300437 -0.028193444 -0.010580986 0.031918064
000050 b1 31 f8 3c cd 7d 24 bb f5 6d 06 bc b7 e4 d5 3b
       0.030297132 -0.0025099397 -0.008204927 0.006527509
000060 af b1 6a bc 6a 79 d3 3c 7e 08 ee bc 3c 9d 42 3c
       -0.01432459 0.02581473 -0.029056784 0.011878308
000070 a8 d0 8b 3c 83 5f 76 bc ca cf d7 3c 2c b8 13 3d
       0.017067268 -0.01503742 0.026344199 0.03606431
000080 9c 19 37 3c a3 83 42 bd 78 59 c2 3c 20 1e 2c 3c
       0.011175539 -0.04748882 0.023724303 0.010505229
000090 d4 40 64 3c b3 47 8b 37 03 1d 65 bb bc a1 ae bc
       0.013931472 1.6603479e-05 -0.003495992 -0.021317355
0000a0 bc cb 16 bb 06 2f 0c bd fe dc 03 3d b0 c9 6d 3c
       -0.0023009619 -0.034224533 0.032193176 0.014513418
0000b0 1d c4 9b 3b 2c c5 3d bb b1 04 13 3c 19 8b 25 bd
       0.004753603 -0.0028956635 0.0089732865 -0.040415857
0000c0 7d b4 cc bc 13 12 3e bd 40 e8 e0 bb 5f 6e 16 3d
       -0.024988407 -0.046403956 -0.006863624 0.03672635
0000d0 e8 ba 41 bd 19 62 f1 3c 04 17 4e 3c 1a 00 36 bc
       -0.04729739 0.029465722 0.01257873 -0.011108423
0000e0 fd 79 25 bd 71 94 0f bd d4 a4 cc bc 67 cd 23 3c
       -0.04039954 -0.035053674 -0.02498094 0.009997702
0000f0 59 41 39 3c d4 21 2a 3b e3 76 36 bd 8e b7 2f bd
       0.011307084 0.0025960105 -0.044546973 -0.04289966
000100 07 66 b7 3c b7 45 7c 3c 66 c3 5b 3c f0 e4 cc bb
       0.022387518 0.015397481 0.013413286 -0.0062528774
000110 b0 a6 0a 3d 0c 2f ce 3c 3f 28 b1 3c 99 6a cc 3c
       0.03385037 0.025168918 0.021625636 0.024953173
000120 29 89 1a 3c f3 77 2a 3c 6e 9d f9 3c bb 2a 46 3c
       0.009432116 0.010404575 0.030470576 0.012095149
000130 d1 ba 5a bb 6e 9f b0 bc 79 a3 fa bc a2 90 db bc
       -0.0033375511 -0.021560397 -0.030595528 -0.026802365
000140 d4 8e f8 3b a1 fd 20 3d 08 3d 23 bd 20 6e 03 bc
       0.007585386 0.03930438 -0.039853126 -0.008021861
000150 d6 b0 18 3d e8 25 34 3c a4 97 0b 3d 12 d1 22 3d
       0.03727802 0.010995366 0.034080163 0.039750166
000160 4c 8c 1e 3c b7 31 5c bc 41 18 c1 bc c0 92 40 ba
       0.009677004 -0.013439587 -0.023571135 -0.0007346086
000170 a4 b1 15 bc 28 67 99 3b 20 e5 94 bb 0d 4e 6d 3c
       -0.009136591 0.0046814866 -0.0045439154 0.014483941
000180 21 7a 47 bd df 89 c0 bc 5b a7 ac 3c 01 14 0c bc
       -0.048700456 -0.023503242 0.021075895 -0.008549691
000190 21 72 01 bc da 59 cd ba 5a ba 15 bd 83 02 30 bc
       -0.007900746 -0.0015667037 -0.03655467 -0.010742786
0001a0 74 2d 05 bd b3 ea 20 3b b6 2d e6 bc f9 c0 05 bd
       -0.03251405 0.0024553954 -0.028097969 -0.032654736
0001b0 ae 3d 4d 3c f6 49 21 3c 50 e6 dc 3c 90 44 9d 3c
       0.012526913 0.009844294 0.02696529 0.019197732
0001c0 bc a7 85 3c cb b5 41 bb 3e 53 7c 3b d6 1f 9f 3b
       0.016315334 -0.002955782 0.0038501765 0.00485609
0001d0 27 4e 25 3c 34 64 0a bc f6 9b a3 3c 20 dd 8b bc
       0.010089434 -0.008446742 0.019971829 -0.017073214
0001e0 1f 8a e2 3c de 9c 3f bd 7a ee 08 3d 26 33 21 3d
       0.027653752 -0.04678046 0.033430554 0.03935542
0001f0 ae f6 05 3d 02 14 21 bd 49 a9 f2 bc ab fa a1 bc
       0.032705955 -0.03932572 -0.029621737 -0.019772848
000200 41 3b 13 3d 88 36 46 3c a4 df 2c bd c5 96 87 bc
       0.03594518 0.012097962 -0.042205468 -0.016551385
000210 92 4c 24 3d 48 d3 9d 3b cd 2c 0e bd c8 2d 40 bc
       0.040112086 0.0048164465 -0.034710694 -0.011729665
000220 33 0b 30 3d 06 37 b4 3c 2e d3 c7 3c 8e 58 81 3c
       0.04297943 0.021998893 0.02439269 0.015789296
000230 c0 ec 38 3c 60 54 0f bb 9a e3 a6 3c 29 4b d3 3c
       0.011286914 -0.002187036 0.0203722 0.025792675
000240 07 4e f5 3c e2 37 af bc a7 84 26 bd ba af 03 3d
       0.029944433 -0.021388952 -0.04065385 0.032150008
000250 a0 87 74 3c 6e 38 d4 3c 5a a4 40 bd f9 70 1b 3c
       0.014924914 0.025905814 -0.047031738 0.009487384
000260 af 25 2a 3d a4 6d 2c bd b5 15 e3 bb f9 2b c3 3a
       0.041539844 -0.04209675 -0.006930078 0.0014890424
000270 90 6b 22 bd 7d df 2c 3d e3 b4 ae 3c e4 14 8c 3c
       -0.03965336 0.042205323 0.021326488 0.017099805
000280 ec 9b 12 bb 02 9c cc bc 44 06 d8 3b 91 8f 85 bc
       -0.0022370769 -0.024976734 0.006592544 -0.01630381
000290 d3 90 de 3c 4e 61 ba 3c d0 3b 72 bc 6d 97 ed 3c
       0.027168667 0.022751477 -0.014784768 0.02900287
0002a0 a0 67 6b 3a 1f 83 21 bd c3 e4 25 3c 56 b1 01 3d
       0.000897998 -0.039431687 0.010125342 0.03166326
0002b0 05 a4 c2 3c 90 86 9e 3b 60 1f bc bc d3 a9 11 bd
       0.023759851 0.0048378184 -0.02296418 -0.035562348
0002c0 8a 0b 1c bd 11 2c a1 bc 96 3d 2a bd 17 56 e3 bc
       -0.038096942 -0.019674333 -0.04156264 -0.027751012
0002d0 ab c6 00 3d c8 73 17 3a 96 9e 1f 3d 6c 51 c5 bc
       0.031439465 0.00057774456 0.0389696 -0.024086677
0002e0 c6 13 b2 3c 60 30 04 3b 80 80 c4 3a 8f 84 23 3d
       0.021737944 0.0020170435 0.0014991909 0.03992134
0002f0 4b 3e 2e bd 80 bf 81 bc c0 cf 7c ba 18 7a b7 bb
       -0.042539876 -0.015838385 -0.0009643994 -0.0055992715
000300 69 22 96 bc 17 9e bc bc 98 2a 1d bd 35 b5 1c bd
       -0.018326955 -0.023024602 -0.0383707 -0.03825875
000310 75 7f c1 3c 06 8c 81 3b 2e 5a 11 bd 62 4f 0c bd
       0.023620347 0.0039534597 -0.035486393 -0.034255393
000320 c2 9d d4 bc 8a ba 16 bc 42 e7 ae 3c dd 19 21 bc
       -0.025954131 -0.009199748 0.021350507 -0.009832826
000330 14 fc ec bc e6 42 da bb 18 5b 30 bd 87 fd c5 bc
       -0.028928794 -0.006660807 -0.043055624 -0.024168743
000340 34 c3 03 bd de f4 61 bc 03 ab cf bc 23 a1 bd bb
       -0.032168582 -0.013791291 -0.0253501 -0.0057870313
000350 8e f5 1d 3d 04 56 f5 3b 08 70 5c 3c 79 04 1e bd
       0.038564257 0.0074870605 0.013454445 -0.038578484
000360 48 c2 08 3d 7d af c1 bc 00 3d 91 bb e6 6e 27 bc
       0.033388406 -0.02364325 -0.0044323206 -0.010219311
000370 38 f4 a3 bc 97 0c 8a bc 67 5d 1a bc 99 0c fe 3c
       -0.020013914 -0.016851706 -0.009421683 0.031011866
000380 76 ab 2b bd ca 77 68 3b 88 1f 83 3c ba cb 18 3b
       -0.041911565 0.003547179 0.016006246 0.002331479
000390 98 4d 01 bd d6 e3 c7 3c 73 a3 ff bc 88 8a a0 bb
       -0.03156814 0.024400633 -0.031205868 -0.0048993267
0003a0 25 31 1b bd 25 c5 50 3c 26 a3 d6 3c 10 75 86 bb
       -0.037888665 0.012742315 0.026200842 -0.0041033104
0003b0 e1 ba 27 3d 95 f2 fe bc e0 cc c8 bb 2a cd 77 3b
       0.040949706 -0.031121532 -0.0061279386 0.0037811496
0003c0 e9 47 f1 bc 44 80 7c bc f9 6f 21 bd 20 29 b0 3c
       -0.029453235 -0.01541144 -0.039413426 0.021503985
0003d0 ab 19 b0 3c 2d f5 71 3c 02 88 19 3d b9 aa fd ba
       0.021496614 0.014767927 0.037483223 -0.0019353247
0003e0 05 6d a8 bc 33 74 25 bd e1 08 a9 3c aa 04 03 bd
       -0.020559797 -0.04039402 0.020634117 -0.03198687
0003f0 a7 db bc 3c 6e 16 18 bd ae b8 17 3d 9d 31 bb bc
       0.023053957 -0.037130766 0.03704136 -0.022850806

fc_state.0.bias f4 [64]
000000 25 1e f5 b9 a2 61 df bc 75 46 ad 3c 81 28 df bc
       -0.000467525 -0.027268235 0.02115176 -0.027240993
000010 87 7a 68 3b 36 e3 16 bc 7d 02 5d bc 9b 48 e2 3c
       0.0035473423 -0.009209445 -0.013489363 0.027622512
000020 43 dd c9 bc 7c b7 04 3d 32 72 ef 3c 66 9f 98 3c
       -0.024641639 0.032401547 0.029229257 0.018630695
000030 dc 21 be bb 66 74 80 3d c3 3b bd 3c 2e 82 e3 3c
       -0.005802376 0.06272201 0.023099786 0.027772035
000040 bf 98 ca bc bf 5c 2e bd 68 b7 41 bd a2 34 ea 3a
       -0.024731038 -0.04256892 -0.04729405 0.0017868469
000050 78 44 2f bd d5 ec c5 bc 95 30 8c bc ff f3 f4 bc
       -0.042789906 -0.024160782 -0.01711301 -0.029901503
000060 e8 87 c5 3c e0 90 a1 3d b5 26 90 3c ea c2 8e 3b
       0.024112657 0.07888961 0.017596582 0.0043567317
000070 74 ed 0e bd 5a 67 62 3d d3 04 9f bc be 9c f1 bb
       -0.03489442 0.055274345 -0.01941148 -0.0073734215
000080 0f 3b 23 bd 2e 77 66 bd a1 41 14 bd a5 2d 0c bb
       -0.039851245 -0.056266002 -0.0361954 -0.002138951
000090 b3 49 12 bd b3 4b 35 bd a3 bc dc 3c 1f 04 47 3d
       -0.035714816 -0.044261646 0.026945418 0.048587915
0000a0 80 47 8e bb 83 50 36 bd 9f 26 e2 3c c1 a6 c6 bc
       -0.0043420196 -0.044510376 0.027606307 -0.024249436
0000b0 da c7 65 3d 3a b2 3b bb 17 3f 32 bc fe e2 80 bc
       0.056098796 -0.0028640167 -0.0108793 -0.015733238
0000c0 30 99 05 bd 1f 39 23 3d 96 38 23 bd 33 95 c1 3b
       -0.032616794 0.039849397 -0.039848886 0.0059076785
0000d0 01 d4 30 bc 2a 59 61 bd aa 0e 79 3d 48 5b 61 bd
       -0.010792733 -0.055016674 0.060805 -0.055018693
0000e0 35 1e e2 bb 3c a4 b6 3d 95 f8 b2 bc f6 f5 77 bb
       -0.0069005736 0.08918044 -0.021847049 -0.0037835813
0000f0 83 a7 87 bd e3 e5 5c 3c 27 cf 97 bc 9a 84 1f bc
       -0.06623747 0.013482544 -0.018531395 -0.0097362045

fc_state.2.weight f4 [32, 64]
000000 23 74 e5 bd 9c 5c c0 3d 92 0f 44 bd 88 e4 5e 3d
       -0.11203792 0.09392664 -0.04786641 0.054417163
000010 01 1c f3 3d 47 75 a1 bd 60 85 33 bc 55 c1 eb 3c
       0.11870576 -0.07883697 -0.010957092 0.028778711
000020 0d 4d d5 3d 31 58 d5 bd 0b 09 4e 3d 30 3e ac 3d
       0.10415087 -0.10417212 0.050301593 0.08410299
000030 e1 be fb bd 05 13 47 bd ba f7 4b bd cd 71 28 3d
       -0.12292267 -0.048602123 -0.049796797 0.041124154
000040 2f da ef bd ae de e3 3d e9 99 8a 3d 9c b8 f9 b8
       -0.11711537 0.11126457 0.06767637 -0.000119076314
000050 53 95 dc bd 06 b0 12 3d b5 cd b2 bd e2 d2 2c bd
       -0.10770669 0.0358124 -0.08730642 -0.0421933
000060 8b b9 e8 3d a0 ac 91 3d 95 21 53 bc 42 cd 8a 3d
       0.113635145 0.07113004 -0.012886425 0.06777431
000070 0d cb f6 3c 15 3c 0c 3d 6a dd 8d bb 69 b5 d1 bc
       0.030126119 0.034236986 -0.004329373 -0.025599198
000080 46 97 0a 3d 15 51 31 bd c1 0a d7 bd 08 cf a8 bc
       0.03383567 -0.043290216 -0.10500098 -0.020606533
000090 e6 e5 85 bd 90 d6 77 3c 77 04 0d be 4d 52 b5 bd
       -0.0653799 0.015126839 -0.13771234 -0.08853588
0000a0 85 0e 91 3d bf fc e1 bb 7f 4b a6 3d 8b 0c 2b bd
       0.070828475 -0.0068965848 0.081198685 -0.04176001
0000b0 a5 50 b7 bd b9 cc 38 bc e8 ad 11 be 81 5d 8a bd
       -0.089509286 -0.011279278 -0.14226496 -0.06756116
0000c0 87 00 e4 3d 7d 3a ba 3d 5f 7d e1 3d 4c 73 6e 3d
       0.11132913 0.09093187 0.11010241 0.058215424
0000d0 39 43 9f 3d 23 22 b9 3d e4 4e 87 3b b8 c1 c8 bd
       0.077764936 0.09039714 0.0041292775 -0.09802574
0000e0 c9 60 e1 3c 53 5b bb bc fe 85 d2 3d e6 a6 b0 bd
       0.027511971 -0.022870695 0.10279463 -0.08625583
0000f0 0e 70 e2 3d e6 b3 fa 39 d0 b7 1e bd cb 33 b6 3d
       0.11056529 0.0004781775 -0.038749516 0.088965975
000100 31 26 c5 3d 82 f7 f8 bd 0a 87 16 3d 34 4f c1 bb
       0.09626425 -0.12156583 0.036749877 -0.0058993343
000110 c0 15 68 3d d9 60 87 3d 4f 1c d9 3c 67 c3 8c bd
       0.056661367 0.06610269 0.026502756 -0.068732075
000120 04 94 b0 bd e8 f1 e5 bd 1f ae e0 3d 89 11 fb 3c
       -0.08621982 -0.112277806 0.10970711 0.03064801
000130 5a 50 94 3d 12 79 94 3d 57 57 69 bc dc 3b 23 3d
       0.07241888 0.07249655 -0.014242015 0.03985201
000140 02 77 0d bd fa ac 52 3d 75 4b 15 ba dd 26 f1 bb
       -0.034537323 0.051434495 -0.0005695143 -0.007359369
000150 64 6f ba bb 33 1a 33 3d 53 e1 05 3d 88 c0 2e 3c
       -0.0056895483 0.043726157 0.03268559 0.01066602
000160 a5 8f 4b bc d1 73 3f bd 47 b9 98 3d 7c 14 aa 3c
       -0.012424384 -0.04674131 0.07457214 0.02076172
000170 f7 12 a0 3d 71 f6 1d 3e cd ff 76 38 48 80 a7 3d
       0.07816117 0.15426041 5.8889204e-05 0.081787646
000180 de 1d 5b 3d a0 66 fc 3d eb ed 75 3d 25 a4 02 bd
       0.05349528 0.12324262 0.06004135 -0.03189482
000190 e4 ca 17 3e 72 22 f5 bd ad 1d bd 3d e4 12 79 3c
       0.1482349 -0.119694605 0.09234176 0.015202258
0001a0 d2 ea e0 3d ea c6 5b 3d 46 c8 63 3d 8f 66 c9 bd
       0.109822884 0.053656496 0.055610918 -0.098340146
0001b0 2c f8 07 bd 8d 76 86 bd 06 23 a8 3d fc 3e a6 3d
       -0.03319566 -0.065655805 0.08209805 0.08117482
0001c0 04 eb 30 bc 0a 8e 90 3d 99 70 9d bc 86 cb a1 3d
       -0.01079822 0.07058342 -0.01921873 0.07900147
0001d0 9c 50 91 bc cd 14 49 3d a9 2e f5 3b 32 af 0c bd
       -0.017738633 0.049092103 0.007482369 -0.034346767
0001e0 85 22 45 bd 70 3a 6c 3d 5d 77 c1 bd 3f 87 0a be
       -0.048128624 0.057672918 -0.09446595 -0.13528155
0001f0 68 cf 3f bd df 12 99 3d b1 e0 84 bc f6 ba 06 3e
       -0.046828657 0.074743025 -0.016220422 0.13157257
000200 91 86 dc 3d 53 88 2a bd d2 73 94 bd e9 3e d6 3d
       0.10767854 -0.041633915 -0.072486535 0.10461218
000210 05 38 c7 3d 85 79 e0 3d 3d eb 8c bd 67 bf 85 bd
       0.09727482 0.10960678 -0.06880806 -0.06530648
000220 a5 55 90 bd f0 bd 8a 3d 86 09 37 3b 72 59 da bd
       -0.070475854 0.06774509 0.002792926 -0.106615916
000230 e0 6e 90 bd 87 b6 fb bd 9b b3 9d bd aa a2 e0 3c
       -0.07052398 -0.12290674 -0.07700273 0.027421314
000240 17 87 ad bc 00 6f 06 3d f1 86 a5 bd 6c c2 92 bd
       -0.02118258 0.0328207 -0.08082379 -0.07165989
000250 d1 58 f8 bd ff 8d 8f 3d 52 6e b4 3d 62 54 7d bd
       -0.121263154 0.070095055 0.088101044 -0.06184805
000260 aa ba bb bd 7d 92 21 bd 84 97 ed bd 42 c1 f2 3d
       -0.09166463 -0.039446343 -0.11601165 0.11853267
000270 29 68 4d bd 1b 23 93 3d 9e f6 8a 3d be 13 4e be
       -0.050148163 0.0718443 0.0678532 -0.20124719
000280 30 f5 90 3d ae 9c 25 bd 40 b1 f6 bd 96 3e 8a bc
       0.07078016 -0.040432625 -0.120455265 -0.016875546
000290 61 87 33 bd 72 e4 d7 3d 7b 2f 9d 3c fa fc 7b bd
       -0.04383028 0.10541619 0.01918768 -0.061520554
0002a0 71 17 e3 3d 0b a2 30 bc 8a 65 e4 3d d1 c9 f9 3d
       0.110884555 -0.010780822 0.111521795 0.121966965
0002b0 42 10 68 bd 83 85 ca bd 2a de e0 bd d2 66 f9 bc
       -0.05665613 -0.098887466 -0.109798744 -0.030444536
0002c0 e8 03 64 3b 7c 6d 8d 3d 12 0a 46 bc 92 82 ea bc
       0.0034792367 0.06905648 -0.012087362 -0.028626714
0002d0 6c 15 e9 bd ba 4b e5 3d 4a f6 eb bd d9 0e 97 3d
       -0.11381039 0.11196084 -0.11521585 0.07375879
0002e0 ae 48 91 bd c4 c5 12 be 30 7d 4d bd fc a9 23 bc
       -0.07093941 -0.14333254 -0.050168216 -0.009989258
0002f0 c1 af 9e bb b5 fc 49 3d 98 15 d5 3c 35 14 ba 3d
       -0.004842729 0.049313266 0.026011273 0.090858854
000300 42 4d f4 3d 5b 12 eb bd 90 07 df bd 8f c9 80 3d
       0.11928798 -0.114781104 -0.10890114 0.06288444
000310 2a a1 7e 3d 08 2e bf 3c f3 9f 3e bd 54 b2 a2 3d
       0.062165417 0.02333738 -0.04653926 0.0794417
000320 05 30 e3 bd a9 67 50 3d 74 6b c8 bc 4d 97 68 ba
       -0.110931434 0.050880108 -0.0244653 -0.0008872643
000330 1f d6 88 bd 1e dc d7 3c 5a ae 1d 3d ed ec 84 be
       -0.06681465 0.026350077 0.038496353 -0.2596201
000340 cf 6d b5 bd c7 a1 2a bd 39 2e 72 3d 75 57 e9 3d
       -0.08858835 -0.04165819 0.059126113 0.11393634
000350 f2 a7 8f ba 8c 4e 9e bd 18 3e 59 bc 14 52 2d bd
       -0.0010960086 -0.077298254 -0.013259433 -0.042314604
000360 d0 cf 13 3d 6c 3c 77 3d 7c 1e c3 3d 55 de b7 ba
       0.036086857 0.060360357 0.09527299 -0.0014028052
000370 40 f1 7a 3d 44 cc 46 bd 22 17 e9 bd b8 e9 d3 bd
       0.06126523 -0.048534647 -0.11381365 -0.10347313
000380 15 d3 d1 bd c0 b2 25 bc 05 86 9e 3d cb 4f 30 bd
       -0.10245339 -0.010113418 0.07740406 -0.043044847
000390 26 6a bb 3d 1e 42 48 bd a2 c4 2d be 0c 17 2d 3d
       0.091511056 -0.04889118 -0.1696954 0.042258307
0003a0 7e d1 a7 3d 0d d9 4b 3d 57 dd 13 3c ae 2b 85 3d
       0.08194254 0.049767543 0.0090249395 0.06502472
0003b0 a6 ad 20 be dc 3c e9 bd fd 59 e5 bd 95 9a 84 bc
       -0.15691242 -0.11388561 -0.111988045 -0.016186992
0003c0 f2 b4 a2 3d 26 af bb 3d 02 01 0a 3c 66 43 03 bd
       0.07944669 0.09164266 0.008423092 -0.032046698
0003d0 22 20 d2 bd 00 04 ec 3d f3 ca 44 bc d5 64 86 bd
       -0.10260035 0.115242004 -0.0120112775 -0.06562201
0003e0 fc 5e f0 3d ef 8d d2 3d c5 a5 48 bd 9a 80 90 3d
       0.11736867 0.10280978 -0.048986215 0.07055779
0003f0 9c d7 91 bd df 4f cb bb 8b 6c b2 bd 7e a0 ec bd
       -0.07121202 -0.0062045897 -0.08712109 -0.11554049

fc_state.2.bias f4 [32]
000000 76 3d 22 3e ae eb 66 3d e3 43 9f bd a8 aa db 3d
       0.15843758 0.056377105 -0.0777662 0.107259095
000010 d8 fa f1 bd 3d 23 38 3e 29 6f d2 bd 66 e6 df bc
       -0.11815423 0.17982192 -0.10275108 -0.027331542
000020 51 7a 93 3d 43 0a d3 3d 1d 67 08 be ad 63 17 3e
       0.072010644 0.10304692 -0.13320585 0.14784117
000030 4f 5c 0f be ac 5f 32 3e 1f 9f ee 3d 08 4e f5 bd
       -0.14000057 0.17419308 0.11651444 -0.11977774
000040 eb a6 78 bd ca a0 a6 bd 71 cc 05 3e 6c 00 4e 3d
       -0.06070606 -0.08136137 0.1306627 0.05029337
000050 5c bf a7 bd 9b 96 80 bc 15 e2 81 3c 27 02 a8 3b
       -0.08190796 -0.015696814 0.015854875 0.0051272097
000060 82 fb 0b 3e 19 b3 f4 bc d8 a0 32 3e 13 e4 d7 3d
       0.13670161 -0.029870557 0.1744417 0.105415486
000070 33 12 1a bd cb fd 11 3e 21 b5 b8 3b c0 d3 ca bd
       -0.037615012 0.1425697 0.0056368266 -0.09903669

fc_state.4.weight f4 [1, 32]
000000 b4 46 9e bd d2 eb cd 3d cb 84 a0 3d c3 37 24 be
       -0.07728329 0.10054745 0.07837828 -0.16036896
000010 64 a3 43 be d0 9f 1a be f9 15 c5 bc e8 3b 01 be
       -0.19105297 -0.15100026 -0.024058329 -0.12620509
000020 c3 62 c8 bd 05 aa 22 be 2f e6 ab 3d 71 53 50 bd
       -0.09784462 -0.1588517 0.083935134 -0.050860826
000030 9d e0 bc bd 21 8b 89 bd b8 74 be 3d cf db 99 3c
       -0.09222529 -0.0671599 0.09299606 0.01878157
000040 15 a7 75 3c 43 5d 02 be ee bc c8 3d 81 b6 e0 3c
       0.014993449 -0.12730889 0.098016605 0.027430775
000050 13 cc 0c 3e 51 a5 0f 3e 7e eb 4d bd e5 3d 09 3b
       0.13749723 0.14027907 -0.05027341 0.0020941433
000060 21 2a 6c bc 4b df ea bd 28 83 1b bd 05 76 30 be
       -0.014414341 -0.11468371 -0.037966877 -0.17232521
000070 c4 2d a7 ba 87 82 95 bd 16 ed 8d 3d 70 02 1e be
       -0.0012754728 -0.07300287 0.06929986 -0.15430617

fc_advantage.0.weight f4 [64, 512]
000000 c8 42 12 bd bd 26 19 bd 25 a7 dd bc 70 73 7c 3c
       -0.03570822 -0.03739046 -0.02705724 0.015408382
000010 8b 9c be 3c 70 34 dc bc c9 21 0b 3c 96 8b f3 3c
       0.023268005 -0.026880473 0.008491942 0.029729646
000020 b8 5c 85 3c 55 a0 c9 bc 32 0b f2 bc 41 53 42 bd
       0.016279563 -0.024612585 -0.029546354 -0.04744268
000030 d5 16 78 bc 2f 65 35 bd f7 e0 2e bd 39 36 00 3c
       -0.015142162 -0.04428595 -0.042695012 0.007825428
000040 47 c4 47 bd 6b 7e 08 bd c5 0a d5 3c e7 e5 9d 3c
       -0.04877117 -0.033323687 0.026006112 0.019274665
000050 89 ae 10 3d 27 d1 bc 3c f0 67 e4 bc ca e8 16 bd
       0.0353227 0.02304895 -0.027881593 -0.0368431
000060 53 a0 69 3c 70 f0 78 bc d6 b3 21 3d 31 fe ac 3a
       0.014259416 -0.0151940435 0.039478146 0.0013198314
000070 f2 fe 1f bd d6 de 2c bd f8 f6 f6 3c b7 6b cb 3c
       -0.039061494 -0.0422047 0.03014706 0.024831636
000080 4a 9d 06 3d 00 b1 a1 bc c4 59 e9 3c d4 e9 15 bd
       0.032864846 -0.01973772 0.028485186 -0.03659995
000090 7e f6 af 3c bf 67 0b bd 56 8b 21 bc 06 67 e3 ba
       0.021479841 -0.034034487 -0.00985988 -0.0017349429
0000a0 3d 4b 53 3c 97 fa f0 bb 49 58 f5 3b 83 77 d5 bc
       0.012896356 -0.0073540914 0.007487331 -0.026057964
0000b0 45 82 96 bc e5 e4 d6 3c 8f f2 e3 3c a7 5b 38 bc
       -0.018372664 0.026232192 0.027825622 -0.01125232
0000c0 04 1e 61 3c 27 8c 99 bb 37 b2 29 bc d9 11 2f bd
       0.013740066 -0.004685897 -0.010357431 -0.04274163
0000d0 3d a4 ab 3b 10 ca 9a bc 66 99 82 bc 87 89 13 3d
       0.0052380846 -0.018895179 -0.015942287 0.03601983
0000e0 5d 00 09 bd 56 2b ec ba e9 ac 84 3c 45 ec 18 bd
       -0.033447612 -0.0018018286 0.016195731 -0.0373347
0000f0 f0 9e 07 bd 46 b4 a1 3c e8 39 3f bb 64 13 16 3d
       -0.03311056 0.019739281 -0.0029178802 0.036639586
000100 6e c2 13 bc 09 27 20 bd b7 52 dc bc 84 d8 e8 bc
       -0.009018524 -0.039099727 -0.02689491 -0.028423555
000110 3c 8f ca bc a9 de 80 bc f3 77 2a bd 91 17 ab bc
       -0.024726503 -0.015731173 -0.0416183 -0.02088526
000120 ff 9d 25 3b 60 a1 62 3c d1 75 ea bc 3f e6 0e bd
       0.0025271175 0.01383242 -0.028620632 -0.03488755
000130 3f 7f ce bb c2 b0 22 bd 84 e0 a9 3c f9 d7 40 bd
       -0.00630179 -0.03971935 0.02073694 -0.047080968
000140 e3 32 85 3c ae dc 02 bd 60 42 c8 bb 20 da 12 3b
       0.016259616 -0.031948738 -0.006111428 0.0022407845
000150 5c db 4e bd fb a7 0a 3d a6 ee 0a bd ab 5c f4 bc
       -0.050502166 0.033851605 -0.033919 -0.029829344
000160 bd cd 82 bc fc 27 76 bc a1 ff c8 3c 53 af 18 3d
       -0.015967244 -0.015024181 0.024535956 0.037276577
000170 23 94 e5 3c 35 7d 81 bb 78 85 01 bd 00 95 4e b9
       0.028024739 -0.0039516934 -0.031621426 -0.00019701198
000180 2b 15 9f 3c 3a 97 e5 3c 98 3a 91 3c ce ee 9e 3a
       0.019419273 0.028026212 0.017728135 0.0012125613
000190 ea d6 0f 3d 33 d8 9e ba 56 97 28 3d 08 09 23 3d
       0.035117067 -0.0012118876 0.04115995 0.039803535
0001a0 32 24 53 bc a6 bb 1c b9 59 f5 25 bb 09 00 8b 3c
       -0.012887048 -0.00014947224 -0.002532324 0.01696779
0001b0 46 2e bb 3c 99 f8 23 bd 87 86 ae 3c 37 36 af 3c
       0.022849213 -0.040032003 0.021304382 0.021388156
0001c0 32 0c be 3b c6 23 9b 3c b5 4b a8 bc 87 70 8a 3c
       0.0057997936 0.018937957 -0.020543912 0.01689936
0001d0 22 61 a0 3c 66 fb 65 bc 35 23 be bc 26 ae 05 3d
       0.019577567 -0.014036989 -0.023210147 0.032636784
0001e0 b5 61 50 bc 06 2a 35 bd 00 e9 0f 3c 69 05 d3 3a
       -0.012718608 -0.04422953 0.008783579 0.0016099635
0001f0 cb 65 35 bd e5 5e 21 bd 7b cb a4 3c 03 9a e8 3c
       -0.04428653 -0.03939714 0.020116558 0.028393751
000200 fe cb 81 3c de 8a 77 bc e8 49 d1 3c 98 75 83 3c
       0.015844341 -0.015108792 0.025547937 0.016047284
000210 e3 d1 8d bc 4a b8 e3 bc 87 25 f5 bc 98 2c 2f bb
       -0.017311996 -0.027797837 -0.029925121 -0.002672946
000220 74 64 fa b9 84 81 0d 3d 34 36 11 bd 92 cd 7f bc
       -0.0004775856 0.034547344 -0.035452083 -0.015612977
000230 e8 61 08 3d a4 3f e3 3b 1d b4 75 bb 5d 7c 27 bd
       0.033296496 0.006935077 -0.003749139 -0.040890086
000240 30 92 e3 3b 44 c3 04 3d 2f 50 29 3b dd 41 c4 3b
       0.006944917 0.032412782 0.0025835147 0.005989297
000250 2d 2c 2a 3c 80 45 5b bc 98 f7 5b 3c 73 2f 4c 3c
       0.010386509 -0.013383269 0.01342573 0.012462485
000260 5d 82 e3 bc 94 ee 1f 3c 24 e8 d7 3c a6 d0 8f 3c
       -0.027772123 0.009761471 0.02635581 0.017555546
000270 2c 90 09 3d c3 6a 08 3d c1 f1 2e bd 09 d2 8e 3c
       0.03358476 0.03330494 -0.042711023 0.017434137
000280 47 c5 5e 3c 98 b0 bb bc d9 d9 1f bd 6c 33 3d 3c
       0.013596839 -0.022911355 -0.039026115 0.011547904
000290 06 13 45 bc 9f d3 13 bc ff 27 29 bd 76 c3 48 bd
       -0.012028461 -0.009022622 -0.04129791 -0.04901453
0002a0 dc f6 9e ba f2 fc 11 3c 4d f4 c1 bb 69 dc 1b bb
       -0.0012128013 0.0089104045 -0.0059190155 -0.0023782498
0002b0 42 05 f2 3c 59 f1 89 3b 04 4c c4 bc 16 b6 89 3c
       0.029543523 0.004209679 -0.023962028 0.016810458
0002c0 39 90 18 3d 8a 0b c3 bc f3 b2 33 3d 00 61 09 bb
       0.037246916 -0.023809213 0.04387183 -0.0020962358
0002d0 1a db f6 bc ae a4 9a bb 40 ff 24 3d f3 5a 1f 3d
       -0.030133773 -0.0047193384 0.040282488 0.038905095
0002e0 7c d8 27 3d 17 a4 1d bc da 39 27 bd f1 3e 21 3d
       0.04097794 -0.009621642 -0.040826656 0.039366666
0002f0 08 cc 16 bd 98 e2 fd 3b f5 ad bf bc 38 ae 39 bc
       -0.036815673 0.0077479593 -0.023398379 -0.011333041
000300 36 18 2d bb fd ec 46 bd 4f 4e 9c 3c e8 85 ae 3c
       -0.0026412136 -0.048565853 0.01908031 0.021304086
000310 4c 88 80 3c f7 37 06 3d 99 b1 a8 3b ac 45 a4 bc
       0.015689991 0.032768216 0.0051481244 -0.020052753
000320 25 9d b2 3a 54 ae 3c 3c 53 fa af 3c f2 72 41 bc
       0.0013627155 0.011516172 0.021481669 -0.01180719
000330 63 09 e7 3c a2 69 96 3c ee 2f 32 3d 36 3e 9c 3c
       0.028202718 0.018360917 0.04350274 0.019072633
000340 c0 c2 53 bb ce 24 8b 3c 29 e9 28 3d c4 59 ba 3c
       -0.0032312125 0.016985323 0.041237984 0.022747882
000350 98 22 e3 bc 69 e6 a6 bb 0c ed 7a 3b 75 2f dd bc
       -0.027726457 -0.005093385 0.0038288264 -0.027000168
000360 10 0c 09 3d 70 19 72 bc 22 f4 15 bd 18 59 6d 3c
       0.03345877 -0.014776573 -0.036609776 0.014486574
000370 e1 84 c1 3c e4 87 9d 3c 47 06 a4 3c f3 96 4c bd
       0.023622932 0.019229837 0.020022525 -0.049948644
000380 cf bd b7 3b fc 6c eb bc 0e 1f 15 3c 04 3d 19 bd
       0.0056073437 -0.028738491 0.009101642 -0.037411705
000390 72 ad 4c bc 70 58 1f bc 9a b8 2f bd 3e 2d 05 3c
       -0.012492524 -0.009725675 -0.04290066 0.008128462
0003a0 da 88 bc bc f0 81 13 bc 89 38 05 bb f6 bb 71 bc
       -0.023014475 -0.0090031475 -0.0020327887 -0.014754286
0003b0 63 d7 75 3c 33 12 02 bd 78 84 1a bd 80 04 ef 3c
       0.0150049655 -0.031755637 -0.03772399 0.02917695
0003c0 f0 6c 48 bb ab f9 01 3d 0b 60 0b bc 2e 7f d5 bc
       -0.003058251 0.031732243 -0.008506785 -0.02606162
0003d0 31 10 9e 3c 91 b2 8f bc bb d5 30 bd f8 53 b1 3c
       0.01929483 -0.017541202 -0.04317258 0.021646485
0003e0 9f e7 24 bd c9 c3 20 bd e4 59 11 bd 0e c8 1c bd
       -0.040259954 -0.039249215 -0.035486117 -0.038276725
0003f0 ae 5c 90 3c b5 36 17 3d a9 89 3a bd 68 bb e6 3c
       0.017622318 0.036917407 -0.04554144 0.028165534

fc_advantage.0.bias f4 [64]
000000 20 df 41 bd 5d 3c 27 3d a5 c4 4b be 42 34 00 3c
       -0.04733193 0.04082905 -0.19899233 0.007824959
000010 4a d2 3c be 27 f6 25 be df 86 ff 3c db ab 17 bd
       -0.18439594 -0.16207181 0.031192241 -0.03702913
000020 eb 9e bc bc c5 78 49 bd 25 73 7f 3e 57 4a 8f 38
       -0.023024997 -0.04918744 0.24946268 6.832618e-05
000030 97 85 26 3d 9a 39 64 bd 86 5b d7 ba 9f 09 82 bd
       0.040654745 -0.055718996 -0.0016430474 -0.06349491
000040 10 a4 da bd 12 fe 9a bb a7 c7 32 bc 83 50 3f 3d
       -0.10675824 -0.0047299946 -0.010911859 0.04670764
000050 50 c1 5b 3d 28 c0 b2 3d a9 79 1c bd 39 bd 55 3d
       0.053651154 0.08728057 -0.03820196 0.05218241
000060 72 23 90 3e 7b ca cb bc 87 3b 6a 3d 69 68 ca 3d
       0.28152043 -0.024876824 0.057185676 0.09883196
000070 83 43 90 3d 3d d0 8f bd 89 b9 c5 bc e9 a5 5f 3c
       0.07044127 -0.0702214 -0.024136322 0.013650396
000080 a4 6c 9b 3e 3b f9 29 bc 48 e4 87 3e 84 d1 24 be
       0.30356324 -0.010374363 0.26541352 -0.16095549
000090 d3 4f 0b bc d5 e8 dc 3d 0f f5 b0 bd f6 d8 4d 3d
       -0.008502918 0.10786597 -0.08640491 0.05025574
0000a0 7d 07 85 3e 65 5c d2 3a 27 53 5f 3d 16 8d 04 3d
       0.25982276 0.0016049264 0.05452266 0.032361113
0000b0 15 db a5 bd ef 64 49 bd 39 e2 05 bb 76 5c 0f bc
       -0.08098427 -0.049168523 -0.0020429029 -0.008750072
0000c0 be 0d 6e 3e 53 9c 77 3d d2 e7 7d 3e 1e 6e 89 39
       0.2324743 0.060451817 0.24795464 0.0002621272
0000d0 71 fb 6b 3e 60 d2 3e 3d f1 7c 72 bc bd 81 9b bd
       0.23045136 0.046587348 -0.014800296 -0.07593105
0000e0 85 85 0f 3e 33 d5 f9 3d 29 79 0a 3c 03 de 19 bd
       0.14015777 0.12198868 0.008451738 -0.037565242
0000f0 5c ed d2 bc 6a bc 10 bd 6b 5d f4 bc ab 20 d1 bd
       -0.025747947 -0.035335936 -0.029829701 -0.10211309

fc_advantage.2.weight f4 [32, 64]
000000 7a 20 c8 bd 59 37 ef bd 6e d6 ad 3d e0 3a b5 bd
       -0.097718194 -0.116804786 0.08488165 -0.0884912
000010 c8 76 87 3c 6e df ab bd 7d 65 3e bd 4d 0e d7 3d
       0.016536132 -0.08392225 -0.046483506 0.105007745
000020 d8 1a 2f bd 15 cf a8 3d 55 74 65 bd 5c ba e9 ba
       -0.04275021 0.08242623 -0.056019146 -0.0017832029
000030 4e bb 5c 3d 80 84 81 bc b7 8a d0 3d 65 76 8a bd
       0.053889565 -0.015810251 0.10182708 -0.06760863
000040 45 ee 9a bd 02 dd 50 3d e6 18 50 3d dc 40 ed 3d
       -0.075649776 0.05099202 0.050804995 0.115846366
000050 34 86 d1 bc 1f 00 c0 bd 25 50 c2 bd d9 b1 56 bd
       -0.025576688 -0.09375023 -0.094879426 -0.052415702
000060 11 f1 4e 3d f9 be ae bd 10 5c 8a bc f2 da c1 3c
       0.050522868 -0.08532519 -0.016889602 0.023663972
000070 86 47 14 bd 96 07 e2 bc fa 4f c5 3d 86 b3 0e bd
       -0.036201023 -0.027591508 0.09634395 -0.034839176
000080 eb f6 69 3c 82 ab de bd f5 b8 0f bd 6e 04 9f bd
       0.014280061 -0.10872556 -0.0350885 -0.07764517
000090 bf 1d fb 3b 4f ee b3 bd 4c bd 36 3d 07 bd f9 bd
       0.007663458 -0.08785688 0.04461412 -0.12194257
0000a0 9c 69 93 bd 92 e3 0e 3d a0 f9 35 bd 94 2e 6b bd
       -0.07197878 0.034884997 -0.044427514 -0.057417467
0000b0 f8 ec 82 3d 75 77 86 3d 7f 17 94 bd 92 60 82 bd
       0.063928545 0.06565753 -0.07231044 -0.063660756
0000c0 fe 76 5c bc 9e 74 db bd 3a b2 f0 3c 90 18 24 bd
       -0.013456104 -0.10715602 0.02938186 -0.040062487
0000d0 f1 16 50 bd 6f 97 d6 3d 9a a5 b1 3d c5 3b 7e bd
       -0.05080313 0.104781024 0.08674164 -0.06206872
0000e0 e4 65 df bd 73 9a 37 bc 17 76 4a 3d 29 dd e4 3d
       -0.10908106 -0.011206257 0.049429026 0.111749955
0000f0 e5 07 a7 3d 40 0d c1 bc bc 09 d6 bd 69 6a a1 bd
       0.08155803 -0.023565888 -0.104510754 -0.07881624
000100 fc b8 09 bd ea d5 5c be f1 f3 0c 3e d2 a5 e2 3b
       -0.03362368 -0.21565977 0.13764931 0.00691674
000110 6c d1 e5 bb b0 8b 62 3a 1c e6 19 be 64 f1 a1 bc
       -0.0070134904 0.0008642031 -0.15029186 -0.019768424
000120 0f 9f 9b 3c f3 6c 4c bd e8 3f 64 bd d2 c8 22 be
       0.018996743 -0.04990859 -0.05572501 -0.1589692
000130 01 24 f7 bc 09 09 f7 3d 19 1a 1d bd f0 98 3b bd
       -0.030168535 0.1206227 -0.038354967 -0.04580015
000140 f9 01 a0 3d da 87 dd 3d e0 fe 89 3d ec 9c 66 bd
       0.07812876 0.10816927 0.06738067 -0.056301996
000150 51 e8 b1 bd c5 3a 89 3d 20 2f aa bd 4c cd 3a be
       -0.08686889 0.067006625 -0.0830977 -0.18242377
000160 26 a4 05 3e 47 ae 4a 3d 20 2e 09 3e c6 ba ca 3d
       0.13050899 0.04948261 0.13396502 0.098989055
000170 dc 8d 96 3d 8e 33 9e 3d 51 e4 ec bc 85 dc 11 be
       0.07351276 0.07724677 -0.028917463 -0.14244278
000180 00 d8 b6 bd 74 39 a5 bc 0e d1 39 bd 28 37 23 3c
       -0.089279175 -0.020168997 -0.045365386 0.009961881
000190 3f 03 01 be 76 bb 99 bd b0 7c 8e bd d1 90 28 3e
       -0.12598895 -0.075064585 -0.06957376 0.16461493
0001a0 f2 be c6 3c f1 9c 43 bc b0 cb 9f bd 96 a2 34 3c
       0.024260972 -0.011939273 -0.07802522 0.011025092
0001b0 a9 15 86 3d c9 40 b3 bc 9f 64 b5 bb c7 a9 de bd
       0.065471 -0.021881478 -0.0055356766 -0.10872226
0001c0 9b ec a8 3d d0 cb fc bc 27 b6 ea ba 4c b8 c9 bd
       0.08248254 -0.030858904 -0.0017907069 -0.09849605
0001d0 9f 01 c1 bd 34 1e 20 bb 49 db 62 ba 4a 62 14 3e
       -0.09424137 -0.0024432065 -0.0008653892 0.1449062
0001e0 26 10 4f bc 99 51 25 3b 8e db 4c be 11 31 ad 3c
       -0.012638127 0.0025225638 -0.20005628 0.02114156
0001f0 03 4d d0 3d 31 35 e0 bc db a9 2c be 92 82 b3 3d
       0.10170939 -0.027369114 -0.1686167 0.08765139
000200 82 71 92 bd 83 da 9d bd fd 09 3d 3b aa 27 3d 3d
       -0.07150556 -0.077076934 0.0028845065 0.046180405
000210 f1 b7 9d 3d f5 af cd 3c e1 ec a4 bd 44 2a a8 bc
       0.077011 0.025108317 -0.080529936 -0.020527966
000220 dc 5e 9b 3d 55 57 8e 3d ec d2 82 3b 84 47 4b be
       0.07586452 0.06950251 0.003992429 -0.198515
000230 db d8 24 3e 70 9d dc bc 70 55 7a bd e8 9d 59 3d
       0.16098349 -0.02693054 -0.061116636 0.053129107
000240 6b 42 eb 3d 90 b6 d6 3d 92 81 8c bc a4 35 2b 3e
       0.114872776 0.1048404 -0.017151628 0.16719681
000250 77 d4 1d bd ea 4c 06 3e 1f be 70 3d a1 fb ab bd
       -0.0385327 0.13115278 0.058775064 -0.08397604
000260 07 a7 cc 3d a7 ad d2 bd dc 09 0b bd 48 e2 c0 bd
       0.099927954 -0.10287028 -0.03394495 -0.0941816
000270 c1 74 55 3d c9 6e 99 3d 26 56 33 3c 51 56 5d 3e
       0.0521133 0.07491834 0.010945832 0.21614958
000280 45 d9 04 be 7d 23 e1 3d 06 30 4c bd 74 aa a1 bc
       -0.12973507 0.10993097 -0.049850486 -0.019734599
000290 e2 33 1b bc 18 62 36 3e f8 22 b1 3c db 19 9a 3d
       -0.009472819 0.17810857 0.02162312 0.07524463
0002a0 cc 70 c8 bd b7 34 4e 3d 35 d3 a1 3c b8 03 63 3e
       -0.09787139 0.05034324 0.019754032 0.22169387
0002b0 73 c7 cd bb 73 33 ae bb 8b b0 ff bd d2 85 05 3d
       -0.0062798797 -0.005316192 -0.12484845 0.032598324
0002c0 ef 40 bd bd f9 55 eb 3c cc ed 11 be 73 f2 21 bd
       -0.09240901 0.028727518 -0.14250869 -0.03953786
0002d0 3b ae 99 3d 18 8e 8a bc e7 54 92 bd d9 b5 d9 3d
       0.07503935 -0.016913459 -0.071451 0.10630388
0002e0 4b 62 97 3d 20 0f 45 3d 17 d0 5b bc 44 93 1c 3d
       0.07391795 0.048110127 -0.013416312 0.03822638
0002f0 61 00 f9 ba ea 48 b9 3d 3b dd 6a bc 8e 0c 43 3d
       -0.0018997305 0.090471104 -0.014334972 0.047619395
000300 56 91 e3 bc a8 5c dd 3d 91 0b c1 bd 33 66 1e 3c
       -0.027779263 0.108086884 -0.09426034 0.009667921
000310 0d bb 66 be 5a 3b 7b be cb 1d 7a 3d f5 42 b4 be
       -0.22532292 -0.2453436 0.06106357 -0.35207334
000320 51 37 cc 3d 53 4b ba 3d 5a ed bc 3d 18 37 95 3e
       0.09971488 0.09096398 0.09224959 0.29143596
000330 2b c7 2e be e1 ea 56 bb 31 01 13 be ee da 01 3d
       -0.17068164 -0.0032793807 -0.14355923 0.03170293
000340 e5 44 a3 bb 27 c9 03 be bc 08 05 be 70 74 5b bd
       -0.004982578 -0.12869702 -0.12991613 -0.05357784
000350 ed 23 26 3b b7 52 cc 3d 8c dd 7d bd 6e 87 6c 3e
       0.0025351003 0.09976714 -0.06197886 0.23098537
000360 e3 95 7a bd ba fa 1e bd 4d 56 c4 3d 8c 6e 06 be
       -0.0611781 -0.03881333 0.09586773 -0.13128108
000370 93 db 37 be 9b 47 99 bd 40 d9 27 be 80 fe b7 bc
       -0.17954855 -0.07484361 -0.16391468 -0.022460222
000380 d2 a1 48 bd 2d 03 10 be 3b 8f f5 3c fb a4 b3 be
       -0.04898245 -0.14063711 0.029975524 -0.35086808
000390 8c 2c 66 be 62 0f 3f 3d e3 e6 c6 bc 0d aa 85 bd
       -0.22477931 0.04664553 -0.024280017 -0.06526575
0003a0 9a c2 81 3d de 04 69 3d 47 0e a5 bc ae 56 a1 bd
       0.063359454 0.056889407 -0.02014841 -0.07877861
0003b0 a6 84 28 3d c9 3b 40 bd 6a a2 98 3d 29 ed c7 3d
       0.04114213 -0.046932016 0.07452853 0.097620316
0003c0 39 6a 87 bd 6f 3e 8c 3d 2b 90 8c bd e5 59 8f 3e
       -0.06612057 0.06847846 -0.06863435 0.27998272
0003d0 a9 5c 9e 3d e8 2c 78 3e c1 71 47 3d 30 48 89 be
       0.07732517 0.2423588 0.04869247 -0.26812887
0003e0 88 e5 97 3d 97 cf c7 3d c4 c9 19 bd 10 6a bd 3d
       0.074168265 0.097563915 -0.037545934 0.092487454
0003f0 34 9b e0 bd 57 b1 c5 bd c7 08 81 bb 9e dd bf bc
       -0.10967103 -0.096529655 -0.003937814 -0.023421105

fc_advantage.2.bias f4 [32]
000000 ac 0f 84 bc 89 2f 6d 3d 59 3a 50 bd ee 8a 55 bc
       -0.016120754 0.05790666 -0.050836895 -0.013033612
000010 02 08 df bd 78 d6 54 3e 13 72 72 3c 30 88 af 3d
       -0.10890199 0.20784938 0.014797705 0.085708976
000020 2b 81 92 3d 8b 91 84 bd e2 50 66 3e 2f 57 fb bd
       0.07153543 -0.064730726 0.22491792 -0.12272488
000030 3a ab b6 be ee e6 9a bd 72 51 18 3c 63 86 17 be
       -0.3567751 -0.075635776 0.009296762 -0.14797358
000040 a0 aa 3f bd 4c f6 0d 3d 0c 61 a0 bb 81 bd 86 3d
       -0.04679358 0.034658715 -0.0048943814 0.06579114
000050 01 d7 98 bd ae 02 64 3d c9 7f f1 3d cb 3d a9 bb
       -0.07462884 0.055666618 0.11791951 -0.005164837
000060 ca 5d 38 3e 46 40 eb bc 6e 49 bb 3d de d8 0b be
       0.18004528 -0.028717171 0.09144865 -0.13656947
000070 c4 03 9c 3e af ae e7 3d 36 d6 8e be 4f bb 4e 3e
       0.30471623 0.11312615 -0.27897805 0.2018864

fc_advantage.4.weight f4 [6, 32]
000000 3b b0 23 3e 71 84 5e bd 64 f3 c9 3d cd aa 5c bd
       0.15985195 -0.054325525 0.09860876 -0.053873826
000010 1e 83 cc 3d de a2 b8 3d 32 94 23 bd dd 13 49 3e
       0.09985946 0.090154395 -0.039936252 0.19636483
000020 d0 d7 8c bd 34 2b a0 bc 6a 45 40 be 97 7f bb bd
       -0.068771005 -0.01955185 -0.1877648 -0.09155195
000030 ae 8d 36 bd 99 fe 22 be 06 09 f2 bc e0 d0 97 bd
       -0.04456871 -0.15917434 -0.029545318 -0.074128866
000040 86 58 d4 bb 20 8d 0b be f6 5d d0 3d c9 26 81 be
       -0.0064802794 -0.13628054 0.101741716 -0.25224903
000050 90 88 d2 bd 52 c6 f5 bd f8 5d 60 3e b6 73 80 be
       -0.102799535 -0.12000717 0.21910846 -0.2508828
000060 e9 d9 ad 3d 2b 2a a7 3e 49 bb 37 be 7f 02 e5 bb
       0.08488829 0.3264936 -0.17942537 -0.006988823
000070 63 33 19 3e be 7a 14 bd 3a 03 b4 3c 8b f0 bd bd
       0.14961009 -0.03624987 0.021974195 -0.092743956
000080 21 c4 b0 3d 20 c2 62 3d f9 86 ab bd 35 31 a5 3e
       0.086311586 0.055360913 -0.08375353 0.32264104
000090 c1 4d 06 be ad 21 a7 3d ce c8 1d be 73 28 29 be
       -0.13115598 0.0816072 -0.15408632 -0.16519336
0000a0 90 77 c2 3e ac 2a 31 bd e4 97 64 bb 54 10 26 3e
       0.37981844 -0.043253586 -0.0034880573 0.16217166
0000b0 58 54 29 3d fb 38 13 3e 59 e3 7c be 39 73 d0 3d
       0.041340202 0.14377205 -0.24696101 0.10178227
0000c0 55 ce 2b 3d fc b1 1b be 25 a3 1c 3e d5 db b5 3b
       0.04194482 -0.15204614 0.1529661 0.0055498877
0000d0 74 14 38 3d 61 98 f9 bd 31 98 ba bd 79 07 e4 3d
       0.04494138 -0.12187267 -0.091110595 0.11134238
0000e0 92 3a 1c bf 1d 6b f4 3d 02 29 14 be b6 23 b2 3c
       -0.6102687 0.11934493 -0.14468768 0.021745544
0000f0 8a 54 bd 3d c4 a6 ea 3e c7 f8 fa bd 5c e5 a9 3d
       0.0924464 0.45830357 -0.12254482 0.082957
000100 de ca cc 3d cd 88 1c be 15 0c 93 3d eb 02 ce be
       0.09999631 -0.1528656 0.07180039 -0.402366
000110 27 1e 5b be 38 06 d6 be 04 ba f1 bd 92 9c 9a 3d
       -0.21398221 -0.4180162 -0.11803058 0.07549395
000120 e6 c5 9c be 1e 20 01 be df 31 3e 3d 0d 0a 00 bd
       -0.30619735 -0.12609908 0.04643428 -0.031259585
000130 c5 fa 38 bd ea b7 d8 bd 69 3d f4 3c 63 6e 2e 3d
       -0.045161027 -0.10581954 0.029814439 0.04258574
000140 ce e9 4e 3d e6 0b ed 3e a8 a1 bc bd d1 60 80 bd
       0.050515942 0.4629814 -0.09210521 -0.06268466
000150 0e 0f 2a 3e 55 55 43 bd a3 57 a7 bc da 8a 89 3c
       0.16607305 -0.0476888 -0.02042753 0.016789842
000160 d0 ae 57 3e ed 04 14 3d 6d a3 66 be de ce 09 3e
       0.2106278 0.03613751 -0.2252328 0.1345782
000170 3b fe cf 3d d4 69 04 bf 3f 02 86 bc 8c fa 9d bd
       0.101559125 -0.5172398 -0.016358493 -0.07713804
000180 68 b1 bd bd 3d 9f 9e bc 0b 87 74 be ac 8e 0b be
       -0.09262353 -0.01936304 -0.2387964 -0.13628644
000190 45 9b 5d 3e 53 7b 28 3e 0c 24 31 3e ae 9b a1 bd
       0.21641262 0.16453294 0.17298907 -0.07891022
0001a0 62 bb 8e bd a0 45 c5 3b 47 23 0b be 47 52 82 bc
       -0.06969334 0.006020263 -0.13587676 -0.015908374
0001b0 b6 c7 a0 be 41 01 1f 3e 2c 3e 06 3e b0 c3 76 3d
       -0.31402367 0.15527822 0.13109654 0.060245216
0001c0 4f 03 e0 3d bb 87 ce be ba 0e 4e be 26 79 d0 3d
       0.10938131 -0.4033793 -0.20122805 0.10179357
0001d0 68 8f b1 3d 1d 02 65 bd b1 d9 15 be 9c 55 b5 3d
       0.08669931 -0.05591022 -0.14633824 0.08854219
0001e0 df cc 2f 3e 0a 58 f4 bd 86 0c a3 be 91 2d 3c 3e
       0.17167996 -0.119308546 -0.31845492 0.18376757
0001f0 4b df 6a 3e 8d 39 b6 3c 7b 5b c7 3d a1 88 14 3e
       0.22936742 0.02224424 0.097342454 0.14505245
000200 dd e4 27 3e 68 6c 1a 3e 1b f1 a5 bd 2d 28 1b be
       0.16395898 0.15080416 -0.08102628 -0.15152045
000210 8b 86 c2 3d bd 65 cc 3d af 6d 87 3d 4d 39 ce 3c
       0.09498318 0.099803425 0.06612717 0.025173808
000220 ff 2a 68 bd 74 92 73 3d e0 e3 29 be 6a 82 cb 3d
       -0.05668163 0.05946584 -0.16590834 0.09936984
000230 29 8f 83 be e9 42 bc 3d 92 5a 22 3d c6 3e 50 bd
       -0.2569516 0.091924496 0.039637156 -0.050841115
000240 94 a6 99 3d 5d dd 3b be 19 ee 89 3d 95 99 6d 3e
       0.075024754 -0.18346162 0.06734867 0.23203118
000250 3f d7 27 bc 0b a0 cd bd 0e 95 93 be 21 01 a0 bd
       -0.01024419 -0.100402914 -0.28824657 -0.07812715
000260 25 d3 e9 3d 7b 8d d7 bd 49 ce a2 3e d2 8c 05 bf
       0.11417226 -0.10525032 0.31798008 -0.52168
000270 cf 1a b7 3d 2e 22 09 3d ed 79 f9 be 22 46 a4 bd
       0.0894066 0.033479862 -0.48725834 -0.08021189
000280 e7 82 ff 3d be d9 b7 3d 31 11 ce 3d 35 5d e8 bd
       0.124761395 0.08977078 0.10061873 -0.11345903
000290 e3 2d 75 3c 93 6f 93 3c 3e 90 33 be c3 dc a6 bd
       0.0149645535 0.017997539 -0.17535493 -0.08147576
0002a0 ef 1d 45 bd df cf fc 3d 25 6e 6e be af e9 0e 3e
       -0.04812425 0.12344336 -0.23284204 0.1395633
0002b0 cf b3 3d 3e ba ab d9 bd 59 7e c5 3d 41 89 89 3d
       0.18525623 -0.10628457 0.096432395 0.06715632
0002c0 28 8c 59 3b c5 0a f8 bd 50 e4 2a 3e 31 04 50 3e
       0.0033195112 -0.12111429 0.16688657 0.20314099
0002d0 c4 63 ef 3d be b8 cc 3d 36 27 39 be 93 34 d6 3d
       0.11688951 0.09996174 -0.18081364 0.104592465
0002e0 51 65 c9 bd a3 05 ea bd b7 9f 82 bc a7 9c 29 3e
       -0.09833778 -0.11426856 -0.015945299 0.16563664
0002f0 74 44 15 be 58 0c 6c bd e2 fc 55 3e 8a a9 b6 be
       -0.14576894 -0.05762896 0.20897248 -0.35676223

fc_advantage.4.bias f4 [6]
000000 38 98 ac 3d 42 b7 66 bd 1a c6 2f bd c8 88 cf bc
       0.08427471 -0.056327112 -0.042913534 -0.025333777
000010 38 72 2f be 76 6a 0f bd
       -0.17133415 -0.03501364
