data/Torch/Dueling/002_CNN-1_E_L/checkpoints/weights_900000steps.pth (torch, 286623 bytes, 13 tensors)

conv_layers.0.weight f4 [32, 1, 3, 3]
0	0xbcb1ed73	-0.02171967
1	0xba00cfbe	-0.00049137685
2	0x3ad736fc	0.0016419585
3	0x3e1d7aec	0.15378922
4	0xbe9e31e9	-0.30897453
5	0xbd188b2f	-0.03724211
6	0x3e297f60	0.16552496
7	0x3dc0f388	0.0942145
8	0x3e65dcf2	0.22447565
9	0xbea2e6e1	-0.31816772
10	0x3ea7f9e4	0.3280784
11	0x3df404ff	0.119150154
12	0xbdbdab1e	-0.09261154
13	0xbdacc401	-0.08435822
14	0x3e5eebad	0.2176959
15	0x3e854594	0.26029646
16	0xbdf8a612	-0.121410504
17	0xbe5492d2	-0.20759133
18	0xbf14a9f7	-0.58071846
19	0xbce2c7d7	-0.027683182
20	0x3d81e277	0.06342023
21	0x3ea489ca	0.32136375
22	0x3e011a96	0.12607798
23	0xbd1aea78	-0.037821263
24	0x3bddc9b3	0.006768429
25	0x3deb571a	0.11491223
26	0xbe38aceb	-0.18034713
27	0xbfd8691b	-1.6907076
28	0x3d0d1770	0.03444618
29	0x3e00b22d	0.12567969
30	0x3d2c01e6	0.041993998
31	0x3cadad23	0.021200722
32	0x3c7b4aff	0.015337705
33	0x3b93b13e	0.004507213
34	0xbcd69b0b	-0.026196977
35	0x39239c7c	0.00015603186
36	0x3e83da28	0.25752378
37	0xbe1c058e	-0.15236494
38	0x3da99d7e	0.082819924
39	0x3e276ea9	0.16350807
40	0x3e30ebef	0.17277502
41	0xb900bfe7	-0.0001227852
42	0xba11ff4c	-0.0005569353
43	0xbd3e32c0	-0.046435118
44	0xbd101db8	-0.035184592
45	0x3eef7696	0.4677016
46	0x3b6d3114	0.0036192583
47	0xbc5e8748	-0.013582058
48	0xbf801793	-1.0007194
49	0x3e8247a3	0.2544528
50	0xbdad0766	-0.08448677
51	0xbdb49051	-0.08816589
52	0x3de1971a	0.110151485
53	0x3b1ba6f8	0.0023750644
54	0x3f2fdb8c	0.68694377
55	0xbcbb3198	-0.022850797
56	0xbcbcc5ac	-0.023043476
57	0x3cf50875	0.02991126
58	0xbef4500a	-0.47717315
59	0x3d37a932	0.04483909
60	0xbbb75ed2	-0.0055960203
61	0xb9fa38f9	-0.00047726164
62	0xbda5ae18	-0.080898464
63	0xbf607f3a	-0.8769413
64	0x3d0904e9	0.03345195
65	0xbf213dc2	-0.6298486
66	0x3cba0562	0.022707645
67	0xbd1194dc	-0.035542354
68	0xbf36ec3c	-0.71454215
69	0x3d23538e	0.039874606
70	0x3c3a8a15	0.01138546
71	0x3cfa05e3	0.030520385
72	0xbf2ea2f8	-0.6821742
73	0x3e29d08c	0.1658346
74	0x3d03863f	0.03211045
75	0x3ae3e862	0.0017387981
76	0x3e8d104e	0.27551502
77	0xbdc2fe16	-0.09521119
78	0xbd7f4d06	-0.062329315
79	0x3e64fb2d	0.22361441
80	0x3df68296	0.12036626
81	0x3eacd7a8	0.33758283
82	0xbe80ccc9	-0.2515624
83	0x3b9bc033	0.0047531365
84	0xbec38417	-0.38186714
85	0xbd992648	-0.07478005
86	0x3e39ff1f	0.18163727
87	0xbd487a9b	-0.04894505
88	0xbe04fd70	-0.12987304
89	0x3e571bd0	0.21006703
90	0xbe9336fd	-0.2875289
91	0x3dc09337	0.09403079
92	0x3e166482	0.14686778
93	0x3ac5869d	0.0015070025
94	0x3e6aa496	0.22914347
95	0x3c65f2b4	0.014034916
96	0xbe06f6dd	-0.13180108
97	0xbe775983	-0.2415524
98	0x3d206623	0.039159905
99	0xbdd3d85c	-0.10344002
100	0xbeac0f75	-0.33605543
101	0x3dc7963f	0.09745454
102	0x3ed8a814	0.42315733
103	0x3e3cfffa	0.18457022
104	0x3d24c3bc	0.04022573
105	0x3d8ae887	0.06782632
106	0xbe1dacf1	-0.15398003
107	0xbea4eeff	-0.3221359
108	0x3e15bc1c	0.1462254
109	0xbc782084	-0.015144471
110	0xbcd2aa8a	-0.025716085
111	0xbe52d2c4	-0.20588213
112	0xbdadd8a0	-0.084885836
113	0x3e6912d8	0.22761095
114	0x3b1ebdc1	0.002422199
115	0x3dbc626d	0.09198461
116	0xbc896af3	-0.01677463
117	0xbfba09a4	-1.4534192
118	0x3d81da59	0.06340475
119	0x3cbf8078	0.023376688
120	0x3dd04753	0.10169854
121	0xbca00403	-0.019533163
122	0x3dcaebcd	0.09908257
123	0x3d0b260f	0.033971842
124	0x3c06b076	0.0082207825
125	0x3d7e09bf	0.062021013
126	0x3edf0ed6	0.43566006
127	0x3e521b7d	0.20518298
128	0xbde19fe5	-0.110168256
129	0x3d22599c	0.03963624
130	0xbe523981	-0.20529748
131	0x3ddc574e	0.107588395
132	0xbd620023	-0.05517591
133	0xbca15cb3	-0.019697523
134	0xbe3ee84d	-0.18643303
135	0x3f09d1ae	0.5383557
136	0xbee2fa7f	-0.44331738
137	0xbcf7ed98	-0.03026466
138	0xbc766e69	-0.015040972
139	0xbd1d371d	-0.03838264
140	0x3d2b3ea6	0.041807793
141	0xbcc8d5a3	-0.024515932
142	0x3bd97b49	0.006637011
143	0x3d0beff9	0.034164403
144	0x3dd9c781	0.106337555
145	0x3e32737c	0.17426866
146	0x3df81a9b	0.121144496
147	0x3e1d8a03	0.15384679
148	0x3d4045c9	0.046941552
149	0xbde5de41	-0.11224032
150	0xbd3c2ab4	-0.045939162
151	0xbdc7b5fb	-0.09751507
152	0xbe50bb21	-0.20383884
153	0xbb896d34	-0.004193926
154	0x3e40be4e	0.18822595
155	0x3da91430	0.082558036
156	0xbe83f211	-0.2577062
157	0xbe11b41c	-0.14228863
158	0x3ce66fcd	0.028129483
159	0xbe0b320b	-0.13593309
160	0x3de0e33d	0.10980842
161	0x3da2ef50	0.079558015
162	0xbf0529e0	-0.5201702
163	0x3c6485a7	0.013947881
164	0xbc10ba47	-0.0088334745
165	0xbc74b47f	-0.014935612
166	0x3e0c6556	0.13710532
167	0xbdce3486	-0.10068612
168	0x3d13cbd2	0.03608305
169	0x3e0cddfa	0.13756552
170	0x3e8cc1d7	0.27491638
171	0x3f005f14	0.5014508
172	0xbdcff2f6	-0.10153763
173	0x3e14c55b	0.1452841
174	0x3d0f23e2	0.03494633
175	0xbf0b221a	-0.5434891
176	0xbe48f0f9	-0.19623174
177	0x3db95bb0	0.09050691
178	0xbe3855b9	-0.1800145
179	0xbe18f706	-0.14937982
180	0x3e496e65	0.19671018
181	0xbe939009	-0.28820828
182	0x3c7b2123	0.015327725
183	0xbe8f9c33	-0.28048858
184	0xbe264508	-0.16237271
185	0x3b368b1d	0.0027853914
186	0xbe2906c0	-0.16506481
187	0x3e2cf41f	0.1689
188	0x3df71526	0.120645806
189	0x3f23f4c4	0.6404536
190	0xbdbd6cad	-0.09249244
191	0x3dedd3ca	0.11612661
192	0xbe37f2a0	-0.17963648
193	0xbe46e7e3	-0.19424395
194	0xbcb5ca3e	-0.022191163
195	0xbdb7e3d5	-0.089790024
196	0x3d98efd5	0.07467619
197	0x3be96157	0.0071221995
198	0xbd6cb191	-0.057786528
199	0x3d0c4e7c	0.034254536
200	0x3cfb9b29	0.030713635
201	0x3e347fa4	0.17626816
202	0xbe5f201c	-0.21789593
203	0xbe29a032	-0.16565016
204	0x3cefaf6b	0.02925845
205	0xbd242020	-0.0400697
206	0x3d288209	0.041139636
207	0xbe4b257c	-0.19838518
208	0x3ebbdd9f	0.3669252
209	0x3e9e04e6	0.30863112
210	0xbdb1fd2a	-0.08690865
211	0xbcc083b6	-0.023500305
212	0x3c0ea766	0.008706903
213	0xbe34cb63	-0.17655711
214	0x3df6ecc4	0.12056878
215	0xbd3beef1	-0.04588217
216	0x3db0428c	0.08606443
217	0xbe47ac40	-0.19499302
218	0x3e077629	0.13228668
219	0x3e7ac814	0.24490386
220	0xbda23c45	-0.07921652
221	0xbd1a5414	-0.03767784
222	0xbe77ad8f	-0.24187301
223	0x3d5662fc	0.052340493
224	0xbe34a981	-0.17642786
225	0x3e6e5ea8	0.23278296
226	0x3de4a03f	0.11163377
227	0xbb248992	-0.0025106412
228	0x3d929975	0.07158176
229	0xbe47510c	-0.1946451
230	0x3da08439	0.078377195
231	0xbe1e27c4	-0.15444857
232	0xbe03c8a6	-0.1286951
233	0xbe12cdfd	-0.14336391
234	0xbec67203	-0.3875886
235	0x3d06eabc	0.032938704
236	0x3d9d399e	0.07677005
237	0x3e098cb0	0.13432574
238	0x3dbf57a1	0.09342886
239	0xbe769aaf	-0.24082445
240	0x3d66719e	0.056260698
241	0x3db141cc	0.08655128
242	0x3d50cfd0	0.050979435
243	0x3e6d552d	0.23177023
244	0x3da0a12b	0.0784324
245	0xbeac11e8	-0.3360741
246	0x3e95bb46	0.2924444
247	0xbd9d536b	-0.07681926
248	0x3d30f1bc	0.043199286
249	0xbe5954ce	-0.21223757
250	0x3df72e84	0.12069419
251	0x3d67bec6	0.05657842
252	0x3f0217c2	0.508175
253	0xbd6e5c76	-0.058193646
254	0x3d2d0ebb	0.042250376
255	0xbeddc03a	-0.4331072

conv_layers.0.bias f4 [32]
0	0xbf3a1d5c	-0.7270105
1	0xbf2b1213	-0.66824454
2	0x3f0c337a	0.54766047
3	0x3f1f8b14	0.6232159
4	0xbee7a318	-0.45241618
5	0x3e1dbc8f	0.1540396
6	0x3bef0a8c	0.0072949585
7	0x3f0ce82a	0.55041754
8	0x3c52d026	0.012867009
9	0xbe351670	-0.1768434
10	0x3eca4dde	0.39512533
11	0xbe3ed46e	-0.18635723
12	0xbefa208a	-0.4885295
13	0x3f33d2da	0.7024361
14	0xbf1565c9	-0.58358437
15	0x3e8d31df	0.2757711
16	0xbf07eaf2	-0.53092873
17	0x3f0f7327	0.56035084
18	0x3f10c080	0.5654373
19	0x3ec7343c	0.3890704
20	0x3f06c351	0.5264178
21	0xbf12dc06	-0.5736698
22	0x3e866e1b	0.2625588
23	0xbf55e825	-0.8355735
24	0x3efd8f66	0.49523467
25	0x3ef158b7	0.47137997
26	0x3f2858c5	0.6576045
27	0xbf2bbdc6	-0.67086446
28	0xbd6b0ee7	-0.05738726
29	0x3ec80437	0.39065716
30	0x3ef8359e	0.48478407
31	0xbf128781	-0.5723801

fc_state.0.weight f4 [64, 512]
0	0x3c2b58a0	0.010458142
1	0xbc884de3	-0.016638702
2	0xbca57896	-0.020199101
3	0xbbf77bbc	-0.007552592
4	0x3d010cb5	0.03150626
5	0xbd10395d	-0.035210956
6	0x3ca83445	0.020532737
7	0xbd215830	-0.039390743
8	0x3cfe26b1	0.031024309
9	0xbc82bdaf	-0.015959589
10	0xbcb6f8e6	-0.02233548
11	0x3d0e2415	0.03470238
12	0x3cdd4776	0.027011614
13	0xbbbe8445	-0.0058141076
14	0x3aa15cac	0.0012310944
15	0x3cc2cd80	0.02377963
16	0x3cf45ad5	0.029828468
17	0xbce6f5f0	-0.028193444
18	0xbc2d5bdf	-0.010580986
19	0x3ceb73bc	0.02874171
20	0x3cde2e08	0.027121559
21	0xbb247dcd	-0.0025099397
22	0xbc066df5	-0.008204927
23	0x3bd5e4b7	0.006527509
24	0xbc8f5ddd	-0.017500812
25	0x3cd3796a	0.02581473
26	0xbd040611	-0.032232348
27	0x3c429d3c	0.011878308
28	0x3c6396a7	0.013890899
29	0xbc953506	-0.01821376
30	0x3cd7cfca	0.026344199
31	0x3d06b8dc	0.03289114
32	0x3c030fcb	0.007999371
33	0xbd4283a3	-0.04748882
34	0x3ca8562f	0.020548908
35	0x3bf026fb	0.0073288656
36	0x3c3083eb	0.010773639
37	0x378b47b3	1.6603479e-05
38	0xbb651d03	-0.003495992
39	0xbcc8a752	-0.024493847
40	0xbb16cbbc	-0.0023009619
41	0xbd0c2f06	-0.034224533
42	0x3ceddb8d	0.029035354
43	0x3c6dc9b0	0.014513418
44	0x3acee665	0.0015785216
45	0xbb3dc52c	-0.0028956635
46	0x3bbdfc9e	0.0057979366
47	0xbd258b19	-0.040415857
48	0xbcccb47d	-0.024988407
49	0xbd3e1213	-0.046403956
50	0xbbe0e840	-0.006863624
51	0x3d096be8	0.033550173
52	0xbd41bae8	-0.04729739
53	0x3cf16219	0.029465722
54	0x3c4e1704	0.01257873
55	0xbc6a0a89	-0.014284738
56	0xbd2579fd	-0.04039954
57	0xbd0f9471	-0.035053674
58	0xbccca4d4	-0.02498094
59	0x3c23cd67	0.009997702
60	0x3c394159	0.011307084
61	0x3b2a21d4	0.0025960105
62	0xbd3676e3	-0.044546973
63	0xbd2fb78e	-0.04289966
64	0x3c9d60a2	0.019211117
65	0x3c483ac9	0.012221047
66	0x3c27b900	0.0102369785
67	0xbbcce4f0	-0.0062528774
68	0x3cfb47e7	0.030673934
69	0x3cb4299d	0.021992499
70	0x3c9722be	0.018449184
71	0x3cb26531	0.021776767
72	0x3bccfc44	0.0062556583
73	0x3becd9ff	0.0072281356
74	0x3cdf97ef	0.027294127
75	0x3c121fe6	0.008918738
76	0xbbd572f0	-0.0065139458
77	0xbccaa4ca	-0.02473678
78	0xbd0a5478	-0.033771962
79	0xbcf59615	-0.029978791
80	0x3bf88ed4	0.007585386
81	0x3d20fda1	0.03930438
82	0xbd233d08	-0.039853126
83	0xbc036e20	-0.008021861
84	0x3d18b0d6	0.03727802
85	0x3c3425e8	0.010995366
86	0x3d0b97a4	0.034080163
87	0x3d22d112	0.039750166
88	0x3c1e8c4c	0.009677004
89	0xbc5c31b7	-0.013439587
90	0xbcc11841	-0.023571135
91	0xba4092c0	-0.0007346086
92	0xbc15b1a4	-0.009136591
93	0x3ac54cac	0.0015052757
94	0xbb94e520	-0.0045439154
95	0x3c6d4e0d	0.014483941
96	0xbd477a21	-0.048700456
97	0xbcda8e74	-0.026679255
98	0x3c92a228	0.017899588
99	0xbc4018e6	-0.011724686
100	0xbc357bc1	-0.0110768685
101	0xbb9b6a2d	-0.0047428817
102	0xbd22bcd1	-0.03973085
103	0xbc300283	-0.010742786
104	0xbd122fc0	-0.03569007
105	0xba3cf0a5	-0.00072074897
106	0xbd00193f	-0.031274077
107	0xbd12c335	-0.035830695
108	0x3c193293	0.009350437
109	0x3bda8733	0.006668949
110	0x3cc2e131	0.02378902
111	0x3c833f6c	0.016021453
112	0x3c85a7bc	0.016315334
113	0xbb41b5cb	-0.002955782
114	0x3b7c533e	0.0038501765
115	0x3b9f1fd6	0.00485609
116	0x3c254e27	0.010089434
117	0xbc0a6434	-0.008446742
118	0x3ca39bf6	0.019971829
119	0xbc8bdd20	-0.017073214
120	0x3ce28a1f	0.027653752
121	0xbd3f9cde	-0.04678046
122	0x3d08ee7a	0.033430554
123	0x3d213326	0.03935542
124	0x3d05f6ae	0.032705955
125	0xbd211402	-0.03932572
126	0xbcf2a949	-0.029621737
127	0xbca1faab	-0.019772848
128	0x3d0638c8	0.032768995
129	0x3c123b9a	0.008925343
130	0xbd2cdfa4	-0.042205468
131	0xbca198ba	-0.019726146
132	0x3d176bdf	0.03696811
133	0x3b9dd348	0.0048164465
134	0xbd0e2ccd	-0.034710694
135	0xbc7438a9	-0.014906087
136	0x3d300b33	0.04297943
137	0x3c9a323f	0.018822787
138	0x3cae11ce	0.021248724
139	0x3c4ea932	0.0126135815
140	0x3c38ecc0	0.011286914
141	0xbb0f5460	-0.002187036
142	0x3c8cdf23	0.017196244
143	0x3cd34b29	0.025792675
144	0x3cf54e07	0.029944433
145	0xbcaf37e2	-0.021388952
146	0xbd2684a7	-0.04065385
147	0x3d03afba	0.032150008
148	0x3c7487a0	0.014924914
149	0x3cd4386e	0.025905814
150	0xbd40a45a	-0.047031738
151	0x3c1b70f9	0.009487384
152	0x3d2a25af	0.041539844
153	0xbd2c6da4	-0.04209675
154	0xbbe315b5	-0.006930078
155	0x3ac32bf9	0.0014890424
156	0xbd226b90	-0.03965336
157	0x3d1fdce0	0.039029002
158	0x3caeb4e3	0.021326488
159	0x3c8c14e4	0.017099805
160	0xbbb15ed0	-0.005412914
161	0xbccc9c02	-0.024976734
162	0x3bd80644	0.006592544
163	0xbc858f91	-0.01630381
164	0x3cc48d1d	0.02399307
165	0x3cba614e	0.022751477
166	0xbc723bd0	-0.014784768
167	0x3cd393c0	0.025827289
168	0xbb1550f3	-0.0022783845
169	0xbd2e85a5	-0.042607922
170	0x3be3baae	0.006949744
171	0x3d01b156	0.03166326
172	0x3cc2a405	0.023759851
173	0x3ad9c56f	0.0016614626
174	0xbcd6245a	-0.02614038
175	0xbd11a9d3	-0.035562348
176	0xbd1c0b8a	-0.038096942
177	0xbca12c11	-0.019674333
178	0xbd2a3d96	-0.04156264
179	0xbce35617	-0.027751012
180	0x3d00c6ab	0.031439465
181	0x3a1773c8	0.00057774456
182	0x3d1f9e96	0.0389696
183	0xbcdf56bc	-0.027263038
184	0x3cb213c6	0.021737944
185	0x3b043060	0.0020170435
186	0x3ac48080	0.0014991909
187	0x3d23848f	0.03992134
188	0xbd2e3e4b	-0.042539876
189	0xbc81bf80	-0.015838385
190	0xba7ccfc0	-0.0009643994
191	0xbbb77a18	-0.0055992715
192	0xbcb02724	-0.021503039
193	0xbcbc9e17	-0.023024602
194	0xbd1d2a98	-0.0383707
195	0xbd29b7cb	-0.041435044
196	0x3ca77a69	0.020444112
197	0x3a4bc05c	0.0007772499
198	0xbd1e5c96	-0.038662516
199	0xbd0c4f62	-0.034255393
200	0xbceea218	-0.029130027
201	0xbc4ac437	-0.012375883
202	0x3c94e236	0.018174272
203	0xbc2119dd	-0.009832826
204	0xbd0380aa	-0.032105125
205	0xbc212bf7	-0.009837142
206	0xbd3d5d8c	-0.04623179
207	0xbce00263	-0.027344888
208	0xbd03c334	-0.032168582
209	0xbc61f4de	-0.013791291
210	0xbccfab03	-0.0253501
211	0xbc12da8c	-0.008963238
212	0x3d1df58e	0.038564257
213	0x3bf55604	0.0074870605
214	0x3c5c7008	0.013454445
215	0xbd2b0449	-0.041752134
216	0x3d08c248	0.033388406
217	0xbcc1af7d	-0.02364325
218	0xbb913d00	-0.0044323206
219	0xbc276ee6	-0.010219311
220	0xbca3f438	-0.020013914
221	0xbc8a0c97	-0.016851706
222	0xbc1a5d67	-0.009421683
223	0x3cfe0c99	0.031011866
224	0xbd2bab76	-0.041911565
225	0x3b6877ca	0.003547179
226	0x3c831f88	0.016006246
227	0x3b18cbba	0.002331479
228	0xbd0e4f61	-0.03474367
229	0x3caddeea	0.021224458
230	0xbcffa373	-0.031205868
231	0xbba08a88	-0.0048993267
232	0xbd28331e	-0.041064374
233	0x3c1cbb9f	0.009566217
234	0x3cbc9f95	0.023025313
235	0xbbee7dd9	-0.007278186
236	0x3d1ab828	0.03777328
237	0xbd0c7b36	-0.03429719
238	0xbc1870a5	-0.0093042
239	0x3a1e8e4b	0.0006048425
240	0xbcf147e9	-0.029453235
241	0xbc984533	-0.018587684
242	0xbd2e7298	-0.042589754
243	0x3cb02920	0.021503985
244	0x3c961532	0.018320654
245	0x3c3deb60	0.011591762
246	0x3d0c8548	0.034306794
247	0xbafdaab9	-0.0019353247
248	0xbcc27181	-0.023735764
249	0xbd3276b8	-0.04357025
250	0x3c8f0468	0.017458156
251	0xbd1006b7	-0.035162654
252	0x3ca2d69e	0.019877728
253	0xbd251696	-0.040304743
254	0x3d0ab62a	0.03386513
255	0xbcd5367b	-0.026026955

fc_state.0.bias f4 [64]
0	0xbb6ecbd4	-0.003643741
1	0xbd0222bc	-0.031771407
2	0x3d17b0c2	0.037033804
3	0xbcf92c9c	-0.03041678
4	0x39c28581	0.00037102032
5	0xbc16e336	-0.009209445
6	0xbc5d027d	-0.013489363
7	0x3ce2489b	0.027622512
8	0x3ccb2448	0.024797574
9	0x3d04b77c	0.032401547
10	0x3cef7232	0.029229257
11	0xbdd35e5f	-0.10320734
12	0xbbf75160	-0.0075475425
13	0x3d65669b	0.056006055
14	0x3cbd3bc3	0.023099786
15	0x3d08c5d5	0.033391792
16	0xbcca98bf	-0.024731038
17	0xbd2e5cbf	-0.04256892
18	0xbd41b768	-0.04729405
19	0x3d0c7784	0.034293666
20	0xbd2f4478	-0.042789906
21	0xbcdfed7f	-0.027334927
22	0xbc8c3095	-0.01711301
23	0xbd05e47c	-0.032688603
24	0x3cc587e8	0.024112657
25	0x3dbb486a	0.09144671
26	0x3c904406	0.017610561
27	0x3a9ab3b0	0.0011802819
28	0xbd0eed74	-0.03489442
29	0x3d7a1e95	0.06106432
30	0xbcb904d8	-0.022585317
31	0xbc779c3e	-0.015112935
32	0xbc977f22	-0.018493239
33	0xbdd7d20e	-0.105381116
34	0xbd1441a1	-0.0361954
35	0x3d20df2a	0.039275326
36	0xbd24b9c9	-0.04021624
37	0xbd354bb3	-0.044261646
38	0x3d2b4f32	0.041823573
39	0xbd119e28	-0.03555122
40	0xbb8e4780	-0.0043420196
41	0xbd365083	-0.044510376
42	0x3cc82105	0.024429807
43	0xbce0abf6	-0.027425747
44	0x3da427df	0.08015417
45	0xbb3bb23a	-0.0028640167
46	0x3c5fb736	0.013654521
47	0xbcb4e949	-0.022083895
48	0xbd059930	-0.032616794
49	0x3d42b416	0.047535025
50	0xbb22773c	-0.0024790308
51	0x3bc19533	0.0059076785
52	0xbd2d89f0	-0.042367876
53	0xbd61592a	-0.055016674
54	0x3d442323	0.04788507
55	0xbd6bc72a	-0.057562985
56	0xbbe21e35	-0.0069005736
57	0x3dbf5e79	0.09344191
58	0xbcdb2c42	-0.026754502
59	0x3cccb711	0.024989637
60	0xbd8d8081	-0.06909276
61	0x3c5ce5e3	0.013482544
62	0xbd7e2df5	-0.062055547
63	0x3d1b489d	0.037911046

fc_state.2.weight f4 [32, 64]
0	0xbddef2f9	-0.10886187
1	0x3db8dd8a	0.0902663
2	0x3c808aa9	0.015691118
3	0x3d51f0a0	0.05125487
4	0x3dec9b3e	0.115530476
5	0xbda17547	-0.07883697
6	0xbc338560	-0.010957092
7	0x3cebc155	0.028778711
8	0xbd53df1d	-0.05172645
9	0xbdd55831	-0.10417212
10	0x3d4e090b	0.050301593
11	0xbd28b187	-0.04118493
12	0xbe06a16f	-0.1314752
13	0xbee1febf	-0.44139668
14	0xbd4bf7ba	-0.049796797
15	0x3e0cd92d	0.13754721
16	0xbdefda2f	-0.11711537
17	0x3de3deae	0.11126457
18	0x3d8a99e9	0.06767637
19	0xbd468a27	-0.048471596
20	0xbddc9553	-0.10770669
21	0x3d12b006	0.0358124
22	0xbdb2cdb5	-0.08730642
23	0xbd824897	-0.06361502
24	0x3de8b98b	0.113635145
25	0xbdac6190	-0.08417046
26	0xbc1f19c6	-0.009710735
27	0x3d844bfc	0.06459805
28	0x3cf6cb0d	0.030126119
29	0x3cd410b7	0.025886877
30	0xbb8ddd6a	-0.004329373
31	0xbee54af3	-0.44783744
32	0x3e30310f	0.17206214
33	0xbe211300	-0.15729904
34	0xbdd70ac1	-0.10500098
35	0xbed11495	-0.40836015
36	0xbd85e5e6	-0.0653799
37	0x3c77d690	0.015126839
38	0xbe8200b2	-0.25391155
39	0xbe75adec	-0.23992127
40	0x3d910e85	0.070828475
41	0xbbe1fcbf	-0.0068965848
42	0x3da64b7f	0.081198685
43	0xbd1e0b09	-0.038584743
44	0x3e076917	0.13223682
45	0xbc38ccb9	-0.011279278
46	0xbe351c77	-0.1768664
47	0xbd90dec3	-0.070737384
48	0x3de40087	0.11132913
49	0xbcb81665	-0.022471616
50	0x3e27be82	0.16381267
51	0x3d6e734c	0.058215424
52	0x3da84c4c	0.082176775
53	0x3db92223	0.09039714
54	0xbd3a8c12	-0.045543738
55	0xbdc8c1b8	-0.09802574
56	0x3ce160c9	0.027511971
57	0x3b8d4e80	0.0043123364
58	0x3de3d495	0.11124531
59	0x3d514893	0.051094603
60	0x3dcd1a82	0.100148216
61	0x39fab3e6	0.0004781775
62	0xbd6d6fa7	-0.057967808
63	0x3c2d8a05	0.010591988
64	0x3dbea4ef	0.09308802
65	0xbdf1778d	-0.117903806
66	0x3dd4c39b	0.10388871
67	0xbb332b28	-0.0027338956
68	0x3d7517cd	0.05983715
69	0x3d8760d9	0.06610269
70	0x3cd91c4f	0.026502756
71	0xbd8cc367	-0.068732075
72	0xbd3b7d22	-0.045773633
73	0xbde5f1e8	-0.112277806
74	0x3de0ae1f	0.10970711
75	0xbddfe214	-0.10931793
76	0x3d954139	0.07287831
77	0x3e0df7c8	0.13864052
78	0xbc695757	-0.014242015
79	0x3d054e9b	0.032545667
80	0xbd0d7702	-0.034537323
81	0x3d52acfa	0.051434495
82	0xba154b75	-0.0005695143
83	0x3cbf094a	0.023319859
84	0xbbba6f64	-0.0056895483
85	0x3d3ba85c	0.045814857
86	0x3d05e153	0.03268559
87	0x3c9df82f	0.019283382
88	0xbc4b8fa5	-0.012424384
89	0xbd63e236	-0.055635653
90	0x3d8bbd2d	0.06823192
91	0x3caa147c	0.02076172
92	0x3da012f7	0.07816117
93	0x3e31203a	0.1729745
94	0xbb4c4878	-0.0031171124
95	0x3e9de8e5	0.30841747
96	0x3cbcaffc	0.023033135
97	0x3e526dd4	0.20549709
98	0x3d75edeb	0.06004135
99	0x3d6d5a8b	0.057947677
100	0x3e1253ac	0.14289731
101	0xbdf52272	-0.119694605
102	0x3df9dbaa	0.12200101
103	0x3cb517fe	0.022106167
104	0x3de0ead2	0.109822884
105	0x3d5bc6ea	0.053656496
106	0x3d63c846	0.055610918
107	0xbdcfe785	-0.10151581
108	0xbb5d1923	-0.0033736906
109	0xbd86768d	-0.065655805
110	0x3dfe703e	0.12423752
111	0x3da63f0f	0.08117496
112	0xbc30eb04	-0.01079822
113	0x3e4bfd26	0.19920787
114	0x3c7d4861	0.015459151
115	0x3da1cb86	0.07900147
116	0xbcb948ef	-0.022617785
117	0x3d4914cd	0.049092103
118	0xbd5764f7	-0.052586522
119	0xbd1777b0	-0.036979377
120	0xbd452285	-0.048128624
121	0x3e3fe07e	0.1873798
122	0xbdca0367	-0.0986393
123	0xbe59913f	-0.21246813
124	0xbd5bb3b1	-0.053638164
125	0x3d9912df	0.074743025
126	0x3d0b617b	0.03402851
127	0x3e35b1a1	0.17743541
128	0x3ddc8691	0.10767854
129	0xbd2892b0	-0.041155517
130	0xbd59feb5	-0.053221423
131	0x3dd63ee9	0.10461218
132	0x3dc73805	0.09727482
133	0x3de07985	0.10960678
134	0xbd8ceb3d	-0.06880806
135	0xbd85bf67	-0.06530648
136	0xbddf6bb8	-0.109092176
137	0x3d8abdf0	0.06774509
138	0x3b370986	0.002792926
139	0xbe50907b	-0.20367615
140	0xbe0d06bf	-0.13772105
141	0xbe07a7ff	-0.13247679
142	0xbd9db39b	-0.07700273
143	0xbe1cd65e	-0.1531615
144	0xbcad8717	-0.02118258
145	0x3d066f00	0.0328207
146	0xbda586f1	-0.08082379
147	0xbdfa2968	-0.12214929
148	0xbdf858d1	-0.121263154
149	0x3d8f8dff	0.070095055
150	0x3db46e52	0.088101044
151	0xbd5ee9ae	-0.054422073
152	0xbdbbbaaa	-0.09166463
153	0x3df0da31	0.11760367
154	0xbded9784	-0.11601165
155	0x3df2c142	0.11853267
156	0xbd4d6829	-0.050148163
157	0x3dd306f1	0.10304058
158	0x3d8af69e	0.0678532
159	0xbe47fd82	-0.195303
160	0x3bb179f2	0.0054161483
161	0xbd0bcf2b	-0.034133118
162	0xbdf6b140	-0.120455265
163	0xbd909f93	-0.07061686
164	0xbd338761	-0.04383028
165	0x3dd7e472	0.10541619
166	0x3c498232	0.012299107
167	0xbdeda765	-0.116041936
168	0x3de31771	0.110884555
169	0xbc30a20b	-0.010780822
170	0x3de4658a	0.111521795
171	0x3df9c9d1	0.121966965
172	0xbdd7af9c	-0.10531542
173	0xbdca8583	-0.098887466
174	0xbd76de92	-0.060270853
175	0xbcf966d2	-0.030444536
176	0x3b6403e8	0.0034792367
177	0x3e6df418	0.23237646
178	0x3c0c2ca8	0.008555569
179	0xbcea8292	-0.028626714
180	0xbde20748	-0.11036545
181	0x3de54bba	0.11196084
182	0xbe4e5cf3	-0.20152645
183	0x3d970ed9	0.07375879
184	0xbd9148ae	-0.07093941
185	0xbcdcfef9	-0.02697705
186	0xbd38ddf2	-0.04513354
187	0xbdc20140	-0.09472895
188	0x3bd7cd82	0.0065857777
189	0x3d49fcb5	0.049313266
190	0xbca42ea3	-0.02004177
191	0x3d83d1ce	0.064365014
192	0x3df44d42	0.11928798
193	0xbdeb125b	-0.114781104
194	0xbe8e7605	-0.27824417
195	0x3d7495e8	0.059713274
196	0x3d719ea9	0.0589892
197	0x3cbf2e08	0.02333738
198	0xbd3e9ff3	-0.04653926
199	0x3da2b254	0.0794417
200	0xbe135a84	-0.14389998
201	0x3d5067a9	0.050880108
202	0xbcc86b74	-0.0244653
203	0x3c29e9b5	0.0103706615
204	0xbdabde8a	-0.08392055
205	0x3b0b4535	0.0021250967
206	0x3d1dae5a	0.038496353
207	0xbf0fe3f0	-0.5620718
208	0xbdb56dcf	-0.08858835
209	0xbd2aa1c7	-0.04165819
210	0x3d722e39	0.059126113
211	0x3e07ceb4	0.13262445
212	0xba8fa7f2	-0.0010960086
213	0xbd9e4e8c	-0.077298254
214	0xbc593e18	-0.013259433
215	0xbd291dfe	-0.04128837
216	0x3d13cfd0	0.036086857
217	0x3dd979ec	0.10618958
218	0x3dc31e7c	0.09527299
219	0xbab7de55	-0.0014028052
220	0x3d7af140	0.06126523
221	0xbdbceee6	-0.09225254
222	0xbde91722	-0.11381365
223	0x3df349e8	0.11879331
224	0xbda82656	-0.08210437
225	0xbb896759	-0.004193228
226	0x3d9e8605	0.07740406
227	0x3dbf0f5a	0.093291
228	0x3dbb6a26	0.091511056
229	0xbd48421e	-0.04889118
230	0xbcdc6414	-0.02690319
231	0xb92b0902	-0.00016311186
232	0x3da7d17e	0.08194254
233	0x3d4bd90d	0.049767543
234	0x3c13dd57	0.0090249395
235	0x3d852bae	0.06502472
236	0x3e1a9049	0.15094103
237	0xbde93cdc	-0.11388561
238	0xbe8fceef	-0.28087565
239	0xbc849a95	-0.016186992
240	0x3da2b4f2	0.07944669
241	0x3e5dfad4	0.21677715
242	0xbd6c2907	-0.057656314
243	0xbd034366	-0.032046698
244	0xbda2640d	-0.079292394
245	0x3dec0400	0.115242004
246	0x3b2647c2	0.002537236
247	0xbd7fc6db	-0.062445503
248	0x3df05efc	0.11736867
249	0x3dc33dbf	0.095332615
250	0xbd351618	-0.044210523
251	0xbcd5a9e2	-0.026081983
252	0xbd6e9194	-0.058244303
253	0xbbcb4fdf	-0.0062045897
254	0xbdbf9b2c	-0.093557686
255	0xbee7bd95	-0.45261827

fc_state.2.bias f4 [32]
0	0x3e0c1df6	0.13683304
1	0x3db74dea	0.08950408
2	0xbd0acd7d	-0.033887375
3	0x3e048e20	0.12944841
4	0xbe04ce21	-0.12969257
5	0x3e4d8d79	0.20073499
6	0xbdf19ec9	-0.11797864
7	0xbc98351c	-0.018580012
8	0x3d391fd4	0.04519637
9	0x3dc4d638	0.096111715
10	0xbe074650	-0.13210416
11	0x3e11d169	0.1424004
12	0xbdd1dc84	-0.10247138
13	0x3e3ba59a	0.1832489
14	0xbb57f268	-0.0032950882
15	0xbd85d650	-0.065350175
16	0xbdd5028f	-0.10400879
17	0xbdde391e	-0.10850738
18	0x3e0e09db	0.13870947
19	0x3d8da0ca	0.06915434
20	0xbdd6fcaa	-0.104974106
21	0xbd269d8a	-0.040677585
22	0xbd801c18	-0.062553585
23	0x3c6348d2	0.013872342
24	0x3d9b790f	0.075914495
25	0xbd060021	-0.032714967
26	0x3e6014a7	0.21882878
27	0x3e2c8035	0.16845782
28	0xbda13aed	-0.07872567
29	0x3e046e18	0.12932622
30	0x3d3483f5	0.044071157
31	0xbe133c72	-0.14378527

fc_state.4.weight f4 [1, 32]
0	0xbea4e5a9	-0.32206467
1	0x3e3b5fb1	0.18298222
2	0x3dd71efa	0.10503955
3	0xbebd5bc0	-0.36984062
4	0xbdf5b9ae	-0.11998306
5	0xbda2131d	-0.07913802
6	0x3e0653ce	0.13117906
7	0xbe5f9bc5	-0.21836765
8	0xbe207b07	-0.15671931
9	0xbe12b741	-0.14327718
10	0x3daafcb3	0.0834898
11	0xbe1e7c0d	-0.15477009
12	0xbdf4d39b	-0.11954423
13	0xbdd72722	-0.10505511
14	0xbb8b8f8f	-0.004259057
15	0x3d90bb77	0.07067006
16	0x3e5861ca	0.21131054
17	0xbe0c1147	-0.13678466
18	0x3e17477f	0.14773367
19	0x3dc9de6c	0.09856877
20	0x3e45bd59	0.19310512
21	0x3de068d7	0.109574966
22	0xbdf42a52	-0.119221345
23	0xbe4004bd	-0.18751808
24	0xbda8e76a	-0.08247264
25	0xbe2ba1bd	-0.16760917
26	0xbe0a7d75	-0.1352442
27	0xbe96c1ba	-0.29444677
28	0x3b91a7a9	0.0044450355
29	0xbd283e6e	-0.041075163
30	0x3dcb1faa	0.09918149
31	0xbe7c7002	-0.24652103

fc_advantage.0.weight f4 [64, 512]
0	0xbd1f4524	-0.038884297
1	0xbd0b0372	-0.033938833
2	0xbcc3b8ae	-0.023891773
3	0x3c94ef58	0.018180534
4	0x3cd826f0	0.026385754
5	0xbccf395d	-0.025295908
6	0x3b48c6c6	0.0030636056
7	0x3cdc9e79	0.026931034
8	0x3c764b2a	0.015032569
9	0xbcc53953	-0.024075186
10	0xbcd2015d	-0.025635416
11	0xbd439be8	-0.047756106
12	0xbc87a826	-0.016559672
13	0xbd2e88a6	-0.042610787
14	0xbd21c303	-0.03949262
15	0x3be17273	0.0068800985
16	0xbd47c447	-0.04877117
17	0xbd087e6b	-0.033323687
18	0x3cbb052b	0.022829613
19	0x3c9f86f2	0.019473527
20	0x3cf2d61d	0.029643113
21	0x3cc93a60	0.024563968
22	0xbcca65d3	-0.024706757
23	0xbd16e8ca	-0.0368431
24	0x3c8ed487	0.017435325
25	0xbc4fb39c	-0.0126771
26	0x3d327337	0.04356691
27	0x3b93cb3b	0.004510311
28	0xbd1ff6d4	-0.039053753
29	0xbd39ddb1	-0.045377437
30	0x3cf22ebc	0.0295633
31	0x3ce9862b	0.02850636
32	0x3d055ad9	0.032557342
33	0xbcc326e2	-0.023822252
34	0x3cfd0395	0.030885497
35	0xbd0f304d	-0.034958173
36	0x3cbc6800	0.02299881
37	0xbd041367	-0.032245066
38	0xbc61ff76	-0.013793817
39	0xba092e88	-0.0005233069
40	0x3c65e3ed	0.0140313925
41	0xbbce52d7	-0.0062964964
42	0x3c090cf0	0.008364901
43	0xbcfaa65e	-0.030596908
44	0xbc9b3fdf	-0.018951355
45	0x3ce93fe1	0.028472843
46	0x3cd962e5	0.026536414
47	0xbc1123fe	-0.008858679
48	0x3c652a03	0.013987067
49	0xbbad8a84	-0.0052960534
50	0xbc046e3a	-0.008082921
51	0xbd263189	-0.040574584
52	0x3be3c1cb	0.006950592
53	0xbca36ce7	-0.01994939
54	0xbc87bb59	-0.016568827
55	0x3d261d74	0.040555432
56	0xbd071d50	-0.03298694
57	0xb99b24ab	-0.00029591224
58	0x3c830d02	0.015997414
59	0xbd25eeb7	-0.04051086
60	0xbd114f87	-0.035476234
61	0x3c8a24a3	0.016863173
62	0xbb590984	-0.0033117244
63	0x3d231637	0.039816108
64	0xbc744eb2	-0.014911341
65	0xbd26d8e1	-0.040734176
66	0xbd085105	-0.03328039
67	0xbd13d117	-0.036088075
68	0xbcd2d8f3	-0.025738215
69	0xbc8e7c92	-0.017393384
70	0xbd27daae	-0.040980034
71	0xbcac5a41	-0.02103913
72	0x3b93ee4a	0.0045144903
73	0x3c902cff	0.01759958
74	0xbcf51640	-0.029917836
75	0xbd198bcd	-0.03748684
76	0xbbc48c33	-0.0059981584
77	0xbd29e199	-0.041474912
78	0x3cbc9291	0.023019107
79	0xbd3f7e44	-0.046751276
80	0x3c74a423	0.014931711
81	0xbd0b5489	-0.034016166
82	0xbbc4456d	-0.0059897215
83	0x3b2c532d	0.0026294694
84	0xbd4ab074	-0.049484685
85	0x3d12ba38	0.035822123
86	0xbd09fb51	-0.03368694
87	0xbd0730fd	-0.033005703
88	0xbcb9185f	-0.022594629
89	0xbc950690	-0.018191606
90	0x3ca1f81d	0.01977163
91	0x3d235e3b	0.039884787
92	0x3cab0606	0.020876896
93	0xbb804b1c	-0.0039152037
94	0xbd061e21	-0.032743577
95	0x390d15eb	0.00013454973
96	0x3c6dc6d4	0.014512736
97	0x3cdfa816	0.02730183
98	0x3c862eb7	0.016379697
99	0xbb40115d	-0.0029307224
100	0x3d14d11c	0.036332235
101	0x3b668c2d	0.0035178766
102	0x3d2a7c3b	0.04162238
103	0x3d0462f2	0.032320924
104	0xbc836fad	-0.016044462
105	0x3b919b3b	0.0044435537
106	0xbb20ac5a	-0.0024516792
107	0x3c5b773c	0.013395127
108	0x3cbf454e	0.023348477
109	0xbd1f6642	-0.03891588
110	0x3cd79d78	0.026320204
111	0x3cad4a78	0.021153674
112	0x3c0a5eb7	0.008445433
113	0x3c9d45f8	0.019198403
114	0xbc7a45bd	-0.015275416
115	0x3ca269dd	0.01982587
116	0x3cb4eb77	0.022084935
117	0xbc8d463f	-0.01724541
118	0xbcbeb95f	-0.023281751
119	0x3d0b453d	0.034001578
120	0xbc8b9178	-0.017037138
121	0xbd422c57	-0.047405567
122	0x3c0fe792	0.008783238
123	0xbacd4e60	-0.0015663616
124	0xbd35b1a3	-0.04435886
125	0xbd2e4ccf	-0.04255372
126	0x3c8ac5f7	0.0169401
127	0x3cf511bc	0.029915683
128	0x3c9bd0f7	0.01902054
129	0xbc95310e	-0.018211868
130	0x3cb64561	0.02224988
131	0x3c6687d7	0.014070473
132	0xbc4c8084	-0.012481812
133	0xbcf33ab2	-0.029691074
134	0xbd071fe5	-0.0329894
135	0xbb2f350e	-0.0026734504
136	0xb9ecc019	-0.00045156552
137	0x3d0eed96	0.03489455
138	0xbd196730	-0.037451923
139	0xbc7998c0	-0.015234172
140	0x3cf57e08	0.029967323
141	0x3ba8ca45	0.0051510655
142	0xbb70b57f	-0.0036729274
143	0xbd2388af	-0.039925274
144	0xbb0a9933	-0.0021148443
145	0x3ceaf2c0	0.028680205
146	0x3b639da3	0.003473141
147	0x3c162b88	0.009165652
148	0x3c1ebe14	0.009688873
149	0xbc6165c9	-0.013757178
150	0x3c8581a8	0.016297176
151	0x3c4c2f73	0.012462485
152	0xbce3825d	-0.027772123
153	0x3bd9496e	0.006631068
154	0x3cd8273e	0.0263859
155	0x3ccbd9b3	0.02488408
156	0x3cfde080	0.030990839
157	0x3d0e387d	0.03472184
158	0xbd3bf452	-0.0458873
159	0x3c6d9fad	0.014503402
160	0x3c732fde	0.014842955
161	0xbccf1897	-0.02528028
162	0xbd4c960a	-0.049947776
163	0x3bdbf6cc	0.00671277
164	0xbc80f818	-0.0157433
165	0xbc527225	-0.012844597
166	0xbd3633e6	-0.044483088
167	0xbd40a7b0	-0.04703492
168	0xbaaf981b	-0.0013396771
169	0x3bf0826a	0.0073397653
170	0xbbe09542	-0.0068537304
171	0xbb498b2e	-0.0030753124
172	0x3d0edde6	0.034879588
173	0x39c4aa50	0.00037510926
174	0xbd0742f4	-0.033022836
175	0x3c886da2	0.01665384
176	0x3d189039	0.037246916
177	0xbcc30b8a	-0.023809213
178	0x3d26b16a	0.04069654
179	0xbbacf13c	-0.005277781
180	0xbd0852cd	-0.03328209
181	0xb9ac1e1b	-0.00032828827
182	0x3d327a29	0.043573532
183	0x3d275f40	0.04086232
184	0x3d1c3a45	0.038141508
185	0xbb77cc60	-0.0037811026
186	0xbd1a3721	-0.03765023
187	0x3d271518	0.0407916
188	0xbd23ce8b	-0.039991897
189	0x3ab6dfaa	0.0013952155
190	0xbcb23f31	-0.021758648
191	0xbc39ae38	-0.011333041
192	0xbbb8a8d1	-0.005635359
193	0xbd5f9bc6	-0.054591917
194	0x3c85920b	0.01630499
195	0x3cc1ae56	0.0236427
196	0x3c82612a	0.015915472
197	0x3d0de9fb	0.03464697
198	0x3be35af8	0.0069383346
199	0xbcc2342c	-0.023706518
200	0xb93b28d0	-0.00017848914
201	0x3bef1932	0.0072967047
202	0x3ca7c415	0.020479241
203	0xbc2376e7	-0.009977079
204	0x3cebc677	0.028781159
205	0x3c62f639	0.013852649
206	0x3d35ce10	0.04438597
207	0x3cb42649	0.021990912
208	0xbb3f2ff7	-0.0029172876
209	0x3c8ebb25	0.017423222
210	0x3d2d8e58	0.042372078
211	0x3cc5803d	0.024109
212	0xbcd1450d	-0.025545621
213	0xbba8579d	-0.0051373974
214	0x3b1e335e	0.0024139504
215	0xbcab7e9c	-0.020934395
216	0x3d0a404e	0.033752732
217	0xbc4f8851	-0.012666778
218	0xbd151ee9	-0.03640643
219	0x3c6d5918	0.014486574
220	0x3cad1bd9	0.021131443
221	0x3c856c93	0.016287124
222	0x3cabdc85	0.020979175
223	0xbd3bb6b8	-0.04582855
224	0xbadb5a97	-0.0016735372
225	0xbceb6cfc	-0.028738491
226	0x3bc66b8f	0.0060553025
227	0xbd263f8a	-0.04058794
228	0xbc3dc7b9	-0.011583262
229	0xbbd6f346	-0.006559762
230	0xbd3cba3d	-0.04607605
231	0x3ba243eb	0.004951944
232	0xbcbc88da	-0.023014475
233	0xbc1381f0	-0.0090031475
234	0xbaa83e80	-0.0012836009
235	0xbc2ecc32	-0.010668801
236	0x3c8c4687	0.017123474
237	0xbd02fef9	-0.031981442
238	0xbd15cc84	-0.036571994
239	0x3d0864d1	0.03329927
240	0xbbc0ed8a	-0.005887692
241	0x3d0cfd2d	0.034421135
242	0xbc06e2e1	-0.008232803
243	0xbce03833	-0.027370548
244	0x3c49269b	0.012277271
245	0xbc731661	-0.0148368785
246	0xbd2339a8	-0.039849907
247	0x3c9f7fec	0.019470178
248	0xbd29c80b	-0.04145054
249	0xbd3bf14d	-0.04588442
250	0xbd0d9af9	-0.03457162
251	0xbd135bf2	-0.035976358
252	0x3c914b9c	0.017736249
253	0x3d19fabd	0.03759264
254	0xbd2eb106	-0.04264929
255	0x3cc4ef42	0.024039868

fc_advantage.0.bias f4 [64]
0	0xbd3ed085	-0.04658558
1	0x3e223795	0.15841515
2	0xbe7ed773	-0.24886875
3	0x3c003442	0.007824959
4	0xbe55e010	-0.20886254
5	0xbeba9aa4	-0.36446106
6	0x3d9ed348	0.077551425
7	0xbcd4c343	-0.025972014
8	0xbcbc9eeb	-0.023024997
9	0xbe18e9f4	-0.14932996
10	0x3ea57afa	0.32320386
11	0xbd057667	-0.03258362
12	0xbc2e292f	-0.010629936
13	0xbdd51fd0	-0.104064584
14	0xbd08a49e	-0.033360116
15	0xbd888b0f	-0.06667148
16	0xbeb8aeab	-0.3607076
17	0x3d346b9e	0.044047944
18	0xbc32c7a7	-0.010911859
19	0xbd477a49	-0.048700605
20	0x3d0c9fbb	0.03433202
21	0x3d0067ea	0.0313491
22	0xbd297c50	-0.04137832
23	0x3e2164b0	0.15761065
24	0x3eefee39	0.46861437
25	0xbce7de77	-0.028304322
26	0x3d7b8c4b	0.06141309
27	0x3dffbe33	0.124874495
28	0x3daab819	0.08335895
29	0xbca410b3	-0.020027494
30	0xbde41a4a	-0.11137827
31	0xbbb7d1fd	-0.0056097494
32	0x3f203b8d	0.6259087
33	0x3d11d0a3	0.035599362
34	0x3f03b071	0.51441103
35	0xbe9b6b46	-0.3035528
36	0xbde89f36	-0.11358492
37	0x3dfb95ba	0.122844175
38	0xbe3d97a1	-0.18514873
39	0x3d896198	0.06708068
40	0x3ec70774	0.38872874
41	0xbacdf751	-0.0015713965
42	0x3c73fdb8	0.014892034
43	0x3d3751fe	0.04475593
44	0xbde7c081	-0.11316014
45	0xbd5c4320	-0.053774953
46	0xbcd880aa	-0.02642854
47	0xbc0f5c76	-0.008750072
48	0x3ea0a355	0.31374612
49	0x3d55e1ad	0.052217174
50	0x3eb7a1b3	0.35865554
51	0x3d832e62	0.06405331
52	0x3ec4954d	0.38395157
53	0x3d36aa31	0.0445959
54	0xbcad499d	-0.021153266
55	0xbe3a6091	-0.182009
56	0x3e272516	0.16322741
57	0x3df4defa	0.11956592
58	0xbb262d54	-0.0025356608
59	0xbd26dfe3	-0.04074086
60	0x3d050dfe	0.032484047
61	0xbd46236a	-0.048373617
62	0xbd97c9cb	-0.07411536
63	0xbe6735f5	-0.22579177

fc_advantage.2.weight f4 [32, 64]
0	0xbdc8207a	-0.097718194
1	0xbe2da80f	-0.1695864
2	0x3de60f1e	0.11233352
3	0xbdb53ae0	-0.0884912
4	0x3ce04946	0.02737869
5	0xbdb0272d	-0.08601222
6	0xbd5304ee	-0.051518373
7	0x3e11d15a	0.14240018
8	0xbd2f1ad8	-0.04275021
9	0x3ce8ddd7	0.028426094
10	0xbd119a86	-0.035547756
11	0x3b63d62f	0.0034765115
12	0x3d8f246d	0.069893695
13	0xbbfb9d38	-0.007678654
14	0x3e243144	0.16034418
15	0xbd8a7665	-0.06760863
16	0xbd981f4f	-0.07427847
17	0x3d57ff7a	0.052733876
18	0x3d5018e6	0.050804995
19	0x3e131e1f	0.14366959
20	0xbd1c7027	-0.038192894
21	0xbd3fbcf6	-0.046811067
22	0xbdc25025	-0.094879426
23	0xbe0aa132	-0.13538054
24	0x3d46ab70	0.04850334
25	0xbdaebef9	-0.08532519
26	0xbdd21d9e	-0.10259555
27	0xbce58960	-0.028019607
28	0xbd149305	-0.03627302
29	0xbd496b1c	-0.049174413
30	0x3dc8c785	0.0980368
31	0xbd5c33af	-0.053760227
32	0x3d68948f	0.0567823
33	0xbd4ac653	-0.049505543
34	0xbcc04f8a	-0.023475427
35	0xbe0a48ae	-0.13504288
36	0x3d19b836	0.037529193
37	0xbdb93773	-0.09043779
38	0xbd94e981	-0.072711
39	0xbdf7696f	-0.12080657
40	0xbc4ba7bf	-0.0124301305
41	0x3d0ee392	0.034884997
42	0xbc3a1438	-0.01135736
43	0xbdb37588	-0.08762652
44	0x3ca0e922	0.019642416
45	0x3d867775	0.06565753
46	0xbd441895	-0.047875006
47	0xbd826092	-0.063660756
48	0x3b58f404	0.003310443
49	0xbd73f2ee	-0.059557848
50	0xbc09892e	-0.008394523
51	0xbc86f339	-0.0164734
52	0xbd87d8f7	-0.0663318
53	0x3cda9ae8	0.026685193
54	0x3db1a59a	0.08674164
55	0xbd081e03	-0.033231746
56	0xbe1b3d19	-0.15160026
57	0x3c97a99e	0.018513497
58	0x3d6195c3	0.055074465
59	0x3de4dd29	0.111749955
60	0x3d5a6502	0.053318985
61	0xbcc10d40	-0.023565888
62	0xbe0a91bb	-0.13532154
63	0xbdd33d71	-0.103144534
64	0xbd1c54c2	-0.03816677
65	0xbeb8cb44	-0.3609258
66	0x3e17060b	0.14748399
67	0x3be2a5d2	0.00691674
68	0xbd8ffc85	-0.07030586
69	0x3c45f485	0.012082224
70	0xbe81167d	-0.2521247
71	0xbb1f86fa	-0.0024341927
72	0x3c9b9f0f	0.018996743
73	0xbe230470	-0.15919662
74	0xbe81fade	-0.2538671
75	0xbdaa6996	-0.0832092
76	0xbe1c14e5	-0.15242346
77	0x3d690918	0.056893438
78	0xbe307b46	-0.17234525
79	0xbd2e9662	-0.042623885
80	0xbcd2e5f8	-0.025744423
81	0x3e8fef2e	0.28112167
82	0x3d89fee0	0.06738067
83	0xbd9d65eb	-0.07685455
84	0xbd8b68c7	-0.06807094
85	0xbe606420	-0.21913195
86	0xbda3ade9	-0.07992155
87	0xbe7e0fa5	-0.24810655
88	0x3e2e1bd8	0.17002809
89	0x3d609fb3	0.0548398
90	0x3d810365	0.062994756
91	0x3edddc8d	0.4333233
92	0x3db4e53a	0.08832784
93	0x3da22c7f	0.07918643
94	0xbd90b00c	-0.07064828
95	0xbe5deacf	-0.21671604
96	0xbc289d37	-0.010291389
97	0x3cda83c5	0.02667416
98	0xb88595ee	-6.369861e-05
99	0x3c6ac890	0.014330044
100	0xbd65f873	-0.056145143
101	0xbe0896d7	-0.13338791
102	0xbe2d82de	-0.16944453
103	0x3e45f4e5	0.19331701
104	0xbea7a96c	-0.32746446
105	0xbc0f9850	-0.0087643415
106	0xbe032d8b	-0.12810342
107	0xbda1d2bf	-0.07901525
108	0x3e3bf694	0.18355781
109	0xbc7e1487	-0.015507824
110	0xbf0094b3	-0.50226897
111	0xbddea9c7	-0.10872226
112	0x3d900b5d	0.070334174
113	0xbd98ddb3	-0.07464161
114	0x3d844aee	0.06459604
115	0xbe23f8f2	-0.16012934
116	0x3d695e80	0.056974888
117	0xbeefb6c6	-0.46819133
118	0xba62db49	-0.0008653892
119	0x3e32ed1e	0.17473266
120	0xbda57537	-0.080789976
121	0xbd0b1c91	-0.03396279
122	0xbe8b7952	-0.27240998
123	0x3cad3111	0.02114156
124	0x3e0ce2e3	0.13758425
125	0xbd3d0d03	-0.046154987
126	0xbe821e79	-0.25413874
127	0x3e017c00	0.12644958
128	0xbd96d736	-0.07365267
129	0xbe90c8f1	-0.28278306
130	0x3d33deb1	0.043913547
131	0x3d3d27aa	0.046180405
132	0x3e0bf8b4	0.13669091
133	0x3d4a1485	0.049335975
134	0xbe432c98	-0.1905998
135	0x3bdacf67	0.0066775563
136	0x3d9b5edc	0.07586452
137	0x3e142e2a	0.14470735
138	0xbc44289c	-0.011972573
139	0xbcad4e3e	-0.021155473
140	0x3dd6bc66	0.10485153
141	0xbda3fdf4	-0.08007422
142	0xbd966599	-0.07343597
143	0x3d66a0ba	0.056305625
144	0x3e480c5e	0.19535968
145	0x3e1587db	0.14602606
146	0xbc8c8192	-0.017151628
147	0x3e4d46e1	0.2004657
148	0xbd2aa64e	-0.041662507
149	0x3e3d30c3	0.18475632
150	0x3d63bb98	0.055598825
151	0xbe43017a	-0.19043532
152	0xbc52e046	-0.012870854
153	0xbde23435	-0.11045114
154	0x3dd0699e	0.10176395
155	0xbdb12d6d	-0.086512424
156	0x3d7405c9	0.05957583
157	0x3de60312	0.11231054
158	0x3d85dd50	0.06536353
159	0x3e695fb8	0.2279042
160	0xbe07fbdd	-0.13279672
161	0x3e4c9b4a	0.19981113
162	0xbe073b48	-0.13206208
163	0x3c40912a	0.01175336
164	0x3cc76877	0.024341805
165	0x3e98770f	0.29778334
166	0x3ddd53bb	0.10806986
167	0x3db4e461	0.08832622
168	0xbcf7a877	-0.030231697
169	0x3d5b367b	0.053518753
170	0x3dad1762	0.084517255
171	0x3dcd98f3	0.100389384
172	0x3e322b5c	0.17399353
173	0x3b4205e1	0.0029605555
174	0xbed9fa9f	-0.4257402
175	0x3d0585d2	0.032598324
176	0xbc530a77	-0.012880913
177	0x3dce18da	0.10063334
178	0xbe026fc1	-0.12737943
179	0xbe1ef78b	-0.15524118
180	0x3d206c5d	0.039165843
181	0xbe000c71	-0.12504746
182	0xbd98d5a0	-0.07462621
183	0x3e372e45	0.17888744
184	0xbca9f490	-0.0207465
185	0x3df660da	0.12030192
186	0xbd2a9baf	-0.041652378
187	0x3d1c9344	0.03822638
188	0x3d628643	0.055303823
189	0x3db1c7cf	0.086806886
190	0xbd2e540d	-0.042560626
191	0x3d929ce7	0.07158833
192	0xbce38ec7	-0.027778042
193	0x3db3d3f7	0.087806635
194	0xbea03717	-0.3129203
195	0x3c1e6633	0.009667921
196	0xbe4fafce	-0.20281908
197	0xbebe646d	-0.37185994
198	0x3c840ea1	0.016120257
199	0xbf3fe9b7	-0.74965996
200	0x3dcc3751	0.09971488
201	0x3dbe1bf8	0.09282678
202	0x3d7af126	0.061265133
203	0x3e9ec300	0.31008148
204	0xbe193b08	-0.14963925
205	0xbe826014	-0.25463927
206	0xbddbe11d	-0.10736296
207	0x3d01daee	0.03170293
208	0x3d839e58	0.06426686
209	0xbde77c5b	-0.11303016
210	0xbe0508bc	-0.12991613
211	0xbcbcf41e	-0.023065623
212	0xbd0f1a42	-0.03493715
213	0x3dabfd48	0.08397919
214	0xbd7ddd8c	-0.06197886
215	0x3e68ce53	0.22734956
216	0xbd4bd522	-0.049763806
217	0xbd02509c	-0.031815156
218	0x3d39a94e	0.045327477
219	0xbdd55288	-0.10416132
220	0xbe12035e	-0.14259097
221	0xbd010d61	-0.0315069
222	0xbe25ac7f	-0.16179083
223	0x3e483612	0.19551876
224	0x3c12f9b1	0.008970664
225	0xbe517c9c	-0.20457691
226	0x3d704331	0.05865783
227	0xbeeb5e8c	-0.4597057
228	0xbe737bad	-0.23777647
229	0x3d8be34c	0.06830463
230	0xbd3cb6a3	-0.046072613
231	0xbe64efbb	-0.22357075
232	0x3e138b95	0.14408715
233	0x3d6904de	0.056889407
234	0x3d57892f	0.052621063
235	0x3dc55b0b	0.09636506
236	0xbe1ee400	-0.15516663
237	0xbd54d075	-0.051956613
238	0x3c4ce3a7	0.012505448
239	0x3dc7ed29	0.097620316
240	0xbdcefc8a	-0.10106762
241	0x3e12875a	0.14309445
242	0xbd74b1fe	-0.05974006
243	0x3e74f3e3	0.2392116
244	0x3d289335	0.041156013
245	0x3ebfd7b4	0.37469256
246	0x3d4771c1	0.04869247
247	0xbe779c14	-0.24180633
248	0x3e218238	0.15772331
249	0x3dafcf5d	0.08584473
250	0xb9e59a3c	-0.00043793197
251	0x3dc3eae4	0.09566286
252	0xbe2c48b2	-0.16824606
253	0xbdb59b77	-0.08867543
254	0x3cfb02cc	0.030640982
255	0x3c61d3ac	0.013783377

fc_advantage.2.bias f4 [32]
0	0xbc1dcbb7	-0.009631089
1	0x3dec5362	0.115393415
2	0xbde2364e	-0.11045514
3	0xbb794197	-0.003803348
4	0xbe4459fe	-0.19174954
5	0x3e42c0ba	0.19018832
6	0x3b9120fe	0.004428982
7	0x3e2ded42	0.16985038
8	0x3cbfebed	0.023427928
9	0xbda3cf61	-0.07998539
10	0x3ea4a5b1	0.32157663
11	0xbe42ac47	-0.19011031
12	0xbf04e46a	-0.5191103
13	0xbbe9e832	-0.0071382755
14	0x3ccd2e05	0.025046358
15	0xbe29a9e0	-0.16568708
16	0xbd3faaa0	-0.04679358
17	0x3d57d928	0.05269733
18	0xbcba7b9f	-0.022764025
19	0x3d8ce3fe	0.068794236
20	0xbde6b36d	-0.112646915
21	0x3be4c238	0.0069811605
22	0x3e05934a	0.13044468
23	0x3c506ca4	0.012721214
24	0x3e14e00b	0.1453859
25	0xbd7ef955	-0.0622495
26	0x3e619f82	0.22033504
27	0xbeb10cb9	-0.3458002
28	0x3ef3ae9d	0.47594157
29	0x3ddc41e4	0.10754755
30	0xbef32353	-0.47487888
31	0x3ebec808	0.37261987

fc_advantage.4.weight f4 [6, 32]
0	0x3e1cb547	0.15303527
1	0xbe06232d	-0.13099356
2	0x3d37e7ea	0.044898905
3	0x3cc288f7	0.02374695
4	0x3d0da109	0.034577403
5	0x3d303ca1	0.04302657
6	0xbcf045c8	-0.02933015
7	0x3e6572fb	0.22407143
8	0x3c0c2dfc	0.008555885
9	0xbc6325d9	-0.013864004
10	0xbe50a87e	-0.20376775
11	0x3cf58957	0.029972715
12	0xbdc3668f	-0.09541046
13	0xbde127ca	-0.10993917
14	0xbd7f9de7	-0.062406447
15	0xbd51b9ca	-0.051202573
16	0xbbd45886	-0.0064802794
17	0xbd987350	-0.07443869
18	0x3da71438	0.08158153
19	0xbebb70f7	-0.36609623
20	0xbe49a559	-0.19691981
21	0xbca96148	-0.02067627
22	0x3e113afd	0.14182658
23	0xbe8e66fc	-0.27812946
24	0x3d9d2b59	0.076742835
25	0x3ebbc3e3	0.36672887
26	0xbde6f27b	-0.11276718
27	0x3d48284d	0.04886656
28	0x3e140c5b	0.14457838
29	0xbd242936	-0.040078364
30	0xbc3436d4	-0.0109994
31	0xbded5a26	-0.1158946
32	0x3dd9874e	0.106215104
33	0x3cccda99	0.02500658
34	0xbd803312	-0.06259741
35	0x3e106418	0.14100683
36	0xbdc689b7	-0.09694236
37	0x3dc970fe	0.09836005
38	0xbde33267	-0.11093598
39	0xbe3f70e0	-0.18695402
40	0x3e6605aa	0.22463098
41	0xbcf2d1a0	-0.029640973
42	0x3c280cd7	0.0102569675
43	0xbbac2f64	-0.005254673
44	0x3d8d0043	0.068848155
45	0x3f03463d	0.5127905
46	0xbe6f436b	-0.23365562
47	0x3d8e6c9a	0.06954308
48	0x3d2bce55	0.04194482
49	0xbdd0bd13	-0.10192313
50	0x3e0832f1	0.13300683
51	0xbbc7e109	-0.0060998243
52	0xbe05f82e	-0.13082954
53	0xbe4a4538	-0.19752967
54	0xbe1ddb13	-0.15415601
55	0x3d8c56f6	0.06852524
56	0xbf60e49c	-0.8784883
57	0x3e74f07d	0.23919864
58	0xbe270ff7	-0.16314684
59	0x3d8b44f7	0.068002634
60	0x3ddbba0a	0.107288435
61	0x3eca84f8	0.39554572
62	0xbe00ed99	-0.12590636
63	0xbc3129e5	-0.010813211
64	0x3e52bbfd	0.20579524
65	0xbe74a6e7	-0.23891793
66	0x3dabb0c0	0.08383322
67	0xbf01a45a	-0.50641406
68	0xbeb326df	-0.34990594
69	0xbf0fc1da	-0.5615517
70	0xbdac9487	-0.08426767
71	0xbdb6ea37	-0.08931392
72	0xbeb1dae5	-0.34737316
73	0xbdbbf1b4	-0.091769606
74	0x3e231234	0.15924913
75	0xbd9b788b	-0.07591351
76	0xbb7d69cf	-0.0038667803
77	0xbed63c8c	-0.4184307
78	0xbd1ebfeb	-0.038757246
79	0x3d2bbfe6	0.041931055
80	0x3d4ee9ce	0.050515942
81	0x3ef40185	0.4765741
82	0x3d645673	0.055746507
83	0xbb29b83f	-0.0025897173
84	0x3e927e1a	0.28611833
85	0xbe894c4d	-0.26816025
86	0xbd36c137	-0.044617858
87	0x3d3d4a64	0.046213523
88	0x3ebe3119	0.37146834
89	0xbd27fcf6	-0.041012727
90	0xbe2945ed	-0.16530581
91	0x3db1572e	0.08659206
92	0x3dca251b	0.098703586
93	0xbf0be6b5	-0.54648906
94	0xbdbbda44	-0.0917249
95	0xbda5aa64	-0.0808914
96	0xbd213975	-0.039361436
97	0xbd8712de	-0.065953955
98	0xbe9fbc12	-0.31198174
99	0x3d3c5469	0.045978937
100	0x3ea06895	0.3132979
101	0x3e5e87b3	0.21731453
102	0x3efa44d4	0.48880637
103	0x3c28dc4d	0.01030643
104	0x3d06b494	0.032887056
105	0x3ca96e48	0.020682469
106	0xbe58cb1f	-0.21171235
107	0xbeae7b6a	-0.34078532
108	0xbe64d9e9	-0.22348751
109	0x3d9ed336	0.07755129
110	0x3e3c6b50	0.18400311
111	0x3d25af95	0.04045065
112	0x3de0034f	0.10938131
113	0xbf19c877	-0.6007151
114	0xbeb3b9fe	-0.35102838
115	0x3e0fd8c0	0.14047527
116	0x3e6cc97b	0.23123734
117	0xbe469878	-0.193941
118	0xbdc6ea46	-0.09712653
119	0x3de32a0d	0.11092005
120	0x3d99b958	0.07506055
121	0xbe9cc685	-0.30620208
122	0xbf1c92e8	-0.6116166
123	0x3eb935ae	0.36173767
124	0x3e88aae8	0.2669289
125	0x3e2cb521	0.1686597
126	0x3e6793e5	0.22615011
127	0x3e7e60b5	0.24841578
128	0x3e71bf63	0.23608164
129	0x3e994db5	0.29942098
130	0xbddcaa5b	-0.1077468
131	0xbe2fec0c	-0.17179888
132	0x3de2e694	0.110791355
133	0x3d825d8f	0.06365501
134	0xbe865ed3	-0.2624422
135	0x3d3563f5	0.04428478
136	0xbc4c028b	-0.012451778
137	0x3d4790b3	0.04872198
138	0xbe2bb39d	-0.16767736
139	0x3f1d2986	0.61391485
140	0xbea1702e	-0.315309
141	0xbce3695c	-0.0277602
142	0x3b323c12	0.002719645
143	0xbd0198dc	-0.03163992
144	0x3d99a694	0.075024754
145	0xbe2db485	-0.16963394
146	0x3e2fad6c	0.17155999
147	0x3e503584	0.20332915
148	0xbdbc14dc	-0.09183666
149	0xbe8266d5	-0.2546908
150	0xbead2115	-0.33814302
151	0xbde556e2	-0.11198212
152	0x3dd40883	0.10353186
153	0xbe5cce34	-0.21563035
154	0x3ee0478c	0.43804586
155	0xbf2b1197	-0.66823715
156	0x3d89d4b2	0.067300215
157	0xb9800ef5	-0.00024425206
158	0xbf1721c4	-0.590359
159	0xbdb7105a	-0.08938666
160	0x3e02eef6	0.12786469
161	0x3dd410ca	0.10354765
162	0x3e4ddf14	0.20104629
163	0xbde2ad7b	-0.11068245
164	0x3da567f3	0.08076467
165	0x3de4b54e	0.111673936
166	0xbe4e3e85	-0.20141037
167	0xbe0e6cd2	-0.13908699
168	0xbd75b5ff	-0.059988018
169	0x3e11c195	0.14234002
170	0xbe815a85	-0.25264373
171	0xbe37781d	-0.17916913
172	0x3e15167b	0.14559357
173	0xbe0fa8a5	-0.14029177
174	0x3e19a6aa	0.15004984
175	0x3dc308d4	0.09523168
176	0x3b598c28	0.0033195112
177	0xbde0d63b	-0.10978361
178	0x3db30ae1	0.08742309
179	0x3e492f48	0.19646943
180	0x3dd8adcb	0.105800234
181	0x3eccac3b	0.3997515
182	0xbd7da286	-0.061922573
183	0x3e10eb14	0.14152175
184	0xbdce2f5d	-0.100676276
185	0xbd2d92d9	-0.042376373
186	0xbd324c02	-0.043529518
187	0x3df7dca0	0.12102628
188	0xbe59170d	-0.212002
189	0xbcd42911	-0.025898488
190	0x3e7f0be1	0.24906875
191	0xbec60db7	-0.3868234

fc_advantage.4.bias f4 [6]
0	0x3e085232	0.13312605
1	0xbd868597	-0.06568449
2	0xbd64d813	-0.055870127
3	0x3d96d416	0.07364671
4	0xbe53642c	-0.20643681
5	0xbe077c13	-0.13230924
