data/Torch/Dueling/002_CNN-1_E_L/checkpoints/weights_100000steps.pth (torch, 286623 bytes, 13 tensors)

conv_layers.0.weight f4 [32, 1, 3, 3]
000000 94 73 02 3d 59 d6 98 3c 98 78 6b 3d 78 49 0d 3e
       0.031848505 0.018656896 0.057488054 0.13797557
000010 6e 6f 97 be bb 7e 22 bd 30 bf 33 3e 12 cf d0 3d
       -0.29577202 -0.03967164 0.17553401 0.101957455
000020 42 1c 5a 3e d4 b5 89 be ba 5d a1 3e 74 5c 56 3e
       0.21299842 -0.26896536 0.3151682 0.20933706
000030 a1 2a e1 bd 9e 6e c2 bd 6b a0 7a 3e c5 d6 71 3e
       -0.10994459 -0.09493755 0.24475257 0.23617084
000040 3d a1 10 be 79 57 7d be 86 3e e7 be 06 56 99 bd
       -0.14124008 -0.247404 -0.4516489 -0.07487111
000050 af 2a ff 3d 47 07 89 3e 71 30 3d 3e ca 8a cf bd
       0.12459313 0.26763365 0.1847551 -0.10133894
000060 a2 47 13 3d c3 cd 6f 3e 1e e7 88 be ba 34 c8 be
       0.035956986 0.23418336 -0.26738828 -0.39102727
000070 25 4a ac be 16 fa e4 bb ff 99 5c 3e 11 b3 ec bc
       -0.33650318 -0.0069878204 0.2154312 -0.02889398
000080 f9 20 6d 3d 79 25 dd bd 3b 7f 0a bd c2 7e 7e 3c
       0.057892773 -0.10798163 -0.033812743 0.015533151
000090 53 b5 8c 3e 3f 36 0f be 28 18 0e 3e 95 78 72 3e
       0.2748209 -0.13985537 0.13876402 0.23678811
0000a0 0c f6 62 3e 9b 53 4e 3d 16 22 95 3d 4e e2 7f bc
       0.22164172 0.0503727 0.07281892 -0.01561792
0000b0 ab d0 1d bd 67 3c 91 3e 52 9c 66 3d 91 f5 03 be
       -0.03852908 0.28366396 0.056301422 -0.12886645
0000c0 44 a4 17 bf 29 17 8b 3e d1 6f 2f be 4a e8 ae be
       -0.59235024 0.27166107 -0.17132498 -0.34161597
0000d0 dc d3 93 3e 22 95 0e be 95 23 da 3e 81 a9 b5 3c
       0.28872573 -0.13924077 0.42605272 0.022175552
0000e0 61 04 e1 bb e0 07 0b 3e c4 1b a8 be c6 4e b4 3d
       -0.006866977 0.13577223 -0.32833683 0.08804087
0000f0 a5 e2 bf 3b cc 4b 68 3d 9e 79 67 be d6 58 e0 be
       0.0058558756 0.05671291 -0.22604987 -0.43817776
000100 d7 a4 9b bd 3a 30 e9 be fe b2 09 3c 1a a6 0d 3e
       -0.075998 -0.45544606 0.0084044915 0.13832894
000110 e0 66 5c be 00 52 00 3e 14 69 f4 3d da 24 03 be
       -0.21523619 0.1253128 0.119341046 -0.12807027
000120 b9 85 e2 be ed ad 15 3e b3 25 a2 3d cc 73 08 bd
       -0.44242647 0.14617129 0.07917347 -0.033313558
000130 c3 8b 89 3e 49 36 50 be a3 da 55 be aa dd 93 3e
       0.26864442 -0.20333208 -0.20884185 0.28880054
000140 36 62 c8 3d 6c 98 0a 3e 48 64 1f be 98 66 9a 3d
       0.09784357 0.13534707 -0.15565598 0.075390995
000150 33 b0 94 be c7 06 a3 bd c7 1e a6 3e de b1 98 be
       -0.2904068 -0.07960277 0.32445356 -0.29823202
000160 e7 64 6a be eb e4 76 3e 1b 60 53 be ba 62 fb 3d
       -0.22890054 0.24110763 -0.2064213 0.1227469
000170 89 0b 56 3e be 61 7e 3d c3 61 82 3e 79 1a b8 3c
       0.20902838 0.062104933 0.2546521 0.02247356
000180 aa eb 26 be c0 f8 9b be 36 a8 9a 3d b8 ee 6d be
       -0.16300836 -0.3046322 0.07551615 -0.23235595
000190 22 1e 91 be d7 a9 d0 bc 8c 1f 98 3e 98 68 33 3e
       -0.28343302 -0.025471611 0.29711568 0.17520368
0001a0 8b 12 51 3d 35 fd 48 3c ca 72 8a be 29 3f 8f be
       0.051043075 0.0122674005 -0.27040702 -0.27977875
0001b0 d6 33 0d 3e 1c ba 3b 3d 09 0a 1f 3d d2 3d 42 be
       0.13789305 0.045831785 0.03882793 -0.18968895
0001c0 96 bc 81 bd 2c 02 80 3e be a1 8e 3d ab b8 03 3e
       -0.06334798 0.25001657 0.069644436 0.12863414
0001d0 b8 76 54 bd b2 6a 14 bf e4 02 81 be f2 af 74 be
       -0.05187103 -0.57975304 -0.25197518 -0.23895243
0001e0 04 d3 5a 3e fe 92 86 be 1c 78 39 3e 3f 74 c8 bd
       0.21369559 -0.2628402 0.18112224 -0.09787797
0001f0 18 02 7e bd 2c a2 17 3e 25 de a3 3e f4 78 83 3e
       -0.062013716 0.14807957 0.3200542 0.25678217
000200 49 77 cd bd 9a 8d 51 3b 5e f7 3e be c8 5f 2e 3e
       -0.100325175 0.003197527 -0.1864905 0.17028725
000210 3e 4e b2 bd bd 5d 9e bb 9d c7 4b be e6 6b 8b 3e
       -0.0870633 -0.004832952 -0.19900365 0.27230757
000220 d9 69 7e be cb 1b fa bc aa 59 3d 3e a2 43 9c bd
       -0.24845065 -0.03053083 0.18491235 -0.076300874
000230 2b 68 1a 3e 82 17 30 be 6d a8 35 3c 87 88 e2 3b
       0.150788 -0.17196468 0.011087519 0.006913248
000240 0b 71 83 3d 67 e8 29 3e d5 94 20 3e 22 19 f9 3d
       0.064180456 0.1659256 0.15681775 0.12162997
000250 b7 53 65 3d 8a cc a0 bd 9a 4a b8 bd 43 e2 f1 bd
       0.05598804 -0.07851513 -0.08998604 -0.11810734
000260 dc a9 52 be c3 8c c2 3c dc 32 55 3e 7b 82 c2 3d
       -0.20572609 0.023748761 0.20820183 0.094975434
000270 bc f5 80 be 15 a3 11 be ae 4b 15 3d 93 c7 2a be
       -0.2518748 -0.14222367 0.036449127 -0.16677694
000280 3b 5b 13 3e ce 3c 08 3e c6 0e cd be 1a 3c 3e 3c
       0.1439027 0.13304445 -0.40050334 0.011611009
000290 7f c9 db bd d6 7b 3f bd 5e cd f7 3d 94 be 3c be
       -0.10731792 -0.04674896 0.120997176 -0.18432075
0002a0 08 8e 53 3d 61 37 3d 3e 74 4b 9d 3e 27 30 c7 3e
       0.051649123 0.18478157 0.3072163 0.38903925
0002b0 9d 93 62 be 53 f7 28 3e 6e d0 b6 3d 8e 43 e9 be
       -0.22126622 0.16500597 0.089264736 -0.45559353
0002c0 d8 92 71 be 84 1d c9 3d 5f fb 88 be c8 5e 6c be
       -0.23591173 0.09820083 -0.2675428 -0.23083031
0002d0 96 f6 3c 3e f9 59 92 be d9 19 dd 3d ef e7 98 be
       0.1845344 -0.2858427 0.10795946 -0.2986445
0002e0 8a b0 45 be da 8b a5 3d 0e ff 36 be c6 b9 8e 3e
       -0.19305626 0.08083315 -0.17870733 0.2787611
0002f0 75 b4 99 3e c2 79 ee 3e 75 fd 85 bd 3f 68 5d 3e
       0.3002049 0.4657727 -0.06542484 0.21621798
000300 ec 14 5c be b1 9a 4e be c4 2f e1 3c de 05 fe bd
       -0.21492356 -0.20176198 0.027488597 -0.12403463
000310 1a d2 0e 3e d1 50 86 3c ab d2 81 3d ae b2 3b 3e
       0.13947335 0.016395958 0.0633901 0.1832988
000320 48 1d f8 3d 59 97 5f 3e 07 aa 3d be 9a c0 55 be
       0.1211496 0.21835078 -0.18521892 -0.20874253
000330 f1 4d 2e ba d0 00 22 be 72 1f c7 3d 8a 81 5e be
       -0.00066491874 -0.15820622 0.097227946 -0.21729103
000340 9d 29 b2 3e d8 90 a1 3e ed 73 f1 bd de 68 08 bd
       0.34797373 0.3155582 -0.11789689 -0.033303134
000350 e9 b9 93 3c fc 48 6a be cb 58 21 3e 60 4a 30 bd
       0.018032985 -0.22879404 0.15756528 -0.04303968
000360 bf b9 06 3e 37 c2 23 be 26 03 68 3e bf d4 94 3e
       0.13156794 -0.15992056 0.22657451 0.29068562
000370 54 bd 97 bd 2d bf 48 bd 0f b5 87 be bc 97 5e 3d
       -0.07409158 -0.049010444 -0.26505324 0.054343924
000380 c8 54 62 be 9a 5d 73 3e 65 59 49 3e df a5 a7 3d
       -0.22102654 0.23766175 0.19663008 0.08185934
000390 92 83 0d 3e 9b 4d 36 be b1 5d 9a 3d 77 c1 36 be
       0.13819721 -0.17803042 0.075374015 -0.17847238
0003a0 1a f4 09 be 80 f0 3e be 7c 6d b1 be 84 fa d5 3c
       -0.13472024 -0.18646431 -0.34653842 0.026120432
0003b0 69 a6 ec 3d c6 48 07 3e 38 71 f0 3d d9 ce 87 be
       0.11555178 0.13211355 0.11740345 -0.26525
0003c0 0f a4 c6 3d b6 e3 17 3e 56 b6 dd 3d 93 fb 1a 3e
       0.096992604 0.14832959 0.108257934 0.1513503
0003d0 d7 ea 8e 3d 4c b2 c0 be 90 7b 8c 3e a4 f3 c9 bd
       0.06978386 -0.3763603 0.2743802 -0.09860924
0003e0 12 63 30 3d 47 56 97 be cc c5 ca 3d c3 51 89 3d
       0.04306323 -0.29558012 0.09901008 0.06705048
0003f0 19 5f af 3e 82 89 c7 3c 49 be 22 3e 76 26 95 be
       0.3425224 0.024357561 0.158929 -0.29130906

conv_layers.0.bias f4 [32]
000000 03 04 ec be 4f b0 b5 be a5 37 7d 3e a4 31 a6 3e
       -0.4609681 -0.35486075 0.24728258 0.32459748
000010 02 4c d1 be d7 c5 b9 bb 51 e4 82 bc 23 84 79 3e
       -0.40878302 -0.0056693363 -0.01597801 0.24366812
000020 89 73 06 be dc ec 0e be c3 d7 86 3e 4c 9d 44 be
       -0.1313001 -0.13957542 0.26336488 -0.19200629
000030 fd 19 a2 be 36 3d c7 3e f1 13 32 be bf 82 db 3d
       -0.31660452 0.38913888 -0.1739042 0.10718297
000040 8d 23 13 be 49 d7 b0 3e 10 28 a0 3e c6 4a 67 3e
       -0.1436903 0.3453925 0.31280565 0.22587118
000050 65 09 c0 3e e2 ff 8a be 98 1d 4f 3e 69 80 e7 be
       0.37507167 -0.27148348 0.20226133 -0.45215157
000060 d3 b9 a0 3e 05 02 af 3e f6 2e da 3e ab 3d a2 be
       0.31391773 0.34181228 0.42613953 -0.31687674
000070 88 e4 1f be 87 c7 90 3e a8 3d 48 3e 3a 60 5f be
       -0.15614522 0.28277227 0.1955477 -0.21814051

fc_state.0.weight f4 [64, 512]
000000 0d 62 5f 3c ff 91 5c bc 27 73 8b bc 53 6a 8f bb
       0.013634217 -0.013462543 -0.017022682 -0.0043766885
000010 24 0f 0e 3d 1b 37 03 bd c4 38 c2 3c 30 58 21 bd
       0.034682408 -0.032034975 0.023708709 -0.039390743
000020 47 15 0c 3d ab 80 51 bc 09 f4 9c bc 88 26 1b 3d
       0.03419998 -0.0127870245 -0.019159334 0.037878543
000030 9f 4c f7 3c 45 84 be bb ac 5c a1 3a 7f c9 dc 3c
       0.030187903 -0.0058141076 0.0012310944 0.02695155
000040 97 2f 07 3d f0 f5 e6 bc df 5b 2d bc 84 bc 02 3d
       0.03300437 -0.028193444 -0.010580986 0.031918064
000050 b1 31 f8 3c cd 7d 24 bb f5 6d 06 bc b7 e4 d5 3b
       0.030297132 -0.0025099397 -0.008204927 0.006527509
000060 af b1 6a bc 6a 79 d3 3c 7e 08 ee bc 3c 9d 42 3c
       -0.01432459 0.02581473 -0.029056784 0.011878308
000070 a8 d0 8b 3c 83 5f 76 bc ca cf d7 3c 2c b8 13 3d
       0.017067268 -0.01503742 0.026344199 0.03606431
000080 9c 19 37 3c a3 83 42 bd 78 59 c2 3c 20 1e 2c 3c
       0.011175539 -0.04748882 0.023724303 0.010505229
000090 d4 40 64 3c b3 47 8b 37 03 1d 65 bb bc a1 ae bc
       0.013931472 1.6603479e-05 -0.003495992 -0.021317355
0000a0 bc cb 16 bb 06 2f 0c bd fe dc 03 3d b0 c9 6d 3c
       -0.0023009619 -0.034224533 0.032193176 0.014513418
0000b0 1d c4 9b 3b 2c c5 3d bb b1 04 13 3c 19 8b 25 bd
       0.004753603 -0.0028956635 0.0089732865 -0.040415857
0000c0 7d b4 cc bc 13 12 3e bd 40 e8 e0 bb 5f 6e 16 3d
       -0.024988407 -0.046403956 -0.006863624 0.03672635
0000d0 e8 ba 41 bd 19 62 f1 3c 04 17 4e 3c 1a 00 36 bc
       -0.04729739 0.029465722 0.01257873 -0.011108423
0000e0 fd 79 25 bd 71 94 0f bd d4 a4 cc bc 67 cd 23 3c
       -0.04039954 -0.035053674 -0.02498094 0.009997702
0000f0 59 41 39 3c d4 21 2a 3b e3 76 36 bd 8e b7 2f bd
       0.011307084 0.0025960105 -0.044546973 -0.04289966
000100 07 66 b7 3c b7 45 7c 3c 66 c3 5b 3c f0 e4 cc bb
       0.022387518 0.015397481 0.013413286 -0.0062528774
000110 b0 a6 0a 3d 0c 2f ce 3c 3f 28 b1 3c 99 6a cc 3c
       0.03385037 0.025168918 0.021625636 0.024953173
000120 29 89 1a 3c f3 77 2a 3c 6e 9d f9 3c bb 2a 46 3c
       0.009432116 0.010404575 0.030470576 0.012095149
000130 d1 ba 5a bb 6e 9f b0 bc 79 a3 fa bc a2 90 db bc
       -0.0033375511 -0.021560397 -0.030595528 -0.026802365
000140 d4 8e f8 3b a1 fd 20 3d 08 3d 23 bd 20 6e 03 bc
       0.007585386 0.03930438 -0.039853126 -0.008021861
000150 d6 b0 18 3d e8 25 34 3c a4 97 0b 3d 12 d1 22 3d
       0.03727802 0.010995366 0.034080163 0.039750166
000160 4c 8c 1e 3c b7 31 5c bc 41 18 c1 bc c0 92 40 ba
       0.009677004 -0.013439587 -0.023571135 -0.0007346086
000170 a4 b1 15 bc 28 67 99 3b 20 e5 94 bb 0d 4e 6d 3c
       -0.009136591 0.0046814866 -0.0045439154 0.014483941
000180 21 7a 47 bd df 89 c0 bc 5b a7 ac 3c 01 14 0c bc
       -0.048700456 -0.023503242 0.021075895 -0.008549691
000190 21 72 01 bc da 59 cd ba 5a ba 15 bd 83 02 30 bc
       -0.007900746 -0.0015667037 -0.03655467 -0.010742786
0001a0 74 2d 05 bd b3 ea 20 3b b6 2d e6 bc f9 c0 05 bd
       -0.03251405 0.0024553954 -0.028097969 -0.032654736
0001b0 ae 3d 4d 3c f6 49 21 3c 50 e6 dc 3c 90 44 9d 3c
       0.012526913 0.009844294 0.02696529 0.019197732
0001c0 bc a7 85 3c cb b5 41 bb 3e 53 7c 3b d6 1f 9f 3b
       0.016315334 -0.002955782 0.0038501765 0.00485609
0001d0 27 4e 25 3c 34 64 0a bc f6 9b a3 3c 20 dd 8b bc
       0.010089434 -0.008446742 0.019971829 -0.017073214
0001e0 1f 8a e2 3c de 9c 3f bd 7a ee 08 3d 26 33 21 3d
       0.027653752 -0.04678046 0.033430554 0.03935542
0001f0 ae f6 05 3d 02 14 21 bd 49 a9 f2 bc ab fa a1 bc
       0.032705955 -0.03932572 -0.029621737 -0.019772848
000200 41 3b 13 3d 88 36 46 3c a4 df 2c bd c5 96 87 bc
       0.03594518 0.012097962 -0.042205468 -0.016551385
000210 92 4c 24 3d 48 d3 9d 3b cd 2c 0e bd c8 2d 40 bc
       0.040112086 0.0048164465 -0.034710694 -0.011729665
000220 33 0b 30 3d 06 37 b4 3c 2e d3 c7 3c 8e 58 81 3c
       0.04297943 0.021998893 0.02439269 0.015789296
000230 c0 ec 38 3c 60 54 0f bb 9a e3 a6 3c 29 4b d3 3c
       0.011286914 -0.002187036 0.0203722 0.025792675
000240 07 4e f5 3c e2 37 af bc a7 84 26 bd ba af 03 3d
       0.029944433 -0.021388952 -0.04065385 0.032150008
000250 a0 87 74 3c 6e 38 d4 3c 5a a4 40 bd f9 70 1b 3c
       0.014924914 0.025905814 -0.047031738 0.009487384
000260 af 25 2a 3d a4 6d 2c bd b5 15 e3 bb f9 2b c3 3a
       0.041539844 -0.04209675 -0.006930078 0.0014890424
000270 90 6b 22 bd 7d df 2c 3d e3 b4 ae 3c e4 14 8c 3c
       -0.03965336 0.042205323 0.021326488 0.017099805
000280 ec 9b 12 bb 02 9c cc bc 44 06 d8 3b 91 8f 85 bc
       -0.0022370769 -0.024976734 0.006592544 -0.01630381
000290 d3 90 de 3c 4e 61 ba 3c d0 3b 72 bc 6d 97 ed 3c
       0.027168667 0.022751477 -0.014784768 0.02900287
0002a0 a0 67 6b 3a 1f 83 21 bd c3 e4 25 3c 56 b1 01 3d
       0.000897998 -0.039431687 0.010125342 0.03166326
0002b0 05 a4 c2 3c 90 86 9e 3b 60 1f bc bc d3 a9 11 bd
       0.023759851 0.0048378184 -0.02296418 -0.035562348
0002c0 8a 0b 1c bd 11 2c a1 bc 96 3d 2a bd 17 56 e3 bc
       -0.038096942 -0.019674333 -0.04156264 -0.027751012
0002d0 ab c6 00 3d c8 73 17 3a 96 9e 1f 3d 6c 51 c5 bc
       0.031439465 0.00057774456 0.0389696 -0.024086677
0002e0 c6 13 b2 3c 60 30 04 3b 80 80 c4 3a 8f 84 23 3d
       0.021737944 0.0020170435 0.0014991909 0.03992134
0002f0 4b 3e 2e bd 80 bf 81 bc c0 cf 7c ba 18 7a b7 bb
       -0.042539876 -0.015838385 -0.0009643994 -0.0055992715
000300 69 22 96 bc 17 9e bc bc 98 2a 1d bd 35 b5 1c bd
       -0.018326955 -0.023024602 -0.0383707 -0.03825875
000310 75 7f c1 3c 06 8c 81 3b 2e 5a 11 bd 62 4f 0c bd
       0.023620347 0.0039534597 -0.035486393 -0.034255393
000320 c2 9d d4 bc 8a ba 16 bc 42 e7 ae 3c dd 19 21 bc
       -0.025954131 -0.009199748 0.021350507 -0.009832826
000330 14 fc ec bc e6 42 da bb 18 5b 30 bd 87 fd c5 bc
       -0.028928794 -0.006660807 -0.043055624 -0.024168743
000340 34 c3 03 bd de f4 61 bc 03 ab cf bc 23 a1 bd bb
       -0.032168582 -0.013791291 -0.0253501 -0.0057870313
000350 8e f5 1d 3d 04 56 f5 3b 08 70 5c 3c 79 04 1e bd
       0.038564257 0.0074870605 0.013454445 -0.038578484
000360 48 c2 08 3d 7d af c1 bc 00 3d 91 bb e6 6e 27 bc
       0.033388406 -0.02364325 -0.0044323206 -0.010219311
000370 38 f4 a3 bc 97 0c 8a bc 67 5d 1a bc 99 0c fe 3c
       -0.020013914 -0.016851706 -0.009421683 0.031011866
000380 76 ab 2b bd ca 77 68 3b 88 1f 83 3c ba cb 18 3b
       -0.041911565 0.003547179 0.016006246 0.002331479
000390 98 4d 01 bd d6 e3 c7 3c 73 a3 ff bc 88 8a a0 bb
       -0.03156814 0.024400633 -0.031205868 -0.0048993267
0003a0 25 31 1b bd 25 c5 50 3c 26 a3 d6 3c 10 75 86 bb
       -0.037888665 0.012742315 0.026200842 -0.0041033104
0003b0 e1 ba 27 3d 95 f2 fe bc e0 cc c8 bb 2a cd 77 3b
       0.040949706 -0.031121532 -0.0061279386 0.0037811496
0003c0 e9 47 f1 bc 44 80 7c bc f9 6f 21 bd 20 29 b0 3c
       -0.029453235 -0.01541144 -0.039413426 0.021503985
0003d0 ab 19 b0 3c 2d f5 71 3c 02 88 19 3d b9 aa fd ba
       0.021496614 0.014767927 0.037483223 -0.0019353247
0003e0 05 6d a8 bc 33 74 25 bd e1 08 a9 3c aa 04 03 bd
       -0.020559797 -0.04039402 0.020634117 -0.03198687
0003f0 a7 db bc 3c 6e 16 18 bd ae b8 17 3d 9d 31 bb bc
       0.023053957 -0.037130766 0.03704136 -0.022850806

fc_state.0.bias f4 [64]
000000 25 1e f5 b9 a2 61 df bc 12 02 c0 3c 7d 86 e7 bc
       -0.000467525 -0.027268235 0.023438487 -0.028262371
000010 2a 70 12 3c 6a b1 c5 bb 7d 02 5d bc 9b 48 e2 3c
       0.008937875 -0.0060331123 -0.013489363 0.027622512
000020 43 dd c9 bc 7c b7 04 3d d1 ce 4c 3d bc 2c e4 3c
       -0.024641639 0.032401547 0.050001923 0.027853362
000030 dc 21 be bb 92 5f 86 3d e7 15 ec 3c eb 64 b1 3c
       -0.005802376 0.06561197 0.028819038 0.021654567
000040 bf 98 ca bc bf 5c 2e bd b9 b4 34 bd a2 34 ea 3a
       -0.024731038 -0.04256892 -0.044117663 0.0017868469
000050 78 44 2f bd d5 ec c5 bc 95 30 8c bc 56 ee da bc
       -0.042789906 -0.024160782 -0.01711301 -0.026724976
000060 e8 87 c5 3c 59 df 64 3d b5 26 90 3c 79 d5 f6 3b
       0.024112657 0.055877063 0.017596582 0.007532772
000070 74 ed 0e bd c2 dd 44 3d 57 87 92 bc 31 5a e1 bc
       -0.03489442 0.048063047 -0.0178868 -0.027508827
000080 5f 74 20 bd 2c 34 e3 bc a1 41 14 bd 95 61 28 bb
       -0.03917348 -0.027734838 -0.0361954 -0.002569293
000090 e0 6f c4 bb b3 4b 35 bd bc 9d b1 3c ea 06 46 3d
       -0.005994782 -0.044261646 0.021681659 0.048346438
0000a0 b7 25 04 3b 2d 4f 29 bd 9f 26 e2 3c c1 a6 c6 bc
       0.0020164081 -0.041335274 0.027606307 -0.024249436
0000b0 98 da 13 3d 3a b2 3b bb 7e 6a a5 bc d4 c8 f1 3b
       0.03609714 -0.0028640167 -0.020192381 0.007378677
0000c0 41 49 ec bb 9f d3 dc 3c 96 38 23 bd 57 d5 14 3c
       -0.007210881 0.026956378 -0.039848886 0.009084067
0000d0 b2 d1 9e bc 2a 59 61 bd eb 91 80 3d 03 a6 e9 bc
       -0.0193871 -0.055016674 0.06277832 -0.028521543
0000e0 35 1e e2 bb 98 15 9b 3d 74 7d 84 bc 16 1b b8 ba
       -0.0069005736 0.07572478 -0.016173102 -0.0014046158
0000f0 83 a7 87 bd 22 71 88 3c 27 cf 97 bc 3e dd 50 bc
       -0.06623747 0.016655508 -0.018531395 -0.012748061

fc_state.2.weight f4 [32, 64]
000000 23 74 e5 bd 9c 5c c0 3d 00 79 be 3c 7a 85 42 3d
       -0.11203792 0.09392664 0.023251057 0.047490574
000010 e8 10 e8 3d 8f f6 a7 bd 60 85 33 bc 55 c1 eb 3c
       0.113313496 -0.08201324 -0.010957092 0.028778711
000020 0d 4d d5 3d 31 58 d5 bd 8b 0c 61 3d 52 5d 8b 3d
       0.10415087 -0.10417212 0.054943603 0.06804909
000030 e1 be fb bd ec 2c d7 bd 5c fa 58 bd f0 81 8c 3d
       -0.12292267 -0.10506615 -0.052973136 0.06860721
000040 2f da ef bd ae de e3 3d e9 99 8a 3d 9c b8 f9 b8
       -0.11711537 0.11126457 0.06767637 -0.000119076314
000050 53 95 dc bd 06 b0 12 3d b5 cd b2 bd a4 d5 39 bd
       -0.10770669 0.0358124 -0.08730642 -0.04536976
000060 8b b9 e8 3d 8d 32 67 3d 95 21 53 bc e6 4b 84 3d
       0.113635145 0.056444693 -0.012886425 0.06459789
000070 0d cb f6 3c c2 f6 85 3d bd df c0 3a 15 cf fb 3c
       0.030126119 0.06541206 0.0014715117 0.030738393
000080 ce 3e 2a 3d d5 c5 11 bd c1 0a d7 bd 77 d4 c2 bc
       0.0415638 -0.035589058 -0.10500098 -0.023782952
000090 33 d4 dc bd 90 d6 77 3c f3 e0 0e be 8c d5 36 bd
       -0.10782661 0.015126839 -0.13952999 -0.044637248
0000a0 8a e6 8f 3d 43 fd 24 bc 7f 4b a6 3d 8b 0c 2b bd
       0.07026394 -0.010070148 0.081198685 -0.04176001
0000b0 69 a2 5f bc b9 cc 38 bc f8 03 91 bd ba 03 40 bd
       -0.013649561 -0.011279278 -0.07080835 -0.046878554
0000c0 ed e3 aa 3d de 0e dc 3d 5f 7d e1 3d 7b 73 61 3d
       0.08344255 0.10745023 0.11010241 0.05504177
0000d0 f9 a3 bb 3d 23 22 b9 3d 99 94 ab 3c 89 96 c4 bd
       0.09162135 0.09039714 0.02094488 -0.09599025
0000e0 c9 60 e1 3c ef 25 0d bc 8e b0 d9 3d 9a 39 83 bd
       0.027511971 -0.008615001 0.10629378 -0.06407471
0000f0 0e 70 e2 3d 4c cf 30 bb d0 b7 1e bd 60 7f f0 3d
       0.11056529 -0.0026979027 -0.038749516 0.11743045
000100 31 26 c5 3d 82 f7 f8 bd 50 2a 8c 3c d1 49 3a 3b
       0.09626425 -0.12156583 0.01711002 0.0028425346
000110 8d 9e 85 3d 27 e2 8d 3d 4f 1c d9 3c 67 c3 8c bd
       0.06524382 0.06927901 0.026502756 -0.068732075
000120 04 94 b0 bd e8 f1 e5 bd cc b7 dc 3d 7d bb 54 3d
       -0.08621982 -0.112277806 0.10777244 0.051936615
000130 5a 50 94 3d 07 b5 d3 3d 54 33 14 bc e0 eb a9 3c
       0.07241888 0.103372626 -0.009045441 0.020742357
000140 02 77 0d bd fa ac 52 3d f1 dd 28 3b dd 26 f1 bb
       -0.034537323 0.051434495 0.0025767053 -0.007359369
000150 64 6f ba bb 33 1a 33 3d 53 e1 05 3d 8c cb 62 3c
       -0.0056895483 0.043726157 0.03268559 0.013842475
000160 a5 8f 4b bc ab 0c f7 bc 47 b9 98 3d e1 19 c4 3c
       -0.012424384 -0.030157408 0.07457214 0.023938121
000170 f7 12 a0 3d f7 06 01 3e 8e a7 bb bb d3 ca 62 3d
       0.07816117 0.12600313 -0.005726761 0.05536921
000180 36 69 39 3d e6 4a ff 3d eb ed 75 3d 04 58 d1 bc
       0.045266353 0.124654576 0.06004135 -0.025554664
000190 b2 f2 29 3e 72 22 f5 bd b0 c6 b1 3d f4 40 14 bc
       0.16596487 -0.119694605 0.08680475 -0.009048689
0001a0 b4 d9 e1 3d 97 c6 68 3d 46 c8 63 3d 8f 66 c9 bd
       0.11027852 0.056830015 0.055610918 -0.098340146
0001b0 fd df 9b bd 8d 76 86 bd 19 08 d1 3d d6 33 8a 3d
       -0.07611082 -0.065655805 0.10206623 0.06748168
0001c0 b7 e8 5b 3c 96 58 89 3d 99 70 9d bc 93 4b a8 3d
       0.013422183 0.067063496 -0.01921873 0.0821754
0001d0 03 7c 0a bd cd 14 49 3d 26 37 94 3a 42 92 d5 bc
       -0.033809673 0.049092103 0.001130794 -0.026070718
0001e0 85 22 45 bd cd ba 28 3d b4 a5 c8 bd f3 83 dd bd
       -0.048128624 0.041193772 -0.0979723 -0.10816183
0001f0 68 cf 3f bd 07 94 9f 3d b1 e0 84 bc 2e 2e e0 3d
       -0.046828657 0.07791906 -0.016220422 0.10946308
000200 91 86 dc 3d 53 88 2a bd cf 95 31 bd e9 3e d6 3d
       0.10767854 -0.041633915 -0.04335576 0.10461218
000210 a3 3f b6 3d cf fa e6 3d 3d eb 8c bd 67 bf 85 bd
       0.088988565 0.11278307 -0.06880806 -0.06530648
000220 a5 55 90 bd f0 bd 8a 3d 3c 03 94 bc e2 13 e2 bd
       -0.070475854 0.06774509 -0.018067949 -0.110389486
000230 e0 6e 90 bd 60 93 c4 bd 9b b3 9d bd 82 60 33 3d
       -0.07052398 -0.09598422 -0.07700273 0.04379321
000240 17 87 ad bc 00 6f 06 3d f1 86 a5 bd 6c c2 92 bd
       -0.02118258 0.0328207 -0.08082379 -0.07165989
000250 d1 58 f8 bd ff 8d 8f 3d 52 6e b4 3d 62 54 7d bd
       -0.121263154 0.070095055 0.088101044 -0.06184805
000260 aa ba bb bd 9c 00 d8 3a 84 97 ed bd 42 c1 f2 3d
       -0.09166463 0.0016479674 -0.11601165 0.11853267
000270 29 68 4d bd 7e 93 b6 3d 46 83 7d 3d 30 55 25 be
       -0.050148163 0.08914851 0.06189277 -0.16145778
000280 1d 3b cd 3d 7e c7 cc bc 40 b1 f6 bd 96 3e 8a bc
       0.100210406 -0.024997469 -0.120455265 -0.016875546
000290 17 72 51 bd 72 e4 d7 3d 7f 24 7e 3d 5b cb 74 bd
       -0.051134195 0.10541619 0.062046524 -0.059764247
0002a0 71 17 e3 3d 0b a2 30 bc 8a 65 e4 3d d1 c9 f9 3d
       0.110884555 -0.010780822 0.111521795 0.121966965
0002b0 ec 6d 3b bd 83 85 ca bd 66 7d f0 bd 13 20 b4 bc
       -0.045759127 -0.098887466 -0.11742668 -0.02198795
0002c0 77 0b 37 3c ec 53 8e 3d 12 0a 46 bc 92 82 ea bc
       0.011172167 0.069496006 -0.012087362 -0.028626714
0002d0 cd 79 b2 bd ba 4b e5 3d b0 3a 89 bd 5c 2e 8f 3d
       -0.08714638 0.11196084 -0.06700647 0.06991264
0002e0 ae 48 91 bd 86 95 f7 bd d4 7a 40 bd 94 3e 21 39
       -0.07093941 -0.12089066 -0.046992138 0.00015377469
0002f0 c1 af 9e bb fa fe 56 3d 98 15 d5 3c 5f 7a 9a 3d
       -0.004842729 0.05248926 0.026011273 0.07542872
000300 42 4d f4 3d 5b 12 eb bd e1 61 84 bd d5 28 4f 3d
       0.11928798 -0.114781104 -0.064639814 0.05057605
000310 6a 7f 6e 3d 08 2e bf 3c f3 9f 3e bd 54 b2 a2 3d
       0.05822698 0.02333738 -0.04653926 0.0794417
000320 05 30 e3 bd a9 67 50 3d cc d5 20 bc 24 c2 d3 bc
       -0.110931434 0.050880108 -0.009816598 -0.02584941
000330 1f d6 88 bd 7b 23 ea 3c 5a ae 1d 3d d3 13 00 be
       -0.06681465 0.028581372 0.038496353 -0.12507562
000340 cf 6d b5 bd c7 a1 2a bd 39 2e 72 3d 75 57 e9 3d
       -0.08858835 -0.04165819 0.059126113 0.11393634
000350 f2 a7 8f ba 8c 4e 9e bd 18 3e 59 bc c8 54 3a bd
       -0.0010960086 -0.077298254 -0.013259433 -0.04549101
000360 d0 cf 13 3d bf a7 65 3d 7c 1e c3 3d 55 de b7 ba
       0.036086857 0.05606818 0.09527299 -0.0014028052
000370 40 f1 7a 3d e2 9a 2d bd 22 17 e9 bd 0b 7c a9 bd
       0.06126523 -0.042384036 -0.11381365 -0.082756124
000380 db 04 bd bd 31 28 0e bd 05 86 9e 3d cb 4f 30 bd
       -0.09229442 -0.0347063 0.07740406 -0.043044847
000390 cf a6 b2 3d 1e 42 48 bd d5 eb a9 bd ce 01 6c 3d
       0.087232225 -0.04889118 -0.082969345 0.05761891
0003a0 02 4a af 3d 0d d9 4b 3d 57 dd 13 3c ae 2b 85 3d
       0.08559038 0.049767543 0.0090249395 0.06502472
0003b0 37 34 23 bd dc 3c e9 bd 3c 1d a8 bd 28 b4 6e bb
       -0.039844718 -0.11388561 -0.08208701 -0.00364233
0003c0 19 2d 74 3d 5d bf 95 3d 02 01 0a 3c 66 43 03 bd
       0.05961332 0.0731189 0.008423092 -0.032046698
0003d0 9b f9 90 bd 00 04 ec 3d 47 c9 71 3b 4f 07 ba bd
       -0.070788585 0.115242004 0.0036893652 -0.09083425
0003e0 fc 5e f0 3d f6 ab 00 3e 1a 52 3a bd ef 46 a4 3d
       0.11736867 0.12565598 -0.045488454 0.08021342
0003f0 9c d7 91 bd df 4f cb bb 8b 6c b2 bd 54 80 b0 bd
       -0.07121202 -0.0062045897 -0.08712109 -0.08618227

fc_state.2.bias f4 [32]
000000 4c 50 06 3e 7f 05 8c 3d ae cd 98 bd 17 d6 90 3d
       0.13116568 0.06836986 -0.07461105 0.070720844
000010 e4 7c 00 be 98 32 1f 3e 26 26 9f bd 3c 89 4e bd
       -0.12547642 0.15546644 -0.07770948 -0.050423846
000020 0d ad 99 3c ad 36 98 3d 82 67 9f bd 1a 62 0b 3e
       0.018759275 0.074323036 -0.077834144 0.13611642
000030 a3 e5 df bd 99 43 22 3e 2d d7 ef 3d cc 69 02 be
       -0.109324716 0.15846099 0.117109634 -0.12735671
000040 a6 4c 37 bd 58 30 a5 bd 32 02 b4 3d dc dc db bc
       -0.044750832 -0.080658615 0.08789481 -0.026838712
000050 f5 28 3b bd f4 88 0e bd 05 bc f9 3c 59 ce 9e 3d
       -0.045693357 -0.034798577 0.030485163 0.077542014
000060 2b d8 f8 3d fb 58 1c bc 75 a6 16 3e 13 d6 e1 3d
       0.12150606 -0.009542699 0.14711936 0.110271595
000070 01 73 64 3c 64 50 b0 3d 57 2b f6 3c 56 7c a6 bd
       0.013943435 0.08609083 0.030049963 -0.08129184

fc_state.4.weight f4 [1, 32]
000000 4a 36 eb bd 6b 8b c3 3d 22 7d bc 3d b7 0b 86 bd
       -0.11484964 0.09548076 0.09203555 -0.06545203
000010 62 20 1f be fd 4e f2 bd 34 3b 1d bd 65 be 02 be
       -0.15539697 -0.11831472 -0.03838654 -0.12767942
000020 57 59 c1 bd 54 a0 16 be 5c cc 03 3e 94 54 2e bd
       -0.09440868 -0.14709598 0.12870926 -0.04256113
000030 60 6e d0 bd 1d ab 9c bd 39 28 67 3d 67 b0 0d 3c
       -0.10177302 -0.07649825 0.056434844 0.008648015
000040 fc 20 66 bc 0d cb a9 bd d5 8f d1 3d fa b2 e3 3c
       -0.01404595 -0.08290682 0.10232512 0.027795304
000050 5a 2f 0b 3e f6 2b fe 3d 13 a0 a4 bd 9b f9 23 bc
       0.13592282 0.12410729 -0.08038344 -0.010008241
000060 c3 e1 0a bd 45 bf 05 be 38 73 37 bd 86 b4 18 be
       -0.03390671 -0.13061245 -0.044787616 -0.14912614
000070 90 63 f7 3c a8 82 8f bb 30 36 c0 3d 76 2f 29 be
       0.030198842 -0.004379589 0.093853354 -0.16522011

fc_advantage.0.weight f4 [64, 512]
000000 c8 42 12 bd bd 26 19 bd 25 a7 dd bc 70 73 7c 3c
       -0.03570822 -0.03739046 -0.02705724 0.015408382
000010 8b 9c be 3c 70 34 dc bc c9 21 0b 3c 96 8b f3 3c
       0.023268005 -0.026880473 0.008491942 0.029729646
000020 b8 5c 85 3c 55 a0 c9 bc 32 0b f2 bc 41 53 42 bd
       0.016279563 -0.024612585 -0.029546354 -0.04744268
000030 d5 16 78 bc 2f 65 35 bd f7 e0 2e bd 39 36 00 3c
       -0.015142162 -0.04428595 -0.042695012 0.007825428
000040 47 c4 47 bd 6b 7e 08 bd c5 0a d5 3c e7 e5 9d 3c
       -0.04877117 -0.033323687 0.026006112 0.019274665
000050 89 ae 10 3d 27 d1 bc 3c f0 67 e4 bc ca e8 16 bd
       0.0353227 0.02304895 -0.027881593 -0.0368431
000060 53 a0 69 3c 70 f0 78 bc d6 b3 21 3d 31 fe ac 3a
       0.014259416 -0.0151940435 0.039478146 0.0013198314
000070 f2 fe 1f bd d6 de 2c bd f8 f6 f6 3c b7 6b cb 3c
       -0.039061494 -0.0422047 0.03014706 0.024831636
000080 4a 9d 06 3d 00 b1 a1 bc c4 59 e9 3c d4 e9 15 bd
       0.032864846 -0.01973772 0.028485186 -0.03659995
000090 7e f6 af 3c bf 67 0b bd 56 8b 21 bc 06 67 e3 ba
       0.021479841 -0.034034487 -0.00985988 -0.0017349429
0000a0 3d 4b 53 3c 97 fa f0 bb 49 58 f5 3b 83 77 d5 bc
       0.012896356 -0.0073540914 0.007487331 -0.026057964
0000b0 45 82 96 bc e5 e4 d6 3c 8f f2 e3 3c a7 5b 38 bc
       -0.018372664 0.026232192 0.027825622 -0.01125232
0000c0 04 1e 61 3c 27 8c 99 bb 37 b2 29 bc d9 11 2f bd
       0.013740066 -0.004685897 -0.010357431 -0.04274163
0000d0 3d a4 ab 3b 10 ca 9a bc 66 99 82 bc 87 89 13 3d
       0.0052380846 -0.018895179 -0.015942287 0.03601983
0000e0 5d 00 09 bd 56 2b ec ba e9 ac 84 3c 45 ec 18 bd
       -0.033447612 -0.0018018286 0.016195731 -0.0373347
0000f0 f0 9e 07 bd 46 b4 a1 3c e8 39 3f bb 64 13 16 3d
       -0.03311056 0.019739281 -0.0029178802 0.036639586
000100 6e c2 13 bc 09 27 20 bd b7 52 dc bc 84 d8 e8 bc
       -0.009018524 -0.039099727 -0.02689491 -0.028423555
000110 3c 8f ca bc a9 de 80 bc f3 77 2a bd 91 17 ab bc
       -0.024726503 -0.015731173 -0.0416183 -0.02088526
000120 ff 9d 25 3b 60 a1 62 3c d1 75 ea bc 3f e6 0e bd
       0.0025271175 0.01383242 -0.028620632 -0.03488755
000130 3f 7f ce bb c2 b0 22 bd 84 e0 a9 3c f9 d7 40 bd
       -0.00630179 -0.03971935 0.02073694 -0.047080968
000140 e3 32 85 3c ae dc 02 bd 60 42 c8 bb 20 da 12 3b
       0.016259616 -0.031948738 -0.006111428 0.0022407845
000150 5c db 4e bd fb a7 0a 3d a6 ee 0a bd ab 5c f4 bc
       -0.050502166 0.033851605 -0.033919 -0.029829344
000160 bd cd 82 bc fc 27 76 bc a1 ff c8 3c 53 af 18 3d
       -0.015967244 -0.015024181 0.024535956 0.037276577
000170 23 94 e5 3c 35 7d 81 bb 78 85 01 bd 00 95 4e b9
       0.028024739 -0.0039516934 -0.031621426 -0.00019701198
000180 2b 15 9f 3c 3a 97 e5 3c 98 3a 91 3c ce ee 9e 3a
       0.019419273 0.028026212 0.017728135 0.0012125613
000190 ea d6 0f 3d 33 d8 9e ba 56 97 28 3d 08 09 23 3d
       0.035117067 -0.0012118876 0.04115995 0.039803535
0001a0 32 24 53 bc a6 bb 1c b9 59 f5 25 bb 09 00 8b 3c
       -0.012887048 -0.00014947224 -0.002532324 0.01696779
0001b0 46 2e bb 3c 99 f8 23 bd 87 86 ae 3c 37 36 af 3c
       0.022849213 -0.040032003 0.021304382 0.021388156
0001c0 32 0c be 3b c6 23 9b 3c b5 4b a8 bc 87 70 8a 3c
       0.0057997936 0.018937957 -0.020543912 0.01689936
0001d0 22 61 a0 3c 66 fb 65 bc 35 23 be bc 26 ae 05 3d
       0.019577567 -0.014036989 -0.023210147 0.032636784
0001e0 b5 61 50 bc 06 2a 35 bd 00 e9 0f 3c 69 05 d3 3a
       -0.012718608 -0.04422953 0.008783579 0.0016099635
0001f0 cb 65 35 bd e5 5e 21 bd 7b cb a4 3c 03 9a e8 3c
       -0.04428653 -0.03939714 0.020116558 0.028393751
000200 fe cb 81 3c de 8a 77 bc e8 49 d1 3c 98 75 83 3c
       0.015844341 -0.015108792 0.025547937 0.016047284
000210 e3 d1 8d bc 4a b8 e3 bc 87 25 f5 bc 98 2c 2f bb
       -0.017311996 -0.027797837 -0.029925121 -0.002672946
000220 74 64 fa b9 84 81 0d 3d 34 36 11 bd 92 cd 7f bc
       -0.0004775856 0.034547344 -0.035452083 -0.015612977
000230 e8 61 08 3d a4 3f e3 3b 1d b4 75 bb 5d 7c 27 bd
       0.033296496 0.006935077 -0.003749139 -0.040890086
000240 30 92 e3 3b 44 c3 04 3d 2f 50 29 3b dd 41 c4 3b
       0.006944917 0.032412782 0.0025835147 0.005989297
000250 2d 2c 2a 3c 80 45 5b bc 98 f7 5b 3c 73 2f 4c 3c
       0.010386509 -0.013383269 0.01342573 0.012462485
000260 5d 82 e3 bc 94 ee 1f 3c 24 e8 d7 3c a6 d0 8f 3c
       -0.027772123 0.009761471 0.02635581 0.017555546
000270 2c 90 09 3d c3 6a 08 3d c1 f1 2e bd 09 d2 8e 3c
       0.03358476 0.03330494 -0.042711023 0.017434137
000280 47 c5 5e 3c 98 b0 bb bc d9 d9 1f bd 6c 33 3d 3c
       0.013596839 -0.022911355 -0.039026115 0.011547904
000290 06 13 45 bc 9f d3 13 bc ff 27 29 bd 76 c3 48 bd
       -0.012028461 -0.009022622 -0.04129791 -0.04901453
0002a0 dc f6 9e ba f2 fc 11 3c 4d f4 c1 bb 69 dc 1b bb
       -0.0012128013 0.0089104045 -0.0059190155 -0.0023782498
0002b0 42 05 f2 3c 59 f1 89 3b 04 4c c4 bc 16 b6 89 3c
       0.029543523 0.004209679 -0.023962028 0.016810458
0002c0 39 90 18 3d 8a 0b c3 bc f3 b2 33 3d 00 61 09 bb
       0.037246916 -0.023809213 0.04387183 -0.0020962358
0002d0 1a db f6 bc ae a4 9a bb 40 ff 24 3d f3 5a 1f 3d
       -0.030133773 -0.0047193384 0.040282488 0.038905095
0002e0 7c d8 27 3d 17 a4 1d bc da 39 27 bd f1 3e 21 3d
       0.04097794 -0.009621642 -0.040826656 0.039366666
0002f0 08 cc 16 bd 98 e2 fd 3b f5 ad bf bc 38 ae 39 bc
       -0.036815673 0.0077479593 -0.023398379 -0.011333041
000300 36 18 2d bb fd ec 46 bd 4f 4e 9c 3c e8 85 ae 3c
       -0.0026412136 -0.048565853 0.01908031 0.021304086
000310 4c 88 80 3c f7 37 06 3d 99 b1 a8 3b ac 45 a4 bc
       0.015689991 0.032768216 0.0051481244 -0.020052753
000320 25 9d b2 3a 54 ae 3c 3c 53 fa af 3c f2 72 41 bc
       0.0013627155 0.011516172 0.021481669 -0.01180719
000330 63 09 e7 3c a2 69 96 3c ee 2f 32 3d 36 3e 9c 3c
       0.028202718 0.018360917 0.04350274 0.019072633
000340 c0 c2 53 bb ce 24 8b 3c 29 e9 28 3d c4 59 ba 3c
       -0.0032312125 0.016985323 0.041237984 0.022747882
000350 98 22 e3 bc 69 e6 a6 bb 0c ed 7a 3b 75 2f dd bc
       -0.027726457 -0.005093385 0.0038288264 -0.027000168
000360 10 0c 09 3d 70 19 72 bc 22 f4 15 bd 18 59 6d 3c
       0.03345877 -0.014776573 -0.036609776 0.014486574
000370 e1 84 c1 3c e4 87 9d 3c 47 06 a4 3c f3 96 4c bd
       0.023622932 0.019229837 0.020022525 -0.049948644
000380 cf bd b7 3b fc 6c eb bc 0e 1f 15 3c 04 3d 19 bd
       0.0056073437 -0.028738491 0.009101642 -0.037411705
000390 72 ad 4c bc 70 58 1f bc 9a b8 2f bd 3e 2d 05 3c
       -0.012492524 -0.009725675 -0.04290066 0.008128462
0003a0 da 88 bc bc f0 81 13 bc 89 38 05 bb f6 bb 71 bc
       -0.023014475 -0.0090031475 -0.0020327887 -0.014754286
0003b0 63 d7 75 3c 33 12 02 bd 78 84 1a bd 80 04 ef 3c
       0.0150049655 -0.031755637 -0.03772399 0.02917695
0003c0 f0 6c 48 bb ab f9 01 3d 0b 60 0b bc 2e 7f d5 bc
       -0.003058251 0.031732243 -0.008506785 -0.02606162
0003d0 31 10 9e 3c 91 b2 8f bc bb d5 30 bd f8 53 b1 3c
       0.01929483 -0.017541202 -0.04317258 0.021646485
0003e0 9f e7 24 bd c9 c3 20 bd e4 59 11 bd 0e c8 1c bd
       -0.040259954 -0.039249215 -0.035486117 -0.038276725
0003f0 ae 5c 90 3c b5 36 17 3d a9 89 3a bd 68 bb e6 3c
       0.017622318 0.036917407 -0.04554144 0.028165534

fc_advantage.0.bias f4 [64]
000000 20 df 41 bd 43 00 49 3c ee d2 00 be 43 3a 34 3c
       -0.04733193 0.012268129 -0.12580463 0.011000219
000010 25 98 e9 bd 4e 72 b6 bd 36 bf f1 3c 00 f2 d7 bc
       -0.114059724 -0.08908521 0.029510122 -0.026360512
000020 eb 9e bc bc 6e fa e8 bc 8e ed 31 3e a3 0c bd 3a
       -0.023024997 -0.028439727 0.17375776 0.0014423322
000030 9d a8 55 3d 83 10 f8 3b df 61 48 3c e3 00 69 bd
       0.052162755 0.0075703277 0.012230366 -0.05688561
000040 b7 da 49 bd 02 43 45 bc 22 88 fd bb 16 4d 6c 3d
       -0.04928085 -0.012039902 -0.0077371756 0.057690702
000050 95 1b 3d 3d 37 2a b7 3d a9 79 1c bd 4b eb 04 3d
       0.046168882 0.08943599 -0.03820196 0.032450955
000060 0d 0e 53 3e 4f bd 8a bc 60 2e 51 3d 95 e7 8f 3d
       0.20610829 -0.016935972 0.051069617 0.07026593
000070 4a 2b 4a 3d 35 f3 48 bd 57 91 27 3c c9 97 00 3c
       0.04935769 -0.049060065 0.010227523 0.007848688
000080 41 c8 46 3e fb 92 90 bc 33 93 26 3e a9 15 d7 bd
       0.19412328 -0.01764821 0.1626709 -0.10502178
000090 c1 c7 10 3c fd 2f a0 3d ff 71 7e bd 07 49 3c 3d
       0.008836688 0.07821653 -0.062120434 0.04596808
0000a0 be 76 3a 3e 65 5c d2 3a 4a 9b 52 3d eb 6e 2e 3d
       0.18209359 0.0016049264 0.051417626 0.04258625
0000b0 c5 a9 4f bd ef 64 49 bd 0f 87 cd bb 76 5c 0f bc
       -0.050699014 -0.049168523 -0.0062722038 -0.008750072
0000c0 58 e2 0e 3e fa ad 81 3d 19 f3 2f 3e e2 71 58 bc
       0.13953531 0.063320115 0.17182578 -0.0132107455
0000d0 09 c1 10 3e a2 07 22 3d f1 7c 72 bc b0 d6 57 bd
       0.14136137 0.03955806 -0.014800296 -0.052694976
0000e0 75 0b ce 3d 8d 20 02 3e 76 a6 ce 3c 03 de 19 bd
       0.10060779 0.1270773 0.02522586 -0.037565242
0000f0 d3 af 1b bd 6a bc 10 bd 8e 90 d0 bc 57 f8 0e bd
       -0.038009476 -0.035335936 -0.025459554 -0.034904804

fc_advantage.2.weight f4 [32, 64]
000000 7a 20 c8 bd 59 37 ef bd 6e d6 ad 3d e0 3a b5 bd
       -0.097718194 -0.116804786 0.08488165 -0.0884912
000010 c8 76 87 3c 6b 60 a5 bd 7d 65 3e bd 4d 0e d7 3d
       0.016536132 -0.08075031 -0.046483506 0.105007745
000020 d8 1a 2f bd 15 cf a8 3d 00 76 58 bd 5c ba e9 ba
       -0.04275021 0.08242623 -0.05284691 -0.0017832029
000030 cc af 69 3d 80 84 81 bc 1e 0a d7 3d 65 76 8a bd
       0.05705242 -0.015810251 0.104999766 -0.06760863
000040 45 ee 9a bd bb dd 5d 3d e6 18 50 3d e1 ad f3 3d
       -0.075649776 0.054166537 0.050804995 0.11898399
000050 41 91 b7 bc 1f 00 c0 bd 25 50 c2 bd d9 b1 56 bd
       -0.02240813 -0.09375023 -0.094879426 -0.052415702
000060 55 ee 5b 3d f9 be ae bd 10 5c 8a bc f2 da c1 3c
       0.053694088 -0.08532519 -0.016889602 0.023663972
000070 40 48 07 bd 96 07 e2 bc d1 cf cb 3d 1c d0 01 bd
       -0.033027887 -0.027591508 0.09951747 -0.03169261
000080 5d fb 8e 3c 8f 64 d8 bd 0b b9 02 bd 93 9c 98 bd
       0.017453844 -0.10566055 -0.031914752 -0.07451739
000090 d9 8c 31 3c 0f 70 ad bd fc b1 43 3d 07 bd f9 bd
       0.010836803 -0.08468639 0.04777716 -0.12194257
0000a0 07 eb 8c bd 92 e3 0e 3d a0 f9 35 bd 94 2e 6b bd
       -0.068807654 0.034884997 -0.044427514 -0.057417467
0000b0 97 66 89 3d 75 77 86 3d 91 b1 8d bd 92 60 82 bd
       0.067090206 0.06565753 -0.06918634 -0.063660756
0000c0 aa a4 2a bc e3 fc d4 bd 43 59 05 3d 90 18 24 bd
       -0.0104152355 -0.10399797 0.03255583 -0.040062487
0000d0 e1 16 43 bd 6f 97 d6 3d 9a a5 b1 3d c5 3b 7e bd
       -0.04762924 0.104781024 0.08674164 -0.06206872
0000e0 0b e6 d8 bd 73 9a 37 bc 47 75 57 3d 29 dd e4 3d
       -0.10590752 -0.011206257 0.05260208 0.111749955
0000f0 72 84 ad 3d 40 0d c1 bc f0 8d cf bd 69 6a a1 bd
       0.084725276 -0.023565888 -0.10134494 -0.07881624
000100 fc b8 09 bd 92 df ca bd e6 db ef 3d d2 a5 e2 3b
       -0.03362368 -0.09905924 0.11711864 0.00691674
000110 b0 36 a0 bc 1e 2e c5 3c 4f f5 05 be d5 3f 5c bd
       -0.019557327 0.024069842 -0.13081859 -0.053771812
000120 0f 9f 9b 3c b4 90 7d bc d6 97 af bd 4a 66 81 bd
       0.018996743 -0.015476394 -0.08573882 -0.06318338
000130 dd 37 1d bd e7 db e9 3d 6b 0f 45 3d 40 10 0f bd
       -0.038383354 0.11418896 0.048110407 -0.034927607
000140 36 f9 f1 3d 69 7f d8 3d e0 fe 89 3d 3b 84 78 bd
       0.11815111 0.105711766 0.06738067 -0.06067298
000150 00 97 a7 bd 68 98 59 3d 20 2f aa bd 46 44 0f be
       -0.08183098 0.05312386 -0.0830977 -0.13990888
000160 8c e8 0f 3e c5 cc 41 3d 0f 93 d9 3c c7 99 b4 3d
       0.14053553 0.047314424 0.02655938 0.08818393
000170 da bd a5 3d d6 fc 89 3d 26 3a 1c bc 4b 46 fc bd
       0.08092852 0.06737678 -0.009535348 -0.12318095
000180 44 c3 31 bd eb 10 09 bd 11 de 39 bd f9 8e 78 bc
       -0.04339911 -0.0334634 -0.045377795 -0.015170806
000190 10 0e 9c bd c4 a4 c7 bd 30 0f 11 bd 23 f2 19 3e
       -0.0761987 -0.097482234 -0.035414875 0.15033774
0001a0 2d 53 a1 3b f1 9c 43 bc 20 7c 18 bd 00 73 d7 3c
       0.0049232454 -0.011939273 -0.03722775 0.026299953
0001b0 ad 48 82 3d c9 40 b3 bc 78 9b 28 bd c7 a9 de bd
       0.06361518 -0.021881478 -0.04116389 -0.10872226
0001c0 1d f0 9c 3d 3c 0f d2 bb cd 4e 1b 3c ae bf b4 bd
       0.076629855 -0.0064105075 0.009479237 -0.088256225
0001d0 89 2c b6 bd 46 23 9a 3d 49 db 62 ba 21 3f 04 3e
       -0.08895213 0.07526259 -0.0008653892 0.12914707
0001e0 f3 68 14 bc cf 8d 79 bd 85 9e f1 bd 11 31 ad 3c
       -0.009058225 -0.060926255 -0.11797813 0.02114156
0001f0 5c f5 c1 3d 31 35 e0 bc 0f ae 0d be 51 75 92 3d
       0.09470627 -0.027369114 -0.1383593 0.071512826
000200 82 71 92 bd 1e 4a 45 bd 61 5f 08 bc aa 27 3d 3d
       -0.07150556 -0.048166387 -0.008323521 0.046180405
000210 c8 2e 89 3d 0e cb b9 bc ed 6e 3a bd 3f 97 d8 bc
       0.06698376 -0.022679832 -0.045515943 -0.026439307
000220 dc 5e 9b 3d bd f3 28 bd 4d bd 3c 3c 4d 56 38 be
       0.07586452 -0.041248072 0.011519742 -0.18001671
000230 a6 00 13 3e 2b 63 24 bc ef 6f b1 39 b6 ef 6d 3d
       0.14355716 -0.010033409 0.00033843468 0.058089934
000240 96 9c 0e bd 17 b4 d1 3d bd 79 a6 bc 2b e3 1b 3e
       -0.0348173 0.102394275 -0.020321721 0.15223376
000250 38 54 fc bc 27 f8 e0 3d 1f be 70 3d c3 ca 14 bd
       -0.030801877 0.10984831 0.058775064 -0.03632618
000260 74 0a b7 3d 88 64 c9 bd a2 d1 8a bd 98 24 cf bd
       0.08937541 -0.09833628 -0.067782655 -0.101144016
000270 47 50 07 3d fb 46 2c 3d 00 3a b5 3c fc f1 31 3e
       0.033035543 0.04205988 0.022122383 0.17377466
000280 96 76 b1 bd 97 75 ac 3d 40 6a 77 bd 5d f5 1a bd
       -0.086651966 0.08420866 -0.060404062 -0.037831653
000290 d7 75 16 bc bf ed 01 3e e4 e2 0c bc 05 5c 25 3d
       -0.009183369 0.12688349 -0.008599017 0.04037096
0002a0 c5 57 d3 bd b7 34 4e 3d 7e e4 c0 bc c2 e9 42 3e
       -0.10319475 0.05034324 -0.023546454 0.19034484
0002b0 be 1e 90 bd 73 33 ae bb 38 13 0f be d2 85 05 3d
       -0.070371136 -0.005316192 -0.13972175 0.032598324
0002c0 83 bd f1 bd 25 62 b3 3c 7d 80 21 be 14 bf b4 39
       -0.118037246 0.021897385 -0.1577167 0.0003447464
0002d0 80 98 a4 3d 94 93 07 bd e7 54 92 bd bf 0d aa 3d
       0.080368996 -0.033099726 -0.071451 0.08303403
0002e0 df b9 4c 3d 57 fc ae 3b c8 95 a4 3c 44 93 1c 3d
       0.049981948 0.00534014 0.020090953 0.03822638
0002f0 a8 e7 48 bd ea 48 b9 3d 6c ed 66 bc e4 50 af 3c
       -0.04904905 0.090471104 -0.014094692 0.021400876
000300 56 91 e3 bc f8 e7 7a 3d bc 40 f8 bc 2c bd d4 3b
       -0.027779263 0.06125638 -0.030304305 0.0064922776
000310 5c 20 62 be 10 7d 4a be 6a 03 df 3d 98 88 81 be
       -0.22082657 -0.1977427 0.10889323 -0.25299525
000320 51 37 cc 3d 89 e5 b0 3d 58 0e da 3d 45 cb 42 3e
       0.09971488 0.0863753 0.10647267 0.19022854
000330 1b 21 13 be c7 35 50 3d 81 0f 23 be 7e 6e ea 3c
       -0.14368097 0.050832536 -0.15923883 0.02861714
000340 aa e3 59 bc 8a a0 07 be bc 08 05 be ce 00 43 bd
       -0.013298908 -0.13244835 -0.12991613 -0.04760819
000350 4d 1f 8f bc c9 cb b8 3d 8c dd 7d bd f7 35 14 3e
       -0.01747098 0.09023244 -0.06197886 0.14473711
000360 e6 39 63 bd 2c 1a 14 bd 5e 19 03 3e d9 71 c0 bd
       -0.055475138 -0.036157772 0.12802646 -0.09396715
000370 31 73 e7 bd 35 a2 12 bd 6a 57 0e be 8d 3c aa bd
       -0.11301268 -0.035799224 -0.13900533 -0.083123304
000380 f1 98 7d bd ab 57 83 bd 8b e8 2b 3d 03 ab 8d be
       -0.061913434 -0.06413206 0.041969817 -0.27669534
000390 7a ce 46 be be 17 a0 3c d8 a8 ae bd 50 d0 8e 3c
       -0.19414702 0.019542571 -0.08528298 0.017433316
0003a0 9e f9 9a 3d de 04 69 3d 30 db bf bc 59 9c e0 bd
       0.07567142 0.056889407 -0.023419946 -0.10967321
0003b0 89 2d a2 3d c9 3b 40 bd 79 c1 d9 3d 29 ed c7 3d
       0.079188414 -0.046932016 0.10632605 0.097620316
0003c0 0f a8 67 bd 80 02 9b 3d 82 7f 73 bd dc 61 46 3e
       -0.056556758 0.07568836 -0.059447773 0.19373268
0003d0 fb 00 b3 3d 32 4a 0b 3e c1 71 47 3d a0 c8 76 be
       0.087404214 0.13602522 0.04869247 -0.2409997
0003e0 0b 84 ad 3d be de fd 3d 92 e0 84 bc 10 6a bd 3d
       0.08472451 0.12396 -0.016220365 0.092487454
0003f0 28 c2 64 bd 57 b1 c5 bd fc d8 6a bc b8 48 a0 bb
       -0.055849224 -0.096529655 -0.01433396 -0.0048914813

fc_advantage.2.bias f4 [32]
000000 7c 33 54 bc a9 67 81 3d aa 45 b6 bc b1 00 f8 bb
       -0.012951728 0.063186 -0.022250015 -0.007568442
000010 25 0b ac bd 8e 04 3c 3e 50 86 3b bd 75 64 b9 3d
       -0.08400563 0.18361112 -0.045782387 0.09052364
000020 07 ac 9a 3d ab f9 84 bd 29 70 4b 3e 3b 57 fb bd
       0.07552343 -0.06492933 0.19867004 -0.12272497
000030 be 11 89 be ee e6 9a bd 2d 97 d3 3c 63 86 17 be
       -0.2677135 -0.075635776 0.025828922 -0.14797358
000040 2b 9b 28 bd fd d5 ed 3c da bd 37 bc 0b 10 ba 3d
       -0.041163605 0.029032702 -0.011214698 0.09085091
000050 dd 21 7e bd ec 7b 8a 3d 81 4e b9 3d 7e 0e b1 bc
       -0.062044013 0.067619175 0.090481766 -0.021613356
000060 1d 8b 1b 3e d0 0e 77 bd c2 c8 c5 3d 7c 96 ae bc
       0.15189786 -0.06031686 0.09657432 -0.02131199
000070 b2 d6 79 3e 26 50 ff 3d 3c d5 3d be 0c 85 05 3e
       0.24398306 0.12466459 -0.18538374 0.13039035

fc_advantage.4.weight f4 [6, 32]
000000 7e 76 20 3e 20 8f e4 bc 73 e3 df 3d d3 39 34 be
       0.15670201 -0.027900279 0.10932054 -0.17600183
000010 c5 fe fb 3d 6b b8 0a 3e f8 70 88 bd 74 bd 5f 3e
       0.12304453 0.13546912 -0.06662172 0.21849614
000020 2d 6c 2f be a4 ce c8 bc 1b 29 f5 bd 90 7f bb bd
       -0.1713111 -0.024512596 -0.11970731 -0.0915519
000030 33 e4 87 bd 99 fe 22 be 87 f8 68 bd e0 d0 97 bd
       -0.066353224 -0.15917434 -0.05687764 -0.074128866
000040 ed 63 f6 ba 18 22 74 be e1 05 0e 3e cf 87 55 be
       -0.0018798091 -0.2384113 0.1386943 -0.20852588
000050 87 42 e4 b9 eb 92 fc bd 79 50 57 3e dc 78 5b be
       -0.00043537116 -0.1233271 0.21026792 -0.21432823
000060 a8 dc 1d 3e 37 43 87 3e 73 c5 3d be e1 c1 1d 3b
       0.15416205 0.26418468 -0.18532352 0.002407186
000070 25 fb 1b 3e a4 e3 85 bd 56 62 aa 3c f0 ab 74 be
       0.15232523 -0.0653756 0.020798843 -0.23893714
000080 9c 50 aa 3d 93 3b e4 3c 54 61 a1 bd 87 7e 8f 3e
       0.08316156 0.027860438 -0.07879892 0.2802622
000090 d3 e2 e7 bd e9 6e 89 3d 48 48 f2 bc 54 fb 07 be
       -0.1132256 0.067106076 -0.029575482 -0.13279468
0000a0 a8 65 9a 3e a4 f4 37 bd 32 9a c1 3c 61 10 26 3e
       0.30155683 -0.04491104 0.023633096 0.16217186
0000b0 fa 96 4c bb fb 38 13 3e e1 22 50 be 39 73 d0 3d
       -0.0031217919 0.14377205 -0.20325805 0.10178227
0000c0 4f cf 10 3d 7b c3 87 bd 19 d2 08 3e 1c d3 98 3c
       0.035353955 -0.06629082 0.13361396 0.018655352
0000d0 1b 19 2b 3d ec e3 f0 bd e5 4a c8 bd 58 fe 1d 3e
       0.04177199 -0.11762223 -0.0977991 0.15429056
0000e0 37 d0 a1 be c5 43 e7 3c fc e5 1a be 99 95 28 3b
       -0.31604168 0.028230557 -0.15126795 0.0025723933
0000f0 91 db e5 3d 0e bd cc 3e cb c2 34 be 8b 93 f2 3d
       0.112235196 0.39987987 -0.17652433 0.11844548
000100 7f 49 d3 3d 58 75 2b be 80 4f 36 bd 20 ba 66 be
       0.10316753 -0.16743982 -0.04450941 -0.22531939
000110 42 19 fb bd 36 bc 78 be 97 82 1c bd 19 86 dd 3c
       -0.12260677 -0.24290547 -0.038210478 0.027041482
000120 95 81 14 be 05 9d 00 be 06 fb 62 ba 82 0f 1a bd
       -0.14502557 -0.12559898 -0.0008658621 -0.037612446
000130 df 11 d3 bd ea b7 d8 bd 20 62 8b 3d 63 6e 2e 3d
       -0.10306143 -0.10581954 0.06805825 0.04258574
000140 ea 80 4b 3d 2d 94 8f 3e 86 5e c3 bd 09 86 64 bd
       0.04968349 0.28042737 -0.09539513 -0.05579189
000150 6c 30 f0 3d a5 6d 28 bd 33 9d 9a bd 9b 7f 01 3c
       0.11727986 -0.04112019 -0.075495146 0.007903959
000160 f1 9f 85 3d ff 38 bb 3d 4d d7 5c be c2 01 fb 3d
       0.06524647 0.091417305 -0.21566506 0.12256195
000170 f9 78 1c 3e 38 1a b4 be 04 1d 27 bd 15 a7 01 3a
       0.15280522 -0.35176253 -0.040799156 0.00049458566
000180 ed 24 c4 bd 76 de 81 3d 17 ae e3 bd 31 be f2 bd
       -0.095773555 0.06341259 -0.111171894 -0.118526824
000190 db 18 29 3e ec 85 de bb da 95 f6 3d cf c6 c4 bd
       0.16513388 -0.006790867 0.12040301 -0.09608232
0001a0 f7 2e 21 bd 88 23 07 3c 46 a0 01 be 40 5d b6 bc
       -0.03935143 0.008248217 -0.12658796 -0.022261262
0001b0 41 56 97 be 41 01 1f 3e e0 2a ab 3d b0 c3 76 3d
       -0.29557994 0.15527822 0.08357787 0.060245216
0001c0 9c 5b f6 3d ab d6 0d be c9 25 19 be ee 50 ee 3d
       0.12029192 -0.1385142 -0.1495582 0.1163653
0001d0 27 9f a3 3d ab 8c 26 bd ba 51 90 bd c4 ff ea 3c
       0.0798934 -0.040661495 -0.07046838 0.028686412
0001e0 56 76 e4 3b e0 16 21 3d 9a 85 e0 bd 87 42 98 bd
       0.0069721146 0.039328456 -0.109629825 -0.07434564
0001f0 50 ed 11 3e a7 a7 14 bd 8d 68 13 be 18 a9 51 3d
       0.14250684 -0.0362927 -0.14395352 0.05118665
000200 20 ab 24 3e c2 c6 e2 3d ed 50 fa bd 5b 85 d3 bd
       0.16080904 0.11073066 -0.122224666 -0.1032817
000210 15 b6 24 3d 79 a5 59 3c 7f 06 9d 3d 67 80 20 3d
       0.04021271 0.013284081 0.07667255 0.039184954
000220 3e 43 a4 3c ce 23 80 3d 4e 2b 34 be a9 7f be 3d
       0.020051595 0.06256829 -0.17594644 0.09301693
000230 08 67 31 be e9 42 bc 3d ff db 91 3d c6 3e 50 bd
       -0.1732446 0.091924496 0.07122039 -0.050841115
000240 b0 f7 a8 3d 2b 0b 45 be 50 34 24 3b b3 76 77 3e
       0.08250368 -0.19242541 0.0025055595 0.24166374
000250 27 3b 78 bc 00 cc c6 bd fd 23 6c be 0c d4 db bb
       -0.015150822 -0.09706879 -0.23060603 -0.0067086276
000260 14 ff ee 3d 8a 93 38 bd e2 50 07 3e a9 f1 85 be
       0.11669746 -0.04506258 0.13214448 -0.26160935
000270 92 d8 f0 3d 86 9c 19 3d 9f 63 4a be a3 5e c7 bc
       0.117600575 0.037502788 -0.19764565 -0.024337118
000280 62 0f f9 3d 7e 42 9e 3d a8 a8 04 3e 2f ee 00 be
       0.12161137 0.07727526 0.12954962 -0.1259086
000290 c6 60 ca bb 47 ac a4 3c 63 dc 1e be 68 21 f9 bc
       -0.006176087 0.02010168 -0.15513758 -0.030411437
0002a0 3c 0c 25 bd c7 62 fc 3d 13 b0 7a be 57 68 08 3e
       -0.04029487 0.12323528 -0.2448123 0.13321052
0002b0 92 7c 3e 3e ba ab d9 bd 99 34 8f 3d 41 89 89 3d
       0.18602207 -0.10628457 0.06992454 0.06715632
0002c0 4b 06 3b bc bd a1 71 bd 99 eb 35 3e 95 0f 25 3e
       -0.011415075 -0.058992136 0.17765655 0.16119225
0002d0 82 52 ef 3d 4c cf dd 3d 41 10 10 be 28 94 31 3d
       0.11685659 0.10830554 -0.140687 0.043354183
0002e0 dd 0f 1c be 45 21 f2 bd ff bb 2c 3d e5 c2 23 3e
       -0.15240426 -0.11822752 0.042171475 0.15992315
0002f0 78 4c 1a be 57 c3 d1 bc 7e 43 48 3e 89 40 a4 be
       -0.15068233 -0.02560584 0.19556996 -0.32080486

fc_advantage.4.bias f4 [6]
000000 6e c5 c5 3d 2a 94 87 bd aa 0c 08 bd ed e0 65 bd
       0.09656797 -0.06620057 -0.033215202 -0.05612271
000010 e8 5f 30 be 1f 01 a5 bb
       -0.17224085 -0.005035534
