data/Torch/Dueling/002_CNN-1_E_L/checkpoints/weights_1500000steps.pth (torch, 286623 bytes, 13 tensors)

conv_layers.0.weight f4 [32, 1, 3, 3]
00000000: 1d37 84bd 9f7b 0bbd 94ed e1bb 4a49 043e
00000010: bd53 92be 6bae 04bd a4bd 663e d03f 8f3d
00000020: 3310 8e3e 27c8 9cbe bd0a 9a3e b407 403c
00000030: ab97 d7bd 8852 d2bd 6c50 4f3e 3080 d83e
00000040: d50d 00be b75b 6fbe 608b 0cbf 2095 a1bc
00000050: 3c78 2e3d f21a a63e 4296 dd3d 51db d9bc
00000060: 24af c33c f5ee d43d 24ab 4abe 6629 03c0
00000070: 3d80 d93c faac 1b3e f4b4 843d f91f a73c
00000080: 4d8d 043d 8b7c 143d da85 8e3c 4ae6 293c
00000090: 98b8 5b3e 2725 29be 6826 953d e421 e33d
000000a0: a3e7 103e 5216 3cbc a814 70bc 0b33 31bd
000000b0: 042e aebc ea91 ff3e 3fd2 8d3b 2221 d93b
000000c0: e98d 88bf e3d1 513e 46f2 a1bc 7bf0 87bd
000000d0: bb3d 513d d4c9 15bc 5f03 303f 3074 6abc
000000e0: 8aff 9bbc f1ab 3a3c 88b4 f5be ddcf 283d
000000f0: 1620 bfbc c6d5 86bc 46f9 5fbd 9350 47bf
00000100: 2fc7 563d a1fb 35bf 15a1 b33d 4307 92bd
00000110: 51fa 61bf fa12 0abd 3e68 313c d6b3 d23b
00000120: 89b8 2bbf 612a 313e 3b59 c93c 947d 6c3c
00000130: f5c9 823e 6db8 8cbd 4f7b 27bd 487a 483e
00000140: 9bd0 d63d f073 9f3e ebd5 58be fbed 9cbb
00000150: b0cd a8be 916d cabd 6301 453e 374b 68bd
00000160: ee9d 1cbe da23 a93e 6f89 8cbe c882 b63d
00000170: 976a 3d3e 9704 a43b 7965 503e 5628 013d
00000180: a419 26be d067 3ebe 671b 503d f91d b3bd
00000190: e9dc bbbe d6a0 0f3e c618 eb3e 1d32 193e
000001a0: ffda 113d dd77 313d a48e 63bb 100f 10bf
000001b0: ace0 2d3e 3231 f2bc 5a6b 0fbd 5f3e 45be
000001c0: 7974 afbd 72a4 9a3e 3fa5 88bc ee2b 8e3d
000001d0: b18c c1bc bc5a b0bf 080f b33d a5ef 5e3d
000001e0: f67d 0b3e 9488 453d b4cd ae3d 51bb 873d
000001f0: 84cb 4a3d da04 523d 74a1 ee3e 14c1 3e3e
00000200: 7e53 e5bd 5ade 7e3d 62c1 41be 8da1 aa3d
00000210: 2af5 debc d5d2 03bc 9344 48be 3046 053f
00000220: 11bf f1be 1604 01bd d1c2 3cbc d089 69bc
00000230: 4841 fe3c 42e3 c33b b100 643a 360b ac3c
00000240: 093f b33d 5603 293e a089 4d3e c246 273e
00000250: 3f84 183d 4850 12be c289 7ebd 0529 aabd
00000260: 159c 54be 0741 02bd 819d 383e f03b 643d
00000270: 93f1 7bbe b2c2 0ebe 4cb2 113d 7043 01be
00000280: f2cb cb3d 7a34 893d 7280 07bf 3669 6fbc
00000290: c20f b53b 3693 bbbc 337f fd3d 16dc 99bd
000002a0: 3741 ff3c 42f4 013e 13eb 9f3e 6676 013f
000002b0: d7fe c4bd 58d9 fe3d b892 17bc 400e 12bf
000002c0: d0e2 06be 192c 813d 69eb ffbd 78c0 1dbe
000002d0: 50a7 3d3e f7ff 90be 05f9 1abb d5f5 89be
000002e0: 130e c7bd a491 743c f6bc 2cbe 3107 2a3e
000002f0: 7e80 ca3d db0d 283f 93e8 d0bd 9b86 ee3d
00000300: a7cc 20be 7dcc 2fbe bd27 cdbc b1cc a6bd
00000310: e528 4e3d 8567 593c 5dc7 d1bc 4210 8e3a
00000320: 9546 253c cc0d 1f3e 2086 16be b398 76be
00000330: 06b8 683c 292b da3c 2686 c63c f40f 43be
00000340: 97e9 af3e 7310 b83e 1bf3 a6bd c171 e9bc
00000350: 5daf a0ba c3c6 37be 19f5 c03d 2069 0cbc
00000360: 851b ff3c 888a 56be 2d90 113e 90d5 5e3e
00000370: 4187 27bd e553 463c ed3a a1be 8cc6 c33d
00000380: 997e 3abe cddf 683e 085c db3d eb2c 15bb
00000390: d0b6 853d fefc 22be 3fc6 983d 5864 13be
000003a0: f3a5 f6bd ba44 25be f43a b6be 893d fb3c
000003b0: 6762 883d 8d09 163e eb87 b33d 45e8 4fbe
000003c0: 0530 083d 0aac 7c3d d200 6e3c e137 653e
000003d0: e472 8d3d 97d4 fdbe 3052 a83e 389e 57bd
000003e0: 7acb 843d eba2 78be 0cf4 023e 863b 0c3c
000003f0: 4395 fd3e 9bf6 3abd 2838 683d 6bc2 edbe
-0.064558245 -0.03405344 -0.0068947766 0.12918583 -0.28579512 -0.0323929 0.2253328 0.06994593
0.27746734 -0.30621454 0.30086318 0.011720587 -0.10526975 -0.10269648 0.20245522 0.422853
-0.12505277 -0.2337483 -0.5490017 -0.019724429 0.042595133 0.32442433 0.10819675 -0.026593836
0.023887224 0.1039714 -0.19791847 -2.0494018 0.026550407 0.15202704 0.064798266 0.020400988
0.032361317 0.036251586 0.01739781 0.010369847 0.21457136 -0.16518079 0.07282716 0.110904485
0.14150862 -0.011479931 -0.014653362 -0.04326157 -0.021262176 0.4991601 0.004328042 0.006626264
-1.0668308 0.20490222 -0.019768845 -0.06637665 0.05108426 -0.009142358 0.68755144 -0.014309928
-0.019042749 0.011393533 -0.47989297 0.04121386 -0.02333073 -0.016459357 -0.054681085 -0.7785732
0.05243605 -0.7108708 0.08770958 -0.07130291 -0.8827258 -0.033709504 0.010828076 0.0064301295
-0.67078453 0.17301323 0.024578681 0.014434237 0.25544706 -0.06871114 -0.04088908 0.19577897
0.10489007 0.3114314 -0.21175353 -0.0047891117 -0.32969427 -0.098841794 0.1923881 -0.056712355
-0.1529462 0.33035165 -0.27448604 0.08911663 0.18497692 0.00500543 0.20351209 0.031532608
-0.16220719 -0.18594289 0.050807383 -0.08745951 -0.3669198 0.14026198 0.45917338 0.14960523
0.03560924 0.0433272 -0.0034722472 -0.56272984 0.16980237 -0.029564474 -0.035014488 -0.19262074
-0.08567137 0.30203587 -0.016680358 0.06941973 -0.023626657 -1.377769 0.08743101 0.05442776
0.13622269 0.048225954 0.085353285 0.06627525 0.049510494 0.051274158 0.46607554 0.18628341
-0.111975655 0.06222377 -0.18921426 0.083315946 -0.027216513 -0.008045872 -0.19557409 0.5206022
-0.47216085 -0.031498037 -0.011521057 -0.0142540485 0.031036988 0.005978019 0.0008697613 0.02100144
0.087522574 0.16505179 0.20072031 0.16335586 0.037235495 -0.14288437 -0.062143095 -0.08308605
-0.20762666 -0.031800296 0.18028833 0.055721223 -0.24603872 -0.13941458 0.035570428 -0.12623382
0.09951009 0.06699462 -0.52930367 -0.014612487 0.00552556 -0.022897344 0.12377777 -0.07512681
0.031159027 0.12690833 0.31234035 0.50571287 -0.09618919 0.12443799 -0.009251289 -0.57052994
-0.1317246 0.06307239 -0.12496073 -0.15405452 0.18520856 -0.28320286 -0.0023646962 -0.26945367
-0.09719481 0.014927302 -0.16868958 0.16604306 0.09887789 0.6564614 -0.1020061 0.11646768
-0.15703069 -0.1716785 -0.025043363 -0.081445105 0.05033197 0.01326931 -0.02560776 0.0010838585
0.010087629 0.15532607 -0.14699602 -0.24081688 0.014204031 0.026631908 0.024233889 -0.19049054
0.34357902 0.3595005 -0.081518374 -0.028496625 -0.0012259294 -0.17946915 0.09421749 -0.008569986
0.031141052 -0.20951283 0.14215155 0.21761155 -0.040900473 0.012104963 -0.3149027 0.09559354
-0.18212356 0.22741623 0.10710913 -0.002276237 0.06529009 -0.15916821 0.074596874 -0.14393747
-0.12043371 -0.16139498 -0.35591853 0.03066899 0.06659394 0.14652081 0.08766159 -0.20303448
0.03324892 0.061687507 0.014526563 0.22384597 0.06906679 -0.49576256 0.32875204 -0.052641124
0.064841226 -0.24280898 0.12788409 0.008559113 0.4952794 -0.045645338 0.05669418 -0.46437392

conv_layers.0.bias f4 [32]
00000000: 19e6 50bf 6bc4 20bf a749 123f 5077 263f
00000010: 90ed e0be 6f28 223e 6cb8 dd3c bcda 1d3f
00000020: 7f1c 2a3c 1ae0 a8be c60b aa3e 12ec 0cbe
00000030: b9d1 24bf 80ad 2b3f 3749 3abf c0bb 9d3e
00000040: 4d8e 0dbf 74fe f93e e9ee 083f 146f b73e
00000050: e1f9 0d3f 14d8 34bf 435a b43e c3a6 73bf
00000060: 2715 e23e 82ea da3e 3f83 1f3f 4e14 2ebf
00000070: 0c46 40bd 6c83 c63e 79c6 0f3f 1a1c 3cbf
-0.816011 -0.6279971 0.57143635 0.65025806 -0.43931246 0.15835737 0.027065478 0.6166189
0.010382771 -0.32983476 0.33212107 -0.13761929 -0.6438251 0.67061615 -0.72767967 0.30807304
-0.5529526 0.48826945 0.5348955 0.35826933 0.5545941 -0.7064221 0.35225114 -0.95176333
0.44156763 0.4275704 0.6230964 -0.6799973 -0.046941802 0.38772142 0.5616222 -0.7348038

fc_state.0.weight f4 [64, 512]
00000000: a058 2b3c e34d 88bc 9678 a5bc bc7b f7bb
00000010: b50c 013d 5d39 10bd 4534 a83c 3058 21bd
00000020: b126 fe3c afbd 82bc e6f8 b6bc 1524 0e3d
00000030: 7647 dd3c 4584 bebb ac5c a13a 80cd c23c
00000040: d55a f43c f0f5 e6bc df5b 2dbc bc73 eb3c
00000050: 082e de3c cd7d 24bb f56d 06bc b7e4 d53b
00000060: dd5d 8fbc 6a79 d33c 1106 04bd 3c9d 423c
00000070: a796 633c 0635 95bc cacf d73c dcb8 063d
00000080: cb0f 033c a383 42bd 2f56 a83c fb26 f03b
00000090: eb83 303c b347 8b37 031d 65bb 52a7 c8bc
000000a0: bccb 16bb 062f 0cbd 8ddb ed3c b0c9 6d3c
000000b0: 65e6 ce3a 2cc5 3dbb 9efc bd3b 198b 25bd
000000c0: 7db4 ccbc 1312 3ebd 40e8 e0bb e86b 093d
000000d0: e8ba 41bd 1962 f13c 0417 4e3c 890a 6abc
000000e0: fd79 25bd 7194 0fbd d4a4 ccbc 67cd 233c
000000f0: 5941 393c d421 2a3b e376 36bd 8eb7 2fbd
00000100: a260 9d3c c93a 483c 00b9 273c f0e4 ccbb
00000110: e747 fb3c 9d29 b43c be22 973c 3165 b23c
00000120: 44fc cc3b ffd9 ec3b ef97 df3c e61f 123c
00000130: f072 d5bb caa4 cabc 7854 0abd 1596 f5bc
00000140: d48e f83b a1fd 203d 083d 23bd 206e 03bc
00000150: d6b0 183d e825 343c a497 0b3d 12d1 223d
00000160: 4c8c 1e3c b731 5cbc 4118 c1bc c092 40ba
00000170: a4b1 15bc ac4c c53a 20e5 94bb 0d4e 6d3c
00000180: 217a 47bd 748e dabc 28a2 923c e618 40bc
00000190: c17b 35bc 2d6a 9bbb d1bc 22bd 8302 30bc
000001a0: c02f 12bd a5f0 3cba 3f19 00bd 35c3 12bd
000001b0: 9332 193c 3387 da3b 31e1 c23c 6c3f 833c
000001c0: bca7 853c cbb5 41bb 3e53 7c3b d61f 9f3b
000001d0: 274e 253c 3464 0abc f69b a33c 20dd 8bbc
000001e0: 1f8a e23c de9c 3fbd 7aee 083d 2633 213d
000001f0: aef6 053d 0214 21bd 49a9 f2bc abfa a1bc
00000200: c838 063d 9a3b 123c a4df 2cbd ba98 a1bc
00000210: df6b 173d 48d3 9d3b cd2c 0ebd a938 74bc
00000220: 330b 303d 3f32 9a3c ce11 ae3c 32a9 4e3c
00000230: c0ec 383c 6054 0fbb 23df 8c3c 294b d33c
00000240: 074e f53c e237 afbc a784 26bd baaf 033d
00000250: a087 743c 6e38 d43c 5aa4 40bd f970 1b3c
00000260: af25 2a3d a46d 2cbd b515 e3bb f92b c33a
00000270: 906b 22bd e0dc 1f3d e3b4 ae3c e414 8c3c
00000280: d05e b1bb 029c ccbc 4406 d83b 918f 85bc
00000290: 1d8d c43c 4e61 ba3c d03b 72bc c093 d33c
000002a0: f350 15bb a585 2ebd aeba e33b 56b1 013d
000002b0: 05a4 c23c 6fc5 d93a 5a24 d6bc d3a9 11bd
000002c0: 8a0b 1cbd 112c a1bc 963d 2abd 1756 e3bc
000002d0: abc6 003d c873 173a 969e 1f3d bc56 dfbc
000002e0: c613 b23c 6030 043b 8080 c43a 8f84 233d
000002f0: 4b3e 2ebd 80bf 81bc c0cf 7cba 187a b7bb
00000300: 2427 b0bc 179e bcbc 982a 1dbd cbb7 29bd
00000310: 697a a73c 5cc0 4b3a 965c 1ebd 624f 0cbd
00000320: 18a2 eebc 37c4 4abc 36e2 943c dd19 21bc
00000330: aa80 03bd f72b 21bc 8c5d 3dbd 6302 e0bc
00000340: 34c3 03bd def4 61bc 03ab cfbc 8cda 12bc
00000350: 8ef5 1d3d 0456 f53b 0870 5c3c 4904 2bbd
00000360: 48c2 083d 7daf c1bc 003d 91bb e66e 27bc
00000370: 38f4 a3bc 970c 8abc 675d 1abc 990c fe3c
00000380: 76ab 2bbd ca77 683b 881f 833c bacb 183b
00000390: 614f 0ebd eade ad3c 73a3 ffbc 888a a0bb
000003a0: 1e33 28bd 9fbb 1c3c 959f bc3c d97d eebb
000003b0: 28b8 1a3d 367b 0cbd a570 18bc 4b8e 1e3a
000003c0: e947 f1bc 3345 98bc 9872 2ebd 2029 b03c
000003d0: 3215 963c 60eb 3d3c 4885 0c3d b9aa fdba
000003e0: 8171 c2bc b876 32bd 6804 8f3c b706 10bd
000003f0: 9ed6 a23c 9616 25bd 2ab6 0a3d 7b36 d5bc
0.010458142 -0.016638702 -0.020199101 -0.007552592 0.03150626 -0.035210956 0.020532737 -0.039390743
0.031024309 -0.015959589 -0.02233548 0.03470238 0.027011614 -0.0058141076 0.0012310944 0.02377963
0.029828468 -0.028193444 -0.010580986 0.02874171 0.027121559 -0.0025099397 -0.008204927 0.006527509
-0.017500812 0.02581473 -0.032232348 0.011878308 0.013890899 -0.01821376 0.026344199 0.03289114
0.007999371 -0.04748882 0.020548908 0.0073288656 0.010773639 1.6603479e-05 -0.003495992 -0.024493847
-0.0023009619 -0.034224533 0.029035354 0.014513418 0.0015785216 -0.0028956635 0.0057979366 -0.040415857
-0.024988407 -0.046403956 -0.006863624 0.033550173 -0.04729739 0.029465722 0.01257873 -0.014284738
-0.04039954 -0.035053674 -0.02498094 0.009997702 0.011307084 0.0025960105 -0.044546973 -0.04289966
0.019211117 0.012221047 0.0102369785 -0.0062528774 0.030673934 0.021992499 0.018449184 0.021776767
0.0062556583 0.0072281356 0.027294127 0.008918738 -0.0065139458 -0.02473678 -0.033771962 -0.029978791
0.007585386 0.03930438 -0.039853126 -0.008021861 0.03727802 0.010995366 0.034080163 0.039750166
0.009677004 -0.013439587 -0.023571135 -0.0007346086 -0.009136591 0.0015052757 -0.0045439154 0.014483941
-0.048700456 -0.026679255 0.017899588 -0.011724686 -0.0110768685 -0.0047428817 -0.03973085 -0.010742786
-0.03569007 -0.00072074897 -0.031274077 -0.035830695 0.009350437 0.006668949 0.02378902 0.016021453
0.016315334 -0.002955782 0.0038501765 0.00485609 0.010089434 -0.008446742 0.019971829 -0.017073214
0.027653752 -0.04678046 0.033430554 0.03935542 0.032705955 -0.03932572 -0.029621737 -0.019772848
0.032768995 0.008925343 -0.042205468 -0.019726146 0.03696811 0.0048164465 -0.034710694 -0.014906087
0.04297943 0.018822787 0.021248724 0.0126135815 0.011286914 -0.002187036 0.017196244 0.025792675
0.029944433 -0.021388952 -0.04065385 0.032150008 0.014924914 0.025905814 -0.047031738 0.009487384
0.041539844 -0.04209675 -0.006930078 0.0014890424 -0.03965336 0.039029002 0.021326488 0.017099805
-0.005412914 -0.024976734 0.006592544 -0.01630381 0.02399307 0.022751477 -0.014784768 0.025827289
-0.0022783845 -0.042607922 0.006949744 0.03166326 0.023759851 0.0016614626 -0.02614038 -0.035562348
-0.038096942 -0.019674333 -0.04156264 -0.027751012 0.031439465 0.00057774456 0.0389696 -0.027263038
0.021737944 0.0020170435 0.0014991909 0.03992134 -0.042539876 -0.015838385 -0.0009643994 -0.0055992715
-0.021503039 -0.023024602 -0.0383707 -0.041435044 0.020444112 0.0007772499 -0.038662516 -0.034255393
-0.029130027 -0.012375883 0.018174272 -0.009832826 -0.032105125 -0.009837142 -0.04623179 -0.027344888
-0.032168582 -0.013791291 -0.0253501 -0.008963238 0.038564257 0.0074870605 0.013454445 -0.041752134
0.033388406 -0.02364325 -0.0044323206 -0.010219311 -0.020013914 -0.016851706 -0.009421683 0.031011866
-0.041911565 0.003547179 0.016006246 0.002331479 -0.03474367 0.021224458 -0.031205868 -0.0048993267
-0.041064374 0.009566217 0.023025313 -0.007278186 0.03777328 -0.03429719 -0.0093042 0.0006048425
-0.029453235 -0.018587684 -0.042589754 0.021503985 0.018320654 0.011591762 0.034306794 -0.0019353247
-0.023735764 -0.04357025 0.017458156 -0.035162654 0.019877728 -0.040304743 0.03386513 -0.026026955

fc_state.0.bias f4 [64]
00000000: d4cb 6ebb bc22 02bd 6d9f 983d 9c2c f9bc
00000010: aed1 37bb 36e3 16bc 0a75 acbc 9b48 e23c
00000020: f477 703d 7cb7 043d 3272 ef3c 9843 debd
00000030: ca88 9abc d2a9 063d c33b bd3c 6fe0 683d
00000040: bf98 cabc 7e5f 3bbd 68b7 41bd e7a3 f43d
00000050: 7844 2fbd 7fed dfbc 9530 8cbc 4be7 12bd
00000060: 208f ab3c 09f6 f23d c780 6c3c b6d3 02bb
00000070: 27ef 1bbd 7a18 ce3d d804 b9bc 64bf 7c3b
00000080: a98a 19bd 2c56 93bd a141 14bd 729a 8b3d
00000090: a3bc 31bd b34b 35bd 71ae a23d 63c3 ecbd
000000a0: 995d f6bb 8350 36bd 0521 c83c f6ab e0bc
000000b0: 20e9 c13d 3ab2 3bbb 6b15 0e3d 49e9 b4bc
000000c0: 3099 05bd e53c b83d 9cca 0cbd 3395 c13b
000000d0: 388b 3abd 5400 6ebd 01ee 233d 2ac7 6bbd
000000e0: 351e e2bb 2fd8 ec3d b0ff d6bc 45d9 813c
000000f0: a101 94bd 6a2f 373c f52d 7ebd 260f b63c
-0.003643741 -0.031771407 0.07452283 -0.03041678 -0.0028048563 -0.009209445 -0.021051902 0.027622512
0.058708146 0.032401547 0.029229257 -0.10852736 -0.018864054 0.032876797 0.023099786 0.05685466
-0.024731038 -0.045745365 -0.04729405 0.119453244 -0.042789906 -0.027334927 -0.01711301 -0.03586511
0.02094227 0.11863334 0.014435 -0.0019962615 -0.03806987 0.10063262 -0.022585317 0.0038566226
-0.037485752 -0.0719417 -0.0361954 0.068165675 -0.04339279 -0.044261646 0.07943428 -0.115607046
-0.007518482 -0.044510376 0.024429807 -0.027425747 0.09468293 -0.0028640167 0.034688395 -0.022083895
-0.032616794 0.0899599 -0.03437291 0.0059076785 -0.045542926 -0.05810578 0.0400219 -0.057562985
-0.0069005736 0.11564671 -0.026244968 0.015850672 -0.07226873 0.011180738 -0.062055547 0.02222402

fc_state.2.weight f4 [32, 64]
00000000: f9f2 debd 8add b83d 165b ad3d a0f0 513d
00000010: 3e9b ec3d 4775 a1bd 47ba 28bc 55c1 eb3c
00000020: adda 2abe 3158 d5bd 0b09 4e3d 098a 10be
00000030: 6807 eabd e00a 2fbf baf7 4bbd 79ee fd3d
00000040: 2fda efbd aede e33d e999 8a3d 4d7c c8bd
00000050: 5395 dcbd 06b0 123d b5cd b2bd 9748 82bd
00000060: 8bb9 e83d da68 c5bd 3121 53bc fc4b 843d
00000070: 0dcb f63c e3d1 1d3c 6add 8dbb d44d 0fbf
00000080: 1edb ad3d 574a 62be c10a d7bd 8c08 f4be
00000090: e6e5 85bd 90d6 773c be9a 84be 2ddc 87be
000000a0: 850e 913d bffc e1bb 7f4b a63d 090b 1ebd
000000b0: 8428 043e b9cc 38bc b73f 01be c3de 90bd
000000c0: 8700 e43d 8d09 4eb9 90ae 5f3e 4c73 6e3d
000000d0: 4c4c a83d b5a0 b23d bb34 c5bc b8c1 c8bd
000000e0: c960 e13c 541c 1f3c 22d3 e33d 1d13 233e
000000f0: 821a cd3d fc7f 6f3b a76f 6dbd fa9b ddbc
00000100: efa4 be3d 8d77 f1bd 3011 e53d 282b 33bb
00000110: cd17 753d d960 873d ae79 093d 67c3 8cbd
00000120: be75 2f3d e8f1 e5bd 1fae e03d fdfc c8bd
00000130: 2ed6 813d 7875 f23d 5757 69bc 06a6 473c
00000140: 0277 0dbd 38aa 453d 754b 15ba a957 283e
00000150: 646f babb 5ca8 3b3d 53e1 053d bbfd b73c
00000160: a58f 4bbc ee8b 41bd 9a3d 923d 7c14 aa3c
00000170: a991 993d 20cb 383e 7848 4cbb 1fa9 8e3e
00000180: 0705 653d 479c 033e ebed 753d bb36 393d
00000190: 0213 0f3e 7222 f5bd 572d 123e fe5c 4ebc
000001a0: d2ea e03d eac6 5b3d 46c8 633d 85e7 cfbd
000001b0: 00d0 9b3d 8d76 86bd c30a 4a3e 0f3f a63d
000001c0: 04eb 30bc 50cd 763e 39ba 9d3c 86cb a13d
000001d0: ef48 b9bc b8fe 6a3d a043 0fbd b077 17bd
000001e0: 8522 45bd 362d 773e 7ef4 c7bd c55f 61be
000001f0: eeb0 4ebd 6c00 693d 7b61 0b3d bee1 463e
00000200: 9186 dc3d b092 28bd e393 5fbc e93e d63d
00000210: 0538 c73d 8579 e03d 9e6c 7cbd 67bf 85bd
00000220: 17f6 183f f0bd 8a3d 8609 373b 6f67 67be
00000230: 28c7 09be 21a7 74be 9bb3 9dbd 65cb 2bbe
00000240: 1787 adbc 006f 063d f186 a5bd d415 4ebe
00000250: d158 f8bd ff8d 8f3d 526e b43d aee9 5ebd
00000260: aaba bbbd cb65 1b3e 8497 edbd 42c1 f23d
00000270: 2968 4dbd b0f7 133e 9ef6 8a3d d215 b1be
00000280: e79d ce3d e642 cabd 40b1 f6bd bb71 fabd
00000290: 6187 33bd 72e4 d73d d43f 6e3c e9a2 1fbd
000002a0: 7117 e33d 0ba2 30bc 8a65 e43d d1c9 f93d
000002b0: 56a8 5f3c 8385 cabd 2923 283c d266 f9bc
000002c0: e803 643b 73e7 653e c274 78bb 9282 eabc
000002d0: 4807 e2bd a834 e53d 51b9 9fbe d90e 973d
000002e0: ae48 91bd dbc2 04bc f2dd 38bd f258 74be
000002f0: 82cd d73b b5fc 493d a32e a4bc eea2 10ba
00000300: 424d f43d 5b12 ebbd 48c4 adbe e895 743d
00000310: a99e 713d 082e bf3c 4852 30bd 54b2 a23d
00000320: 28ae 06bf a967 503d 746b c8bc 339b da3c
00000330: 8ade abbd 3c57 adbc 5aae 1d3d 429e 13bf
00000340: cf6d b5bd f79e 1dbd 392e 723d 5afe 183e
00000350: f2a7 8fba 8c4e 9ebd 183e 59bc fe1d 29bd
00000360: 6fd3 063d 1436 f03d 7c1e c33d 55de b7ba
00000370: 40f1 7a3d dd21 37bd 2217 e9bd ace6 bc3d
00000380: 7327 10be 2a70 a7bc 0586 9e3d 0338 973d
00000390: 266a bb3d 1e42 48bd 5297 b0bd 9657 35bb
000003a0: 7ed1 a73d 0dd9 4b3d 57dd 133c ae2b 853d
000003b0: ed84 663e dc3c e9bd ef74 9fbe 959a 84bc
000003c0: f2b4 a23d 54a3 5d3e 4090 9cbd 6643 03bd
000003d0: 0d64 a2bd b37b e43d e27f 8b39 dbc6 7fbd
000003e0: fc5e f03d 7e56 e53d ee18 42bd 077e b9bc
000003f0: 6394 7bbd df4f cbbb 2c9b bfbd ff2f 16bf
-0.10886187 0.0902663 0.08464639 0.05125487 0.115530476 -0.07883697 -0.010298318 0.028778711
-0.1668498 -0.10417212 0.050301593 -0.14115156 -0.11427194 -0.6837597 -0.049796797 0.12399001
-0.11711537 0.11126457 0.06767637 -0.097893335 -0.10770669 0.0358124 -0.08730642 -0.06361502
0.113635145 -0.096391395 -0.012886331 0.06459805 0.030126119 0.00963256 -0.004329373 -0.5597813
0.08489059 -0.22098671 -0.10500098 -0.4766277 -0.0653799 0.015126839 -0.2589931 -0.26535168
0.070828475 -0.0068965848 0.081198685 -0.038584743 0.1290608 -0.011279278 -0.12621962 -0.070737384
0.11132913 -0.00019649249 0.21843934 0.058215424 0.082176775 0.08722059 -0.024072995 -0.09802574
0.027511971 0.009711344 0.11124255 0.1592526 0.100148216 0.003654479 -0.057967808 -0.027051914
0.09308802 -0.117903806 0.11184919 -0.0027338956 0.05983715 0.06610269 0.03356331 -0.068732075
0.042836897 -0.112277806 0.10970711 -0.09813879 0.0633968 0.11838812 -0.014242015 0.012185579
-0.034537323 0.048258036 -0.0005695143 0.1643969 -0.0056895483 0.045814857 0.03268559 0.022459855
-0.012424384 -0.047252588 0.07140656 0.02076172 0.074984856 0.18046236 -0.0031171124 0.27863404
0.055912998 0.12852584 0.06004135 0.04521821 0.13972095 -0.119694605 0.14275108 -0.012595413
0.109822884 0.053656496 0.055610918 -0.10151581 0.07608032 -0.065655805 0.19730668 0.08117496
-0.01079822 0.24101758 0.019253837 0.07900147 -0.022617785 0.057371825 -0.0349766 -0.036979377
-0.048128624 0.2413834 -0.0976343 -0.2200919 -0.050461702 0.056885168 0.03402851 0.19422051
0.10767854 -0.041155517 -0.013646099 0.10461218 0.09727482 0.10960678 -0.061627023 -0.06530648
0.59750503 0.06774509 0.002792926 -0.2259805 -0.13454878 -0.2389188 -0.07700273 -0.16776808
-0.02118258 0.0328207 -0.08082379 -0.20125514 -0.121263154 0.070095055 0.088101044 -0.054422073
-0.09166463 0.1517555 -0.11601165 0.11853267 -0.050148163 0.14449954 0.0678532 -0.3458696
0.10088711 -0.09876041 -0.120455265 -0.122287236 -0.04383028 0.10541619 0.014541585 -0.038973723
0.110884555 -0.010780822 0.111521795 0.121966965 0.013650974 -0.098887466 0.010262289 -0.030444536
0.0034792367 0.22451572 -0.003791139 -0.028626714 -0.11036545 0.11191684 -0.31196073 0.07375879
-0.07093941 -0.008103098 -0.04513354 -0.23862055 0.0065857777 0.049313266 -0.02004177 -0.00055174425
0.11928798 -0.114781104 -0.33938813 0.059713274 0.0589892 0.02333738 -0.04304722 0.0794417
-0.5260949 0.050880108 -0.0244653 0.026685333 -0.08392055 -0.02115976 0.038496353 -0.5766336
-0.08858835 -0.03848168 0.059126113 0.14940777 -0.0010960086 -0.077298254 -0.013259433 -0.04128837
0.032916483 0.117290646 0.09527299 -0.0014028052 0.06126523 -0.04471003 -0.11381365 0.09223685
-0.14077549 -0.020439226 0.07740406 0.0738373 0.091511056 -0.04889118 -0.08622612 -0.0027670613
0.08194254 0.049767543 0.0090249395 0.06502472 0.22511645 -0.11388561 -0.311439 -0.016186992
0.07944669 0.21644336 -0.07644701 -0.032046698 -0.079292394 0.11156406 0.00026607426 -0.062445503
0.11736867 0.11198138 -0.047387056 -0.022643102 -0.06142081 -0.0062045897 -0.093557686 -0.58666986

fc_state.2.bias f4 [32]
00000000: fce1 e93c b2dc 4c3e 06f1 c0bb e039 3c3e
00000010: e72e 31be b19a 783e 0c13 203d 5150 a8bd
00000020: 8d8a 973d 013f 543d 3bd8 18be 5d5d 283e
00000030: f09b 52be 0ecf 643e c319 f9bc 94e5 39bd
00000040: 5a0f a4bc d61f 81be 4f82 203e 014a 4b3e
00000050: a64d 0cbe 8d43 f63c f3ca 3dbe 2820 14bc
00000060: 464a 573d d6bd 7fbd 865c 7e3e f6eb 613e
00000070: ed3a a1bd de89 443e 0a18 243d fb0f 89be
0.02855014 0.20006064 -0.005888107 0.18381453 -0.17303048 0.2427776 0.039080665 -0.08218444
0.07399473 0.051817898 -0.14926235 0.16441865 -0.20567298 0.2234461 -0.030407792 -0.04538496
-0.020026851 -0.252196 0.15674709 0.19852449 -0.13701496 0.030061508 -0.1853445 -0.00904087
0.052561067 -0.0624369 0.24839982 0.22062668 -0.07872567 0.19193217 0.040061988 -0.26770005

fc_state.4.weight f4 [1, 32]
00000000: fbf1 d9be 3844 2c3e 89d6 863e 5889 aabe
00000010: 0d07 3ebe a2d4 95bd 8fc2 d13d 3405 44be
00000020: fe64 0bbe c83f a4bd a6f1 633d bd7d 94be
00000030: 3007 ffbd fa84 23bd 9a6a 28bb 4965 f23d
00000040: 593e 883e 3471 87be d452 0f3e bc3a c03d
00000050: d153 433e e06f d83d ed0b 11be da51 56be
00000060: 0eee 39be bb82 13be 6bb7 16be 1992 a1be
00000070: a9a7 913b 40c3 16bd fd3e 2b3e 9150 84be
-0.4256743 0.16822898 0.26335552 -0.3330791 -0.18557377 -0.07315947 0.10242187 -0.1914261
-0.13612744 -0.08019978 0.055650376 -0.2900218 -0.12452543 -0.03992174 -0.0025698305 0.11835725
0.26610067 -0.26453555 0.1399644 0.09386203 0.19074942 0.105682135 -0.14164706 -0.20929661
-0.18157217 -0.14405338 -0.14718406 -0.31556776 0.0044450355 -0.0368073 0.16723247 -0.25842717

fc_advantage.0.weight f4 [64, 512]
00000000: b647 2cbd fd05 18bd e4bd ddbc 23d4 753c
00000010: bf21 be3c 393e e9bc 6a2f ecb8 7299 c23c
00000020: 0e41 423c 573e dfbc 4e06 ecbc 5e9e 50bd
00000030: 26a8 87bc 1b8b 3bbd 78c5 2ebd 0903 733b
00000040: b4c6 54bd 6b7e 08bd 2b05 bb3c b481 853c
00000050: 1dd6 f23c 603a c93c 4360 e4bc cae8 16bd
00000060: 87d4 8e3c 73d9 81bc 3773 323d 3bcb 933b
00000070: d4f6 1fbd b1dd 39bd bc2e f23c 7182 cf3c
00000080: 39b0 f03c e226 c3bc 0cfe e23c 1233 1cbd
00000090: 0068 bc3c 6713 04bd a102 8bbc 882e 09ba
000000a0: 3fdc 313c 9530 1bbc f00c 093c 5ea6 fabc
000000b0: df3f 9bbc e13f e93c e562 d93c 0e21 45bc
000000c0: 691f 313c 848a adbb 2579 38bc 2f34 33bd
000000d0: cbc1 e33b e76c a3bc 59bb 87bc 741d 263d
000000e0: 501d 07bd ab24 9bb9 020d 833c b7ee 25bd
000000f0: 874f 11bd a324 8a3c 8409 59bb 3716 233d
00000100: b24e 74bc 87db 33bd 8753 15bd 17d1 13bd
00000110: 18de ecbc dc81 a8bc 44dd 34bd a65f c6bc
00000120: a963 af3a 774f 6c3c c98d 07bd 738e 26bd
00000130: dd50 16bc 43e4 36bd 388d a23c ef80 4cbd
00000140: 23a4 743c 8954 0bbd 6d45 c4bb 2d53 2c3b
00000150: 74b0 4abd 38ba 123d 51fb 09bd fd30 07bd
00000160: 5f18 b9bc 9006 95bc 1df8 a13c 3b5e 233d
00000170: 0606 ab3c 1c4b 80bb 211e 06bd eb15 0d39
00000180: d4c6 6d3c 0aa3 c53c b72e 863c 5d11 40bb
00000190: bfce 073d 2d8c 663b 3b7c 2a3d d9c0 ee3c
000001a0: ad6f 83bc 3b9b 913b 5a6a b8bb 166d 273c
000001b0: 2f40 a53c c368 2cbd 6f98 bd3c 5345 933c
000001c0: b75e 0a3c f845 9d3c bd45 7abc dd69 a23c
000001d0: 77eb b43c 3f46 8dbc 5fb9 bebc 3d45 0b3d
000001e0: 7891 8bbc 572c 42bd 92e7 0f3c 604e cdba
000001f0: a3b1 35bd cf4c 2ebd f7c5 8a3c bc11 f53c
00000200: 67cb 813c 0e31 95bc d23f 9c3c a87c 323c
00000210: 6541 80bc 979f 06bd 5422 14bd 0e35 2fbb
00000220: a7bc 6dbb 23eb 013d 3067 19bd c098 79bc
00000230: 908d db3c 45ca a83b 7fb5 70bb af88 23bd
00000240: 3399 0abb d1ed d03c a39d 633b 882b 163c
00000250: 14be 1e3c c965 61bc a881 853c 732f 4c3c
00000260: 5d82 e3bc 6e49 d93b 3e27 d83c b3d9 cb3c
00000270: 80e0 fd3c 7d38 0e3d 52f4 3bbd ad9f 6d3c
00000280: 9e26 3f3c 9718 cfbc 8598 59bd 578c 683b
00000290: 18f8 80bc 5e3a 83bc ce29 43bd b0a7 40bd
000002a0: 96eb 93bb de74 883b 4295 e0bb 2e8b 49bb
000002b0: a8db 013d 50aa c439 f442 07bd a26d 883c
000002c0: 3990 183d 8a0b c3bc e4ae 193d 3cf1 acbb
000002d0: cd52 08bd 1b1e acb9 297a 323d 405f 273d
000002e0: 453a 1c3d 60cc 77bb 2137 1abd 1815 273d
000002f0: 8bce 23bd aadf b63a 313f b2bc efb1 6dbc
00000300: d1a8 b8bb 089e 6cbd 0b92 853c 56ae c13c
00000310: 1bbe 503c 7cf8 003d f85a e33b 2c34 c2bc
00000320: d028 3bb9 3219 ef3b 15c4 a73c e776 23bc
00000330: 77c6 eb3c 39f6 623c 10ce 353d b2eb 9a3c
00000340: 54ae c7bb 25bb 8e3c 908b 203d a87a ab3c
00000350: 0d45 d1bc 9d57 a8bb 5e33 1e3b 9c7e abbc
00000360: 4e40 0a3d 5188 4fbc e91e 15bd 1859 6d3c
00000370: d91b ad3c 936c 853c 85dc ab3c b8b6 3bbd
00000380: 975a dbba fc6c ebbc 8f6b c63b 8a3f 26bd
00000390: b9c7 3dbc 46f3 d6bb 51b7 49bd d1d5 e83a
000003a0: da88 bcbc f081 13bc 9421 92bb cdd5 62bc
000003b0: 7683 643c 3001 10bd bbce 22bd 77c4 f63c
000003c0: 8aed c0bb c1f4 ff3c 41ea 3abc 3338 e0bc
000003d0: ea1c 153c f28f 93bc ab31 30bd a27a 853c
000003e0: 5fca 36bd 4df1 3bbd 639d 1abd 635e 20bd
000003f0: 758d 6e3c 53f8 0c3d 70b3 3bbd 83ea aa3c
-0.042060576 -0.037115086 -0.027068086 0.015004191 0.02320945 -0.028472053 -0.000112621885 0.023754809
0.011856331 -0.027251406 -0.0288116 -0.05093228 -0.016559672 -0.04578696 -0.04266879 0.0037080667
-0.05194731 -0.033323687 0.022829613 0.016297199 0.029643113 0.024563968 -0.027877932 -0.0368431
0.017435325 -0.015850758 0.04356691 0.004510311 -0.039053753 -0.045377437 0.0295633 0.025330754
0.029380905 -0.023822252 0.02770903 -0.038134642 0.02299881 -0.032245066 -0.016969027 -0.0005233069
0.010855733 -0.009472032 0.008364901 -0.030596908 -0.018951355 0.028472843 0.026536414 -0.012031807
0.010810711 -0.0052960534 -0.011259352 -0.043750938 0.006950592 -0.01994939 -0.016568827 0.040555432
-0.03298694 -0.00029591224 0.015997414 -0.04051086 -0.035476234 0.016863173 -0.0033117244 0.039816108
-0.014911341 -0.04391053 -0.03645661 -0.036088075 -0.028914496 -0.020569734 -0.044156328 -0.02421553
0.0013381141 0.014423243 -0.0330942 -0.040663194 -0.009174553 -0.04465128 0.019842729 -0.04992765
0.014931711 -0.034016166 -0.0059897215 0.0026294694 -0.049484685 0.035822123 -0.03368694 -0.033005703
-0.022594629 -0.018191606 0.01977163 0.039884787 0.020876896 -0.0039152037 -0.032743577 0.00013454973
0.014512736 0.024125595 0.016379697 -0.0029307224 0.033156153 0.0035178766 0.04162238 0.029144691
-0.016044462 0.0044435537 -0.0056279125 0.010218879 0.020172207 -0.042092096 0.023143975 0.017977392
0.008445433 0.019198403 -0.015275416 0.01982587 0.022084935 -0.01724541 -0.023281751 0.034001578
-0.017037138 -0.047405567 0.008783238 -0.0015663616 -0.04435886 -0.04255372 0.0169401 0.029915683
0.01584406 -0.018211868 0.0190734 0.010893978 -0.015656183 -0.03286704 -0.03616555 -0.0026734504
-0.0036275776 0.031718384 -0.037451923 -0.015234172 0.0268009 0.0051510655 -0.0036729274 -0.039925274
-0.0021148443 0.025504025 0.003473141 0.009165652 0.009688873 -0.013757178 0.016297176 0.012462485
-0.027772123 0.006631068 0.0263859 0.02488408 0.030990839 0.03472184 -0.0458873 0.014503402
0.011666922 -0.02528028 -0.05312397 0.003548404 -0.0157433 -0.016019043 -0.04764729 -0.04703492
-0.004514168 0.0041643223 -0.0068537304 -0.0030753124 0.03170362 0.00037510926 -0.033022836 0.01665384
0.037246916 -0.023809213 0.037520304 -0.005277781 -0.03328209 -0.00032828827 0.043573532 0.04086232
0.038141508 -0.0037811026 -0.03765023 0.0407916 -0.039991897 0.0013952155 -0.021758648 -0.014507755
-0.005635359 -0.057767898 0.01630499 0.0236427 0.012740637 0.031486973 0.0069383346 -0.023706518
-0.00017848914 0.0072967047 0.020479241 -0.009977079 0.028781159 0.013852649 0.04438597 0.018911216
-0.0060937796 0.017423222 0.039195597 0.02093251 -0.025545621 -0.0051373974 0.0024139504 -0.020934395
0.033752732 -0.012666778 -0.03640643 0.014486574 0.021131443 0.016287124 0.020979175 -0.04582855
-0.0016735372 -0.028738491 0.0060553025 -0.04058794 -0.011583262 -0.006559762 -0.04924709 0.0017763918
-0.023014475 -0.0090031475 -0.004459569 -0.013844919 0.013947358 -0.035157382 -0.039747935 0.030122979
-0.005887692 0.031244637 -0.01140839 -0.027370548 0.009101132 -0.018012974 -0.043016117 0.016293827
-0.04462659 -0.04588442 -0.037747752 -0.039152514 0.014560093 0.034416508 -0.04582542 0.020863777

fc_advantage.0.bias f4 [64]
00000000: 26d3 4bbd 028c 523e 99b4 7ebe 8563 51bb
00000010: e210 7cbe d2c7 e6be 71db e63d 3701 273b
00000020: eb9e bcbc f25f 3dbe 983f b53e 66d1 83bd
00000030: aa2a 5ebd 982d fcbd 1122 25bd 9e25 8dbd
00000040: a458 f1be f714 bd3d a7c7 32bc b7c0 04be
00000050: fc03 1f3d 5885 28bc 507c 29bd db8e 583e
00000060: a515 093f 77de e7bc f97d 8a3d a60a 123e
00000070: 9a0a b93d d47f 39bd debb 05be 0187 c8bc
00000080: 3001 473f 9f94 b43d 3422 153f 3c68 bfbe
00000090: 6ed8 31be ffd0 ef3d 7e9d 84be f410 c83d
000000a0: a418 c63e 51f7 cdba 32f9 1abc eb49 6d3d
000000b0: 4e35 b8bd 2043 5cbd 6abd 08bd b5f6 62bc
000000c0: b6aa 9b3e d6ca c43c 46dc c73e 18b4 013e
000000d0: 04bd c03e d71f 8d3d 5b4e c7bc 1b46 67be
000000e0: ef7b 143e b735 fd3d 4633 0cbd e3df 26bd
000000f0: 9e5f 3f3d 7926 88bd c74d e4bd 11af 95be
-0.049761914 0.20561221 -0.2487358 -0.0031950187 -0.24615815 -0.45074326 0.11272324 0.0025482902
-0.023024997 -0.18493631 0.3540008 -0.06436424 -0.054239906 -0.12313384 -0.04031569 -0.068919405
-0.4713794 0.09232514 -0.010911859 -0.1296414 0.03882216 -0.010285698 -0.04137832 0.21148245
0.5354865 -0.028304322 0.067623086 0.14261875 0.09035225 -0.045287922 -0.13059947 -0.024478437
0.77736187 0.0881741 0.58255315 -0.37384212 -0.17367718 0.11709785 -0.25901407 0.097688586
0.38690674 -0.0015713965 -0.009458827 0.05793182 -0.08994542 -0.053774953 -0.033383764 -0.013852765
0.3040368 0.024022501 0.39035243 0.12666357 0.37644207 0.068908386 -0.024329355 -0.22585337
0.14500402 0.12363761 -0.034228586 -0.04074086 0.046722047 -0.06647963 -0.11147647 -0.29235128

fc_advantage.2.weight f4 [32, 64]
00000000: 7a20 c8bd a368 4dbe 49a9 bb3d 9abc 6dbd
00000010: f0af 51bd 225d 0abe b121 ebbd df6d 2e3e
00000020: d81a 2fbd b396 16be 579b 8f3c dcb3 273c
00000030: 55b0 3d3d 8bba 8dbd cef9 423c 6576 8abd
00000040: 9663 91bd 953a 3c3d e618 503d 07f6 1f3e
00000050: 3b9e b5bd 1e93 59bc 2550 c2bd 30f1 50be
00000060: 7194 bb3d f9be aebd 3057 48be 16a0 823e
00000070: df02 76b9 8369 9cbc 447a 033e e04e 803d
00000080: 06ed c83d cfc8 ecbc 9dc9 8b3c 0e94 40be
00000090: f51f b03d ba01 b6bd c017 53bd bd56 07be
000000a0: 21a9 823a 92e3 0e3d fd67 6e3d 5742 f2be
000000b0: 65d8 c83d 7577 863d c184 f5bc 849a 7bbd
000000c0: 79c3 0b3e 0af5 fabc 778d 26bd d68b 81bc
000000d0: 3841 5c3d 0eb1 6dbe 9aa5 b13d e793 2dbd
000000e0: c291 d5be a77e 17be 770d e7bb 29dd e43d
000000f0: 42c0 243d 11b9 3abd caea 81be f251 b3be
00000100: 7d57 29bd 1327 d6be b654 1e3e 282a af3c
00000110: c07c 25bd 1962 44bd aa01 7bbe 8ab2 d73c
00000120: 0f9f 9b3c 23bb 4cbe 5631 38be bb3c f03b
00000130: 25d6 b9bc 3546 653d 1e7c e0bd b6ae 29bd
00000140: 2898 99bd 359f a63e e0fe 893d 1ca3 a5bd
00000150: 5388 23bd 0bc1 5fbe e9ad a3bd b409 3abe
00000160: 16c6 6f3e b39f 603d 4353 f5bd 8ec4 103f
00000170: 4ee7 b13d 9283 d93d cd0e c8bd 7278 9bbe
00000180: c5bd bd3c 6758 e03d 0b7b e93c ad00 bcbc
00000190: b928 90bc 1d7b ebbd b6ad 8abe 6434 4a3e
000001a0: afd8 f9be 5098 0fbc 2bae ccbd 437c 1ebe
000001b0: 0d66 653e 8714 7ebc fe44 25bf f84b fdbd
000001c0: 2c4b 1dbd 75dd 4dbe 1ea8 a43d b6c5 eebd
000001d0: b9d3 0d3e 85b7 10bf 49db 62ba 9934 313e
000001e0: 0068 7bbe 7d98 1dbd e866 87be 1131 ad3c
000001f0: cf24 093e e424 3fbd b7cd b7be 94ac 3d3e
00000200: 36d7 96bd 2788 60be abb6 803d 446b e23c
00000210: 1aad 203e 1fac df3c 3942 73be d809 063d
00000220: dc5e 9b3d 3cc0 373c 6a85 b3bd 5507 a43d
00000230: de32 643d 4e80 a4bd 2976 2abb 7070 913d
00000240: 4853 3b3e 1d4d b33d 9281 8cbc eebc 533e
00000250: 4d17 1cbd 7768 5b3e 98bb 633d eaee 3cbe
00000260: fc58 94bd 3534 e2bd 24f8 a03e cc51 2abe
00000270: 3b41 503d 8dba 0a3e f3f3 bf3d c962 2e3e
00000280: 9ef6 11be e2c5 323e 79b8 15be 5ea6 583c
00000290: 0eb8 0c3d d19b a63e 2686 e93d 67db d03d
000002a0: 4c2a 903d 7b36 5b3d a12e 343e 097e babd
000002b0: ff36 ff3d e105 423b 67e6 babe b523 fd3c
000002c0: 4624 e1bd f017 583e 5975 13be 40a7 5cbe
000002d0: 4bdb 1f3c 3279 51be a0d5 98bd ba17 723e
000002e0: 902b b93c 90d8 323e 786a 8ebe 4493 1c3d
000002f0: cc21 a33d dbc4 ae3d 578b 2fbd 417e 3f3c
00000300: c78e e3bc 5f64 d13d da92 aabe 5871 ccbc
00000310: 3f3a 21be a7c3 f5be d665 90bc 2d7c 2dbf
00000320: 5137 cc3d ccaf 053e ab41 41bd 7f8c 883e
00000330: 0d07 fdbd e504 64be f22c f5bd eeda 013d
00000340: 6315 193d f364 3dbe bc08 05be c1b5 97bc
00000350: 91ec 83bd 15c2 943d 8cdd 7dbd e81d 903e
00000360: 3c7a c4bd 9c50 02bd 01a5 393d c229 a4bc
00000370: 5410 febd f4fa a23d d443 3cbe 85ea 643e
00000380: 78cd 3d3b bf75 72be 49b5 603d 8b74 d1be
00000390: 3145 81be 74ed 863d 7730 0abd 9b8d d1be
000003a0: 15f6 3b3e de04 693d e125 ff3d eaaa 4e3e
000003b0: 66c9 a4be 75d0 54bd ba0d 2dbd b10e bb3d
000003c0: 32ca 56be 7e37 1c3e 3d8b 90bd 79b6 9f3e
000003d0: 5352 eabc 1385 a03e c171 473d 51ca 59be
000003e0: 2995 7b3e 4fe7 023e 913c a73d e4ea c33d
000003f0: 8e11 39be 899b b5bd a0c1 823d 2a66 5ebd
-0.097718194 -0.20059447 0.09163148 -0.058041193 -0.051193178 -0.1351209 -0.114810355 0.170341
-0.04275021 -0.14705925 0.017530126 0.010235753 0.04631074 -0.06920346 0.011900378 -0.06760863
-0.07099073 0.045954306 0.050804995 0.15621196 -0.08868071 -0.013279704 -0.094879426 -0.20404506
0.09159172 -0.08532519 -0.1956451 0.2551276 -0.00023461458 -0.01909328 0.1283961 0.06265044
0.09810834 -0.028904347 0.01706391 -0.18806478 0.08599845 -0.08887048 -0.05153632 -0.13216682
0.0009968617 0.034884997 0.05820464 -0.47316238 0.09806899 0.06565753 -0.029970529 -0.061426654
0.13648786 -0.030634422 -0.040662255 -0.01581375 0.053773135 -0.23212072 0.08674164 -0.04237738
-0.41712767 -0.14794408 -0.0070511657 0.111749955 0.040222414 -0.04558665 -0.25374442 -0.35023457
-0.0413432 -0.41826686 0.15462002 0.021382406 -0.040402174 -0.047945116 -0.24512354 0.026330251
0.018996743 -0.19993262 -0.1798757 0.0073314584 -0.02268512 0.055975158 -0.109611735 -0.041426383
-0.074997246 0.3254334 0.06738067 -0.08087751 -0.03992493 -0.21850984 -0.07992155 -0.18167764
0.23415408 0.0548398 -0.119787715 0.5654992 0.08686696 0.10620798 -0.09768448 -0.3036533
0.023161778 0.109543614 0.028501054 -0.022949541 -0.017597543 -0.11498091 -0.27085656 0.19746548
-0.4879813 -0.0087643415 -0.099941574 -0.1547709 0.2240221 -0.015507824 -0.645584 -0.123680055
-0.038401768 -0.2010401 0.08039878 -0.11658804 0.13850297 -0.5653003 -0.0008653892 0.1730522
-0.24551392 -0.038475502 -0.264457 0.02114156 0.13392948 -0.04666604 -0.35899135 0.18522865
-0.07365267 -0.21926938 0.06284841 0.027639039 0.15691033 0.027303753 -0.2375573 0.03272423
0.07586452 0.011215266 -0.08765681 0.08009211 0.055712573 -0.08032285 -0.002601037 0.07101524
0.18293488 0.087549426 -0.017151628 0.2067754 -0.03810816 0.21426569 0.055598825 -0.18450513
-0.07243535 -0.11045114 0.31439316 -0.16632766 0.05084346 0.13547726 0.093727015 0.17029871
-0.14254233 0.17458299 -0.14621152 0.013223259 0.034355216 0.32540753 0.1140254 0.10198098
0.070393175 0.053518753 0.17595913 -0.091060705 0.124616615 0.0029605555 -0.36503908 0.030900816
-0.10993247 0.21102881 -0.14400233 -0.21548176 0.009756873 -0.20456389 -0.07462621 0.23641863
0.02260378 0.17465425 -0.27815604 0.03822638 0.079654306 0.08533641 -0.042857494 0.011687816
-0.027778042 0.102242224 -0.33315164 -0.02495639 -0.15744875 -0.48000833 -0.017626684 -0.677676
0.09971488 0.13055342 -0.047181766 0.2666969 -0.123548605 -0.22267492 -0.11971463 0.03170293
0.03737391 -0.1849554 -0.12991613 -0.018519284 -0.06441606 0.07263581 -0.06197886 0.28147817
-0.09593627 -0.031815156 0.045323376 -0.020039443 -0.12405458 0.07958022 -0.1838525 0.22355087
0.002896158 -0.23677729 0.054860387 -0.40909228 -0.252481 0.06588259 -0.033737626 -0.4092835
0.18355592 0.056889407 0.12458397 0.20182386 -0.32184905 -0.051956613 -0.04224942 0.091336615
-0.20975569 0.15255544 -0.070578076 0.31193903 -0.028603708 0.31351528 0.04869247 -0.21268584
0.24568619 0.1278355 0.08165849 0.09566286 -0.18073103 -0.088675566 0.06384587 -0.05429665

fc_advantage.2.bias f4 [32]
00000000: f59c 7f3d 8bf3 613e e02a 19be b6a8 0abd
00000010: 7fc4 4bbe eef0 513e 875c 0dbd 21de 633e
00000020: de86 233c 7656 5fbd 3fe6 a53e 19ce 60be
00000030: 29c7 21bf 880e 5e3b ffe8 463d 3cd9 3dbe
00000040: ef00 60bd 3510 1f3d ca98 323b db48 243e
00000050: ed31 dfbd 543a 93bc f573 e93d bda2 153d
00000060: b166 103e a7da b2bd e2ed a13e c17a d5be
00000070: 6e3d 083f 946a e63d 5518 0dbf 2d5c d43e
0.062405545 0.2206556 -0.14957762 -0.0338523 -0.19899176 0.20502064 -0.03451207 0.22252704
0.009980885 -0.054525815 0.32402226 -0.2195362 -0.6319452 0.0033883173 0.048562046 -0.185399
-0.05468839 0.038833816 0.0027251714 0.16043417 -0.108981945 -0.017972149 0.1139907 0.036532152
0.14101674 -0.08733111 0.31626803 -0.41695216 0.53218734 0.11250797 -0.5511525 0.41476575

fc_advantage.4.weight f4 [6, 32]
00000000: 8b59 853e ccfc fbbd 431b 4c3d 1d2e 353d
00000010: 1df1 243d 1723 bb3d b459 6ebd 2e60 703e
00000020: dd38 573b ceb5 843e ad1d 46be 9e33 2d3d
00000030: fadd 3c3d 98b6 be3c 0612 41bd 01c6 20bd
00000040: b5c9 c5bb 2c48 c5bd 481d 933d f8e6 ccbe
00000050: b987 0bbe 56eb 383e 8130 de3d 3a29 cdbe
00000060: 32c5 923d 04fb aa3e 7707 c4bd 734b 513e
00000070: c134 293e 8e65 03bd d1d0 963d 4493 2cbe
00000080: 59f1 85bd 84cd b03c 962a cebc f70d 1a3d
00000090: 969f dfbd 3ab6 c93d d31e c8bd 776f 6dbe
000000a0: c155 7c3e 2d1d 51bc 888d d73b d3a0 083d
000000b0: 73f7 203e 946b e33e 4cd1 86be df79 0c3d
000000c0: 7a75 2d3d b982 7cbd c5d5 0e3e 138d 15bd
000000d0: 0d2d 8dbd 9246 94bd efbd f0bd 3232 873d
000000e0: 7b48 82bf b4b2 8c3e f006 77be ad29 0e3e
000000f0: 0c5a 1b3e a835 aa3e 5a2e c53c 9847 8bbc
00000100: 3493 1c3e 3b73 96be ca83 a83d ff7f edbe
00000110: de6a 99be de98 14bf ccf4 4dbd ab0c c7bd
00000120: 7bf9 acbe 7bdf 1fbd 3102 353e 7b94 abbd
00000130: 0222 103e 2656 e4be bb4c c5bc b2f9 1ebb
00000140: a0bb 503d cfcc ef3e a5d0 713d f8ab bb3c
00000150: edc7 463e 76ab 9dbd 4539 d8bc a350 9a3d
00000160: 3009 d33e fa74 503c b245 4ebe e9d9 623e
00000170: 84e2 063e 9355 cdbe 6751 5e3d 93a9 25bd
00000180: 5df8 a03d 411f 86bd e281 82be 9b2f f4bd
00000190: ad73 aa3e b398 343e d0f0 ef3e 7985 8f3d
000001a0: 188b ae3c dd4d 203c 40dd 41be 55ec 96be
000001b0: fa08 32be a700 553d cbd9 473e 01a6 d9bb
000001c0: 3fec e03d 93b9 f8be ad44 aebe d10a 133e
000001d0: d0cc b93e faa1 593e 8cd8 e4bd a3db d13d
000001e0: ab8d 3e3d 4afc b3be 17f3 22bf 6ccb f03e
000001f0: 663d 803e 18b0 0a3e 25c9 c83e 8c4c 7f3e
00000200: 23ef bb3e 0656 9e3e daf5 2fbe bd40 2abe
00000210: 3f25 e73d d12b b83d afc7 62be 51ef b83d
00000220: b7ad 95bd 761a ca3d 3cad 67be a865 193f
00000230: b350 bfbe a8d0 4b3d 4168 a83c bd2f 60bd
00000240: 51a3 9a3d c7f9 8abe 5feb 413e 44f9 923e
00000250: a398 17be 6fbf c0be 6faf abbe ea86 5fbd
00000260: 876f 1f3e d40c 8fbe 3bda d23e 1ca6 29bf
00000270: 354f 603c aca3 6f3d 29f1 16bf a0db 9bbd
00000280: f45e 353d 109b f33d 7d02 593e 6308 353d
00000290: 7437 953d e887 d83d 5646 63be f98b 81bd
000002a0: 8f8f 19bd effd 863e f108 61be 482a 50be
000002b0: ad19 0a3e 3b9c 25bd 866d f63d ebd6 bf3d
000002c0: 9ed0 733b 4fc1 3fbe 6a52 8d3d 02f6 523e
000002d0: 815c 2d3d b505 993e f094 8a3c c548 193e
000002e0: ff1f 0fbd 208a 373d c3d5 3e3d f4f9 183d
000002f0: e348 97be a4bf d0bc 51b8 4d3e 53f5 cbbe
0.26044878 -0.123040766 0.049830686 0.04423343 0.040269006 0.09137552 -0.058191016 0.2347419
0.003284029 0.25919956 -0.19347258 0.042285554 0.04611013 0.023280427 -0.04713633 -0.03925133
-0.0060360082 -0.09632906 0.07183319 -0.40019965 -0.13625993 0.18058524 0.10849095 -0.40070516
0.07166518 0.33394635 -0.09571736 0.20438938 0.1652403 -0.032079272 0.07364047 -0.16853052
-0.06540174 0.021582372 -0.025166791 0.037610974 -0.109191105 0.0984921 -0.09771504 -0.23187052
0.24642088 -0.012763304 0.006578151 0.0333565 0.15719394 0.44418013 -0.26331556 0.034295913
0.042348363 -0.061648104 0.13948734 -0.036511492 -0.068933584 -0.07240023 -0.11754977 0.06601371
-1.0178369 0.2748009 -0.2412374 0.13883086 0.15171069 0.3324406 0.024069954 -0.017001912
0.15290529 -0.2938479 0.08228262 -0.46386716 -0.29964346 -0.58045757 -0.050282285 -0.09719213
-0.33784088 -0.039031487 0.17676617 -0.0837793 0.14075473 -0.44596976 -0.02408444 -0.0024257717
0.050960183 0.46835944 0.05903687 0.02290915 0.19412203 -0.07698719 -0.026394496 0.075349115
0.41217947 0.012723202 -0.20143774 0.22153439 0.13172346 -0.4010435 0.05427685 -0.04044492
0.078598715 -0.0654893 -0.25489718 -0.119231425 0.3329138 0.17636375 0.46863413 0.0700788
0.02130656 0.009784189 -0.18932056 -0.29477182 -0.17386237 0.052002575 0.19516675 -0.0066421037
0.1098256 -0.48579082 -0.3403677 0.14359595 0.36289072 0.21253195 -0.111741155 0.102469705
0.046521824 -0.3515342 -0.63652176 0.470302 0.25046843 0.13543737 0.3921596 0.24931544
0.36705884 0.30925006 -0.17183629 -0.16626258 0.11286401 0.08992732 -0.22146486 0.09030021
-0.07308524 0.09868328 -0.22624677 0.5992074 -0.37366256 0.049759537 0.020557525 -0.054733027
0.075506814 -0.2714369 0.18937443 0.287058 -0.1480432 -0.37646052 -0.33532283 -0.054572023
0.15569888 -0.27939475 0.41182122 -0.6626909 0.013690759 0.0585057 -0.5896173 -0.076102495
0.044280007 0.1189481 0.21192355 0.04419745 0.072859675 0.10572797 -0.221948 -0.06325526
-0.037490424 0.2636561 -0.21976067 -0.20328629 0.13486357 -0.040432196 0.12032609 0.09367164
0.0037203203 -0.18726085 0.06900485 0.20601657 0.042324547 0.29887167 0.016916722 0.14969166
-0.034942623 0.04480946 0.046590578 0.03734775 -0.29547796 -0.025482006 0.20089842 -0.39835605

fc_advantage.4.bias f4 [6]
00000000: 855d 253e 3ce7 eebd a550 61bd 1273 ad3d
00000010: bd0b 30be 4bbb 24be
0.16148956 -0.11665198 -0.05500855 0.084692135 -0.17191978 -0.16087072
