data/Torch/Dueling/002_CNN-1_E_L/checkpoints/weights_400000steps.pth (torch, 286623 bytes, 13 tensors)

conv_layers.0.weight f4 [32, 1, 3, 3]
000000 d7 50 c5 3c fa 81 66 3c ee 3c 05 3d c5 17 13 3e
       0.024086399 0.014069075 0.03252881 0.14364536
000010 0f 0c 9d be df aa 44 bd e9 7e 1c 3e 4e cd be 3d
       -0.30673262 -0.048014518 0.15282787 0.093165025
000020 1b 3f 4b 3e 83 06 98 be 77 e0 a8 3e 74 ed 43 3e
       0.19848292 -0.29692468 0.32983753 0.1913355
000030 56 34 d9 bd 57 d4 ab bd 67 8e 71 3e b7 4c 70 3e
       -0.106056854 -0.0839011 0.23589478 0.23466764
000040 bf 3c 05 be 52 a8 6d be 16 55 0e bf 87 2e 20 bd
       -0.13011454 -0.2320874 -0.5559858 -0.039106872
000050 49 39 cd 3d 9c 0a 98 3e e2 de 2d 3e e0 84 a1 bd
       0.10020692 0.29695594 0.16979554 -0.07886672
000060 42 1d 12 3d d8 6e 4d 3e f8 f5 51 be e6 f6 9d bf
       0.035672434 0.20061815 -0.20503986 -1.2340972
000070 fb 06 74 bd e0 d0 d7 3d f9 23 bc 3d ac 0f bd bb
       -0.05957697 0.105378866 0.09186549 -0.0057696905
000080 d6 ac 04 3d 04 f3 9f bb 5f 01 39 3a 57 d1 86 3c
       0.03239139 -0.0048812646 0.0007057394 0.016457243
000090 e4 3e 96 3e 1c 41 14 be 32 09 cb 3d f9 de 5c 3e
       0.29344857 -0.14477962 0.09913863 0.21569432
0000a0 ae 86 50 3e 82 32 90 3c c1 6f 2a 3d 1f c6 03 bd
       0.20363876 0.017602209 0.041610483 -0.032171365
0000b0 c3 bc 28 bd 50 f6 ba 3e 63 6a 0b 3c d6 50 1a bd
       -0.041195642 0.36516047 0.008509251 -0.037674747
0000c0 6d bf 63 bf 57 9a 98 3e 7d 23 ee bd 4f c5 62 be
       -0.8896397 0.29805252 -0.116278626 -0.2214558
0000d0 91 93 5f 3e ab 7c 1b bd f5 cc 20 3f 9f 17 9d bc
       0.21833636 -0.03796069 0.6281274 -0.019176302
0000e0 2e 4e 99 bc 33 7d 7c 3d 3c 28 cf be fe db 82 3d
       -0.018714037 0.061642837 -0.40460384 0.063896164
0000f0 eb 48 9c bb 02 74 f3 3c c2 fc 0f be d0 42 4e bf
       -0.0047694347 0.029718403 -0.14061263 -0.805707
000100 05 16 d1 3d f2 93 08 bf 68 03 23 3c 2e 5d 00 bc
       0.10209278 -0.53350747 0.009949543 -0.007834716
000110 f1 33 8e be 99 61 b7 3d 4d f6 6a 3d c3 d7 8b bd
       -0.27774003 0.08954162 0.057363797 -0.06828263
000120 82 32 1b bf ef be 26 3e 4a 20 ac 3d 1c 74 b8 bb
       -0.60623944 0.16283773 0.08404596 -0.0056290757
000130 f3 7a 8d 3e a7 13 13 be d7 2f 04 be 3c 80 86 3e
       0.27632865 -0.14362966 -0.12908874 0.2626971
000140 54 03 ce 3d 0e 4a 8a 3e 6d d9 5a be 0b 57 55 3d
       0.100592285 0.27009624 -0.21372004 0.052084964
000150 69 c1 d3 be 0f bd 91 bd 48 17 86 3e 17 eb 1a be
       -0.41358498 -0.07116138 0.26189637 -0.15128742
000160 d9 9d 28 be b2 db 57 3e 28 ad 88 be 33 1c df 3d
       -0.16466464 0.21079901 -0.26694608 0.108940504
000170 95 04 30 3e 42 da fa 3c 65 14 79 3e 5d 17 67 3c
       0.17189248 0.030621652 0.24324186 0.014104691
000180 12 80 16 be c7 31 94 be bf 0d 84 3d ef 10 09 be
       -0.14697292 -0.28944227 0.06447934 -0.13385366
000190 a1 dd b9 be aa 23 86 3d 0d f7 bb 3e 68 b7 52 3e
       -0.36301902 0.06549771 0.36711922 0.20577776
0001a0 53 de 66 3d 8f 9f 20 3d 84 65 85 be 8d 46 89 be
       0.05636437 0.039214667 -0.26054013 -0.26811638
0001b0 1a 4a 19 3e fd 0b b5 3c 24 08 66 3c ba 24 52 be
       0.14969674 0.022100443 0.014040027 -0.20521823
0001c0 d4 9d a8 bd 80 89 65 3e b6 24 09 3d 24 e3 bb 3d
       -0.08233228 0.22415733 0.033482276 0.09174183
0001d0 44 a1 3a bd c6 70 a5 bf c5 27 05 bd 55 6d 1d bd
       -0.04556395 -1.2925041 -0.03250863 -0.038434345
0001e0 eb 63 fb 3d c0 0d 0d be 62 1f 14 3e e9 ff ad 3c
       0.12274917 -0.13774776 0.14465097 0.021240192
0001f0 b8 e5 35 bc cf 4b d5 3d 77 09 c9 3e 7d d5 6d 3e
       -0.0111021325 0.1041485 0.39265034 0.2322597
000200 92 73 d8 bd 69 1a 93 3c 77 a8 52 be ee 3a 0c 3e
       -0.10568918 0.01795693 -0.20572077 0.13694355
000210 1b 8f 96 bd 7b 64 24 bc cb ea 3b be de 52 fd 3e
       -0.07351514 -0.010033722 -0.18351285 0.49477285
000220 02 93 b0 be 10 51 4e bd 32 a7 37 3d 18 cb a4 bd
       -0.34487158 -0.050370276 0.044837184 -0.080465496
000230 1a 28 91 3d 61 ad 92 bd 39 f2 39 3c f1 40 f5 3c
       0.07087727 -0.07161976 0.011349254 0.029938193
000240 49 e8 ac 3d c8 e7 32 3e 67 3e 09 3e 5d de 12 3e
       0.084427424 0.1747123 0.13402711 0.14342637
000250 56 a4 7b 3d 82 e0 b5 bd 8b 26 90 bd c3 c3 e2 bd
       0.06143602 -0.08880712 -0.070386015 -0.11072495
000260 6d 0c 47 be f3 90 1a 3c d9 8c 4f 3e b4 84 b9 3d
       -0.19438334 0.009433973 0.20268573 0.09058514
000270 a1 82 82 be e0 f8 0d be 6c 17 13 3d f9 3b 1f be
       -0.25490287 -0.1386447 0.03591101 -0.15550222
000280 be ca 07 3e d5 d3 e8 3d 14 8e f4 be 0d b4 10 3d
       0.13260934 0.11368529 -0.47764647 0.03532796
000290 49 94 03 bd 32 e2 b5 bc 39 82 09 3e ae ad 19 be
       -0.032123838 -0.022202585 0.13428582 -0.1500766
0002a0 d5 78 3b 3d 4a 64 21 3e cb 04 8c 3e 6b bb f0 3e
       0.04576953 0.15760913 0.27347407 0.4701799
0002b0 b5 f3 2a be 6f b6 34 3e 07 45 b2 3d 87 3c e7 be
       -0.1669453 0.17647718 0.08704572 -0.45163366
0002c0 d0 f6 24 be af c5 94 3d e4 61 80 be 44 6f 04 be
       -0.16109776 0.07264268 -0.25074685 -0.1293307
0002d0 a6 d4 51 3e dd a4 92 be f3 15 c4 3d e1 bd 9f be
       0.20491275 -0.28641406 0.09574499 -0.31199554
0002e0 52 ea 4b be b7 d3 52 3d 5c 36 5b be 3d a0 61 3e
       -0.19913605 0.05147144 -0.21407455 0.22033782
0002f0 69 fe 5b 3e 73 ed 0f 3f fc 50 ad bd 25 83 24 3e
       0.21483769 0.56221694 -0.08462712 0.16065653
000300 3f ab 50 be f8 8a 62 be 2b bd f3 bb 24 32 e9 bd
       -0.20377825 -0.22123325 -0.007438322 -0.11386517
000310 37 89 d3 3d 8a 6b f5 3b ab 77 1a 3c 66 5a 06 3e
       0.10328906 0.0074896263 0.009427945 0.13120422
000320 73 02 6d 3d 92 5a 3d 3e 75 e6 5a be 67 55 4a be
       0.057863664 0.18491581 -0.21376975 -0.19759141
000330 00 92 6c bb 12 c6 0a be c4 53 a3 3d d9 8e 57 be
       -0.0036097765 -0.1355212 0.079749614 -0.21050586
000340 4e 7a bc 3e b9 08 9c 3e 7f a0 d5 bd f4 b7 bf bc
       0.3681206 0.30475405 -0.10431003 -0.023403145
000350 b3 af 4b 3c 7b db 4e be 58 3c 16 3e 46 5b 52 bd
       0.012432027 -0.20200913 0.14671457 -0.051356576
000360 d7 e2 f4 3d cb 25 34 be b7 c1 45 3e 3d c4 8b 3e
       0.11957329 -0.17592542 0.19312178 0.27298155
000370 a5 de 9d bd 48 79 4c bd 63 ab 82 be 44 97 68 3d
       -0.07708482 -0.04992035 -0.25521383 0.056784883
000380 19 0a 4f be 42 11 6e 3e af dc 1a 3e e2 85 0f 3d
       -0.20218696 0.23248771 0.15123247 0.03503979
000390 e1 8c c3 3d 21 99 4c be 34 53 8e 3d ac da 38 be
       0.09548355 -0.19980289 0.069494635 -0.18052167
0003a0 37 ec 0c be 90 a6 32 be 13 e0 c4 be 45 26 e0 3c
       -0.13761984 -0.17446351 -0.38452205 0.027361998
0003b0 18 78 c9 3d df 75 02 3e d3 16 d1 3d 22 71 88 be
       0.09837359 0.12740277 0.102094315 -0.26648813
0003c0 46 00 9a 3d 5c da f7 3d 9e b7 a5 3d 8d 24 55 3e
       0.075195834 0.121021956 0.08091663 0.20814724
0003d0 96 3b cb 3d 21 ce ae be 4e d3 97 3e ad ee a4 bd
       0.099234745 -0.3414164 0.296534 -0.08053336
0003e0 13 0c 74 3d a1 80 83 be 34 d2 d9 3d 84 cf a3 3d
       0.059581827 -0.25684074 0.10635796 0.07998565
0003f0 9d 1d f9 3e 7f 99 5a bd bf 13 97 3d e2 f9 b5 be
       0.48655406 -0.05336904 0.07376813 -0.35542208

conv_layers.0.bias f4 [32]
000000 e5 ed 1e bf f8 b0 08 bf 40 1e f0 3e 4b 16 05 3f
       -0.6208175 -0.5339503 0.4689808 0.5198714
000010 2a fe ef be 44 0c 28 3d c0 bc 4b bc aa ab df 3e
       -0.468736 0.041027322 -0.012435138 0.43685657
000020 25 9b 35 3b c1 d3 11 be 89 2e cc 3e 27 23 0a be
       0.0027710882 -0.14240934 0.39879254 -0.13489972
000030 1d 5d b5 be 90 8c 18 3f 63 d5 d1 be 7b 3a 54 3e
       -0.35422602 0.5958948 -0.40983114 0.20725434
000040 e3 27 c7 be b8 3d fe 3e cd f9 0d 3f 9f a1 9c 3e
       -0.3889762 0.49656463 0.5545929 0.30592057
000050 db 7b e6 3e 9f 52 e1 be 97 ab 80 3e 6a 74 25 bf
       0.4501637 -0.44008347 0.25130913 -0.6463076
000060 df fc ed 3e bd d4 ed 3e d3 51 15 3f c2 57 f6 be
       0.46481988 0.4645137 0.5832798 -0.4811383
000070 ce ef ff bd d8 59 b8 3e b5 83 c3 3e 45 54 d6 be
       -0.12496911 0.36006045 0.38186422 -0.41861168

fc_state.0.weight f4 [64, 512]
000000 a0 58 2b 3c e3 4d 88 bc 96 78 a5 bc bc 7b f7 bb
       0.010458142 -0.016638702 -0.020199101 -0.007552592
000010 b5 0c 01 3d 5d 39 10 bd 45 34 a8 3c 30 58 21 bd
       0.03150626 -0.035210956 0.020532737 -0.039390743
000020 b1 26 fe 3c af bd 82 bc e6 f8 b6 bc 15 24 0e 3d
       0.031024309 -0.015959589 -0.02233548 0.03470238
000030 76 47 dd 3c 45 84 be bb ac 5c a1 3a 80 cd c2 3c
       0.027011614 -0.0058141076 0.0012310944 0.02377963
000040 d5 5a f4 3c f0 f5 e6 bc df 5b 2d bc bc 73 eb 3c
       0.029828468 -0.028193444 -0.010580986 0.02874171
000050 08 2e de 3c cd 7d 24 bb f5 6d 06 bc b7 e4 d5 3b
       0.027121559 -0.0025099397 -0.008204927 0.006527509
000060 dd 5d 8f bc 6a 79 d3 3c 11 06 04 bd 3c 9d 42 3c
       -0.017500812 0.02581473 -0.032232348 0.011878308
000070 a7 96 63 3c 06 35 95 bc ca cf d7 3c dc b8 06 3d
       0.013890899 -0.01821376 0.026344199 0.03289114
000080 cb 0f 03 3c a3 83 42 bd 2f 56 a8 3c fb 26 f0 3b
       0.007999371 -0.04748882 0.020548908 0.0073288656
000090 eb 83 30 3c b3 47 8b 37 03 1d 65 bb 52 a7 c8 bc
       0.010773639 1.6603479e-05 -0.003495992 -0.024493847
0000a0 bc cb 16 bb 06 2f 0c bd 8d db ed 3c b0 c9 6d 3c
       -0.0023009619 -0.034224533 0.029035354 0.014513418
0000b0 65 e6 ce 3a 2c c5 3d bb 9e fc bd 3b 19 8b 25 bd
       0.0015785216 -0.0028956635 0.0057979366 -0.040415857
0000c0 7d b4 cc bc 13 12 3e bd 40 e8 e0 bb e8 6b 09 3d
       -0.024988407 -0.046403956 -0.006863624 0.033550173
0000d0 e8 ba 41 bd 19 62 f1 3c 04 17 4e 3c 89 0a 6a bc
       -0.04729739 0.029465722 0.01257873 -0.014284738
0000e0 fd 79 25 bd 71 94 0f bd d4 a4 cc bc 67 cd 23 3c
       -0.04039954 -0.035053674 -0.02498094 0.009997702
0000f0 59 41 39 3c d4 21 2a 3b e3 76 36 bd 8e b7 2f bd
       0.011307084 0.0025960105 -0.044546973 -0.04289966
000100 a2 60 9d 3c c9 3a 48 3c 00 b9 27 3c f0 e4 cc bb
       0.019211117 0.012221047 0.0102369785 -0.0062528774
000110 e7 47 fb 3c 9d 29 b4 3c be 22 97 3c 31 65 b2 3c
       0.030673934 0.021992499 0.018449184 0.021776767
000120 44 fc cc 3b ff d9 ec 3b ef 97 df 3c e6 1f 12 3c
       0.0062556583 0.0072281356 0.027294127 0.008918738
000130 f0 72 d5 bb ca a4 ca bc 78 54 0a bd 15 96 f5 bc
       -0.0065139458 -0.02473678 -0.033771962 -0.029978791
000140 d4 8e f8 3b a1 fd 20 3d 08 3d 23 bd 20 6e 03 bc
       0.007585386 0.03930438 -0.039853126 -0.008021861
000150 d6 b0 18 3d e8 25 34 3c a4 97 0b 3d 12 d1 22 3d
       0.03727802 0.010995366 0.034080163 0.039750166
000160 4c 8c 1e 3c b7 31 5c bc 41 18 c1 bc c0 92 40 ba
       0.009677004 -0.013439587 -0.023571135 -0.0007346086
000170 a4 b1 15 bc ac 4c c5 3a 20 e5 94 bb 0d 4e 6d 3c
       -0.009136591 0.0015052757 -0.0045439154 0.014483941
000180 21 7a 47 bd 74 8e da bc 28 a2 92 3c e6 18 40 bc
       -0.048700456 -0.026679255 0.017899588 -0.011724686
000190 c1 7b 35 bc 2d 6a 9b bb d1 bc 22 bd 83 02 30 bc
       -0.0110768685 -0.0047428817 -0.03973085 -0.010742786
0001a0 c0 2f 12 bd a5 f0 3c ba 3f 19 00 bd 35 c3 12 bd
       -0.03569007 -0.00072074897 -0.031274077 -0.035830695
0001b0 93 32 19 3c 33 87 da 3b 31 e1 c2 3c 6c 3f 83 3c
       0.009350437 0.006668949 0.02378902 0.016021453
0001c0 bc a7 85 3c cb b5 41 bb 3e 53 7c 3b d6 1f 9f 3b
       0.016315334 -0.002955782 0.0038501765 0.00485609
0001d0 27 4e 25 3c 34 64 0a bc f6 9b a3 3c 20 dd 8b bc
       0.010089434 -0.008446742 0.019971829 -0.017073214
0001e0 1f 8a e2 3c de 9c 3f bd 7a ee 08 3d 26 33 21 3d
       0.027653752 -0.04678046 0.033430554 0.03935542
0001f0 ae f6 05 3d 02 14 21 bd 49 a9 f2 bc ab fa a1 bc
       0.032705955 -0.03932572 -0.029621737 -0.019772848
000200 c8 38 06 3d 9a 3b 12 3c a4 df 2c bd ba 98 a1 bc
       0.032768995 0.008925343 -0.042205468 -0.019726146
000210 df 6b 17 3d 48 d3 9d 3b cd 2c 0e bd a9 38 74 bc
       0.03696811 0.0048164465 -0.034710694 -0.014906087
000220 33 0b 30 3d 3f 32 9a 3c ce 11 ae 3c 32 a9 4e 3c
       0.04297943 0.018822787 0.021248724 0.0126135815
000230 c0 ec 38 3c 60 54 0f bb 23 df 8c 3c 29 4b d3 3c
       0.011286914 -0.002187036 0.017196244 0.025792675
000240 07 4e f5 3c e2 37 af bc a7 84 26 bd ba af 03 3d
       0.029944433 -0.021388952 -0.04065385 0.032150008
000250 a0 87 74 3c 6e 38 d4 3c 5a a4 40 bd f9 70 1b 3c
       0.014924914 0.025905814 -0.047031738 0.009487384
000260 af 25 2a 3d a4 6d 2c bd b5 15 e3 bb f9 2b c3 3a
       0.041539844 -0.04209675 -0.006930078 0.0014890424
000270 90 6b 22 bd e0 dc 1f 3d e3 b4 ae 3c e4 14 8c 3c
       -0.03965336 0.039029002 0.021326488 0.017099805
000280 d0 5e b1 bb 02 9c cc bc 44 06 d8 3b 91 8f 85 bc
       -0.005412914 -0.024976734 0.006592544 -0.01630381
000290 1d 8d c4 3c 4e 61 ba 3c d0 3b 72 bc c0 93 d3 3c
       0.02399307 0.022751477 -0.014784768 0.025827289
0002a0 f3 50 15 bb a5 85 2e bd ae ba e3 3b 56 b1 01 3d
       -0.0022783845 -0.042607922 0.006949744 0.03166326
0002b0 05 a4 c2 3c 6f c5 d9 3a 5a 24 d6 bc d3 a9 11 bd
       0.023759851 0.0016614626 -0.02614038 -0.035562348
0002c0 8a 0b 1c bd 11 2c a1 bc 96 3d 2a bd 17 56 e3 bc
       -0.038096942 -0.019674333 -0.04156264 -0.027751012
0002d0 ab c6 00 3d c8 73 17 3a 96 9e 1f 3d bc 56 df bc
       0.031439465 0.00057774456 0.0389696 -0.027263038
0002e0 c6 13 b2 3c 60 30 04 3b 80 80 c4 3a 8f 84 23 3d
       0.021737944 0.0020170435 0.0014991909 0.03992134
0002f0 4b 3e 2e bd 80 bf 81 bc c0 cf 7c ba 18 7a b7 bb
       -0.042539876 -0.015838385 -0.0009643994 -0.0055992715
000300 24 27 b0 bc 17 9e bc bc 98 2a 1d bd cb b7 29 bd
       -0.021503039 -0.023024602 -0.0383707 -0.041435044
000310 69 7a a7 3c 5c c0 4b 3a 96 5c 1e bd 62 4f 0c bd
       0.020444112 0.0007772499 -0.038662516 -0.034255393
000320 18 a2 ee bc 37 c4 4a bc 36 e2 94 3c dd 19 21 bc
       -0.029130027 -0.012375883 0.018174272 -0.009832826
000330 aa 80 03 bd f7 2b 21 bc 8c 5d 3d bd 63 02 e0 bc
       -0.032105125 -0.009837142 -0.04623179 -0.027344888
000340 34 c3 03 bd de f4 61 bc 03 ab cf bc 8c da 12 bc
       -0.032168582 -0.013791291 -0.0253501 -0.008963238
000350 8e f5 1d 3d 04 56 f5 3b 08 70 5c 3c 49 04 2b bd
       0.038564257 0.0074870605 0.013454445 -0.041752134
000360 48 c2 08 3d 7d af c1 bc 00 3d 91 bb e6 6e 27 bc
       0.033388406 -0.02364325 -0.0044323206 -0.010219311
000370 38 f4 a3 bc 97 0c 8a bc 67 5d 1a bc 99 0c fe 3c
       -0.020013914 -0.016851706 -0.009421683 0.031011866
000380 76 ab 2b bd ca 77 68 3b 88 1f 83 3c ba cb 18 3b
       -0.041911565 0.003547179 0.016006246 0.002331479
000390 61 4f 0e bd ea de ad 3c 73 a3 ff bc 88 8a a0 bb
       -0.03474367 0.021224458 -0.031205868 -0.0048993267
0003a0 1e 33 28 bd 9f bb 1c 3c 95 9f bc 3c d9 7d ee bb
       -0.041064374 0.009566217 0.023025313 -0.007278186
0003b0 28 b8 1a 3d 36 7b 0c bd a5 70 18 bc 4b 8e 1e 3a
       0.03777328 -0.03429719 -0.0093042 0.0006048425
0003c0 e9 47 f1 bc 33 45 98 bc 98 72 2e bd 20 29 b0 3c
       -0.029453235 -0.018587684 -0.042589754 0.021503985
0003d0 32 15 96 3c 60 eb 3d 3c 48 85 0c 3d b9 aa fd ba
       0.018320654 0.011591762 0.034306794 -0.0019353247
0003e0 81 71 c2 bc b8 76 32 bd 68 04 8f 3c b7 06 10 bd
       -0.023735764 -0.04357025 0.017458156 -0.035162654
0003f0 9e d6 a2 3c 96 16 25 bd 2a b6 0a 3d 7b 36 d5 bc
       0.019877728 -0.040304743 0.03386513 -0.026026955

fc_state.0.bias f4 [64]
000000 d4 cb 6e bb 51 40 ea bc 9b e9 11 3d 9c 2c f9 bc
       -0.003643741 -0.028595122 0.035623174 -0.03041678
000010 81 85 c2 39 36 e3 16 bc 7d 02 5d bc 9b 48 e2 3c
       0.00037102032 -0.009209445 -0.013489363 0.027622512
000020 43 dd c9 bc 7c b7 04 3d 32 72 ef 3c c7 43 16 bd
       -0.024641639 0.032401547 0.029229257 -0.03668573
000030 99 76 83 3c ed 14 7a 3d c3 3b bd 3c 77 4e f2 3c
       0.016047763 0.061055113 0.023099786 0.02957843
000040 bf 98 ca bc bf 5c 2e bd 68 b7 41 bd a2 34 ea 3a
       -0.024731038 -0.04256892 -0.04729405 0.0017868469
000050 78 44 2f bd 7f ed df bc 95 30 8c bc 3f c4 f1 bc
       -0.042789906 -0.027334927 -0.01711301 -0.029512523
000060 e8 87 c5 3c dd 8c a9 3d b5 26 90 3c b0 b3 9a 3a
       0.024112657 0.08278821 0.017596582 0.0011802819
000070 74 ed 0e bd dd 7b 62 3d d8 04 b9 bc cc e9 5d bc
       -0.03489442 0.055293906 -0.022585317 -0.013544511
000080 a9 dc f8 bc 7a ab 25 bd a1 41 14 bd 69 bc 91 3b
       -0.030378656 -0.040446736 -0.0361954 0.004447509
000090 f4 b6 17 bd b3 4b 35 bd 6c 2a fc 3c 09 4f 4e 3c
       -0.037039712 -0.044261646 0.030781947 0.012592086
0000a0 80 47 8e bb 83 50 36 bd 9f 26 e2 3c f6 ab e0 bc
       -0.0043420196 -0.044510376 0.027606307 -0.027425747
0000b0 aa 30 5f 3d 3a b2 3b bb 2c 68 95 bc ae e3 9a bc
       0.05448977 -0.0028640167 -0.01823815 -0.018907394
0000c0 30 99 05 bd e1 47 36 3d 96 38 23 bd 33 95 c1 3b
       -0.032616794 0.044502143 -0.039848886 0.0059076785
0000d0 f0 89 2d bd 2a 59 61 bd 39 bf 9e 3d 48 5b 61 bd
       -0.042367876 -0.055016674 0.077513166 -0.055018693
0000e0 35 1e e2 bb ef 02 c6 3d 95 f8 b2 bc 06 8d 07 bc
       -0.0069005736 0.09668528 -0.021847049 -0.008273369
0000f0 83 a7 87 bd e3 e5 5c 3c 1d 32 dc bc 2e e6 ec b9
       -0.06623747 0.013482544 -0.026879365 -0.00045184925

fc_state.2.weight f4 [32, 64]
000000 f9 f2 de bd bb 5e bf 3d f1 20 da bc a0 f0 51 3d
       -0.10886187 0.0934424 -0.026627036 0.05125487
000010 3e 9b ec 3d 47 75 a1 bd 60 85 33 bc 55 c1 eb 3c
       0.115530476 -0.07883697 -0.010957092 0.028778711
000020 0d 4d d5 3d 31 58 d5 bd 0b 09 4e 3d e2 83 a3 3d
       0.10415087 -0.10417212 0.050301593 0.07984139
000030 c5 3b c0 bd 30 be cb bd ba f7 4b bd 00 d9 42 3d
       -0.093864 -0.09948385 -0.049796797 0.04757023
000040 2f da ef bd ae de e3 3d e9 99 8a 3d 9c b8 f9 b8
       -0.11711537 0.11126457 0.06767637 -0.000119076314
000050 53 95 dc bd 06 b0 12 3d b5 cd b2 bd 97 48 82 bd
       -0.10770669 0.0358124 -0.08730642 -0.06361502
000060 8b b9 e8 3d 69 2d 47 3d 95 21 53 bc fc 4b 84 3d
       0.113635145 0.04862729 -0.012886425 0.06459805
000070 0d cb f6 3c b6 e5 be 3c 6a dd 8d bb b0 b6 15 be
       0.030126119 0.023302894 -0.004329373 -0.14620471
000080 71 f3 48 3d 79 81 9f bd c1 0a d7 bd 87 c9 02 be
       0.04906029 -0.07788367 -0.10500098 -0.12772189
000090 e6 e5 85 bd 90 d6 77 3c 06 4c 30 be 37 8f f7 bd
       -0.0653799 0.015126839 -0.172165 -0.12087863
0000a0 85 0e 91 3d bf fc e1 bb 7f 4b a6 3d 09 0b 1e bd
       0.070828475 -0.0068965848 0.081198685 -0.038584743
0000b0 a5 ae d7 3c b9 cc 38 bc 5f f1 4f be c3 de 90 bd
       0.026328394 -0.011279278 -0.2030692 -0.070737384
0000c0 87 00 e4 3d 26 e6 75 3d 5f 7d e1 3d 4c 73 6e 3d
       0.11132913 0.06003394 0.11010241 0.058215424
0000d0 4c 4c a8 3d 23 22 b9 3d 98 1a 10 bc b8 c1 c8 bd
       0.082176775 0.09039714 -0.008795403 -0.09802574
0000e0 c9 60 e1 3c 3f 8d f5 bc fe 85 d2 3d 14 a2 ed bd
       0.027511971 -0.029974578 0.10279463 -0.116031796
0000f0 0e 70 e2 3d e6 b3 fa 39 fd b4 32 bd cd 7a 9d 3c
       0.11056529 0.0004781775 -0.043629635 0.019223595
000100 ef a4 be 3d d5 f8 f7 bd 78 b6 1c 3d 28 2b 33 bb
       0.09308802 -0.12108008 0.038259953 -0.0027338956
000110 cd 17 75 3d d9 60 87 3d 4f 1c d9 3c 67 c3 8c bd
       0.05983715 0.06610269 0.026502756 -0.068732075
000120 04 94 b0 bd e8 f1 e5 bd 1f ae e0 3d 19 e8 10 bd
       -0.08621982 -0.112277806 0.10970711 -0.035377596
000130 f8 6d 06 3d 28 ef a8 3d 57 57 69 bc 23 4d b8 3c
       0.032819718 0.082487404 -0.014242015 0.02249772
000140 02 77 0d bd fa ac 52 3d 75 4b 15 ba dd 26 f1 bb
       -0.034537323 0.051434495 -0.0005695143 -0.007359369
000150 64 6f ba bb 5c a8 3b 3d 53 e1 05 3d 2f f8 9d 3c
       -0.0056895483 0.045814857 0.03268559 0.019283382
000160 a5 8f 4b bc 9a ea 19 bd 47 b9 98 3d 7c 14 aa 3c
       -0.012424384 -0.03757725 0.07457214 0.02076172
000170 f7 12 a0 3d 3e c3 09 3e 78 48 4c bb d0 9a 84 3e
       0.07816117 0.13453385 -0.0031171124 0.25899363
000180 92 be 28 3d 4f ca 2c 3e eb ed 75 3d 75 60 5e 3d
       0.041197367 0.1687405 0.06004135 0.054291207
000190 65 92 15 3e 72 22 f5 bd 68 a8 b9 3d 57 7a f6 bc
       0.14606626 -0.119694605 0.09065324 -0.030087633
0001a0 d2 ea e0 3d ea c6 5b 3d 46 c8 63 3d 85 e7 cf bd
       0.109822884 0.053656496 0.055610918 -0.10151581
0001b0 13 d2 06 3d 8d 76 86 bd 56 9d a1 3d 4a c0 ac 3d
       0.032915186 -0.065655805 0.078913376 0.08435114
0001c0 04 eb 30 bc b0 c4 f1 3d 99 70 9d bc 86 cb a1 3d
       -0.01079822 0.11805093 -0.01921873 0.07900147
0001d0 ef 48 b9 bc cd 14 49 3d 3d 28 28 bc 32 af 0c bd
       -0.022617785 0.049092103 -0.0102635 -0.034346767
0001e0 85 22 45 bd 2c b1 89 3d 5d 77 c1 bd 39 d4 31 be
       -0.048128624 0.06723246 -0.09446595 -0.17366113
0001f0 68 cf 3f bd df 12 99 3d 7c b1 6f bb 62 57 37 3e
       -0.046828657 0.074743025 -0.0036574295 0.17904428
000200 91 86 dc 3d b0 92 28 bd f6 dc 81 bd e9 3e d6 3d
       0.10767854 -0.041155517 -0.06340973 0.10461218
000210 05 38 c7 3d 85 79 e0 3d 3d eb 8c bd 67 bf 85 bd
       0.09727482 0.10960678 -0.06880806 -0.06530648
000220 a5 55 90 bd f0 bd 8a 3d 86 09 37 3b fe d4 dd bd
       -0.070475854 0.06774509 0.002792926 -0.10831641
000230 b9 87 e5 bd f6 f3 38 be 9b b3 9d bd ba d8 06 bd
       -0.11207528 -0.18061814 -0.07700273 -0.03292153
000240 17 87 ad bc 00 6f 06 3d f1 86 a5 bd 6c c2 92 bd
       -0.02118258 0.0328207 -0.08082379 -0.07165989
000250 d1 58 f8 bd ff 8d 8f 3d 52 6e b4 3d ae e9 5e bd
       -0.121263154 0.070095055 0.088101044 -0.054422073
000260 aa ba bb bd 3d ce 86 3d 84 97 ed bd 42 c1 f2 3d
       -0.09166463 0.065823056 -0.11601165 0.11853267
000270 29 68 4d bd 38 86 37 3d 9e f6 8a 3d 60 df 54 be
       -0.050148163 0.044805735 0.0678532 -0.20788336
000280 66 15 5a 3d b8 c9 1e bd 40 b1 f6 bd 1c 28 26 bd
       0.053243063 -0.038766593 -0.120455265 -0.040565595
000290 61 87 33 bd 72 e4 d7 3d ca 33 8b 3d 0b 09 3e 3c
       -0.04383028 0.10541619 0.06796987 0.011598836
0002a0 71 17 e3 3d 0b a2 30 bc 8a 65 e4 3d d1 c9 f9 3d
       0.110884555 -0.010780822 0.111521795 0.121966965
0002b0 09 d3 9e 3c 83 85 ca bd ed c1 84 bd d2 66 f9 bc
       0.019387739 -0.098887466 -0.06482301 -0.030444536
0002c0 e8 03 64 3b a2 93 00 3e 12 0a 46 bc 92 82 ea bc
       0.0034792367 0.12556317 -0.012087362 -0.028626714
0002d0 48 07 e2 bd ba 4b e5 3d 0c 63 da bd d9 0e 97 3d
       -0.11036545 0.11196084 -0.10663423 0.07375879
0002e0 ae 48 91 bd 95 36 34 be 30 7d 4d bd 17 07 40 bd
       -0.07093941 -0.17598946 -0.050168216 -0.04688176
0002f0 c1 af 9e bb b5 fc 49 3d 5b 04 31 bc 9e ea d6 3d
       -0.004842729 0.049313266 -0.010804261 0.104939684
000300 42 4d f4 3d 5b 12 eb bd a9 6e fd bd e8 95 74 3d
       0.11928798 -0.114781104 -0.123746224 0.059713274
000310 a9 9e 71 3d 08 2e bf 3c f3 9f 3e bd 54 b2 a2 3d
       0.0589892 0.02333738 -0.04653926 0.0794417
000320 05 30 e3 bd a9 67 50 3d 74 6b c8 bc cc 11 47 bd
       -0.110931434 0.050880108 -0.0244653 -0.048600957
000330 42 e7 5b bd 8f 7b a5 ba 5a ae 1d 3d 36 7b d6 be
       -0.05368734 -0.0012625324 0.038496353 -0.41890877
000340 cf 6d b5 bd c7 a1 2a bd 39 2e 72 3d 75 57 e9 3d
       -0.08858835 -0.04165819 0.059126113 0.11393634
000350 f2 a7 8f ba 8c 4e 9e bd 18 3e 59 bc fe 1d 29 bd
       -0.0010960086 -0.077298254 -0.013259433 -0.04128837
000360 d0 cf 13 3d d5 72 c3 3d 7c 1e c3 3d 55 de b7 ba
       0.036086857 0.09543387 0.09527299 -0.0014028052
000370 40 f1 7a 3d 8b c3 3a bd 22 17 e9 bd 43 7b f1 ba
       0.06126523 -0.04559664 -0.11381365 -0.0018423576
000380 b4 60 12 be da 17 d7 bb 05 86 9e 3d 9b 22 82 3c
       -0.14294702 -0.0065641226 0.07740406 0.015885642
000390 26 6a bb 3d 1e 42 48 bd 56 13 22 be f2 d5 0e 3c
       0.091511056 -0.04889118 -0.15827689 0.008718001
0003a0 7e d1 a7 3d 0d d9 4b 3d 57 dd 13 3c ae 2b 85 3d
       0.08194254 0.049767543 0.0090249395 0.06502472
0003b0 7d c8 e2 bd dc 3c e9 bd 7a 12 87 be 95 9a 84 bc
       -0.11073396 -0.11388561 -0.26381284 -0.016186992
0003c0 f2 b4 a2 3d 30 3d 13 3e 02 01 0a 3c 66 43 03 bd
       0.07944669 0.1437881 0.008423092 -0.032046698
0003d0 0d 64 a2 bd 00 04 ec 3d 41 bc 83 3a d5 64 86 bd
       -0.079292394 0.115242004 0.0010050611 -0.06562201
0003e0 fc 5e f0 3d 20 fd d7 3d c5 a5 48 bd 59 76 73 3c
       0.11736867 0.10546327 -0.048986215 0.014859759
0003f0 9c d7 91 bd df 4f cb bb 7c 52 bd bd 7c cb 68 be
       -0.07121202 -0.0062045897 -0.09244248 -0.22733873

fc_state.2.bias f4 [32]
000000 65 a2 19 3e 76 33 4e 3d 6c d2 c2 bd 31 c3 06 3e
       0.15003355 0.050342046 -0.09512791 0.13160397
000010 57 7c da bd b3 e2 4e 3e 4b 42 2b be e6 91 3f bd
       -0.10668247 0.20203666 -0.16724508 -0.04677
000020 15 96 bc 3d 86 5b cc 3d 8e e8 0e be 78 66 1b 3e
       0.092083134 0.09978394 -0.139559 0.15175807
000030 b3 f5 c7 bd 62 11 33 3e 30 f0 43 3d 68 ef 75 bd
       -0.0976366 0.174871 0.047836483 -0.06004277
000040 28 e2 1d bd 46 e0 8d bd 47 45 c5 3d 36 5b 0c 3d
       -0.038545758 -0.069275424 0.09632354 0.034266673
000050 df d6 d4 bd 3c a4 ff bc dd 77 e7 bc 6b 6f c5 3c
       -0.10392546 -0.031206243 -0.028255397 0.02410098
000060 3c 32 0b 3e 90 f2 e6 bc 33 1b 4b 3e de a4 11 3e
       0.13593382 -0.028191835 0.19834594 0.14223048
000070 29 28 5b bd 59 f9 04 3e 41 e9 de 3c 80 c8 c8 bd
       -0.053505097 0.12985744 0.027210834 -0.09803867

fc_state.4.weight f4 [1, 32]
000000 57 08 82 bd 55 87 0d 3e 30 4f c7 3d 08 bb 8c be
       -0.06349247 0.13821156 0.09731901 -0.27486444
000010 58 1d 26 be a6 fe 05 be df db 4a bc a0 01 14 be
       -0.16222131 -0.13085422 -0.012381523 -0.14453745
000020 69 53 ed bd 2a ad f6 bd b1 e3 9e 3d a8 cf 74 bd
       -0.11588175 -0.12044747 0.077582724 -0.05976835
000030 b0 b4 05 be 04 cc d0 bc e9 aa 36 3d 9e e0 11 3d
       -0.13057208 -0.025487907 0.044596586 0.035614602
000040 a9 67 ce 3d 10 f8 1f be b9 ea c8 3d c6 c3 96 3d
       0.10078365 -0.15621972 0.09810395 0.073615596
000050 60 c8 28 3e 53 2b 0f 3e c8 a6 04 bd ca 02 85 bd
       0.16482687 0.1398137 -0.032385617 -0.064946726
000060 45 78 2b bd 04 65 1e be f9 c8 c0 bd 04 10 70 be
       -0.041862745 -0.15468222 -0.094133325 -0.2344361
000070 a6 66 81 bb 29 03 a3 bd a9 db d1 3d 68 9f 13 be
       -0.003949004 -0.07959587 0.10246975 -0.14416277

fc_advantage.0.weight f4 [64, 512]
000000 24 45 1f bd 72 03 0b bd ae b8 c3 bc 58 ef 94 3c
       -0.038884297 -0.033938833 -0.023891773 0.018180534
000010 f0 26 d8 3c 5d 39 cf bc c6 c6 48 3b 79 9e dc 3c
       0.026385754 -0.025295908 0.0030636056 0.026931034
000020 2a 4b 76 3c 53 39 c5 bc 5d 01 d2 bc e8 9b 43 bd
       0.015032569 -0.024075186 -0.025635416 -0.047756106
000030 26 a8 87 bc a6 88 2e bd 03 c3 21 bd 73 72 e1 3b
       -0.016559672 -0.042610787 -0.03949262 0.0068800985
000040 47 c4 47 bd 6b 7e 08 bd 2b 05 bb 3c f2 86 9f 3c
       -0.04877117 -0.033323687 0.022829613 0.019473527
000050 1d d6 f2 3c 60 3a c9 3c d3 65 ca bc ca e8 16 bd
       0.029643113 0.024563968 -0.024706757 -0.0368431
000060 87 d4 8e 3c 9c b3 4f bc 37 73 32 3d 3b cb 93 3b
       0.017435325 -0.0126771 0.04356691 0.004510311
000070 d4 f6 1f bd b1 dd 39 bd bc 2e f2 3c 2b 86 e9 3c
       -0.039053753 -0.045377437 0.0295633 0.02850636
000080 d9 5a 05 3d e2 26 c3 bc 95 03 fd 3c 4d 30 0f bd
       0.032557342 -0.023822252 0.030885497 -0.034958173
000090 00 68 bc 3c 67 13 04 bd 76 ff 61 bc 88 2e 09 ba
       0.02299881 -0.032245066 -0.013793817 -0.0005233069
0000a0 ed e3 65 3c d7 52 ce bb f0 0c 09 3c 5e a6 fa bc
       0.0140313925 -0.0062964964 0.008364901 -0.030596908
0000b0 df 3f 9b bc e1 3f e9 3c e5 62 d9 3c fe 23 11 bc
       -0.018951355 0.028472843 0.026536414 -0.008858679
0000c0 03 2a 65 3c 84 8a ad bb 3a 6e 04 bc 89 31 26 bd
       0.013987067 -0.0052960534 -0.008082921 -0.040574584
0000d0 cb c1 e3 3b e7 6c a3 bc 59 bb 87 bc 74 1d 26 3d
       0.006950592 -0.01994939 -0.016568827 0.040555432
0000e0 50 1d 07 bd ab 24 9b b9 02 0d 83 3c b7 ee 25 bd
       -0.03298694 -0.00029591224 0.015997414 -0.04051086
0000f0 87 4f 11 bd a3 24 8a 3c 84 09 59 bb 37 16 23 3d
       -0.035476234 0.016863173 -0.0033117244 0.039816108
000100 b2 4e 74 bc e1 d8 26 bd 05 51 08 bd 17 d1 13 bd
       -0.014911341 -0.040734176 -0.03328039 -0.036088075
000110 f3 d8 d2 bc 92 7c 8e bc ae da 27 bd 41 5a ac bc
       -0.025738215 -0.017393384 -0.040980034 -0.02103913
000120 4a ee 93 3b ff 2c 90 3c 40 16 f5 bc cd 8b 19 bd
       0.0045144903 0.01759958 -0.029917836 -0.03748684
000130 33 8c c4 bb 99 e1 29 bd 91 92 bc 3c 44 7e 3f bd
       -0.0059981584 -0.041474912 0.023019107 -0.046751276
000140 23 a4 74 3c 89 54 0b bd 6d 45 c4 bb 2d 53 2c 3b
       0.014931711 -0.034016166 -0.0059897215 0.0026294694
000150 74 b0 4a bd 38 ba 12 3d 51 fb 09 bd fd 30 07 bd
       -0.049484685 0.035822123 -0.03368694 -0.033005703
000160 5f 18 b9 bc 90 06 95 bc 1d f8 a1 3c 3b 5e 23 3d
       -0.022594629 -0.018191606 0.01977163 0.039884787
000170 06 06 ab 3c 1c 4b 80 bb 21 1e 06 bd eb 15 0d 39
       0.020876896 -0.0039152037 -0.032743577 0.00013454973
000180 d4 c6 6d 3c 16 a8 df 3c b7 2e 86 3c 5d 11 40 bb
       0.014512736 0.02730183 0.016379697 -0.0029307224
000190 1c d1 14 3d 2d 8c 66 3b 3b 7c 2a 3d f2 62 04 3d
       0.036332235 0.0035178766 0.04162238 0.032320924
0001a0 ad 6f 83 bc 3b 9b 91 3b 5a ac 20 bb 3c 77 5b 3c
       -0.016044462 0.0044435537 -0.0024516792 0.013395127
0001b0 4e 45 bf 3c 42 66 1f bd 78 9d d7 3c 78 4a ad 3c
       0.023348477 -0.03891588 0.026320204 0.021153674
0001c0 b7 5e 0a 3c f8 45 9d 3c bd 45 7a bc dd 69 a2 3c
       0.008445433 0.019198403 -0.015275416 0.01982587
0001d0 77 eb b4 3c 3f 46 8d bc 5f b9 be bc 3d 45 0b 3d
       0.022084935 -0.01724541 -0.023281751 0.034001578
0001e0 78 91 8b bc 57 2c 42 bd 92 e7 0f 3c 60 4e cd ba
       -0.017037138 -0.047405567 0.008783238 -0.0015663616
0001f0 a3 b1 35 bd cf 4c 2e bd f7 c5 8a 3c bc 11 f5 3c
       -0.04435886 -0.04255372 0.0169401 0.029915683
000200 f7 d0 9b 3c 0e 31 95 bc 61 45 b6 3c d7 87 66 3c
       0.01902054 -0.018211868 0.02224988 0.014070473
000210 84 80 4c bc b2 3a f3 bc e5 1f 07 bd 0e 35 2f bb
       -0.012481812 -0.029691074 -0.0329894 -0.0026734504
000220 19 c0 ec b9 96 ed 0e 3d 30 67 19 bd c0 98 79 bc
       -0.00045156552 0.03489455 -0.037451923 -0.015234172
000230 08 7e f5 3c 45 ca a8 3b 7f b5 70 bb af 88 23 bd
       0.029967323 0.0051510655 -0.0036729274 -0.039925274
000240 33 99 0a bb c0 f2 ea 3c a3 9d 63 3b 88 2b 16 3c
       -0.0021148443 0.028680205 0.003473141 0.009165652
000250 14 be 1e 3c c9 65 61 bc a8 81 85 3c 73 2f 4c 3c
       0.009688873 -0.013757178 0.016297176 0.012462485
000260 5d 82 e3 bc 6e 49 d9 3b 3e 27 d8 3c b3 d9 cb 3c
       -0.027772123 0.006631068 0.0263859 0.02488408
000270 80 e0 fd 3c 7d 38 0e 3d 52 f4 3b bd ad 9f 6d 3c
       0.030990839 0.03472184 -0.0458873 0.014503402
000280 de 2f 73 3c 97 18 cf bc 0a 96 4c bd cc f6 db 3b
       0.014842955 -0.02528028 -0.049947776 0.00671277
000290 18 f8 80 bc 25 72 52 bc e6 33 36 bd b0 a7 40 bd
       -0.0157433 -0.012844597 -0.044483088 -0.04703492
0002a0 1b 98 af ba 6a 82 f0 3b 42 95 e0 bb 2e 8b 49 bb
       -0.0013396771 0.0073397653 -0.0068537304 -0.0030753124
0002b0 e6 dd 0e 3d 50 aa c4 39 f4 42 07 bd a2 6d 88 3c
       0.034879588 0.00037510926 -0.033022836 0.01665384
0002c0 39 90 18 3d 8a 0b c3 bc 6a b1 26 3d 3c f1 ac bb
       0.037246916 -0.023809213 0.04069654 -0.005277781
0002d0 cd 52 08 bd 1b 1e ac b9 29 7a 32 3d 40 5f 27 3d
       -0.03328209 -0.00032828827 0.043573532 0.04086232
0002e0 45 3a 1c 3d 60 cc 77 bb 21 37 1a bd 18 15 27 3d
       0.038141508 -0.0037811026 -0.03765023 0.0407916
0002f0 8b ce 23 bd aa df b6 3a 31 3f b2 bc 38 ae 39 bc
       -0.039991897 0.0013952155 -0.021758648 -0.011333041
000300 d1 a8 b8 bb c6 9b 5f bd 0b 92 85 3c 56 ae c1 3c
       -0.005635359 -0.054591917 0.01630499 0.0236427
000310 2a 61 82 3c fb e9 0d 3d f8 5a e3 3b 2c 34 c2 bc
       0.015915472 0.03464697 0.0069383346 -0.023706518
000320 d0 28 3b b9 32 19 ef 3b 15 c4 a7 3c e7 76 23 bc
       -0.00017848914 0.0072967047 0.020479241 -0.009977079
000330 77 c6 eb 3c 39 f6 62 3c 10 ce 35 3d 49 26 b4 3c
       0.028781159 0.013852649 0.04438597 0.021990912
000340 f7 2f 3f bb 25 bb 8e 3c 58 8e 2d 3d 3d 80 c5 3c
       -0.0029172876 0.017423222 0.042372078 0.024109
000350 0d 45 d1 bc 9d 57 a8 bb 5e 33 1e 3b 9c 7e ab bc
       -0.025545621 -0.0051373974 0.0024139504 -0.020934395
000360 4e 40 0a 3d 51 88 4f bc e9 1e 15 bd 18 59 6d 3c
       0.033752732 -0.012666778 -0.03640643 0.014486574
000370 d9 1b ad 3c 93 6c 85 3c 85 dc ab 3c b8 b6 3b bd
       0.021131443 0.016287124 0.020979175 -0.04582855
000380 97 5a db ba fc 6c eb bc 8f 6b c6 3b 8a 3f 26 bd
       -0.0016735372 -0.028738491 0.0060553025 -0.04058794
000390 b9 c7 3d bc 46 f3 d6 bb 3d ba 3c bd eb 43 a2 3b
       -0.011583262 -0.006559762 -0.04607605 0.004951944
0003a0 da 88 bc bc f0 81 13 bc 80 3e a8 ba 32 cc 2e bc
       -0.023014475 -0.0090031475 -0.0012836009 -0.010668801
0003b0 87 46 8c 3c f9 fe 02 bd 84 cc 15 bd d1 64 08 3d
       0.017123474 -0.031981442 -0.036571994 0.03329927
0003c0 8a ed c0 bb 2d fd 0c 3d e1 e2 06 bc 33 38 e0 bc
       -0.005887692 0.034421135 -0.008232803 -0.027370548
0003d0 9b 26 49 3c 61 16 73 bc a8 39 23 bd ec 7f 9f 3c
       0.012277271 -0.0148368785 -0.039849907 0.019470178
0003e0 0b c8 29 bd 4d f1 3b bd f9 9a 0d bd f2 5b 13 bd
       -0.04145054 -0.04588442 -0.03457162 -0.035976358
0003f0 9c 4b 91 3c bd fa 19 3d 06 b1 2e bd 42 ef c4 3c
       0.017736249 0.03759264 -0.04264929 0.024039868

fc_advantage.0.bias f4 [64]
000000 85 d0 3e bd 0b ba be 3d 81 83 5e be 42 34 00 3c
       -0.04658558 0.09312829 -0.21729852 0.007824959
000010 0b ac 5d be fb 9b 86 be 6e ac 2a 3d 90 7f 46 bd
       -0.2164766 -0.2629088 0.041668348 -0.048461497
000020 eb 9e bc bc 4e 29 9b bd c5 3a 96 3e 2f e3 2f bc
       -0.023024997 -0.075762376 0.29341713 -0.010735317
000030 7f 76 c0 3c f0 10 a5 bd 8f 6f b6 bb 9f 09 82 bd
       0.023494003 -0.08059871 -0.005567498 -0.06349491
000040 97 5c 59 be f4 45 73 bc a7 c7 32 bc 27 0f 23 3c
       -0.21226726 -0.014848221 -0.010911859 0.009952343
000050 f5 63 1b 3d ca 48 85 3d 50 7c 29 bd d8 18 a8 3d
       0.037937123 0.06508024 -0.04137832 0.082078636
000060 9f 43 bb 3e de c1 ce bc cc 30 4f 3d f0 ee f4 3d
       0.36575028 -0.025238927 0.050583646 0.11959636
000070 31 e9 b5 3d cc df 73 bd ec c3 89 bd 2e 93 cc b9
       0.08882368 -0.0595396 -0.06726822 -0.0003901957
000080 e7 2a da 3e a9 b8 92 3c e5 63 bf 3e 34 f9 68 be
       0.42610857 0.017910318 0.373809 -0.22751313
000090 4f c8 6c bd c9 6f 02 3e f0 e9 fe bd 77 01 67 3d
       -0.057808217 0.12737955 -0.12446964 0.05639788
0000a0 3b 41 a7 3e 65 5c d2 3a 3e 94 24 3d 2a 4a 8e 3c
       0.32666954 0.0016049264 0.040180437 0.017369349
0000b0 36 e2 b1 bd 47 40 4f bd 40 35 05 bb 76 5c 0f bc
       -0.086857244 -0.05059841 -0.002032593 -0.008750072
0000c0 22 2a 96 3e e0 06 7a 3d 81 b1 a5 3e 7d b3 c8 3c
       0.2932902 0.061041713 0.32361987 0.02449965
0000d0 0d da 9f 3e cf 6d 53 3d 24 44 93 bc 19 31 e1 bd
       0.31221047 0.051618394 -0.017976828 -0.10995693
0000e0 25 f6 2e 3e 30 d3 ff 3d 2d 76 9a 3b e3 df 26 bd
       0.17086084 0.12491453 0.0047137947 -0.04074086
0000f0 38 6e 3a 3c 6a bc 10 bd ee 0a 3e bd 3f aa 25 be
       0.011378817 -0.035335936 -0.046397142 -0.16178225

fc_advantage.2.weight f4 [32, 64]
000000 7a 20 c8 bd be b8 f5 bd 6e d6 ad 3d e0 3a b5 bd
       -0.097718194 -0.119981274 0.08488165 -0.0884912
000010 1c e2 5a 3c 71 47 be bd 45 68 4b bd 4d 0e d7 3d
       0.013359573 -0.0929097 -0.049659986 0.105007745
000020 d8 1a 2f bd 15 cf a8 3d bd 5c 88 bd 59 85 a2 bb
       -0.04275021 0.08242623 -0.066583134 -0.004959744
000030 0f bb 32 3d 80 84 81 bc d4 7e c6 3d 65 76 8a bd
       0.043635424 -0.015810251 0.09692159 -0.06760863
000040 db 27 9b bd 0a 10 2b 3d e6 18 50 3d c3 af da 3d
       -0.07575961 0.041763343 0.050804995 0.10678055
000050 7f 77 08 bd 06 77 cc bd 25 50 c2 bd 94 b4 63 bd
       -0.033317085 -0.099836394 -0.094879426 -0.055592135
000060 90 08 39 3d f9 be ae bd 10 5c 8a bc 9f d6 a7 3c
       0.04517418 -0.08532519 -0.016889602 0.020488081
000070 23 42 31 bd 96 07 e2 bc ca 9a b2 3d 49 b6 1b bd
       -0.043275964 -0.027591508 0.0872093 -0.038015638
000080 67 07 36 3c 87 fb de bd a2 b2 33 bd 1a 07 ac bd
       0.011110163 -0.10887819 -0.04387153 -0.08399792
000090 5d b7 ba 3a 7b 87 c5 bd 76 ba 29 3d 2d 1f 00 be
       0.001424532 -0.096449815 0.04143759 -0.12511893
0000a0 8c 04 94 bd 92 e3 0e 3d 44 fc 42 bd 40 31 78 bd
       -0.0722743 0.034884997 -0.04760386 -0.060593843
0000b0 ff d4 6b 3d 75 77 86 3d da 98 9a bd 92 60 82 bd
       0.057576176 0.06565753 -0.07548685 -0.063660756
0000c0 c7 0b 93 bc fb e9 e0 bd 5a d9 a3 3c 90 18 24 bd
       -0.017949952 -0.10982128 0.020001102 -0.040062487
0000d0 d4 0b 7b bd 6f 97 d6 3d 9a a5 b1 3d 54 b2 8e bd
       -0.061290577 0.104781024 0.08674164 -0.06967607
0000e0 0a 20 ef bd 7a 9c 3c bc 7f c5 23 3d 29 dd e4 3d
       -0.11676033 -0.011511916 0.03998327 0.111749955
0000f0 e5 07 a7 3d 40 0d c1 bc db 8d e9 bd 69 6a a1 bd
       0.08155803 -0.023565888 -0.1140401 -0.07881624
000100 c2 54 1c bd b1 74 47 be 0c 2c 1e 3e d2 a5 e2 3b
       -0.03816677 -0.19478108 0.1544649 0.00691674
000110 22 36 d9 bc 13 ef 89 3d b0 42 29 be d0 03 86 bc
       -0.02651507 0.06735053 -0.16529346 -0.01635924
000120 0f 9f 9b 3c e5 0e 5b bd 51 c6 42 bd 0c 46 17 bc
       0.018996743 -0.053481 -0.04755241 -0.009233009
000130 0c 82 ca bd ab c6 c4 3d c2 5a 01 be f0 98 3b bd
       -0.09888086 0.096082054 -0.12632278 -0.04580015
000140 d6 2f 98 3d dc e4 f0 3d e0 fe 89 3d 70 15 17 bd
       0.07430999 0.117624015 0.06738067 -0.03688568
000150 9f 88 a6 bd 1b 05 7e bd e9 ad a3 bd 78 f5 65 be
       -0.08131527 -0.062016588 -0.07992155 -0.2245692
000160 d6 f3 da 3d 61 55 5c 3d e1 fb 07 3e 06 04 0d 3e
       0.10691039 0.05379236 0.13279678 0.13771066
000170 1b 7b 64 3d f5 9d 82 3d 99 36 a1 bc 48 08 45 be
       0.055781465 0.06377784 -0.019679355 -0.1924144
000180 3f 48 2e 3c 5d 9f 58 bc 77 84 0f bd 82 8f ea 3c
       0.010637342 -0.013221589 -0.035038438 0.028632883
000190 5b b7 1b be 5d 73 74 bd bc dc 99 bd 16 04 2a 3e
       -0.15206663 -0.05968033 -0.07512805 0.16603121
0001a0 ca 4b 16 bd f1 9c 43 bc 41 b2 20 be e6 7d 84 3d
       -0.03669337 -0.011939273 -0.15692998 0.06469326
0001b0 72 f0 92 3d ea 09 4a bc 08 46 97 be c7 a9 de bd
       0.071747676 -0.012331465 -0.29545617 -0.10872226
0001c0 3e fe c7 3d c8 f4 7a bb 6b 15 b8 3b 94 e2 f7 bd
       0.0976529 -0.0038292874 0.0056177876 -0.12103763
0001d0 07 6a 7d bd 66 e0 47 bd 49 db 62 ba 87 d1 20 3e
       -0.061868694 -0.048797987 -0.0008653892 0.15704928
0001e0 6d 6e 4d bc 83 11 18 3b 76 44 5c be 11 31 ad 3c
       -0.012538535 0.0023203797 -0.21510491 0.02114156
0001f0 1a 69 ef 3d 31 35 e0 bc 91 e2 8b be 42 21 ee 3d
       0.116899684 -0.027369114 -0.27321294 0.11627437
000200 36 d7 96 bd b7 94 1d be 1d 48 4f 3d aa 27 3d 3d
       -0.07365267 -0.15388761 0.050605882 0.046180405
000210 ba e9 f4 3d 85 8e b3 3d e1 09 db bd 62 30 e9 3b
       0.11958642 0.08767418 -0.106952436 0.0071163634
000220 dc 5e 9b 3d 9e f4 f6 3d 32 60 ed bc 21 6f b3 bd
       0.07586452 0.12058376 -0.028976534 -0.087614305
000230 5a 25 14 3e 23 57 9b bc 5c fa 94 bd e8 9d 59 3d
       0.14467373 -0.018962448 -0.07274315 0.053129107
000240 11 0f 5d 3e 13 90 08 3e 92 81 8c bc b4 cf 49 3e
       0.21587779 0.1333621 -0.017151628 0.19708139
000250 34 a1 53 bd 76 ef d4 3d 98 bb 63 3d b4 68 f3 bd
       -0.051667407 0.10397236 0.055598825 -0.11885205
000260 8c af 86 bc fe 61 d6 bd ab a0 28 bc fb cc 9b bb
       -0.01644113 -0.10467909 -0.0102922125 -0.00475466
000270 57 c3 71 3d 30 67 05 3e 2a a7 bc 3c 0e f1 8e 3e
       0.05902418 0.13027644 0.023028929 0.27918285
000280 b8 ad e8 bd 88 c6 37 3e 07 b2 04 be b1 fb 94 b9
       -0.11361259 0.17946827 -0.12958537 -0.00028416284
000290 02 2e 8e 3b d3 b7 42 3e c5 6d 8c 3d fe 59 d1 3d
       0.0043389807 0.19015436 0.068568744 0.10222243
0002a0 f1 26 33 be b7 34 4e 3d 6b 89 73 3d 36 26 84 3e
       -0.17495324 0.05034324 0.059457224 0.25810403
0002b0 25 41 b8 3d bf 19 c9 3b 80 e8 c9 be d2 85 05 3d
       0.089968 0.0061371024 -0.39435196 0.032598324
0002c0 d9 b8 91 bd f4 88 86 3d 59 46 07 be 2e 88 8c bd
       -0.07115335 0.065690905 -0.13210429 -0.06861912
0002d0 d2 e1 b7 3c ae f5 98 bd a0 d5 98 bd 40 0c 10 3e
       0.022446547 -0.07468735 -0.07462621 0.14067173
0002e0 4b 36 81 bc ab 1f 7d 3d ee ae b1 bb 44 93 1c 3d
       -0.01577296 0.06179778 -0.0054224646 0.03822638
0002f0 3c 23 92 3c ea 48 b9 3d 7f df e5 bc c9 cb a1 3d
       0.017839067 0.090471104 -0.028060673 0.07900197
000300 c7 8e e3 bc da ca 66 3d 02 a2 31 be 33 66 1e 3c
       -0.027778042 0.056345798 -0.17346957 0.009667921
000310 d9 fe 4b be 8f 24 84 be 55 12 d9 3c 9c 15 08 bf
       -0.19921435 -0.25809142 0.026498 -0.53157973
000320 51 37 cc 3d 7b e6 c1 3d 9c 2e b6 3d 00 56 93 3e
       0.09971488 0.09467789 0.08895609 0.2877655
000330 32 3a 26 be d2 aa bc bd 3f 9f cf bd ee da 01 3d
       -0.16233137 -0.09212269 -0.10137796 0.03170293
000340 bc 07 61 3d 02 5b b7 bd bc 08 05 be 9d 30 04 bd
       0.054939017 -0.08952905 -0.12991613 -0.032272924
000350 d9 88 1d 3b df e6 d0 3d 8c dd 7d bd fa 7e 4d 3e
       0.0024037866 0.10200285 -0.06197886 0.20067969
000360 af 89 3b bd f7 6f 0a bd 30 ac 30 3d 51 3a 30 be
       -0.045785602 -0.033798184 0.04313296 -0.17209746
000370 85 8b 4c be d2 7d 0a be 15 7b 4a be fe 18 cb 3d
       -0.19975097 -0.13524559 -0.19773515 0.09916876
000380 82 de ad bc 54 1b 3f be 22 8d 1b 3d cf 9b da be
       -0.021224264 -0.18662769 0.03797639 -0.42696998
000390 d0 51 2a be 51 5e a8 3d 75 e7 f6 bb 49 cf f5 bd
       -0.16632771 0.082211144 -0.007534916 -0.12002427
0003a0 a2 33 94 3d de 04 69 3d a8 1f 1d bd be d5 87 3c
       0.07236411 0.056889407 -0.038360268 0.016581412
0003b0 b1 df c6 3c 75 d0 54 bd 9d 7e 4d 3d 29 ed c7 3d
       0.024276586 -0.051956613 0.050169576 0.097620316
0003c0 07 1b 57 bd 02 b6 1b 3e 4c f8 66 bd 0d 59 85 3e
       -0.05251601 0.15206149 -0.056389138 0.26044503
0003d0 f6 6b ae 3d d8 a5 97 3e c1 71 47 3d 93 5d 8f be
       0.08516686 0.29618716 0.04869247 -0.2800108
0003e0 92 36 e3 3d d5 a9 b7 3d 2e 4b 1c bc e4 ea c3 3d
       0.11094393 0.0896794 -0.009539409 0.09566286
0003f0 69 29 f5 bd 57 b1 c5 bd 1f 66 2c 3d 5a 97 95 3b
       -0.11970789 -0.096529655 0.042089578 0.0045651617

fc_advantage.2.bias f4 [32]
000000 cf ed cf bc 70 6d 8a 3d 77 ec a8 bd e2 88 d6 39
       -0.02538195 0.06759155 -0.08248227 0.00040919246
000010 ac ae 0c be 6a d5 56 3e 97 fd 5a 3d 74 99 f6 3d
       -0.13738507 0.20979849 0.0534645 0.120409876
000020 3c 86 4a 3d 1a d0 8d bd 89 45 8c 3e 64 18 f6 bd
       0.049444422 -0.06924458 0.273968 -0.12016371
000030 eb 14 f2 be 03 92 5d bd 83 9c 0e 3c dd 50 27 be
       -0.47281584 -0.054094326 0.0087043075 -0.1633944
000040 a0 aa 3f bd 6d 77 37 3d 7c 05 30 bc 6f 4a 9f 3d
       -0.04679358 0.044791628 -0.010743495 0.07777869
000050 32 92 ae bd a8 26 83 3d 6c 54 00 3e 51 bc fb 3b
       -0.08523978 0.064038575 0.12532204 0.007682361
000060 68 c1 19 3e 0e e7 94 bc a6 23 0c 3e 74 b1 6e be
       0.15015185 -0.018176582 0.13685474 -0.2330988
000070 24 66 c6 3e ad c2 dc 3d 00 72 c1 be 85 7c 8f 3e
       0.38749802 0.10779319 -0.37782288 0.28024688

fc_advantage.4.weight f4 [6, 32]
000000 b4 db 16 3e 0e 02 ab bd 15 9e b5 3d 6d fe 82 bd
       0.14732248 -0.08350001 0.088680424 -0.06396184
000010 fd e3 a2 3d 52 30 88 3d 98 26 4b bd 5f 04 61 3e
       0.079536416 0.06649841 -0.049597353 0.21974324
000020 35 45 1d 3c 22 e1 e6 bc 30 bc 5f be 7f 6e 8f 3c
       0.00959902 -0.028183524 -0.21849132 0.017508743
000030 1f 12 a1 bd ac 1f 36 be 68 86 64 bd 1b 98 67 bd
       -0.078647844 -0.1778552 -0.055792242 -0.056541543
000040 86 58 d4 bb ee 37 86 bd 47 1f df 3d f0 20 8c be
       -0.0064802794 -0.065536365 0.108946376 -0.2736888
000050 a3 28 2a be 54 17 a3 bd a3 12 66 3e ae f5 87 be
       -0.16617064 -0.07963434 0.22468047 -0.26554626
000060 68 9e 9f 3d 46 ac c2 3e cc 26 1c be 89 59 df bc
       0.077938855 0.3802206 -0.15249175 -0.027264373
000070 55 5c 09 3e 76 b8 93 bd 34 cd ac 3b be eb b5 bd
       0.13414128 -0.072129175 0.0052734856 -0.08882855
000080 19 97 c6 3d 24 a7 17 3d 3c d5 32 bd ba 5f 87 3e
       0.09696788 0.037024632 -0.043660387 0.2644022
000090 e4 5d 18 be 66 88 7d 3d f7 85 06 be 93 df 41 be
       -0.14879566 0.061897658 -0.13137041 -0.18932943
0000a0 a6 b7 89 3e 01 e3 c9 bc 3a 15 33 3d 49 16 f3 3d
       0.26897925 -0.024644377 0.043721415 0.11869485
0000b0 33 95 55 3d ce 6b 6c 3e ac 69 7b be 86 ef 98 3d
       0.05214424 0.23087999 -0.2455203 0.074675605
0000c0 55 ce 2b 3d 6c 2a 29 be 77 d5 33 3e 15 1b a4 3c
       0.04194482 -0.16520089 0.17561899 0.020032445
0000d0 e4 5a c2 bd a4 db f9 bd b7 eb 28 be a5 a7 d4 3d
       -0.09489992 -0.12200096 -0.16496168 0.10383538
0000e0 e6 fe 42 bf d5 12 26 3e c5 21 03 be 25 97 1b bc
       -0.76170194 0.16218121 -0.12805851 -0.009496485
0000f0 6b bf b8 3d 42 77 cf 3e b1 40 2b be 54 0c 38 3d
       0.09020885 0.40520674 -0.16723897 0.044933632
000100 17 c4 d5 3d c0 34 11 be 44 10 a0 3d 78 86 ee be
       0.10437792 -0.14180279 0.078156024 -0.46586967
000110 85 6d 8c be 79 1c 07 bf f6 d4 19 be 29 bd ac 3c
       -0.27427307 -0.5277782 -0.15022644 0.021086292
000120 34 d1 b7 be 67 41 cc bd a4 f9 89 3d f2 9a 33 bd
       -0.35901797 -0.09973412 0.06737068 -0.04384894
000130 37 ff 3d bd 94 5d ec bd 42 20 6f bc cf 66 12 3d
       -0.04638597 -0.11541286 -0.014595093 0.035742577
000140 ce e9 4e 3d a0 85 f6 3e 05 a2 7a bd b0 e6 34 bd
       0.050515942 0.48148823 -0.06118967 -0.044165313
000150 f9 e3 81 3e f8 71 f6 bd fd 12 93 bd 25 a9 cb 3c
       0.25369242 -0.120334566 -0.07181356 0.024860928
000160 8a e0 a8 3e 55 84 f1 3c 54 3f 12 be ae d7 21 3d
       0.3298381 0.029482046 -0.1428197 0.03951233
000170 79 0e da 3d 5d db 04 bf 95 3f d0 bd d4 8f 0d be
       0.10647292 -0.5189722 -0.10168377 -0.13824397
000180 70 de a7 bd 0e 53 2d bd e8 85 a7 be 10 48 20 3d
       -0.081967235 -0.042315535 -0.3271935 0.039131224
000190 69 49 80 3e c0 3c 89 3e dd 41 df 3e 72 76 49 bd
       0.25056008 0.2680416 0.43604937 -0.049185224
0001a0 a6 1b 5b 3b 7a 56 b0 3c 6f 52 57 be 92 60 4b be
       0.0033433228 0.02152561 -0.2102754 -0.19861057
0001b0 e9 2a 97 be 3e d1 05 3e 05 5f 29 3e 5d 56 39 3d
       -0.29524925 0.13068101 0.16540153 0.045248378
0001c0 4f 03 e0 3d 5f 9c 0b bf 49 3b a4 be 04 86 ed 3d
       0.10938131 -0.5453548 -0.3207648 0.11597827
0001d0 14 40 06 3e 37 68 b8 bd 60 e1 0e be b8 e5 cf 3d
       0.13110381 -0.090042524 -0.13953161 0.10151237
0001e0 9d b4 db 3d f0 53 8c be bd 38 03 bf e8 be a0 3e
       0.107278086 -0.2740779 -0.5125845 0.3139565
0001f0 f7 c2 8a 3e 09 ea 2c 3e dd 9c 55 3e a3 46 69 3e
       0.2710187 0.16886152 0.2086062 0.22780852
000200 7f 15 39 3e 39 e8 24 3e a0 4e b4 bd c0 65 36 be
       0.18074606 0.16104211 -0.08804059 -0.17812252
000210 23 da ec 3d 76 bd d2 3d 59 ca 0b be c8 dd 52 3b
       0.11565044 0.10290043 -0.13651408 0.003217565
000220 e4 ca 9e bd 6d 4d 83 3d 6f 22 d8 bd 99 4b 94 3e
       -0.07753542 0.06411252 -0.10553443 0.28963926
000230 c5 a4 9c be e1 a0 87 3d 14 5b af 3c ec eb 35 bd
       -0.3059446 0.06622482 0.021405734 -0.044414446
000240 94 a6 99 3d 16 44 0f be 7a 16 03 3e a3 ab 43 3e
       0.075024754 -0.13990816 0.12801543 0.19108443
000250 00 7b 3d bc bd 25 ee bd 6b 64 aa be 76 b4 94 bd
       -0.01156497 -0.11628292 -0.33279738 -0.07260983
000260 f1 8b f9 3c 7e 0b 26 be f0 72 d0 3e 98 f9 20 bf
       0.030462237 -0.16215321 0.4071269 -0.6288085
000270 a0 81 1a 3d c0 77 c5 bb 85 54 1f bf d1 ad c8 bd
       0.037721276 -0.006026238 -0.6223834 -0.09798778
000280 05 73 07 3e 7a fe e8 3d 33 cf 11 3e 8d 9e 1d be
       0.1322747 0.113766626 0.14239196 -0.15392514
000290 40 c8 18 3d db f4 fa 3c 5f 20 55 be a8 87 15 be
       0.03730035 0.030634334 -0.2081313 -0.1460253
0002a0 4e 4e fd 3c f7 07 12 3e 2a 27 8a be 51 39 ab 3d
       0.030921128 0.14260851 -0.26983005 0.083605416
0002b0 07 9f 34 3e 3f 4c 90 bd 7a bb 07 3e 83 03 b1 3d
       0.17638789 -0.07045793 0.1325511 0.08643248
0002c0 28 8c 59 3b 39 6b b8 bd 5b 1f 11 3e 27 6e 49 3e
       0.0033195112 -0.09004826 0.14172117 0.19670926
0002d0 c4 1f 25 3e b4 a1 22 3e be ac 06 be 2b 2a a5 3d
       0.16125399 0.15881997 -0.13151833 0.080646835
0002e0 50 9e 30 bd cc 25 d7 bd 16 74 89 bd 86 ab 3f 3e
       -0.04311973 -0.10505256 -0.06711595 0.18717775
0002f0 6d 7e 18 be b9 ab b0 bd be f9 84 3e 4a d2 b5 be
       -0.14891978 -0.086265035 0.25971788 -0.35512

fc_advantage.4.bias f4 [6]
000000 58 e8 be 3d 62 b6 02 bd ae 6e 8e bd 9b 23 9b 3c
       0.0932166 -0.031912215 -0.06954704 0.018937876
000010 56 a9 3b be f4 49 ad bd
       -0.18326315 -0.08461371
