data/Torch/Dueling/002_CNN-1_E_L/checkpoints/weights_500000steps.pth (torch, 286623 bytes, 13 tensors)

conv_layers.0.weight f4 [32, 1, 3, 3]
00000000: 9873 863c 208b 523c 76c4 ba3c 8580 163e
00000010: a7ea 9dbe 84b1 35bd f4c0 1f3e c365 c73d
00000020: 99c5 503e eb5d 9bbe 5dc7 aa3e cfe9 373e
00000030: 780d d2bd 7083 a4bd 4d69 6f3e 0d2b 753e
00000040: 6919 02be 7eca 67be 34a2 11bf 52f6 23bd
00000050: 67f8 a93d 2df0 9b3e 4132 233e e1da 90bd
00000060: 2ba5 163d e4c0 3f3e f872 47be 1918 aabf
00000070: 3cd1 c2bc 6d63 d53d 9770 983d 336d 01bb
00000080: 31cb 5d3c 5290 1dbc bb2b 33bc fa20 6f3c
00000090: 4fed 943e 68a4 13be 560d c03d b747 543e
000000a0: a585 4e3e 0a26 8b3c b336 f53c 7d82 14bd
000000b0: eb67 1fbd a638 cb3e ac1c ebbb 4819 d7bc
000000c0: c063 64bf 5d4c 9a3e 50bc bfbd 4f8e 27be
000000d0: d12a 493e 742e a0bc a6d5 253f becc cdbc
000000e0: a234 f4bc f6c6 763d d03b dbbe e582 593d
000000f0: 5fa9 14bb 2598 c13c e656 01be 9ce8 52bf
00000100: 2fcb cd3d 3ab2 10bf 5ea2 e83b 818e 4fbc
00000110: de2a cabe 9adf 773d 58de 233d 337f d7bc
00000120: 344d 23bf 2022 243e 1dba 853d 2bf5 94bb
00000130: 4fd1 8c3e a5ed 03be 713b dcbd b24f 813e
00000140: e20a d83d 237c 933e deeb 5ebe 5e98 563d
00000150: c40f dabe d06d 96bd 4b0b 813e 7303 ebbd
00000160: b2a7 2cbe 4c7a 4d3e d8a2 89be 6dc6 e23d
00000170: 28c5 283e 4ed8 eb3c 3ce9 7c3e 490e 613c
00000180: b797 06be 6168 8cbe 7940 873d f0e8 14be
00000190: 7cb3 afbe 2d20 9b3d 4d0d c03e c498 5b3e
000001a0: 6cce 9c3d 724c 363d afbc 78be 5d9d 8dbe
000001b0: c433 173e 0b20 963c f620 113c 94b2 59be
000001c0: b8fc afbd 9a15 5e3e 3b9c b93c f49e aa3d
000001d0: f711 39bd 5130 adbf 3076 47bb 52ab 60bc
000001e0: fa3f e23d dbec e6bd 5724 053e abdc e03c
000001f0: 1b9c f3bb cb92 d93d dae6 cf3e 4e48 6c3e
00000200: 4bdb d0bd 230e cf3c dc60 52be 2ccd 063e
00000210: 29c3 85bd 7d5e 3cbc 9113 3cbe bd2c 033f
00000220: f0a4 bfbe b105 4dbd d08c bc3c 72e8 8fbd
00000230: 252c 653d 4e44 48bd 2488 2c3b b101 f43c
00000240: af10 b33d 9e36 313e e986 fb3d f617 123e
00000250: 1194 693d ca5f c7bd 3a42 8abd 0800 eabd
00000260: 5bc9 4cbe 6117 853b 5c4c 473e 9578 b13d
00000270: b174 84be 08c6 11be 50f2 f43c 8476 1fbe
00000280: e32c 023e fc36 d33d cbd1 fbbe 8f17 0b3d
00000290: 912d b5bc 5625 78bc 1551 0e3e b1a1 0dbe
000002a0: f830 333d 3b36 1f3e fe1a 883e 03dd f43e
000002b0: 429e 1ebe a7e9 1d3e 69ab b33d c3ae f1be
000002c0: 1e81 38be 4cd7 ac3d 6cb8 77be 4c30 1fbe
000002d0: 9624 563e 74df 94be 131a 8c3d da02 97be
000002e0: 42fd 49be 62c7 e63c 54ee 5dbe d3ed 503e
000002f0: c9a6 363e 3594 153f 0e41 a8bd 6f5e 1c3e
00000300: 3f42 46be 4194 59be 2277 3fbc a26c dbbd
00000310: 5c3f cb3d e6c6 613c d5f4 9ebc 42de e93d
00000320: e17b 2a3d 4a86 3a3e 1418 5cbe 9c3a 2bbe
00000330: 8e48 a5bb 543d febd 6bc5 8b3d 88f3 54be
00000340: 7b2d bd3e 42b3 993e 8b43 d0bd 1939 cdbc
00000350: e04d 063c 3379 4cbe e021 0d3e f05c 50bd
00000360: cdd4 eb3d bca1 36be a184 353e 01d7 893e
00000370: 251c a5bd f29f 4cbd 9521 7ebe b7d7 653d
00000380: 6b93 46be 28cd 6f3e 35cb 153e 4a1e ca3c
00000390: 820f bd3d 576a 4abe eb9a 993d 6a06 33be
000003a0: bc77 06be 5514 25be 5106 c9be 65cc d53c
000003b0: a5d3 bd3d 9172 fe3d 897e c73d e41c 87be
000003c0: 5547 883d 3795 e03d 03e8 953d 7c7d 5e3e
000003d0: 63e1 cd3d c330 abbe ff93 983e 33d4 a1bd
000003e0: 44e7 623d 37ef 7dbe b2a9 e23d f0d1 a03d
000003f0: b9df fe3e cb25 89bd 3728 623d 4de1 c0be
0.016412541 0.012850553 0.022798758 0.14697464 -0.30843088 -0.044358745 0.1560095 0.097362064
0.20387878 -0.3034509 0.33355227 0.17960285 -0.10256475 -0.08032882 0.23380013 0.23942204
-0.12705006 -0.22635838 -0.5688813 -0.04002983 0.08299332 0.30456677 0.15937139 -0.07072998
0.03677861 0.18725926 -0.19477451 -1.3288604 -0.023781411 0.104193546 0.0744335 -0.0019748926
0.013537214 -0.009616928 -0.010935719 0.014595265 0.29087302 -0.14418185 0.09377544 0.20730482
0.20168169 0.016985912 0.02993331 -0.036257256 -0.038917463 0.39691657 -0.007175049 -0.026257172
-0.89214706 0.30136386 -0.0936209 -0.1636288 0.1964524 -0.0195534 0.64779127 -0.025122043
-0.029810254 0.060248338 -0.4281907 0.053103346 -0.002268396 0.023632118 -0.12630805 -0.82386184
0.1004852 -0.5652195 0.007099434 -0.012668253 -0.3948583 0.060515977 0.040006965 -0.02630577
-0.6378968 0.16028643 0.06529639 -0.004545828 0.2750344 -0.12883623 -0.10753525 0.25256115
0.10548951 0.28805646 -0.21769664 0.052391402 -0.42590153 -0.07345164 0.25203928 -0.11475267
-0.16860846 0.20066184 -0.26882052 0.11073003 0.16481459 0.028789666 0.24698347 0.013736316
-0.13143812 -0.27423385 0.06604094 -0.14541984 -0.34316623 0.075744964 0.37510148 0.21444994
0.07656559 0.044506498 -0.24290727 -0.2765912 0.14765841 0.018325826 0.008857956 -0.21259528
-0.08593124 0.21687928 0.022657504 0.08331099 -0.04518315 -1.353037 -0.0030435435 -0.013712721
0.11047359 -0.11275645 0.13002144 0.027448973 -0.0074343807 0.10623702 0.40605813 0.23074457
-0.10198077 0.025275296 -0.20544761 0.13164204 -0.065313645 -0.011497137 -0.18366839 0.5124014
-0.37430525 -0.050054256 0.023016363 -0.07026757 0.055950303 -0.048893265 0.0026326263 0.029785963
0.087434165 0.17305991 0.122815914 0.14266953 0.057025973 -0.09735067 -0.06750913 -0.11425787
-0.19998686 0.004061625 0.19462723 0.08665577 -0.25870278 -0.14235699 0.0299007 -0.15572554
0.12712435 0.10313222 -0.49183497 0.033958014 -0.022116454 -0.01514562 0.13898118 -0.13831212
0.043747872 0.15548031 0.26583093 0.4782487 -0.15490058 0.15421163 0.08772928 -0.47203645
-0.18018004 0.08439502 -0.24191445 -0.15545768 0.20912394 -0.2907673 0.06840911 -0.29494363
-0.19725516 0.028171245 -0.21672946 0.20403223 0.17837061 0.5842927 -0.08215533 0.15270399
-0.19361208 -0.2124796 -0.011686118 -0.107140794 0.09924194 0.013780331 -0.019403854 0.114193454
0.041622046 0.1821529 -0.2149356 -0.16721576 -0.0050440496 -0.12414041 0.06824764 -0.20796025
0.3694876 0.30019575 -0.10169133 -0.02505164 0.008197278 -0.19968109 0.13782454 -0.050869882
0.11515198 -0.17835134 0.17726375 0.26921847 -0.08062009 -0.049957223 -0.24817498 0.056113925
-0.19392173 0.23418105 0.14628299 0.024672646 0.092314735 -0.19767128 0.075002514 -0.17482916
-0.13131613 -0.16121037 -0.39262632 0.02609844 0.092688836 0.124241956 0.097409315 -0.2638923
0.066542305 0.109659605 0.07319643 0.21727556 0.10052755 -0.3343564 0.29800412 -0.07901802
0.055396333 -0.24798284 0.11067523 0.078525424 0.49780062 -0.066966616 0.055214133 -0.3767189

conv_layers.0.bias f4 [32]
00000000: ac73 24bf ca49 12bf 94f7 fa3e 113f 0f3f
00000010: c31e f0be 853c 783d 7c10 debb 4ca4 ed3e
00000020: 5b61 ff3b 75cf 0abe a218 d33e d76e 17be
00000030: de2d b7be 9204 273f 5b49 e4be 4558 663e
00000040: cfc2 dbbe 3db4 043f d243 103f dd9d 9d3e
00000050: f2d3 e13e 224c f1be 0d92 6e3e 3a0e 30bf
00000060: a201 f63e 18fc f73e 5b05 1b3f ab6e 06bf
00000070: ae16 e1bd a415 c13e 4d9e cc3e fe62 ebbe
-0.64239 -0.57143843 0.49017012 0.55955607 -0.4689847 0.06060459 -0.0067768674 0.4641441
0.007793588 -0.13555701 0.4122973 -0.14788376 -0.3577718 0.6524135 -0.44587216 0.2249461
-0.42922065 0.5183752 0.56353486 0.30784503 0.44107014 -0.47128397 0.23297901 -0.6877171
0.4804812 0.4843452 0.60555047 -0.52512616 -0.10990654 0.37711823 0.39964524 -0.45973963

fc_state.0.weight f4 [64, 512]
00000000: a058 2b3c e34d 88bc 9678 a5bc bc7b f7bb
00000010: b50c 013d 5d39 10bd 4534 a83c 3058 21bd
00000020: b126 fe3c afbd 82bc e6f8 b6bc 1524 0e3d
00000030: 7647 dd3c 4584 bebb ac5c a13a 80cd c23c
00000040: d55a f43c f0f5 e6bc df5b 2dbc bc73 eb3c
00000050: 082e de3c cd7d 24bb f56d 06bc b7e4 d53b
00000060: dd5d 8fbc 6a79 d33c 1106 04bd 3c9d 423c
00000070: a796 633c 0635 95bc cacf d73c dcb8 063d
00000080: cb0f 033c a383 42bd 2f56 a83c fb26 f03b
00000090: eb83 303c b347 8b37 031d 65bb 52a7 c8bc
000000a0: bccb 16bb 062f 0cbd 8ddb ed3c b0c9 6d3c
000000b0: 65e6 ce3a 2cc5 3dbb 9efc bd3b 198b 25bd
000000c0: 7db4 ccbc 1312 3ebd 40e8 e0bb e86b 093d
000000d0: e8ba 41bd 1962 f13c 0417 4e3c 890a 6abc
000000e0: fd79 25bd 7194 0fbd d4a4 ccbc 67cd 233c
000000f0: 5941 393c d421 2a3b e376 36bd 8eb7 2fbd
00000100: a260 9d3c c93a 483c 00b9 273c f0e4 ccbb
00000110: e747 fb3c 9d29 b43c be22 973c 3165 b23c
00000120: 44fc cc3b ffd9 ec3b ef97 df3c e61f 123c
00000130: f072 d5bb caa4 cabc 7854 0abd 1596 f5bc
00000140: d48e f83b a1fd 203d 083d 23bd 206e 03bc
00000150: d6b0 183d e825 343c a497 0b3d 12d1 223d
00000160: 4c8c 1e3c b731 5cbc 4118 c1bc c092 40ba
00000170: a4b1 15bc ac4c c53a 20e5 94bb 0d4e 6d3c
00000180: 217a 47bd 748e dabc 28a2 923c e618 40bc
00000190: c17b 35bc 2d6a 9bbb d1bc 22bd 8302 30bc
000001a0: c02f 12bd a5f0 3cba 3f19 00bd 35c3 12bd
000001b0: 9332 193c 3387 da3b 31e1 c23c 6c3f 833c
000001c0: bca7 853c cbb5 41bb 3e53 7c3b d61f 9f3b
000001d0: 274e 253c 3464 0abc f69b a33c 20dd 8bbc
000001e0: 1f8a e23c de9c 3fbd 7aee 083d 2633 213d
000001f0: aef6 053d 0214 21bd 49a9 f2bc abfa a1bc
00000200: c838 063d 9a3b 123c a4df 2cbd ba98 a1bc
00000210: df6b 173d 48d3 9d3b cd2c 0ebd a938 74bc
00000220: 330b 303d 3f32 9a3c ce11 ae3c 32a9 4e3c
00000230: c0ec 383c 6054 0fbb 23df 8c3c 294b d33c
00000240: 074e f53c e237 afbc a784 26bd baaf 033d
00000250: a087 743c 6e38 d43c 5aa4 40bd f970 1b3c
00000260: af25 2a3d a46d 2cbd b515 e3bb f92b c33a
00000270: 906b 22bd e0dc 1f3d e3b4 ae3c e414 8c3c
00000280: d05e b1bb 029c ccbc 4406 d83b 918f 85bc
00000290: 1d8d c43c 4e61 ba3c d03b 72bc c093 d33c
000002a0: f350 15bb a585 2ebd aeba e33b 56b1 013d
000002b0: 05a4 c23c 6fc5 d93a 5a24 d6bc d3a9 11bd
000002c0: 8a0b 1cbd 112c a1bc 963d 2abd 1756 e3bc
000002d0: abc6 003d c873 173a 969e 1f3d bc56 dfbc
000002e0: c613 b23c 6030 043b 8080 c43a 8f84 233d
000002f0: 4b3e 2ebd 80bf 81bc c0cf 7cba 187a b7bb
00000300: 2427 b0bc 179e bcbc 982a 1dbd cbb7 29bd
00000310: 697a a73c 5cc0 4b3a 965c 1ebd 624f 0cbd
00000320: 18a2 eebc 37c4 4abc 36e2 943c dd19 21bc
00000330: aa80 03bd f72b 21bc 8c5d 3dbd 6302 e0bc
00000340: 34c3 03bd def4 61bc 03ab cfbc 8cda 12bc
00000350: 8ef5 1d3d 0456 f53b 0870 5c3c 4904 2bbd
00000360: 48c2 083d 7daf c1bc 003d 91bb e66e 27bc
00000370: 38f4 a3bc 970c 8abc 675d 1abc 990c fe3c
00000380: 76ab 2bbd ca77 683b 881f 833c bacb 183b
00000390: 614f 0ebd eade ad3c 73a3 ffbc 888a a0bb
000003a0: 1e33 28bd 9fbb 1c3c 959f bc3c d97d eebb
000003b0: 28b8 1a3d 367b 0cbd a570 18bc 4b8e 1e3a
000003c0: e947 f1bc 3345 98bc 9872 2ebd 2029 b03c
000003d0: 3215 963c 60eb 3d3c 4885 0c3d b9aa fdba
000003e0: 8171 c2bc b876 32bd 6804 8f3c b706 10bd
000003f0: 9ed6 a23c 9616 25bd 2ab6 0a3d 7b36 d5bc
0.010458142 -0.016638702 -0.020199101 -0.007552592 0.03150626 -0.035210956 0.020532737 -0.039390743
0.031024309 -0.015959589 -0.02233548 0.03470238 0.027011614 -0.0058141076 0.0012310944 0.02377963
0.029828468 -0.028193444 -0.010580986 0.02874171 0.027121559 -0.0025099397 -0.008204927 0.006527509
-0.017500812 0.02581473 -0.032232348 0.011878308 0.013890899 -0.01821376 0.026344199 0.03289114
0.007999371 -0.04748882 0.020548908 0.0073288656 0.010773639 1.6603479e-05 -0.003495992 -0.024493847
-0.0023009619 -0.034224533 0.029035354 0.014513418 0.0015785216 -0.0028956635 0.0057979366 -0.040415857
-0.024988407 -0.046403956 -0.006863624 0.033550173 -0.04729739 0.029465722 0.01257873 -0.014284738
-0.04039954 -0.035053674 -0.02498094 0.009997702 0.011307084 0.0025960105 -0.044546973 -0.04289966
0.019211117 0.012221047 0.0102369785 -0.0062528774 0.030673934 0.021992499 0.018449184 0.021776767
0.0062556583 0.0072281356 0.027294127 0.008918738 -0.0065139458 -0.02473678 -0.033771962 -0.029978791
0.007585386 0.03930438 -0.039853126 -0.008021861 0.03727802 0.010995366 0.034080163 0.039750166
0.009677004 -0.013439587 -0.023571135 -0.0007346086 -0.009136591 0.0015052757 -0.0045439154 0.014483941
-0.048700456 -0.026679255 0.017899588 -0.011724686 -0.0110768685 -0.0047428817 -0.03973085 -0.010742786
-0.03569007 -0.00072074897 -0.031274077 -0.035830695 0.009350437 0.006668949 0.02378902 0.016021453
0.016315334 -0.002955782 0.0038501765 0.00485609 0.010089434 -0.008446742 0.019971829 -0.017073214
0.027653752 -0.04678046 0.033430554 0.03935542 0.032705955 -0.03932572 -0.029621737 -0.019772848
0.032768995 0.008925343 -0.042205468 -0.019726146 0.03696811 0.0048164465 -0.034710694 -0.014906087
0.04297943 0.018822787 0.021248724 0.0126135815 0.011286914 -0.002187036 0.017196244 0.025792675
0.029944433 -0.021388952 -0.04065385 0.032150008 0.014924914 0.025905814 -0.047031738 0.009487384
0.041539844 -0.04209675 -0.006930078 0.0014890424 -0.03965336 0.039029002 0.021326488 0.017099805
-0.005412914 -0.024976734 0.006592544 -0.01630381 0.02399307 0.022751477 -0.014784768 0.025827289
-0.0022783845 -0.042607922 0.006949744 0.03166326 0.023759851 0.0016614626 -0.02614038 -0.035562348
-0.038096942 -0.019674333 -0.04156264 -0.027751012 0.031439465 0.00057774456 0.0389696 -0.027263038
0.021737944 0.0020170435 0.0014991909 0.03992134 -0.042539876 -0.015838385 -0.0009643994 -0.0055992715
-0.021503039 -0.023024602 -0.0383707 -0.041435044 0.020444112 0.0007772499 -0.038662516 -0.034255393
-0.029130027 -0.012375883 0.018174272 -0.009832826 -0.032105125 -0.009837142 -0.04623179 -0.027344888
-0.032168582 -0.013791291 -0.0253501 -0.008963238 0.038564257 0.0074870605 0.013454445 -0.041752134
0.033388406 -0.02364325 -0.0044323206 -0.010219311 -0.020013914 -0.016851706 -0.009421683 0.031011866
-0.041911565 0.003547179 0.016006246 0.002331479 -0.03474367 0.021224458 -0.031205868 -0.0048993267
-0.041064374 0.009566217 0.023025313 -0.007278186 0.03777328 -0.03429719 -0.0093042 0.0006048425
-0.029453235 -0.018587684 -0.042589754 0.021503985 0.018320654 0.011591762 0.034306794 -0.0019353247
-0.023735764 -0.04357025 0.017458156 -0.035162654 0.019877728 -0.040304743 0.03386513 -0.026026955

fc_state.0.bias f4 [64]
00000000: d4cb 6ebb bc22 02bd 0c23 1f3d 9c2c f9bc
00000010: 8185 c239 36e3 16bc 7d02 5dbc 9b48 e23c
00000020: 26ee a6bc 7cb7 043d 3272 ef3c 8f4e 51bd
00000030: 0b1d 703b 2b48 343d c33b bd3c c30d 043d
00000040: bf98 cabc bf5c 2ebd 68b7 41bd a234 ea3a
00000050: 7844 2fbd 7fed dfbc 9530 8cbc 7ce4 05bd
00000060: e887 c53c 3971 bf3d b526 903c b0b3 9a3a
00000070: 74ed 0ebd d29d 873d d804 b9bc 7f39 94bc
00000080: 7258 00bd c4b9 8bbd a141 14bd c9b5 d53b
00000090: c9b9 24bd b34b 35bd cf2a ad3c 3918 993c
000000a0: 8047 8ebb 8350 36bd 9f26 e23c f6ab e0bc
000000b0: c4aa 3e3d 3ab2 3bbb 7c5b 0b39 49e9 b4bc
000000c0: 3099 05bd 8e93 423d 5f38 23bd 3395 c13b
000000d0: f089 2dbd 2a59 61bd 38ef 893d 54c4 5ebd
000000e0: 351e e2bb 2713 b03d 95f8 b2bc 0d53 e938
000000f0: 83a7 87bd e3e5 5c3c 202b 71bd 0082 193c
-0.003643741 -0.031771407 0.038851783 -0.03041678 0.00037102032 -0.009209445 -0.013489363 0.027622512
-0.02037723 0.032401547 0.029229257 -0.05110031 0.0036638405 0.044014137 0.023099786 0.032239687
-0.024731038 -0.04256892 -0.04729405 0.0017868469 -0.042789906 -0.027334927 -0.01711301 -0.032688603
0.024112657 0.093477674 0.017596582 0.0011802819 -0.03489442 0.06621899 -0.022585317 -0.018093823
-0.031334348 -0.06822541 -0.0361954 0.0065219146 -0.04021624 -0.044261646 0.021138577 0.018688308
-0.0043420196 -0.044510376 0.027606307 -0.027425747 0.046549574 -0.0028640167 0.00013290154 -0.022083895
-0.032616794 0.047504 -0.03984868 0.0059076785 -0.042367876 -0.055016674 0.067350805 -0.05438645
-0.0069005736 0.08597403 -0.021847049 0.00011125775 -0.06623747 0.013482544 -0.058879018 0.009369373

fc_state.2.weight f4 [32, 64]
00000000: f9f2 debd 8add b83d 6f4e 07bd a0f0 513d
00000010: 3e9b ec3d 4775 a1bd 6085 33bc 55c1 eb3c
00000020: cc11 883d 3158 d5bd 0b09 4e3d c70b 763c
00000030: 7dbd 29be 2292 01be baf7 4bbd 0137 b73d
00000040: 2fda efbd aede e33d e999 8a3d 9cb8 f9b8
00000050: 5395 dcbd 06b0 123d b5cd b2bd 9748 82bd
00000060: 8bb9 e83d 837c 4d3c 9521 53bc fc4b 843d
00000070: 0dcb f63c b135 273d 6add 8dbb 51f0 56be
00000080: ba95 723d bfe6 e0bd c10a d7bd 4ec6 35be
00000090: e6e5 85bd 90d6 773c bace 37be ced5 37be
000000a0: 850e 913d bffc e1bb 7f4b a63d 090b 1ebd
000000b0: 6d5b b03d b9cc 38bc 47a7 41be c3de 90bd
000000c0: 8700 e43d d24a 663d 5f7d e13d 4c73 6e3d
000000d0: 4c4c a83d 2322 b93d c5ab 05bc b8c1 c8bd
000000e0: c960 e13c f756 05bd fe85 d23d 1ce5 7cbd
000000f0: 0e70 e23d e6b3 fa39 a76f 6dbd 0b38 1a3c
00000100: efa4 be3d 8d77 f1bd e88d 463d 282b 33bb
00000110: cd17 753d d960 873d 4f1c d93c 67c3 8cbd
00000120: 33f2 cfbd e8f1 e5bd 1fae e03d f56a 4ebd
00000130: d2d4 1a3d ad94 ae3d 5757 69bc 5446 003d
00000140: 0277 0dbd faac 523d 754b 15ba dd26 f1bb
00000150: 646f babb 5ca8 3b3d 53e1 053d 2ff8 9d3c
00000160: a58f 4bbc a347 2cbd 47b9 983d 7c14 aa3c
00000170: f712 a03d 0184 043e 7848 4cbb 55bf 983e
00000180: 51b5 123d 668a 2c3e ebed 753d bb4c 883d
00000190: ac53 123e 7222 f5bd 9932 af3d 7849 e7bc
000001a0: d2ea e03d eac6 5b3d 46c8 633d 85e7 cfbd
000001b0: 4acc 513b 8d76 86bd 0ccc 853d 0f3f a63d
000001c0: 04eb 30bc 709a 113e 0772 9dbc 86cb a13d
000001d0: ef48 b9bc cd14 493d 339d 80bc ee74 0abd
000001e0: 8522 45bd 84da de3d 5d77 c1bd ea94 37be
000001f0: 68cf 3fbd df12 993d 42bd fc3c 73db 3b3e
00000200: 9186 dc3d b092 28bd 04c5 91bd e93e d63d
00000210: 0538 c73d 8579 e03d 3deb 8cbd 67bf 85bd
00000220: c0f7 8cbd f0bd 8a3d 8609 373b 4a1b fdbd
00000230: a9cf c5bd 27c7 31be 9bb3 9dbd c8af 86bd
00000240: 1787 adbc 006f 063d f186 a5bd 6cc2 92bd
00000250: d158 f8bd ff8d 8f3d 526e b43d aee9 5ebd
00000260: aaba bbbd 229a a33d 8497 edbd 42c1 f23d
00000270: 2968 4dbd 74cf b33c 9ef6 8a3d 8136 62be
00000280: d45f 183d f018 50bd 40b1 f6bd 7a22 00bd
00000290: 6187 33bd 72e4 d73d 8f52 833d 8986 2d3c
000002a0: 7117 e33d 0ba2 30bc 8a65 e43d d1c9 f93d
000002b0: 6d10 0aba 8385 cabd de3d b6bd d266 f9bc
000002c0: e803 643b e81b 073e 120a 46bc 9282 eabc
000002d0: 4807 e2bd ba4b e53d 8756 e9bd d90e 973d
000002e0: ae48 91bd 6500 49be 307d 4dbd b87f eebc
000002f0: c1af 9ebb b5fc 493d a32e a4bc c7fc 9c3d
00000300: 424d f43d 5b12 ebbd f2fd 0abe e895 743d
00000310: a99e 713d 082e bf3c f39f 3ebd 54b2 a23d
00000320: 75ed d1bd a967 503d 746b c8bc a945 21bd
00000330: 3829 93bd 666e 7e3b 5aae 1d3d e9f3 d9be
00000340: cf6d b5bd c7a1 2abd 392e 723d 7557 e93d
00000350: f2a7 8fba 8c4e 9ebd 183e 59bc fe1d 29bd
00000360: d0cf 133d e159 d03d 7c1e c33d 55de b7ba
00000370: 40f1 7a3d 8e96 49bd 2217 e9bd 5b16 683d
00000380: 7e4c d7bd 56fa bebc 0586 9e3d 8e1b 6d3d
00000390: 266a bb3d 1e42 48bd bb4d b5bd 05ba c83c
000003a0: 7ed1 a73d 0dd9 4b3d 57dd 133c ae2b 853d
000003b0: f4ee 9cbc dc3c e9bd 4713 9cbe 959a 84bc
000003c0: f2b4 a23d 285f 2c3e 0201 0a3c 6643 03bd
000003d0: 0d64 a2bd 0004 ec3d 2bc9 b2bb d564 86bd
000003e0: fc5e f03d d70e df3d c5a5 48bd 17db f0bc
000003f0: 9cd7 91bd df4f cbbb 2c9b bfbd e57c 8fbe
-0.10886187 0.0902663 -0.033033784 0.05125487 0.115530476 -0.07883697 -0.010957092 0.028778711
0.066440195 -0.10417212 0.050301593 0.015017456 -0.1657619 -0.12653401 -0.049796797 0.08946038
-0.11711537 0.11126457 0.06767637 -0.000119076314 -0.10770669 0.0358124 -0.08730642 -0.06361502
0.113635145 0.012541893 -0.012886425 0.06459805 0.030126119 0.04082269 -0.004329373 -0.20990111
0.05922482 -0.10981511 -0.10500098 -0.17751428 -0.0653799 0.015126839 -0.17949954 -0.17952654
0.070828475 -0.0068965848 0.081198685 -0.038584743 0.08611188 -0.011279278 -0.18911467 -0.070737384
0.11132913 0.056223698 0.11010241 0.058215424 0.082176775 0.09039714 -0.008158629 -0.09802574
0.027511971 -0.03255364 0.10279463 -0.061741933 0.11056529 0.0004781775 -0.057967808 0.009412776
0.09308802 -0.117903806 0.048475176 -0.0027338956 0.05983715 0.06610269 0.026502756 -0.068732075
-0.10153618 -0.112277806 0.10970711 -0.05039497 0.037800618 0.085244514 -0.014242015 0.03131707
-0.034537323 0.051434495 -0.0005695143 -0.007359369 -0.0056895483 0.045814857 0.03268559 0.019283382
-0.012424384 -0.042060506 0.07457214 0.02076172 0.07816117 0.1294098 -0.0031171124 0.29833475
0.035817448 0.1684967 0.06004135 0.0665526 0.14289731 -0.119694605 0.085545726 -0.028233275
0.109822884 0.053656496 0.055610918 -0.10151581 0.0032012635 -0.065655805 0.065330595 0.08117496
-0.01079822 0.1421907 -0.019219412 0.07900147 -0.022617785 0.049092103 -0.015699958 -0.03380292
-0.048128624 0.10881522 -0.09446595 -0.179279 -0.046828657 0.074743025 0.030851964 0.18345432
0.10767854 -0.041155517 -0.07117656 0.10461218 0.09727482 0.10960678 -0.06880806 -0.06530648
-0.06883192 0.06774509 0.002792926 -0.123587206 -0.09658749 -0.17361127 -0.07700273 -0.06576496
-0.02118258 0.0328207 -0.08082379 -0.07165989 -0.121263154 0.070095055 0.088101044 -0.054422073
-0.09166463 0.07988383 -0.11601165 0.11853267 -0.050148163 0.021949507 0.0678532 -0.22091104
0.037200764 -0.050805032 -0.120455265 -0.03128288 -0.04383028 0.10541619 0.06412231 0.010591158
0.110884555 -0.010780822 0.111521795 0.121966965 -0.000526673 -0.098887466 -0.08898519 -0.030444536
0.0034792367 0.13194239 -0.012087362 -0.028626714 -0.11036545 0.11196084 -0.11393457 0.07375879
-0.07093941 -0.19629057 -0.050168216 -0.029113635 -0.004842729 0.049313266 -0.02004177 0.07665401
0.11928798 -0.114781104 -0.13573435 0.059713274 0.0589892 0.02333738 -0.04653926 0.0794417
-0.102503695 0.050880108 -0.0244653 -0.039373074 -0.07185596 0.0038823127 0.038496353 -0.425689
-0.08858835 -0.04165819 0.059126113 0.11393634 -0.0010960086 -0.077298254 -0.013259433 -0.04128837
0.036086857 0.10173393 0.09527299 -0.0014028052 0.06126523 -0.049215846 -0.11381365 0.056661945
-0.105126366 -0.023312729 0.07740406 0.057887606 0.091511056 -0.04889118 -0.088527165 0.024502764
0.08194254 0.049767543 0.0090249395 0.06502472 -0.01915691 -0.11388561 -0.30483457 -0.016186992
0.07944669 0.16833174 0.008423092 -0.032046698 -0.079292394 0.115242004 -0.00545611 -0.06562201
0.11736867 0.10891502 -0.048986215 -0.029401345 -0.07121202 -0.0062045897 -0.093557686 -0.28024974

fc_state.2.bias f4 [32]
00000000: cd89 273e f680 7d3d 3cab bbbd 7522 103e
00000010: dd9a d4bd 7fe6 5b3e ebcf 29be 349b 89bd
00000020: 4474 b33d 94b9 cd3d 3e29 12be d801 233e
00000030: c378 8cbd 473c 293e ad31 403d de8b 4bbd
00000040: 91fc 25bd 4625 53bd 7343 be3d fb30 c33c
00000050: 04db cebd 2e11 d3bc 0cdc e2b9 4e3d 713c
00000060: 9668 d53d 666b 0cbd 4288 553e 58ea 013e
00000070: 71b7 9abd 7aa5 103e 4f87 ec3c 72e0 0ebe
0.1636116 0.061890565 -0.0916352 0.14075644 -0.103811 0.21474646 -0.1658322 -0.06719056
0.0876241 0.10045162 -0.14273545 0.15918672 -0.06858971 0.165269 0.046922375 -0.049693935
-0.04052407 -0.05154922 0.09290209 0.023827067 -0.10100368 -0.025765028 -0.00043270027 0.014724089
0.10420339 -0.03428211 0.2085276 0.12687051 -0.0755452 0.14125624 0.028873114 -0.13952807

fc_state.4.weight f4 [1, 32]
00000000: 61ec e6bd 87fe 1d3e 4894 983d eb90 9dbe
00000010: 91fe 1abe 2563 ffbd 9749 173d 0935 1ebe
00000020: 76db f6bd fd11 05be 6f62 983d ade2 71bd
00000030: 96bc e3bd c194 23bd 3614 243d 3012 d53c
00000040: c05d ee3d 1689 f4bd d880 d13d 5438 ba3d
00000050: 296f 2a3e b32f 033e ba5b 02bd 9186 a1bd
00000060: 55f1 4fbd 8e8b 2dbe bb98 d3bd 54d9 79be
00000070: 453c a63a 47b2 92bd d238 6d3d 7351 2dbe
-0.112755544 0.15429126 0.074501574 -0.30774626 -0.15136172 -0.12470082 0.036935415 -0.15449919
-0.120535776 -0.12995143 0.0744065 -0.059054065 -0.11119954 -0.039936785 0.040058337 0.026009649
0.11638975 -0.119402096 0.10229653 0.09092775 0.16643967 0.12811165 -0.03182576 -0.07886995
-0.05076726 -0.16947767 -0.103318654 -0.2439931 0.0012682757 -0.0716291 0.057915516 -0.16925602

fc_advantage.0.weight f4 [64, 512]
00000000: 2445 1fbd 7203 0bbd aeb8 c3bc 58ef 943c
00000010: f026 d83c 5d39 cfbc c6c6 483b 799e dc3c
00000020: 2a4b 763c 5339 c5bc 5d01 d2bc e89b 43bd
00000030: 26a8 87bc a688 2ebd 03c3 21bd 7372 e13b
00000040: 47c4 47bd 6b7e 08bd 2b05 bb3c f286 9f3c
00000050: 1dd6 f23c 603a c93c d365 cabc cae8 16bd
00000060: 87d4 8e3c 9cb3 4fbc 3773 323d 3bcb 933b
00000070: d4f6 1fbd b1dd 39bd bc2e f23c 2b86 e93c
00000080: d95a 053d e226 c3bc 9503 fd3c 4d30 0fbd
00000090: 0068 bc3c 6713 04bd 76ff 61bc 882e 09ba
000000a0: ede3 653c d752 cebb f00c 093c 5ea6 fabc
000000b0: df3f 9bbc e13f e93c e562 d93c fe23 11bc
000000c0: 032a 653c 848a adbb 3a6e 04bc 8931 26bd
000000d0: cbc1 e33b e76c a3bc 59bb 87bc 741d 263d
000000e0: 501d 07bd ab24 9bb9 020d 833c b7ee 25bd
000000f0: 874f 11bd a324 8a3c 8409 59bb 3716 233d
00000100: b24e 74bc e1d8 26bd 0551 08bd 17d1 13bd
00000110: f3d8 d2bc 927c 8ebc aeda 27bd 415a acbc
00000120: 4aee 933b ff2c 903c 4016 f5bc cd8b 19bd
00000130: 338c c4bb 99e1 29bd 9192 bc3c 447e 3fbd
00000140: 23a4 743c 8954 0bbd 6d45 c4bb 2d53 2c3b
00000150: 74b0 4abd 38ba 123d 51fb 09bd fd30 07bd
00000160: 5f18 b9bc 9006 95bc 1df8 a13c 3b5e 233d
00000170: 0606 ab3c 1c4b 80bb 211e 06bd eb15 0d39
00000180: d4c6 6d3c 16a8 df3c b72e 863c 5d11 40bb
00000190: 1cd1 143d 2d8c 663b 3b7c 2a3d f262 043d
000001a0: ad6f 83bc 3b9b 913b 5aac 20bb 3c77 5b3c
000001b0: 4e45 bf3c 4266 1fbd 789d d73c 784a ad3c
000001c0: b75e 0a3c f845 9d3c bd45 7abc dd69 a23c
000001d0: 77eb b43c 3f46 8dbc 5fb9 bebc 3d45 0b3d
000001e0: 7891 8bbc 572c 42bd 92e7 0f3c 604e cdba
000001f0: a3b1 35bd cf4c 2ebd f7c5 8a3c bc11 f53c
00000200: f7d0 9b3c 0e31 95bc 6145 b63c d787 663c
00000210: 8480 4cbc b23a f3bc e51f 07bd 0e35 2fbb
00000220: 19c0 ecb9 96ed 0e3d 3067 19bd c098 79bc
00000230: 087e f53c 45ca a83b 7fb5 70bb af88 23bd
00000240: 3399 0abb c0f2 ea3c a39d 633b 882b 163c
00000250: 14be 1e3c c965 61bc a881 853c 732f 4c3c
00000260: 5d82 e3bc 6e49 d93b 3e27 d83c b3d9 cb3c
00000270: 80e0 fd3c 7d38 0e3d 52f4 3bbd ad9f 6d3c
00000280: de2f 733c 9718 cfbc 0a96 4cbd ccf6 db3b
00000290: 18f8 80bc 2572 52bc e633 36bd b0a7 40bd
000002a0: 1b98 afba 6a82 f03b 4295 e0bb 2e8b 49bb
000002b0: e6dd 0e3d 50aa c439 f442 07bd a26d 883c
000002c0: 3990 183d 8a0b c3bc 6ab1 263d 3cf1 acbb
000002d0: cd52 08bd 1b1e acb9 297a 323d 405f 273d
000002e0: 453a 1c3d 60cc 77bb 2137 1abd 1815 273d
000002f0: 8bce 23bd aadf b63a 313f b2bc 38ae 39bc
00000300: d1a8 b8bb c69b 5fbd 0b92 853c 56ae c13c
00000310: 2a61 823c fbe9 0d3d f85a e33b 2c34 c2bc
00000320: d028 3bb9 3219 ef3b 15c4 a73c e776 23bc
00000330: 77c6 eb3c 39f6 623c 10ce 353d 4926 b43c
00000340: f72f 3fbb 25bb 8e3c 588e 2d3d 3d80 c53c
00000350: 0d45 d1bc 9d57 a8bb 5e33 1e3b 9c7e abbc
00000360: 4e40 0a3d 5188 4fbc e91e 15bd 1859 6d3c
00000370: d91b ad3c 936c 853c 85dc ab3c b8b6 3bbd
00000380: 975a dbba fc6c ebbc 8f6b c63b 8a3f 26bd
00000390: b9c7 3dbc 46f3 d6bb 3dba 3cbd eb43 a23b
000003a0: da88 bcbc f081 13bc 803e a8ba 32cc 2ebc
000003b0: 8746 8c3c f9fe 02bd 84cc 15bd d164 083d
000003c0: 8aed c0bb 2dfd 0c3d e1e2 06bc 3338 e0bc
000003d0: 9b26 493c 6116 73bc a839 23bd ec7f 9f3c
000003e0: 0bc8 29bd 4df1 3bbd f99a 0dbd f25b 13bd
000003f0: 9c4b 913c bdfa 193d 06b1 2ebd 42ef c43c
-0.038884297 -0.033938833 -0.023891773 0.018180534 0.026385754 -0.025295908 0.0030636056 0.026931034
0.015032569 -0.024075186 -0.025635416 -0.047756106 -0.016559672 -0.042610787 -0.03949262 0.0068800985
-0.04877117 -0.033323687 0.022829613 0.019473527 0.029643113 0.024563968 -0.024706757 -0.0368431
0.017435325 -0.0126771 0.04356691 0.004510311 -0.039053753 -0.045377437 0.0295633 0.02850636
0.032557342 -0.023822252 0.030885497 -0.034958173 0.02299881 -0.032245066 -0.013793817 -0.0005233069
0.0140313925 -0.0062964964 0.008364901 -0.030596908 -0.018951355 0.028472843 0.026536414 -0.008858679
0.013987067 -0.0052960534 -0.008082921 -0.040574584 0.006950592 -0.01994939 -0.016568827 0.040555432
-0.03298694 -0.00029591224 0.015997414 -0.04051086 -0.035476234 0.016863173 -0.0033117244 0.039816108
-0.014911341 -0.040734176 -0.03328039 -0.036088075 -0.025738215 -0.017393384 -0.040980034 -0.02103913
0.0045144903 0.01759958 -0.029917836 -0.03748684 -0.0059981584 -0.041474912 0.023019107 -0.046751276
0.014931711 -0.034016166 -0.0059897215 0.0026294694 -0.049484685 0.035822123 -0.03368694 -0.033005703
-0.022594629 -0.018191606 0.01977163 0.039884787 0.020876896 -0.0039152037 -0.032743577 0.00013454973
0.014512736 0.02730183 0.016379697 -0.0029307224 0.036332235 0.0035178766 0.04162238 0.032320924
-0.016044462 0.0044435537 -0.0024516792 0.013395127 0.023348477 -0.03891588 0.026320204 0.021153674
0.008445433 0.019198403 -0.015275416 0.01982587 0.022084935 -0.01724541 -0.023281751 0.034001578
-0.017037138 -0.047405567 0.008783238 -0.0015663616 -0.04435886 -0.04255372 0.0169401 0.029915683
0.01902054 -0.018211868 0.02224988 0.014070473 -0.012481812 -0.029691074 -0.0329894 -0.0026734504
-0.00045156552 0.03489455 -0.037451923 -0.015234172 0.029967323 0.0051510655 -0.0036729274 -0.039925274
-0.0021148443 0.028680205 0.003473141 0.009165652 0.009688873 -0.013757178 0.016297176 0.012462485
-0.027772123 0.006631068 0.0263859 0.02488408 0.030990839 0.03472184 -0.0458873 0.014503402
0.014842955 -0.02528028 -0.049947776 0.00671277 -0.0157433 -0.012844597 -0.044483088 -0.04703492
-0.0013396771 0.0073397653 -0.0068537304 -0.0030753124 0.034879588 0.00037510926 -0.033022836 0.01665384
0.037246916 -0.023809213 0.04069654 -0.005277781 -0.03328209 -0.00032828827 0.043573532 0.04086232
0.038141508 -0.0037811026 -0.03765023 0.0407916 -0.039991897 0.0013952155 -0.021758648 -0.011333041
-0.005635359 -0.054591917 0.01630499 0.0236427 0.015915472 0.03464697 0.0069383346 -0.023706518
-0.00017848914 0.0072967047 0.020479241 -0.009977079 0.028781159 0.013852649 0.04438597 0.021990912
-0.0029172876 0.017423222 0.042372078 0.024109 -0.025545621 -0.0051373974 0.0024139504 -0.020934395
0.033752732 -0.012666778 -0.03640643 0.014486574 0.021131443 0.016287124 0.020979175 -0.04582855
-0.0016735372 -0.028738491 0.0060553025 -0.04058794 -0.011583262 -0.006559762 -0.04607605 0.004951944
-0.023014475 -0.0090031475 -0.0012836009 -0.010668801 0.017123474 -0.031981442 -0.036571994 0.03329927
-0.005887692 0.034421135 -0.008232803 -0.027370548 0.012277271 -0.0148368785 -0.039849907 0.019470178
-0.04145054 -0.04588442 -0.03457162 -0.035976358 0.017736249 0.03759264 -0.04264929 0.024039868

fc_advantage.0.bias f4 [64]
00000000: 85d0 3ebd d137 d93d cc5c 6abe 4234 003c
00000010: 69b8 54be c2e8 95be ee09 773d c85e 4bbd
00000020: eb9e bcbc 728b afbd 675d 993e 9e50 96bc
00000030: 2540 b13c fd75 a8bd 27cb 65bc 9f09 82bd
00000040: 3ed9 7fbe 2e21 0c3c a7c7 32bc e80b 07bc
00000050: d9b7 3d3d 5c56 663d 507c 29bd 7e3b ce3d
00000060: 4f07 c83e 47d9 cdbc 42f1 703d f532 fb3d
00000070: e4f0 9f3d 717e 44bd 7473 99bd d1e5 883a
00000080: 4ab7 f73e 9778 933c 91f3 d13e e102 76be
00000090: bf5a 9dbd 61db 043e 84c4 0bbe afe2 733d
000000a0: e964 b03e 51f7 cdba b0fa 343d 5c48 0f3d
000000b0: 3337 c3bd 2043 5cbd 14af 93bc 765c 0fbc
000000c0: 6074 973e eaaa 753d 22d0 b13e 1beb 0e3d
000000d0: 8161 ab3e 6063 5e3d 2444 93bc 4c8c 05be
000000e0: 49b9 3a3e a162 ec3d 2e1e 483b e3df 26bd
000000f0: 2b5a 943c f711 ebbc ec18 3dbd 2241 2ebe
-0.04658558 0.10606349 -0.22886962 0.007824959 -0.20773472 -0.29279143 0.060312204 -0.049650937
-0.023024997 -0.08571519 0.29954073 -0.018348988 0.021637032 -0.082256295 -0.014025486 -0.06349491
-0.24985215 0.0085528325 -0.010911859 -0.008242585 0.04631791 0.056234702 -0.04137832 0.10069941
0.39068076 -0.02512802 0.05882383 0.12265579 0.07809618 -0.047972146 -0.07492724 0.0010444467
0.48382026 0.018001838 0.4100614 -0.24024536 -0.07683324 0.12974311 -0.13649184 0.059542354
0.34451988 -0.0015713965 0.044184387 0.034981117 -0.09532013 -0.053774953 -0.01802782 -0.008750072
0.29580975 0.05997745 0.34729105 0.034892183 0.33472827 0.05429399 -0.017976828 -0.130418
0.18234743 0.115422495 0.0030535567 -0.04074086 0.018109402 -0.02869509 -0.046166345 -0.17017034

fc_advantage.2.weight f4 [32, 64]
00000000: 7a20 c8bd beb8 f5bd 2e10 a53d e03a b5bd
00000010: d7bb 0b3c ff48 bfbd 4568 4bbd 9ba0 ce3d
00000020: d81a 2fbd 7899 9e3d a04c 87bd 8cf9 e9ba
00000030: 0a7c 353d 6531 a4bc 7ac6 ba3d 6576 8abd
00000040: 432a a8bd 002e 153d e618 503d 060c dd3d
00000050: 9329 05bd 187d cabd 2550 c2bd 44ba 7dbd
00000060: 3020 313d f9be aebd 105c 8abc 9fd6 a73c
00000070: e19f 37bd 9607 e2bc df57 aa3d 73c0 0ebd
00000080: 5388 c93b b744 ebbd 4f89 3cbd ee17 b5bd
00000090: 05dc 093b 39ef c6bd 741a 273d 2d1f 00be
000000a0: 6529 96bd 92e3 0e3d a1fe 4fbd 4031 78bd
000000b0: 27f7 553d 7577 863d da98 9abd 9260 82bd
000000c0: 5a85 c1bc 8ed1 debd f930 7c3c 5b54 3ebd
000000d0: a184 90bd 6f97 d63d 9aa5 b13d 4037 95bd
000000e0: 07b5 edbd b812 3fbc 5007 263d 29dd e43d
000000f0: f1ba 9c3d 400d c1bc d1ea f5bd 816a a1bd
00000100: c254 1cbd a30d 59be 5e91 1d3e d2a5 e23b
00000110: 0300 33bd 1800 4b3d f9f6 27be 45ec 78bc
00000120: 0f9f 9b3c c13f 8cbd 5c7b 0fbd 8119 f4bb
00000130: 1703 50be 8b94 833d f738 d3bd f098 3bbd
00000140: d013 5b3d 8b1e 1a3e e0fe 893d f6fc 68bd
00000150: ae99 a9bd 8764 93bd e9ad a3bd fd01 84be
00000160: c0ef fd3d 515e 6d3d 2296 123e d72d 4a3e
00000170: bf3d 853d 8763 6c3d f859 cabc 0d34 21be
00000180: caa9 473c 0f15 7fbc f397 c6bc cdbd 0d3d
00000190: e9f3 ffbd 6b12 61bd 80db 97bd b9b9 2d3e
000001a0: 2e9f 7ebd 5098 0fbc c1f2 e5bd da56 bd3d
000001b0: 3e3b 4e3d 8714 7ebc dbed c1be c7a9 debd
000001c0: 16bb cc3d ad6e 983c 680a 863c 46e8 13be
000001d0: e892 30bd d688 90bd 49db 62ba 3ddc 253e
000001e0: 8f44 e33b 2920 7c3c 6c78 5cbe 1131 ad3c
000001f0: c9aa 003e e4ad e2bc 46e8 73be 16b3 f03d
00000200: 36d7 96bd 699d 4dbe e0db 1a3d aa27 3d3d
00000210: d94c e13d 5017 b93d 8d5c 06be d66d 16bb
00000220: dc5e 9b3d 1226 073e 2cb6 bbbc db54 95bd
00000230: c060 033e fae1 30bd 876a debd e89d 593d
00000240: 4e05 543e 66f0 193e 9281 8cbc 25aa 443e
00000250: 0396 6dbd 66da e93d 98bb 633d ef46 25be
00000260: d6bb 9ebc 3534 e2bd e6f0 a03a 4798 663b
00000270: 3b59 983d 19dc 053e 9726 473d 900a 803e
00000280: 0ab2 e7bd 5781 423e d367 0bbe 37e8 84bc
00000290: f16d 353d e7fa 503e bbfa bf3d ad11 c33d
000002a0: da9f 0bbe 7b36 5b3d f866 e13d 18d6 4b3e
000002b0: 270f 063e e105 423b 9886 d3be d285 053d
000002c0: ad05 4fbd 1cef 2b3d 8cc5 f0bd fd59 c6bd
000002d0: 88d4 f93c 41a7 68bd a0d5 98bd d491 113e
000002e0: ee0e 94bb 0980 6f3d 25c4 e8bb 4493 1c3d
000002f0: e56f 7c3c 0472 c13d f3a2 2fbd af7e b33d
00000300: c78e e3bc f6d7 833d 3643 3dbe 3366 1e3c
00000310: 81f6 43be 2839 87be 6b9a fb3c 38f1 15bf
00000320: 5137 cc3d 3bfe df3d ee42 a13d 26e0 9f3e
00000330: c2b9 32be d666 06be 268e bdbd eeda 013d
00000340: 316e bb3d bb7e b0bd bc08 05be 3b88 16bd
00000350: e035 4ebc 6ced 943d 8cdd 7dbd 5158 623e
00000360: 2c57 2fbd 9c50 02bd 2df7 3d3d ed86 37be
00000370: 3109 31be a93b ddbd 8dcd 3cbe 0ac2 bc3d
00000380: 6b32 36bc 2924 45be 6ce1 203d 2b9c ddbe
00000390: fda7 56be ee38 963d 4b32 5a3c 8f85 c8bd
000003a0: 1c4d a53d de04 693d c9c2 37bc 98ab ac3c
000003b0: dfd9 663b 75d0 54bd f068 203d 29ed c73d
000003c0: dc4e 66bd e017 203e c815 76bd f420 883e
000003d0: 671a 983d 2386 ac3e c171 473d 411d 87be
000003e0: dbc2 093e f8c8 9b3d 9e4f 15bd e4ea c33d
000003f0: e934 06be e050 b6bd 36fa fa3c fc66 9f3d
-0.097718194 -0.119981274 0.08059727 -0.0884912 0.008528671 -0.09340095 -0.049659986 0.10089227
-0.04275021 0.077441156 -0.06606412 -0.001785086 0.044307746 -0.020043084 0.09119888 -0.06760863
-0.08211186 0.036420822 0.050804995 0.10793309 -0.03251035 -0.09887141 -0.094879426 -0.061945215
0.043243587 -0.08532519 -0.016889602 0.020488081 -0.044830207 -0.027591508 0.08317541 -0.034851503
0.0061502843 -0.11487716 -0.046029385 -0.08842455 0.0021035683 -0.09713597 0.040796712 -0.12511893
-0.07332114 0.034884997 -0.050779942 -0.060593843 0.052237656 0.06565753 -0.07548685 -0.063660756
-0.023623157 -0.10879813 0.015392535 -0.046467166 -0.07056547 0.104781024 0.08674164 -0.07285929
-0.11606794 -0.011662178 0.040534317 0.111749955 0.07652844 -0.023565888 -0.12007678 -0.07881642
-0.03816677 -0.21196608 0.15387484 0.00691674 -0.043701183 0.049560636 -0.16402806 -0.01519305
0.018996743 -0.068480976 -0.035029754 -0.0074493294 -0.20313679 0.06424817 -0.103135996 -0.04580015
0.05348569 0.15050714 0.06738067 -0.056881867 -0.08281265 -0.071969084 -0.07992155 -0.25782767
0.12399244 0.057951275 0.14315084 0.19744049 0.06505918 0.057712104 -0.024701104 -0.15742512
0.012186477 -0.015568986 -0.024242377 0.034604836 -0.12497694 -0.054949205 -0.07414913 0.16965379
-0.062163524 -0.0087643415 -0.11227942 0.09245081 0.050349467 -0.015507824 -0.37876782 -0.10872226
0.09996621 0.018607462 0.016362384 -0.14444074 -0.04310885 -0.070573494 -0.0008653892 0.16197295
0.006935663 0.015388527 -0.21530312 0.02114156 0.1256515 -0.027670808 -0.23819074 0.11752908
-0.07365267 -0.20079578 0.037807345 0.046180405 0.11000986 0.0903765 -0.13121243 -0.002295365
0.07586452 0.13198116 -0.022914015 -0.072915755 0.12829876 -0.043184258 -0.10860162 0.053129107
0.20705149 0.15033111 -0.017151628 0.1920553 -0.05800439 0.11418609 0.055598825 -0.1614034
-0.019376677 -0.11045114 0.0012278825 0.003518598 0.07438894 0.13072242 0.048620787 0.2500806
-0.11313255 0.18994652 -0.13613825 -0.01622401 0.0442943 0.20408212 0.09373995 0.09524856
-0.13635197 0.053518753 0.11005968 0.19905889 0.13091718 0.0029605555 -0.41313624 0.032598324
-0.050542522 0.04197608 -0.11756429 -0.09685133 0.03049685 -0.05680013 -0.07462621 0.14215785
-0.0045183813 0.058471713 -0.0071034604 0.03822638 0.015407537 0.09445575 -0.04288001 0.08764397
-0.027778042 0.06437676 -0.1848267 0.009667921 -0.19137003 -0.26410794 0.03071328 -0.58571196
0.09971488 0.109371625 0.07874094 0.312257 -0.17453673 -0.13125166 -0.09255628 0.03170293
0.09151877 -0.08617922 -0.12991613 -0.036751013 -0.012586087 0.07271847 -0.06197886 0.22104003
-0.042807743 -0.031815156 0.046378303 -0.17922564 -0.17288662 -0.10802395 -0.18437786 0.092166975
-0.011120419 -0.19252075 0.03927748 -0.4328321 -0.2096252 0.07335077 0.013317655 -0.09791099
0.08071348 0.056889407 -0.011215874 0.021077916 0.0035225076 -0.051956613 0.039162576 0.097620316
-0.05622755 0.15634108 -0.060079366 0.2658764 0.07426911 0.33696088 0.04869247 -0.26389506
0.13453238 0.07606691 -0.036452882 0.09566286 -0.13106121 -0.089021444 0.030636888 0.077833146

fc_advantage.2.bias f4 [32]
00000000: 824f f2bc e96c 953d 1e29 b5bd c33f e83a
00000010: b4d8 18be 39bf 4e3e cc90 483d 0244 003e
00000020: c548 fc3c 8351 94bd 009c 913e b9e2 26be
00000030: 445e fcbe c71d bebc d43b 883c dd50 27be
00000040: a0aa 3fbd 509d 433d ce6f afbc aad8 9b3d
00000050: a9b4 c4bd 0f6a 343d 3994 063e 32d4 853c
00000060: fd63 1c3e 1f7b f9bc e846 223e 080a 8abe
00000070: a930 cf3e 3ad7 d63d 4802 d3be 3663 9b3e
-0.029578928 0.072961636 -0.08845733 0.0017719198 -0.14926416 0.20190133 0.048966214 0.12525943
0.030796418 -0.072421096 0.2843933 -0.16297425 -0.4929067 -0.023207558 0.01663009 -0.1633944
-0.04679358 0.047757447 -0.021415617 0.07609685 -0.09604771 0.044046458 0.1314248 0.016336534
0.15272518 -0.030454217 0.15847361 -0.26960778 0.40466812 0.1049027 -0.41212678 0.3034913

fc_advantage.4.weight f4 [6, 32]
00000000: 1d69 243e 5f3c c3bd 76be 8d3d 9b46 9fbd
00000010: d4b9 733d 3be4 683d 2431 29bd 5caa 593e
00000020: 1406 debb 43dc ccbc eb5e 60be 2d70 193c
00000030: 3d88 bcbd 448b 28be f373 69bd 1b98 67bd
00000040: 8658 d4bb 3e66 a6bd 5c7d c93d c4a2 8dbe
00000050: 2cf1 3bbe 50c9 8ebd 19bc 4d3e 1ffa 85be
00000060: 0afb 803d f0ca c23e 559d 11be fff9 a83a
00000070: 504c 0a3e 2aa1 a3bd b84e 86bb 0165 b8bd
00000080: 18b2 c33d f810 913c e47b 30bd 3507 833e
00000090: 1149 14be 4588 893d 5bc2 d2bd 77f9 3bbe
000000a0: f868 813e 22de afbc 620e 0a3d 32ce 363d
000000b0: f695 8d3d fb41 c43e 08b3 7cbe 86ef 983d
000000c0: 55ce 2b3d 6414 16be 6b3a 323e 2d02 a53c
000000d0: 728a bbbd 4c5c c5bd 82c9 27be 6b94 c63d
000000e0: 63ba 49bf eee9 4e3e ea01 02be 3de6 d83b
000000f0: 6a52 b73d e35d c23e 8ef7 21be 857b 183d
00000100: 67bb e73d 877b 17be 145f 933d 224a f0be
00000110: 0a4a 96be 1ee6 0abf c53e f9bd 6294 f0bc
00000120: df9c babe 2fc0 c5bd 45a7 ab3d cedb 0fbd
00000130: 013f 4fbd 0616 2ebe 91b7 c3bc cf66 123d
00000140: cee9 4e3d cb22 f53e ea9f 0dbd bdfe 22bd
00000150: df1d 993e 2b38 1fbe e50c a6bd 80f1 c83c
00000160: ac85 b63e ae45 d93b b6cf 0dbe f660 013d
00000170: 7401 d73d 75e7 06bf 0b2d 03be 8fb6 f4bd
00000180: 20e7 95bd f766 0ebd 6944 a7be a175 f93c
00000190: fe9c 813e 2523 803e dfbd f33e f1db f2bb
000001a0: 8137 063d 595b ca3c d2d8 54be 2514 98be
000001b0: b06b 96be 8d3e 973d 50b0 353e 5d56 393d
000001c0: 4f03 e03d 4532 0fbf 0d62 abbe b31a e53d
000001d0: fca2 033e f045 1abe dfe6 f3bd 9f9f de3d
000001e0: 61c3 bd3d 1ffc 87be 7b40 0cbf f4c1 9e3e
000001f0: 2e20 903e a6d8 4b3e d428 4c3e 08c3 743e
00000200: bf78 433e efeb 3a3e 9d3d bdbd 2e2b 33be
00000210: dbd8 ff3d c7b6 b93d 1832 6dbe 4c82 143d
00000220: b89a 8abd 1198 793d c29c dfbd a175 033f
00000230: f879 9fbe a929 babd caf6 963c eceb 35bd
00000240: 94a6 993d 046e 13be 8b9b 1e3e 7f7c 323e
00000250: f658 0fbd fe32 07be 805e a8be 85ab ccbd
00000260: fa33 193d c297 51be c8c0 d73e 1254 23bf
00000270: 0ce6 de3c c09d 093d f2e9 1bbf b3c4 cdbd
00000280: 2718 023e 995d e63d ece6 263e 8eb5 3abe
00000290: aa52 743d c60e 803d 4c28 4abe c920 1abe
000002a0: 9de1 013d 9248 153e f35b 8bbe 3713 10be
000002b0: 77e7 2e3e eed5 9bbd 1774 073e 8303 b13d
000002c0: 288c 593b aa4c b1bd 3a25 e33d 5c45 5c3e
000002d0: 6734 0a3e 40b8 603e a264 e8bd 09d2 d23d
000002e0: b585 72bd 9238 f4bd 8b40 94bd 8284 373e
000002f0: 5204 17be 96f3 d2bd 666c 873e b0b4 c0be
0.16055723 -0.09532999 0.06921093 -0.07777139 0.05950339 0.056858283 -0.04130663 0.21256393
-0.006775627 -0.025007373 -0.21911208 0.009365124 -0.09205673 -0.16459376 -0.056995343 -0.056541543
-0.0064802794 -0.0812497 0.098383635 -0.27663243 -0.18353719 -0.06971991 0.20091285 -0.2616739
0.06297882 0.38045454 -0.14220174 0.0012891887 0.13505673 -0.07989724 -0.0040987395 -0.0900364
0.09555453 0.017708287 -0.0430869 0.25591436 -0.14480998 0.067154445 -0.102909766 -0.18356882
0.25275397 -0.021468226 0.033705123 0.044630237 0.069133684 0.3833159 -0.2467767 0.074675605
0.04194482 -0.14656216 0.17405097 0.020142639 -0.09157266 -0.09636745 -0.16385463 0.09696277
-0.7880003 0.20206425 -0.12696043 0.0066192434 0.08951266 0.37962255 -0.15817091 0.037227172
0.11315041 -0.14793216 0.07195869 -0.4693156 -0.29353362 -0.5425738 -0.121701755 -0.02936763
-0.36447808 -0.09655797 0.083815135 -0.03512173 -0.050597195 -0.17000589 -0.023891242 0.035742577
0.050515942 0.47878107 -0.034576334 -0.03979372 0.29905602 -0.1554877 -0.08107928 0.024529219
0.3564886 0.006630621 -0.13848767 0.03158661 0.10498324 -0.52696925 -0.12810151 -0.11948883
-0.07319474 -0.034766164 -0.3266938 0.030451598 0.25315088 0.25026813 0.47605798 -0.007411473
0.032767776 0.024701761 -0.20785835 -0.2970287 -0.29379034 0.073849775 0.17743039 0.045248378
0.10938131 -0.5593608 -0.33473244 0.11186733 0.12855142 -0.15065742 -0.119092695 0.10870289
0.09265781 -0.2655954 -0.5478589 0.3100735 0.2814955 0.19906864 0.1993745 0.23902524
0.1908903 0.18254064 -0.092402674 -0.1749694 0.12492534 0.09068065 -0.2316364 0.036257073
-0.067677915 0.060936037 -0.10918571 0.5135136 -0.31147742 -0.09089977 0.018428225 -0.044414446
0.075024754 -0.14397436 0.15489022 0.17430304 -0.03499695 -0.13203046 -0.32884598 -0.09993652
0.037403084 -0.20468047 0.42139268 -0.63800156 0.027209304 0.033597708 -0.6090385 -0.10047283
0.12704526 0.11248321 0.16299027 -0.1823332 0.059649147 0.06252818 -0.19741935 -0.15051569
0.031709302 0.14578465 -0.2721859 -0.1406983 0.17080484 -0.07609163 0.13227879 0.08643248
0.0033195112 -0.08657201 0.11091085 0.21510834 0.13496552 0.21945286 -0.11347319 0.10293967
-0.059209544 -0.119248524 -0.07238873 0.17921641 -0.14747742 -0.103003666 0.2644989 -0.37637854

fc_advantage.4.bias f4 [6]
00000000: e1fe d43d 7481 28bd d5f8 87bd 4c95 383d
00000010: 8c34 4fbe 4c81 c3bd
0.10400177 -0.04113908 -0.06639258 0.045064256 -0.20234889 -0.09546146
