data/Torch/Dueling/002_CNN-1_E_L/checkpoints/weights_1700000steps.pth (torch, 286623 bytes, 13 tensors)

conv_layers.0.weight f4 [32, 1, 3, 3]
-0.07401098 -0.048783585 -0.008176241 0.11702051 -0.28707358 -0.037734896 0.24816985 0.056361314
0.28411242 -0.30545762 0.30552673 0.00032900268 -0.106750615 -0.10604694 0.21323557 0.42700705
-0.13043746 -0.22441807 -0.5297434 -0.022359017 0.044538774 0.32948568 0.110866636 -0.016869804
0.028087378 0.095981374 -0.1989211 -2.1729465 0.04690243 0.1390292 0.075079024 -0.00037976645
0.024312682 0.04749554 0.0049591227 -0.009817858 0.19629087 -0.16933216 0.07244557 0.09304401
0.13060246 -0.015904436 -0.009558617 -0.041740425 -0.016341284 0.49919724 0.012418109 0.02149878
-1.0790154 0.19494802 -0.0071304417 -0.032823257 0.04402829 -0.024766069 0.68912554 -0.016364686
-0.028962523 0.007336694 -0.46825767 0.038494162 -0.02636617 -0.016024074 -0.03586565 -0.753131
0.0063324175 -0.7060165 0.08554951 -0.054659177 -0.8892757 -0.020232635 -1.8123366e-05 -0.019240823
-0.673187 0.16511826 0.025705552 0.009981578 0.24000321 -0.0654596 -0.023243774 0.19732416
0.11041274 0.3096186 -0.21076116 -0.027102811 -0.32005593 -0.0957099 0.17224425 -0.05169718
-0.1571223 0.36936054 -0.27994365 0.077212654 0.1814895 -0.0048153256 0.18552971 0.03379365
-0.15259132 -0.17727393 0.03835842 -0.08184982 -0.36637512 0.12635419 0.4696645 0.14179042
0.051573686 0.04913015 0.018847214 -0.62805915 0.17744744 -0.031232595 -0.02760347 -0.19490427
-0.08568556 0.33194026 -0.023758924 0.056345396 -0.03454199 -1.3722581 0.09051465 0.050984018
0.12244489 0.043224726 0.07886266 0.074749246 0.06076058 0.04487886 0.47699437 0.17454498
-0.13018133 0.072089165 -0.18511114 0.07059708 -0.020628631 -0.011139276 -0.20220856 0.5221279
-0.46581262 -0.024538253 -0.020544823 -0.0022101772 0.03687549 0.0076569114 -0.004699333 0.021732911
0.0778648 0.1557392 0.21071032 0.17028248 0.02937198 -0.15506095 -0.060290415 -0.07795491
-0.20905657 -0.04008505 0.17774457 0.057163484 -0.2283189 -0.13371888 0.042120375 -0.13507678
0.09909548 0.06717408 -0.530916 -0.016083729 0.008280394 -0.022692677 0.117451616 -0.064749904
0.02829319 0.11819109 0.32396856 0.5097082 -0.10352639 0.109020285 -0.0293285 -0.5741902
-0.09333373 0.0665652 -0.11344011 -0.1505136 0.18267354 -0.2860539 0.004376904 -0.26845914
-0.077436335 0.015282521 -0.16620813 0.17236157 0.09794092 0.6629119 -0.100893505 0.11617637
-0.15127708 -0.1627643 -0.02711068 -0.08124448 0.03782498 0.018135354 -0.017913053 0.010976381
0.015174806 0.13854852 -0.14064269 -0.26224822 0.011961304 0.01614209 0.0125669995 -0.18917514
0.33091733 0.3700483 -0.073657826 -0.028047567 0.0026869178 -0.18805778 0.09165028 -0.0030994117
0.028188255 -0.19290364 0.14378138 0.22324699 -0.0139399115 0.033557154 -0.3765052 0.10982982
-0.20098582 0.23091508 0.100988425 -0.0015322649 0.07193247 -0.14748447 0.07020513 -0.1377383
-0.1103429 -0.16670063 -0.34575453 0.029073488 0.054677192 0.14703779 0.08396025 -0.19400497
0.018305011 0.04968811 -0.0025143707 0.23185377 0.069270276 -0.5277345 0.34430525 -0.041164022
0.074857846 -0.25679657 0.1306128 0.0026778362 0.4910501 -0.034793492 0.060461406 -0.47529775
00000000: 1293 97bd 4cd1 47bd a4f5 05bc 73a8 ef3d
00000010: 4ffb 92be e88f 1abd 3d20 7e3e 1fdb 663d
00000020: 2f77 913e f164 9cbe 006e 9c3e fe7d ac39
00000030: 11a0 dabd 232f d9bd 6d5a 5a3e aba0 da3e
00000040: 6691 05be dacd 65be 439d 07bf 422a b7bc
00000050: 4a6e 363d 59b2 a83e 0c0e e33d 8b32 8abc
00000060: 8017 e63c e291 c43d f9b1 4bbe 8e11 0bc0
00000070: c31c 403d ac5d 0e3e 08c3 993d 641b c7b9
00000080: 642b c73c af8a 423d 2380 a23b 15db 20bc
00000090: 7900 493e 6965 2dbe 585e 943d dc8d be3d
000000a0: a7bc 053e 054a 82bc bf9b 1cbc 02f8 2abd
000000b0: 28de 85bc c896 ff3e 5375 4b3c 361e b03c
000000c0: 2d1d 8abf 74a0 473e 7ba6 e9bb ae71 06bd
000000d0: 0257 343d 36e2 cabc 886a 303f 3c0f 86bc
000000e0: d042 edbc a668 f03b 78bf efbe 0eac 1d3d
000000f0: defd d7bc eb44 83bc dce7 12bd 31cd 40bf
00000100: 2b80 cf3b 7fbd 34bf 9534 af3d 4de2 5fbd
00000110: 93a7 63bf e9be a5bc a207 98b7 ee9e 9dbc
00000120: fc55 2cbf c314 293e 7394 d23c c689 233c
00000130: 67c3 753e af0f 86bd ba69 bebc 580f 4a3e
00000140: 1320 e23d 5486 9e3e c6d1 57be b706 debc
00000150: 5fde a3be 8d03 c4bd cc60 303e 6cc0 53bd
00000160: abe4 20be d31c bd3e c654 8fbe ab21 9e3d
00000170: 62d8 393e e1c9 9dbb 80fb 3d3e 366b 0a3d
00000180: e640 1cbe 4c87 35be b81d 1d3d e1a0 a7bd
00000190: 8595 bbbe fe62 013e de77 f03e 8231 113e
000001a0: ee3e 533d b23c 493d 7965 9a3c 7cc8 20bf
000001b0: c8b4 353e 80db ffbc ac20 e2bc fc94 47be
000001c0: e97b afbd 13f4 a93e 13a2 c2bc 6eca 663d
000001d0: e77b 0dbd 27a6 afbf bf5f b93d 9ed4 503d
000001e0: 63c4 fa3d 690c 313d bf82 a13d 2216 993d
000001f0: 16e0 783d e5d2 373d 9b38 f43e ebbb 323e
00000200: 414e 05be 7ca3 933d c68d 3dbe 3495 903d
00000210: 60fd a8bc 8381 36bc c30f 4fbe 2daa 053f
00000220: fe7e eebe 7204 c9bc 9e4d a8bc 9fd8 10bb
00000230: c10a 173d d4e6 fa3b ddfc 99bb 3809 b23c
00000240: 9577 9f3d 197a 1f3e 72c4 573e 885e 2e3e
00000250: 829d f03c 4cc8 1ebe 15f3 76bd d3a6 9fbd
00000260: ed12 56be 3930 24bd ac02 363e 4224 6a3d
00000270: 6ecc 69be 9aed 08be 6a86 2c3d 9151 0abe
00000280: 92f2 ca3d 9092 893d 1cea 07bf 06c2 83bc
00000290: 7daa 073c fee5 b9bc 798a f03d 999b 84bd
000002a0: 1fc7 e73c 2c0e f23d 35df a53e 3d7c 023f
000002b0: a505 d4bd 0746 df3d 5342 f0bc 21fe 12bf
000002c0: c125 bfbd 5653 883d 4a53 e8bd 3d20 1abe
000002d0: c60e 3b3e a875 92be 226c 8f3b 7a73 89be
000002e0: f196 9ebd 8a63 7a3c 7732 2abe 8d7f 303e
000002f0: 4095 c83d 98b4 293f 41a1 cebd e0ed ed3d
00000300: 61e8 1abe afab 26be 3717 debc 8263 a6bd
00000310: 5eee 1a3d 9890 943c 65be 92bc 47d6 333c
00000320: c09f 783c aadf 0d3e a304 10be 6645 86be
00000330: 58f9 433c 6b3c 843c d1e5 4d3c 21b7 41be
00000340: ff6d a93e f976 bd3e ead9 96bd 03c4 e5bc
00000350: 0017 303b 3892 40be 24b3 bb3d 801f 4bbb
00000360: 0eeb e63c 8888 45be 6d3b 133e dc9a 643e
00000370: 3a64 64bc 3a73 093d 4ac5 c0be 75ee e03d
00000380: 3acf 4dbe 0175 6c3e 05d3 ce3d 47d6 c8ba
00000390: 5551 933d 2b06 17be b5c7 8f3d 450b 0dbe
000003a0: 75fb e1bd 92b3 2abe bd06 b1be 862b ee3c
000003b0: 31f5 5f3d 1391 163e 5af3 ab3d 3da9 46be
000003c0: 64f4 953c c285 4b3d 24c8 24bb 136b 6d3e
000003d0: 93dd 8d3d 9c19 07bf c748 b03e 9b9b 28bd
000003e0: 124f 993d d77a 83be 5dbf 053e a37e 2f3b
000003f0: eb6a fb3e 9f83 0ebd 61a6 773d 3a5a f3be

conv_layers.0.bias f4 [32]
-0.86126864 -0.6866075 0.577407 0.6411496 -0.43891686 0.1672729 0.027887387 0.64577943
5.418753e-05 -0.36994085 0.32024357 -0.11708621 -0.6848194 0.6509886 -0.77430826 0.30976716
-0.5626051 0.43970865 0.5299179 0.3346309 0.56041497 -0.74481744 0.37942177 -0.98163503
0.40081227 0.41381362 0.5941205 -0.65086055 -0.055546083 0.39489985 0.5728483 -0.79352874
00000000: 1a7c 5cbf 82c5 2fbf f2d0 133f 6122 243f
00000010: b6b9 e0be 9649 2b3e 1774 e43c cd51 253f
00000020: 6b47 6338 e368 bdbe f7f6 a33e e5ca efbd
00000030: 5350 2fbf 30a7 263f 1139 46bf cd99 9e3e
00000040: e306 10bf 7e21 e13e b3a8 073f be54 ab3e
00000050: 5b77 0f3f 5bac 3ebf 9243 c23e 6f4c 7bbf
00000060: 4437 cd3e 61df d33e 4818 183f cc9e 26bf
00000070: 4a84 63bd 5030 ca3e 30a6 123f b324 4bbf

fc_state.0.weight f4 [64, 512]
0.010458142 -0.016638702 -0.020199101 -0.007552592 0.03150626 -0.035210956 0.020532737 -0.039390743
0.031024309 -0.015959589 -0.02233548 0.03470238 0.027011614 -0.0058141076 0.0012310944 0.02377963
0.029828468 -0.028193444 -0.010580986 0.02874171 0.027121559 -0.0025099397 -0.008204927 0.006527509
-0.017500812 0.02581473 -0.032232348 0.011878308 0.013890899 -0.01821376 0.026344199 0.03289114
0.007999371 -0.04748882 0.020548908 0.0073288656 0.010773639 1.6603479e-05 -0.003495992 -0.024493847
-0.0023009619 -0.034224533 0.029035354 0.014513418 0.0015785216 -0.0028956635 0.0057979366 -0.040415857
-0.024988407 -0.046403956 -0.006863624 0.033550173 -0.04729739 0.029465722 0.01257873 -0.014284738
-0.04039954 -0.035053674 -0.02498094 0.009997702 0.011307084 0.0025960105 -0.044546973 -0.04289966
0.019211117 0.012221047 0.0102369785 -0.0062528774 0.030673934 0.021992499 0.018449184 0.021776767
0.0062556583 0.0072281356 0.027294127 0.008918738 -0.0065139458 -0.02473678 -0.033771962 -0.029978791
0.007585386 0.03930438 -0.039853126 -0.008021861 0.03727802 0.010995366 0.034080163 0.039750166
0.009677004 -0.013439587 -0.023571135 -0.0007346086 -0.009136591 0.0015052757 -0.0045439154 0.014483941
-0.048700456 -0.026679255 0.017899588 -0.011724686 -0.0110768685 -0.0047428817 -0.03973085 -0.010742786
-0.03569007 -0.00072074897 -0.031274077 -0.035830695 0.009350437 0.006668949 0.02378902 0.016021453
0.016315334 -0.002955782 0.0038501765 0.00485609 0.010089434 -0.008446742 0.019971829 -0.017073214
0.027653752 -0.04678046 0.033430554 0.03935542 0.032705955 -0.03932572 -0.029621737 -0.019772848
0.032768995 0.008925343 -0.042205468 -0.019726146 0.03696811 0.0048164465 -0.034710694 -0.014906087
0.04297943 0.018822787 0.021248724 0.0126135815 0.011286914 -0.002187036 0.017196244 0.025792675
0.029944433 -0.021388952 -0.04065385 0.032150008 0.014924914 0.025905814 -0.047031738 0.009487384
0.041539844 -0.04209675 -0.006930078 0.0014890424 -0.03965336 0.039029002 0.021326488 0.017099805
-0.005412914 -0.024976734 0.006592544 -0.01630381 0.02399307 0.022751477 -0.014784768 0.025827289
-0.0022783845 -0.042607922 0.006949744 0.03166326 0.023759851 0.0016614626 -0.02614038 -0.035562348
-0.038096942 -0.019674333 -0.04156264 -0.027751012 0.031439465 0.00057774456 0.0389696 -0.027263038
0.021737944 0.0020170435 0.0014991909 0.03992134 -0.042539876 -0.015838385 -0.0009643994 -0.0055992715
-0.021503039 -0.023024602 -0.0383707 -0.041435044 0.020444112 0.0007772499 -0.038662516 -0.034255393
-0.029130027 -0.012375883 0.018174272 -0.009832826 -0.032105125 -0.009837142 -0.04623179 -0.027344888
-0.032168582 -0.013791291 -0.0253501 -0.008963238 0.038564257 0.0074870605 0.013454445 -0.041752134
0.033388406 -0.02364325 -0.0044323206 -0.010219311 -0.020013914 -0.016851706 -0.009421683 0.031011866
-0.041911565 0.003547179 0.016006246 0.002331479 -0.03474367 0.021224458 -0.031205868 -0.0048993267
-0.041064374 0.009566217 0.023025313 -0.007278186 0.03777328 -0.03429719 -0.0093042 0.0006048425
-0.029453235 -0.018587684 -0.042589754 0.021503985 0.018320654 0.011591762 0.034306794 -0.0019353247
-0.023735764 -0.04357025 0.017458156 -0.035162654 0.019877728 -0.040304743 0.03386513 -0.026026955
00000000: a058 2b3c e34d 88bc 9678 a5bc bc7b f7bb
00000010: b50c 013d 5d39 10bd 4534 a83c 3058 21bd
00000020: b126 fe3c afbd 82bc e6f8 b6bc 1524 0e3d
00000030: 7647 dd3c 4584 bebb ac5c a13a 80cd c23c
00000040: d55a f43c f0f5 e6bc df5b 2dbc bc73 eb3c
00000050: 082e de3c cd7d 24bb f56d 06bc b7e4 d53b
00000060: dd5d 8fbc 6a79 d33c 1106 04bd 3c9d 423c
00000070: a796 633c 0635 95bc cacf d73c dcb8 063d
00000080: cb0f 033c a383 42bd 2f56 a83c fb26 f03b
00000090: eb83 303c b347 8b37 031d 65bb 52a7 c8bc
000000a0: bccb 16bb 062f 0cbd 8ddb ed3c b0c9 6d3c
000000b0: 65e6 ce3a 2cc5 3dbb 9efc bd3b 198b 25bd
000000c0: 7db4 ccbc 1312 3ebd 40e8 e0bb e86b 093d
000000d0: e8ba 41bd 1962 f13c 0417 4e3c 890a 6abc
000000e0: fd79 25bd 7194 0fbd d4a4 ccbc 67cd 233c
000000f0: 5941 393c d421 2a3b e376 36bd 8eb7 2fbd
00000100: a260 9d3c c93a 483c 00b9 273c f0e4 ccbb
00000110: e747 fb3c 9d29 b43c be22 973c 3165 b23c
00000120: 44fc cc3b ffd9 ec3b ef97 df3c e61f 123c
00000130: f072 d5bb caa4 cabc 7854 0abd 1596 f5bc
00000140: d48e f83b a1fd 203d 083d 23bd 206e 03bc
00000150: d6b0 183d e825 343c a497 0b3d 12d1 223d
00000160: 4c8c 1e3c b731 5cbc 4118 c1bc c092 40ba
00000170: a4b1 15bc ac4c c53a 20e5 94bb 0d4e 6d3c
00000180: 217a 47bd 748e dabc 28a2 923c e618 40bc
00000190: c17b 35bc 2d6a 9bbb d1bc 22bd 8302 30bc
000001a0: c02f 12bd a5f0 3cba 3f19 00bd 35c3 12bd
000001b0: 9332 193c 3387 da3b 31e1 c23c 6c3f 833c
000001c0: bca7 853c cbb5 41bb 3e53 7c3b d61f 9f3b
000001d0: 274e 253c 3464 0abc f69b a33c 20dd 8bbc
000001e0: 1f8a e23c de9c 3fbd 7aee 083d 2633 213d
000001f0: aef6 053d 0214 21bd 49a9 f2bc abfa a1bc
00000200: c838 063d 9a3b 123c a4df 2cbd ba98 a1bc
00000210: df6b 173d 48d3 9d3b cd2c 0ebd a938 74bc
00000220: 330b 303d 3f32 9a3c ce11 ae3c 32a9 4e3c
00000230: c0ec 383c 6054 0fbb 23df 8c3c 294b d33c
00000240: 074e f53c e237 afbc a784 26bd baaf 033d
00000250: a087 743c 6e38 d43c 5aa4 40bd f970 1b3c
00000260: af25 2a3d a46d 2cbd b515 e3bb f92b c33a
00000270: 906b 22bd e0dc 1f3d e3b4 ae3c e414 8c3c
00000280: d05e b1bb 029c ccbc 4406 d83b 918f 85bc
00000290: 1d8d c43c 4e61 ba3c d03b 72bc c093 d33c
000002a0: f350 15bb a585 2ebd aeba e33b 56b1 013d
000002b0: 05a4 c23c 6fc5 d93a 5a24 d6bc d3a9 11bd
000002c0: 8a0b 1cbd 112c a1bc 963d 2abd 1756 e3bc
000002d0: abc6 003d c873 173a 969e 1f3d bc56 dfbc
000002e0: c613 b23c 6030 043b 8080 c43a 8f84 233d
000002f0: 4b3e 2ebd 80bf 81bc c0cf 7cba 187a b7bb
00000300: 2427 b0bc 179e bcbc 982a 1dbd cbb7 29bd
00000310: 697a a73c 5cc0 4b3a 965c 1ebd 624f 0cbd
00000320: 18a2 eebc 37c4 4abc 36e2 943c dd19 21bc
00000330: aa80 03bd f72b 21bc 8c5d 3dbd 6302 e0bc
00000340: 34c3 03bd def4 61bc 03ab cfbc 8cda 12bc
00000350: 8ef5 1d3d 0456 f53b 0870 5c3c 4904 2bbd
00000360: 48c2 083d 7daf c1bc 003d 91bb e66e 27bc
00000370: 38f4 a3bc 970c 8abc 675d 1abc 990c fe3c
00000380: 76ab 2bbd ca77 683b 881f 833c bacb 183b
00000390: 614f 0ebd eade ad3c 73a3 ffbc 888a a0bb
000003a0: 1e33 28bd 9fbb 1c3c 959f bc3c d97d eebb
000003b0: 28b8 1a3d 367b 0cbd a570 18bc 4b8e 1e3a
000003c0: e947 f1bc 3345 98bc 9872 2ebd 2029 b03c
000003d0: 3215 963c 60eb 3d3c 4885 0c3d b9aa fdba
000003e0: 8171 c2bc b876 32bd 6804 8f3c b706 10bd
000003f0: 9ed6 a23c 9616 25bd 2ab6 0a3d 7b36 d5bc

fc_state.0.bias f4 [64]
-0.003643741 -0.031771407 0.07908407 -0.03041678 -0.0028048563 -0.009209445 -0.021051902 0.027622512
0.068341084 0.030844484 0.029229257 -0.12246678 -0.02025112 0.030948972 0.023099786 0.074988656
-0.024731038 -0.045745365 -0.04729405 0.14217833 -0.042789906 -0.027334927 -0.01711301 -0.03586511
0.02094227 0.11937067 0.014435 -0.0019962615 -0.03806987 0.10097844 -0.022585317 0.0111879185
-0.02954241 -0.06626026 -0.0361954 0.073735945 -0.040216245 -0.044261646 0.11229415 -0.12875846
-0.007518482 -0.044510376 0.024429807 -0.034767028 0.10018228 -0.0028640167 0.035538867 -0.022083895
-0.032616794 0.10154022 -0.06824823 0.0059076785 -0.045542926 -0.05810578 0.046416074 -0.057562985
-0.0069005736 0.124745525 -0.026244968 0.010353462 -0.07226873 0.011180738 -0.062055547 0.013553601
00000000: d4cb 6ebb bc22 02bd d4f6 a13d 9c2c f9bc
00000010: aed1 37bb 36e3 16bc 0a75 acbc 9b48 e23c
00000020: 69f6 8b3d 92ad fc3c 3272 ef3c ddcf fabd
00000030: ade5 a5bc b388 fd3c c33b bd3c a793 993d
00000040: bf98 cabc 7e5f 3bbd 68b7 41bd 3297 113e
00000050: 7844 2fbd 7fed dfbc 9530 8cbc 4be7 12bd
00000060: 208f ab3c 9c78 f43d c780 6c3c b6d3 02bb
00000070: 27ef 1bbd c9cd ce3d d804 b9bc 884d 373c
00000080: ed02 f2bc 76b3 87bd a141 14bd df02 973d
00000090: cab9 24bd b34b 35bd 7afa e53d 42d9 03be
000000a0: 995d f6bb 8350 36bd 0521 c83c df67 0ebd
000000b0: 5e2c cd3d 3ab2 3bbb 3491 113d 49e9 b4bc
000000c0: 3099 05bd 52f4 cf3d bac5 8bbd 3395 c13b
000000d0: 388b 3abd 5400 6ebd c81e 3e3d 2ac7 6bbd
000000e0: 351e e2bb 957a ff3d b0ff d6bc 91a1 293c
000000f0: a101 94bd 6a2f 373c f52d 7ebd ec0f 5e3c

fc_state.2.weight f4 [32, 64]
-0.10886187 0.0902663 0.05191702 0.05125487 0.115530476 -0.07883697 -0.010298318 0.028778711
-0.21870378 -0.10728351 0.050301593 -0.16259496 -0.10791886 -0.70665413 -0.049796797 0.13462304
-0.11711537 0.11126457 0.06767637 -0.07359744 -0.10770669 0.0358124 -0.08730642 -0.06361502
0.113635145 -0.14906739 -0.012886331 0.06459805 0.030126119 -0.0086573735 -0.004329373 -0.54231775
0.03434815 -0.20627846 -0.10500098 -0.50342196 -0.0653799 0.015126839 -0.24528828 -0.2609319
0.070828475 -0.0068965848 0.081198685 -0.023040827 0.1290608 -0.011279278 -0.13975368 -0.070737384
0.11132913 -0.010052133 0.2525714 0.058215424 0.082176775 0.08722059 -0.010933797 -0.09802574
0.027511971 0.03246662 0.11124255 0.20371091 0.100148216 0.003654479 -0.057967808 -0.033704337
0.09308802 -0.117903806 0.11377342 -0.0027338956 0.05983715 0.06610269 0.03356331 -0.068732075
0.06948989 -0.108148664 0.10970711 -0.088832125 0.047056742 0.09796009 -0.014242015 0.02461116
-0.034537323 0.048258036 -0.0005695143 0.17674057 -0.0056895483 0.045814857 0.03268559 0.022459855
-0.012424384 -0.049273297 0.07140656 0.02076172 0.074984856 0.19599386 -0.0031171124 0.25845262
0.0698726 0.12365074 0.06004135 0.040451 0.14288598 -0.119694605 0.13221233 -0.037875857
0.109822884 0.053656496 0.055610918 -0.10277322 0.1290826 -0.065655805 0.19685742 0.08117496
-0.01079822 0.2574051 -0.025322396 0.07900147 -0.022617785 0.057371825 -0.043609124 -0.036979377
-0.048128624 0.25436425 -0.0976343 -0.2578373 -0.050461702 0.056885168 0.03402851 0.20245644
0.10767854 -0.041155517 -0.016007498 0.10461218 0.09727482 0.10960678 -0.061627023 -0.06530648
0.80293614 0.06694838 0.002792926 -0.19685777 -0.13772507 -0.24257901 -0.07700273 -0.12847853
-0.02118258 0.0328207 -0.08082379 -0.2150725 -0.121263154 0.070095055 0.088101044 -0.054422073
-0.09166463 0.14660989 -0.11601165 0.11853267 -0.050148163 0.14951158 0.0678532 -0.4274915
0.1557229 -0.10145859 -0.120455265 -0.12291259 -0.04383028 0.10541619 0.02563459 -0.03049472
0.110884555 -0.010780822 0.111521795 0.14096588 0.07922253 -0.098887466 0.03215538 -0.030444536
0.0034792367 0.22110714 0.027817361 -0.028626714 -0.11036545 0.11191684 -0.34708044 0.07375879
-0.07093941 0.0092717605 -0.04513354 -0.2515095 0.0065857777 0.049313266 -0.02004177 0.013673638
0.11928798 -0.114781104 -0.28762645 0.059713274 0.0589892 0.02333738 -0.04304722 0.0794417
-0.6741856 0.050252404 -0.0244653 0.022701453 -0.08074496 -0.017097658 0.038496353 -0.5422223
-0.08858835 -0.03848168 0.059126113 0.17496589 -0.0010960086 -0.077298254 -0.013259433 -0.04128837
0.032916483 0.12267716 0.09527299 -0.0014028052 0.06126523 -0.0040077753 -0.11381365 0.114161424
-0.11493325 0.013191916 0.07740406 0.09309576 0.091511056 -0.04889118 -0.08198214 -0.004700905
0.08194254 0.049767543 0.0090249395 0.062513374 0.22425857 -0.11388561 -0.2783199 -0.016186992
0.07944669 0.22493641 -0.07914735 -0.032046698 -0.079292394 0.11156406 -0.015502374 -0.062445503
0.11736867 0.13947093 -0.047387056 -0.06577711 -0.06142081 -0.0062045897 -0.093557686 -0.5948316
00000000: f9f2 debd 8add b83d f1a6 543d a0f0 513d
00000010: 3e9b ec3d 4775 a1bd 47ba 28bc 55c1 eb3c
00000020: e2f3 5fbe 75b7 dbbd 0b09 4e3d 4b7f 26be
00000030: 9004 ddbd 49e7 34bf baf7 4bbd 9fda 093e
00000040: 2fda efbd aede e33d e999 8a3d 41ba 96bd
00000050: 5395 dcbd 06b0 123d b5cd b2bd 9748 82bd
00000060: 8bb9 e83d 1fa5 18be 3121 53bc fc4b 843d
00000070: 0dcb f63c a8d7 0dbc 6add 8dbb 56d5 0abf
00000080: a5b0 0c3d a93a 53be c10a d7bd 43e0 00bf
00000090: e6e5 85bd 90d6 773c da2c 7bbe de98 85be
000000a0: 850e 913d bffc e1bb 7f4b a63d 1ec0 bcbc
000000b0: 8428 043e b9cc 38bc 971b 0fbe c3de 90bd
000000c0: 8700 e43d b4b1 24bc 0a51 813e 4c73 6e3d
000000d0: 4c4c a83d b5a0 b23d ab23 33bc b8c1 c8bd
000000e0: c960 e13c b8fb 043d 22d3 e33d 9899 503e
000000f0: 821a cd3d fc7f 6f3b a76f 6dbd 8f0d 0abd
00000100: efa4 be3d 8d77 f1bd 0a02 e93d 282b 33bb
00000110: cd17 753d d960 873d ae79 093d 67c3 8cbd
00000120: b750 8e3d 0c7d ddbd 1fae e03d 9eed b5bd
00000130: 92be 403d 4d9f c83d 5757 69bc 589d c93c
00000140: 0277 0dbd 38aa 453d 754b 15ba 7bfb 343e
00000150: 646f babb 5ca8 3b3d 53e1 053d bbfd b73c
00000160: a58f 4bbc ccd2 49bd 9a3d 923d 7c14 aa3c
00000170: a991 993d 9db2 483e 7848 4cbb e753 843e
00000180: 5e19 8f3d 993c fd3d ebed 753d f3af 253d
00000190: b450 123e 7222 f5bd ab62 073e b723 1bbd
000001a0: d2ea e03d eac6 5b3d 46c8 633d c47a d2bd
000001b0: 3b2e 043e 8d76 86bd fe94 493e 0f3f a63d
000001c0: 04eb 30bc 9aca 833e ea70 cfbc 86cb a13d
000001d0: ef48 b9bc b8fe 6a3d 7b9f 32bd b077 17bd
000001e0: 8522 45bd 083c 823e 7ef4 c7bd 4003 84be
000001f0: eeb0 4ebd 6c00 693d 7b61 0b3d be50 4f3e
00000200: 9186 dc3d b092 28bd 2822 83bc e93e d63d
00000210: 0538 c73d 8579 e03d 9e6c 7cbd 67bf 85bd
00000220: 398d 4d3f 3b1c 893d 8609 373b 1595 49be
00000230: cd07 0dbe a266 78be 9bb3 9dbd e08f 03be
00000240: 1787 adbc 006f 063d f186 a5bd f73b 5cbe
00000250: d158 f8bd ff8d 8f3d 526e b43d aee9 5ebd
00000260: aaba bbbd e720 163e 8497 edbd 42c1 f23d
00000270: 2968 4dbd 9019 193e 9ef6 8a3d 2ae0 dabe
00000280: d375 1f3e 85c9 cfbd 40b1 f6bd 99b9 fbbd
00000290: 6187 33bd 72e4 d73d a2ff d13c 10d0 f9bc
000002a0: 7117 e33d 0ba2 30bc 8a65 e43d 5c59 103e
000002b0: 6c3f a23d 8385 cabd 5cb5 033d d266 f9bc
000002c0: e803 643b e969 623e 3ce1 e33c 9282 eabc
000002d0: 4807 e2bd a834 e53d 87b4 b1be d90e 973d
000002e0: ae48 91bd 95e8 173c f2dd 38bd dac5 80be
000002f0: 82cd d73b b5fc 493d a32e a4bc 6507 603c
00000300: 424d f43d 5b12 ebbd c643 93be e895 743d
00000310: a99e 713d 082e bf3c 4852 30bd 54b2 a23d
00000320: 6d97 2cbf 77d5 4d3d 746b c8bc 66f8 b93c
00000330: 9d5d a5bd 6310 8cbc 5aae 1d3d 15cf 0abf
00000340: cf6d b5bd f79e 1dbd 392e 723d 422a 333e
00000350: f2a7 8fba 8c4e 9ebd 183e 59bc fe1d 29bd
00000360: 6fd3 063d 2a3e fb3d 7c1e c33d 55de b7ba
00000370: 40f1 7a3d a853 83bb 2217 e9bd 77cd e93d
00000380: 2062 ebbd e822 583c 0586 9e3d fda8 be3d
00000390: 266a bb3d 1e42 48bd 41e6 a7bd 0d0a 9abb
000003a0: 7ed1 a73d 0dd9 4b3d 57dd 133c 0307 803d
000003b0: 0aa4 653e dc3c e9bd f27f 8ebe 959a 84bc
000003c0: f2b4 a23d bb55 663e 0118 a2bd 6643 03bd
000003d0: 0d64 a2bd b37b e43d abfd 7dbc dbc6 7fbd
000003e0: fc5e f03d 78d1 0e3e ee18 42bd 26b6 86bd
000003f0: 6394 7bbd df4f cbbb 2c9b bfbd e246 18bf

fc_state.2.bias f4 [32]
0.0013962901 0.24605782 0.007838775 0.20162061 -0.18218182 0.25103563 0.10711869 -0.08805576
0.062242515 0.013224181 -0.12097371 0.15925181 -0.22619884 0.19861488 -0.030407792 -0.054042432
-0.003036073 -0.28132206 0.18647452 0.25751847 -0.13991736 0.051023338 -0.20777662 -0.01636986
0.03173246 -0.09677379 0.24635805 0.23313755 -0.07872567 0.2008029 0.06295609 -0.3083733
00000000: b903 b73a 95f6 7b3e 356e 003c a275 4e3e
00000010: df8d 3abe be87 803e 0b61 db3d 9456 b4bd
00000020: 02f2 7e3d 3caa 583c 11c1 f7bd e812 233e
00000030: aba0 67be b361 4b3e c319 f9bc 995b 5dbd
00000040: daf8 46bb 7209 90be 2df3 3e3e 76d9 833e
00000050: 7f46 0fbe d9fd 503d 65c3 54be 161a 86bc
00000060: e5f9 013d 5631 c6bd 4945 7c3e 9cbb 6e3e
00000070: ed3a a1bd 479f 4d3e 1fef 803d 1be3 9dbe

fc_state.4.weight f4 [1, 32]
-0.4371659 0.17005792 0.2854201 -0.31607726 -0.20120503 -0.07139975 0.10367817 -0.17082842
-0.13063292 -0.05165298 0.087407514 -0.3117179 -0.121293806 -0.010741332 -0.0025698305 0.14386246
0.2837672 -0.2977508 0.13740833 0.105666086 0.19082335 0.10338383 -0.14640035 -0.20218195
-0.17939006 -0.17613879 -0.14116237 -0.30850482 0.0044450355 -0.032324653 0.19748496 -0.22613358
00000000: 35d4 dfbe aa23 2e3e 9522 923e e1d4 a1be
00000010: b108 4ebe 083a 92bd 3855 d43d a5ed 2ebe
00000020: a3c4 05be 1392 53bd b602 b33d 7d99 9fbe
00000030: e368 f8bd 69fc 2fbc 9a6a 28bb ae50 133e
00000040: ef49 913e cb72 98be c5b4 0c3e 7667 d83d
00000050: 3267 433e e7ba d33d f9e9 15be c908 4fbe
00000060: 07b2 37be ba5d 34be de8c 10be 58f4 9dbe
00000070: a9a7 913b db66 04bd 7f39 4a3e 908f 67be

fc_advantage.0.weight f4 [64, 512]
-0.042060576 -0.037115086 -0.027068086 0.015004191 0.02320945 -0.028472053 -0.000112621885 0.023754809
0.011856331 -0.027251406 -0.0288116 -0.05093228 -0.016559672 -0.04578696 -0.04266879 0.0037080667
-0.05194731 -0.033323687 0.022829613 0.016297199 0.029643113 0.024563968 -0.027877932 -0.0368431
0.017435325 -0.015850758 0.04356691 0.004510311 -0.039053753 -0.045377437 0.0295633 0.025330754
0.029380905 -0.023822252 0.02770903 -0.038134642 0.02299881 -0.032245066 -0.016969027 -0.0005233069
0.010855733 -0.009472032 0.008364901 -0.030596908 -0.018951355 0.028472843 0.026536414 -0.012031807
0.010810711 -0.0052960534 -0.011259352 -0.043750938 0.006950592 -0.01994939 -0.016568827 0.040555432
-0.03298694 -0.00029591224 0.015997414 -0.04051086 -0.035476234 0.016863173 -0.0033117244 0.039816108
-0.014911341 -0.04391053 -0.03645661 -0.036088075 -0.028914496 -0.020569734 -0.044156328 -0.02421553
0.0013381141 0.014423243 -0.0330942 -0.040663194 -0.009174553 -0.04465128 0.019842729 -0.04992765
0.014931711 -0.034016166 -0.0059897215 0.0026294694 -0.049484685 0.035822123 -0.03368694 -0.033005703
-0.022594629 -0.018191606 0.01977163 0.039884787 0.020876896 -0.0039152037 -0.032743577 0.00013454973
0.014512736 0.024125595 0.016379697 -0.0029307224 0.033156153 0.0035178766 0.04162238 0.029144691
-0.016044462 0.0044435537 -0.0056279125 0.010218879 0.020172207 -0.042092096 0.023143975 0.017977392
0.008445433 0.019198403 -0.015275416 0.01982587 0.022084935 -0.01724541 -0.023281751 0.034001578
-0.017037138 -0.047405567 0.008783238 -0.0015663616 -0.04435886 -0.04255372 0.0169401 0.029915683
0.01584406 -0.018211868 0.0190734 0.010893978 -0.015656183 -0.03286704 -0.03616555 -0.0026734504
-0.0036275776 0.031718384 -0.037451923 -0.015234172 0.0268009 0.0051510655 -0.0036729274 -0.039925274
-0.0021148443 0.025504025 0.003473141 0.009165652 0.009688873 -0.013757178 0.016297176 0.012462485
-0.027772123 0.006631068 0.0263859 0.02488408 0.030990839 0.03472184 -0.0458873 0.014503402
0.011666922 -0.02528028 -0.05312397 0.003548404 -0.0157433 -0.016019043 -0.04764729 -0.04703492
-0.004514168 0.0041643223 -0.0068537304 -0.0030753124 0.03170362 0.00037510926 -0.033022836 0.01665384
0.037246916 -0.023809213 0.037520304 -0.005277781 -0.03328209 -0.00032828827 0.043573532 0.04086232
0.038141508 -0.0037811026 -0.03765023 0.0407916 -0.039991897 0.0013952155 -0.021758648 -0.014507755
-0.005635359 -0.057767898 0.01630499 0.0236427 0.012740637 0.031486973 0.0069383346 -0.023706518
-0.00017848914 0.0072967047 0.020479241 -0.009977079 0.028781159 0.013852649 0.04438597 0.018911216
-0.0060937796 0.017423222 0.039195597 0.02093251 -0.025545621 -0.0051373974 0.0024139504 -0.020934395
0.033752732 -0.012666778 -0.03640643 0.014486574 0.021131443 0.016287124 0.020979175 -0.04582855
-0.0016735372 -0.028738491 0.0060553025 -0.04058794 -0.011583262 -0.006559762 -0.04924709 0.0017763918
-0.023014475 -0.0090031475 -0.004459569 -0.013844919 0.013947358 -0.035157382 -0.039747935 0.030122979
-0.005887692 0.031244637 -0.01140839 -0.027370548 0.009101132 -0.018012974 -0.043016117 0.016293827
-0.04462659 -0.04588442 -0.037747752 -0.039152514 0.014560093 0.034416508 -0.04582542 0.020863777
00000000: b647 2cbd fd05 18bd e4bd ddbc 23d4 753c
00000010: bf21 be3c 393e e9bc 6a2f ecb8 7299 c23c
00000020: 0e41 423c 573e dfbc 4e06 ecbc 5e9e 50bd
00000030: 26a8 87bc 1b8b 3bbd 78c5 2ebd 0903 733b
00000040: b4c6 54bd 6b7e 08bd 2b05 bb3c b481 853c
00000050: 1dd6 f23c 603a c93c 4360 e4bc cae8 16bd
00000060: 87d4 8e3c 73d9 81bc 3773 323d 3bcb 933b
00000070: d4f6 1fbd b1dd 39bd bc2e f23c 7182 cf3c
00000080: 39b0 f03c e226 c3bc 0cfe e23c 1233 1cbd
00000090: 0068 bc3c 6713 04bd a102 8bbc 882e 09ba
000000a0: 3fdc 313c 9530 1bbc f00c 093c 5ea6 fabc
000000b0: df3f 9bbc e13f e93c e562 d93c 0e21 45bc
000000c0: 691f 313c 848a adbb 2579 38bc 2f34 33bd
000000d0: cbc1 e33b e76c a3bc 59bb 87bc 741d 263d
000000e0: 501d 07bd ab24 9bb9 020d 833c b7ee 25bd
000000f0: 874f 11bd a324 8a3c 8409 59bb 3716 233d
00000100: b24e 74bc 87db 33bd 8753 15bd 17d1 13bd
00000110: 18de ecbc dc81 a8bc 44dd 34bd a65f c6bc
00000120: a963 af3a 774f 6c3c c98d 07bd 738e 26bd
00000130: dd50 16bc 43e4 36bd 388d a23c ef80 4cbd
00000140: 23a4 743c 8954 0bbd 6d45 c4bb 2d53 2c3b
00000150: 74b0 4abd 38ba 123d 51fb 09bd fd30 07bd
00000160: 5f18 b9bc 9006 95bc 1df8 a13c 3b5e 233d
00000170: 0606 ab3c 1c4b 80bb 211e 06bd eb15 0d39
00000180: d4c6 6d3c 0aa3 c53c b72e 863c 5d11 40bb
00000190: bfce 073d 2d8c 663b 3b7c 2a3d d9c0 ee3c
000001a0: ad6f 83bc 3b9b 913b 5a6a b8bb 166d 273c
000001b0: 2f40 a53c c368 2cbd 6f98 bd3c 5345 933c
000001c0: b75e 0a3c f845 9d3c bd45 7abc dd69 a23c
000001d0: 77eb b43c 3f46 8dbc 5fb9 bebc 3d45 0b3d
000001e0: 7891 8bbc 572c 42bd 92e7 0f3c 604e cdba
000001f0: a3b1 35bd cf4c 2ebd f7c5 8a3c bc11 f53c
00000200: 67cb 813c 0e31 95bc d23f 9c3c a87c 323c
00000210: 6541 80bc 979f 06bd 5422 14bd 0e35 2fbb
00000220: a7bc 6dbb 23eb 013d 3067 19bd c098 79bc
00000230: 908d db3c 45ca a83b 7fb5 70bb af88 23bd
00000240: 3399 0abb d1ed d03c a39d 633b 882b 163c
00000250: 14be 1e3c c965 61bc a881 853c 732f 4c3c
00000260: 5d82 e3bc 6e49 d93b 3e27 d83c b3d9 cb3c
00000270: 80e0 fd3c 7d38 0e3d 52f4 3bbd ad9f 6d3c
00000280: 9e26 3f3c 9718 cfbc 8598 59bd 578c 683b
00000290: 18f8 80bc 5e3a 83bc ce29 43bd b0a7 40bd
000002a0: 96eb 93bb de74 883b 4295 e0bb 2e8b 49bb
000002b0: a8db 013d 50aa c439 f442 07bd a26d 883c
000002c0: 3990 183d 8a0b c3bc e4ae 193d 3cf1 acbb
000002d0: cd52 08bd 1b1e acb9 297a 323d 405f 273d
000002e0: 453a 1c3d 60cc 77bb 2137 1abd 1815 273d
000002f0: 8bce 23bd aadf b63a 313f b2bc efb1 6dbc
00000300: d1a8 b8bb 089e 6cbd 0b92 853c 56ae c13c
00000310: 1bbe 503c 7cf8 003d f85a e33b 2c34 c2bc
00000320: d028 3bb9 3219 ef3b 15c4 a73c e776 23bc
00000330: 77c6 eb3c 39f6 623c 10ce 353d b2eb 9a3c
00000340: 54ae c7bb 25bb 8e3c 908b 203d a87a ab3c
00000350: 0d45 d1bc 9d57 a8bb 5e33 1e3b 9c7e abbc
00000360: 4e40 0a3d 5188 4fbc e91e 15bd 1859 6d3c
00000370: d91b ad3c 936c 853c 85dc ab3c b8b6 3bbd
00000380: 975a dbba fc6c ebbc 8f6b c63b 8a3f 26bd
00000390: b9c7 3dbc 46f3 d6bb 51b7 49bd d1d5 e83a
000003a0: da88 bcbc f081 13bc 9421 92bb cdd5 62bc
000003b0: 7683 643c 3001 10bd bbce 22bd 77c4 f63c
000003c0: 8aed c0bb c1f4 ff3c 41ea 3abc 3338 e0bc
000003d0: ea1c 153c f28f 93bc ab31 30bd a27a 853c
000003e0: 5fca 36bd 4df1 3bbd 639d 1abd 635e 20bd
000003f0: 758d 6e3c 53f8 0c3d 70b3 3bbd 83ea aa3c

fc_advantage.0.bias f4 [64]
-0.049761914 0.21559343 -0.24450186 -0.0063714883 -0.24493136 -0.4759395 0.124138534 0.020021161
-0.023024997 -0.19568335 0.3525724 -0.07930419 -0.081054874 -0.120097995 -0.042985216 -0.072821766
-0.5075156 0.09543653 -0.014088252 -0.14437133 0.04188441 -0.018453086 -0.04137832 0.22671701
0.5376394 -0.028304322 0.08139216 0.15166306 0.100692965 -0.06544329 -0.12519075 -0.04042427
0.8308673 0.11315048 0.60062313 -0.39852268 -0.17890471 0.10585216 -0.26031086 0.11782653
0.3804027 -0.0015713965 -0.015003087 0.056807652 -0.07704619 -0.053774953 -0.023820281 -0.013852765
0.31290117 0.024806015 0.39009246 0.13657154 0.37452957 0.071221426 -0.024329355 -0.25332326
0.14141706 0.11945356 -0.02885616 -0.043917388 0.047273267 -0.06647963 -0.109453365 -0.30189908
00000000: 26d3 4bbd 86c4 5c3e b25e 7abe ebc7 d0bb
00000010: 49cf 7abe 58ae f3be 583c fe3d 6b03 a43c
00000020: eb9e bcbc 3761 48be 5f84 b43e 3c6a a2bd
00000030: 1900 a6bd f0f5 f5bd 4411 30bd 9423 95bd
00000040: 8bec 01bf 3a74 c33d 69d2 66bc 14d6 13be
00000050: fd8e 2b3d ed2a 97bc 507c 29bd 8128 683e
00000060: bca2 093f 77de e7bc efb0 a63d 904d 1b3e
00000070: 1d38 ce3d 2207 86bd 0132 00be eb93 25bd
00000080: b8b3 543f 70bb e73d 70c2 193f 2a0b ccbe
00000090: cc32 37be 04c9 d83d 7747 85be 094f f13d
000000a0: 25c4 c23e 51f7 cdba 82cf 75bc 24af 683d
000000b0: 65ca 9dbd 2043 5cbd c022 c3bc b5f6 62bc
000000c0: 9534 a03e fc35 cb3c 33ba c73e 69d9 0b3e
000000d0: 57c2 bf3e 8adc 913d 5b4e c7bc 96b3 81be
000000e0: a2cf 103e 11a4 f43d c163 ecbc b8e2 33bd
000000f0: 9da1 413d 7926 88bd 1629 e0bd 8492 9abe

fc_advantage.2.weight f4 [32, 64]
-0.097718194 -0.16753109 0.06391962 -0.058041193 -0.059387214 -0.100835264 -0.18506557 0.18709004
-0.04275021 -0.10788761 0.050698567 -0.004926858 0.010780392 -0.08431541 -0.04004463 -0.05730941
-0.06559044 0.040385175 0.050804995 0.16280773 -0.15128845 -0.06421605 -0.094879426 -0.22802645
0.108210996 -0.08532519 -0.19160888 0.3292179 0.0047024246 0.031112878 0.11466445 0.083881035
0.11095152 -0.028103622 0.01848447 -0.212346 0.07290593 -0.09561925 -0.11655157 -0.19915837
0.0026091472 0.034884997 0.06123647 -0.5165214 0.090796 0.06565753 0.06226558 -0.061426654
0.13600157 -0.03004057 -0.053757306 -0.03080544 0.06083695 -0.3155292 0.08674164 -0.07888496
-0.42579845 -0.1536518 -0.02040334 0.111749955 0.030630868 -0.04558665 -0.28779447 -0.35204172
-0.0413432 -0.42362508 0.15024316 0.024558315 -0.046780426 -0.06276973 -0.24658956 0.022279954
0.018996743 -0.2681286 -0.13038227 0.019365419 0.005655689 0.03536515 -0.08413955 -0.03377326
-0.09889374 0.35222968 0.06420469 -0.05677674 -0.024079591 -0.23269086 -0.07992155 -0.18686253
0.2413539 0.0548398 -0.17880715 0.5965438 0.06277675 0.102137 -0.07509952 -0.28604788
0.036029708 0.12081842 0.038208917 -0.0518983 0.02727366 -0.12040506 -0.2751413 0.18999787
-0.56841063 -0.0087643415 -0.10405466 -0.1582381 0.26204994 -0.015507824 -0.58245486 -0.123680055
-0.06584646 -0.1967155 0.092606016 -0.108535476 0.15477641 -0.5968155 -0.0008653892 0.1540978
-0.3273648 -0.04370807 -0.27192074 0.017968636 0.12060186 -0.04666604 -0.40369773 0.18642801
-0.07365267 -0.1913087 0.084695965 0.024463842 0.17327435 0.03996425 -0.24436985 0.06397362
0.07586452 0.03574535 -0.09201061 0.089946195 0.07325392 -0.0621284 -0.0021312244 0.06240432
0.18763103 0.05376897 -0.013976222 0.15340371 -0.01685601 0.25920036 0.055598825 -0.16893108
-0.089667045 -0.11045114 0.347594 -0.16744684 0.060109098 0.1548051 0.06794555 0.1864424
-0.15923473 0.1701562 -0.15549703 0.022837698 0.030058019 0.33014584 0.12937875 0.10820805
0.06502314 0.053518753 0.20499691 -0.141369 0.08719497 0.0029605555 -0.32266808 0.030900816
-0.0995554 0.23767732 -0.15043049 -0.2216682 0.006411907 -0.2583078 -0.07462621 0.25685725
0.022867547 0.18575166 -0.30984306 0.03510925 0.10345067 0.08533641 -0.016062098 0.015847592
-0.027778042 0.086752184 -0.29392564 -0.02495639 -0.117688686 -0.4792845 -0.02596102 -0.66748554
0.09971488 0.12674835 -0.12083591 0.2648448 -0.10058029 -0.14796145 -0.1540814 0.032992955
0.063050926 -0.17355731 -0.12991613 -0.03193439 -0.04474397 0.07360897 -0.06197886 0.3172183
-0.10315218 -0.031815156 0.019705806 0.011053752 -0.11127901 0.045102425 -0.18898974 0.26100692
-0.0049364897 -0.24374516 0.049043164 -0.41989806 -0.25993007 0.08469726 0.047011025 -0.41231474
0.1787373 0.056889407 0.14694141 0.244257 -0.38347694 -0.051956613 -0.07970804 0.091336615
-0.19130419 0.13566808 -0.05799343 0.2951004 -0.040440734 0.29730958 0.04869247 -0.20267504
0.24085823 0.17328595 0.065551214 0.09566286 -0.17131773 -0.088675566 0.07914373 -0.06737926
00000000: 7a20 c8bd 458d 2bbe 4ae8 823d 9abc 6dbd
00000010: 0240 73bd b882 cebd d481 3dbe 8894 3f3e
00000020: d81a 2fbd 2ef4 dcbd 4da9 4f3d 7b71 a1bb
00000030: 3ea0 303c 8fad acbd d705 24bd 46bd 6abd
00000040: 4854 86bd ed6a 253d e618 503d 12b7 263e
00000050: 5ceb 1abe b483 83bd 2550 c2bd c47f 69be
00000060: ba9d dd3d f9be aebd 1e35 44be 408f a83e
00000070: cc16 9a3b 6fe0 fe3c 32d5 ea3d d2c9 ab3d
00000080: 8d3a e33d 9139 e6bc be6c 973c 3b71 59be
00000090: b44f 953d 06d4 c3bd 97b2 eebd 2cf0 4bbe
000000a0: 3afe 2a3b 92e3 0e3d 18d3 7a3d bf3a 04bf
000000b0: 41f3 b93d 7577 863d 310a 7f3d 849a 7bbd
000000c0: ff43 0b3e a417 f6bc 9f30 5cbd b15b fcbc
000000d0: 2a30 793d 0b8d a1be 9aa5 b13d 708e a1bd
000000e0: 4102 dabe e656 1dbe e824 a7bc 29dd e43d
000000f0: 96ed fa3c 11b9 3abd cc59 93be d03e b4be
00000100: 7d57 29bd 63e5 d8be 58d9 193e 852e c93c
00000110: d59c 3fbd 6b8d 80bd f981 7cbe 7384 b63c
00000120: 0f9f 9b3c 2748 89be ee82 05be 3aa4 9e3c
00000130: 5c53 b93b 0cdb 103d 5b51 acbd d455 0abd
00000140: cd88 cabd 7357 b43e c07d 833d ba8e 68bd
00000150: 9042 c5bc 8346 6ebe e9ad a3bd e458 3fbe
00000160: 7a25 773e b39f 603d 3919 37be 18b7 183f
00000170: 1991 803d 342d d13d c7cd 99bd de74 92be
00000180: e393 133d a66f f73d f480 1c3d 5093 54bd
00000190: 036d df3c ee96 f6bd 52df 8cbe cd8e 423e
000001a0: 5c83 11bf 5098 0fbc 9c1a d5bd 2b09 22be
000001b0: 692b 863e 8714 7ebc c31b 15bf f84b fdbd
000001c0: 82da 86bd ca6f 49be 39a8 bd3d d947 debd
000001d0: b57d 1e3e e7c8 18bf 49db 62ba d0cb 1d3e
000001e0: 5c9c a7be 3c07 33bd 3239 8bbe f632 933c
000001f0: 1cfe f63d e424 3fbd 78b1 cebe fce6 3e3e
00000200: 36d7 96bd 6ee6 43be 1475 ad3d 6568 c83c
00000210: d56e 313e 8eb1 233d 173c 7abe 9a04 833d
00000220: dc5e 9b3d b769 123d 0f70 bcbd b635 b83d
00000230: 2706 963d 597a 7ebd 03ac 0bbb ac9b 7f3d
00000240: 5922 403e da3c 5c3d 86fc 64bc dd15 1d3e
00000250: 9d15 8abc e9b5 843e 98bb 633d 45fc 2cbe
00000260: 5ba3 b7bd 3534 e2bd d7f7 b13e 2f77 2bbe
00000270: f534 763d 3a85 1e3e 0927 8b3d c2ea 3e3e
00000280: 6e0e 23be 6d3d 2e3e 9d3a 1fbe 2016 bb3c
00000290: 3c3c f63c e008 a93e dd7b 043e 2f9c dd3d
000002a0: da2a 853d 7b36 5b3d b6ea 513e 09c3 10be
000002b0: 4793 b23d e105 423b c034 a5be b523 fd3c
000002c0: b4e3 cbbd af61 733e 730a 1abe fdfc 62be
000002d0: f91a d23b ec40 84be a0d5 98bd cb82 833e
000002e0: b954 bb3c af35 3e3e c0a3 9ebe b8ce 0f3d
000002f0: f2dd d33d dbc4 ae3d a994 83bc cfd2 813c
00000300: c78e e3bc 21ab b13d 6c7d 96be 5871 ccbc
00000310: c406 f1bd c764 f5be 34ac d4bc 55e0 2abf
00000320: 5137 cc3d 52ca 013e d178 f7bd bd99 873e
00000330: 0afd cdbd 3583 17be 84c7 1dbe 9f23 073d
00000340: d820 813d 02b9 31be bc08 05be a3cd 02bd
00000350: 7445 37bd 4dc0 963d 8cdd 7dbd 706a a23e
00000360: 7341 d3bd 9c50 02bd 126e a13c cc1a 353c
00000370: 40e6 e3bd 52bd 383d 8786 41be b3a2 853e
00000380: 47c2 a1bb 5598 79be 7ce1 483d e1fc d6be
00000390: 8e15 85be c275 ad3d a28e 403d eb1a d3be
000003a0: e906 373e de04 693d cf77 163e 821e 7a3e
000003b0: 1757 c4be 75d0 54bd f83d a3bd b10e bb3d
000003c0: 3fe5 43be 93ec 0a3e 858a 6dbd 6617 973e
000003d0: 2fa5 25bd f638 983e c171 473d 0c8a 4fbe
000003e0: 8aa3 763e df71 313e b73f 863d e4ea c33d
000003f0: ea6d 2fbe 899b b5bd 1c16 a23d 23fe 89bd

fc_advantage.2.bias f4 [32]
0.08052207 0.24915701 -0.15473421 -0.039140277 -0.19303076 0.21763498 -0.050451666 0.23451535
0.008467054 -0.05824163 0.34327674 -0.23055987 -0.67377716 0.018360544 0.05324547 -0.18857497
-0.061037578 0.03642951 0.014598004 0.18051592 -0.10950679 -0.029135047 0.11606937 0.05416659
0.14858963 -0.09189876 0.34742874 -0.4261347 0.5624383 0.123582155 -0.5634211 0.42097893
00000000: c1e8 a43d 0423 7f3e a572 1ebe 8e51 20bd
00000010: dba9 45be b4db 5e3e 68a6 4ebd cb24 703e
00000020: 66b9 0a3c c78e 6ebd f8c1 af3e e317 6cbe
00000030: a97c 2cbf da68 963c ec17 5a3d cc19 41be
00000040: 8a02 7abd 1c37 153d 772c 6f3c 2ad9 383e
00000050: 1945 e0bd 9fac eebc c7b5 ed3d c9dd 5d3d
00000060: e127 183e 6b35 bcbd 2ee2 b13e 542e dabe
00000070: f5fb 0f3f a418 fd3d 5d3c 10bf 8d8a d73e

fc_advantage.4.weight f4 [6, 32]
0.27899742 -0.10180219 0.04080704 0.019141551 0.038600467 0.1001554 -0.06944415 0.24310862
0.015414493 0.28881085 -0.18995428 0.07413288 0.0891206 0.025979122 -0.05248775 -0.042427644
-0.0060358937 -0.09652577 0.078677475 -0.4258904 -0.10399624 0.20843996 0.11957675 -0.4605897
0.08049759 0.31673798 -0.10125248 0.22290811 0.17247652 -0.022589404 0.07416898 -0.17711993
-0.05712308 0.041457023 -0.008087887 0.010668835 -0.11531331 0.11537442 -0.09697067 -0.25068322
0.2376522 0.027944706 -0.0033777107 0.03072735 0.18592575 0.43458286 -0.25592652 0.031119587
0.042348478 -0.06294524 0.14377448 -0.062470254 -0.07033267 -0.007389653 -0.10414378 0.056436013
-1.0429357 0.30771297 -0.22945136 0.1396762 0.16140932 0.3005552 0.069949485 -0.022920333
0.09855341 -0.31178793 0.095703505 -0.44182155 -0.29417259 -0.57905626 -0.036149103 -0.08221971
-0.3348278 0.024572179 0.18867365 -0.076852135 0.15513645 -0.44374898 -0.012028345 -0.005602109
0.050960165 0.469529 0.06744831 0.051148452 0.19387488 0.008990959 -0.050651867 0.091797605
0.41863742 0.029457211 -0.2361733 0.2302785 0.13982244 -0.34706444 0.076212846 -0.036598295
0.095796295 -0.08102757 -0.23374784 -0.12712766 0.33495647 0.1717415 0.46852922 0.045850843
0.0043165335 -0.020264016 -0.17892006 -0.29919693 -0.15700437 0.037923418 0.20480736 -0.0034655726
0.1098257 -0.4734924 -0.34491116 0.15429664 0.38123062 0.34269297 -0.13309982 0.12213474
0.029175093 -0.37784097 -0.62593013 0.5038364 0.26084304 0.12714064 0.42915285 0.25726405
0.4004811 0.30094382 -0.20055574 -0.15618184 0.13584293 0.098270565 -0.20835325 0.10780868
-0.049504586 0.15754521 -0.2466145 0.58861595 -0.3790727 0.08556614 0.013507397 -0.05790934
0.07550691 -0.27508497 0.18589935 0.3021103 -0.1557126 -0.42289987 -0.2904708 -0.04573288
0.17888525 -0.3040506 0.41233885 -0.64321214 -0.012050538 0.087844245 -0.5741269 -0.06432323
0.03568276 0.12549222 0.21119678 0.05809275 0.109191105 0.083979465 -0.23684193 -0.0367952
-0.0378373 0.2674647 -0.20418161 -0.18066621 0.14094482 -0.02927604 0.1101922 0.09049532
0.0037204304 -0.19671637 0.06536222 0.20582557 0.02713558 0.2824295 0.034031246 0.1559757
-0.017288992 0.07145262 0.071881965 0.028685877 -0.31098747 -0.024865584 0.20781201 -0.4073608
00000000: c0d8 8e3e ab7d d0bd 4825 273d bece 9c3c
00000010: 861b 1e3d 461e cd3d bc38 8ebd 77f1 783e
00000020: 128d 7c3c 04df 933e 6083 42be fbd2 973d
00000030: dc84 b63d 2bd2 d43c 65fd 56bd 9cc8 2dbd
00000040: bfc8 c5bb 4eaf c5bd a821 a13d 4e0e dabe
00000050: fbfb d4bd 4971 553e a8e4 f43d 6ad2 ebbe
00000060: ecdb a43d 7b2b a23e 765d cfbd 0642 643e
00000070: af9d 303e 6a0d b9bc e8e5 973d ed5e 35be
00000080: e4f9 69bd d7ce 293d 0f83 04bc 56cc 2e3c
00000090: 6229 ecbd 6d49 ec3d 8f98 c6bd 8d59 80be
000000a0: 195b 733e 4cec e43c 955c 5dbb ecb7 fb3c
000000b0: 5263 3e3e a581 de3e cd08 83be 81ee fe3c
000000c0: 9975 2d3d 6fe9 80bd 9e39 133e cfe0 7fbd
000000d0: 930a 90bd e724 f2bb 5649 d5bd 7329 673d
000000e0: eb7e 85bf 8e8c 9d3e 4cf5 6abe 4707 0f3e
000000f0: 7c48 253e 5fe2 993e ad41 8f3d 6cc3 bbbc
00000100: 5fd6 c93d aba2 9fbe 3300 c43d 6f36 e2be
00000110: ca9d 96be 083d 14bf 1511 14bd cf62 a8bd
00000120: 8d6e abbe 984b c93c aa33 413e a764 9dbd
00000130: 17dc 1e3e 1133 e3be 8912 45bc e591 b7bb
00000140: 9bbb 503d 1b66 f03e 5722 8a3d 0a81 513d
00000150: 2387 463e d14e 133c 5578 4fbd 6200 bc3d
00000160: a557 d63e 4050 f13c 6ad7 71be 21ce 6b3e
00000170: 9d2d 0f3e 6eb2 b1be 7b15 9c3d 18e8 15bd
00000180: d930 c43d c8f1 a5bd 985b 6fbe c12d 02be
00000190: 6a7f ab3e 01dd 2f3e 10e3 ef3e 18ce 3b3d
000001a0: b571 8d3b b900 a6bc d236 37be 5730 99be
000001b0: c1c5 20be 9655 1b3d 05b9 513e a91e 63bb
000001c0: 4cec e03d 996d f2be 3298 b0be f0ff 1d3e
000001d0: a930 c33e 7475 af3e 524b 08be c721 fa3d
000001e0: 9b00 ef3c 5f74 c1be f53c 20bf 6cfb 003f
000001f0: 388d 853e 2831 023e ecb9 db3e 1db8 833e
00000200: dc0b cd3e 4f15 9a3e 7c5e 4dbe 22ee 1fbe
00000210: 691a 0b3e 1442 c93d 8e5a 55be ccca dc3d
00000220: 52c5 4abd 8853 213e 8388 7cbe 89af 163f
00000230: d115 c2be 4d3d af3d 214e 5d3c 5832 6dbd
00000240: 5ea3 9a3d f0d7 8cbe 665c 3e3e 34ae 9a3e
00000250: 2073 1fbe 5586 d8be 97b8 94be 6652 3bbd
00000260: b22d 373e 85ac 9bbe 141e d33e 8da9 24bf
00000270: 9f6f 45bc afe7 b33d fbf9 12bf e6bb 83bd
00000280: 1628 123d 0881 003e f843 583e aaf2 6d3d
00000290: 969f df3d 6dfd ab3d b186 72be 90b6 16bd
000002a0: 49fb 1abd 22f1 883e fc14 51be 9000 39be
000002b0: d753 103e 4ed4 efbc 73ac e13d 9c55 b93d
000002c0: 77d2 733b 0470 49be a1dc 853d f0c3 523e
000002d0: 704b de3c 999a 903e 5964 0b3d 18b8 1f3e
000002e0: a5a1 8dbc c055 923d da36 933d a5fe ea3c
000002f0: c039 9fbe e9b2 cbbc accc 543e 9891 d0be

fc_advantage.4.bias f4 [6]
0.16060895 -0.12841092 -0.04723427 0.08376129 -0.16524747 -0.16259742
00000000: ac76 243e 277e 03be b978 41bd 0a8b ab3d
00000010: a236 29be f07f 26be
