data/Torch/Dueling/003_Big-CNN_E_L/checkpoints/weights_28000episodes.pth (torch, 505343 bytes, 17 tensors)

conv_layers.0.weight f4 [64, 1, 3, 3]
1.6379101 0.35608548 -0.29740924 0.7205402 0.20762365 0.84566617 -0.58506 0.10815576
1.6739185 -1.1563723 0.47001117 0.24114226 0.4385181 -0.115217835 0.22196364 0.18465984
0.56666595 -0.21780394 -0.3187211 0.73573524 0.8238862 -0.22684778 -0.54968566 1.3039168
-1.3574365 -1.4556576 0.51934564 -0.57612264 0.30210987 -1.163117 0.8201559 -0.465555
1.0705912 1.1806004 0.3649566 1.5888591 -0.27338544 0.88457346 -0.23539235 -0.31673363
0.4029699 -0.6359545 0.87123656 0.73722225 1.4029126 -0.032542508 1.4897362 0.84111744
0.8146244 -0.025690794 -0.98349446 0.05914798 -0.62426746 1.7818034 0.98721004 0.19365254
-0.17632517 0.3683028 0.59443915 -1.2257777 0.27525678 -0.8513689 0.82641953 -0.34360054
0.4122031 -0.20789798 0.7431594 -0.040399726 -0.35299814 -0.27813163 0.8838388 0.63810515
2.2410312 -0.034410838 -0.3474904 -0.21445964 -0.23254511 0.36584494 0.62026024 0.7391506
-0.09732912 -0.39470944 0.69135773 0.08992093 0.543372 0.16618066 0.4833636 -0.53523844
-0.4146035 1.0090827 0.78982157 -0.39205676 1.2291659 1.1760937 -0.52037424 -0.020230005
1.746661 0.8982746 -0.8976577 -2.4367344 1.2009197 1.1910284 0.33482054 -1.5757912
-0.18510541 -1.8616999 0.6164644 0.7374004 -2.320544 -0.7461174 1.9317572 0.21878803
-0.27302757 -1.2599733 0.4697425 0.5556615 0.47349426 -0.23802806 -0.9967871 -1.4640986
0.63050514 0.34839487 0.8846482 -0.36934695 -0.83850336 -1.9313635 -0.60385275 -0.49283665
0.59746313 -0.0075502796 0.40444747 0.423708 -0.9750265 0.8086278 0.11378087 -1.6402658
-0.13520145 -0.10020406 0.3722758 0.07480868 0.9441943 -0.2617981 1.0461458 -0.26927507
-0.5047537 0.8697941 1.3209221 1.5905089 0.85712177 -1.251564 1.1564188 0.86805683
0.22480612 -1.3679763 0.97263914 0.050344847 0.71391124 0.4631931 0.32522708 0.13702154
1.3842566 0.5535178 0.097400874 -0.42607382 1.4594876 -0.010704678 -0.4390389 1.1495314
0.3068306 -1.2904583 -1.4770324 0.35281345 1.3279333 -0.8424598 0.039432626 -0.11054523
-0.12015211 1.0574538 1.1503471 -1.1745876 1.2261335 1.0175949 0.9492149 -1.1404421
0.08370391 0.29013932 1.3224381 0.38221732 -1.1497465 0.78065014 -0.030808266 0.0016216701
1.3542466 1.015357 -0.30126327 -0.37031737 -0.12216975 0.9487544 0.5599346 0.78335446
-0.54098475 -0.29643428 0.4638369 0.51801485 0.06915443 -0.38629067 -0.5571576 -0.8814639
0.38161424 -0.12804589 0.57990396 0.46379483 -1.1885245 0.39612398 0.5581116 1.2100769
0.63657475 0.20817122 1.3711314 -0.4236836 -0.33506447 0.88985413 -0.041735712 -0.505934
-1.6533741 1.363493 0.5501502 0.8018225 -0.9296752 -0.56298375 -0.77501744 0.7144876
-0.029370524 1.1604384 0.992236 0.34469688 -0.79181314 -0.6369306 -0.57053226 -0.52575576
0.5009246 -0.65916556 -0.058637712 -0.06219226 -0.05150221 -2.3133423 0.040904798 0.8873356
-0.6974113 2.0549166 0.5492286 -0.6576099 -0.18088594 0.093780935 -0.36763665 -0.81317854
00000000: 0aa7 d13f d650 b63e 0646 98be 5375 383f
00000010: 4b9b 543e 947d 583f 7ec6 15bf c480 dd3d
00000020: f642 d63f 0204 94bf 4ea5 f03e ffed 763e
00000030: 7285 e03e 54f7 ebbd 704a 633e 7817 3d3e
00000040: 0511 113f ff07 5fbe 692f a3be 2559 3c3f
00000050: 35ea 523f c94a 68be 33b8 0cbf bfe6 a63f
00000060: 7bc0 adbf fd52 babf d6f3 043f c67c 13bf
00000070: 25ae 9a3e 05e1 94bf bdf5 513f 3a5d eebe
00000080: 2209 893f ea1d 973f 97db ba3e bc5f cb3f
00000090: 2df9 8bbe 6873 623f b10a 71be e92a a2be
000000a0: 1252 ce3e eacd 22bf 5c09 5f3f 99ba 3c3f
000000b0: a492 b33f 4b4b 05bd adaf be3f 7953 573f
000000c0: 3a8b 503f 8075 d2bc 4bc6 7bbf 2745 723d
000000d0: fecf 1fbf 2212 e43f ccb9 7c3f da4c 463e
000000e0: 968e 34be 2f92 bc3e 2a2d 183f 49e6 9cbf
000000f0: 75ee 8c3e 50f3 59bf 3b90 533f 69ec afbe
00000100: 490c d33e 35e3 54be b23f 3e3f 2f7a 25bd
00000110: 2cbc b4be 4567 8ebe 4243 623f dc5a 233f
00000120: 0e6d 0f40 61f2 0cbd 43ea b1be 4f9b 5bbe
00000130: 4e20 6ebe 0750 bb3e 60c9 1e3f f938 3d3f
00000140: 7d54 c7bd 5b17 cabe d2fc 303f 7728 b83d
00000150: 6d1a 0b3f 432b 2a3e 6f7b f73e 6305 09bf
00000160: e946 d4be 9f29 813f bf31 4a3f aabb c8be
00000170: 4f55 9d3f 3d8a 963f 3f37 05bf 65b9 a5bc
00000180: 9692 df3f 53f5 653f e5cc 65bf 75f3 1bc0
00000190: bdb7 993f 9e73 983f 996d ab3e 87b3 c9bf
000001a0: 468c 3dbe 2f4c eebf 9cd0 1d3f 46c6 3c3f
000001b0: cb83 14c0 8d01 3fbf d243 f73f f809 603e
000001c0: 45ca 8bbe ce46 a1bf 1782 f03e d53f 0e3f
000001d0: d76d f23e a1bd 73be 702d 7fbf 9567 bbbf
000001e0: c968 213f d060 b23e 4e78 623f 0b1b bdbe
000001f0: 28a8 56bf eb36 f7bf 1896 1abf 1655 fcbe
00000200: 58f3 183f 5668 f7bb bd13 cf3e 41f0 d83e
00000210: 569b 79bf 3b02 4f3f f205 e93d 3bf4 d1bf
00000220: 4072 0abe c937 cdbd ef9a be3e 4b35 993d
00000230: b8b6 713f 670a 86be 1be8 853f 6cde 89be
00000240: 8a37 01bf d3aa 5e3f fa13 a93f cc95 cb3f
00000250: 556c 5b3f 4033 a0bf 8805 943f f938 5e3f
00000260: 9333 663e d919 afbf e1fe 783f 6636 4e3d
00000270: e3c2 363f a527 ed3e 2a84 a63e 604f 0c3e
00000280: 522f b13f 58b3 0d3f 1c7a c73d 5926 dabe
00000290: 7dd0 ba3f ac62 2fbc b5c9 e0be d823 933f
000002a0: e718 9d3e bd2d a5bf 660f bdbf f7a3 b43e
000002b0: b8f9 a93f 72ab 57bf 1b84 213d 8a65 e2bd
000002c0: 4f12 f6bd a55a 873f 933e 933f e358 96bf
000002d0: f1f1 9c3f 8d40 823f bfff 723f 02fa 91bf
000002e0: f56c ab3d 248d 943e a745 a93f fdb1 c33e
000002f0: e52a 93bf b0d8 473f 9e61 fcbc 388e d43a
00000300: f457 ad3f 38f7 813f 2e3f 9abe 3d9a bdbe
00000310: 2234 fabd 91e1 723f e057 0f3f eb89 483f
00000320: fa7d 0abf 3cc6 97be 087c ed3e 9f9c 043f
00000330: d6a0 8d3d e4c7 c5be e1a1 0ebf 9ea7 61bf
00000340: f162 c33e 761e 03be 9674 143f 8476 ed3e
00000350: 9221 98bf c3d0 ca3e 67e0 0e3f cde3 9a3f
00000360: 90f6 223f d62a 553e 3c81 af3f 0fed d8be
00000370: 928d abbe 7bcd 633f 11f3 2abd e484 01bf
00000380: c3a1 d3bf f086 ae3f a5d6 0c3f 3d44 4d3f
00000390: 32ff 6dbf b41f 10bf 8b67 46bf a9e8 363f
000003a0: 749a f0bc 3f89 943f 2e03 7e3f 1c7c b03e
000003b0: 44b4 4abf e20d 23bf 670e 12bf ee97 06bf
000003c0: 983c 003f 13bf 28bf 192e 70bd 50bd 7ebd
000003d0: fbf3 52bd cd0d 14c0 ca8b 273d 6d28 633f
000003e0: 8c89 32bf c183 0340 3f9a 0c3f 1f59 28bf
000003f0: 2a3a 39be 3810 c03d df3a bcbe 782c 50bf

conv_layers.0.bias f4 [64]
-0.021196095 0.926268 0.49813476 0.51153713 0.89020026 0.3206158 0.6635893 1.4588268
0.5090442 1.233969 0.41186225 1.9104558 1.2766155 1.7295792 0.77620393 1.6447413
0.14500193 0.8391864 0.008668763 0.4686539 0.7639798 -1.2893896 1.4663527 0.011941682
0.19342649 0.75174415 0.8464101 1.1180841 0.014895901 0.18642043 -0.2392981 1.3564496
1.0861928 1.3201576 1.2977579 -0.3017934 0.6398965 1.7079126 1.5101595 0.2284285
1.6320504 0.060705192 0.144507 1.5718436 0.0635463 0.49276587 0.09147566 0.35222483
0.5896703 -0.45351052 -0.110070474 0.8005255 -0.26299497 1.5640283 -0.70391506 -0.18575647
0.84524006 0.960735 0.014034627 0.12495378 -0.4410832 -0.19015878 1.1997991 0.6007006
00000000: 6fa3 adbc e61f 6d3f 850b ff3e 19f4 023f
00000010: 2ae4 633f c127 a43e fde0 293f d6ba ba3f
00000020: b850 023f b2f2 9d3f 9cdf d23e d189 f43f
00000030: 2368 a33f da62 dd3f 4db5 463f e286 d23f
00000040: 637b 143e ebd4 563f 6d07 0e3c 67f3 ef3e
00000050: 2e94 433f b80a a5bf 72b1 bb3f 0ba7 433c
00000060: 9811 463e 4e72 403f 55ae 583f 611d 8f3f
00000070: f00d 743c ffe4 3e3e 900a 75be 24a0 ad3f
00000080: 5e08 8b3f edfa a83f ee1c a63f aa84 9abe
00000090: 42d0 233f e19c da3f e84c c13f 29e9 693e
000000a0: 07e7 d03f 02a6 783d a5f9 133e 2c32 c93f
000000b0: 9024 823d cf4b fc3e 9757 bb3d d056 b43e
000000c0: a2f4 163f 8832 e8be a16c e1bd 3def 4c3f
000000d0: 47a7 86be 1432 c83f c733 34bf f236 3ebe
000000e0: a761 583f bbf2 753f 7ef1 653c c4e7 ff3d
000000f0: a8d5 e1be fcb8 42be 0493 993f 84c7 193f

conv_layers.2.weight f4 [64, 64, 2, 2]
0.41024756 -0.41688788 0.31793132 0.42485833 -0.22421151 0.23803887 0.109824285 0.1654961
-1.3287548 0.8872141 0.22557831 -1.5381185 0.044517998 0.45811534 0.17835195 0.50292605
0.053370778 -0.009025807 0.0067921504 0.8595995 0.24821049 -0.7641365 -0.1700792 0.8523158
0.88206536 -0.4088837 0.13582003 0.14614958 0.15078872 0.0040450282 0.24567443 0.46166244
0.7138666 0.49817675 0.12229982 -0.41232046 -0.23828386 0.030365985 0.015055362 0.21200325
0.56520426 -0.25863913 -0.07149882 -0.0009197254 -0.3397814 0.8811926 -0.15279043 -0.896733
-0.64725775 -1.1413707 0.6087588 0.74748176 1.262051 -0.48116297 -0.3679877 0.67229956
-0.51618415 -0.37472448 0.73336214 0.27830896 -0.1819401 -0.041125268 0.22210774 -0.28699917
0.17049408 -0.4616444 -0.03203419 0.35075024 -0.22165065 0.23881683 0.021273945 0.31254503
0.3563506 -0.70003897 -1.2329278 0.5197262 0.09327769 0.76472586 -0.011725159 -0.26395276
0.4908267 0.27222052 -0.57258105 -0.52014154 0.3581948 -0.59421986 0.18855256 0.29416928
-0.4107092 0.7423024 0.1013538 -0.94730496 -0.19912918 -0.16816188 0.16747004 0.95000184
0.512038 -0.8048382 -1.3839264 0.11893786 1.0469573 -0.21952625 0.09066913 0.822687
0.29592067 0.95466596 0.80255455 -0.6591966 -0.756075 1.1335186 0.2635218 -0.07803722
-0.14734843 -0.10420204 0.15585467 1.4820923 -0.327409 0.7515671 -0.40428612 -0.04167572
0.39770994 -0.7909411 0.40974382 0.21649086 -0.91565627 -0.2274264 0.025835501 1.276863
1.2007086 -0.04448717 -0.21215037 -0.6635801 0.521758 -1.2901585 0.27195773 1.0751065
-0.18530859 -0.68598527 0.2584237 0.9312294 -0.05439463 -0.32982805 0.40591374 -0.40782017
-0.25218654 -0.4625682 0.10394663 0.46508017 -1.1702435 0.0688615 0.36615872 0.050883476
-0.6543268 -0.40591842 0.34671843 0.99172324 0.17695245 0.06509151 -0.15672396 -1.0288217
-0.6084727 0.6533761 0.779436 -0.42823142 0.31770718 0.673445 -0.32683545 -1.2402198
1.0508621 -0.29637975 -0.08884872 -0.30468258 0.15172072 0.11824038 -0.54789627 0.040224686
-0.24182294 -0.48548165 0.042103242 0.06634757 -0.40085956 -0.51166326 0.8350222 0.33818018
0.5804355 0.25870252 0.5171791 -0.32640085 1.4405816 -0.3904921 -0.2721303 -0.64356285
-0.015148865 0.8183946 -0.11474882 -0.13326576 0.48446617 -0.23036599 0.018378476 0.0012901839
0.1719239 0.09667788 0.14991415 0.1415941 0.409108 -0.20768465 -1.6927677 0.23075344
-0.20842315 -0.3116738 0.48187038 -0.6700044 -0.43342856 -1.3937145 0.35580817 0.8905005
0.5062709 -0.39084384 0.028921187 0.09149567 -0.46524236 0.6660309 0.95414066 -0.77031285
0.6200289 0.03553183 0.13811 0.10776355 -0.020148488 0.39358816 0.29438058 0.2808007
0.24462365 -0.5966881 -0.45216343 -0.7793086 0.42945006 -0.96060044 -0.056586135 0.7283977
-0.10286327 0.32795876 0.09989783 0.59874153 -0.80558175 0.534561 0.6439385 0.6246921
1.0523027 -0.6007973 -0.5661315 -0.55368215 -0.59277254 0.75795233 1.1533991 -0.09882242
00000000: f80b d23e 5472 d5be e5c7 a23e 0887 d93e
00000010: b497 65be 76c0 733e 8eeb e03d cf77 293e
00000020: a314 aabf 7720 633f 00fe 663e 11e1 c4bf
00000030: 8158 363d 188e ea3e e5a1 363e c3bf 003f
00000040: 519b 5a3d fae0 13bc b090 de3b b60e 5c3f
00000050: e42a 7e3e 739e 43bf 3e29 2ebe 5e31 5a3f
00000060: 09cf 613f 3459 d1be 6814 0b3e 3ca8 153e
00000070: 5c68 1a3e 288c 843b 1492 7b3e 055f ec3e
00000080: f6bf 363f 0611 ff3e 5478 fa3d ab1b d3be
00000090: af00 74be 16c2 f83c c4aa 763c 6117 593e
000000a0: 3ab1 103f 596c 84be f96d 92bd ba19 71ba
000000b0: d4f7 adbe d795 613f 1875 1cbe 4b90 65bf
000000c0: afb2 25bf 6f18 92bf 9ed7 1b3f f75a 3f3f
000000d0: e38a a13f fe5a f6be e268 bcbe d31b 2c3f
000000e0: a524 04bf e3db bfbe 9fbd 3b3f 837e 8e3e
000000f0: 814e 3abe f872 28bd 3670 633e 8ef1 92be
00000100: 0096 2e3e a85c ecbe 4836 03bd 8995 b33e
00000110: 63f8 62be 668c 743e b246 ae3c e705 a03e
00000120: 9673 b63e c135 33bf 94d0 9dbf c70c 053f
00000130: 6008 bf3d 13c5 433f e21a 40bc d124 87be
00000140: a34d fb3e 7d60 8b3e ac94 12bf ff27 05bf
00000150: 4f65 b73e cb1e 18bf ec13 413e 5b9d 963e
00000160: 7a48 d2be 8807 3e3f 9592 cf3d 9482 72bf
00000170: 85e8 4bbe a132 2cbe 447d 2b3e 5233 733f
00000180: ec14 033f e009 4ebf 8024 b1bf b195 f33d
00000190: b202 863f 7dcb 60be bdb0 b93d 9d9b 523f
000001a0: ea82 973e fd64 743f 3774 4d3f 1cc1 28bf
000001b0: 228e 41bf 2317 913f 54ec 863e fad1 9fbd
000001c0: 82e2 16be e167 d5bd 5e98 1f3e 33b5 bd3f
000001d0: 27a2 a7be b466 403f 97fe cebe 29b4 2abd
000001e0: a3a0 cb3e 1e7b 4abf f1c9 d13e c8af 5d3e
000001f0: 7368 6abf 77e2 68be f9a4 d33c 3f70 a33f
00000200: d2b0 993f 2e38 36bd f23d 59be 63e0 29bf
00000210: ef91 053f ea23 a5bf 0b3e 8b3e 179d 893f
00000220: 89c1 3dbe bb9c 2fbf 1c50 843e 0d65 6e3f
00000230: e7cc 5ebd 39df a8be edd3 cf3e cecd d0be
00000240: 981e 81be bdd5 ecbe f9e1 d43d fd1e ee3e
00000250: 8aca 95bf 4207 8d3d 2879 bb3e 316b 503d
00000260: f681 27bf 8ad4 cfbe 1485 b13e 93e1 7d3f
00000270: 0633 353e b34e 853d 3f7c 20be 6eb0 83bf
00000280: dec4 1bbf a843 273f 1e89 473f 2641 dbbe
00000290: 84aa a23e e466 2c3f fa56 a7be 86bf 9ebf
000002a0: a682 863f 16bf 97be 51f6 b5bd 5bff 9bbe
000002b0: ad5c 1b3e 0328 f23d ee42 0cbf a4c2 243d
000002c0: 6fa0 77be 0d91 f8be 7374 2c3d 3ce1 873d
000002d0: 773d cdbe 5dfc 02bf 04c4 553f f425 ad3e
000002e0: 6c97 143f a874 843e d965 043f 031e a7be
000002f0: fa64 b83f 95ee c7be aa54 8bbe 89c0 24bf
00000300: f232 78bc 4f82 513f 6e01 ebbd d276 08be
00000310: f30b f83e 10e5 6bbe 758e 963c 631b a93a
00000320: d20c 303e 0dff c53d 1883 193e 0bfe 103e
00000330: 9b76 d13e 49ab 54be 9dac d8bf a14a 6c3e
00000340: e16c 55be b593 9fbe b7b7 f63e 6985 2bbf
00000350: 59ea ddbe 3d65 b2bf 7d2c b63e d7f7 633f
00000360: f89a 013f af1c c8be 20ec ec3c 1562 bb3d
00000370: 3f34 eebe 0081 2a3f 9042 743f 3933 45bf
00000380: 37ba 1e3f d389 113d b56c 0d3e 23b3 dc3d
00000390: 710e a5bc 6384 c93e 0db9 963e 1cc5 8f3e
000003a0: 9f7e 7a3e 8dc0 18bf f781 e7be c580 47bf
000003b0: e1e0 db3e e9e9 75bf ddc6 67bd 4678 3a3f
000003c0: faa9 d2bd 36ea a73e 3c97 cc3d 2047 193f
000003d0: 9b3a 4ebf fdd8 083f 27d9 243f d2eb 1f3f
000003e0: dbb1 863f dacd 19bf feed 10bf 1dbe 0dbf
000003f0: f1bf 17bf 2a09 423f 95a2 933f 6963 cabd

conv_layers.2.bias f4 [64]
0.21898632 0.35849684 0.4007886 0.07506434 0.26234442 0.26893085 0.56484246 0.5549571
0.043638375 0.14604744 0.41679654 0.212821 -0.08743365 0.16694176 0.2807314 0.19452281
0.21525306 -0.13848786 0.53646916 -0.18049057 0.2756628 0.51591814 0.28325287 0.8112739
-0.15610358 0.29307014 -0.18027881 0.6581455 0.77320576 0.10668073 0.10314174 -0.1142567
-0.17050293 -0.027701208 0.5603376 0.13899796 0.1415031 0.3751208 0.6005789 0.18268435
0.027408898 0.09417745 0.5111776 1.2023214 0.06271529 0.8783129 0.2787212 0.38115373
0.32027718 0.316568 0.7252628 -0.2957486 0.30942306 0.5717309 0.76832736 0.26978335
-0.06361697 0.26024958 0.4422084 0.8889364 0.93683577 0.5066137 0.66134834 0.5102577
00000000: f33d 603e e68c b73e 2a34 cd3e 55bb 993d
00000010: 0252 863e 4eb1 893e 8499 103f ab11 0e3f
00000020: 27be 323d 768d 153e 5b66 d53e c0ed 593e
00000030: 6a10 b3bd c8f2 2a3e 07bc 8f3e fd30 473e
00000040: 4c6b 5c3e c3cf 0dbe 0b56 093f 85d2 38be
00000050: ad23 8d3e 3613 043f 8506 913e a5af 4f3f
00000060: 9ed9 1fbe 4a0d 963e 029b 38be 397c 283f
00000070: d0f0 453f 6d7b da3d fa3b d33d 6bff e9bd
00000080: 5298 2ebe a5ed e2bc 4972 0f3f 7b55 0e3e
00000090: 30e6 103e d50f c03e 8abf 193f 9b11 3b3e
000000a0: a088 e03c 1be0 c03d 89dc 023f abe5 993f
000000b0: e070 803d 1dd9 603f 8cb4 8e3e 9526 c33e
000000c0: 5ffb a33e 3315 a23e d3aa 393f 5c6c 97be
000000d0: b36c 9e3e f55c 123f 1ab1 443f 0b21 8a3e
000000e0: 9d49 82bd 6f3f 853e 2469 e23e 5691 633f
000000f0: 78d4 6f3f 6fb1 013f 204e 293f 40a0 023f

conv_layers.4.weight f4 [32, 64, 2, 2]
0.2653078 0.09993516 0.4005344 0.45967406 1.0594802 1.1741179 0.92743814 1.0862966
1.0136406 0.31392583 0.66515285 0.094529636 -0.29363698 -0.6554039 0.119789444 -0.68787557
1.032962 0.76686543 0.6535331 0.38225582 0.2327504 -0.026648441 0.7069851 0.19064803
1.6322976 0.9001157 1.8540648 1.305001 -0.04072648 0.6080327 -0.18930933 -0.11198649
0.62291425 1.1694423 -0.26100194 -0.038583793 0.2357235 0.8119091 0.6016737 0.66676205
0.34043047 0.7534518 0.24365522 0.20573795 0.05486642 -0.0054492615 -0.13242573 -0.06015046
0.10930717 0.48545998 0.32366168 0.30435005 0.0481065 -0.1749733 -0.058929026 -0.17137566
-0.10336805 0.0792726 0.88809866 1.348917 -0.6307818 -0.5202554 -0.5500415 0.6166028
0.039093807 -0.105351016 0.43480307 0.33624494 -0.36472473 -0.51558477 0.13156134 -0.354283
0.3412272 -0.020695139 -0.05901222 -0.14640291 -0.73004645 -0.8769234 -0.57655853 -0.593913
0.39663884 0.6781515 0.42452425 0.32892746 1.0048846 0.42189512 -0.43493244 1.216387
0.57095134 -0.01790012 0.54480386 0.1399496 0.07681428 -0.19242328 0.5451899 0.4598184
-0.5191273 -0.5799032 -0.06882767 -0.86695206 1.1094027 0.34598935 0.95087093 0.06528007
0.48755053 0.60382617 0.28703168 0.3204073 1.336815 0.97766876 1.3147037 0.75002265
0.47834435 0.2296109 0.41685805 0.11506274 -0.23525399 -0.60013044 -0.21039076 -0.23319319
0.9818297 1.2126617 0.46224302 0.50087106 -0.5321275 -0.629863 -0.37946734 -0.1876534
0.11170516 0.40545732 0.077975266 -0.06561132 -0.32423067 -0.5082031 -0.40000588 -0.40179873
0.80330163 0.47462985 0.50122297 0.106359705 -0.31055936 -0.43777382 -0.17869309 -0.1357181
0.0659788 0.7554942 0.09073924 -0.31827328 1.5746571 1.1724856 1.1359799 1.2587069
1.0961246 0.53556085 -0.0012344235 0.95392025 0.011995116 -0.20999336 -0.39866903 0.4716672
0.10340131 0.312802 0.08395822 1.17169 -0.32560232 -0.08866452 0.6578822 1.2656169
0.75477636 0.18085013 0.6964072 0.13604711 0.0500056 -0.21745525 0.650904 -0.077148415
-0.05700684 -0.5353854 -0.20090146 -0.47290936 0.37559316 -0.08400212 -0.093524426 -0.23936355
0.73688936 0.3652689 0.9242514 -0.067782484 0.4279833 0.7893257 0.13623273 0.122583464
0.08951966 -0.3224971 0.21542688 -0.30009016 -0.20418517 -0.026873343 0.25484803 0.39242864
-0.12814716 -0.023144828 0.40833065 -0.05028685 -0.20654449 -0.016333876 0.38663936 0.7438534
0.6875508 0.03342414 0.28500992 0.011212996 0.12943846 0.2336438 0.49871096 0.16888821
-0.12000165 -0.008927248 0.44517037 0.4753219 1.0011475 1.3902812 1.14023 1.1651012
-0.47934824 -0.4292916 -0.04928625 -0.19913432 -0.19963202 -0.43096238 -0.36453483 -0.5727724
0.8822089 0.67428815 0.6513234 0.22767437 0.089875616 -0.26820558 0.43921283 -0.22214328
0.1307622 -0.221531 -0.079472944 0.04192076 0.4314647 0.49873248 0.049397063 -0.14450888
0.019947397 -0.17642653 -0.027247963 -0.15517633 1.3696932 0.4113479 1.0310503 0.57571006
00000000: 6dd6 873e ceaa cc3d d812 cd3e 665a eb3e
00000010: 0c9d 873f 7f49 963f 966c 6d3f c40b 8b3f
00000020: fabe 813f e3ba a03e 7547 2a3f c198 c13d
00000030: 9657 96be 8dc8 27bf 2b54 f53d 9d18 30bf
00000040: 1938 843f 4b51 443f f24d 273f 09b7 c33e
00000050: 1f56 6e3e d54d dabc fafc 343f 3d39 433e
00000060: 21ef d03f fc6d 663f ff51 ed3f 460a a73f
00000070: cfd0 26bd 08a8 1b3f 4eda 41be 2c59 e5bd
00000080: 4f77 1f3f 49b0 953f 0ca2 85be 0a0a 1ebd
00000090: 8061 713e 46d9 4f3f 4a07 1a3f ebb0 2a3f
000000a0: e74c ae3e 38e2 403f c180 793e f8ac 523e
000000b0: 9cbb 603d b88f b2bb 9c9a 07be 5460 76bd
000000c0: 70dc df3d 368e f83e fcb6 a53e c5d3 9b3e
000000d0: 520b 453d 332c 33be 905f 71bd 1a7d 2fbe
000000e0: a1b2 d3bd ac59 a23d 6f5a 633f 50a9 ac3f
000000f0: eb7a 21bf 752f 05bf 85cf 0cbf aed9 1d3f
00000100: d420 203d 46c2 d7bd 829e de3e 4c28 ac3e
00000110: 33bd babe 5dfd 03bf 04b8 063e 9564 b5be
00000120: 55b5 ae3e da88 a9bc ccb6 71bd a5ea 15be
00000130: 53e4 3abf 0d7e 60bf 5799 13bf af0a 18bf
00000140: 3f14 cb3e 569b 2d3f 3e5b d93e 2e69 a83e
00000150: 0fa0 803f a302 d83e 77af debe 92b2 9b3f
00000160: de29 123f 46a3 92bc 4478 0b3f f34e 0f3e
00000170: ce50 9d3d 9c0a 45be 9191 0b3f 516d eb3e
00000180: 87e5 04bf 8974 14bf 85f5 8cbd 92f0 5dbf
00000190: e800 8e3f 8425 b13e 476c 733f 8fb1 853d
000001a0: 39a0 f93e 5a94 1a3f d1f5 923e 6d0c a43e
000001b0: c11c ab3f 8048 7a3f 3648 a83f 7c01 403f
000001c0: 8de9 f43e 1f1f 6b3e 6b6e d53e 04a6 eb3d
000001d0: 6ce6 70be 26a2 19bf ad70 57be 32ca 6ebe
000001e0: 3159 7b3f 8038 9b3f 1eab ec3e 1639 003f
000001f0: 8239 08bf b43e 21bf 8b49 c2be 3628 40be
00000200: adc5 e43d 1a98 cf3e 7fb1 9f3d 3a5f 86bd
00000210: 9001 a6be 9919 02bf 92cd ccbe 90b8 cdbe
00000220: 2da5 4d3f af02 f33e 2650 003f 1ed3 d93d
00000230: a301 9fbe e423 e0be 52fb 36be b0f9 0abe
00000240: e51f 873d 1168 413f 7fd5 b93d b7f4 a2be
00000250: 5d8e c93f 0214 963f ca67 913f 4f1d a13f
00000260: d04d 8c3f 841a 093f 61cc a1ba 1e34 743f
00000270: 2a87 443c 8008 57be 591e ccbe 5d7e f13e
00000280: 11c4 d33d 9527 a03e 4af2 ab3d f0f9 953f
00000290: 59b5 a6be be95 b5bd f86a 283f bcff a13f
000002a0: 0639 413f c730 393e be47 323f ef4f 0b3e
000002b0: acd2 4c3d 97ac 5ebe a5a1 263f fdff 9dbd
000002c0: 0180 69bd 040f 09bf 1db9 4dbe 2d21 f2be
000002d0: bf4d c03e 4e09 acbd bc89 bfbd b81b 75be
000002e0: c8a4 3c3f 8604 bb3e bd9b 6c3f 8bd1 8abd
000002f0: a120 db3e 4011 4a3f 9880 0b3e 0a0d fb3d
00000300: 1556 b73d 571e a5be dd98 5c3e 6ba5 99be
00000310: eb15 51be 7c25 dcbc 717b 823e 68ec c83e
00000320: 0239 03be 399a bdbc b710 d13e 96f9 4dbd
00000330: 6680 53be 9fce 85bc 98f5 c53e 2d6d 3e3f
00000340: 5403 303f c0e7 083d d2ec 913e b7b6 373c
00000350: 848b 043e 5240 6f3e 0b57 ff3e 08f1 2c3e
00000360: 6dc3 f5bd 9843 12bc 5fed e33e 645d f33e
00000370: 9a25 803f bcf4 b13f 0ef3 913f 0922 953f
00000380: 226d f5be 1ccc dbbe 61e0 49bd dee9 4bbe
00000390: 566c 4cbe 1aa7 dcbe 4fa4 babe 36a1 12bf
000003a0: 71d8 613f 269e 2c3f 21bd 263f 7823 693e
000003b0: b510 b83d 3e52 89be 81e0 e03e 8779 63be
000003c0: 87e6 053e 06d9 62be b6c2 a2bd 1ab5 2b3d
000003d0: f1e8 dc3e dd59 ff3e 9354 4a3d 23fa 13be
000003e0: b968 a33c 28a9 34be 1f37 dfbc 8be6 1ebe
000003f0: 1b52 af3f 319c d23e 75f9 833f bc61 133f

conv_layers.4.bias f4 [32]
-0.018141234 1.2795072 0.720938 0.55643994 0.26084074 0.26029754 1.3249009 0.32038835
0.3500844 0.6049186 0.31584656 0.5096552 0.116704084 -0.050498784 0.59488744 0.27824718
0.21777703 0.06104061 0.19145769 0.656923 0.19257616 0.25559795 0.2549973 0.35337943
0.20254874 0.12066602 0.62934756 0.46652484 0.45932972 0.5959549 0.08172016 0.33464223
00000000: ed9c 94bc e4c6 a33f 658f 383f d972 0e3f
00000010: eb8c 853e b845 853e 5a96 a93f f109 a43e
00000020: 433e b33e f2db 1a3f a4b6 a13e c378 023f
00000030: 8d02 ef3d d0d7 4ebd 8b4a 183f 6a76 8e3e
00000040: f100 5f3e b805 7a3d 7c0d 443e 1b2c 283f
00000050: af32 453e bcdd 823e 028f 823e 26ee b43e
00000060: f068 4f3e bf1f f73d ec1c 213f 58dc ee3e
00000070: 442d eb3e 8090 183f e65c a73d 3a56 ab3e

fc_state.0.weight f4 [256, 128]
-1.1346717 -1.00402 -0.59802496 -0.8886138 0.0033821005 0.7868057 0.06284525 -1.0044034
-1.2321669 1.1139474 -1.0534865 -1.0758195 -1.1875446 0.66349196 -0.97188187 -1.0111076
-0.12219473 1.1187419 0.9768746 -1.1303643 0.5341784 1.249365 1.030048 -0.9677217
-0.671101 0.71332896 0.58746403 -1.0440235 -1.2820714 -1.0674887 -0.17593929 -0.74885654
-1.3529721 -1.234235 -0.9407193 -0.51968104 0.1061999 -1.0940638 -1.0883621 0.8952996
-1.1034693 -1.2625026 -1.3268217 -0.6198872 0.38910827 -1.0295575 -0.8702137 0.8702706
-1.1452132 -1.1685095 -1.1062744 -0.41370142 1.2356526 1.2348193 -0.71507895 -0.8604059
0.09329923 -0.15931298 0.5399886 -1.4228615 -0.85496783 -1.2971466 -1.0237026 -0.8802513
0.5912964 0.9976161 -0.8200526 0.61240166 1.0685811 0.9623731 -0.41282883 1.3867114
0.71032727 0.77423507 -0.91354084 1.0817337 0.94139504 -1.3065184 -0.9206887 1.0779436
-0.90840423 -1.1594297 -0.5642416 -0.9628638 1.1229486 0.59903693 -0.6743178 1.381612
-1.2916036 -0.95996445 -1.303388 0.048378125 -0.54094046 -1.1282934 -0.8228141 0.68251395
0.8683961 0.78095955 -0.8036509 1.082653 -0.43710425 1.3888872 1.2680857 -0.073074445
0.7842719 -1.169059 0.506091 0.66357446 0.9904303 -1.3303211 -0.82942516 0.3119075
-1.3119185 1.0211565 -0.78739995 -0.76511407 -1.2026687 -1.2061477 -0.9097744 -0.031293556
-0.17095383 -0.9843275 -0.8428332 -1.1903683 -1.3978381 -0.9698551 0.27003476 -0.34913835
-1.3313085 -1.0286442 -0.5809841 -0.9862801 0.05089145 0.8422553 -0.104321025 -1.2772509
-1.5904773 1.499355 -1.5293045 -1.3304338 -1.2246557 0.7292691 -1.2724696 -1.023542
-0.048110504 1.2076548 0.91099894 -1.0969903 0.46828854 1.2634695 1.3797144 -1.2926469
-0.8063749 0.9649289 0.70188487 -1.1760918 -1.3475212 -1.4220105 -0.15729204 -0.7696041
-1.3846027 -1.2464894 -0.99448466 -0.6288355 0.08537363 -1.463776 -1.2848632 1.2364993
-0.92672676 -1.1414827 -1.2095442 -0.67022246 0.41136575 -1.2913929 -1.0617794 1.1488261
-1.2735852 -1.2946295 -1.0622779 -0.5571418 1.3586274 1.4659631 -0.95659184 -1.2771055
0.28508687 -0.0072673303 0.4475022 -1.376928 -0.9529771 -1.3846055 -1.3370532 -1.0881553
0.5536699 0.94096506 -0.8202961 0.6237155 1.1073263 1.1235565 -0.6838028 1.518619
0.6959391 0.89543676 -0.95021665 1.3807667 1.0388739 -1.3449757 -1.1271267 1.0643882
-0.8246048 -1.3401638 -0.48634955 -1.2097712 1.2755058 0.6082929 -1.0111519 1.5098633
-1.2324102 -1.0320472 -1.298346 0.16133082 -0.46458948 -1.4538492 -0.99274915 0.7847724
1.0387348 0.8406071 -0.8587442 1.2295117 -0.418299 1.3023742 1.3743961 -0.04904848
0.7524417 -1.1793427 0.5182091 0.8002963 0.95404613 -1.23956 -1.1019639 0.104908615
-1.4952166 1.1369356 -0.93710613 -0.92017937 -1.1924088 -1.4005243 -1.1654284 0.040510666
-0.21108232 -1.0637193 -0.97281843 -1.2399145 -1.391809 -1.0742477 0.1371549 -0.2725899
00000000: ec3c 91bf ba83 80bf 2a18 19bf 327c 63bf
00000010: 3ba6 5d3b 196c 493f 03b5 803d 4a90 80bf
00000020: a5b7 9dbf d495 8e3f a5d8 86bf 74b4 89bf
00000030: 7601 98bf 9cda 293f 40cd 78bf f96b 81bf
00000040: 3b41 fabd ef32 8f3f 7414 7a3f c7af 90bf
00000050: eabf 083f 31eb 9f3f 9dd8 833f 9cbc 77bf
00000060: 46cd 2bbf ba9c 363f 0b64 163f 90a2 85bf
00000070: ea1a a4bf 78a3 88bf 6e29 34be 10b5 3fbf
00000080: 312e adbf 6afb 9dbf fbd2 70bf d109 05bf
00000090: 557f d93d 480a 8cbf 734f 8bbf 5b32 653f
000000a0: 7b3e 8dbf af99 a1bf 4bd5 a9bf edb0 1ebf
000000b0: 3339 c73e 8ac8 83bf 53c6 5ebf 0eca 5e3f
000000c0: 5996 92bf b891 95bf 669a 8dbf acd0 d3be
000000d0: dd29 9e3f 8f0e 9e3f 6a0f 37bf 9043 5cbf
000000e0: ab13 bf3d f122 23be b13c 0a3f 5320 b6bf
000000f0: 2cdf 5abf e608 a6bf b008 83bf 2658 61bf
00000100: 335f 173f c563 7f3f f8ee 51bf 5bc6 1c3f
00000110: 44c7 883f 155e 763f 4d5e d3be c27f b13f
00000120: 02d8 353f 4534 463f d0dd 69bf 4076 8a3f
00000130: 44ff 703f ff3b a7bf 41b2 6bbf 0efa 893f
00000140: 2e8d 68bf 3168 94bf 2372 10bf 3e7e 76bf
00000150: c8bc 8f3f 7c5a 193f 17a0 2cbf a9d8 b03f
00000160: 4453 a5bf 3bc0 75bf 6bd5 a6bf 2428 463d
00000170: 137b 0abf eb6b 90bf f2a3 52bf 3cb9 2e3f
00000180: 354f 5e3f f7ec 473f 11bc 4dbf 6094 8a3f
00000190: 21cc dfbe 0ec7 b13f a250 a23f 0ea8 95bd
000001a0: 0bc6 483f baa3 95bf 2e8f 013f 04e0 293f
000001b0: d78c 7d3f f647 aabf 3555 54bf 57b2 9f3e
000001c0: f2ec a7bf 42b5 823f 0b93 49bf 84de 43bf
000001d0: 0cf1 99bf 0c63 9abf fae6 68bf ac2d 00bd
000001e0: 850e 2fbe e3fc 7bbf ebc3 57bf fd5d 98bf
000001f0: 5cec b2bf 6d48 78bf ff41 8a3e 43c2 b2be
00000200: 5168 aabf 9daa 83bf 60bb 14bf da7c 7cbf
00000210: 8e73 503d 0b9e 573f 43a6 d5bd f57c a3bf
00000220: c394 cbbf ddea bf3f 40c0 c3bf a84b aabf
00000230: 85c1 9cbf 61b1 3a3f 49e0 a2bf 6d03 83bf
00000240: 850f 45bd 6f94 9a3f 3a37 693f 2e6a 8cbf
00000250: 84c3 ef3e 5eb9 a13f 7b9a b03f 7475 a5bf
00000260: 966e 4ebf 9505 773f baae 333f 2d8a 96bf
00000270: 937b acbf 7104 b6bf 2a11 21be c604 45bf
00000280: a93a b1bf f78c 9fbf 8c96 7ebf 5dfb 20bf
00000290: 5fd8 ae3d 035d bbbf 6676 a4bf 9c45 9e3f
000002a0: f73d 6dbf 1b1c 92bf 58d2 9abf b393 2bbf
000002b0: 889e d23e 5d4c a5bf 63e8 87bf bc0c 933f
000002c0: d704 a3bf 6bb6 a5bf b9f8 87bf d8a0 0ebf
000002d0: 81e7 ad3f aea4 bb3f 34e3 74bf 3178 a3bf
000002e0: e8f6 913e c922 eebb 021f e53e 2d3f b0bf
000002f0: 4ff6 73bf c13a b1bf 8f24 abbf ac48 8bbf
00000300: 50bd 0d3f 16e3 703f edfe 51bf d2ab 1f3f
00000310: debc 8d3f b3d0 8f3f b30d 2fbf 1b62 c23f
00000320: 1129 323f 583b 653f 6641 73bf f7bc b03f
00000330: d2f9 843f 2a28 acbf b045 90bf df3d 883f
00000340: 4d19 53bf 7d8a abbf cf02 f9be c8d9 9abf
00000350: c643 a33f 15b9 1b3f 6d6d 81bf 3343 c13f
00000360: 9ebf 9dbf 1f1a 84bf 3430 a6bf e833 253e
00000370: acde edbe bb17 babf cf24 7ebf d8e6 483f
00000380: 43f5 843f 0732 573f a9d6 5bbf a460 9d3f
00000390: 492b d6be 33b4 a63f 36ec af3f 0fe7 48bd
000003a0: 05a0 403f b4f4 96bf 5aa9 043f 38e0 4c3f
000003b0: 5e3c 743f e7a9 9ebf 270d 8dbf 54da d63d
000003c0: 4263 bfbf 1b87 913f 30e6 6fbf e090 6bbf
000003d0: daa0 98bf 6144 b3bf c22c 95bf 83ee 253d
000003e0: f725 58be f427 88bf a10a 79bf 85b5 9ebf
000003f0: cc26 b2bf f380 89bf 5672 0c3e e790 8bbe

fc_state.0.bias f4 [256]
-0.038223125 -0.026537415 -0.15153402 0.9505531 0.10505107 0.5773237 0.3613887 -0.08007635
-0.020380968 0.44570756 0.00918784 0.007029116 0.078454256 -0.12373444 -0.05586416 0.30267927
0.5725881 -0.029323455 -0.11341833 -0.11954979 -0.18040094 0.20554392 0.03668763 0.21340454
1.0412469 -0.024889367 -0.15042995 -0.02093913 -0.05310611 -0.20262174 0.235725 0.65993977
-0.1831381 0.014993478 -0.034055445 -0.20627134 -0.064484134 -0.07234648 -0.14546856 -0.18832204
-0.14683753 0.07212876 -0.04298114 0.3742751 0.34227404 -0.08089856 0.12755446 -0.15588024
0.14779457 0.0704206 0.034752224 -0.07754467 0.08531728 -0.115431376 0.9696103 -0.038923316
-0.07367408 -0.12247154 -0.068875186 -0.27508208 -0.09651574 0.019700725 -0.18953903 0.20372795
0.298385 -0.107351 -0.0398383 0.077002555 -0.24482358 0.2747779 -0.08327281 0.7245074
-0.22245646 0.26767716 0.014172526 0.37992132 0.81915855 0.34420225 0.4962699 0.034324437
0.16314645 -0.1697293 0.5979884 0.050201338 1.0827258 -0.091472834 -0.06845511 0.47940385
0.4782133 -0.22405103 0.38227895 0.0153200375 0.37327996 0.8033091 0.15001354 -0.09841254
-0.08860668 0.013771694 0.030261088 -0.19630642 -0.06520131 -0.18444118 0.4021206 0.08728205
-0.10511349 -0.0670797 -0.09378544 0.18660401 0.19781339 -0.072922155 -0.19038415 0.19863188
-0.09845289 0.21187036 0.11368926 -0.14220497 0.087948166 -0.026337873 0.34031984 0.93100816
0.022408001 0.0007355621 0.30211803 -0.07250684 -0.15299538 0.3459317 -0.027291741 -0.091263175
-0.009299469 0.28163806 0.15457013 0.5249806 0.20255542 -0.08860604 -0.21331812 0.5018679
-0.07747406 -0.049038902 -0.04519883 1.048605 0.37380028 0.5184454 -0.03588104 -0.03227538
-0.045980237 -0.04180727 0.6585929 0.639082 0.09396433 -0.020670181 -0.16956043 -0.047410272
-0.2776841 -0.14126204 0.5806258 -0.05739187 0.10972938 -0.04078587 0.2301251 0.45609477
0.08256015 0.08653301 0.12660733 0.44086036 0.9486454 -0.11651796 -0.003694352 0.68302166
1.0440922 0.35485536 -0.09555942 -0.028465537 -0.11624756 -0.14132915 0.3715315 0.002344551
0.27179024 0.12284562 0.66187847 0.8135568 0.8249946 0.7354607 0.48191097 0.20371015
0.032422584 0.0010593244 -0.007818538 -0.10546168 0.85015005 0.011383028 0.15652792 -0.0100671705
-0.019151697 -0.14270167 -0.1546532 1.036928 -0.08044879 -0.070243575 -0.10196123 -0.16096152
0.017097779 0.23211989 -0.07194656 0.54570127 1.0055876 -0.14629965 0.40806454 -0.12706897
0.021213878 0.0062151896 0.18077518 -0.018219436 -0.060983893 0.06937751 -0.12670796 1.0438967
0.53836375 0.23433423 -0.040019717 -0.07097588 0.39571953 0.4550379 0.20960037 -0.112366386
-0.09697694 -0.098153494 0.3295493 0.023904853 1.047064 0.14082862 -0.20033003 -0.13481149
-0.09464667 -0.27400032 0.027376123 0.85980123 -0.2120741 0.633929 0.1560517 -0.18675731
0.47319335 -0.05040637 -0.016576508 -0.13029727 -0.10901317 -0.18418871 -0.10501395 0.63506204
0.0138387345 0.057074733 0.01210544 -0.10663254 -0.15448518 0.15031864 -0.16828583 -0.03128287
00000000: da8f 1cbd fe64 d9bc bc2b 1bbe 7357 733f
00000010: 0425 d73d 7ccb 133f f107 b93e 12ff a3bd
00000020: fdf5 a6bc c833 e43e 9888 163c 8054 e63b
00000030: a0ac a03d 7b68 fdbd d1d1 64bd c7f8 9a3e
00000040: 2295 123f be37 f0bc df47 e8bd 85d6 f4bd
00000050: 06bb 38be 1b7a 523e c545 163d b886 5a3e
00000060: 9447 853f c9e4 cbbc 4f0a 1abe 8a88 abbc
00000070: cb85 59bd 137c 4fbe e561 713e d0f1 283f
00000080: 8e88 3bbe 34a7 753c b97d 0bbd cb38 53be
00000090: 4210 84bd 642a 94bd b6f5 14be 7ed7 40be
000000a0: 945c 16be 3eb8 933d fe0c 30bd fca0 bf3e
000000b0: 8b3e af3e 25ae a5bd a39d 023e 129f 1fbe
000000c0: 7657 173e ad38 903d 5958 0e3d bdcf 9ebd
000000d0: d3ba ae3d 4967 ecbd 6138 783f 0e6e 1fbd
000000e0: 70e2 96bd 5cd2 fabd 6f0e 8dbd 8fd7 8cbe
000000f0: 0baa c5bd 6a63 a13c 8516 42be 0f9e 503e
00000100: ebc5 983e d7da dbbd 7c2d 23bd 84b3 9d3d
00000110: 08b3 7abe b0af 8c3e ef8a aabd 5179 393f
00000120: a0cb 63be fb0c 893e e233 683c 0c85 c23e
00000130: 60b4 513f 473b b03e 1717 fe3e c897 0c3d
00000140: dd0f 273e 85cd 2dbe c515 193f eb9f 4d3d
00000150: c296 8a3f 1c56 bbbd 3132 8cbd 6c74 f53e
00000160: 60d8 f43e a26d 65be 11ba c33e e500 7b3c
00000170: 8d1e bf3e aaa5 4d3f 269d 193e 848c c9bd
00000180: 6b77 b5bd aca2 613c 1ae6 f73c 8d04 49be
00000190: 4488 85bd 26de 3cbe c0e2 cd3e eec0 b23d
000001a0: be45 d7bd 1561 89bd 9512 c0bd 1f15 3f3e
000001b0: 988f 4a3e 3658 95bd 10f4 42be 2866 4b3e
000001c0: aba1 c9bd 8bf4 583e ead5 e83d 2e9e 11be
000001d0: 2b1e b43d 86c2 d7bc 673e ae3e 8d56 6e3f
000001e0: fc90 b73c bdd2 403a 37af 9a3e 777e 94bd
000001f0: d2aa 1cbe f61d b13e ee92 dfbc 30e8 babd
00000200: cd5c 18bc dd32 903e a247 1e3e 2165 063f
00000210: b06a 4f3e 1577 b5bd 1170 5abe 6a7a 003f
00000220: b8aa 9ebd 04dd 48bd 6922 39bd b038 863f
00000230: c062 bf3e d6b8 043f fff7 12bd 3033 04bd
00000240: c655 3cbd 1a3e 2bbd 8b99 283f e19a 233f
00000250: 5f70 c03d 8354 a9bc 40a1 2dbe 4631 42bd
00000260: 9c2c 8ebe ffa6 10be e4a3 143f bd13 6bbd
00000270: ccb9 e03d 160f 27bd eaa5 6b3e 4185 e93e
00000280: 4c15 a93d 3838 b13d 5aa5 013e 73b8 e13e
00000290: 6dda 723f f8a0 eebd f11c 72bb 82da 2e3f
000002a0: d0a4 853f 9aaf b53e a8b4 c3bd 8f30 e9bc
000002b0: 3313 eebd 97b8 10be 6039 be3e 0aa7 193b
000002c0: 1728 8b3e 7c96 fb3d de70 293f 4245 503f
000002d0: d932 533f 2747 3c3f 09bd f63e 6599 503e
000002e0: 8bcd 043d 07d9 8a3a 5319 00bc 4bfc d7bd
000002f0: 6fa3 593f e17f 3a3c db48 203e c6f0 24bc
00000300: 05e4 9cbc 6320 12be 695d 1ebe 0fba 843f
00000310: 56c2 a4bd dddb 8fbd 0dd1 d0bd 19d3 24be
00000320: a410 8c3c d6b0 6d3e b858 93bd 14b3 0b3f
00000330: 18b7 803f 93cf 15be d6ed d03e 5e1e 02be
00000340: bac8 ad3c caa8 cb3b 211d 393e ed40 95bc
00000350: 3fca 79bd cc15 8e3d bbbf 01be 689e 853f
00000360: 35d2 093f 50f5 6f3e b7eb 23bd cd5b 91bd
00000370: c09b ca3e bafa e83e 7ba1 563e 5920 e6bd
00000380: d99b c6bd b304 c9bd b0ba a83e 1cd4 c33c
00000390: 3106 863f 6135 103e 5123 4dbe 060c 0abe
000003a0: 1dd6 c1bd c549 8cbe e443 e03c ef1b 5c3f
000003b0: f429 59be 2c49 223f 04cc 1f3e 4f3d 3fbe
000003c0: 6646 f23e e976 4ebd 75cb 87bc a66c 05be
000003d0: 4c42 dfbd f79b 3cbe 8e11 d7bd 6d93 223f
000003e0: dcbb 623c 32c7 693d e555 463c 2962 dabd
000003f0: 5d31 1ebe 21ed 193e 1f53 2cbe 7722 00bd

fc_state.2.weight f4 [64, 256]
-0.7266426 -0.8096909 0.46044874 0.9036141 -0.25011966 0.0164375 0.10575708 -0.74062824
-1.318934 0.58222115 -0.4714566 -0.47240442 0.88583297 -0.7575153 -0.6741306 0.08159092
0.4454456 -0.6487111 -0.64481467 -0.67641485 0.9179725 0.086771324 0.037428334 0.15635432
0.9674536 -0.7851076 0.3004023 0.1393265 1.1562552 -0.8590072 -0.3375297 0.41053024
-1.1189737 -0.6101254 -0.6973731 -0.95795137 -0.7457548 -0.9618737 -1.0464898 -0.8225918
-1.0855819 -0.46568272 -0.42138243 0.04472589 0.008044695 -0.63424563 -0.33083516 0.23354183
-0.014547955 -0.137425 -0.5810553 -0.9620265 -0.18363403 -0.5532921 0.6021364 -0.73168266
0.1708865 -0.76854914 -1.0744591 -0.8831551 -1.0117131 -0.6575841 0.29017076 0.06075738
0.08485539 0.3192309 -0.27683926 0.28811714 -1.0796839 0.6655224 -0.038560215 0.6513883
-1.099123 0.06963227 -0.7140671 0.062429808 0.6594076 0.082948714 0.012420803 -0.58018994
0.033075266 -1.1071467 0.32157886 -0.5465442 0.87642205 -0.9815076 -0.6355833 0.7295096
-0.041355316 -1.0762436 0.01440833 -0.55043286 0.04647178 0.64050597 0.1258713 -0.65599066
0.1767161 0.13429622 1.1504066 0.4237119 -0.7657142 -1.1711477 0.16140531 -0.2593091
-0.5874918 -0.6112944 -0.8068267 -0.27595812 0.5763347 0.011503696 -0.88321316 0.18391147
-0.02253878 0.047926392 -0.19131824 -0.8155855 1.2387564 -0.20441721 0.039120514 0.8217555
0.094246976 -0.77225184 0.059395842 -0.5789318 -0.6365161 -0.015794488 -0.6331678 -0.29951403
-0.74799836 0.131122 -0.47792035 0.72282434 0.108622156 -1.3821744 -0.85932744 0.10313185
-0.8786405 0.0515206 -0.64795846 0.82529175 0.036907714 0.085762 0.13561592 -0.5679906
-0.26921484 -0.74787474 0.33419335 0.4450232 0.08090104 -0.64201343 -0.72812 -0.19318001
0.659767 0.20686321 0.7858462 -1.0097839 1.2604109 0.22015502 0.13738467 0.058522817
0.11226749 -0.013920755 0.14480834 0.07615079 1.0100504 0.7688988 0.6363417 0.39120468
0.5002124 0.04882206 -0.74080837 0.17500262 0.5804355 0.7526065 0.018432604 -0.81778014
0.024198523 0.12312889 0.005802863 0.8050283 0.49866146 0.4944855 0.059732154 -0.33384496
0.06561957 -0.3498685 0.12108563 0.7396666 1.0250007 -1.0200758 1.4059191 -0.7130284
-0.5446473 0.8592084 -0.89129204 0.65469146 -0.28148088 0.70874625 -0.6515488 0.20215087
-0.7090095 0.11008383 -0.38087532 0.10912698 0.9586419 -0.7869124 0.08375129 -0.62362206
0.36122996 -0.57089627 0.052497983 0.75254583 0.27136308 -0.14472616 -0.68474 0.4864081
0.10813119 0.09187653 -0.60691786 0.08321348 0.016897162 0.011220262 0.11354228 -0.6740489
-0.50739473 0.3265188 0.07911281 -0.0076787085 0.90307534 0.14744015 -0.9884458 -1.1172222
0.097092874 0.965923 -0.6688746 0.8426082 -0.9539729 0.116164654 0.12565856 -0.62871253
0.038141385 -0.308446 -0.6627789 -0.601417 -0.53215003 -1.1655287 -1.5320139 0.1127103
-0.66975546 0.10378969 -0.8184736 -0.7191779 -0.8349064 0.10397556 -0.9205281 -0.837754
00000000: 4005 3abf e747 4fbf f0bf eb3e 4153 673f
00000010: af0f 80be f0a7 863c 2b97 d83d d099 3dbf
00000020: d4d2 a8bf 720c 153f c262 f1be fede f1be
00000030: f3c5 623f 86ec 41bf d393 2cbf 2419 a73d
00000040: 7211 e43e ee11 26bf 9312 25bf 8629 2dbf
00000050: 3f00 6b3f 2ab5 b13d 744e 193d 591b 203e
00000060: 0aab 773f d0fc 48bf 55ce 993e 9bab 0e3e
00000070: 2c00 943f e5e7 5bbf b1d0 acbe 0531 d23e
00000080: 883a 8fbf 2e31 1cbf 0b87 32bf 4d3c 75bf
00000090: c9e9 3ebf 5b3d 76bf 61f3 85bf 6095 52bf
000000a0: 59f4 8abf f76d eebe 70bf d7be 7f32 373d
000000b0: e5cd 033c ec5d 22bf 3a63 a9be 9725 6f3e
000000c0: 8c5a 6ebc 24b9 0cbe 0ac0 14bf 5e47 76bf
000000d0: 8f0a 3cbe 8da4 0dbf 9c25 1a3f 8e4f 3bbf
000000e0: dffc 2e3e a3bf 44bf e087 89bf 7416 62bf
000000f0: d17f 81bf 6e57 28bf 4391 943e bbdc 783d
00000100: aac8 ad3d 3c72 a33e e0bd 8dbe 1784 933e
00000110: 1533 8abf ad5f 2a3f 51f1 1dbd 62c1 263f
00000120: 10b0 8cbf 5d9b 8e3d 1acd 36bf 66b6 7f3d
00000130: f0ce 283f 04e1 a93d a080 4b3c 5487 14bf
00000140: ee79 073d fcb6 8dbf fca5 a43e 52ea 0bbf
00000150: 325d 603f 1544 7bbf 96b5 22bf 24c1 3a3f
00000160: 3164 29bd 5ac2 89bf eb10 6c3c 2be9 0cbf
00000170: 3159 3e3d 33f8 233f 68e4 003e 01ef 27bf
00000180: 11f5 343e f384 093e 8640 933f c4f0 d83e
00000190: d905 44bf 2be8 95bf 6f47 253e 2ac4 84be
000001a0: dd65 16bf ca7d 1cbf 328c 4ebf 624a 8dbe
000001b0: ac8a 133f 007a 3c3c 421a 62bf 4a53 3c3e
000001c0: 3fa3 b8bc 774e 443d eee8 43be 36ca 50bf
000001d0: 928f 9e3f bf52 51be d53c 203d 925e 523f
000001e0: 8f04 c13d 4cb2 45bf 0e49 733d e034 14bf
000001f0: b8f2 22bf 7163 81bc 4917 22bf e759 99be
00000200: d27c 3fbf d844 063e fab1 f4be 040b 393f
00000210: 4b75 de3d 17eb b0bf e2fc 5bbf cb36 d33d
00000220: 95ee 60bf 4407 533d 9be0 25bf 5246 533f
00000230: 8b2c 173d fda3 af3d e6de 0a3e d567 11bf
00000240: 87d6 89be b874 3fbf 641b ab3e 15da e33e
00000250: 72af a53d fe5a 24bf 1366 3abf fbd0 45be
00000260: 7de6 283f f3d3 533e 372d 493f 9940 81bf
00000270: 2555 a13f 5170 613e 91ae 0c3e 9fb5 6f3d
00000280: 7fec e53d e113 64bc a348 143e f2f4 9b3d
00000290: 5549 813f 8dd6 443f 4ae7 223f fb4b c83e
000002a0: eb0d 003f a4f9 473d 9ea5 3dbf e333 333e
000002b0: 6c97 143f d2aa 403f f9ff 963c 0a5a 51bf
000002c0: fb3b c63c 002b fc3d f125 be3b 5616 4e3f
000002d0: 8e50 ff3e 342d fd3e b4a9 743d baed aabe
000002e0: 8e63 863d f721 b3be befb f73d ca5a 3d3f
000002f0: 3933 833f d891 82bf 28f5 b33f 0789 36bf
00000300: 016e 0bbf 15f5 5b3f b72b 64bf dc99 273f
00000310: 431e 90be 6570 353f e7cb 26bf a300 4f3e
00000320: a681 35bf a273 e13d 1702 c3be f77d df3d
00000330: 8e69 753f 1773 49bf cc85 ab3d b2a5 1fbf
00000340: 22f3 b83e 4226 12bf 2008 573d d8a6 403f
00000350: 1af0 8a3e 1833 14be 1f4b 2fbf 7c0a f93e
00000360: e373 dd3d c329 bc3d f85e 1bbf d46b aa3d
00000370: eb6b 8a3c 31d5 373c db88 e83d 788e 2cbf
00000380: 9fe4 01bf 792d a73e e605 a23d ad9d fbbb
00000390: f22f 673f 8dfa 163e c90a 7dbf 2301 8fbf
000003a0: a1d8 c63d bb46 773f 5e3b 2bbf 2cb5 573f
000003b0: 9137 74bf bce7 ed3d a3ac 003e 4ef3 20bf
000003c0: 243a 1c3d a2ec 9dbe e1ab 29bf 77f6 19bf
000003d0: fc3a 08bf 0b30 95bf 0819 c4bf a8d4 e63d
000003e0: 1875 2bbf b08f d43d 7c87 51bf 0b1c 38bf
000003f0: 6dbc 55bf 23f1 d43d bba7 6bbf 0c77 56bf

fc_state.2.bias f4 [64]
0.0139129115 -0.0031277165 0.22525358 -0.06161589 0.02735221 -0.2710306 0.22564234 0.099601276
0.23780118 0.2715531 -0.048479613 0.26258135 0.22427964 0.26508114 0.23378196 0.11065175
-0.049082708 0.2576241 -0.026035856 0.20695971 0.22471362 -0.096157566 0.19533162 -0.076522715
0.027359791 -0.08869997 0.26965925 0.19228001 0.25903627 -0.09615122 0.17864007 -0.10794121
0.067502216 0.2702462 -0.07597303 -0.07408446 -0.07425893 0.24780762 -0.08317676 0.20672028
-0.029179301 0.27146947 -0.021154866 0.29387927 0.025955765 -0.004900424 0.01949809 0.010702133
-0.1076157 -0.0094065 -0.04057952 0.040277094 -0.076376736 -0.0328661 0.24317601 0.2123276
0.22000684 0.29107603 0.23765926 0.00025113855 0.020619571 0.259392 0.26970002 -0.0067134304
00000000: fbf2 633c 60fa 4cbb e0a8 663e f260 7cbd
00000010: be11 e03c 86c4 8abe c90e 673e c1fb cb3d
00000020: 2782 733e 0209 8b3e 8f92 46bd 1071 863e
00000030: 90a9 653e b7b8 873e 8a64 6f3e 629d e23d
00000040: f30a 49bd 4ee7 833e 2649 d5bc 3fed 533e
00000050: 541b 663e 42ee c4bd 0305 483e f1b7 9cbd
00000060: a421 e03c 54a8 b5bd c710 8a3e 0de5 443e
00000070: 67a0 843e eeea c4bd 6ced 363e 4810 ddbd
00000080: 9a3e 8a3d b65d 8a3e bf97 9bbd 98b9 97bd
00000090: 1115 98bd 48c1 7d3e 9458 aabd 7bae 533e
000000a0: 6e09 efbc 0cfe 8a3e f84c adbc 5877 963e
000000b0: 2fa1 d43c bc93 a0bb 75ba 9f3c 0058 2f3c
000000c0: 9f65 dcbd b81d 1abc b636 26bd 98f9 243d
000000d0: 686b 9cbd 9b9e 06bd 2203 793e 686c 593e
000000e0: 7949 613e eb07 953e f35c 733e 3fab 8339
000000f0: 60ea a83c 07cf 843e 1f16 8a3e 56fc dbbb

fc_state.4.weight f4 [1, 64]
-0.94042885 -0.9327817 2.2718403 0.025259318 -0.96216935 2.4024947 2.2875495 0.45888335
2.2648547 2.2661474 -0.90743375 2.308669 2.3005388 2.3389773 2.2553515 0.5535902
0.013219466 2.2414129 -0.91234946 2.225328 2.3098414 -0.8773326 2.2300522 0.065943435
-0.96955085 -1.012281 2.2550344 2.2339575 2.324681 -1.473954 2.2082045 -0.95507056
-0.7292636 2.2823637 -0.88091314 -0.88133407 -1.1436917 2.264919 4.3464284 2.2235174
0.060603023 2.3248553 -0.93751526 2.2658978 -0.9556459 -0.987593 -1.0043104 -0.8864027
-1.3581206 -0.9611812 -0.93723005 3.4917176 4.1808524 0.10629028 2.2289968 2.2149746
2.2865038 2.239662 2.2501025 -0.002473914 -0.88224924 2.1974301 2.289565 -0.1377496
00000000: f2bf 70bf c8ca 6ebf d565 1140 a1ec ce3c
00000010: bb50 76bf 79c2 1940 3667 1240 c2f2 ea3e
00000020: 61f3 1040 8f08 1140 944d 68bf 3cc1 1340
00000030: 073c 1340 ceb1 1540 ae57 1040 16b8 0d3f
00000040: 7696 583c 4f73 0f40 bc8f 69bf c66b 0e40
00000050: 71d4 1340 df98 60bf 2db9 0e40 5a0d 873d
00000060: 7c34 78bf 6c92 81bf 7c52 1040 29f9 0e40
00000070: 93c7 1440 86aa bcbf 3953 0d40 817f 74bf
00000080: 05b1 3abf 3f12 1240 8683 61bf 1c9f 61bf
00000090: 7d64 92bf 6ff4 1040 f115 8b40 1c4e 0e40
000000a0: e03a 783d 6eca 1440 0001 70bf 7804 1140
000000b0: 36a5 74bf e5d2 7cbf 3e8d 80bf 4aeb 62bf
000000c0: e5d6 adbf f90f 76bf 4fee 6fbf 4d78 5f40
000000d0: 8bc9 8540 b8ae d93d e2a7 0e40 25c2 0d40
000000e0: 1456 1240 9f56 0f40 ae01 1040 6421 22bb
000000f0: 16db 61bf b2a2 0c40 3c88 1240 3b0e 0dbe

fc_advantage.0.weight f4 [256, 128]
-0.8580892 -0.5639834 -0.32811636 -0.46372125 0.4618228 0.7578954 0.3139915 -0.8369554
-1.2228148 1.2799779 -0.74676555 -0.70758224 -0.7222509 0.89233226 -0.8530058 -0.46875283
0.5915646 1.0160279 0.9891792 -0.8169716 0.7225699 1.0725191 0.9343023 -0.8215132
-0.17978069 0.8293655 0.5770205 -0.68570316 -1.0478859 -0.92080253 -0.04655684 -0.4555885
-1.0593971 -0.73091865 -0.5991281 -0.23667721 0.58047664 -0.7097353 -0.82888323 0.85902274
-0.59347904 -0.7452256 -0.7399338 -0.41891676 0.6415619 -0.600829 -0.71390027 0.810236
-0.7166369 -0.87501603 -0.72510654 -0.14061065 1.1437908 1.2030791 -0.3958862 -0.6925919
0.5664685 0.12578806 0.599513 -1.0599515 -0.546128 -0.8494153 -0.71209854 -0.6715447
0.80560404 1.1096883 -0.58175486 0.7772208 1.1497809 0.84585685 -0.35041082 1.3387705
1.08785 0.75992364 -0.6092357 1.1225313 1.214946 -1.1071606 -0.48668024 0.9567098
-0.7137769 -0.92183 -0.2562365 -0.66763246 1.2153584 0.3689699 0.0002452697 1.0987196
-1.0016316 -0.5258822 -0.95466334 0.32905278 -0.15064198 -0.8108097 -0.36326808 0.6536217
1.0599461 0.8590194 -0.45206273 1.1810045 0.13069297 1.1829216 1.2482318 -0.31773356
0.97402847 -0.9025036 0.62784344 0.6852646 1.1450415 -0.95816416 -0.8869358 0.3896086
-0.9394141 1.0118468 -0.39415625 -0.1342406 -0.9902062 -0.82653064 -0.6360145 0.33429724
0.3935736 -0.7514162 -0.7695328 -0.8469105 -0.826413 -0.82990915 0.38666356 0.006798392
0.88214767 0.61263704 0.35718632 0.49472374 0.16834784 0.061878838 0.28087893 0.98860633
1.2883797 -0.29184222 0.7138951 0.803966 0.97022134 0.085454516 1.1009655 0.7978364
0.32421604 -0.09125472 -0.12574686 1.0059403 0.075768046 -0.2633368 -0.28284383 1.1036139
0.4974146 -0.047838062 0.039608113 0.6897377 0.75548214 0.9013537 0.5276534 0.58015126
1.1787195 0.9420341 0.8253903 0.60593295 0.18607377 0.78053904 0.73537797 -0.13445787
0.81827635 0.8084745 0.8913166 0.51583683 0.17164971 0.840531 0.78258294 0.055827376
0.75649756 0.70331246 0.7233565 0.42977637 -1.0518712 -0.12886357 0.13409372 0.5859241
0.36779857 0.6099106 0.24541272 1.0192002 1.0243082 0.9752264 0.9091732 0.6737752
-0.15570998 -0.073772825 0.48001724 0.06956328 -0.4530479 -0.08216834 0.39035183 -0.16355951
0.035339896 0.14753693 0.6910449 -0.24745746 -0.26846126 1.1384442 0.85434806 -0.024436092
0.62694365 0.9250691 0.5632922 0.83760035 -0.3319639 0.28589645 0.33433878 -0.28402272
0.9979191 0.48968968 0.6934373 0.32954612 0.35051116 0.6239951 0.48740122 -0.35599265
-0.13847904 0.1343777 0.4785254 -0.024881523 -0.029326057 -0.3168154 -0.5696514 -0.03060783
0.067694485 1.0034901 0.06264531 0.23518786 -0.117483094 0.9836472 0.79252845 0.3384769
1.1541345 -0.32590842 0.4674742 0.01645479 0.7252108 1.0554596 0.76928484 0.28224936
0.5284809 0.8431198 0.6079681 0.8047636 1.2505361 0.5779312 0.14265937 0.5444058
00000000: bcab 5bbf 3761 10bf defe a7be df6c edbe
00000010: 0a74 ec3e 6f05 423f 7ec3 a03e b642 56bf
00000020: 3285 9cbf 51d6 a33f 072c 3fbf 1c24 35bf
00000030: 6fe5 38bf e36f 643f 975e 5abf 5f00 f0be
00000040: c770 173f 340d 823f d93a 7d3f 0d25 51bf
00000050: 57fa 383f 4e48 893f 6f2e 6f3f b04e 52bf
00000060: 6e18 38be 4c51 543f 9eb7 133f 3e8a 2fbf
00000070: 2021 86bf b7b9 6bbf 63b2 3ebd e542 e9be
00000080: 539a 87bf 7c1d 3bbf 7660 19bf 835b 72be
00000090: 1e9a 143f 36b1 35bf b131 54bf eae8 5b3f
000000a0: 3eee 17bf 1bc7 3ebf 4d6c 3dbf 427c d6be
000000b0: 673d 243f eecf 19bf 2bc2 36bf a06b 4f3f
000000c0: 8475 37bf 0d01 60bf 95a0 39bf 3dfc 0fbe
000000d0: bd67 923f 7ffe 993f 99b1 cabe b44d 31bf
000000e0: 1404 113f 96ce 003e af79 193f 7eac 87bf
000000f0: 0bcf 0bbf 4873 59bf 174c 36bf 5aea 2bbf
00000100: 113c 4e3f 440a 8e3f e3ed 14bf f1f7 463f
00000110: 052c 933f 138a 583f 0c69 b3be d55c ab3f
00000120: ab3e 8b3f 5b8a 423f dff6 1bbf 1baf 8f3f
00000130: 5a83 9b3f 70b7 8dbf 272e f9be efea 743f
00000140: 15ba 36bf 0dfd 6bbf 6e31 83be f6e9 2abf
00000150: dd90 9b3f 9fe9 bc3e 8b97 8039 d8a2 8c3f
00000160: 7735 80bf 37a0 06bf d164 74bf 9b79 a83e
00000170: e441 1abe 3991 4fbf 46fe b9be c053 273f
00000180: 50ac 873f b2e8 5b3f c474 e7be 282b 973f
00000190: 61d4 053e fa69 973f 0fc6 9f3f f9ad a2be
000001a0: ee59 793f 7a0a 67bf 59ba 203f 806d 2f3f
000001b0: b890 923f 3f4a 75bf 390e 63bf c77a c73e
000001c0: 717d 70bf 3284 813f d9ce c9be 5e76 09be
000001d0: 277e 7dbf 8397 53bf d9d1 22bf 0229 ab3e
000001e0: 7b82 c93e d05c 40bf 1a00 45bf 20cf 58bf
000001f0: cd8f 53bf ed74 54bf c4f8 c53e 0cc5 de3b
00000200: 6ed4 613f c8d5 1c3f 20e1 b63e 6e4c fd3e
00000210: 6063 2c3e aa74 7d3d 5dcf 8f3e 4e15 7d3f
00000220: a0e9 a43f 586c 95be d4c1 363f b7d0 4d3f
00000230: 6d60 783f c702 af3d 70ec 8c3f 023f 4c3f
00000240: a5ff a53e c1e3 babd c9c3 00be a7c2 803f
00000250: 472c 9b3d 15d4 86be e8d0 90be 3843 8d3f
00000260: 20ad fe3e d8f1 43bd 1e3c 223d a692 303f
00000270: 4767 413f 1ebf 663f 4b14 073f cb84 143f
00000280: 48e0 963f 2629 713f c74c 533f 6c1e 1b3f
00000290: 1f8a 3e3e 68d1 473f bb41 3c3f 53af 09be
000002a0: 8f7a 513f 2ff8 4e3f 532d 643f e20d 043f
000002b0: f1c4 2f3e 0a2d 573f 5b57 483f 3fab 643d
000002c0: d3a9 413f 490c 343f e42d 393f a60b dc3e
000002d0: b7a3 86bf d0f4 03be dd4f 093e 1fff 153f
000002e0: 1850 bc3e 1a23 1c3f 794d 7b3e 2775 823f
000002f0: 881c 833f 70a8 793f 93bf 683f 887c 2c3f
00000300: 7072 1fbe 3516 97bd d2c4 f53e 3177 8e3d
00000310: e5f5 e7be e047 a8bd 32dc c73e 257c 27be
00000320: 91c0 103d ec13 173e 52e8 303f 7d65 7dbe
00000330: c173 89be 8ab8 913f 8eb6 5a3f 332e c8bc
00000340: 617f 203f 54d1 6c3f eb33 103f fa6c 563f
00000350: 2cf7 a9be 0561 923e 742e ab3e 6d6b 91be
00000360: a077 7f3f 9bb8 fa3e 1b85 313f 45ba a83e
00000370: 3376 b33e 25be 1f3f a78c f93e ab44 b6be
00000380: 73cd 0dbe 4f9a 093e 4801 f53e 56d4 cbbc
00000390: 333d f0bc a135 a2be add4 11bf 46bd fabc
000003a0: 68a3 8a3d 5d72 803f 2f4c 803d 16d5 703e
000003b0: fa9a f0bd 4ed0 7b3f 25e3 4a3f d84c ad3e
000003c0: aeba 933f 78dd a6be c758 ef3e 32cc 863c
000003d0: 6aa7 393f 4d19 873f daef 443f fd82 903e
000003e0: 864a 073f b3d6 573f cca3 1b3f fd04 4e3f
000003f0: 9111 a03f 4df3 133f 4c15 123e 2e5e 0b3f
