data/Torch/Dueling/003_Big-CNN_E_L/checkpoints/weights_6000episodes.pth (torch, 505343 bytes, 17 tensors)

conv_layers.0.weight f4 [64, 1, 3, 3]
0	0x3ea9726b	0.33095106
1	0x3e5f7be4	0.21824604
2	0xbe3dae97	-0.18523632
3	0x3e9243a5	0.28567234
4	0xbe0a84d3	-0.13527231
5	0x3c4b7453	0.012417871
6	0xbe59f350	-0.21284223
7	0x3e1ccfcc	0.15313643
8	0x3e806abd	0.25081435
9	0xbee000c2	-0.43750578
10	0x3e7e7e3c	0.24852842
11	0x3cfb227e	0.030656096
12	0x3e6b848d	0.22999783
13	0xb9e28df5	-0.00043211845
14	0x3dd2a9d1	0.10286296
15	0xbd62b984	-0.055352703
16	0x3e6adb80	0.22935295
17	0x3c0b302a	0.00849537
18	0xbe84b746	-0.25921077
19	0x3db0c768	0.08631784
20	0xbd9c6dc1	-0.076381214
21	0xbd445b29	-0.0479385
22	0xbe29129b	-0.16511004
23	0x3eb4dd59	0.35325125
24	0xbe31dc92	-0.17369297
25	0xbe7a5278	-0.24445522
26	0xbe0b8754	-0.13625842
27	0xbe8eda98	-0.2790115
28	0x3cb7e52e	0.022448149
29	0xbeaecb58	-0.34139514
30	0x3eaa3170	0.33240843
31	0xbe8b4049	-0.27197483
32	0x3e8c8ea9	0.2745259
33	0x3d88ed87	0.0668593
34	0xbd42bb5f	-0.047541972
35	0x3e80ad6b	0.25132307
36	0xbc9b77c6	-0.01897801
37	0x3e65accd	0.224292
38	0xbc6bcb28	-0.014391698
39	0xbe233c0a	-0.15940872
40	0x3d12c6c7	0.0358341
41	0xbe1bcefd	-0.15215679
42	0x3df33d5d	0.118769385
43	0x3e847682	0.25871664
44	0x3e176a5a	0.14786664
45	0xbe5332b4	-0.2062481
46	0x3e9b9cac	0.3039297
47	0x3de706b0	0.112805724
48	0x3e803288	0.25038552
49	0xbe0e9acc	-0.13926238
50	0xbe8a4fc0	-0.2701397
51	0xbd9559b0	-0.07292497
52	0xbe67b1db	-0.2262644
53	0x3ec66586	0.3874933
54	0x3e391869	0.18075718
55	0x3df8d4df	0.12149977
56	0x3d6b5f12	0.057463713
57	0xbc06976a	-0.008214811
58	0x3e87fe0f	0.2656102
59	0xbea010b2	-0.31262738
60	0xbc556e42	-0.013026776
61	0xbe8f5712	-0.27996117
62	0x3dd0d778	0.101973474
63	0xbe2a1026	-0.16607723
64	0x3e0ca37a	0.13734236
65	0xbd40401e	-0.046936147
66	0x3ea6944d	0.3253502
67	0xbe56cf46	-0.20977506
68	0xbe357c20	-0.17723131
69	0xbe78013b	-0.2421922
70	0x3e9c94c8	0.3058226
71	0x3de6a39f	0.11261677
72	0x3f0f0ac7	0.5587582
73	0xbe84726e	-0.25868553
74	0xbe9f2557	-0.31083176
75	0xbe80cc05	-0.25155655
76	0xbe3b894d	-0.18314095
77	0x3e5f2daa	0.21794763
78	0x3dd2a057	0.10284489
79	0x3ea14eb4	0.31505358
80	0xbdf16ce0	-0.117883444
81	0xbea438da	-0.32074624
82	0x3e5ed7ac	0.2176196
83	0xbdccfaa0	-0.100087404
84	0x3e8c49c5	0.27400032
85	0xbd63f145	-0.055650014
86	0x3e6fcb61	0.23417427
87	0xbe740899	-0.23831405
88	0xbe284dde	-0.16435954
89	0x3e2727bd	0.16323753
90	0x3e095b42	0.13413718
91	0xbe07fbf2	-0.13279703
92	0x3e4b7ec1	0.19872572
93	0x3e70dbcd	0.23521347
94	0xbe86c00f	-0.26318404
95	0xbe2a5b5e	-0.16636416
96	0x3eaf3b62	0.34224993
97	0xbdc22b65	-0.09480933
98	0xbe0b2488	-0.13588154
99	0xbf9c4d66	-1.221112
100	0xbd87474c	-0.06605396
101	0x3e3f98af	0.18710588
102	0xbe504a4b	-0.2034084
103	0xbf3728b1	-0.71546465
104	0x3ddfeb76	0.109335825
105	0xbf029815	-0.5101331
106	0xbe9a14a4	-0.30093873
107	0x3c35af62	0.011089178
108	0xbecae93f	-0.39631078
109	0xbe3e5b07	-0.18589412
110	0x3ef3ad6f	0.47593257
111	0x3d0cb98b	0.034356635
112	0x3e3a156a	0.18172231
113	0xbe9bba48	-0.3041556
114	0xbe2f4b22	-0.17118505
115	0xbd70220b	-0.058626216
116	0x3d9fd23c	0.07803771
117	0xbf148c92	-0.58026993
118	0xbe8e5550	-0.27799463
119	0xbedd787e	-0.4325599
120	0x3dbeb4b0	0.09311807
121	0xbe05db4a	-0.13071933
122	0xbda3118a	-0.0796233
123	0xbe8c79dd	-0.27436724
124	0xbeac3186	-0.33631533
125	0xbea26bc8	-0.31722856
126	0xbe592aff	-0.21207808
127	0xbe832312	-0.25612694
128	0x3ebaa68e	0.36455196
129	0xbda25710	-0.07926762
130	0x3e98b4e8	0.2982552
131	0x3e07d055	0.13263066
132	0xbeaeb06b	-0.3411897
133	0x3e74aee6	0.23894843
134	0xbdff56d5	-0.12467734
135	0xbf07e785	-0.53087646
136	0xbe80bf09	-0.25145748
137	0xbed4e02e	-0.41577286
138	0x3d048a38	0.03235838
139	0xbd1e97ca	-0.038718976
140	0x3e6eb4f3	0.23311214
141	0xbe9e8e60	-0.30967999
142	0x3ec0c50e	0.3765034
143	0xbe77bf81	-0.24194147
144	0xbe051683	-0.12996869
145	0x3d99480a	0.074844435
146	0x3e2690de	0.162662
147	0x3eab6e37	0.33482525
148	0x3e9da89c	0.307927
149	0xbea5c79b	-0.3237885
150	0x3dd1fe4f	0.10253584
151	0xbe291588	-0.1651212
152	0xbd1b22ef	-0.037875112
153	0xbef83192	-0.4847532
154	0x3e9f752a	0.31144077
155	0xbe900658	-0.2812984
156	0x3e469972	0.19394472
157	0x3e006583	0.12538724
158	0x3d72863d	0.05921005
159	0xbe60c4bf	-0.21950053
160	0x3eadf5cf	0.339766
161	0x3dab1175	0.08352939
162	0xbd83e716	-0.064405605
163	0xbea8429f	-0.32863328
164	0x3e465e70	0.19371963
165	0xbd93ad41	-0.0721078
166	0xbde9074b	-0.11378344
167	0x3ed41a63	0.4142638
168	0x3df49845	0.119431056
169	0xbe325907	-0.17416774
170	0xbe401f39	-0.1876191
171	0x3d54b1ff	0.051927563
172	0x3e95b5ec	0.29240358
173	0xbd85206c	-0.065003246
174	0xbe10e651	-0.14150359
175	0xbd14beb9	-0.0363147
176	0xbe454a0a	-0.19266525
177	0x3e58513e	0.21124741
178	0x3e96aad4	0.29427207
179	0xbed9bfe4	-0.42529213
180	0x3da4db35	0.08049623
181	0x3e05149c	0.12996143
182	0x3bf10046	0.007354769
183	0xbe560584	-0.20900542
184	0x3e162245	0.1466151
185	0x3e0ae498	0.13563764
186	0x3de67e3f	0.11254548
187	0xbdb5462f	-0.08851277
188	0xbddc9495	-0.10770527
189	0x3d168226	0.036745213
190	0xbd86ebf8	-0.06587976
191	0xbe18f513	-0.14937238
192	0x3e61cb44	0.22050196
193	0x3e9dcced	0.30820408
194	0xbd5f74e1	-0.054554824
195	0xbdb567a1	-0.08857656
196	0x3c629d09	0.013831385
197	0xbc683fd7	-0.014175377
198	0x3e2532f4	0.16132718
199	0x3e05958c	0.13045329
200	0xbe923485	-0.28555694
201	0xbe02328e	-0.12714598
202	0x3ea802fc	0.32814777
203	0x3e27dce7	0.16392861
204	0xbd2badc0	-0.041913748
205	0xbe4c8381	-0.1997204
206	0xbe5c66ba	-0.21523562
207	0xbed208d0	-0.41022348
208	0xbd680263	-0.0566429
209	0x3d961f67	0.07330208
210	0x3e7a954e	0.24471018
211	0x3e53bac9	0.20676722
212	0xbe8e2086	-0.27759188
213	0xbe1072ac	-0.14106244
214	0xbcc247d1	-0.023715885
215	0x3ec2fa3c	0.3808154
216	0x3e1e66e5	0.15468939
217	0xbbd1e80e	-0.006405837
218	0x3e88a36a	0.26687175
219	0xbd71b67f	-0.059011932
220	0xbe2c5349	-0.16828646
221	0x3e9cd628	0.30632138
222	0xbdf9c843	-0.121964
223	0xbc57f17c	-0.013180133
224	0xbeb85ea4	-0.36009705
225	0x3eb603f7	0.355499
226	0x3e6a1c7c	0.22862428
227	0x3ddeb805	0.10874943
228	0xbe9de7ad	-0.30840817
229	0xbebbf71c	-0.36711967
230	0xbea0585d	-0.31317416
231	0x3e4636e7	0.19356881
232	0x3e00bc81	0.12571909
233	0x3e88fa4f	0.2675347
234	0x3eaa6471	0.33279756
235	0x3e54ba72	0.20774248
236	0xbd7aa178	-0.061189145
237	0xbea14ccf	-0.31503913
238	0xbe8fe7ef	-0.2810664
239	0xbebe4e79	-0.37169245
240	0x3e08e337	0.13367926
241	0xbeb051b3	-0.34437332
242	0xbda55eed	-0.08074746
243	0xbea8c5b8	-0.32963347
244	0xbe9c84ec	-0.3057016
245	0xbeed5729	-0.4635556
246	0xbe6151c7	-0.22003852
247	0x3e0d4797	0.1379684
248	0xbecb3a4a	-0.3969291
249	0x3ebeadb6	0.37241906
250	0xbcac74c8	-0.02105178
251	0xbe83acb5	-0.25717703
252	0xbd454287	-0.04815915
253	0xbe35be9d	-0.17748494
254	0xbdbd613b	-0.09247061
255	0xbeb803d1	-0.35940412

conv_layers.0.bias f4 [64]
0	0xbda53388	-0.080664694
1	0x3e73d1cb	0.23810498
2	0xbdaf788a	-0.08567913
3	0xbd17b4c9	-0.037037645
4	0x3e60cf69	0.2195412
5	0xbe71a2a0	-0.23597193
6	0x3c6ad848	0.014333792
7	0x3ef53c33	0.4789749
8	0x3d423e17	0.047422495
9	0x3e8b1e8c	0.27171743
10	0xbe80af85	-0.2513391
11	0x3ebde84b	0.37091288
12	0x3e16ef82	0.14739802
13	0x3e958d21	0.29209235
14	0x3e289f60	0.16467047
15	0x3ed18047	0.4091818
16	0xbe4c0558	-0.19923913
17	0x3d5a45ef	0.05328935
18	0xbe101a68	-0.14072573
19	0xbe63a0a6	-0.22229251
20	0xbc8ab986	-0.016934168
21	0xbeda8a48	-0.42683625
22	0x3ebe4f0e	0.3716969
23	0xbad37304	-0.00161323
24	0xbc82fd3a	-0.015989888
25	0x3e3bc961	0.18338539
26	0xbd3c77a5	-0.04601254
27	0xba274814	-0.0006381285
28	0xbb2df651	-0.002654452
29	0xbdc2ff85	-0.09521393
30	0xbe880799	-0.26568297
31	0x3d949b95	0.072562374
32	0x3eaedcff	0.34152982
33	0x3ee6e6a9	0.45097855
34	0x3e8b6447	0.27224943
35	0xbeaf8c7f	-0.34286878
36	0x3c39d27f	0.01134169
37	0x3efdbd37	0.49558422
38	0x3e512234	0.20423204
39	0xbbd7b699	-0.0065830466
40	0x3e647501	0.22310258
41	0xbe9e55b7	-0.3092477
42	0xbdc65552	-0.09684242
43	0x3eeb39cc	0.45942533
44	0xbc574283	-0.013138416
45	0x3b8b9256	0.004259388
46	0xbe61bcde	-0.22044703
47	0xbe252ce5	-0.16130407
48	0x3d86256b	0.06550106
49	0xbea3b438	-0.31973433
50	0xba5d284f	-0.00084364874
51	0x3ea96708	0.3308642
52	0xbecdd979	-0.4020498
53	0x3eab4704	0.33452618
54	0xbe978e6f	-0.29600856
55	0xbe3ae4fc	-0.18251413
56	0x3e112e66	0.14177856
57	0x3ea3b3cc	0.31973112
58	0xbdf5df3b	-0.120054685
59	0xbbce5326	-0.006296533
60	0xbed11ddd	-0.40843096
61	0xbe6453a3	-0.2229753
62	0xbda9e02d	-0.08294711
63	0x3b965858	0.004588168

conv_layers.2.weight f4 [64, 64, 2, 2]
0	0x3c849e9e	0.016188916
1	0xbd5e99e6	-0.054345988
2	0x3d859703	0.06522944
3	0x3d59c596	0.05316695
4	0xbd2644ce	-0.04059296
5	0xbc6b727b	-0.014370556
6	0x3cc1e6d3	0.023669636
7	0x3c87bf01	0.01657057
8	0xbd809bdc	-0.06279728
9	0xbd0d6743	-0.034522306
10	0x3d45ecfe	0.048321716
11	0xbd27b0c8	-0.040940076
12	0x3dff9d71	0.124812014
13	0x3c67924c	0.014134001
14	0x3cdea21f	0.027176915
15	0x3d963351	0.073340066
16	0xbbd3867b	-0.0064552403
17	0xbcbd7694	-0.023127832
18	0x3b31bc37	0.0027120241
19	0x3d9bf418	0.076149166
20	0xbdd75c61	-0.10515667
21	0xbdb885a4	-0.09009865
22	0xbe330f21	-0.1748624
23	0xbc70ad6a	-0.014689783
24	0xbcc2b9f3	-0.023770308
25	0xbbe4d7f3	-0.006983751
26	0x3cb109b4	0.021611072
27	0xbb9b2155	-0.004734198
28	0x3d260e14	0.04054077
29	0xbdb863b5	-0.090033926
30	0xbc8654cb	-0.016397854
31	0x3d5aebd4	0.05344756
32	0x3d9b58b3	0.075852774
33	0x3c3c6454	0.011498529
34	0xbd8a09c1	-0.06740142
35	0xbd71a791	-0.058997694
36	0x3cf791ba	0.030220855
37	0x3c9a434f	0.018830923
38	0xbdc2f292	-0.09518923
39	0x3d38624d	0.045015622
40	0x3d316a1d	0.043314088
41	0xbcfee942	-0.031117085
42	0xbbe8fed7	-0.0071104574
43	0xbba9b13b	-0.005178598
44	0xbde82a8b	-0.113362394
45	0x3d0139ce	0.031549267
46	0xbdd35e38	-0.10320705
47	0x3d05bd49	0.03265122
48	0xbe13e822	-0.1444402
49	0xbe253d44	-0.16136652
50	0xbda38ae6	-0.07985477
51	0x3da86d07	0.0822392
52	0x3daa090b	0.08302506
53	0x3de7eb89	0.11324222
54	0x3d55a574	0.05215974
55	0x3d8a2ec9	0.06747205
56	0x3d1f553e	0.038899653
57	0x3da3a0c8	0.07989651
58	0xbd2ebf19	-0.042662714
59	0x3da1adc3	0.078944705
60	0x3cddc6e0	0.02707237
61	0xbd346c70	-0.044048727
62	0xbe45ddf7	-0.19322954
63	0xbdeebf30	-0.1165756
64	0x3b729d7d	0.003702014
65	0xbd7bf32d	-0.061511207
66	0x3d13dd63	0.036099803
67	0x3b890b1e	0.0041822335
68	0xbd0b78c3	-0.034050714
69	0x3cfa4a87	0.030553116
70	0xbd42f221	-0.047594193
71	0x3d31c925	0.043404717
72	0x3d34bc61	0.044124965
73	0xbdb5aaa6	-0.08870439
74	0x3dd46ea7	0.10372668
75	0x3da974c1	0.08274222
76	0x3d62ac65	0.05534019
77	0xbdd8b834	-0.10582009
78	0xbd5c33ad	-0.05376022
79	0x3ce4e883	0.027942901
80	0xbc6b7504	-0.01437116
81	0x3d67b0be	0.05656504
82	0x3cd54bf4	0.026037194
83	0x3d803a02	0.06261064
84	0xbdcf0215	-0.10107819
85	0xbd0e2920	-0.03470719
86	0x3b6488bd	0.0034871541
87	0xbe0fde79	-0.1404971
88	0xbd82730f	-0.06369602
89	0xbb60ea9a	-0.003431952
90	0xbcceca99	-0.02524309
91	0xbdcf24f1	-0.10114468
92	0x3c3a3c4b	0.011366914
93	0x3d3487a9	0.044074688
94	0x3db3ab69	0.08772928
95	0x3ddba0aa	0.107240036
96	0xbde790b2	-0.11306895
97	0xbcbee3c5	-0.023301968
98	0x3d979d80	0.074030876
99	0x3d8282bf	0.06372594
100	0x3d12818d	0.03576808
101	0x3c4d2666	0.012521362
102	0x3d281573	0.04103608
103	0x3dccea69	0.10005648
104	0x3df56d55	0.11983744
105	0x3c622662	0.0138030965
106	0x3b950a4c	0.0045483466
107	0xbdd22688	-0.102612555
108	0x3b037aff	0.0020062325
109	0x3dbe8ee2	0.093045965
110	0x3d0febce	0.03513699
111	0x3d8cd940	0.06877375
112	0xbd13379e	-0.035941713
113	0x3c355040	0.011066496
114	0x3e01079e	0.12600562
115	0xbcf67981	-0.030087234
116	0x3dd69fa4	0.10479668
117	0xbc833d06	-0.01602031
118	0xbde079ba	-0.109607175
119	0x3d12aeff	0.03581142
120	0xbd64677e	-0.05576276
121	0xbb89e38b	-0.0042080334
122	0x3b59f7ac	0.0033259196
123	0xbd0487cb	-0.032356065
124	0xbdf63c6f	-0.120232455
125	0x3c40acb6	0.0117599275
126	0xbdaf3b43	-0.08556225
127	0xbdb71e48	-0.089413226
128	0xbc9b68d4	-0.018970884
129	0x3dc42639	0.09577603
130	0xbcecd3cf	-0.028909592
131	0xbd48c8f9	-0.049019787
132	0xbda4b622	-0.080425516
133	0xbe335f94	-0.17516929
134	0xbd94c133	-0.07263412
135	0xbc01e179	-0.007927292
136	0xbd302e2d	-0.043012787
137	0x3d08fcbd	0.033444155
138	0xbb64b8af	-0.003490012
139	0x3c990ab4	0.018681861
140	0xbbc683a8	-0.006058175
141	0xbc30cd4f	-0.010791137
142	0x3cc86f06	0.024467003
143	0x3d5319f4	0.051538423
144	0x3a879fb2	0.0010347276
145	0x3aa48b73	0.0012553766
146	0xba9711f9	-0.0011525742
147	0x3d9f5ff9	0.07781977
148	0xbe2cca39	-0.16874017
149	0x3dad389f	0.08458065
150	0xbdb98920	-0.09059358
151	0xbc178f8f	-0.009250536
152	0xbd1a397d	-0.03765248
153	0x3c831008	0.015998855
154	0x3cfcf484	0.030878313
155	0xbe1342f3	-0.14381008
156	0xbd2eb120	-0.04264939
157	0x3c352e49	0.0110583985
158	0xbd1a3606	-0.037649177
159	0x3dcc7725	0.099836625
160	0x3c94339b	0.018091014
161	0x3ce104e9	0.027468162
162	0x3cc5ed85	0.02416111
163	0x3d5b523b	0.053545218
164	0xbe0a476d	-0.1350381
165	0xbd5706da	-0.05249677
166	0xbd4b1b3a	-0.049586512
167	0x3cd1ea0d	0.0256243
168	0x3c677d38	0.014128976
169	0xbc532c35	-0.012888958
170	0xbcaba6a4	-0.020953484
171	0xbb0a2832	-0.0021081087
172	0x3d804e23	0.062649034
173	0x3cc2ae26	0.023764681
174	0x3d435e12	0.047697134
175	0x3c2841d7	0.010269604
176	0x3e45320e	0.19257376
177	0x3dbee1b2	0.09320392
178	0x3b67eae3	0.0035387806
179	0x3e1d1ffc	0.15344232
180	0xbc690528	-0.014222421
181	0x3dbd7f4e	0.09252797
182	0xbd7c0f53	-0.06153805
183	0xbd617db3	-0.055051517
184	0xbd100d2f	-0.035168823
185	0xbcac1d94	-0.021010198
186	0x3d45467e	0.04816293
187	0xbdfbef9e	-0.12301563
188	0x3b6195b0	0.0034421496
189	0xbd8650c6	-0.06558375
190	0x3d05e894	0.032692507
191	0xbc1c7e91	-0.00955166
192	0xbc368f31	-0.011142538
193	0xbde85986	-0.113452
194	0xbd988767	-0.07447701
195	0xbc7ff2f4	-0.015621889
196	0xbd1f9382	-0.038959034
197	0xbcb94168	-0.022614196
198	0x3d2682ca	0.040652074
199	0xbd440aae	-0.047861747
200	0x3b34f509	0.0027611873
201	0xbda0ba61	-0.07848049
202	0xbd0af690	-0.033926547
203	0xbda3b8df	-0.07994246
204	0xbdeefbbf	-0.116691105
205	0xbd80980b	-0.06279
206	0xbd2825bf	-0.041051622
207	0xbc91d9ec	-0.017804109
208	0x3c7e7791	0.015531437
209	0x3d8356b3	0.06413021
210	0x3ce793dd	0.028268749
211	0xbcc2028f	-0.02368286
212	0xbcec6a34	-0.028859235
213	0xbcf2a183	-0.02961803
214	0xbd825314	-0.06363502
215	0x3e2ccd9b	0.16875307
216	0x3d57aaa2	0.052652963
217	0x3d006e73	0.031355333
218	0x3da8f596	0.08249967
219	0x3d8f2690	0.06989777
220	0xbb988934	-0.0046550278
221	0xbd17076b	-0.03687231
222	0x3d78abeb	0.06071083
223	0x3b869608	0.0041072406
224	0xbd833092	-0.064057484
225	0x3d3e16f1	0.046408597
226	0x3c3150f2	0.0108225215
227	0x3d35db7a	0.044398762
228	0x3d40fc95	0.04711588
229	0xbd8813e8	-0.06644422
230	0xbc09d567	-0.0084126955
231	0x3d679e88	0.05654767
232	0x3bd49563	0.006487535
233	0x3cf91eeb	0.03041025
234	0xbc6a5e88	-0.014304765
235	0x3c7e32e4	0.015515063
236	0x3e0b20d8	0.13586748
237	0xbd8cdef4	-0.068784624
238	0x3d19d6f7	0.037558522
239	0xbd59969c	-0.053122148
240	0x3d17c565	0.037053484
241	0x3d2a6010	0.04159552
242	0x3c852f95	0.01625804
243	0x3d6625cc	0.05618839
244	0x3cf28e22	0.02960879
245	0x3dbc4f55	0.09194819
246	0x3d0efe6c	0.034910604
247	0x3b845ec6	0.004039618
248	0xbcfd1047	-0.03089155
249	0x3c9b1a5d	0.01893347
250	0xbcaae049	-0.0208589
251	0xbdc0a625	-0.094066896
252	0x3c4e5abd	0.012594876
253	0x3d4d44c2	0.0501144
254	0x3ccc9691	0.02497414
255	0x3d96d062	0.073639646

conv_layers.2.bias f4 [64]
0	0x3c8cbb4b	0.017179152
1	0x3c908c6e	0.017645087
2	0xbd38193c	-0.04494594
3	0x3cc79b0f	0.02436593
4	0xbc36bfc0	-0.011154115
5	0xbde10100	-0.10986519
6	0x3d5b3eb3	0.05352659
7	0x3e2d76a5	0.1693979
8	0xbd9513c5	-0.07279161
9	0x3c9b5b78	0.018964514
10	0xbd29a287	-0.041414764
11	0x3d810181	0.06299115
12	0xbe0cf8b2	-0.13766745
13	0xbd15dedd	-0.036589492
14	0x3d0acb23	0.033885133
15	0x3dbee9b9	0.09321923
16	0x3cfa91d2	0.03058711
17	0xbd312762	-0.04325045
18	0x3da3bf20	0.079954386
19	0xbd9d0b99	-0.07668228
20	0xbd239c48	-0.039943963
21	0xbcf87f10	-0.030334026
22	0xbcead7cf	-0.028667359
23	0x3db392b7	0.08768218
24	0xbce8d4ac	-0.028421722
25	0x3d07536f	0.033038553
26	0xbdc9bb3c	-0.09850165
27	0x3d90d272	0.07071389
28	0x3dce636c	0.10077557
29	0x3d68b7a0	0.056815743
30	0xbe0a0345	-0.1347781
31	0xbd870aa1	-0.06593824
32	0xbdd925d1	-0.10602916
33	0xba0b7842	-0.0005320349
34	0x3df576ae	0.11985527
35	0x3dcda2cd	0.100408174
36	0x3ccdf8af	0.025142996
37	0xbcb9930c	-0.022653125
38	0x3d9fd61e	0.078045115
39	0x3d96bb69	0.073599644
40	0xbce743d1	-0.02823058
41	0xbc3858c8	-0.011251636
42	0x3d42341f	0.047412988
43	0x3d577c07	0.052608516
44	0x3d2c8be6	0.042125605
45	0x3dd8eb7a	0.105917886
46	0x3bee7e6d	0.0072782547
47	0x39f0c7c2	0.00045925198
48	0x3d1e7fe1	0.038696174
49	0xbd8a83d5	-0.06763426
50	0xbc99472c	-0.018710695
51	0x3d5e83e5	0.054325003
52	0xbdc0907f	-0.094025604
53	0x3d9e4097	0.07727163
54	0x3deecc61	0.11660076
55	0xbb1f888e	-0.0024342868
56	0x3d25ce98	0.040480226
57	0x3bd294ae	0.0064264154
58	0x3da56251	0.08075393
59	0x3ccb946c	0.024851047
60	0x3e048a40	0.12943363
61	0x3d99cf6d	0.075102665
62	0x3db366b6	0.08759825
63	0xbcb2df0e	-0.021834876

conv_layers.4.weight f4 [32, 64, 2, 2]
0	0x3dc47c41	0.09594012
1	0x3da94b7f	0.08266353
2	0x3cc18c11	0.02362636
3	0x3da92b28	0.082601845
4	0x3d1a0e06	0.03761103
5	0x3cdd2414	0.026994742
6	0x3cd4a4aa	0.025957424
7	0xbcb62eb0	-0.02223906
8	0x3d36bef6	0.04461571
9	0x3d40edd4	0.04710181
10	0xba354b8a	-0.0006915858
11	0xbd56c884	-0.05243732
12	0xbdc7fc07	-0.09764867
13	0xbd071588	-0.03297952
14	0xbdd5198e	-0.10405265
15	0x3cc9e7e8	0.024646714
16	0x3dd9bfe7	0.106323056
17	0x3d8fd941	0.0702386
18	0x3dbadf03	0.09124567
19	0x3d8ba83d	0.06819198
20	0x3caae0e8	0.020859197
21	0xbd1791e2	-0.03700436
22	0x3de3f8a3	0.11131408
23	0xbda3d5c8	-0.0799976
24	0x3e06678e	0.1312544
25	0xbd1612e3	-0.036639106
26	0x3d8d2be2	0.068931356
27	0xbcda8750	-0.02667585
28	0xbd524505	-0.051335353
29	0x3cb67afb	0.022275439
30	0xbe089fc3	-0.13342194
31	0xbdef2791	-0.116774686
32	0x3d659b79	0.056056473
33	0x3da5df47	0.080992274
34	0x3d2c5bd1	0.04207975
35	0xbd3f546c	-0.04671137
36	0x3dbaac40	0.09114885
37	0x3bbe8826	0.00581457
38	0x3d5ac246	0.05340793
39	0x3d98350e	0.074319944
40	0x3be1e2ee	0.006893507
41	0x3dd9e001	0.106384285
42	0x3d89788e	0.06712447
43	0x3cb656b2	0.022258136
44	0xbce518a9	-0.02796586
45	0xbcaf6ca0	-0.021414101
46	0xbcb001fb	-0.02148532
47	0x3d7d301a	0.06181345
48	0x3d8fdd67	0.07024651
49	0x3d7f59f9	0.062341664
50	0x3c067b99	0.008208179
51	0x3dd5462c	0.10413775
52	0x3cbccd13	0.023047006
53	0xbc66eafd	-0.0140941115
54	0xbd0984fe	-0.033574097
55	0x3d7bd5e4	0.06148328
56	0xbd250431	-0.0402872
57	0x3d9a41b0	0.0753206
58	0x3d53d7b2	0.051719375
59	0x3d937a91	0.07201112
60	0x3c0785fa	0.008271689
61	0x3bf0935a	0.0073417844
62	0x3cc25109	0.023720281
63	0xbc68b548	-0.014203377
64	0xbc5ceba6	-0.013483917
65	0xbdcc2fb6	-0.09970038
66	0xbc6d6eda	-0.014491761
67	0x3d7552d1	0.059893433
68	0xbda6f8dd	-0.08152936
69	0xbd88c196	-0.066775486
70	0x3d941dbc	0.07232234
71	0xbaed03c8	-0.0018082792
72	0xbe08ba71	-0.13352372
73	0xbd998b2a	-0.074972466
74	0x3bab6d3c	0.0052315276
75	0xbd7422a7	-0.05960336
76	0x3c81e0c8	0.015854254
77	0xbdcf5e8c	-0.10125455
78	0x3da8fea0	0.08251691
79	0x3d8977dc	0.067123145
80	0xbcc7dea5	-0.024398157
81	0x3d73e1f0	0.059541643
82	0x3c8b629c	0.017014794
83	0xbd3cddfc	-0.04611014
84	0xbcea402f	-0.028595058
85	0x3d4582c2	0.048220403
86	0x3cde336d	0.027124131
87	0xbdcf3cb4	-0.10119
88	0x3c84c8fd	0.01620912
89	0x3ce4316f	0.027855603
90	0x3d551b1c	0.052027807
91	0xbcc8197f	-0.02442622
92	0x3d0fad3a	0.03507731
93	0xbe1326a5	-0.1437021
94	0xbcd4ee9e	-0.025992688
95	0x3d79e73d	0.06101154
96	0xbd1d4b5e	-0.038401954
97	0x3da1f817	0.079086475
98	0xbd5695a7	-0.052388813
99	0x3ce92644	0.02846063
100	0xbb8c431d	-0.0042804615
101	0xbd74821e	-0.059694402
102	0x3dda144d	0.10648403
103	0x3af5c040	0.0018749312
104	0x3ccd3521	0.025049748
105	0x3d218b1e	0.039439313
106	0xbc7e153e	-0.015507994
107	0x3df66916	0.12031762
108	0xbdf36959	-0.11885328
109	0xbd220883	-0.0395589
110	0x3caba2f0	0.020951718
111	0x3bc340ab	0.0059586368
112	0xbd1c00d3	-0.038086724
113	0xbd7844fc	-0.060612664
114	0x3d54a53b	0.05191539
115	0x3d8f1a0a	0.069873884
116	0xbaa96e5f	-0.001292657
117	0xbcb07267	-0.021538926
118	0x3c972d78	0.018454298
119	0xbd0c686f	-0.034279283
120	0xb9d25518	-0.0004011772
121	0x3d878d46	0.06618743
122	0x3d832bd6	0.064048454
123	0xbacf670c	-0.0015823557
124	0x3e603d36	0.2189835
125	0x3cd6acb2	0.026205394
126	0x3dd7e2cc	0.10541305
127	0x3df188c0	0.11793661
128	0x3d476e15	0.048688967
129	0x3cad1809	0.021129625
130	0x3df47ce9	0.11937887
131	0x3dac0a92	0.084004536
132	0xbdcf1b9b	-0.10112687
133	0xbd3c2a0b	-0.045938533
134	0xbd273708	-0.040823966
135	0xbbd1d69c	-0.0064037573
136	0xbcb3a7f3	-0.02193067
137	0xbd1b9e1b	-0.037992578
138	0xbd9fabc4	-0.077964336
139	0xbd941e9e	-0.07232402
140	0x3d216d71	0.039411012
141	0x3d9a7d5a	0.0754344
142	0xbbffec2f	-0.0078101377
143	0xbc01dd81	-0.007926346
144	0xbd6dea0e	-0.05808454
145	0xbca236f6	-0.019801598
146	0xbdb8633f	-0.09003305
147	0x3cf6058c	0.030031942
148	0x3d479376	0.048724614
149	0x3dfab15a	0.122408584
150	0xbd12daa4	-0.035853043
151	0xba72741d	-0.00092488696
152	0xba8d40c2	-0.0010776746
153	0xbdd259e0	-0.102710485
154	0xbdebfa0b	-0.11522301
155	0xbd96b34a	-0.073584154
156	0xbc88159d	-0.016611869
157	0x3d4daa1b	0.050211053
158	0x3ae01b16	0.0017097916
159	0x3df4c68a	0.11951931
160	0xbcbc9c22	-0.023023669
161	0x3c10b4ab	0.008832137
162	0x3d260699	0.040533636
163	0x3d918d09	0.071069784
164	0x3ca8e307	0.020616068
165	0xbbc2615b	-0.005932016
166	0x3cc86dbd	0.02446639
167	0x3cfac1c9	0.030609982
168	0xbd5a5f75	-0.05331369
169	0xbde0ac9c	-0.109704226
170	0x3da7f1eb	0.08200439
171	0xbc968081	-0.018371822
172	0xbc31cf0b	-0.010852586
173	0xbdcfd903	-0.101488136
174	0x3e0310d7	0.12799393
175	0xbd731f64	-0.05935611
176	0x3dae62b1	0.08514918
177	0x3be58781	0.0070046787
178	0x3da51310	0.080602765
179	0x3d4a1928	0.049340397
180	0xbe01e2cc	-0.12684172
181	0xbda02e15	-0.078212894
182	0xbd8b1aa3	-0.0679219
183	0xbd0857e1	-0.033286933
184	0x3d3ec4aa	0.046574272
185	0x3cc2a4e0	0.02376026
186	0x3e0c3495	0.13691933
187	0xbd55f487	-0.052235153
188	0xbd7f1f11	-0.062285487
189	0xbc1dbab3	-0.009627032
190	0x3ba545fc	0.005043743
191	0x3c9d0026	0.01916511
192	0x3cb31c0d	0.021863962
193	0x3cd6b9db	0.02621167
194	0x3c0146de	0.007890431
195	0xbd43a9f4	-0.0477695
196	0xbcfb8985	-0.030705223
197	0x3d63b3b3	0.055591296
198	0x3c7b4c37	0.015337995
199	0x3d6c1b0b	0.057642978
200	0xbe02f250	-0.12787747
201	0xbde8aa00	-0.1136055
202	0x3ddff523	0.10935428
203	0xbd460b97	-0.048350897
204	0x3cc083a4	0.023500271
205	0xbd44be80	-0.048033237
206	0x3bedd788	0.0072583593
207	0x3d428c7e	0.047497265
208	0x3dcd328c	0.10019407
209	0xbc78ca52	-0.015184956
210	0x3d918ba5	0.07106713
211	0x3d3afd2b	0.045651596
212	0xbbc9ebd9	-0.0061621484
213	0x3c725ee1	0.014793129
214	0x3da4b51c	0.08042356
215	0x3ce9e57c	0.02855181
216	0xbd96ea4c	-0.07368907
217	0x3daf71cd	0.08566628
218	0xbd0e2ff0	-0.034713686
219	0x3d0639f1	0.0327701
220	0xbde88e46	-0.113552615
221	0x3d4ecedd	0.05049025
222	0x3d8a930a	0.06766327
223	0xbc796c3d	-0.01522356
224	0xbce0b708	-0.027431026
225	0x3c5c6a98	0.013453148
226	0xbdfac669	-0.12244875
227	0xbd2a4d84	-0.04157783
228	0x3ca76336	0.02043305
229	0xbd92f636	-0.07175867
230	0xbc83bdcc	-0.016081713
231	0xbd820373	-0.06348314
232	0xbc716fe0	-0.014736146
233	0xbda8ae18	-0.08236331
234	0xbcb21405	-0.021738062
235	0xbd41afd7	-0.047286835
236	0xbdc48078	-0.09594816
237	0xbdb84dad	-0.089991905
238	0x3bb7ebb9	0.005612817
239	0x3d729a3f	0.05922913
240	0x3cc93a9d	0.024564082
241	0xbdf2bd5d	-0.118525244
242	0xbd3ad660	-0.0456146
243	0x3c325852	0.010885315
244	0x3e399e00	0.18126678
245	0x3deac83b	0.11463972
246	0x3ce793ad	0.02826866
247	0x3cce9e91	0.025222095
248	0x3be42413	0.006962308
249	0x3cb7abfe	0.02242088
250	0xbcd7bdd0	-0.026335627
251	0xbcbc7737	-0.023006065
252	0x3ca107bb	0.019657006
253	0x3ce068d4	0.027393736
254	0x3d24a515	0.040196497
255	0xbc9589d2	-0.018254194

conv_layers.4.bias f4 [32]
0	0xbdd1fb07	-0.10252958
1	0x3d404a58	0.0469459
2	0x3da08186	0.07837205
3	0x3de79bd4	0.11309019
4	0xbca03dc6	-0.019560706
5	0x3d973395	0.07382885
6	0x3dafd240	0.08585024
7	0xbd2506d1	-0.040289704
8	0x3d30122e	0.042986088
9	0x3d05888e	0.03260093
10	0xbccd6e59	-0.025077032
11	0xbdd308c9	-0.1030441
12	0xbd7c3139	-0.06157038
13	0x3d947280	0.07248402
14	0xbd0d7549	-0.03453568
15	0x3cd1abe7	0.025594665
16	0x3cf05684	0.029338129
17	0x3d5678f8	0.05236146
18	0x3db9d866	0.09074478
19	0xbd0a15bc	-0.033712134
20	0xbdcc21ea	-0.09967406
21	0x3dbc38b8	0.09190506
22	0xbc9d93eb	-0.019235572
23	0xbd829b38	-0.06377262
24	0x3daee163	0.08539083
25	0x3d54ac79	0.051922295
26	0x3d3460e2	0.044037707
27	0x3aba11cd	0.0014195979
28	0x3cb36289	0.021897571
29	0x3d99a18a	0.07501514
30	0xbc5838a8	-0.013197102
31	0xbd81d5a4	-0.06339577

fc_state.0.weight f4 [256, 128]
0	0x3c8f5d9c	0.017500691
1	0x3d33f6ff	0.043936726
2	0xbd6c8d1d	-0.057751764
3	0x3b7dca80	0.0038725436
4	0xbd810761	-0.063002355
5	0xbcd990fe	-0.026558395
6	0x3c313685	0.010816221
7	0x3ddfcc75	0.10927669
8	0xbd833a50	-0.064076066
9	0xbd8b1d75	-0.06792728
10	0x3b7ebaaf	0.0038868596
11	0xbd8c3d0a	-0.0684758
12	0xbd925e3b	-0.07146879
13	0x3d91de7e	0.07122515
14	0x3c40f940	0.011778176
15	0xbd79df81	-0.061004166
16	0xbdb74f48	-0.089506686
17	0x3d86ea3f	0.06587648
18	0x3d100c40	0.035167933
19	0xbd16c524	-0.0368091
20	0x3de18362	0.110113874
21	0x3d33ad93	0.043866705
22	0xbd42775b	-0.047477107
23	0x3d9895ba	0.07450433
24	0x3c1cdff0	0.009574875
25	0x3c0d0186	0.00860632
26	0x3ad9ffd4	0.0016632029
27	0x3c053f99	0.008132839
28	0xbd879849	-0.06620843
29	0xbce31cdc	-0.027723722
30	0x3cfb83eb	0.030702552
31	0x3d5ab8a3	0.05339874
32	0xbe39863f	-0.18117617
33	0xbdac48e8	-0.08412343
34	0xbda0173e	-0.07816933
35	0xbd07c1cb	-0.0331438
36	0xbd0bc635	-0.03412457
37	0x3d674d0f	0.056469973
38	0x3dd189bc	0.10231349
39	0xbaa88e3b	-0.0012859771
40	0x3a02702e	0.00049758225
41	0xbd969f8b	-0.07354649
42	0xbe171366	-0.14753494
43	0xbda1808a	-0.07885845
44	0x3d391d46	0.045193933
45	0x3d65b99c	0.056085214
46	0x3c7f4502	0.015580418
47	0xbded7b53	-0.11595788
48	0xbdb8c6a8	-0.09022266
49	0x3c4902fa	0.012268776
50	0xbd59ddd0	-0.053190053
51	0xbb2fe98b	-0.0026842083
52	0x3dbe9018	0.093048275
53	0x3b176f07	0.002310695
54	0x3ce7176c	0.02820941
55	0x3ca24d68	0.0198123
56	0xbd07d927	-0.033166077
57	0xbd57d2fc	-0.052691445
58	0x3db272ab	0.087132774
59	0xbc590d60	-0.013247818
60	0xbda4b977	-0.08043187
61	0xbd9d02cd	-0.0766655
62	0xbd498a6f	-0.049204286
63	0xbd21844d	-0.039432812
64	0x3e059c60	0.13047934
65	0x3d3adad5	0.04561885
66	0xbcffb117	-0.031212373
67	0xbcee1e19	-0.029067086
68	0x3d8c682c	0.06855807
69	0xbd85156b	-0.06498226
70	0x3dbaee7c	0.091275185
71	0x3ca53cda	0.020170618
72	0x3dea4d38	0.114405096
73	0xbcbbc536	-0.022921186
74	0xbcbd7dab	-0.023131212
75	0xbe209bba	-0.15684405
76	0x3e2576db	0.16158621
77	0xbd855955	-0.06511179
78	0xbc41fa2d	-0.011839432
79	0xbd8d39cc	-0.068957895
80	0x3c0e1883	0.008672836
81	0x3d1bf2db	0.038073402
82	0xbd8a0b9f	-0.06740498
83	0x3d9d2273	0.07672586
84	0x3db4ea38	0.08833736
85	0x3db6b039	0.089203306
86	0xbd550b3a	-0.05201266
87	0x3d88c1e6	0.06677608
88	0xbd4ef1c8	-0.05052355
89	0x3d6bf9cb	0.057611268
90	0xbdad7c48	-0.084709704
91	0xbd1f2565	-0.03885402
92	0xbd1b6dd7	-0.03794655
93	0x3d16e75b	0.03684173
94	0x3d063e9f	0.032774564
95	0x3d2df5c1	0.042470697
96	0x3cf21d09	0.02955486
97	0x3c267c44	0.010161463
98	0xbcb8f9bf	-0.022580026
99	0xbdae9a33	-0.08525505
100	0xbd9a4b05	-0.0753384
101	0x3d3b5658	0.04573664
102	0xbcfed500	-0.031107426
103	0x3d354316	0.04425343
104	0x3e274a45	0.16336925
105	0xbdd66485	-0.10468391
106	0xbd954769	-0.07289011
107	0xbd4c8b13	-0.04993732
108	0x3c88c95c	0.016697578
109	0xbdbff4e3	-0.0937288
110	0x3dc80774	0.097670466
111	0x3d7317df	0.059348937
112	0x3bf7cd99	0.007562351
113	0x3d5ed2de	0.054400317
114	0x3dab61e3	0.0836828
115	0x3d74d543	0.059773695
116	0xbc61bb2f	-0.013777538
117	0xbbdd00ce	-0.0067444807
118	0x3d15c0a5	0.036560673
119	0x3cba1379	0.022714363
120	0xbd13650b	-0.035985034
121	0xbd4f895f	-0.050668117
122	0xbd8ac100	-0.06775093
123	0xbcf78c09	-0.030218141
124	0xbdc3bd2a	-0.095575646
125	0xbe0b36de	-0.13595149
126	0x3dae1c30	0.0850147
127	0xbdbc275c	-0.09187195
128	0xbcfab1f6	-0.030602437
129	0x3d8c557f	0.068522446
130	0x3bfb7448	0.007673774
131	0xbdb3b440	-0.08774614
132	0xbb47321d	-0.003039486
133	0xbd0b006d	-0.033935953
134	0xbd56284f	-0.052284535
135	0xbdc4d074	-0.09610072
136	0x3b44944c	0.0029995618
137	0x3dfa9c8b	0.122368895
138	0xbe8b0572	-0.27152592
139	0x3dc489a2	0.09596564
140	0x3bb5e77f	0.005551278
141	0x3e1a0c7c	0.15043825
142	0xbdd79685	-0.10526756
143	0xbdb40363	-0.087897085
144	0x3caa811e	0.020813521
145	0x3d5d32e5	0.054003615
146	0xbd347632	-0.044058032
147	0x3d9fced8	0.07803124
148	0x3d867a48	0.06566292
149	0xbd782c8b	-0.060589354
150	0x3d948cb4	0.072533995
151	0xbd8d05c8	-0.06885868
152	0x3c4e8660	0.01260528
153	0xbc04e52c	-0.008111279
154	0xbd8857bb	-0.06657358
155	0x3cee549c	0.02909308
156	0xbd5ca878	-0.0538716
157	0xbcfbab77	-0.03072141
158	0x3d57eb12	0.052714415
159	0x3d399cbc	0.04531549
160	0xbcf1cde9	-0.02951713
161	0x3db82396	0.089911625
162	0x3d05bbd9	0.03264985
163	0xbc28c184	-0.010300044
164	0xbdee79c6	-0.1164432
165	0xbe0b64b7	-0.13612638
166	0xbdcb80cb	-0.09936675
167	0xbd4be6d4	-0.04978068
168	0x3ce266a6	0.027636837
169	0x3c0304fe	0.007996796
170	0xbd5fa3ed	-0.05459969
171	0xbd45d652	-0.048300095
172	0x3dcd6be2	0.10030343
173	0xbd6a4697	-0.057196226
174	0x3cc97ef4	0.024596669
175	0x3dc42b79	0.09578604
176	0xbd9441ae	-0.0723909
177	0xbc3a5a5a	-0.011374081
178	0x3c7b2a52	0.015329914
179	0xbd4fc3f0	-0.05072397
180	0xbd72b8fd	-0.05925845
181	0xbe0c8c70	-0.13725448
182	0xbda9ef83	-0.08297636
183	0xbdae26eb	-0.08503517
184	0x3d8bdc14	0.06829086
185	0x3dac2df0	0.084071994
186	0xbd56461b	-0.05231295
187	0xbd8fc29e	-0.07019542
188	0xbdd4af29	-0.10384972
189	0x3d4b7723	0.049674165
190	0xbde59607	-0.11210256
191	0xbcef8460	-0.029237926
192	0xbc59de3d	-0.013297615
193	0xbd219d4e	-0.039456658
194	0x3d822822	0.06355311
195	0xbdd48db5	-0.10378591
196	0xbdc32ba9	-0.09529812
197	0xbd9b7fc8	-0.07592732
198	0xbcf86b4a	-0.030324597
199	0x3d076161	0.033051852
200	0xbce4df52	-0.027938519
201	0x3d08e217	0.03341874
202	0x3c5415c1	0.01294464
203	0x3e0021fc	0.12512964
204	0x3d164ae7	0.036692526
205	0x3cade134	0.02122555
206	0xbcf32471	-0.029680463
207	0xbe0ac118	-0.13550222
208	0x3d31f62c	0.04344766
209	0x3d5617b3	0.052268695
210	0x3d93c906	0.072160766
211	0xbc9c957f	-0.019114254
212	0x3d22f943	0.039788496
213	0x3e008609	0.1255113
214	0xbdcebc46	-0.10094504
215	0x3d82ad87	0.06380754
216	0x3d99f1e3	0.07516839
217	0x3d89008e	0.06689559
218	0x3c76cd8f	0.015063657
219	0x3c3551e9	0.011066892
220	0xbc6bfc20	-0.014403373
221	0xbe7973ed	-0.24360628
222	0xbdb43992	-0.08800043
223	0xbce2195d	-0.027599985
224	0x3bacd09e	0.0052738925
225	0x38953584	7.114842e-05
226	0x3d78a9e3	0.06070889
227	0x3d89035d	0.066900946
228	0x3d78f554	0.060780838
229	0xbba26813	-0.0049562543
230	0x3c6978e8	0.014250018
231	0x3dc873e6	0.09787731
232	0x3cda49e2	0.026646558
233	0xbdccb785	-0.09995941
234	0xbd5b98a5	-0.05361237
235	0x3d77a417	0.060459223
236	0x3d4e5ec9	0.050383363
237	0x3c8f001b	0.017456105
238	0xbd3f97b5	-0.04677554
239	0x3c78815a	0.015167559
240	0x3d004f47	0.031325605
241	0x3d0d34f8	0.034474343
242	0x3bc644ca	0.0060506808
243	0xbd73498f	-0.059396323
244	0xbc374cc6	-0.011187738
245	0x3c96ea12	0.01842216
246	0xbd8e3b85	-0.06944946
247	0xbd573211	-0.05253798
248	0xbd9505f4	-0.07276526
249	0x3da0fa62	0.07860257
250	0x3ca5be53	0.020232355
251	0x3cdd1cfa	0.026991356
252	0x3c7a54ca	0.015279004
253	0xbdfc149e	-0.1230862
254	0xbe2e7ae8	-0.17039073
255	0xbcbf0d55	-0.023321787

fc_state.0.bias f4 [256]
0	0x3d82b357	0.063818626
1	0x3d6f72dd	0.05845915
2	0xbc6dd4de	-0.0145160835
3	0x3e00fa2b	0.12595432
4	0xbc8e6c00	-0.017385483
5	0x3d6db274	0.058031514
6	0xbd40960b	-0.047018092
7	0x3dc65ace	0.09685288
8	0x3dab1c86	0.0835505
9	0x3bb9e4f6	0.005673046
10	0x3de55e8b	0.11199673
11	0x3dcae238	0.09906429
12	0x3ce7051a	0.028200675
13	0x3b9934d1	0.0046754857
14	0x3d35fb22	0.044428952
15	0xbd16dd77	-0.0368323
16	0xbc8fa190	-0.017533094
17	0x3d917056	0.071015045
18	0xbcee05ad	-0.02905544
19	0xbb01e80c	-0.0019822149
20	0xbd8b989f	-0.068162195
21	0xbcc35b0b	-0.023847124
22	0xbdccccf4	-0.10000029
23	0x3d762965	0.06009807
24	0x3dfdceeb	0.12392982
25	0x3d51236f	0.051059183
26	0xbdc6f64a	-0.09714945
27	0xbdd78152	-0.10522713
28	0xbd10a7f0	-0.035316408
29	0xbd6c4429	-0.05768219
30	0x3da58603	0.08082201
31	0x3ce2989e	0.027660664
32	0x3be22693	0.006901571
33	0x3dd83623	0.10557201
34	0x3d82ebb0	0.0639261
35	0xbd500229	-0.05078331
36	0x3d3ea869	0.046547327
37	0x3d9e3061	0.07724071
38	0xbd0c583a	-0.034263827
39	0xbd4a163e	-0.049337618
40	0x3cc84ea6	0.024451565
41	0x3dd2bc8a	0.10289867
42	0x3c952dfd	0.018210405
43	0x3d90fa50	0.07078993
44	0xbd5f4939	-0.05451319
45	0x3a6cbdb7	0.0009030955
46	0x3c47c409	0.0121927345
47	0xbdd70064	-0.104981214
48	0x3c3daba7	0.01157657
49	0x3d6780c4	0.056519285
50	0x3e06cae1	0.1316333
51	0x3db1c6a5	0.086804666
52	0x3d57af09	0.05265716
53	0xbaf899bf	-0.0018966718
54	0x3e0d1025	0.1377569
55	0x3db36a7f	0.08760547
56	0xbdb8f275	-0.0903062
57	0xbcc41419	-0.023935365
58	0x3d9e4bc2	0.077292934
59	0xbdf3e564	-0.11908987
60	0x3d8690e5	0.06570605
61	0x3deb7bc2	0.11498214
62	0xbdc866ff	-0.0978527
63	0xbd7dd17d	-0.06196736
64	0xbd306905	-0.043068904
65	0xbcbb6e5f	-0.022879777
66	0x3d51efd2	0.0512541
67	0xbde4eaea	-0.11177619
68	0xbdad613c	-0.084658116
69	0xbdd7b7ae	-0.10533081
70	0xbd9d8db2	-0.07693042
71	0x3cd98a04	0.026555069
72	0xbd53da7d	-0.05172204
73	0x3d1afe1b	0.03783999
74	0x3de9dae7	0.114187054
75	0xbd83f08f	-0.06442367
76	0x3cd1f0f6	0.025627594
77	0xbd64cebc	-0.05586122
78	0xbdcab09e	-0.09896968
79	0xbd868848	-0.06568962
80	0x3c4d3a61	0.012526126
81	0xbcd3b44c	-0.025842808
82	0x3e45e7ee	0.19326755
83	0x3da36014	0.0797731
84	0x3e33d3e0	0.17561293
85	0x3d739d53	0.059476208
86	0x3cb0e41b	0.021593144
87	0xbcd58067	-0.026062204
88	0xbd2dca75	-0.042429406
89	0xbda73e4f	-0.08166181
90	0xbdbb4aa3	-0.09145095
91	0x3de3b486	0.111184165
92	0xbdc49731	-0.0959915
93	0x3e029e11	0.1275561
94	0x3cdbee36	0.026846986
95	0x3c25c4d1	0.0101177255
96	0xbd63e678	-0.055639714
97	0xbd298841	-0.041389707
98	0x3d767622	0.060171254
99	0xbde7373c	-0.11289832
100	0x3de3b7bf	0.11119031
101	0xbd092dc1	-0.0334909
102	0xbdfab80e	-0.12242137
103	0xbc58592b	-0.013204853
104	0xbd4c634e	-0.04989939
105	0x3c9ce781	0.019153358
106	0x3d4cd64d	0.05000906
107	0x3c71c2ac	0.014755886
108	0xbdb156a0	-0.086591005
109	0x3d43fe8f	0.047850188
110	0xbd6c5d4c	-0.057706162
111	0x3d959bec	0.0730513
112	0xbdbca66a	-0.092114285
113	0xbdef759d	-0.11692355
114	0xbd317f20	-0.043334126
115	0xbc1fd70b	-0.00975586
116	0x3d7cc6bd	0.06171297
117	0xbc1f734d	-0.00973208
118	0x3cfb6c01	0.030691149
119	0xbca80175	-0.020508507
120	0xbdc7c8ca	-0.09755094
121	0x3d9b84f3	0.075937174
122	0x3bb2d18c	0.005457109
123	0x3d3b8548	0.045781404
124	0xbcdb114b	-0.026741644
125	0xbc8017b3	-0.0156363
126	0x3dbe5e06	0.09295277
127	0xbd089420	-0.033344388
128	0x3dbced46	0.09224944
129	0x3d73302b	0.05937211
130	0x3d36c209	0.04461864
131	0xbc0e8db2	-0.008700775
132	0xbd2e0ee9	-0.04249469
133	0x3db040b8	0.08606094
134	0xbd256ee3	-0.040388953
135	0x3c785149	0.015156099
136	0x3da2d4a3	0.079507135
137	0xbe220999	-0.15823974
138	0x3dc39d2f	0.09551465
139	0x3e113303	0.14179616
140	0xbc3e80e4	-0.01162741
141	0x3df38287	0.118901305
142	0x3cba9310	0.022775203
143	0x3c9e52ab	0.019326529
144	0xbd5851f2	-0.052812524
145	0x3d0fd4ed	0.03511517
146	0x3e3034cb	0.17207639
147	0x3dd7e7cb	0.10542258
148	0xbe0fe311	-0.14051463
149	0x3dc6cb4f	0.09706747
150	0xbc94be4f	-0.018157152
151	0x3d15102a	0.03639237
152	0xbdee3746	-0.11631636
153	0xbd9c24aa	-0.076241806
154	0xbd49a926	-0.04923358
155	0x3dbd0db8	0.09231132
156	0x3dfdeec3	0.12399056
157	0x3c53d2c4	0.012928668
158	0x3d7d0359	0.06177077
159	0x3d5baf53	0.053634
160	0x3ccdab92	0.025106225
161	0xbe2c15e4	-0.16805226
162	0xbdb76b20	-0.08955979
163	0x3d85d5fc	0.06534955
164	0x3dc05e16	0.093929455
165	0xbd1b6928	-0.03794208
166	0x3d5a2325	0.053256173
167	0xbc81d6b5	-0.01584945
168	0x3da0f16c	0.078585476
169	0x3d17b371	0.037036363
170	0x3a943d52	0.0011309779
171	0xbdc13868	-0.09434587
172	0xbc842093	-0.016128814
173	0xbb960a18	-0.00457884
174	0x3cc6ddba	0.02427565
175	0x3dd519d4	0.10405317
176	0x3d104b4d	0.035228062
177	0xbc78e50d	-0.015191329
178	0x3cccbf31	0.02499351
179	0x3da92f20	0.082609415
180	0x3cbbf249	0.022942679
181	0x3e1f3240	0.15546513
182	0x3c4fa7e2	0.012674304
183	0x3d2f48e8	0.04279414
184	0xbd49169c	-0.049093828
185	0x3ddaac35	0.10677377
186	0xbdf91edf	-0.12164091
187	0xbd05ae62	-0.032637008
188	0x3d8f6539	0.070017286
189	0x3dec3993	0.11534419
190	0xb9d5878b	-0.00040727513
191	0x3db370c1	0.087617405
192	0x3ca58fb5	0.020210126
193	0xbb983100	-0.004644513
194	0x3c77142a	0.015080491
195	0x3de4b8ce	0.11168061
196	0xbd50423c	-0.050844416
197	0x3b9cb083	0.004781784
198	0xbc825281	-0.015908482
199	0xbdf77a87	-0.12083917
200	0x3e049de3	0.12950854
201	0x3c765315	0.015034457
202	0xbd8c19c8	-0.06840855
203	0xbdd4ecf0	-0.10396755
204	0x3dcba354	0.09943262
205	0x3c9df240	0.019280553
206	0xbd805c4b	-0.062676035
207	0xbc6ce099	-0.014457845
208	0x3c370e2c	0.011172812
209	0x3dcc82ff	0.09985923
210	0x3ceb108b	0.028694412
211	0x3d13746b	0.035999697
212	0xbd53f009	-0.051742587
213	0x3bf85762	0.007578776
214	0xbccbb35b	-0.024865797
215	0x3e11e331	0.14246823
216	0x3c7a2299	0.015267038
217	0x3cbd2784	0.023090132
218	0x3d8c40fd	0.06848333
219	0xbd7de0d8	-0.061982006
220	0x3cf1a90b	0.029499551
221	0x3cf8d325	0.030374119
222	0x3db4a3dc	0.08820316
223	0xbca588bc	-0.020206802
224	0xbd9b7121	-0.07589937
225	0x3cee2ef2	0.02907512
226	0x3d650cd2	0.05592043
227	0xbb3e4351	-0.0029031823
228	0x3e15c05a	0.14624158
229	0xbcc3e7da	-0.023914266
230	0xbd39fc8d	-0.045406867
231	0x3d04726c	0.032335684
232	0xbcab5839	-0.020916091
233	0xbdd6cb00	-0.10487938
234	0x3d94cdc6	0.07265811
235	0x3d62884c	0.055305764
236	0xbd0e9f20	-0.034819722
237	0x3dbba247	0.09161811
238	0x3b914de5	0.0044343346
239	0xbd821de8	-0.063533604
240	0xbd54d249	-0.051958356
241	0xbc8335ab	-0.016016802
242	0x3dbfe4fc	0.09369847
243	0xbba1cb50	-0.004937567
244	0x3d0dc222	0.034608968
245	0x3d39dd4d	0.045377064
246	0x3d8496f4	0.064741045
247	0x3dbf04e7	0.09327107
248	0x3de2d408	0.11075598
249	0x3c541c0d	0.012946141
250	0x3e032686	0.12807664
251	0x3c782604	0.015145782
252	0xbd1df125	-0.03856005
253	0x3d56fb7c	0.052485928
254	0xbca60788	-0.020267263
255	0x3dbf3573	0.093363665

fc_state.2.weight f4 [64, 256]
0	0xbdbd1887	-0.09233194
1	0xbd0b92ff	-0.034075733
2	0x3e6ad161	0.22931434
3	0x3d18045a	0.037113525
4	0xbc86e22e	-0.016465273
5	0x3c58365e	0.013196556
6	0x3d910582	0.07081129
7	0xbc7c8181	-0.0154117355
8	0xbe3c1afd	-0.1836967
9	0xbc9d8926	-0.019230437
10	0xbd953f34	-0.07287446
11	0xbda75b43	-0.08171704
12	0xbd8294cf	-0.06376039
13	0xbe10d983	-0.14145474
14	0xbd9609b7	-0.07326072
15	0x3de9ad75	0.114100374
16	0xbb51e91a	-0.0032029808
17	0xbd795efc	-0.0608816
18	0xbd98a464	-0.0745323
19	0xbb33be50	-0.0027426668
20	0x3d4e27af	0.050330814
21	0x3e18c8e7	0.14920388
22	0x3dcd872d	0.10035548
23	0x3e1d9540	0.15388966
24	0xbc8ebc86	-0.01742388
25	0xbdc22620	-0.09479928
26	0x3e4a867e	0.19777867
27	0x3e208d84	0.15678984
28	0x3e4a3dc5	0.19750126
29	0xbdfffa66	-0.124989316
30	0xbda990b9	-0.08279557
31	0xbb0d4ee8	-0.0021561924
32	0xbe14f7f8	-0.14547718
33	0xbd86ed81	-0.06588269
34	0xbd109b46	-0.03530433
35	0xbdf51a2a	-0.11967881
36	0xbdceb4e9	-0.100930996
37	0xbe167a2d	-0.14695044
38	0xbea1d3c4	-0.31606877
39	0xbde33076	-0.110932276
40	0xbe137f50	-0.14404035
41	0xbd46bb3b	-0.0485184
42	0xbba9dee2	-0.0051840404
43	0x3df2f21f	0.11862587
44	0x3d2e8f4f	0.04261714
45	0xbdab88e2	-0.08375718
46	0xbd07a5ef	-0.03311723
47	0x3e709968	0.2349602
48	0x3dc64da7	0.0968278
49	0xbccc8300	-0.02496481
50	0xbd3d1af0	-0.046168268
51	0xbda7cccf	-0.08193361
52	0xbe08888b	-0.13333337
53	0x3c6ca8cc	0.014444541
54	0x3d1a4d3e	0.03767132
55	0xbd85505f	-0.0650947
56	0x3e80f1bb	0.25184426
57	0xbe2e1710	-0.17000985
58	0xbe3463e7	-0.17616235
59	0xbe345676	-0.17611107
60	0xbda464b7	-0.08027022
61	0xbb39cd72	-0.0028351215
62	0x3e097517	0.13423572
63	0x3cc68fce	0.024238493
64	0x3da6297f	0.081133835
65	0x3db4a888	0.08821207
66	0xbc9c5da3	-0.019087618
67	0xbb5c70f2	-0.0033636657
68	0xbe59e260	-0.21277761
69	0x3dacd6d8	0.08439416
70	0xbd1df5dc	-0.038564548
71	0x3c961fdf	0.018325744
72	0xbe52a2a0	-0.20569849
73	0x3d3fd0e5	0.046830077
74	0xbd5e5824	-0.054283276
75	0x3d193399	0.037402723
76	0x3d1be724	0.03806223
77	0x3d5d3bb5	0.05401202
78	0xbc6a6ae7	-0.014307714
79	0xbe34e71d	-0.17666288
80	0x3d644434	0.055729106
81	0xbe7cee90	-0.2470038
82	0xbb55f7a9	-0.0032648838
83	0xbd4e9830	-0.050438106
84	0x3d5b967e	0.053610317
85	0xbe5792ad	-0.21052046
86	0xbd9db0b1	-0.07699717
87	0x3d603d98	0.05474624
88	0xbc9c1c32	-0.019056413
89	0xbdf84a06	-0.12123494
90	0x3c82ca00	0.015965462
91	0x3b3a5091	0.002842937
92	0x3d6c448a	0.05768255
93	0xbc9a4f0e	-0.018836524
94	0x3df7f02c	0.12106356
95	0x3ca15483	0.019693619
96	0x3e1a028f	0.15040039
97	0x3dcd31f5	0.10019294
98	0x3e92104d	0.28528062
99	0x3ce93152	0.0284659
100	0xbcfc2088	-0.03077723
101	0xbe5330e1	-0.20624115
102	0x3dc1e903	0.094682716
103	0x3d63d541	0.055623297
104	0xbcb7bb09	-0.022428052
105	0x3c981537	0.018564804
106	0xbe0c05b1	-0.13674046
107	0xbd814a8d	-0.063130476
108	0x3d6dbd0e	0.058041625
109	0xbce048c7	-0.027378453
110	0xbe3a1108	-0.1817056
111	0x3e22f286	0.15912828
112	0xbcb86249	-0.022507804
113	0x3d757da6	0.05993428
114	0x3d7dc471	0.06195492
115	0xbe249a40	-0.16074467
116	0x3d019e01	0.031644825
117	0xbce2d21f	-0.027688084
118	0x3d5059e8	0.05086699
119	0xbcbf3b12	-0.023343597
120	0x3e3d0844	0.18460184
121	0xbd89fe1c	-0.06737921
122	0x3d7f7678	0.06236884
123	0x3b260b78	0.0025336426
124	0x3cfb6eb7	0.030692441
125	0xbcea928f	-0.028634338
126	0xbb31d8df	-0.0027137322
127	0xbd4e0ae5	-0.05030336
128	0xbdd6e331	-0.10492552
129	0x3e057cf0	0.13035941
130	0xbe752cc7	-0.23942862
131	0x3c71d374	0.014759887
132	0x3e1ccf3c	0.15313429
133	0xbe1324da	-0.14369527
134	0xbcd1e99f	-0.025624095
135	0x3d909a92	0.07060732
136	0xbe2353f5	-0.15949996
137	0x3da09435	0.07840768
138	0xbd6e2565	-0.05814113
139	0x3d68a537	0.056798186
140	0x3dd1567d	0.102215745
141	0x3d776885	0.060402412
142	0x3dfdd944	0.12394956
143	0x3d33412e	0.043763332
144	0xbe65bb42	-0.22434714
145	0xbda41c9e	-0.08013271
146	0x3b1e41ca	0.00241481
147	0x3d59614e	0.053071313
148	0x3d612506	0.05496695
149	0xbd82b092	-0.06381334
150	0xbe1d19f5	-0.15341933
151	0xbbba01a5	-0.0056764656
152	0x3da14489	0.078744
153	0x3da370b1	0.079804786
154	0x3d723e8d	0.059141684
155	0xbe36bc79	-0.17845334
156	0x3d6d4ceb	0.057934683
157	0x3e33dace	0.17563936
158	0x3db2245b	0.086983405
159	0x3d461af3	0.048365545
160	0x3e3266f9	0.17422093
161	0x3d075127	0.033036377
162	0x3d465471	0.048420373
163	0x3d85e3e4	0.06537607
164	0x3ccecfcc	0.02524557
165	0x3db7eb47	0.089804225
166	0x3d098e92	0.03358323
167	0x3d817122	0.063204065
168	0x3d8a787f	0.06761264
169	0x3dcf931b	0.1013548
170	0xbdd863c2	-0.10565902
171	0x3e20679d	0.15664525
172	0xbd199678	-0.037497014
173	0x3da84b5a	0.08217497
174	0x3bdee0ae	0.0068016862
175	0xbe0b163f	-0.13582705
176	0x3cce437d	0.025178665
177	0x3e38b11a	0.18036309
178	0xbc65d234	-0.014027167
179	0xbc210b13	-0.0098293
180	0x3d36cd41	0.04462934
181	0x3d89bf29	0.06725914
182	0x3d009c28	0.031398922
183	0xbd8f1659	-0.06986684
184	0x3d5a3d55	0.053281147
185	0xbb7bbb95	-0.0038411368
186	0x3e13067c	0.14357942
187	0x3e0a3ced	0.13499804
188	0xbc6002c7	-0.013672537
189	0xbe27f818	-0.16403234
190	0xbcea3864	-0.028591342
191	0xbe2da024	-0.1695562
192	0xbd94bc80	-0.07262516
193	0x3dd54495	0.104134716
194	0xbe121049	-0.14264025
195	0xbaf63369	-0.0018783632
196	0xbe04cea3	-0.1296945
197	0x3d8b0aa9	0.06789143
198	0xbd7425a5	-0.059606213
199	0x3e9c7841	0.30560496
200	0xbd3fbe48	-0.046812326
201	0x3e093831	0.13400342
202	0xbdc4bb7a	-0.09606071
203	0x3d6f91e7	0.058488753
204	0x3d425735	0.04744645
205	0xbd197038	-0.037460536
206	0x3d82a154	0.06378427
207	0xbcf08e69	-0.029364781
208	0x3e820119	0.25391462
209	0xbd6bb59e	-0.05754625
210	0x3da142a9	0.078740425
211	0x3d30cabe	0.0431621
212	0x3e8b3982	0.27192312
213	0xbe27850f	-0.16359352
214	0x3c2c25d9	0.01050707
215	0xbc9535b6	-0.018214088
216	0x3df73468	0.120705426
217	0x3de2edf3	0.110805415
218	0xbd99bfa9	-0.075072594
219	0x3cd9c416	0.026582759
220	0x3c755327	0.014973438
221	0xbbb5a501	-0.0055433516
222	0x3de350d1	0.11099399
223	0x3c9e4284	0.019318826
224	0xbe9a8989	-0.30183056
225	0x3d5ecba8	0.05439344
226	0x3d7febc8	0.062480718
227	0xbcaf07d7	-0.021366043
228	0x3d9cb3ce	0.076514825
229	0x3e2d55d3	0.1692727
230	0xbe0922c3	-0.13392167
231	0xbdd9a598	-0.106272876
232	0x3d855d8d	0.06511984
233	0x3e743554	0.23848468
234	0xbd935471	-0.0719384
235	0x3d5d5a8d	0.054041434
236	0xbe6482cf	-0.22315525
237	0x3d684eed	0.056715894
238	0x3e4d815d	0.2006888
239	0xbc37bb0f	-0.011214032
240	0x3d5e041f	0.05420315
241	0xbd994f44	-0.07485822
242	0xbd838697	-0.06422155
243	0xbd19222a	-0.037386097
244	0xbd3d522d	-0.046220947
245	0xbe0653f8	-0.13117969
246	0xbea381cf	-0.31934974
247	0x3d5d817f	0.054078575
248	0xbd875671	-0.06608284
249	0x3c32d7ac	0.010915678
250	0xbe1be2dc	-0.15223259
251	0xbce21ff8	-0.027603135
252	0xbdad3a4d	-0.084583856
253	0x3e2994c9	0.16560663
254	0xbc94083b	-0.01807033
255	0xbe433bea	-0.19065824

fc_state.2.bias f4 [64]
0	0x3d08ba30	0.033380687
1	0x3c56b811	0.013105408
2	0x3d3bfef2	0.04589743
3	0xbd5a69ec	-0.05332367
4	0x3d346585	0.04404213
5	0xbd8ea3c5	-0.0696483
6	0x3d3d0798	0.04614982
7	0xbd434d4e	-0.047681145
8	0x3d6f31ab	0.058396976
9	0x3dbca17b	0.092104875
10	0xbd1bd763	-0.038047206
11	0x3daa1005	0.08303837
12	0x3d60326a	0.05473558
13	0x3daf42f2	0.08557691
14	0x3d5f2b4a	0.054484643
15	0xbd11ee66	-0.035627745
16	0xbd416182	-0.04721213
17	0x3da03690	0.07822907
18	0xbc3f82e5	-0.0116889225
19	0x3ce28638	0.027651891
20	0x3d3989a7	0.04529729
21	0xbda086f4	-0.0783824
22	0x3c828973	0.015934682
23	0xbd855658	-0.065106094
24	0x3d3eb0c9	0.046555314
25	0xbd92c52e	-0.07166515
26	0x3db8cce4	0.09023455
27	0x3c55352d	0.013013166
28	0x3da2e5fd	0.07954023
29	0xbd12f0dc	-0.035874233
30	0xba03ebe5	-0.00050324044
31	0xbdbf5fc4	-0.09344438
32	0x3c1620ae	0.009163065
33	0x3dba0cc7	0.09084468
34	0xbd78489a	-0.060616113
35	0xbd6a86b2	-0.05725736
36	0xbd94ec72	-0.07271661
37	0x3d8c4b19	0.06850261
38	0x3b63430d	0.0034677417
39	0x3ce05fbc	0.0273894
40	0xbcd8948d	-0.026438022
41	0x3dbc743e	0.09201859
42	0xbbcd7e19	-0.0062711355
43	0x3dea725d	0.11447594
44	0x3d3011c1	0.04298568
45	0x3c5f1db6	0.0136179235
46	0x3d0df11d	0.03465377
47	0x3cbbf50d	0.022943998
48	0xbd955256	-0.07291095
49	0x3bb17635	0.0054157027
50	0xbcb14c2a	-0.021642763
51	0x3d8573cb	0.065162264
52	0xbc9a6fc8	-0.01885213
53	0xbcf36e63	-0.029715722
54	0x3d82cb8f	0.06386482
55	0x3d07343e	0.033008806
56	0x3d26380a	0.040580787
57	0x3de49a3c	0.1116223
58	0x3d6e47b5	0.058173854
59	0x3bcc11fa	0.006227729
60	0x3d19d5bf	0.03755736
61	0x3da42850	0.080155015
62	0x3dc27525	0.09495
63	0xbc8c25d7	-0.017107887

fc_state.4.weight f4 [1, 64]
0	0xbe8ad1ee	-0.2711329
1	0xbe6cb17f	-0.23114584
2	0x3e61dc39	0.22056665
3	0x3d0adaae	0.033899955
4	0xbe8aa569	-0.27079323
5	0x3d30bb6c	0.04314749
6	0x3e842ce2	0.25815493
7	0x3d895ecd	0.06707535
8	0x3e5194be	0.20466897
9	0x3e756869	0.2396561
10	0xbe6db8d5	-0.23215039
11	0x3e898231	0.2685714
12	0x3e80b335	0.25136724
13	0x3e9368f9	0.28791025
14	0x3e49fdac	0.19725674
15	0x3db0f862	0.08641125
16	0x3cbbc083	0.022918945
17	0x3e51b7bc	0.20480245
18	0xbe82a237	-0.25514385
19	0x3e444f25	0.19170816
20	0x3e6bf553	0.23042803
21	0xbe557ad2	-0.20847633
22	0x3e4e464c	0.20144004
23	0x3daa8baa	0.0832742
24	0xbe92abc6	-0.28646678
25	0xbea42732	-0.32061154
26	0x3e5f5a11	0.21811701
27	0x3e38c73f	0.18044756
28	0x3e986854	0.29767096
29	0xbe5cdbba	-0.21568194
30	0x3e219b26	0.1578184
31	0xbe68dc8b	-0.2274038
32	0xbc0d2170	-0.008613929
33	0x3e6e25f4	0.23256665
34	0xbe47fdca	-0.19530407
35	0xbe53d119	-0.20685233
36	0xbea03271	-0.31288484
37	0x3e3fac34	0.18718034
38	0x3f19f63e	0.6014136
39	0x3e452b21	0.19254734
40	0x3d83c708	0.064344466
41	0x3e973e76	0.2953984
42	0xbe7d8c29	-0.24760498
43	0x3e62b303	0.221386
44	0xbe90f813	-0.28314266
45	0xbe9573b3	-0.29189834
46	0xbeaff3cf	-0.343657
47	0xbe38d02d	-0.18048163
48	0xbe45716b	-0.19281547
49	0xbe9a394c	-0.3012184
50	0xbe8d37ba	-0.27581578
51	0x3ee91285	0.45521942
52	0x3f365d1f	0.7123584
53	0x3df7b9c6	0.1209598
54	0x3e414531	0.1887405
55	0x3e2eaf09	0.17058958
56	0x3e7396a9	0.23787941
57	0x3e765ee6	0.24059638
58	0x3e797f51	0.24364974
59	0x3a925bcd	0.0011166275
60	0xbe74e5cf	-0.2391579
61	0x3e25a441	0.16175939
62	0x3e676c1d	0.22599836
63	0xbc844c5f	-0.016149698
