data/Torch/Dueling/003_Big-CNN_E_L/checkpoints/weights_14000episodes.pth (torch, 505343 bytes, 17 tensors)

conv_layers.0.weight f4 [64, 1, 3, 3]
0	0x3ed3bb0c	0.41353643
1	0x3e4a0400	0.19728088
2	0xbe4e73e9	-0.20161404
3	0x3e874e76	0.26427048
4	0xbe14207f	-0.14465521
5	0x3b8dc965	0.0043269866
6	0xbe6401db	-0.22266333
7	0x3e108bd0	0.14115834
8	0x3e7e776a	0.2485024
9	0xbf0ab336	-0.54179704
10	0x3e7719de	0.24130961
11	0x3d3f6ca1	0.046734456
12	0x3e8c9b53	0.27462253
13	0x3c87f043	0.016594058
14	0x3da8d9ba	0.08244653
15	0xbc97e6be	-0.018542644
16	0x3e66e6ca	0.22548977
17	0x3afdd466	0.0019365668
18	0xbeb717f1	-0.35760453
19	0x3d8a9a89	0.067677565
20	0xbd7db548	-0.06194046
21	0x3c8856fa	0.016643036
22	0xbe179f58	-0.14806879
23	0x3ede605c	0.4343289
24	0xbe0d0714	-0.13772231
25	0xbe9c3fc2	-0.30517393
26	0xbe5e4893	-0.21707372
27	0xbea925a0	-0.33036518
28	0xbb2e14d9	-0.002656272
29	0xbeb27d7f	-0.3486137
30	0x3eb04ef5	0.3443524
31	0xbe8021d3	-0.25025806
32	0x3e8a87f4	0.2705685
33	0x3d7e9b83	0.062160026
34	0xbc3a7cfb	-0.011382337
35	0x3e856550	0.26053858
36	0xbd1745b4	-0.03693171
37	0x3e5492ed	0.20759173
38	0xbd003a88	-0.03130582
39	0xbe3036ad	-0.17208357
40	0x3c9ff0e8	0.019524053
41	0xbe3a86c7	-0.18215476
42	0x3db93952	0.09044136
43	0x3e6cf502	0.23140338
44	0x3df4bd27	0.119501404
45	0xbe84138f	-0.25796172
46	0x3ea797c5	0.32732978
47	0x3de6a2f8	0.112615526
48	0x3e8932cb	0.26796564
49	0xbe070bba	-0.13188067
50	0xbe9300db	-0.2871159
51	0xbd6b4fe7	-0.057449248
52	0xbe64e420	-0.22352648
53	0x3ec4b0c7	0.3841612
54	0x3e9112ba	0.283346
55	0x3daacd05	0.083398856
56	0x3c8d6f8a	0.0172651
57	0x3b0ab4d0	0.0021164902
58	0x3e9c9cae	0.30588287
59	0xbeb6a956	-0.35676068
60	0xbc253c97	-0.0100852465
61	0xbe97bacd	-0.29634705
62	0x3d663b2d	0.05620878
63	0xbe3dd6a3	-0.18538909
64	0x3e09ace4	0.13444859
65	0xbd065d32	-0.03280372
66	0x3eb185f5	0.34672514
67	0xbe52abd9	-0.20573367
68	0xbe3510d1	-0.17682196
69	0xbe54c2d3	-0.20777445
70	0x3ea24e72	0.31700474
71	0x3de498f0	0.11161983
72	0x3f2e9e33	0.6821014
73	0xbe89ffc9	-0.2695296
74	0xbe998a10	-0.29988146
75	0xbe9a4fa9	-0.301389
76	0xbe2b62dd	-0.16736932
77	0x3e56363a	0.20919123
78	0x3d9fb0df	0.07797407
79	0x3e9ad9cb	0.30244288
80	0xbdd7fb10	-0.10545933
81	0xbed4ae64	-0.415393
82	0x3e5d4def	0.2161176
83	0xbd5cb993	-0.053887915
84	0x3e906f43	0.28209886
85	0xbd2c336f	-0.04204124
86	0x3e8314eb	0.25601897
87	0xbe588806	-0.21145639
88	0xbe3c2ebb	-0.18377201
89	0x3e16302b	0.14666812
90	0x3e1c1571	0.15242554
91	0xbe1b6f88	-0.15179265
92	0x3e4ed22f	0.20197366
93	0x3e710e20	0.23540545
94	0xbe8dec44	-0.2771932
95	0xbe2a559f	-0.16634224
96	0x3ec09e4d	0.37620774
97	0xbdb8c943	-0.090227626
98	0xbe13798f	-0.1440184
99	0xbfe7202e	-1.8056695
100	0xbc9d1127	-0.019173218
101	0x3e1600ec	0.14648789
102	0xbdbb01ff	-0.0913124
103	0xbf57c6e4	-0.8428786
104	0x3e0cc617	0.1374744
105	0xbf3347c8	-0.70031404
106	0xbe591a09	-0.21201338
107	0x3dd961ed	0.10614381
108	0xbf32bf7b	-0.69823426
109	0xbdf5adc8	-0.11996037
110	0x3eff2580	0.49833298
111	0x3d59c917	0.05317029
112	0x3e538a9f	0.20658349
113	0xbe86f99c	-0.26362312
114	0xbe02dc51	-0.12779357
115	0x3cd74dc7	0.026282204
116	0x3daa0c2f	0.08303105
117	0xbf5bbf7f	-0.85839075
118	0xbecb5722	-0.39714915
119	0xbf4354d3	-0.76301306
120	0x3dbc8481	0.092049606
121	0xbe3c5046	-0.18389997
122	0xbcdf0828	-0.027225569
123	0xbeb16369	-0.34646156
124	0xbec25fac	-0.37963617
125	0xbf178e86	-0.5920185
126	0xbe9aba86	-0.3022043
127	0xbe82491b	-0.254464
128	0x3ec020d3	0.37525043
129	0xbd5c7310	-0.05382067
130	0x3e9d8d07	0.30771658
131	0x3e27e54d	0.16396065
132	0xbeaa964a	-0.33317786
133	0x3e741e39	0.23839654
134	0xbde2d668	-0.11076051
135	0xbf44118f	-0.7658929
136	0xbe015141	-0.12628652
137	0xbecab798	-0.39593196
138	0x3d4ec12d	0.050477196
139	0xbd40d677	-0.04707953
140	0x3ea126e0	0.31474972
141	0xbe9bb499	-0.30411223
142	0x3ec3ea0b	0.38264498
143	0xbe6de554	-0.23232013
144	0xbe51550b	-0.20442598
145	0x3d93f67a	0.07224746
146	0x3e2bb122	0.1676679
147	0x3ec68099	0.38769987
148	0x3e9aaaf0	0.3020854
149	0xbead68df	-0.33869073
150	0x3de82728	0.113355935
151	0xbe272a6a	-0.16324773
152	0x3b2cd883	0.0026374168
153	0xbf263c18	-0.64935446
154	0x3ea8c56b	0.32963118
155	0xbe6598cb	-0.22421567
156	0x3e56c900	0.20975113
157	0x3e25e902	0.16202167
158	0x3de0709b	0.10958978
159	0xbe239e36	-0.15978321
160	0x3ea93ae1	0.33052734
161	0x3db12189	0.086489744
162	0xbe03807e	-0.12841985
163	0xbe9bdfc9	-0.30444172
164	0x3e6b6024	0.22985893
165	0xbde02e85	-0.10946373
166	0xbded9b39	-0.11601872
167	0x3ef2195c	0.47284973
168	0x3dbdaedb	0.09261867
169	0xbe54c49c	-0.20778126
170	0xbe4caff8	-0.19989002
171	0x3d843938	0.06456226
172	0x3eadb8a1	0.33929923
173	0xbd9571b3	-0.07297077
174	0xbdf35dda	-0.11883135
175	0xbd23969d	-0.039938558
176	0xbe28be2b	-0.16478793
177	0x3e4f26c2	0.20229629
178	0x3e942ada	0.28938943
179	0xbef783d7	-0.48342773
180	0x3e0d9afe	0.13828656
181	0x3e08c1f4	0.13355237
182	0xbc09e89e	-0.008417277
183	0xbe8a06ce	-0.26958317
184	0x3df7c3d9	0.12097902
185	0x3e07d3df	0.13264416
186	0x3dd7868c	0.1052371
187	0xbd9d3edf	-0.07678007
188	0xbe151def	-0.145622
189	0x3d300158	0.04297003
190	0xbd8ed602	-0.069744125
191	0xbe1a65e6	-0.15077934
192	0x3e68371a	0.2267727
193	0x3ea01e05	0.31272903
194	0xbd407933	-0.046990585
195	0xbdcd72f1	-0.10031689
196	0x3c06a418	0.008217834
197	0xbc1b7ce0	-0.009490222
198	0x3e41bb6d	0.18919154
199	0x3e0018f4	0.12509519
200	0xbe8aa81f	-0.2708139
201	0xbe0c4e53	-0.13701753
202	0x3ea6a57d	0.32548133
203	0x3e34c96c	0.17654961
204	0xbd6b36e5	-0.0574254
205	0xbe42fe9b	-0.19042437
206	0xbe692dbc	-0.22771353
207	0xbef3c27d	-0.4760932
208	0xbcebdad2	-0.028790865
209	0x3d5696af	0.052389797
210	0x3e88b185	0.26697937
211	0x3e59062a	0.21193758
212	0xbe8faed9	-0.28063086
213	0xbde9f5a5	-0.11423806
214	0xbc8dd4ac	-0.017313324
215	0x3ec2b46b	0.38028273
216	0x3e51ff74	0.20507604
217	0xbb84b31b	-0.0040496713
218	0x3e8f603e	0.28003114
219	0xbd8b61ac	-0.06805739
220	0xbe369852	-0.17831543
221	0x3e9cea1c	0.3064736
222	0xbdef96cd	-0.11698685
223	0xbcaf2cee	-0.021383729
224	0xbeced09a	-0.40393525
225	0x3eddc9df	0.43318078
226	0x3e6bc861	0.23025657
227	0x3de1ce81	0.110257156
228	0xbec467f4	-0.3836056
229	0xbeb641f4	-0.35597193
230	0xbe987ba9	-0.29781845
231	0x3e220ff2	0.15826395
232	0x3deb2fff	0.11483764
233	0x3e88f450	0.26748896
234	0x3ecd6337	0.40114757
235	0x3e427457	0.18989693
236	0xbc21dc4f	-0.009879186
237	0xbeb75551	-0.3580728
238	0xbe8743e3	-0.2641898
239	0xbee90538	-0.45511794
240	0x3e360ef3	0.1777914
241	0xbed31dfb	-0.4123381
242	0xbe03ad76	-0.12859139
243	0xbea7de4a	-0.3278678
244	0xbedd309f	-0.43201157
245	0xbf61c75f	-0.8819484
246	0xbe75be5e	-0.239984
247	0x3e33ff00	0.17577744
248	0xbf1eb810	-0.6199961
249	0x3edc1b44	0.42989552
250	0x3c8aa1c8	0.016922846
251	0xbe4e1020	-0.20123339
252	0xbcea0499	-0.028566645
253	0xbe3b19ce	-0.18271562
254	0xbd55300e	-0.05204778
255	0xbed07abe	-0.40718645

conv_layers.0.bias f4 [64]
0	0xbd50511f	-0.050858613
1	0x3eaf3425	0.3421947
2	0xbd12f519	-0.035878275
3	0xb7eb122f	-2.802265e-05
4	0x3e9c3302	0.30507666
5	0xbe9c0843	-0.30475053
6	0x3d44d5a8	0.04805532
7	0x3f253d93	0.6454708
8	0x3d85015a	0.064943984
9	0x3eaddbaf	0.33956668
10	0xbe9d3962	-0.30707842
11	0x3eeefb7c	0.46676242
12	0x3e5f8dbf	0.21831416
13	0x3ec50032	0.38476712
14	0x3e47411b	0.1945843
15	0x3eeb234f	0.45925376
16	0xbe54d43a	-0.20784083
17	0x3db0638e	0.086127385
18	0xbe0e7ba3	-0.13914351
19	0xbe89a5a3	-0.26884183
20	0x3c353237	0.011059335
21	0xbf04fa48	-0.519444
22	0x3efa423b	0.48878655
23	0xb8e12cb1	-0.000107371605
24	0xb92b2fb1	-0.00016325597
25	0x3e7ec357	0.24879204
26	0xbcb37143	-0.021904593
27	0x3b836300	0.0040096045
28	0xba67e7df	-0.0008846502
29	0xbcdf64b6	-0.027269702
30	0xbeaac533	-0.33353576
31	0x3e069096	0.13141093
32	0x3eb39095	0.35071245
33	0x3f0c59f1	0.5482474
34	0x3eb7b675	0.3588139
35	0xbef25e52	-0.47337586
36	0x3d47de5c	0.048796043
37	0x3f15854b	0.58406514
38	0x3e93ca78	0.2886541
39	0xbd3b28d5	-0.045693237
40	0x3e977303	0.29579934
41	0xbebfb43a	-0.3744219
42	0xbdc31acc	-0.095265955
43	0x3f1f63e2	0.62261784
44	0xb8093b18	-3.271838e-05
45	0xbd45390f	-0.04815012
46	0xbe888d61	-0.26670364
47	0xbe3f48a9	-0.18680061
48	0x3dcba6b8	0.099439085
49	0xbec415f8	-0.3829801
50	0xbb1ad2db	-0.0023624215
51	0x3ed833dd	0.4222707
52	0xbf008038	-0.50195646
53	0x3edb7988	0.42866158
54	0xbeb56e54	-0.35435736
55	0xbe92cf0c	-0.2867359
56	0x3e2e70f4	0.17035276
57	0x3eb383b9	0.35061434
58	0xbe0c3e0e	-0.13695547
59	0xba869813	-0.001026871
60	0xbee9f8f0	-0.45697737
61	0xbeab1f8c	-0.33422506
62	0xbb48dfc0	-0.0030650944
63	0xbc14aacc	-0.009073924

conv_layers.2.weight f4 [64, 64, 2, 2]
0	0x3d03c4c0	0.032170057
1	0xbd4cc665	-0.04999389
2	0x3d9410c9	0.07229764
3	0x3d8394b2	0.06424846
4	0xbd05b944	-0.032647386
5	0xbbd979e3	-0.0066368445
6	0x3d1e737e	0.03868436
7	0x3cf84081	0.030304195
8	0xbda304fb	-0.07959934
9	0x3dab8dc1	0.08376647
10	0x3d4254b0	0.047444046
11	0xbd757fc5	-0.059936304
12	0x3debc33a	0.11511846
13	0x3c5d9c9c	0.013526108
14	0x3d1011a1	0.035173062
15	0x3d2f11bf	0.042741533
16	0x3a46eb5c	0.0007588172
17	0xbc9c6da0	-0.019095242
18	0x3c5c38f2	0.013441311
19	0x3db54536	0.088510916
20	0xbe10c6d9	-0.14138354
21	0xbe113bcd	-0.14182968
22	0xbe28d158	-0.16486108
23	0x3b6faaff	0.0036570427
24	0xbd3ac474	-0.04559751
25	0xbc9854aa	-0.018595058
26	0x3ca8acf2	0.02059028
27	0xbcaa9dac	-0.020827137
28	0x3d38217c	0.04495381
29	0xbdc99210	-0.09842312
30	0xbc59847f	-0.013276218
31	0x3d90b8b3	0.070664786
32	0x3db3ccdf	0.087793104
33	0x3d22efb1	0.03977937
34	0xbda248ad	-0.07924018
35	0xbdc60cd2	-0.09670414
36	0x3d2ce437	0.04220983
37	0x3c78b255	0.015179236
38	0xbdcafdc5	-0.09911684
39	0x3cc92265	0.024552533
40	0x3cb9fdbf	0.022704003
41	0xbcdd3ecd	-0.027007485
42	0x3cf53e03	0.029936796
43	0xbcf28f2b	-0.029609283
44	0xbdd91f3f	-0.10601663
45	0x3db9e7a6	0.090773866
46	0xbe0ede8c	-0.13952082
47	0xbc8cff15	-0.017211476
48	0xbe7ac395	-0.24488671
49	0xbe4574e5	-0.19282873
50	0xbe00d63e	-0.12581727
51	0x3dd8f20c	0.10593042
52	0x3dec7a13	0.11546721
53	0x3d21958a	0.039449252
54	0x3d154f56	0.036452614
55	0x3dca183e	0.09867905
56	0x3c9ee147	0.01939453
57	0x3ddd554a	0.10807283
58	0xbd0a0de2	-0.033704646
59	0x3de843f8	0.11341089
60	0x3d8df03d	0.069305874
61	0xbd585905	-0.05281927
62	0xbe47707e	-0.19476506
63	0xbe34d6ee	-0.17660114
64	0xbc32d994	-0.0109161325
65	0xbd256c97	-0.040386762
66	0x3d489498	0.048969835
67	0x3ca63c49	0.020292418
68	0xbd3b98ed	-0.04580014
69	0x3d0ae835	0.033912856
70	0xbd353746	-0.044242166
71	0x3d19755f	0.03746545
72	0x3ca69b58	0.020337746
73	0x3c4bbaa2	0.012434633
74	0x3c9c2655	0.019061247
75	0x3e15f636	0.14644703
76	0xbbbb116f	-0.0057088654
77	0xbdb556c6	-0.08854441
78	0xbd9ee8e2	-0.077592626
79	0x3dc05008	0.09390265
80	0x398950b0	0.00026190793
81	0x3d816ea7	0.063199334
82	0x3d30b8f1	0.043145124
83	0x3d9fed06	0.078088805
84	0xbe03c307	-0.12867366
85	0xbcaf3283	-0.02138639
86	0xbb9a4399	-0.0047077653
87	0xbe06dc17	-0.13169895
88	0xbd8fe0d5	-0.07025305
89	0xb9ccf6f0	-0.00039093895
90	0xbd07d1b1	-0.03315896
91	0xbdea1fa3	-0.114318155
92	0xbc25a815	-0.010110875
93	0x3ccb01b6	0.02478109
94	0x3ddd7ceb	0.10814842
95	0x3dc757f8	0.097335756
96	0xbdf48631	-0.119396575
97	0x3cfee5cd	0.031115437
98	0x3db81769	0.0898884
99	0x3d57ae80	0.05265665
100	0x3d4ece6c	0.050489828
101	0x3bf5e83a	0.00750449
102	0x3d6f0076	0.05835005
103	0x3dfc4892	0.12318529
104	0x3dd8dfd8	0.1058957
105	0xbce41b3f	-0.027845023
106	0x3d2815e0	0.041036487
107	0xbe1eb306	-0.1549798
108	0x3c3eb526	0.011639869
109	0x3e3a88e8	0.18216288
110	0x3d0a566e	0.033773832
111	0x3e0f019c	0.13965458
112	0xbcfd23aa	-0.030900795
113	0x3bd5f595	0.00652952
114	0x3e134266	0.14380798
115	0xbca5054c	-0.020144127
116	0x3dcd1e15	0.10015503
117	0x3c91be65	0.017790982
118	0xbd7bfd32	-0.061520763
119	0x3dbe4b88	0.0929175
120	0xbd3e5408	-0.046466857
121	0x3c5bbf23	0.01341227
122	0x3b3aae59	0.0028485267
123	0xbaf5fc6a	-0.0018767242
124	0xbdcfbab2	-0.10143031
125	0xbd7b4304	-0.061343208
126	0xbda1c5f2	-0.07899083
127	0xbd94e503	-0.07270243
128	0xbc348a88	-0.011019357
129	0x3dcb24ed	0.099191524
130	0xbd07167e	-0.032980435
131	0xbdac6a4d	-0.08418713
132	0xbdaf0ab1	-0.08546961
133	0xbe8f8193	-0.28028545
134	0xbe003780	-0.12521172
135	0x3b4215f9	0.0029615148
136	0xbd33791f	-0.043816682
137	0x3cb7ec1f	0.022451458
138	0xbba53f4f	-0.0050429474
139	0xbc54d614	-0.012990493
140	0xbc7ec709	-0.015550383
141	0xbc807ab9	-0.015683519
142	0x3d279cd7	0.04092106
143	0x3dbc8d8b	0.09206685
144	0x3c265142	0.010151209
145	0x3cd67699	0.026179599
146	0xbbe00fb0	-0.0068378076
147	0x3d9b2784	0.075758964
148	0xbeb48310	-0.35256243
149	0x3b0e5525	0.002171823
150	0xbe238a31	-0.15970685
151	0xbdeee4d3	-0.116647385
152	0xbbb84f2c	-0.0056246724
153	0xbdabb8c8	-0.083848536
154	0x3ca7b9af	0.020474283
155	0xbea6cae9	-0.32576683
156	0xbcb8888c	-0.022526048
157	0x3c660691	0.0140396515
158	0xbb4eed91	-0.0031574706
159	0x3df8c51d	0.121469714
160	0x3a439bf4	0.00074618985
161	0x3cc7930c	0.02436211
162	0x3d2b3567	0.041798975
163	0x3dbe07b0	0.0927881
164	0xbe2c206d	-0.16809244
165	0xbd86c0a6	-0.065797135
166	0xbd2069ec	-0.039163515
167	0x3d7158a7	0.058922436
168	0x3c772dbc	0.0150865875
169	0x3c0dbdeb	0.008651237
170	0xbbecbf8c	-0.0072249826
171	0x3b8a9f85	0.004230442
172	0x3d85c206	0.06531148
173	0x3d095966	0.033532523
174	0x3d626ee9	0.055281553
175	0x3cb388c0	0.021915793
176	0x3e707b46	0.23484525
177	0x3e1b32a4	0.15156037
178	0x3d24fcdd	0.04028021
179	0x3e4e3801	0.20138551
180	0xbb0e4686	-0.0021709516
181	0x3d3eca52	0.046579666
182	0xbd394137	-0.04522821
183	0xbde5467f	-0.11195087
184	0xbcce9033	-0.025215244
185	0xbc7dd277	-0.015492073
186	0x3da2477f	0.07923793
187	0xbde6c8d5	-0.112687744
188	0x3b9f50d7	0.004861932
189	0xbde43aef	-0.11144053
190	0x3cfc8051	0.030822905
191	0xbc352c88	-0.01105798
192	0xbc4dfd49	-0.012572595
193	0xbdeabb7b	-0.1146154
194	0xbdd570a6	-0.104218766
195	0x3ca3d13c	0.019997232
196	0xbd00c893	-0.031441282
197	0xbc14f72f	-0.009092136
198	0x3d6bcfa0	0.057571054
199	0xbd26b733	-0.040702056
200	0x3c815d56	0.015791576
201	0xbd9f7b97	-0.07787245
202	0xbd54f165	-0.051988024
203	0xbdadb4de	-0.08481763
204	0xbe7ca7ba	-0.24673358
205	0xbd33d57f	-0.043904778
206	0xbe2903ec	-0.16505402
207	0xbd095ef7	-0.03353783
208	0x3cbe171e	0.023204383
209	0x3d932fdf	0.07186865
210	0x3d084407	0.033268
211	0xbc6cd968	-0.014456131
212	0x3dad2b8c	0.084555715
213	0xbd0a8ca3	-0.033825528
214	0xbe56e7ae	-0.20986816
215	0x3e6946fd	0.22780986
216	0x3d851bf0	0.06499469
217	0x3d336cbd	0.043804873
218	0x3dc3c879	0.095597215
219	0x3da6cf2f	0.08144986
220	0xbc8e2521	-0.017351689
221	0xbcdb7a89	-0.026791828
222	0x3d905a52	0.07048477
223	0x3d18a4fb	0.037266713
224	0xbd7139fd	-0.058893193
225	0x3cb4f5f7	0.022089941
226	0x3bd1dc8a	0.006404464
227	0x3ce1e319	0.027574109
228	0x3d302380	0.043002605
229	0xbda2ffef	-0.07958972
230	0xbc2be038	-0.01049047
231	0x3d037416	0.03209313
232	0x3c7d24b4	0.015450645
233	0x3d131e13	0.035917353
234	0x3be652ff	0.007028937
235	0x3d229128	0.039689213
236	0x3e153657	0.1457151
237	0xbd8003b7	-0.062507086
238	0x3d1f15ce	0.038839154
239	0xbc53a675	-0.012918104
240	0x3d309427	0.04311004
241	0x3d3ff513	0.04686458
242	0x3d08038b	0.033206504
243	0x3d834827	0.06410246
244	0x3d06b976	0.032891713
245	0x3dc4a068	0.096009076
246	0x3d3a37b0	0.045463264
247	0x3d0bfa5e	0.034174316
248	0xbceaff60	-0.028686225
249	0xbbfc274a	-0.0076951133
250	0xbcfb74de	-0.030695375
251	0xbde1e015	-0.110290684
252	0x3d10bcac	0.03533618
253	0x3dda5fb8	0.10662788
254	0x3d9a60e6	0.07538013
255	0x3dde09e0	0.10841727

conv_layers.2.bias f4 [64]
0	0x3cdbccfd	0.026831144
1	0x3c61ef95	0.013790031
2	0xbd156576	-0.036473714
3	0x3d5e870f	0.05432802
4	0xbd4bf6d4	-0.04979594
5	0xbe3748dc	-0.17898887
6	0x3d9958d5	0.074876465
7	0x3e88672c	0.26641214
8	0xbe42b5a8	-0.19014609
9	0x3caf892b	0.021427711
10	0xbd2149f1	-0.039377157
11	0x3d846c0d	0.064659216
12	0xbe7eb1ce	-0.24872515
13	0xbdc1af96	-0.094573185
14	0x3c6e2d5e	0.014537184
15	0x3e10eb26	0.14152202
16	0x3c8e884a	0.017398972
17	0xbd504af9	-0.05085275
18	0x3e205048	0.15655625
19	0xbe04f80d	-0.12985249
20	0xbcb76cc1	-0.022390725
21	0xbdaad528	-0.083414376
22	0xbd7cb965	-0.061700244
23	0x3e3dc2e1	0.18531372
24	0xbd846aa1	-0.0646565
25	0x3d1fec29	0.03904358
26	0xbe7c134b	-0.24616735
27	0x3da6a4a5	0.08136872
28	0x3df029dc	0.11726734
29	0x3d86ade1	0.065761335
30	0xbe2022e9	-0.15638317
31	0xbd940ae1	-0.072286375
32	0xbe3a7e52	-0.1821225
33	0x3d2110fe	0.039322846
34	0x3e45439b	0.1926407
35	0x3e04fb88	0.12986577
36	0xbd12a641	-0.035803083
37	0xbd381254	-0.044939354
38	0x3db87984	0.09007552
39	0x3dbdd0d3	0.09268346
40	0xbd942af3	-0.072347544
41	0xbd0f0a27	-0.03492179
42	0x3da3088c	0.079606146
43	0x3d913806	0.07090764
44	0x3d5eba9d	0.054377187
45	0x3e01ced5	0.12676556
46	0xbce3d139	-0.027809726
47	0x3bbd9717	0.0057858336
48	0xbb31cbe8	-0.0027129594
49	0xbd872624	-0.065990716
50	0xbd5a927f	-0.053362366
51	0x3dc5d2bc	0.09659335
52	0xbe5b66f9	-0.21426
53	0x3e0a09e7	0.1348034
54	0x3e415766	0.18880996
55	0x3b2348e2	0.0024915268
56	0x3c9e72a0	0.019341767
57	0x3c98794c	0.018612526
58	0x3de2f3e5	0.110816754
59	0x3c3049c5	0.0107597755
60	0x3e3c8f03	0.1841393
61	0x3d9d8d4a	0.076929644
62	0x3dfe478f	0.124159925
63	0xbd16ba3f	-0.036798712

conv_layers.4.weight f4 [32, 64, 2, 2]
0	0x3dfaf470	0.12253654
1	0x3dcbf143	0.099581264
2	0x3d0d163d	0.034445036
3	0x3dbbe535	0.09174577
4	0x3dda5ec8	0.10662609
5	0x3da07527	0.07834845
6	0x3d800922	0.06251742
7	0xbd1466aa	-0.03623072
8	0x3d92d783	0.07170012
9	0x3d8f942c	0.070106834
10	0x3b68cff8	0.003552435
11	0xbd687fe0	-0.056762576
12	0xbdfc954f	-0.12333166
13	0xbdc51c65	-0.096245565
14	0xbe21d2c7	-0.15803061
15	0x3cf673a3	0.030084437
16	0x3e2f4532	0.1711624
17	0x3dda4961	0.10658527
18	0x3dd65824	0.1046603
19	0x3e024253	0.12720613
20	0x3d186bca	0.03721217
21	0xbd19804b	-0.037475865
22	0x3e193849	0.14962877
23	0xbcf226dd	-0.029559547
24	0x3e6c440a	0.2307283
25	0xbe087453	-0.13325624
26	0x3e64d453	0.2234662
27	0x3d3863f6	0.045017205
28	0xbe2921c4	-0.16516787
29	0xbd2f6ba1	-0.042827252
30	0xbe69bf04	-0.22826773
31	0xbe1fd3df	-0.15608166
32	0x3e001777	0.12508951
33	0x3e4a2593	0.19740896
34	0x3d47c7e1	0.048774604
35	0x3cac9cb5	0.021070817
36	0x3ddf6198	0.109072864
37	0x3d11a4a7	0.035557415
38	0x3d94308b	0.07235821
39	0x3db8df47	0.09026962
40	0x3d43728a	0.047716655
41	0x3e041922	0.12900212
42	0x3dcc4cc5	0.0997558
43	0x3d1cc91b	0.038277727
44	0xbcaf326c	-0.021386348
45	0x3bbd8a94	0.005784342
46	0xbc206c64	-0.009791467
47	0x3d9bbd39	0.07604451
48	0x3e143f74	0.1447733
49	0x3dd54b3f	0.10414743
50	0x3dab60dc	0.08368084
51	0x3e3b10a4	0.18268067
52	0x3c2be81c	0.010492351
53	0x3c3f5109	0.011677035
54	0xbd815ef9	-0.06316943
55	0xbb08a44f	-0.0020849889
56	0xbc5ee2e4	-0.0136039
57	0x3de1fc25	0.11034421
58	0x3d8617fa	0.06547542
59	0x3e0ad8ad	0.13559218
60	0x3d0659da	0.032800533
61	0x3c9d7515	0.019220868
62	0xbd140f91	-0.036147658
63	0x3d9c1366	0.076208875
64	0xbb00db5e	-0.0019662003
65	0xbda01aa7	-0.078175835
66	0x3cbfde47	0.02342142
67	0x3d13eaec	0.03611271
68	0xbdbf54b6	-0.09342329
69	0xbd9ff1da	-0.078098014
70	0x3dd35f9a	0.10320969
71	0xbc91da33	-0.01780424
72	0xbd8a1040	-0.06741381
73	0xbd78eef6	-0.060774766
74	0xbc7ac09b	-0.01530471
75	0xbdddb478	-0.10825437
76	0x3d22add3	0.039716553
77	0xbdb77ef1	-0.08959759
78	0x3ddafaa1	0.10692335
79	0x3dbd6c12	0.092491284
80	0xbd842ca1	-0.06453825
81	0x3d3bea24	0.04587759
82	0x3d272116	0.040803038
83	0xbdf359d3	-0.11882367
84	0x3cc3fafc	0.02392339
85	0xbd4a61a3	-0.04940952
86	0x3cfe230e	0.031022575
87	0xbda44a31	-0.080219634
88	0x3d752a01	0.05985451
89	0x3cc5a170	0.024124831
90	0x3d618c76	0.055065595
91	0xbd1056f9	-0.035239194
92	0x3cde252e	0.027117338
93	0xbe0c40bf	-0.13696574
94	0xbd00a343	-0.0314057
95	0x3d1954fb	0.03743456
96	0xbcbed0ec	-0.023292981
97	0x3dcf8372	0.10132493
98	0xbd20b4dd	-0.039234985
99	0x3d262a1a	0.040567495
100	0x3c979d79	0.018507706
101	0xbd5c27fe	-0.053749077
102	0x3df7f24c	0.12106761
103	0xbd06c09e	-0.032898538
104	0x3dc28594	0.09498134
105	0x3df9eda2	0.12203528
106	0x3da87926	0.08226232
107	0x3e6d3780	0.23165703
108	0xbe247ed8	-0.16064012
109	0xbe18c9f7	-0.14920793
110	0xbc90edbd	-0.017691487
111	0xbd1d9a91	-0.038477484
112	0xbdfb84fe	-0.122812256
113	0xbde9cc4d	-0.114159204
114	0x3ba420cc	0.0050087925
115	0x3cf618b4	0.030041076
116	0x3bb52ca0	0.0055290014
117	0xbdd26328	-0.10272819
118	0xbbe1a22c	-0.0068857875
119	0xbd95c410	-0.073127866
120	0x3d5b3220	0.0535146
121	0x3d9d0143	0.07666256
122	0x3dbe7db9	0.093013234
123	0x3bcfbad2	0.0063394094
124	0x3e89b9a4	0.26899445
125	0x3d798788	0.06092027
126	0x3da5b326	0.080908105
127	0x3dad5551	0.084635384
128	0x3de07b28	0.1096099
129	0x3d78bf8e	0.060729556
130	0x3e4bf41e	0.19917342
131	0x3dad1023	0.084503435
132	0xbdcfa6a9	-0.1013921
133	0xbd0988a3	-0.033577573
134	0xbd857192	-0.065158024
135	0x3bf48e04	0.0074632186
136	0xbbd9a858	-0.0066423826
137	0xbd879f87	-0.06622224
138	0xbde37678	-0.111065805
139	0xbdbdfc96	-0.092766926
140	0x3d7bc7e6	0.061469935
141	0x3d90c237	0.070682935
142	0xbc6aba63	-0.014326665
143	0x3c992cde	0.018698152
144	0x3ba623de	0.0050701937
145	0xbd10fa9d	-0.035395253
146	0xbdaee28d	-0.08539305
147	0x3dcf5d33	0.10125198
148	0x3de748ab	0.11293157
149	0x3e2152ee	0.15754291
150	0xbd40bf02	-0.04705716
151	0x3bdfb87f	0.0068274136
152	0xbd027d08	-0.03185752
153	0xbdf59580	-0.119914055
154	0xbe383401	-0.17988588
155	0xbdf7a5f5	-0.12092201
156	0xbd8e2ad8	-0.069417655
157	0x3df1d246	0.118076846
158	0x3b91091b	0.0044261343
159	0x3d2e2315	0.042513926
160	0xbabe4633	-0.0014516771
161	0x3d54c897	0.05194911
162	0x3dbfb3a8	0.093604386
163	0x3d8b00ac	0.067872375
164	0x3c69fbeb	0.014281253
165	0x3b6f28e7	0.0036492886
166	0x3c95c604	0.018282898
167	0x3d81e893	0.06343188
168	0xbd83eb3d	-0.064413525
169	0xbdf62213	-0.12018218
170	0x3de2c93f	0.11073541
171	0xbd8fb884	-0.070176154
172	0xbd653eec	-0.05596821
173	0xbe38799a	-0.18015137
174	0x3e179e8b	0.14806573
175	0xbd903b05	-0.07042507
176	0x3dfa7411	0.12229169
177	0xbc359033	-0.011081743
178	0x3da3367c	0.079693764
179	0x3c2f1f17	0.010688565
180	0xbe317fb1	-0.17333867
181	0xbdd9fe76	-0.10644238
182	0xbe003458	-0.12519968
183	0xbd9c9a80	-0.07646656
184	0x3dccfc9d	0.1000912
185	0x3dab9989	0.08378894
186	0x3e592afe	0.21207806
187	0xbd8e11c7	-0.069369845
188	0xbd092be1	-0.03348911
189	0x3c778134	0.015106488
190	0xbc96e44a	-0.018419404
191	0xbcfd0f77	-0.030891163
192	0x3d1ed106	0.03877356
193	0x3ccbca9c	0.024876885
194	0x3b39c1c3	0.002834425
195	0xbdd26b0c	-0.10274324
196	0xbd581f61	-0.0527643
197	0x3d0b22aa	0.033968605
198	0x3c9551f5	0.018227557
199	0x3d83dd61	0.06438709
200	0xbe3c3090	-0.183779
201	0xbe0d4e0b	-0.13799302
202	0x3e0269f5	0.12735732
203	0xbd85c8a3	-0.06532409
204	0x3ce18aee	0.027532067
205	0xbd8074c9	-0.06272275
206	0x3a8b28ab	0.0010616978
207	0x3cd158f5	0.025555113
208	0x3e3f2111	0.18664958
209	0x3d2627eb	0.040565412
210	0x3e2865ec	0.1644513
211	0x3de448de	0.11146711
212	0xbcdf0b03	-0.02722693
213	0xbc8d5cd7	-0.017256184
214	0x3dd657ba	0.10465951
215	0x3c837342	0.01604617
216	0xbdda9c8d	-0.10674391
217	0x3d76e776	0.060279332
218	0xbdc19b2f	-0.09453427
219	0xbaabf008	-0.00131178
220	0xbda44f4d	-0.08022938
221	0x3dce52c4	0.1007438
222	0x3d5160c0	0.05111766
223	0xbd2c830a	-0.042117156
224	0xbd00aaa8	-0.03141275
225	0x3d8e251a	0.0694067
226	0xbdf8531d	-0.121252276
227	0xbd1d08d0	-0.038338482
228	0x3ccd2076	0.025039893
229	0xbda0f0af	-0.07858407
230	0xbc3bf282	-0.011471393
231	0xbc8805b3	-0.01660428
232	0x3cd0d759	0.02549331
233	0xbd880246	-0.066410586
234	0xbd05636c	-0.03256552
235	0xbdffbffb	-0.12487789
236	0xbd94585b	-0.07243415
237	0xbd9f3ac1	-0.07774878
238	0x3ca114b4	0.019663192
239	0x3dd41440	0.10355425
240	0x3c9ff40b	0.019525548
241	0xbe2ee491	-0.17079379
242	0xbd602171	-0.054719392
243	0x3c0216f2	0.007940041
244	0x3e84312b	0.25818762
245	0x3de054cf	0.10953676
246	0x3d78254d	0.060582448
247	0x3d72cc31	0.059276763
248	0xbb84ed32	-0.004056596
249	0xbb9eecdd	-0.0048500136
250	0xbd759506	-0.059956573
251	0xbd0b0ba5	-0.033946652
252	0x3d99560d	0.07487116
253	0x3d77063f	0.06030869
254	0x3d9c2fe7	0.07626324
255	0xbd8da2b4	-0.06915799

conv_layers.4.bias f4 [32]
0	0xbe644f31	-0.22295834
1	0x3df83335	0.12119142
2	0x3deca07e	0.11554049
3	0x3e26a53f	0.16273974
4	0xbd3b5f19	-0.04574499
5	0x3e012d70	0.1261499
6	0x3dbebf9c	0.0931389
7	0xbd40125a	-0.0468925
8	0x3d1e5b53	0.038661312
9	0x3d3a6e7f	0.045515534
10	0x3c8c503a	0.017128099
11	0xbe308e0f	-0.17241691
12	0xbdeb8421	-0.11499811
13	0x3d73154d	0.059346486
14	0xbcadd056	-0.021217506
15	0x3c61e07e	0.013786433
16	0x3d4ff49a	0.05077038
17	0x3d534c87	0.051586654
18	0x3dc398e6	0.095506474
19	0xbd2c9f6a	-0.042144217
20	0xbe09ce93	-0.13457708
21	0x3dff39d5	0.124622025
22	0xbd05d531	-0.03267402
23	0xbdb615de	-0.088908896
24	0x3db24c91	0.0870601
25	0x3d8e48e8	0.069474995
26	0x3d8b946b	0.06815418
27	0x3d090cb8	0.033459395
28	0x3d4db4d0	0.050221264
29	0x3e33eda5	0.17571123
30	0xbdb82b0d	-0.08992586
31	0xbd98a9e4	-0.07454279

fc_state.0.weight f4 [256, 128]
0	0x3d213c2a	0.039364018
1	0x3d3be475	0.04587217
2	0xbde945e9	-0.113902874
3	0x3a1fd196	0.00060965994
4	0xbd8b0337	-0.067877226
5	0xbc657efa	-0.014007324
6	0x3cc8a6cf	0.024493603
7	0x3ddf3f2a	0.109007195
8	0xbb886406	-0.0041623143
9	0xbd9c1cdb	-0.07622691
10	0xbc8a4430	-0.016878217
11	0xbda13170	-0.078707576
12	0xbd71bdce	-0.059018902
13	0x3df7624a	0.12079294
14	0x3c9cd375	0.0191438
15	0xbd834279	-0.06409163
16	0xbd9c22f1	-0.07623852
17	0x3d3117df	0.043235656
18	0x3db00b66	0.08595924
19	0xbcf2241f	-0.02955824
20	0x3df406a4	0.11915329
21	0x3c1ecf79	0.00969302
22	0xbcebe62d	-0.02879628
23	0x3d57c76c	0.052680418
24	0x3d1a2825	0.03763594
25	0xbcce5d01	-0.025190832
26	0xbcef2991	-0.029194625
27	0xbc704ca1	-0.014666707
28	0xbdfc8105	-0.12329296
29	0x3d1bb2c8	0.038012296
30	0x3cd7063d	0.026248092
31	0xbbe1b9fc	-0.006888626
32	0xbe2587ba	-0.16165057
33	0xbd9f507e	-0.077790245
34	0xbceb9c58	-0.028761074
35	0xbd4caf7e	-0.04997205
36	0xbbe2adb3	-0.006917679
37	0x3dbba084	0.09161475
38	0x3d9dc6db	0.07703944
39	0xbd4958ef	-0.04915708
40	0xbdbf5733	-0.09342804
41	0xbe085bdb	-0.1331629
42	0xbe425687	-0.1897832
43	0xbdf4761a	-0.119365886
44	0x3dbddd35	0.092707075
45	0x3dbe4530	0.0929054
46	0x3d271645	0.040792722
47	0xbde00d4b	-0.109400354
48	0xbdad1dd8	-0.08452958
49	0x3cfab1e8	0.03060241
50	0xbdab4860	-0.08363414
51	0x3c9ef31a	0.01940303
52	0x3d987c62	0.07445599
53	0xbd3aeda5	-0.04563679
54	0x3d34323d	0.043993223
55	0x3d1b1dd6	0.03787025
56	0xbd7f97cd	-0.062400628
57	0xbdf9b36c	-0.12192425
58	0x3d935562	0.0719402
59	0xbd62a5b9	-0.055333827
60	0xbd560dfc	-0.05225943
61	0xbdb467f2	-0.088088885
62	0x3ae7870a	0.0017664146
63	0xbd64311f	-0.055710908
64	0x3def75fc	0.116924256
65	0x3d7a8a52	0.06116707
66	0xbca5bd82	-0.020231966
67	0xbd40aed4	-0.04704173
68	0x3dac1d09	0.084039755
69	0xbd5face2	-0.054608233
70	0x3dbd01c0	0.092288494
71	0x3d255a63	0.040369403
72	0x3d8adcc6	0.067803904
73	0xbc84d164	-0.016213126
74	0x3c53cabd	0.012926755
75	0xbe3f24a2	-0.18666318
76	0x3e0f5d07	0.14000331
77	0xbdd61af3	-0.10454359
78	0xbda0a9bf	-0.078448765
79	0xbd295b82	-0.041347034
80	0xbd6f4da4	-0.058423653
81	0x3d1a4b8a	0.037669696
82	0xbd935eff	-0.071958534
83	0x3d92eb6c	0.071738094
84	0x3d7dfd47	0.062009122
85	0x3df1ec54	0.11812654
86	0xbd5b2ed3	-0.053511452
87	0x3db6f957	0.089342766
88	0xbd11f507	-0.035634067
89	0x3dd4cbd1	0.103904374
90	0xbdf34a5e	-0.11879419
91	0xbd815e4b	-0.06316813
92	0xbd45f45a	-0.048328735
93	0x3d315089	0.043289695
94	0x3cabccfc	0.020971768
95	0x3df813a6	0.12113123
96	0x3d34e376	0.044162236
97	0xbd18a6f3	-0.03726859
98	0x3c1eaaa3	0.009684238
99	0xbdde576f	-0.108565204
100	0xbd9a7701	-0.075422294
101	0x3d6fa94f	0.058511075
102	0xbd35fea8	-0.044432312
103	0x3d6559cc	0.05599384
104	0x3e3b06be	0.1826429
105	0xbe0fa931	-0.14029385
106	0xbdbe935d	-0.09305451
107	0xbd4e0e1f	-0.050306436
108	0x3d00aa6e	0.031412534
109	0xbda6261a	-0.08112736
110	0x3dc7002e	0.09716831
111	0x3cf5bacf	0.029996304
112	0x3c4a4457	0.012345395
113	0x3d6b8d16	0.057507597
114	0x3df39e37	0.118954115
115	0x3da4d479	0.080483384
116	0xbd91e274	-0.07123271
117	0x3bb19cd5	0.005420307
118	0x3d958681	0.07301045
119	0x3cd40eac	0.025885902
120	0xbd61f31b	-0.055163484
121	0xbb9e7ccb	-0.004836654
122	0xbd0160a5	-0.031586308
123	0xbd5460a3	-0.051849972
124	0xbdb2a243	-0.08722355
125	0xbe316733	-0.17324524
126	0x3a1b5b8c	0.00059264223
127	0xbdb834a9	-0.08994419
128	0xbd3502dd	-0.044192184
129	0x3dcf9af6	0.10136978
130	0xbbb6306b	-0.005559971
131	0xbda625db	-0.08112689
132	0x3c53d602	0.012929441
133	0x3cd80208	0.026368156
134	0xbd4b9c2f	-0.049709495
135	0xbdb9e06f	-0.090760104
136	0x3cc4cded	0.024023974
137	0x3dfb879d	0.122817256
138	0xbe7834ac	-0.24238843
139	0x3d1e382a	0.03862778
140	0x3d42ed51	0.047589604
141	0x3e462d5b	0.19353239
142	0xbdb7ee56	-0.08981006
143	0xbd1e95dc	-0.038717136
144	0x3c16cd82	0.00920427
145	0x3d76eae3	0.0602826
146	0xbd1f7989	-0.038934264
147	0x3dbaae9a	0.09115334
148	0x3d84c8a4	0.06483582
149	0xbcf88b03	-0.030339723
150	0x3db623d7	0.08893555
151	0xbd0901eb	-0.033449095
152	0x3c63922a	0.013889829
153	0x3cd1773b	0.025569549
154	0xbda742c8	-0.081670344
155	0x3c446563	0.011987063
156	0xbce85e32	-0.028365228
157	0xbdecd810	-0.11564648
158	0x3d213f29	0.039366875
159	0xba1c1ba4	-0.00059550465
160	0x3c0e7a43	0.008696142
161	0x3d104fe0	0.035232425
162	0xbd811322	-0.063024774
163	0xbd6cbb90	-0.05779606
164	0xbe2b430d	-0.16724797
165	0xbe50b90f	-0.20383094
166	0xbc1e9756	-0.009679636
167	0x3cad9b2c	0.021192156
168	0x3d49952b	0.049214523
169	0x3cf254ae	0.029581394
170	0xbd0aadba	-0.033857085
171	0xbd16d320	-0.03682244
172	0x3da15b12	0.078786984
173	0xbc90f426	-0.017694544
174	0xbd13a27f	-0.03604364
175	0x3dacbeaf	0.084348075
176	0xbdb52b57	-0.08846157
177	0xbcb41ee8	-0.021987393
178	0x3b0e5e3d	0.002172365
179	0xbd88d399	-0.06680984
180	0xbde22259	-0.110417075
181	0xbe273f5a	-0.1633276
182	0xbe064025	-0.13110407
183	0xbe502cc0	-0.20329571
184	0x3da605be	0.08106564
185	0x3d7c59e8	0.06160918
186	0xbd79c5d9	-0.060979698
187	0xbdd47e89	-0.10375697
188	0xbd893f2a	-0.06701501
189	0xbd1fc316	-0.039004408
190	0xbe2900ec	-0.16504258
191	0xbde0f659	-0.10984487
192	0xbcb435ed	-0.02199837
193	0x3c2a6d46	0.010402029
194	0x3d95554a	0.07291658
195	0xbdc3703d	-0.09542892
196	0xbdb6bd39	-0.0892281
197	0xbd646cd3	-0.055767845
198	0xbd9966d9	-0.0749032
199	0x3d115a49	0.035486493
200	0xbcdbd7fc	-0.026836388
201	0x3d2d611d	0.042328943
202	0x3d5ad4f5	0.053425748
203	0x3e1b670e	0.15176031
204	0x3d5a8fae	0.05335968
205	0x3cc69fe7	0.02424617
206	0xbcbf5a77	-0.023358567
207	0xbe38d3ff	-0.1804962
208	0x3d983177	0.0743131
209	0x3d9fa9f9	0.077960916
210	0x3d9b6259	0.07587118
211	0xbd783be9	-0.06060401
212	0x3cb6a470	0.022295207
213	0x3dd230ad	0.102631904
214	0xbdd16eab	-0.10226186
215	0x3dbcf5ca	0.09226568
216	0x3dee1ca0	0.116265535
217	0x3d6018ce	0.054711156
218	0x3c389d0f	0.011267914
219	0xbb82abac	-0.00398775
220	0xbd6993c1	-0.057025675
221	0xbe9381b9	-0.28809908
222	0xbdac99f2	-0.084278
223	0xbd0f8813	-0.03504188
224	0x3cfcfa5b	0.030881098
225	0x3d2f24b5	0.042759616
226	0x3d6add38	0.057339877
227	0x3da4a8be	0.080399975
228	0x3a51d407	0.0008004312
229	0xbd788ab4	-0.060679153
230	0x3d2bbc7b	0.041927796
231	0x3da21de7	0.0791586
232	0x3cbf456d	0.023348534
233	0xbd539eb1	-0.05166501
234	0xbda41d6a	-0.08013423
235	0x3db6318a	0.088961676
236	0x3ce111e0	0.027474344
237	0x3d147928	0.036248356
238	0xbcce4906	-0.025181305
239	0x3cb324fb	0.02186822
240	0x3d5953c9	0.05305842
241	0x3d8f857e	0.070078835
242	0x3c11cd4a	0.008899042
243	0xbc950060	-0.018188655
244	0x3a7bcae5	0.0009605124
245	0x3dbc3bd9	0.091911025
246	0xbd7284e0	-0.05920875
247	0xbcd16aa2	-0.025563542
248	0xbdd31b31	-0.10307921
249	0x3d962c2c	0.07332644
250	0xbce33354	-0.027734436
251	0x3d7555d3	0.0598963
252	0xbc6b1654	-0.014348585
253	0xbe10289b	-0.1407799
254	0xbe55d577	-0.20882212
255	0x3c9eaa2b	0.019368252

fc_state.0.bias f4 [256]
0	0x3d9cb35d	0.07651398
1	0x3dc36f7e	0.0954275
2	0xbd76d2ea	-0.060259737
3	0x3dd850fb	0.10562321
4	0x3b813b3d	0.0039438293
5	0x3cdbc6f2	0.026828263
6	0xbdabfa57	-0.08397358
7	0x3dedc7d5	0.116103806
8	0x3dee5ef4	0.116392046
9	0x3d0b58fa	0.0340204
10	0x3e0d63eb	0.13807647
11	0x3e08c113	0.13354902
12	0x3d6f7d4b	0.058469098
13	0x3d2372ba	0.039904334
14	0x3d8edb81	0.06975461
15	0xbd7e51a6	-0.062089585
16	0x3cc5b21b	0.024132779
17	0x3dcde349	0.10053117
18	0xbbc267d0	-0.0059327856
19	0x3c93cdbc	0.018042438
20	0xbdb68e41	-0.089138515
21	0xbd141a64	-0.03615798
22	0xbe114d63	-0.14189677
23	0x3d347592	0.044057436
24	0x3e1d0c55	0.15336736
25	0x3dba0ae6	0.0908411
26	0xbe06985c	-0.13144058
27	0xbe12b8d5	-0.1432832
28	0xbd254a33	-0.040353965
29	0xbd758821	-0.059944276
30	0x3e03a20b	0.12854783
31	0x3d5eacb5	0.054363925
32	0xbca9b1f8	-0.020714745
33	0x3e0789e9	0.13236202
34	0x3dcf1c21	0.10112787
35	0xbd2ddf40	-0.042449236
36	0x3da5105d	0.08059762
37	0x3dc2ba7e	0.09508227
38	0xbc35324d	-0.011059356
39	0xbd1c48c9	-0.03815535
40	0x3cf67353	0.030084288
41	0x3e1bcd51	0.1521504
42	0x3d6de6c6	0.05808141
43	0x3d6c8a79	0.057749245
44	0xbd8aba74	-0.06773844
45	0x3d3e1558	0.046407074
46	0x3cfaff5a	0.03063934
47	0xbe24f82b	-0.16110294
48	0xbcb5b858	-0.022182629
49	0x3d81ab06	0.06331448
50	0x3e28b9c1	0.1647711
51	0x3db91b8a	0.09038456
52	0x3da90c06	0.082542464
53	0x3cb8bf36	0.022552114
54	0x3e3af28b	0.18256585
55	0x3dd95aff	0.10613059
56	0xbdd1aba8	-0.10237819
57	0xbb915f0b	-0.004436379
58	0x3dc6010e	0.0966817
59	0xbe04d005	-0.12969978
60	0x3d96c170	0.07361114
61	0x3e242c3c	0.16032499
62	0xbe114188	-0.14185154
63	0xbda5c9cb	-0.080951296
64	0xbb26604b	-0.0025386985
65	0xbd86555f	-0.06559252
66	0x3d8703a0	0.06592488
67	0xbe149f47	-0.14513884
68	0xbd9319f6	-0.07182686
69	0xbe0f7f4d	-0.14013405
70	0xbda40bfd	-0.08010099
71	0x3d862bd1	0.06551326
72	0xbd6493c9	-0.055805
73	0x3a0ff8ce	0.0005492092
74	0x3e1ca04e	0.15295526
75	0xbdad0175	-0.084475435
76	0x3d8a5f31	0.067564376
77	0xbdb66689	-0.08906276
78	0xbdc039dd	-0.093860365
79	0xbd4d2876	-0.050087415
80	0xbd0601a8	-0.032716423
81	0x3aefc63d	0.0018293333
82	0x3e6c6059	0.23083629
83	0x3dfdac63	0.12386396
84	0x3e58e998	0.21182859
85	0x3d93fa88	0.072255194
86	0x3d7aae9d	0.06120168
87	0xbd65d6af	-0.05611294
88	0xbd8e0a13	-0.06935515
89	0xbd8e7810	-0.06956494
90	0xbde63a83	-0.11241629
91	0x3e06d944	0.13168818
92	0xbdff3090	-0.124604344
93	0x3e2a31b8	0.16620529
94	0xbc16bfb0	-0.009200975
95	0x3d484428	0.048893124
96	0xbda3f929	-0.08006508
97	0xbdb34654	-0.087536484
98	0x3d24a1ab	0.04019324
99	0xbe0e3bf9	-0.13890065
100	0x3e0aaaed	0.13541766
101	0xbc0b9193	-0.008518594
102	0xbe23bea5	-0.15990694
103	0xbd24b7d6	-0.040214382
104	0xba6bb128	-0.0008990937
105	0x3d6b34ab	0.057423275
106	0x3d8dbd07	0.0692082
107	0x3d5249e2	0.05133999
108	0xbdf265df	-0.118358366
109	0x3db44f2c	0.08804163
110	0xbd57445c	-0.052555427
111	0x3d97ed92	0.0741836
112	0xbdc3234a	-0.09528215
113	0xbe35d4f9	-0.17757024
114	0xbc93f980	-0.018063307
115	0x3bc8097e	0.006104647
116	0x3d99636c	0.07489666
117	0x3c9fb46b	0.01949521
118	0x3c3ba262	0.011452289
119	0x3bb416f8	0.005495902
120	0xbe15e77a	-0.14639083
121	0x3df39cf3	0.1189517
122	0xbd10a1f7	-0.03531071
123	0x3d9e1700	0.07719231
124	0x3c8bc3a7	0.017061068
125	0xbb4ae103	-0.0030956871
126	0x3dd60d84	0.10451797
127	0x3bdb1a0f	0.006686456
128	0x3de92892	0.11384691
129	0x3d06042f	0.032718834
130	0x3d550864	0.052009955
131	0x3d33744a	0.043812074
132	0xbdbd2960	-0.09236407
133	0x3d8a0e1d	0.06740973
134	0xbd6438a2	-0.05571807
135	0x3d185566	0.037190817
136	0x3d915eee	0.070981845
137	0xbe45f534	-0.19331819
138	0x3debb18f	0.11508476
139	0x3e3b3e0f	0.18285392
140	0xbd1ab905	-0.037774105
141	0x3e12c685	0.14333542
142	0xbc392ad8	-0.011301719
143	0x3d5e19f0	0.054223955
144	0xbd2b9705	-0.04189207
145	0x3d874262	0.066044584
146	0x3e51ae46	0.20476636
147	0x3e114958	0.14188135
148	0xbe3f2a1d	-0.18668409
149	0x3e12189a	0.14267197
150	0xbc2e50e7	-0.010639406
151	0x3d353029	0.044235382
152	0xbe1e5def	-0.1546552
153	0xbde229c4	-0.110431224
154	0xbd9e9d09	-0.07744796
155	0x3de7f55b	0.11326095
156	0x3e1fa331	0.15589596
157	0xbc8cde47	-0.017195834
158	0x3d25fa25	0.04052176
159	0x3c91beeb	0.017791232
160	0xbc282e5b	-0.010264958
161	0xbe60460c	-0.21901721
162	0xbdbfa84d	-0.09358273
163	0x3de05010	0.10952771
164	0x3df488c4	0.119401485
165	0xbd78c0ab	-0.060730617
166	0x3cdd64e8	0.027025655
167	0xbd2e0b50	-0.042491257
168	0x3defb6bc	0.11704776
169	0x3c3f01dd	0.011658159
170	0x3cf5eace	0.03001919
171	0xbdf60522	-0.12012698
172	0xbcf0f333	-0.029412841
173	0xbd2075b2	-0.039174743
174	0xbc557127	-0.013027466
175	0x3e073721	0.13204624
176	0x3c85ff38	0.01635705
177	0xbd0d48bd	-0.034493197
178	0x3d2e14cb	0.0425003
179	0x3ddac6a3	0.10682418
180	0x3d1f6118	0.038910955
181	0x3e3c7058	0.1840223
182	0xbcbdb74e	-0.023158696
183	0x3d6d400c	0.057922408
184	0xbda881fd	-0.08227918
185	0x3e0cdf8a	0.13757148
186	0xbe10c762	-0.14138559
187	0xbd891777	-0.06693929
188	0x3ce1f263	0.0275814
189	0x3e12829a	0.14307633
190	0x3b8a5c00	0.004222393
191	0x3df2d32e	0.118566856
192	0x3d448201	0.047975544
193	0xbcf86d9f	-0.030325709
194	0x3c257946	0.010099715
195	0x3e19d9f0	0.15024543
196	0xbd9b6556	-0.07587688
197	0xbc9692e7	-0.018380595
198	0x3c9a851c	0.0188623
199	0xbe1bedf8	-0.15227497
200	0x3e28142f	0.1641395
201	0xbbb8108e	-0.005617208
202	0xbd660a5e	-0.05616223
203	0xbda0cd72	-0.078516856
204	0x3e0c7b38	0.13718879
205	0x3cda7af1	0.026669951
206	0xbdd4d571	-0.10392273
207	0x3bfe5e79	0.007762727
208	0x3c2b03ba	0.0104379
209	0x3e11ef96	0.14251551
210	0x3c6aefb2	0.014339374
211	0x3d13746b	0.035999697
212	0xbd825a7c	-0.06364915
213	0x3d131cbf	0.035916086
214	0x3b46686d	0.0030274645
215	0x3e36574c	0.17806739
216	0xbc3cc0e7	-0.011520601
217	0xbbe80d71	-0.0070816805
218	0x3db5dcd2	0.08880009
219	0xbdc4386d	-0.09581075
220	0x3c34176a	0.0109919105
221	0xbcd51c44	-0.026014455
222	0x3d82fe00	0.06396103
223	0x3c3dbc72	0.011580573
224	0xbda93e2f	-0.08263814
225	0x3cad8f03	0.021186357
226	0x3cc845f5	0.02444742
227	0x3ced69c6	0.0289811
228	0x3e3f6266	0.1868988
229	0xbd84a9a4	-0.06477669
230	0xbd69f5c4	-0.057119146
231	0x3b8da945	0.004323157
232	0xbd2b917f	-0.041886803
233	0xbe346cbf	-0.17619608
234	0x3dfc8660	0.123303175
235	0x3daccfa8	0.08438045
236	0xbd55ee7b	-0.052229386
237	0x3dd5e27d	0.1044359
238	0x3aac9040	0.0013165548
239	0xbd1df2bc	-0.038561568
240	0xbdabbbb2	-0.083854094
241	0x3c74ec9b	0.014948989
242	0x3df65010	0.120269895
243	0x3c9bf461	0.019037427
244	0x3d3845ef	0.04498857
245	0x3c7bc825	0.015367542
246	0x3d1bc833	0.03803272
247	0x3e0f1df8	0.13976276
248	0x3e23b226	0.15985927
249	0xbcb0db57	-0.021588964
250	0x3e21f356	0.15815482
251	0x3d19c28d	0.037539054
252	0xbc3dd8b1	-0.011587308
253	0x3d09d091	0.03364617
254	0xbcbffd99	-0.023436354
255	0x3dde88be	0.10865925

fc_state.2.weight f4 [64, 256]
0	0xbe05783e	-0.1303415
1	0xbdead9f3	-0.11467352
2	0x3e54383a	0.20724574
3	0x3d7b3f88	0.061339885
4	0xbc9f800d	-0.019470239
5	0x3c064d6a	0.008197168
6	0x3db0f9a4	0.08641365
7	0xbd40da27	-0.047083046
8	0xbe9559ca	-0.29170066
9	0xbca5941d	-0.020212227
10	0xbd65029a	-0.055910684
11	0xbd967744	-0.07346967
12	0xbd9f8c6b	-0.077904545
13	0xbe11015d	-0.14160676
14	0xbda4fc43	-0.080559276
15	0x3de21ac4	0.110402614
16	0x3c2683bf	0.010163247
17	0xbd9bd655	-0.0760924
18	0xbd985ced	-0.07439599
19	0x3bdb3d73	0.006690675
20	0x3e9a0a2a	0.3008588
21	0x3e1f18b8	0.15536773
22	0x3ddad0f0	0.10684383
23	0x3e779567	0.24178086
24	0xbc083b12	-0.008314865
25	0xbe034101	-0.12817766
26	0x3e6dbf1c	0.23217434
27	0x3e39dd08	0.18150723
28	0x3e9d35c3	0.3070508
29	0xbe8477c6	-0.2587263
30	0xbe52cfdf	-0.20587109
31	0xbbc3b676	-0.005972679
32	0xbe84326d	-0.25819722
33	0xbd424358	-0.047427505
34	0xbd36f164	-0.0446638
35	0xbe26a216	-0.16272768
36	0xbdea076f	-0.11427199
37	0xbe1d765b	-0.1537718
38	0xbed192b5	-0.4093224
39	0xbe5772c5	-0.21039875
40	0xbe60d64c	-0.21956748
41	0xbd5a03d2	-0.0532263
42	0x3b725ddf	0.003698222
43	0x3dfb5239	0.12271542
44	0x3da05ede	0.078305945
45	0xbdcfcf3b	-0.10146948
46	0xbe21fcf9	-0.15819158
47	0x3eb407b6	0.35162133
48	0x3d82f940	0.06395197
49	0xbe1b29a8	-0.1515261
50	0xbcf096e8	-0.029368833
51	0xbe774932	-0.24149016
52	0xbe34f52a	-0.17671648
53	0xbb95a22e	-0.0045664525
54	0x3d2c6330	0.04208678
55	0xbdaf8ee9	-0.0857218
56	0x3e819b72	0.25313908
57	0xbe7601bf	-0.24024104
58	0xbe65676d	-0.22402735
59	0xbe8002de	-0.25002187
60	0xbe096b93	-0.13419943
61	0xbd073908	-0.033013374
62	0x3dfb8141	0.122805126
63	0x3cce28ad	0.02516588
64	0x3d2c7a56	0.042108856
65	0x3de2d340	0.11075449
66	0xbc4784a6	-0.012177622
67	0x3c387257	0.0112577295
68	0xbed074f9	-0.40714243
69	0x3dfc13c7	0.1230846
70	0xbd1105da	-0.03540597
71	0x3ce314f6	0.027719956
72	0xbe9f96a0	-0.31169605
73	0x3ce43bc7	0.027860535
74	0xbdddc974	-0.1082944
75	0x3cd13091	0.025535854
76	0x3d3db8ca	0.046318807
77	0x3d92799c	0.071521014
78	0xbccde7c0	-0.025134921
79	0xbe7fb25f	-0.24970387
80	0x3d57c52c	0.052678272
81	0xbeb50fe8	-0.35363698
82	0xbc0dd3e2	-0.008656474
83	0xbe0d1bb5	-0.137801
84	0x3d6105f6	0.054937325
85	0xbea3f294	-0.3202101
86	0xbdbae0c3	-0.09124901
87	0x3d5c6634	0.053808406
88	0xbcee111e	-0.029060896
89	0xbe338943	-0.1753283
90	0xbc57c0e4	-0.013168547
91	0xbbd2ed33	-0.0064369678
92	0x3d6cc40b	0.05780415
93	0x3a4e5ed1	0.0007872405
94	0x3e1b42b4	0.15162164
95	0xbcbbc844	-0.022922643
96	0x3e1e4f41	0.1545992
97	0x3dee5b7f	0.11638545
98	0x3ec97a84	0.39351285
99	0x3d471862	0.048607238
100	0xbc343c82	-0.011000754
101	0xbebd5bee	-0.369842
102	0x3dc20db8	0.09475273
103	0x3ce9cd29	0.02854021
104	0xbd941776	-0.07231037
105	0xbb0e0d13	-0.0021675273
106	0xbe3e81fe	-0.18604276
107	0xbdb2c5d8	-0.08729142
108	0x3d9eba36	0.07750361
109	0xbc797ece	-0.0152279865
110	0xbe65edad	-0.22453947
111	0x3e45b3a6	0.19306812
112	0xbc9ea8a1	-0.019367518
113	0x3d8140db	0.06311198
114	0x3d8fc6e5	0.07020358
115	0xbe2ef360	-0.17085028
116	0x3d65a014	0.056060866
117	0xbcf837f3	-0.030300116
118	0x3cc74d85	0.024328956
119	0xbc47e61f	-0.012200861
120	0x3e42f4ae	0.1903865
121	0xbdbce855	-0.09224001
122	0x3c901606	0.017588627
123	0x3c0c8fd7	0.008579216
124	0x3b7e841d	0.003883607
125	0xbd134182	-0.035951145
126	0x3afe3fcd	0.0019397676
127	0xbd8fa92e	-0.0701469
128	0xbe005661	-0.12532951
129	0x3e14bec4	0.14525896
130	0xbe8154b6	-0.25259942
131	0x3a99a824	0.0011723083
132	0x3e25be33	0.16185836
133	0xbe8e4a74	-0.27791178
134	0xbd831878	-0.064011514
135	0x3d772a0c	0.060342833
136	0xbe18f589	-0.14937414
137	0x3d911708	0.07084471
138	0xbcb78bd4	-0.022405542
139	0x3d71d30b	0.059039157
140	0x3dd95889	0.1061259
141	0x3d6485e3	0.055791747
142	0x3e2fe94c	0.1717884
143	0x3ce4bd42	0.027922276
144	0xbeab3de6	-0.33445662
145	0xbe097411	-0.13423182
146	0xbb06f2c5	-0.002059148
147	0x3d5061be	0.050874464
148	0x3d49b8f9	0.04924867
149	0xbd66e6bb	-0.056372385
150	0xbe0b348c	-0.13594264
151	0x3a4738d5	0.0007599716
152	0x3e42faf5	0.19041045
153	0x3e2ae405	0.16688545
154	0x3da59edc	0.08086941
155	0xbe740f18	-0.23833883
156	0x3d7a04e5	0.061039824
157	0x3e6f2b6f	0.23356412
158	0x3dfbfcc4	0.123040706
159	0x3d455fc7	0.048187044
160	0x3e359c22	0.17735341
161	0x3ccc73fe	0.024957653
162	0x3e4f6e0f	0.20256828
163	0x3d2251e9	0.039628897
164	0x3d54b2cd	0.05192833
165	0x3e2e6414	0.17030364
166	0x3dbddec4	0.09271005
167	0x3d89475f	0.06703066
168	0x3d8fdc6d	0.07024465
169	0x3daf9d49	0.08574922
170	0xbe1c19b6	-0.15244183
171	0x3e4497b4	0.19198495
172	0xbc8b17b8	-0.016979083
173	0x3dc8a50e	0.09797107
174	0x3c81fb2d	0.01586684
175	0xbe38f5cc	-0.18062514
176	0x3ca239e8	0.019803002
177	0x3e2ebc07	0.17063914
178	0xbd1f2147	-0.038850095
179	0x3b4aade3	0.0030926398
180	0x3d3186bf	0.043341395
181	0x3d7d5df4	0.06185718
182	0x3d39d8ee	0.045372896
183	0xbd95e124	-0.07318333
184	0x3da17404	0.07883456
185	0x3c10a70c	0.00882889
186	0x3e1157d7	0.14193664
187	0x3e5375e6	0.20650443
188	0x3cd1562a	0.025553782
189	0xbe591970	-0.2120111
190	0xbc71e3df	-0.014763801
191	0xbe2d3da7	-0.1691805
192	0xbdbc8a30	-0.09206045
193	0x3e356bb1	0.17716862
194	0xbe407f5b	-0.18798582
195	0x3b5dec12	0.0033862633
196	0xbe8cddc2	-0.27512938
197	0x3df2520a	0.11832054
198	0xbd99decc	-0.07513198
199	0x3eaef202	0.34169012
200	0xbd1fda25	-0.0390264
201	0x3e156578	0.14589489
202	0xbe816ff5	-0.2528073
203	0x3d616510	0.05502802
204	0x3d6f471e	0.058417432
205	0xbde93d88	-0.11388689
206	0x3d6a623c	0.05722259
207	0xbd3eb24b	-0.046556752
208	0x3e8b2317	0.2717521
209	0xbd49014d	-0.049073506
210	0x3d9c5b9d	0.07634661
211	0x3d30cabe	0.0431621
212	0x3e99759c	0.2997254
213	0xbe34cc0f	-0.17655967
214	0x3ca90bd8	0.02063553
215	0xbc9fefe7	-0.019523574
216	0x3e0cf7b6	0.13766369
217	0x3e01050d	0.12599583
218	0xbd3fb527	-0.04680362
219	0x3d6a2b6e	0.057170324
220	0xbc838029	-0.016052322
221	0x3c99a748	0.018756524
222	0x3dc6238d	0.096747495
223	0x3c7d84a8	0.015473522
224	0xbec67012	-0.38757378
225	0x3d8eb774	0.06968585
226	0x3d0f775d	0.035025943
227	0xbd3b1c63	-0.04568137
228	0x3da49eb1	0.080380805
229	0x3e4eae56	0.20183691
230	0xbe37d82c	-0.17953557
231	0xbe9e907c	-0.30969608
232	0x3dcc05a4	0.09962013
233	0x3eda3cab	0.4262441
234	0xbdc70907	-0.09718519
235	0x3d6b36dc	0.057425365
236	0xbe9a284a	-0.30108863
237	0x3d84b8a0	0.06480527
238	0x3e8b696f	0.27228877
239	0xbc79aa73	-0.015238392
240	0x3d53caf8	0.051707238
241	0xbd7efa95	-0.062250692
242	0xbd500d93	-0.050794195
243	0xbd89ff38	-0.06738132
244	0xbc858c61	-0.01630229
245	0xbe887662	-0.2665282
246	0xbef8882b	-0.48541388
247	0x3d52386b	0.051323336
248	0xbda993ec	-0.08280167
249	0x3d390a15	0.04517563
250	0xbe1bf519	-0.15230216
251	0xbce96a90	-0.028493196
252	0xbdfd8bc5	-0.123801745
253	0x3e3fb2cb	0.18720548
254	0xbdf409a8	-0.11915904
255	0xbe5af8a4	-0.21383911

fc_state.2.bias f4 [64]
0	0xbc481c92	-0.012213843
1	0xbcea4b16	-0.028600257
2	0x3dc4bfac	0.09606871
3	0xbd5a69ec	-0.05332367
4	0x3a4d36dc	0.0007828304
5	0xbd8ea3c5	-0.0696483
6	0x3dc57b46	0.09642653
7	0xbd434d4e	-0.047681145
8	0x3dde5830	0.10856664
9	0x3e11bb9a	0.1423172
10	0xbd9e7374	-0.07736865
11	0x3e088d88	0.1333524
12	0x3dd7068c	0.104992956
13	0x3e0b3308	0.13593686
14	0x3dd63be1	0.1046064
15	0xbd11ee66	-0.035627745
16	0xbd416182	-0.04721213
17	0x3e03720b	0.12836473
18	0xbd591601	-0.0529995
19	0x3d9f3071	0.07772911
20	0x3dc3b7b8	0.09556526
21	0xbdf5fa2a	-0.12010606
22	0x3d87454a	0.06605013
23	0xbd855658	-0.065106094
24	0x3b313a21	0.0027042704
25	0xbdedd131	-0.11612166
26	0x3e0fc7b2	0.14041021
27	0x3d812f9b	0.06307908
28	0x3e04ffec	0.12988251
29	0xbdb6c536	-0.08924334
30	0x3d4a8ef5	0.04945274
31	0xbe099630	-0.13436198
32	0x3c1620ae	0.009163065
33	0x3e1070fb	0.14105599
34	0xbdd63cef	-0.10460841
35	0xbdca6dc4	-0.098842174
36	0xbddbbdaa	-0.10729535
37	0x3df2f2f7	0.11862748
38	0x3cb27400	0.021783829
39	0x3d9eaf8f	0.07748329
40	0xbcef096e	-0.029179301
41	0x3e11c1bc	0.1423406
42	0xbd4817a7	-0.04885068
43	0x3e289d77	0.16466318
44	0xbad02fe5	-0.0015883414
45	0xbce9c1ca	-0.028534789
46	0xbbfc08dd	-0.0076914863
47	0xbca4b26e	-0.020104613
48	0xbe08fbf3	-0.13377361
49	0xbd15cdbe	-0.036573164
50	0xbd82b551	-0.063822396
51	0x3e091099	0.13385238
52	0x3ca6c562	0.020357791
53	0xbcf36e63	-0.029715722
54	0x3de95f42	0.11395122
55	0x3daa1adf	0.083059065
56	0x3dba0304	0.090826064
57	0x3e25b19a	0.16181031
58	0x3dddf9c0	0.10838652
59	0x3bcc11fa	0.006227729
60	0xbbaabb59	-0.005210322
61	0x3e05469a	0.13015214
62	0x3e14acef	0.14519094
63	0xbca61639	-0.020274268

fc_state.4.weight f4 [1, 64]
0	0xbea8880c	-0.32916296
1	0xbe97e282	-0.29665
2	0x3e8dab9d	0.27669993
3	0x3d0adaae	0.033899955
4	0xbea9f7f5	-0.3319699
5	0x3d30bb6c	0.04314749
6	0x3ea235a3	0.31681547
7	0x3d895ecd	0.06707535
8	0x3e884eff	0.2662277
9	0x3e95c7d8	0.2925403
10	0xbe984d8a	-0.29746658
11	0x3ea71ed0	0.32640696
12	0x3e9d3321	0.3070307
13	0x3eb31865	0.3497955
14	0x3e8520ba	0.2600153
15	0x3db0f862	0.08641125
16	0x3cbbc083	0.022918945
17	0x3e85ee69	0.26158455
18	0xbea14e34	-0.31504977
19	0x3e7d6245	0.24744518
20	0x3e99a7a3	0.3001071
21	0xbe8be83a	-0.27325612
22	0x3e82719a	0.25477296
23	0x3daa8baa	0.0832742
24	0xbeafee00	-0.34361267
25	0xbec325a5	-0.38114658
26	0x3e8c4e56	0.27403516
27	0x3e74f52b	0.23921649
28	0x3eb508cc	0.35358274
29	0xbebc9497	-0.36832115
30	0x3e5e32be	0.21699044
31	0xbe9af027	-0.30261347
32	0xbc0d2170	-0.008613929
33	0x3e955a16	0.29170293
34	0xbe833c3c	-0.25631893
35	0xbe898230	-0.26857138
36	0xbec7975e	-0.38982671
37	0x3e80b7a9	0.25140122
38	0x3f9cf47a	1.2262108
39	0x3e7f5a64	0.24936825
40	0x3d783ae0	0.060603023
41	0x3eb38a36	0.35066384
42	0xbe9e91ed	-0.30970708
43	0x3e8ebbe0	0.27877712
44	0xbeae0af9	-0.33992746
45	0xbeb43ebc	-0.35204113
46	0xbec8d2b3	-0.3922325
47	0xbe7b6e44	-0.24553782
48	0xbea851e2	-0.32874972
49	0xbeb4c247	-0.35304472
50	0xbea8c837	-0.32965252
51	0x3f54d77b	0.831413
52	0x3fa1d8ea	1.2644322
53	0x3df7b9c6	0.1209598
54	0x3e7caebb	0.2467603
55	0x3e6b7c3a	0.22996607
56	0x3e9934b3	0.2992302
57	0x3e946669	0.28984383
58	0x3e967b00	0.29390717
59	0x3a925bcd	0.0011166275
60	0xbe96aa77	-0.2942693
61	0x3e61f496	0.22065958
62	0x3e9341c4	0.28761113
63	0xbc5582ef	-0.013031705
