data/Torch/Dueling/003_Big-CNN_E_L/checkpoints/weights_38000episodes.pth (torch, 505343 bytes, 17 tensors)

conv_layers.0.weight f4 [64, 1, 3, 3]
000000 1e 7c 51 40 a5 e4 20 40 d9 ba 8a 40 64 6b dc 3f
       3.2732005 2.5139554 4.3353086 1.7220273
000010 0c 42 10 40 91 da 69 40 78 f5 1f c0 48 87 71 bf
       2.2540312 3.6539652 -2.4993572 -0.9434705
000020 a5 48 e2 40 0e 3b 80 c0 bf ac 6c 3f b7 d8 1d 3f
       7.0713677 -4.007209 0.9245109 0.61658806
000030 fb 03 24 bb 44 86 c1 bd a4 29 1e 40 96 e8 74 3f
       -0.0025026787 -0.09449437 2.4712915 0.956674
000040 fe 69 17 40 ef 3f 43 bf f3 68 94 3f ef f1 7a 40
       2.3658442 -0.7626943 1.1594528 3.9210165
000050 56 01 55 40 03 40 5b 3f 6f ab a4 be 1c 66 a7 40
       3.3282065 0.8564455 -0.32162043 5.2312145
000060 b8 1d 96 c0 88 a1 5b c0 ab bb b3 3f 8e bf 26 bf
       -4.691128 -3.431734 1.4041647 -0.6513604
000070 be be aa 3f 03 d5 58 c0 f7 09 21 40 f5 53 15 40
       1.333946 -3.3880012 2.5162332 2.3332493
000080 cd 39 3e 40 50 ca 52 40 fb bf 9c 40 fc 1f d1 40
       2.9722779 3.2935982 4.898435 6.5351543
000090 4b 5a 8c 3f f5 9a 09 40 90 60 39 c0 a9 01 ab 3f
       1.0965055 2.1500828 -2.8965187 1.3359882
0000a0 2b eb 80 40 0c 12 eb bf f3 5c 7e 40 74 08 ae 40
       4.028707 -1.8364882 3.9744232 5.438532
0000b0 9f 69 e6 40 5d bb 54 3f a3 58 80 40 a6 a0 96 40
       7.200393 0.83098394 4.01082 4.7071104
0000c0 51 68 13 40 5b ed 84 3f fb 5d 85 bf 6d bc 1b bf
       2.303242 1.0384935 -1.0419306 -0.6083439
0000d0 c7 ed 0c c0 89 4c c4 40 fd 18 f8 3f 2c 0e 83 bf
       -2.2020128 6.1343427 1.9382626 -1.02387
0000e0 f0 01 77 3f 94 02 01 3f 66 64 c9 3f 94 c4 55 c0
       0.9648733 0.5039456 1.5733764 -3.3401232
0000f0 61 e9 84 be 68 92 3b c0 d4 5f c7 40 e5 1e ab be
       -0.25959304 -2.930811 6.230448 -0.33422008
000100 e8 27 90 3f 8e 22 41 c0 0c 72 43 40 50 9d 6b 40
       1.1262178 -3.017734 3.0538359 3.6814766
000110 eb f1 fa 3d 81 86 61 3f 74 ca c9 40 f3 8a c4 40
       0.122531734 0.8809586 6.3059635 6.1419616
000120 92 65 9f 40 6b 70 67 40 7a 90 80 c0 f5 74 81 3f
       4.9811487 3.6162364 -4.0176363 1.0113817
000130 7f 73 a2 3f df 3d a0 40 7d db 55 40 e4 93 95 40
       1.2691497 5.0075526 3.3415215 4.674303
000140 8b c9 2a c0 e9 93 74 be 7f 28 04 40 f8 de 07 40
       -2.6685512 -0.23884548 2.0649717 2.122984
000150 67 56 82 3f c1 b1 ae 3f b0 c8 22 40 43 ef 28 c0
       1.0182618 1.3647996 2.543499 -2.6396034
000160 c6 67 a8 bf 0b b7 d6 40 8b 3e 2f 40 29 80 51 bf
       -1.3156669 6.709844 2.7381923 -0.8183618
000170 4e 6e 87 40 cc 3b 7a 40 09 5c 81 bf 0a 5e ae 3f
       4.232215 3.9098997 -1.0106212 1.3622448
000180 1c 68 d3 40 c4 a8 87 40 d7 de 89 c0 05 d5 dd c0
       6.6064587 4.2393513 -4.308452 -6.9322534
000190 84 08 14 40 72 0b 83 40 06 45 da bd 49 60 8c c0
       2.3130198 4.095147 -0.106576964 -4.3867536
0001a0 5c 9f 6a bf 7c 2a 9f c0 6e de c4 3f c1 84 a2 3f
       -0.91649413 -4.973936 1.538038 1.2696763
0001b0 f0 d5 b4 c0 c3 97 a8 c0 f3 d8 9d 40 05 0a ca 3f
       -5.6511154 -5.2685256 4.932733 1.5784308
0001c0 a5 84 66 c0 13 d3 87 c0 17 07 fe 3f 5d 55 1a 3f
       -3.601846 -4.244516 1.9845914 0.60286504
0001d0 a2 87 71 40 b7 f5 e2 3e 40 60 80 c0 86 8d 91 c0
       3.7739034 0.4432809 -4.0117493 -4.548526
0001e0 a3 52 5a 3f 2c c4 32 3e 16 60 24 40 56 ae b7 3f
       0.85282344 0.17457646 2.5683646 1.4350078
0001f0 eb b2 76 c0 1d 6b 49 c0 cc 7a ac bf 1a a2 84 3d
       -3.8546703 -3.1471627 -1.3474975 0.06476231
000200 75 72 41 40 67 5f 23 bf 78 9e 5c 3f 78 7c 36 40
       3.022611 -0.6381745 0.86179304 2.851347
000210 16 07 64 c0 55 72 d7 3f 86 fa 0a 40 ee ef 9f c0
       -3.5629325 1.6831766 2.1715407 -4.9980383
000220 ed 7c c9 bf e6 2a c4 3e 01 da f1 be 1e c1 ff be
       -1.5741249 0.3831398 -0.47236636 -0.49952024
000230 1a a4 22 40 69 0d 80 ba ae 52 29 40 be 13 90 bf
       2.541266 -0.0009769622 2.6456714 -1.1256025
000240 87 88 29 3f 22 1f fe 3f 8b 8a 86 40 7f cb 94 40
       0.6622395 1.9853251 4.204412 4.649841
000250 08 d0 23 40 f6 95 5c c0 6e a2 8b 40 0e a1 a5 40
       2.5595722 -3.446653 4.363578 5.17591
000260 f7 29 3f 40 01 1e 23 c0 4a 63 3f 40 6b c4 07 c0
       2.9869363 -2.5487063 2.9904351 -2.1213634
000270 db 4d 70 40 6c 95 8c 40 c1 4c f7 3f 56 ff e4 3f
       3.754752 4.39324 1.9320298 1.7890422
000280 c1 24 e8 40 77 d5 82 40 6f 0c 7e 3f c0 71 00 3f
       7.2544866 4.0885577 0.9923772 0.5017357
000290 93 6f 8a 40 fb 08 02 3e eb 25 85 bd 04 86 ac 3f
       4.32612 0.12698738 -0.06501373 1.3478398
0002a0 72 01 9e 3f f7 b4 83 c0 a4 f9 be c0 10 7d 9b 3f
       1.2344191 -4.1158404 -5.9679737 1.2147541
0002b0 8a c9 8c 40 37 4d 8c c0 cb b1 ce 3f 99 95 20 bf
       4.399602 -4.3844256 1.6148008 -0.6272827
0002c0 f0 cf 71 40 a3 4d 83 40 8d 7c 9b 40 90 8a 65 c0
       3.7783165 4.103227 4.858954 -3.5865822
0002d0 6c cc 44 40 5c 52 55 40 86 0d 9b 40 d1 cd f6 be
       3.074977 3.3331518 4.845401 -0.482039
0002e0 6e e2 4a bf 6f 8b 4b 40 2f 88 c3 40 96 2c 15 40
       -0.79251754 3.1803854 6.110374 2.3308463
0002f0 a1 50 83 c0 e5 ed c1 3f 7f 4e de 3d 2b df cb 3e
       -4.1035924 1.5150725 0.10854816 0.398187
000300 46 ef 83 40 04 f8 36 40 e9 59 ea bf fc 3a f8 bf
       4.122958 2.8588877 -1.8308688 -1.9393001
000310 62 3a 8b bf af f0 ac 40 d2 ef c4 3f d3 a3 51 40
       -1.0877192 5.4043803 1.5385687 3.275624
000320 fc 49 0b c0 a7 6c 87 be 53 4d bb be f9 a3 b6 40
       -2.1763906 -0.26450083 -0.3658243 5.707516
000330 54 1e 5b 3f e0 eb ab bf 8a fc 22 c0 ba 04 94 3e
       0.8559315 -1.3431358 -2.5466638 0.28909856
000340 e1 6d 04 40 4b 99 6f c0 88 14 6c 40 52 f4 51 40
       2.0692065 -3.7437313 3.6887531 3.2805371
000350 59 c1 16 c0 a5 c5 22 40 6f 59 9d 40 b7 61 cb 40
       -2.355551 2.5433133 4.917167 6.355678
000360 88 26 ed 3f 88 cd c0 3f d7 35 8d 40 e7 80 4f bf
       1.8527384 1.5062723 4.4128222 -0.81056064
000370 16 22 10 bf d5 20 0a 40 0f da 8b 3f 00 b9 29 c0
       -0.5630201 2.158254 1.0925921 -2.6519165
000380 91 e9 9f c0 27 f4 40 40 22 a8 d8 3f db b5 a8 40
       -4.9972615 3.0149019 1.692631 5.272199
000390 a4 41 3c c0 40 c4 9b be d2 58 88 be e7 90 16 40
       -2.9415064 -0.30423164 -0.26630265 2.3525941
0003a0 9b 1a 80 bf 51 91 e3 40 32 4e 04 40 7d 80 33 bc
       -1.0008119 7.111489 2.0672727 -0.010955927
0003b0 67 35 b6 c0 d4 69 31 bf dd f2 67 c0 42 34 08 40
       -5.694019 -0.69302106 -3.6241982 2.1281896
0003c0 89 cb 03 40 c3 91 26 c0 3b ca 5c 3f 27 b0 36 3f
       2.0592978 -2.6026466 0.8624608 0.7136254
0003d0 c0 4f 65 3f 14 06 cc c0 e3 03 d8 3f e1 7c fa 3f
       0.89574814 -6.375742 1.6876186 1.956936
0003e0 c3 48 52 40 8b 93 95 40 9f f2 83 40 c3 ae 26 c0
       3.285691 4.6742606 4.123367 -2.6044166
0003f0 48 fa 3d 3f a2 02 96 3e 16 3b ba be a9 92 88 bf
       0.74210024 0.29298884 -0.36373204 -1.0669757

conv_layers.0.bias f4 [64]
000000 46 b0 e8 3c b8 cf 1b 40 5f f6 07 3f 30 6d 83 3f
       0.028404366 2.4345531 0.5311031 1.0267696
000010 d4 34 6b 40 9b 8e 9c 40 3a 93 33 40 a3 4c 0c 40
       3.6750994 4.892408 2.805861 2.1921775
000020 f2 6d 0b 40 f4 97 97 3f 8c fc ae 40 3e 40 ba 40
       2.1785855 1.1843247 5.4683285 5.820342
000030 3f b4 a1 40 ec 36 22 40 5f cc bd 3f 54 d5 83 40
       5.0532527 2.5346022 1.4827994 4.119791
000040 0b 2e 83 40 b4 aa 90 3f e3 ac a9 3f 9b 9a 0f 40
       4.0993705 1.1302094 1.3255886 2.2438114
000050 22 8d cd 40 7f fe 85 3f a8 c8 e4 3f 0c 0f 91 40
       6.423478 1.0468291 1.7873735 4.533087
000060 76 f5 ec 3f 69 1b a8 3f 9e b0 10 40 6f 4f 33 3f
       1.8512409 1.3133365 2.2607799 0.7004308
000070 bd c3 4a 40 e0 92 5d 40 3e 8b 0c c0 4f 30 be 40
       3.168197 3.4620895 -2.1959987 5.943397
000080 f0 e6 79 40 3e bd 00 40 cd c7 a3 3f 8d 74 c4 be
       3.9047203 2.0115504 1.2795349 -0.3837017
000090 da 62 ae 40 10 51 80 40 ca 50 c6 40 a4 d7 00 40
       5.449567 4.0098953 6.197362 2.0131617
0000a0 50 99 55 40 19 21 a9 3e 89 49 42 3f 8d 1b b7 40
       3.3374825 0.33033064 0.75893456 5.722113
0000b0 f4 64 ca 3f 6d f3 12 40 01 63 69 3d 5d 50 ab 40
       1.5812058 2.2961075 0.056979183 5.35356
0000c0 52 21 12 3f 1a 8b 81 40 a2 3d 33 40 37 bb 36 40
       0.5708209 4.04823 2.8006368 2.8551767
0000d0 a3 eb 7e 3f ed 71 e1 40 42 51 9d 40 bb 5c 1b bf
       0.99578303 7.045157 4.916169 -0.6068837
0000e0 a3 3e 06 40 97 d8 8d 3f fc 21 67 40 f7 fd 8d 40
       2.097573 1.1081723 3.6114492 4.4372516
0000f0 f6 24 0e 3f dd f8 2c 3f 6d b7 9d 40 12 a5 1f 40
       0.5552515 0.67567235 4.928641 2.49445

conv_layers.2.weight f4 [64, 64, 2, 2]
000000 dc de 38 40 69 4c 88 bf 3f 02 27 40 d3 95 b3 40
       2.8886023 -1.0648319 2.609512 5.612039
000010 a8 b4 0c c0 66 ec 1a 40 fe 1a b0 3f 71 ac 0d bf
       -2.1985264 2.4206786 1.3758237 -0.5534125
000020 03 4d 9e c0 d9 3a 54 40 b4 04 8c 40 62 ee 3f c0
       -4.946901 3.3160918 4.375574 -2.9989247
000030 3f 4e 05 bf 9b f6 87 40 67 82 71 40 c7 cd 83 40
       -0.5207252 4.248853 3.7735841 4.1188693
000040 55 e0 04 40 38 a6 9f 3f 53 b8 9d 3f d7 94 d5 40
       2.0761921 1.2472601 1.2321876 6.674419
000050 71 1c 5e 40 42 6a 55 c0 03 40 29 3f 4c 8b b5 40
       3.470486 -3.3346105 0.661133 5.673254
000060 53 51 7d 40 08 93 41 c0 ea 7e 5a 3f 35 c4 92 40
       3.9580886 -3.024599 0.85349905 4.586451
000070 95 52 dd be eb 6d 20 40 f7 b3 51 40 9d 3e 9f 40
       -0.43227068 2.5067089 3.2766092 4.976393
000080 2a d6 cd 3f 48 3e 82 40 e6 99 87 3f d5 f9 e0 bf
       1.6080983 4.0701027 1.0593841 -1.7576243
000090 68 1c 2a 3e 91 75 aa bd cc 8e 26 40 5d 19 b9 40
       0.16612399 -0.08323205 2.6024656 5.784346
0000a0 f6 81 7c 40 3a de 04 c0 6e d8 97 3f 04 d8 59 bf
       3.9454322 -2.0760636 1.1862924 -0.8509524
0000b0 82 f2 ac c0 0b c9 3d 40 3a ea da 3e 93 f2 98 be
       -5.404603 2.9653957 0.42756826 -0.2987257
0000c0 f3 81 c1 be e3 38 9e c0 2b a2 19 40 11 35 7e 40
       -0.37794456 -4.944444 2.400523 3.971989
0000d0 1a 7d 17 40 06 ed 26 3f ca 86 cb 3f 21 0f 8a c0
       2.3670106 0.6520542 1.5900509 -4.314347
0000e0 f2 64 96 c0 d7 c9 52 bc 85 43 94 40 08 40 05 40
       -4.6998224 -0.012865505 4.633242 2.0820332
0000f0 d6 1e 29 c0 ca 14 f2 3f 9d ab 81 3f e4 13 7f bf
       -2.642507 1.8912594 1.0130497 -0.99639726
000100 6d 67 6e 40 68 aa 42 c0 61 ff 94 3f ea d3 96 40
       3.7250626 -3.0416508 1.1640435 4.7133684
000110 b8 5b 5f bf c8 7a 44 40 53 01 23 40 f1 a1 57 40
       -0.87249327 3.069994 2.5469558 3.369259
000120 c3 65 4a 40 cb 23 92 c0 17 54 8b c0 e5 cf 32 3e
       3.162461 -4.5668693 -4.354015 0.17462118
000130 e6 72 cd be b9 0c a0 40 83 84 5c 3f 31 86 08 c0
       -0.40126723 5.001553 0.86139697 -2.1331904
000140 8e 96 4d 40 ff 40 c0 3e a0 b9 05 c0 af 79 43 c0
       3.2123141 0.37549588 -2.0894547 -3.054302
000150 1a ca 4c 40 07 1d 48 c0 7a 52 16 40 78 8f b9 40
       3.1998353 -3.1267717 2.348784 5.7987633
000160 f6 9a 34 c0 25 1b 90 40 76 8e c8 3f 3c f0 9d c0
       -2.821958 4.5033135 1.5668476 -4.9355755
000170 4a bf 98 bd 9e 96 e0 3f 84 44 0b 40 79 5d c2 40
       -0.074583605 1.7545965 2.1760569 6.07391
000180 2a 09 33 40 ae 38 79 c0 ab f1 88 c0 49 f6 d4 be
       2.7974343 -3.8940845 -4.2795005 -0.4159415
000190 40 15 86 40 9e 9e 1a c0 e3 da 14 bf e6 2e a1 40
       4.190094 -2.4159312 -0.58146495 5.036975
0001a0 41 53 79 bf 89 7e c1 40 c8 4b 8b 40 af 59 80 c0
       -0.9739266 6.046696 4.3530006 -4.0109477
0001b0 77 2e 31 c0 85 0b c9 40 5e 72 0a 40 5b 73 e5 bf
       -2.768461 6.282656 2.1632304 -1.7925829
0001c0 80 af 1e 40 08 e6 03 bf 54 29 cc 3e 0e 40 e0 40
       2.4794617 -0.51522875 0.3987528 7.007819
0001d0 b4 13 8a bf dd b9 98 40 17 8e f7 3e c5 ca c9 bf
       -1.0787263 4.7726884 0.48350593 -1.5765005
0001e0 dd 3c 7b 3e a1 fb 13 c0 68 0d 3a 40 1a eb b2 40
       0.24534936 -2.3122332 2.9070683 5.591199
0001f0 01 4a 5b c0 b7 b6 85 3f 21 a6 33 40 f3 39 c0 40
       -3.4263918 1.0446385 2.8070147 6.007074
000200 35 b3 8b 40 e4 6a be bf 01 fd b1 bf 3c 63 39 c0
       4.365626 -1.487637 -1.3905336 -2.8966818
000210 84 03 2f 40 34 45 8b c0 09 49 01 40 8d 4b d1 40
       2.7345896 -4.3521976 2.0200827 6.5404725
000220 e0 93 0b 3f d7 5b 4f c0 32 13 ea 3f 40 02 f5 40
       0.54522514 -3.2399805 1.8287108 7.6565247
000230 22 e9 a2 bf b1 61 3d 3f 0c 2f bc 3f 82 bf 98 40
       -1.2727396 0.7397719 1.4701858 4.7733774
000240 56 52 68 3f 6d 9c 86 c0 91 24 4f 3f ef ef aa 3f
       0.90750635 -4.206595 0.8091517 1.3354472
000250 83 94 65 c0 88 20 5b 3f a8 bf f6 3f b0 9f 35 3f
       -3.5871894 0.85596514 1.9277239 0.7094679
000260 fb c4 4d c0 df 58 8c 3e 5e e3 60 40 6d 1d c2 40
       -3.2151477 0.27411553 3.5138774 6.066092
000270 44 9c 9e 3f 1f 36 af be f5 95 bb 3f 83 c5 46 c0
       1.2391438 -0.3422098 1.4655138 -3.1058052
000280 f1 c8 64 c0 5a 66 a2 40 ee fc 83 40 91 b3 4a c0
       -3.5747645 5.074994 4.124625 -3.1672099
000290 c2 b9 12 3f 82 05 dd 3f 74 6b 19 c0 85 12 98 c0
       0.57314694 1.7267306 -2.3971834 -4.7522607
0002a0 6f 26 76 40 4f f7 e4 bf 9d c0 8a bf c3 8a 07 c0
       3.8460958 -1.7887973 -1.0840031 -2.1178443
0002b0 6e 76 42 40 c8 a1 d3 bf ac 86 7f bf b1 73 8d bf
       3.0384784 -1.6533747 -0.9981487 -1.1050931
0002c0 ff 12 c8 3f bf 60 60 c0 d0 2f 20 40 99 fe 01 40
       1.5630797 -3.505905 2.5029182 2.0311644
0002d0 e8 d0 7a bf 1d 04 1c c0 f2 6e 37 40 de e1 25 40
       -0.97975016 -2.437751 2.8661466 2.5919108
0002e0 ab 0c 02 bf d4 37 a3 40 f8 b3 42 40 6c 05 1b c0
       -0.5080058 5.100565 3.0422344 -2.422206
0002f0 a2 3a 9f 40 35 79 e3 bf ed ba c8 bf 5f 7b 3e c0
       4.9759073 -1.7771364 -1.5682045 -2.97628
000300 b3 f1 dc bf c8 50 af 40 39 b2 ef 3f e6 73 d2 bf
       -1.7261261 5.478611 1.8726264 -1.6441619
000310 ec 45 68 40 f3 0a e5 bf 47 2b ab 3f 90 d6 08 bf
       3.6292677 -1.7893966 1.3372582 -0.53452396
000320 be f5 b0 be 4c 01 97 40 ca 50 1b 40 42 14 a6 3f
       -0.34562486 4.7189083 2.426806 1.2974932
000330 26 80 86 40 4c 16 60 c0 8f c0 ad c0 5d 5e 0c bf
       4.203143 -3.501361 -5.4297557 -0.54831487
000340 d0 59 a9 bf c9 3f ab be 67 b1 86 40 d4 8c 6a c0
       -1.3230534 -0.33447102 4.2091556 -3.6648455
000350 42 74 c3 be 1c a9 af c0 4c 59 17 40 be 64 93 40
       -0.38174635 -5.489393 2.3648252 4.6060476
000360 87 8b 65 40 c8 11 fa bf 91 2c bc 3f 1a 05 3c bf
       3.586641 -1.9536676 1.47011 -0.73445284
000370 b1 3d a1 c0 6b 01 45 40 42 89 e4 40 19 ba 35 bf
       -5.0387807 3.0782115 7.141755 -0.7098709
000380 78 a8 6c 40 47 db 45 bf 0b 22 45 3e 9f 68 94 40
       3.6977825 -0.77287716 0.19251268 4.637771
000390 f2 07 9a bf d9 11 a0 40 bc de 8d 40 32 ea ad 3f
       -1.2033675 5.0021787 4.4334393 1.3587096
0003a0 64 e5 2a 40 7c b5 13 c0 24 f5 4e c0 4c 6a 14 c0
       2.670251 -2.307952 -3.2337122 -2.3189878
0003b0 c9 bd 98 40 2c 95 7b c0 64 20 99 3f fc 03 c4 40
       4.773167 -3.9309797 1.196301 6.1254864
0003c0 14 bc 75 be dd cb 68 40 b6 fd 1a 40 e9 c6 ac 40
       -0.23997527 3.6374428 2.4217353 5.399281
0003d0 28 42 b2 c0 6d dd 6d 3f 16 bc b7 40 65 60 27 40
       -5.5705757 0.92915994 5.7417097 2.6152585
0003e0 b5 ad 5f 40 89 a0 19 c0 c3 8e ad 3d 93 d6 a4 c0
       3.4949772 -2.4004233 0.08474495 -5.151193
0003f0 e6 71 4f c0 b9 9a a9 40 45 f6 a0 40 f7 7e 43 c0
       -3.2413268 5.300137 5.030062 -3.0546243

conv_layers.2.bias f4 [64]
000000 2a 99 94 3f 33 b7 c7 be 17 36 29 3c 5e b1 4d 40
       1.1609242 -0.39006957 0.010327837 3.2139506
000010 60 4d d0 be 48 ef 0d 3f 31 57 f5 be 4a dd 5a 3f
       -0.40684032 0.5544324 -0.47918084 0.8549391
000020 95 7a 54 3e 44 f6 9a bf 5b be 58 3d b9 dd 85 40
       0.20749886 -1.2106404 0.052915912 4.1833158
000030 be 8c b4 40 c8 6d 83 40 32 44 02 3e c3 d6 5a 40
       5.6421804 4.107151 0.12721327 3.419358
000040 9e 97 94 bd ae 29 28 40 e2 24 10 bf 9c 8a f4 3f
       -0.07255481 2.627544 -0.5630628 1.91048
000050 cd 62 2a bf 18 ee d8 be 6c a6 22 3d e6 c8 fa 3e
       -0.6655701 -0.4236915 0.039709494 0.48981398
000060 81 7a ed 3f eb 18 ac 3c 7a cf 8e bf 29 b4 76 be
       1.855301 0.021007976 -1.1157067 -0.24092163
000070 10 51 91 3d f8 64 4e 40 a0 09 96 bf 8f af f1 3f
       0.070955396 3.2249126 -1.1721687 1.8881701
000080 55 14 35 40 66 fa 10 40 50 6a a4 bd df ab 46 40
       2.829366 2.265283 -0.0802809 3.1042402
000090 ba 1d b3 3f 2e be c4 be cf aa bf be 40 b4 14 3f
       1.3993447 -0.38426346 -0.37435004 0.5808754
0000a0 82 73 7c bf a7 71 d1 be 42 e0 1c be d5 75 5f 40
       -0.9861375 -0.40907022 -0.15319923 3.491567
0000b0 d0 08 2f 40 d2 55 03 40 b4 f6 26 bf 24 79 a1 be
       2.7349129 2.052113 -0.6522019 -0.31537735
0000c0 5b f0 a8 40 85 47 dc 40 cb c1 a9 40 a1 1b 45 c0
       5.2793403 6.8837304 5.3049064 -3.0798113
0000d0 40 ba 4e 3f 2c 05 86 3f 3c db 0f 3f e2 e5 67 bf
       0.80752945 1.0470328 0.561939 -0.9058515
0000e0 41 ab 51 40 39 57 3e 40 cc 36 3b be d6 60 dc 40
       3.2760775 2.9740736 -0.18282622 6.886821
0000f0 5d 5b b4 40 1d c8 2d 40 97 5f ce 40 f1 90 31 be
       5.6361527 2.715339 6.4491687 -0.17340447

conv_layers.4.weight f4 [32, 64, 2, 2]
000000 79 c0 05 3f db d2 57 be 7d 73 90 3f 9e 78 ba 3e
       0.52246815 -0.21076529 1.1285244 0.3642015
000010 a4 43 92 40 9e e5 bf 40 fb ba 98 40 17 c0 86 40
       4.570757 5.9967794 4.772825 4.2109485
000020 f1 ff a7 40 90 62 16 40 12 bb 9b 40 82 14 58 3f
       5.249993 2.3497658 4.8665857 0.8440629
000030 37 11 7f bf 6d f3 40 c0 f8 ba 5d 40 ed 32 18 c0
       -0.9963564 -3.0148575 3.4645367 -2.3781083
000040 a4 ef 9c 40 29 36 8e 40 83 4c a0 40 f3 47 16 40
       4.904253 4.4441113 5.00934 2.3481414
000050 91 ba c3 3e 18 5b 84 be ad 8e 16 40 92 15 63 3f
       0.38228276 -0.2585075 2.3524582 0.8870479
000060 72 e1 a7 40 76 44 b6 40 1c c0 b9 40 89 72 7c 40
       5.24627 5.695857 5.804701 3.9444907
000070 ff 26 c5 3e 61 46 5c 40 73 10 e0 bc be c2 75 3e
       0.38506314 3.4417956 -0.027351594 0.2400007
000080 15 80 f8 3f 1e f2 8a 40 d1 b8 a1 bf bb f4 18 3f
       1.9414088 4.3420553 -1.2634526 0.5974843
000090 90 fb 1a 40 6c a4 a1 40 4b 6f 5c 40 bc 09 29 40
       2.4216042 5.051321 3.4442928 2.6412191
0000a0 47 25 50 3f 3d 04 5b 40 79 95 a6 3f aa 37 79 3f
       0.8130688 3.4221337 1.3014365 0.9735056
0000b0 e3 8e 54 bf f6 9d 28 3f 69 36 3d bf 60 88 52 be
       -0.8303053 0.6586603 -0.7391115 -0.20559835
0000c0 d1 6d 32 bf 62 03 6b 3f 7b 25 95 3e 6c be 09 3f
       -0.69698817 0.91802037 0.29130158 0.53806186
0000d0 1e a8 96 be 5f 1f 63 bf 4c aa 2a be ad d3 04 be
       -0.29425138 -0.88719743 -0.16666526 -0.12971373
0000e0 17 d0 98 3f d2 51 c7 3e ca 4d 86 40 50 17 92 40
       1.1938504 0.3892961 4.1969957 4.565346
0000f0 6b 58 1e c0 c3 d6 08 c0 e7 42 97 bd a3 05 2b 40
       -2.4741466 -2.138108 -0.073858075 2.672219
000100 cf 96 2e be e7 01 58 be 6e 91 d0 3f 6e f5 f7 3f
       -0.17049716 -0.21094476 1.6294382 1.9371774
000110 e7 7e da bf 28 6a 2a c0 2b 83 d7 be f5 04 d9 bf
       -1.7069978 -2.6627293 -0.4209226 -1.6954638
000120 dd 48 02 40 d0 e1 65 40 47 67 6f be 53 20 1e 3d
       2.0356972 3.5919075 -0.23379241 0.038605046
000130 16 ba 5f c0 85 ec 53 c0 46 fb 49 c0 11 ce 22 c0
       -3.4957328 -3.311311 -3.1559615 -2.5438273
000140 36 a7 1a 40 7f 14 88 40 cb dd bb 3f 91 e0 15 40
       2.4164557 4.252502 1.4677061 2.3418314
000150 c2 bf 81 40 49 80 bf 3f bb c0 0b bf b7 68 65 40
       4.054658 1.4961025 -0.5459096 3.5845163
000160 4f 8d c8 3f 51 08 aa be 17 01 03 40 87 46 42 3f
       1.5668124 -0.3320947 2.0469415 0.75888866
000170 75 dd 54 3f d6 37 ed be 94 c8 37 40 97 67 e9 3f
       0.83150417 -0.46331662 2.8716173 1.8234738
000180 95 12 1e c0 07 e1 6f c0 49 2a 4e 40 1e 48 84 c0
       -2.4698842 -3.7481096 3.221331 -4.1338034
000190 0d f7 b0 40 b5 f6 ed 3f 95 a7 a7 40 24 32 f5 3e
       5.5301576 1.8590914 5.239207 0.47889817
0001a0 a2 d2 9c 3f 29 d5 03 40 fb 23 05 3f 41 d5 ce 3e
       1.225178 2.0598853 0.52008027 0.40397075
0001b0 71 ec c2 40 e2 b9 84 40 01 34 b8 40 0c 03 4a 40
       6.0913625 4.147691 5.756348 3.156436
0001c0 65 98 bd 3f e8 b8 45 40 bf 0b 1b 40 6c 8d 99 3f
       1.4812132 3.0894108 2.422592 1.1996284
0001d0 e9 87 a1 bf 5c d6 21 c0 ac b7 75 bf 9a b8 8a bf
       -1.2619601 -2.5287085 -0.95983386 -1.0837586
0001e0 3f 59 3f 40 db bb a1 40 b9 85 a6 3f 69 2f 10 40
       2.9898221 5.0541816 1.3009559 2.2528937
0001f0 5c 99 5d c0 6d 1e 45 c0 8b 2f 48 c0 c6 52 fc bf
       -3.4624853 -3.079982 -3.1279018 -1.971276
000200 3e c7 88 bf 5a f4 d4 3e 94 86 18 bf a2 7d cc be
       -1.0685804 0.41592675 -0.5958035 -0.399396
000210 12 30 ff bf d7 78 22 c0 07 4d f3 bf e3 e1 02 c0
       -1.9936545 -2.5386255 -1.9007882 -2.045037
000220 45 51 98 40 de e2 7b 40 88 f7 98 40 c4 8f e9 3f
       4.7599206 3.9357219 4.780216 1.8246999
000230 a6 0f c2 bf f4 21 18 c0 26 3b 44 be 0d 15 4b bf
       -1.5161026 -2.3770723 -0.19163188 -0.79328996
000240 e4 2d 39 bc 1b 4a 3f 40 02 b6 ee 3e 42 0a a9 be
       -0.011302445 2.988898 0.46623236 -0.3301564
000250 9b 60 e1 40 30 47 4f 40 35 fa 92 40 1d 82 7e 40
       7.0430427 3.23872 4.593043 3.9766915
000260 6e d7 a6 40 b0 a8 03 40 21 02 7c 3f 0d 43 53 40
       5.2137976 2.0571709 0.9844075 3.3009675
000270 1f 60 0e 3f 12 cd 21 bf ae 80 10 bf 9c 5b 58 40
       0.5561542 -0.6320354 -0.5644635 3.3805914
000280 30 31 12 40 93 82 dd 3f 5a d5 89 be c4 5d 7a 40
       2.2842522 1.7305473 -0.26920587 3.911973
000290 e5 68 06 be 1d 19 b3 3e fe 2a 62 40 8a f5 8e 40
       -0.13125952 0.34980097 3.533874 4.467473
0002a0 12 ac 6e 40 ca 45 fb 3f 35 a0 26 40 39 5b 2e 3f
       3.7292523 1.9630673 2.6035283 0.68107945
0002b0 6e f6 85 bd af c8 e3 be d8 0f dd 3f 58 79 87 3e
       -0.06541143 -0.44489047 1.727046 0.26459765
0002c0 8b d3 82 bf 3d 68 0d c0 9c 5a 85 bf 7d f6 c3 bf
       -1.0220808 -2.2094872 -1.0418277 -1.5309597
0002d0 cb 31 c2 3f 34 fb a1 be 49 db 31 3e 1b 33 09 bf
       1.5171446 -0.31636965 0.17368807 -0.53593606
0002e0 df a6 11 40 d7 d6 1f 40 57 29 59 40 53 8c 09 3f
       2.27581 2.4974878 3.3931482 0.5372974
0002f0 2e d7 d0 3f 57 bd 77 40 10 72 21 3f 18 1b 79 3f
       1.6315668 3.8709314 0.6306467 0.97306967
000300 18 fe bf be bb 2e 99 bf 2c 39 49 3f 4f 30 9c be
       -0.37498546 -1.1967386 0.7860286 -0.30505607
000310 31 85 2e bf eb 92 43 bf 9d 6e ca 3e 31 84 82 3f
       -0.68171984 -0.76396054 0.39537516 1.0196592
000320 46 7d 36 bf f6 38 f2 3d 72 ce 1c 3f 29 91 d2 3e
       -0.712849 0.11827271 0.6125251 0.41126373
000330 1a 52 26 bf 11 85 90 3f 53 89 de 3f 6f ce 6a 40
       -0.6496903 1.1290609 1.7385658 3.6688497
000340 eb c5 eb 3f 89 f2 50 3e 0b 53 2a 3f 6a e3 c9 be
       1.8419775 0.2040502 0.66532964 -0.39431316
000350 06 f1 09 be 83 48 e6 3f 09 86 90 3f 9e 0e 1b 3f
       -0.1347085 1.7990879 1.1290904 0.6056918
000360 4a ab 89 3e 2e 57 4d be 7b cf 20 40 97 29 06 40
       0.26888496 -0.20052788 2.5126636 2.0962884
000370 57 eb 90 40 e8 14 c6 40 16 2a a7 40 88 12 8d 40
       4.528728 6.190052 5.2238874 4.408512
000380 c2 0b c5 bf 89 37 0b c0 bd c6 60 3f ce b5 f8 be
       -1.5394213 -2.1752646 0.8780325 -0.48576206
000390 cc 66 bc bf ae 8f ec bf ab f3 01 c0 c4 e4 b0 bf
       -1.4718871 -1.8481348 -2.0304973 -1.3819814
0003a0 bd fb 72 40 6f 35 a5 40 57 cf 88 40 5d 1c 15 40
       3.796615 5.1627727 4.27531 2.3298562
0003b0 0e 2c 06 bd 00 15 41 bf 12 21 a5 3f 1e 9d 61 be
       -0.032756858 -0.7542267 1.2900717 -0.22032592
0003c0 a1 fd fc bd 9e 5e ee be 60 d6 2d be f5 a1 85 3e
       -0.123530634 -0.46556562 -0.16976309 0.26100126
0003d0 33 10 43 bd b9 dc f3 3f fd 06 eb 3e ba 7d 7f bc
       -0.04762287 1.9051734 0.4590377 -0.01559394
0003e0 f8 28 9a be 5e 4e 09 bf c3 f1 6a 3e 66 49 90 3d
       -0.30109382 -0.53635204 0.22943787 0.0704525
0003f0 bf b3 b4 40 6a d6 a2 3f d6 d7 92 40 88 64 ff 3f
       5.6469417 1.2721684 4.588847 1.9952555

conv_layers.4.bias f4 [32]
000000 e6 a9 95 bf e4 e8 0f 40 c3 0a 83 3d 25 92 fe be
       -1.1692474 2.2485895 0.06398537 -0.49720874
000010 cb 2d b2 40 dc 94 91 40 44 2f 62 40 bb 20 3f bf
       5.56809 4.5494213 3.5341349 -0.7465932
000020 a7 bf 43 bf b2 9a 63 3f 8a 4e 51 bf 7f 05 97 3f
       -0.76464313 0.8890792 -0.81760466 1.1798552
000030 1e e4 7c bf 3f 31 19 40 e7 dd 84 3f 39 ef 65 bf
       -0.9878558 2.3936307 1.0380219 -0.8981815
000040 f2 c9 2f 40 c9 7f 1e 40 8b 49 32 40 a1 8d 46 40
       2.7467008 2.4765494 2.7857387 3.1023943
000050 73 94 80 bf 8e d0 3c 40 62 95 61 bf e9 9e cc 3d
       -1.0045303 2.9502292 -0.88118565 0.09991247
000060 9f 07 30 40 6f 33 73 40 87 42 8e 40 57 6e ac 3e
       2.7504652 3.8000143 4.445621 0.33677933
000070 78 23 89 be 53 93 02 bf cd fc 97 bf 2d 38 ca be
       -0.26784873 -0.5100605 -1.1874024 -0.39495984

fc_state.0.weight f4 [256, 128]
000000 68 18 a2 c0 0c 98 b1 c0 6d 39 0f c0 da b6 82 c0
       -5.0654793 -5.5498104 -2.23788 -4.0848207
000010 16 13 58 bf f4 4a 2f 40 c6 3a 11 3e 94 80 a5 c0
       -0.8440412 2.7389498 0.14182577 -5.1719456
000020 c3 57 8b c0 9c da 60 40 3e af 81 c0 73 2f 95 c0
       -4.354463 3.5133429 -4.052642 -4.662042
000030 99 10 b0 c0 46 46 d9 3f e6 5f 8f c0 be e2 97 c0
       -5.502026 1.6974571 -4.4804564 -4.7464285
000040 95 27 fb be 0f 58 78 40 fc c0 35 40 c6 ee ab c0
       -0.49053636 3.8803747 2.8399038 -5.372897
000050 d3 ab 98 3f c0 e0 8e 40 2e 59 5a 40 bc 5a a5 c0
       1.1927437 4.4649353 3.411693 -5.167326
000060 51 1f 19 c0 af 04 2a 40 27 12 e7 3f 2f 8a b0 c0
       -2.3925364 2.6565359 1.8052415 -5.516868
000070 f6 db 92 c0 57 4f b4 c0 d7 ad 1a bf 58 eb 81 c0
       -4.5893507 -5.634685 -0.6042151 -4.0599785
000080 20 a6 b9 c0 18 f2 c9 c0 6b 64 85 c0 66 14 22 c0
       -5.801529 -6.3108025 -4.168508 -2.532495
000090 2f 30 d2 3f ab e6 ae c0 e8 2c 9c c0 5b ce 6a 40
       1.6420954 -5.4656577 -4.8804817 3.668845
0000a0 49 ca c6 c0 b7 f6 cd c0 67 39 b9 c0 32 a4 1d c0
       -6.212193 -6.4363666 -5.788257 -2.4631467
0000b0 1f 63 08 40 e7 eb aa c0 a8 00 90 c0 db b9 6f 40
       2.1310499 -5.3412967 -4.50008 3.7457187
0000c0 23 cd bf c0 12 83 c9 c0 bb ac a6 c0 e7 c0 0a c0
       -5.993791 -6.29725 -5.2085853 -2.1680238
0000d0 79 be 7e 40 ce ba 9a 40 f6 83 0e c0 86 5a 2d c0
       3.9803755 4.8353033 -2.2268043 -2.70865
0000e0 29 8a 76 bf 65 20 ce 3e 57 5f c2 3f f0 a5 c1 c0
       -0.96304566 0.4025909 1.5185345 -6.051506
0000f0 31 e9 b8 c0 97 cd cf c0 da a7 a1 c0 66 54 6d c0
       -5.7784657 -6.4938464 -5.0517397 -3.7082763
000100 5e ea 1d 40 c4 f3 4c 40 d4 b5 6e c0 c9 c7 23 40
       2.4674296 3.2023783 -3.729848 2.559069
000110 75 86 64 40 0d 23 6a 40 d7 b1 35 c0 95 be 85 40
       3.5707066 3.6583893 -2.8389795 4.1795144
000120 81 6d 33 40 52 3a 3a 40 a7 52 78 c0 b7 64 62 40
       2.8035586 2.9098096 -3.8800447 3.5373971
000130 0e 28 48 40 37 15 a7 c0 21 d5 84 c0 b1 c2 84 40
       3.1274447 -5.2213397 -4.1510167 4.148766
000140 14 91 98 c0 24 2d bf c0 15 ce 0e c0 d2 3e 90 c0
       -4.7677097 -5.9742603 -2.2313282 -4.5076685
000150 7e 98 68 40 e1 88 2b 40 67 52 4f c0 dc c3 89 40
       3.6343074 2.6802294 -3.2394044 4.3051586
000160 fb fa c3 c0 cd 62 be c0 fe fb c8 c0 5f ff 3c bd
       -6.1243873 -5.9495606 -6.280761 -0.04614198
000170 ed ad ae bd 51 89 b4 c0 f9 fc 88 c0 26 1f 34 40
       -0.085292675 -5.6417623 -4.2808805 2.8144011
000180 23 92 45 40 f1 5f 38 40 0c eb 67 c0 a3 ea 65 40
       3.0870445 2.8808558 -3.6237211 3.592446
000190 8c 5b 09 bf 89 28 a8 40 e8 06 8d 40 1c 78 8c c0
       -0.53655314 5.254948 4.407093 -4.389662
0001a0 7a 81 33 40 4a c2 99 c0 37 43 97 3f bb 53 4f 40
       2.8047776 -4.804967 1.1817387 3.2394855
0001b0 b9 e6 34 40 2d cb bc c0 48 a2 89 c0 4f 1e 2e 40
       2.8265822 -5.8998017 -4.3010597 2.7206
0001c0 e1 3a a0 c0 ec 46 48 40 f2 4c 7b c0 2b f5 8a c0
       -5.0071874 3.1293287 -3.9265714 -4.3424277
0001d0 5f 9e c1 c0 63 22 c7 c0 8d c9 b1 c0 77 56 3e bf
       -6.0505824 -6.2229476 -5.5558534 -0.74350685
0001e0 72 bf 9d c0 9a bd c7 c0 8b 72 9d c0 c0 09 95 c0
       -4.92962 -6.2418947 -4.9202323 -4.65744
0001f0 8f d0 88 c0 51 cc 9c c0 80 74 67 3f a6 b2 47 c0
       -4.275459 -4.899941 0.9041214 -3.1202788
000200 6f 55 aa c0 28 b6 b3 c0 02 05 10 c0 72 7e 87 c0
       -5.322929 -5.615986 -2.2503057 -4.234185
000210 2f 13 51 bf 9f 2b 32 40 4f bd 8a 3a 36 66 ae c0
       -0.81669897 2.7839124 0.0010584983 -5.449977
000220 90 a0 98 c0 a9 36 79 40 cb 1b 91 c0 42 3c 9e c0
       -4.7696 3.8939612 -4.5346427 -4.9448557
000230 7c 2e b3 c0 15 2d e1 3f c9 96 99 c0 f4 e6 98 c0
       -5.5994244 1.7591883 -4.7996564 -4.7781925
000240 5a 9a dc be 78 ec 7c 40 1e 25 34 40 6e f9 aa c0
       -0.4308651 3.951933 2.8147655 -5.342948
000250 51 46 90 3f 7f bb 8e 40 9b ec 73 40 a1 d6 af c0
       1.1271459 4.4603877 3.8113163 -5.49495
000260 63 c1 23 c0 4d d6 38 40 73 48 f9 3f 0e fd b4 c0
       -2.5586784 2.88808 1.9475235 -5.6558905
000270 b7 91 96 c0 53 44 c1 c0 73 4e 1a bf 8a 49 84 c0
       -4.7052875 -6.0395904 -0.60275954 -4.133977
000280 8e 93 bc c0 ae 47 cb c0 49 3b 88 c0 be 6c 2d c0
       -5.893012 -6.3525 -4.257237 -2.709762
000290 d3 b5 d4 3f 17 b9 ba c0 c3 20 a2 c0 7f a3 7f 40
       1.6617988 -5.835094 -5.066499 3.994354
0002a0 a0 96 c3 c0 f5 22 cb c0 d4 9d b6 c0 53 da 25 c0
       -6.112137 -6.348017 -5.706766 -2.5914505
0002b0 bb 57 0c 40 f1 80 b3 c0 57 d2 95 c0 31 45 80 40
       2.1928546 -5.60949 -4.6819263 4.008446
0002c0 90 12 c6 c0 e4 75 ce c0 6c 62 a6 c0 2b 90 18 c0
       -6.189766 -6.451891 -5.1995144 -2.3837993
0002d0 e8 86 84 40 cf 54 a2 40 38 81 18 c0 63 e7 44 c0
       4.141468 5.0728526 -2.382887 -3.0766227
0002e0 92 8a 4d bf 2a 68 04 3f 0c 44 b9 3f b5 9f c0 c0
       -0.80289567 0.5172144 1.4473891 -6.0194955
0002f0 bb c5 be c0 17 9e d3 c0 27 cd ac c0 16 a2 7e c0
       -5.961637 -6.613048 -5.400043 -3.978643
000300 a9 d3 1e 40 e7 78 4a 40 72 ad 6b c0 ae 85 26 40
       2.4816687 3.1636293 -3.6824613 2.6019092
000310 f2 84 6a 40 c2 90 75 40 ac da 42 c0 c9 fc 8a 40
       3.6643643 3.8369603 -3.0445967 4.3433576
000320 cc f9 35 40 2b 3e 43 40 2a 89 77 c0 2e 25 77 40
       2.8433714 3.0506694 -3.8677468 3.8616443
000330 c5 c9 50 40 7c ff a8 c0 12 e7 8a c0 98 d8 83 40
       3.262315 -5.281187 -4.340707 4.1201897
000340 db 0e 98 c0 84 5b c6 c0 94 cc 0b c0 a7 b1 99 c0
       -4.7518134 -6.1986713 -2.1843615 -4.802936
000350 46 b8 75 40 66 28 2d 40 be 9b 60 c0 ed 98 8e 40
       3.8393722 2.7055907 -3.5095057 4.4561677
000360 8d 58 c3 c0 42 3a c1 c0 5a 9c c9 c0 0d 5f 21 bb
       -6.1045594 -6.0383615 -6.300336 -0.0024623305
000370 91 3e 94 3c eb 2e bf c0 e7 76 8e c0 85 25 39 40
       0.01809624 -5.9744773 -4.4520144 2.892915
000380 7f e4 53 40 7e 69 3d 40 3b db 67 c0 57 f4 70 40
       3.3108213 2.9595637 -3.6227558 3.7649133
000390 a6 d1 08 bf 21 a5 a4 40 61 b5 91 40 e6 5f 8c c0
       -0.534449 5.1451573 4.553391 -4.3867064
0003a0 aa 2f 33 40 0d d3 9b c0 ac 4c 9d 3f db c4 56 40
       2.7997842 -4.869513 1.2289023 3.355765
0003b0 44 ab 34 40 15 4f ba c0 a8 2a 92 c0 4b ab 1f 40
       2.8229532 -5.8221536 -4.567707 2.49483
0003c0 01 09 a8 c0 a9 57 4f 40 6d d9 82 c0 bd c6 90 c0
       -5.251099 3.2397254 -4.089041 -4.52426
0003d0 77 d9 c2 c0 ca f7 cd c0 be f0 ba c0 1b 72 3d bf
       -6.089046 -6.4364977 -5.8418875 -0.74002236
0003e0 24 3f a2 c0 f2 76 cb c0 17 de a2 c0 69 6e 98 c0
       -5.0702076 -6.3582697 -5.0896106 -4.763478
0003f0 d1 bd 89 c0 18 00 a2 c0 fa 8f 44 3f 29 56 46 c0
       -4.304421 -5.0625114 0.7678219 -3.0990088

fc_state.0.bias f4 [256]
000000 2e 49 98 3f 97 65 96 3f a6 ef ac be 28 4f 8d 40
       1.1897333 1.1749753 -0.33776587 4.4159126
000010 3b 75 b9 3e c2 8f 35 3f cd cd ff 3e 2c e6 8f 3f
       0.36222252 0.7092248 0.499617 1.1242118
000020 25 8c 96 3f a3 46 6b 40 91 c6 9d 3f c6 14 9c 3f
       1.1761519 3.6761863 1.2326223 1.219384
000030 c5 67 eb 3f 8d ed 8a 3f b7 52 93 3f 56 97 dc 3e
       1.8391043 1.0853745 1.1509618 0.4308421
000040 bb 66 9a 40 94 cd 99 3f 51 c9 8c 3f 17 9e 8b 3f
       4.8250403 1.2015862 1.0998937 1.090762
000050 e9 69 c2 bf b6 03 ae 3e ac bc 48 3e 22 0b bf 3e
       -1.5188571 0.33987206 0.19603223 0.3731318
000060 42 a7 9a 40 ad c1 97 3f f5 1d 8a be 1f b5 e2 3d
       4.832917 1.185598 -0.2697598 0.11069702
000070 ef 31 49 bf 6a 70 7f 3f 2a fe fc 3e c7 82 ad 40
       -0.7859182 0.99780905 0.49412662 5.422214
000080 18 31 7f 3f 5f 78 9c 3f 76 f8 97 3f 2e 93 80 3f
       0.99684286 1.2224234 1.1872699 1.0044916
000090 56 88 93 3f 57 53 91 3f 23 d3 89 3f 65 46 84 3f
       1.1525981 1.1353558 1.0767559 1.0333983
0000a0 bf ba 87 3f 79 c7 a4 3f 53 12 95 3f 6c 28 03 3f
       1.0603865 1.2873374 1.1646217 0.51233554
0000b0 40 2f ea 3e 71 ea 90 3f 15 25 c4 3e 12 9f 1f be
       0.45739174 1.1321546 0.3830954 -0.15588024
0000c0 53 46 38 3f ad 38 90 3d 30 ab 9e 3f 4b b9 90 3f
       0.71982306 0.0704206 1.2395992 1.1306547
0000d0 fb a0 cd 3d c0 eb 8c 3f b1 d6 bd 40 97 a7 96 3f
       0.1004047 1.1009445 5.9324574 1.1769894
0000e0 3b fb a1 bd 20 31 8a 3f b5 e2 90 3f 7f 2b 75 3f
       -0.079092465 1.0796242 1.1319185 0.95769495
0000f0 c6 73 8c 3f 76 5b 9c 3f 69 cb bf be 78 80 ad 3e
       1.0972831 1.2215412 -0.37459877 0.33887076
000100 cf 72 4b 3f 8b e3 80 be e9 4b 98 3f aa af 49 40
       0.7947206 -0.25173602 1.1898166 3.1513467
000110 8d e2 74 3f 83 8e 94 40 ef 8a aa bd 94 0c b7 40
       0.9565819 4.6423965 -0.08327281 5.7202854
000120 6f 59 78 3f 23 48 cd 3e 01 41 9c 3f 4a 51 22 3f
       0.97011465 0.40094098 1.2207338 0.6340529
000130 eb a4 b9 40 c4 7e eb 3e 54 c5 21 3f 96 d4 92 3e
       5.8013816 0.45995152 0.63191724 0.28677815
000140 13 40 97 3e 40 c1 82 3f f5 6c 97 40 88 11 a3 3f
       0.29541072 1.0215225 4.7320504 1.2739725
000150 7e 51 ab 40 19 92 8e 3f 41 f6 93 3f 9b 0f ae 40
       5.353698 1.1138335 1.1559526 5.439405
000160 d9 81 1f 3f 4b 00 7e 3f 1c cf 1a 3f 48 b8 9c 3f
       0.62307507 0.992192 0.60472274 1.2243738
000170 b9 7f f7 3e a2 eb b7 40 dc 71 a0 3e d5 42 8f 3f
       0.48339632 5.747514 0.31336868 1.119227
000180 e6 31 fd bd 31 fb ee 3d f6 fa 0d be a7 34 5b bf
       -0.12363033 0.11669005 -0.13865265 -0.85627216
000190 4d 57 93 3f 4d cc 80 3f ec 67 2f 3f b2 21 ae 3e
       1.1511017 1.0062348 0.6851795 0.34010082
0001a0 f7 bb 8b 3f 67 a6 94 3f 5d 29 8f 3f b1 53 dc 3e
       1.0916737 1.1613282 1.1184498 0.430326
0001b0 ce 63 84 40 bf 5e 97 3f 5d 81 83 3f 30 32 a7 3e
       4.137183 1.1825789 1.0273854 0.32655478
0001c0 ab a1 c9 bd 84 b9 a4 3e 82 23 ba 3e d8 fe 85 3f
       -0.09845289 0.32172787 0.36355215 1.0468397
0001d0 9b b2 f9 3f 42 d2 a0 3f fd c7 4c 3f 41 2b a4 40
       1.9507631 1.2564166 0.7999266 5.13028
0001e0 0d 28 39 3e 5f 55 9b 3f ef 78 db 3e a5 1b 92 3f
       0.18081684 1.2135428 0.42865703 1.1414686
0001f0 21 1e 87 3f 81 06 50 3f 9b 8e 96 3f 90 18 93 3f
       1.055607 0.81259924 1.176227 1.1491871
000200 68 ce 99 3f b4 94 da 3e 30 93 cb 3e 82 85 62 40
       1.2016115 0.42691576 0.39760733 3.5393987
000210 36 60 a9 3e 2c ac 8e 3f 24 88 7c 3f ed 65 4a 3f
       0.33081216 1.1146293 0.98645234 0.79061776
000220 90 9e 8f 3f e5 cc a5 3d f9 59 94 3f 15 a3 ab 40
       1.1220264 0.08095721 1.1589957 5.3636575
000230 3b 0c 0a 3f 0a ef 61 3f b9 fd 2c bd 56 7a 98 3f
       0.5392491 0.8825537 -0.042234156 1.1912334
000240 c6 55 3c bd f4 83 97 3f ce 76 a4 40 ed 39 a9 40
       -0.045980237 1.1837144 5.1395025 5.288321
000250 4e 62 65 3e 62 10 98 3f a2 18 87 3f 3f 63 9c 3f
       0.22400782 1.188 1.0554392 1.2217788
000260 12 4c f6 be 26 73 12 be 37 ba 82 40 01 02 90 3f
       -0.48104912 -0.14301738 4.0852313 1.1250612
000270 0c af 04 40 16 0f 27 bd 11 51 ba 3e 3f 30 17 3f
       2.073184 -0.04078587 0.36389974 0.5905799
000280 09 49 28 3e fa 26 4f 3e ab b3 8a 3e 47 f2 6a 3f
       0.1643411 0.20229712 0.270902 0.91775936
000290 14 61 9f 40 4a d1 a5 bf 1e 57 4e bf 4a 76 97 40
       4.9806004 -1.2954495 -0.8060168 4.7331896
0002a0 3e d4 b4 40 d3 ae 52 3f d7 2d 8d 3f 7f da 91 3d
       5.6509085 0.8229801 1.1029614 0.07121753
0002b0 c2 0f ce 3f 5f c0 6c bf b8 12 fd 3e 3b db 9c 3f
       1.6098559 -0.92481035 0.49428344 1.2254404
0002c0 71 b6 d4 3e a1 c2 7f 3e 64 b3 4f 3f 66 93 87 40
       0.41545442 0.24976589 0.81133103 4.236743
0002d0 a8 8a b4 40 b6 3d b2 40 c5 d8 26 3f 2b cc e9 3e
       5.641926 5.570033 0.65174514 0.4566358
0002e0 82 5d 1b 3e c8 3f 9d 3f 5f 5d fc 3d d2 a3 bc bf
       0.15172389 1.228509 0.123224966 -1.4737494
0002f0 84 ae 8a 40 0c 97 9b 3f 94 d7 fe 3f 11 f1 97 3f
       4.333803 1.2155471 1.9909539 1.1870443
000300 26 6f 9b 3f 55 e2 be bf a8 76 86 3f 76 4d be 40
       1.2143295 -1.4912821 1.0504961 5.9469557
000310 56 c2 a4 bd d7 f1 93 bf 4d f9 8e 3f 4a e0 2c be
       -0.08044879 -1.1558179 1.116983 -0.16882434
000320 02 da 99 3f 1d 5a bb 3e b8 58 93 bd ba bb 3f 3f
       1.2019656 0.36592188 -0.07194656 0.74895823
000330 35 2f 9a 40 e9 38 88 3f 6e 26 27 3f ec a7 8b 3f
       4.8182626 1.0642368 0.65293014 1.0910621
000340 72 01 cc be dc 63 9a 3f ca 02 98 3e 7e bf 13 be
       -0.39844853 1.2061725 0.29689628 -0.14428517
000350 8f 66 83 bd cc 15 8e 3d da 31 8b 3f e0 85 bf 40
       -0.06416046 0.06937751 1.0874588 5.985092
000360 f3 37 38 3f 39 e1 c7 3e 42 95 94 3f 4b 45 0b bd
       0.7196037 0.3903902 1.160805 -0.03400163
000370 8f 59 45 3f 54 9c 0e 3f 07 a2 aa 3e d8 f5 8d 3f
       0.7708978 0.5570729 0.33326742 1.109065
000380 d9 9b c6 bd 41 27 a0 3f 94 37 ed 3e 1c d4 c3 3c
       -0.09697694 1.2511979 0.46331465 0.023904853
000390 c1 05 aa 40 c7 c4 91 3e b8 a2 81 3f da f8 89 3f
       5.3132024 0.28470442 1.0127783 1.0779068
0003a0 ad 90 48 be 1e 7e bb bf 3b de 9e 3f dc be 94 40
       -0.1958644 -1.4647863 1.2411569 4.6482983
0003b0 78 ad 7f 3f 16 2e 61 3f d1 94 97 3e 07 4a 80 3f
       0.9987407 0.87960947 0.29605725 1.0022591
0003c0 ae 0c 1e 3f 09 0d 9b 3f 35 54 98 3f ce 0d 8a 3f
       0.617381 1.2113353 1.1900698 1.0785463
0003d0 31 9c 8c 3f a6 1e 7f 3f 8f af 8b 3f 40 8c 6d 3f
       1.0985166 0.9965614 1.0912951 0.9279213
0003e0 81 e2 9d 3f 4c b9 44 3e 83 c8 99 3f 3e 9b 8d 3f
       1.2334749 0.1921131 1.2014316 1.1063001
0003f0 b8 90 87 3f b8 39 86 3e 24 58 84 3f 97 34 98 3f
       1.059104 0.2621591 1.0339398 1.1891049

fc_state.2.weight f4 [64, 256]
000000 35 98 d9 bf 79 b6 e9 bf 35 6a 59 3f 81 7f fd 3f
       -1.6999575 -1.8258811 0.84927684 1.9804536
000010 69 b7 5c bf 35 c3 62 3d fd 53 15 3e 5b 20 e0 bf
       -0.8621736 0.055361945 0.1458282 -1.7509874
000020 af 7d 18 c0 7e f4 d3 3f 36 20 a9 bf e7 93 b0 bf
       -2.382671 1.6558988 -1.3212955 -1.3795136
000030 1c 06 0f 40 78 88 da bf db f2 cf bf e6 f0 f9 3d
       2.234748 -1.7072897 -1.6245989 0.12204151
000040 87 ee d2 3f 45 0b d2 bf a0 f2 d5 bf 2a fe d6 bf
       1.6479043 -1.6409689 -1.6714668 -1.6796315
000050 40 b3 8a 40 a5 95 01 3e 19 f0 9e 3d e9 38 49 3e
       4.334381 0.12654741 0.07760639 0.19650616
000060 00 d5 0a 40 39 1a e4 bf 4f e8 c1 3e ed a8 39 3e
       2.1692505 -1.7820503 0.3787255 0.18130846
000070 31 b2 3f 40 e1 9f ed bf c1 25 7d bf ec 54 dc 3f
       2.995251 -1.8564416 -0.9888573 1.7213416
000080 b3 a4 07 c0 41 e7 c0 bf 1e f1 d8 bf 22 94 fa bf
       -2.1194274 -1.5070573 -1.6948583 -1.9576457
000090 f2 07 e2 bf c5 cb f4 bf c8 cf 05 c0 3b 82 eb bf
       -1.7658675 -1.9124686 -2.090807 -1.8399118
0000a0 0d 96 06 c0 00 54 b5 bf ce 85 ac bf 37 0b b0 3d
       -2.1029084 -1.416626 -1.3478334 0.08595889
0000b0 c3 86 44 3d 85 c9 d2 bf cf dd 74 bf 97 25 6f 3e
       0.04798008 -1.6467749 -0.95650953 0.23354183
0000c0 c1 e8 94 ba 24 b9 0c be 84 14 c7 bf 04 bc f5 bf
       -0.001136087 -0.137425 -1.5553136 -1.9198003
0000d0 70 5c 19 bf 33 58 bf bf e8 1b fb 3f 44 f5 d5 bf
       -0.59906673 -1.4948791 1.9617891 -1.6715474
0000e0 be 95 5e 3e 64 ca e5 bf b8 72 01 c0 ba d2 f7 bf
       0.2173681 -1.795239 -2.0226269 -1.9361184
0000f0 8b 54 02 c0 9e d2 c8 bf ae aa bc 3e 75 2b d1 3d
       -2.03641 -1.5689275 0.36848968 0.10213367
000100 d5 8c fc 3d ca 19 d2 3e ee 7e 83 bf 8f dc 88 3f
       0.12331549 0.410353 -1.0273111 1.0692309
000110 70 bc 02 c0 2a 78 e4 3f 51 f1 1d bd 49 17 01 40
       -2.0427513 1.7849171 -0.038560215 2.0170462
000120 b0 b2 09 c0 9c 85 e1 3d e1 f9 d8 bf fc b9 d1 3d
       -2.1515312 0.11011812 -1.6951257 0.10240552
000130 71 e9 06 40 03 e5 fb 3d cc 7e 53 3d f4 c0 9b bf
       2.1079981 0.1229954 0.051634595 -1.216826
000140 0a c8 9a 3d a0 85 09 c0 02 ac ad 3f 2f ef c6 bf
       0.07557686 -2.1487808 1.3568118 -1.5541743
000150 bc bd 09 40 9c 6c fa bf 63 03 c8 bf 88 4a 08 40
       2.1522055 -1.9564395 -1.5626034 2.129549
000160 48 1e c2 ba 61 41 08 c0 ff d8 5b 3d 8f 3a bf bf
       -0.001481005 -2.1289904 0.05367374 -1.4939746
000170 51 95 af 3d ad c9 02 40 ca 7c 2b 3e dc e8 ce bf
       0.08573402 2.0435593 0.16746822 -1.6164813
000180 10 16 6a 3e 90 4b 36 3e ec 68 b8 3f 0f 41 c1 3f
       0.22859979 0.17802262 1.440702 1.5097979
000190 4c 4b df bf ba 85 0a c0 d2 d3 4f 3e ad ed 69 bf
       -1.7444854 -2.164412 0.20295647 -0.9137829
0001a0 15 09 ca bf a5 23 ce bf 52 b9 e1 bf 43 ce 63 bf
       -1.5784022 -1.6104628 -1.763468 -0.88986605
0001b0 e1 c8 ce 3f 81 94 93 be 28 f4 f2 bf 4e ad 69 3e
       1.6155053 -0.28824237 -1.898076 0.22820017
0001c0 3f a3 b8 bc 11 9e b3 3d 8b e9 4e bf 95 10 e7 bf
       -0.02253878 0.08770383 -0.8082511 -1.8051935
0001d0 ac 85 4f 40 fd 02 7c bf 05 00 a0 3d f4 a2 03 40
       3.2425337 -0.9844206 0.07812504 2.0568209
0001e0 2a 64 0a 3e 56 88 e3 bf cf f8 c9 3d e2 4d c7 bf
       0.13514772 -1.7775981 0.098619096 -1.5570643
0001f0 41 f4 cb bf 14 64 c0 3c 1e 5e ce bf 0d 0f 77 bf
       -1.5933915 0.023485221 -1.6122472 -0.9650734
000200 27 b3 dd bf 71 1f 31 3e 5a 69 8f bf 5a e3 e0 3f
       -1.7320298 0.1729715 -1.1204026 1.7569382
000210 54 5b 18 3e 78 1f 1b c0 8b ad e3 bf c2 c9 12 3e
       0.14878589 -2.4237957 -1.7787336 0.14334777
000220 df 58 f0 bf 87 2a c1 3d 78 c2 cc bf 42 c1 04 40
       -1.8777121 0.094319396 -1.5996847 2.0742955
000230 02 8d 9a 3d 6a a6 fd 3d 7c 5d 04 3e af 79 cc bf
       0.07546426 0.123852566 0.12926286 -1.5974635
000240 87 d6 89 be 58 3c dd bf 34 60 ba 3f cf 2d d2 3f
       -0.26921484 -1.728404 1.4560609 1.642023
000250 a1 5f f9 3d e8 df c3 bf 00 1c de bf fb f4 58 bf
       0.12176443 -1.5302706 -1.7352295 -0.8474881
000260 1e 2b ac 3f 6b b2 53 3e 1f 5c ee 3f 46 ca 00 c0
       1.3450658 0.2067353 1.8621863 -2.0123458
000270 b0 37 68 40 51 70 61 3e bb f4 37 3e 11 53 cb 3d
       3.628399 0.22015502 0.17964451 0.09927953
000280 e8 da 1f 3e 52 22 d8 3c ff 18 3e 3e c3 a1 ea 3d
       0.1561085 0.026383553 0.18564223 0.11456635
000290 ba cc 10 40 32 d0 82 40 41 25 bf 3f 0a c6 c4 3f
       2.2624955 4.0879145 1.4933244 1.5372937
0002a0 4e 0a e8 3f 69 eb b2 3d 60 28 de bf 9d 5d 62 3e
       1.8128145 0.08736307 -1.7356071 0.22106023
0002b0 fa b4 8b 3f a6 a6 2f 40 4d 84 72 3d 66 4f e5 bf
       1.0914605 2.7445464 0.059208203 -1.7914855
0002c0 47 52 87 3d f5 6d 29 3e 2f d8 39 3d f8 ff ee 3f
       0.0660749 0.16545852 0.045372184 1.8671865
0002d0 a3 ec ea 3f 6a 8d eb 3f f2 a5 ca 3d 52 5c 7b bf
       1.8353466 1.8402531 0.09894933 -0.98187745
0002e0 0f 41 dd 3d c2 ba 91 bf 86 aa 26 3e a0 2f 88 40
       0.108034246 -1.1385119 0.16275987 4.2558136
0002f0 2e 6b 0c 40 b9 74 fe bf c0 fa 8b 40 f1 65 da bf
       2.1940417 -1.9879371 4.374359 -1.706236
000300 1e 33 c7 bf 7f c3 83 40 2b fe f3 bf 74 e8 00 40
       -1.5562475 4.1176143 -1.9061941 2.0141878
000310 43 1e 90 be 39 a4 73 40 41 53 d2 bf b4 4a a0 3e
       -0.28148088 3.8068984 -1.6431657 0.31306994
000320 30 09 d9 bf 29 56 18 3e 17 02 c3 be ec 1d 19 3e
       -1.6955929 0.14876617 -0.38087532 0.1495282
000330 f1 11 09 40 63 7c e6 bf 6e c5 fc 3d f6 75 c0 bf
       2.14172 -1.800671 0.12342344 -1.5035999
000340 a4 75 9a 3f b3 16 c3 bf 26 97 bd 3d 33 8e 83 3f
       1.2067151 -1.5241302 0.09257345 1.0277771
000350 c4 4f 89 3e 18 33 14 be 0a 5e d5 bf f4 a3 e9 3f
       0.2681867 -0.14472616 -1.6669323 1.825316
000360 58 1e 17 3e c7 64 09 3e 26 2a c5 bf 52 92 08 3e
       0.14757669 0.1341735 -1.5403488 0.13337067
000370 15 b9 67 3d 69 d1 4d 3d 1e 15 1f 3e 94 bf cf bf
       0.056572992 0.050248537 0.155354 -1.623034
000380 9f e4 01 bf a6 ee 0c 3f c2 ba f5 3d ad 9d fb bb
       -0.50739473 0.5505165 0.11998512 -0.0076787085
000390 86 90 0b 40 67 b0 40 3e 5a c6 00 c0 37 13 09 c0
       2.180696 0.18817292 -2.0121064 -2.1417978
0003a0 80 a3 2a 3e bf 26 86 40 60 f0 d3 bf 78 e6 fd 3f
       0.16663933 4.1922297 -1.6557732 1.9835958
0003b0 87 c9 fd bf 7b ef 20 3e 22 9f 2b 3e 75 7e ca bf
       -1.9827126 0.15716355 0.16759923 -1.5819842
0003c0 05 01 9f 3d 9c 7c 82 bf f5 93 ce bf 3c e6 bd bf
       0.07763866 -1.0194278 -1.6138903 -1.4835887
0003d0 12 81 b0 bf 24 76 0c c0 42 3f 25 c0 3d 1a 1d 3e
       -1.3789389 -2.1947107 -2.581986 0.1534204
0003e0 31 65 ca bf 0f c0 16 3e 18 1d ea bf eb ab dd bf
       -1.5812131 0.14721702 -1.8290129 -1.731809
0003f0 ae 80 e9 bf bf b2 18 3e d3 3f f8 bf 7a 29 e5 bf
       -1.8242395 0.14911936 -1.9394478 -1.7903283

fc_state.2.bias f4 [64]
000000 59 cd a8 3e 32 1a a0 3e 7d 4e 14 3f f2 60 7c bd
       0.32969168 0.31269985 0.57932264 -0.06161589
000010 e9 b1 af 3e ec bd ba 3f d7 63 14 3f ae e9 b1 3e
       0.34315422 1.458921 0.57964844 0.34748596
000020 79 86 17 3f ac 29 20 3f 2c e4 88 3e b5 d3 1d 3f
       0.59189564 0.62563586 0.2673658 0.61651164
000030 d5 31 16 3f 9a 70 1e 3f 79 81 16 3f 3f 39 b6 3e
       0.5866979 0.61890566 0.5879131 0.3559055
000040 f3 0a 49 bd 19 9f 1c 3f 71 60 94 3e d5 aa 0f 3f
       -0.049082708 0.61180264 0.2897983 0.56120044
000050 50 22 14 3f 86 fb 60 3e 5d af 0c 3f f1 b7 9c bd
       0.57864857 0.21970949 0.54955083 -0.076522715
000060 3b b3 af 3e 9c 9d 68 3e 64 b0 1f 3f a6 e6 0b 3f
       0.3431643 0.22716373 0.62378526 0.54648817
000070 ae e7 1c 3f 94 f5 60 3e 34 6f 08 3f de f7 54 3e
       0.61291015 0.2196868 0.5329468 0.20797679
000080 6c a6 c4 3e 92 d0 1f 3f d5 b3 75 3e 81 a0 77 3e
       0.3840822 0.6242763 0.23994382 0.24182321
000090 47 5b 77 3e 48 16 1a 3f 51 ba d8 3f 7a 9b 0f 3f
       0.24155913 0.6019025 1.6931859 0.56096613
0000a0 6e 09 ef bc b2 16 20 3f 05 db 96 3e 54 e1 25 3f
       -0.029179301 0.6253463 0.29463974 0.6479695
0000b0 89 fb ae 3e 74 36 9f 3e 23 ac ab 3e 95 3a a7 3e
       0.3417628 0.31096232 0.33529767 0.32661882
0000c0 9e 3e 55 3e 7c db 9c 3e c9 eb 8c 3e 65 5e e7 3f
       0.20824668 0.30636203 0.2752364 1.8075682
0000d0 29 7d d8 3f 9b 9e 06 bd 64 ef 18 3f 0c 0d 11 3f
       1.6913196 -0.0328661 0.5974028 0.5666053
0000e0 f5 f2 12 3f 6b 2f 25 3f 67 80 17 3f 3f ab 83 39
       0.57401973 0.6452548 0.591803 0.00025113855
0000f0 a7 3b ac 3e af 1d 1d 3f df aa 1f 3f 56 fc db bb
       0.3363926 0.6137342 0.62370104 -0.0067134304

fc_state.4.weight f4 [1, 64]
000000 b7 f5 06 c0 1c 48 07 c0 14 fb 00 41 a1 ec ce 3c
       -2.1087472 -2.1137762 8.061298 0.025259318
000010 dd 21 09 c0 d0 cf 1a 41 67 17 02 41 a3 59 8b 3f
       -2.1426919 9.675735 8.130713 1.088673
000020 59 14 02 41 3b ef 01 41 2f 31 05 c0 45 b5 02 41
       8.129968 8.120906 -2.081127 8.169255
000030 e7 c4 03 41 bd 88 03 41 b2 e1 00 41 db 14 97 3f
       8.235572 8.220883 8.055101 1.180324
000040 76 96 58 3c 27 5d 01 41 db 30 05 c0 b9 94 00 41
       0.013219466 8.085242 -2.081107 8.036309
000050 2d a5 00 41 a5 09 03 c0 b1 f0 00 41 5a 0d 87 3d
       8.040326 -2.0474637 8.058763 0.065943435
000060 6e f4 09 c0 97 fa 0c c0 cb 31 02 41 83 fc ff 40
       -2.1555438 -2.2027948 8.1371565 7.999574
000070 60 a3 02 41 a2 bb 30 c0 82 a3 ff 40 ac ec 09 c0
       8.164886 -2.7614522 7.9887094 -2.1550703
000080 db 9a 03 c0 29 ba 01 41 d4 7e 03 c0 4b 25 03 c0
       -2.0563266 8.107949 -2.054616 -2.0491512
000090 8a 99 17 c0 5d e7 01 41 da cf 39 41 d5 1c 00 41
       -2.3687463 8.118985 11.613245 8.007039
0000a0 e0 3a 78 3d 86 e5 01 41 3c b6 07 c0 e2 ea 00 41
       0.060603023 8.118536 -2.1204977 8.057344
0000b0 73 f9 07 c0 55 a5 0b c0 d0 45 0c c0 19 70 04 c0
       -2.1246002 -2.181966 -2.191761 -2.069342
0000c0 41 64 28 c0 6d 7c 09 c0 3d 5c 07 c0 a5 27 2c 41
       -2.631119 -2.1482193 -2.1150048 10.759679
0000d0 22 2b 37 41 b8 ae d9 3d 59 a6 00 41 92 0b 00 41
       11.44803 0.10629028 8.040612 8.002825
0000e0 c3 48 02 41 a6 77 00 41 d6 fa 00 41 64 21 22 bb
       8.142764 8.029211 8.061239 -0.002473914
0000f0 ff fd 02 c0 42 6f ff 40 d3 bd 02 41 3b 0e 0d be
       -2.0467527 7.9823313 8.171344 -0.1377496
