data/Torch/Dueling/003_Big-CNN_E_L/checkpoints/weights_22000episodes.pth (torch, 505343 bytes, 17 tensors)

conv_layers.0.weight f4 [64, 1, 3, 3]
000000 af 7b d5 3e 5b 6b 39 3e 77 cb 72 be f9 73 77 3e
       0.41695926 0.18107359 -0.23710428 0.24165334
000010 48 f7 0a be a0 86 bc bc 02 ce 6e be 04 cf fc 3d
       -0.13570893 -0.023013413 -0.23320773 0.123441726
000020 e9 ef 71 3e e6 6f 18 bf 6b 1e 63 3e 42 c1 18 3d
       0.23626675 -0.59545743 0.22179572 0.03729368
000030 99 e5 8d 3e 3f 91 06 3d 07 98 67 3d 7d dd 86 bc
       0.27714232 0.03285336 0.05654147 -0.016463036
000040 a0 0a 49 3e bb 36 01 bc b7 f6 e8 be 88 8a cd 3d
       0.1963296 -0.007886584 -0.45500728 0.10036188
000050 a2 e7 3e bd ed b6 6f bd b6 68 be bd b8 ee fa 3e
       -0.04660762 -0.05852406 -0.09297316 0.49010253
000060 6b 6f 8b bd f4 58 ac be 99 0f 46 be 6c 14 af be
       -0.06808361 -0.33661616 -0.19341888 -0.34195268
000070 92 3f e7 bb 6d 4a b6 be cd 72 b3 3e ad e6 7c be
       -0.0070571387 -0.35603657 0.35048524 -0.24697371
000080 70 1d 89 3e 67 36 75 3d ad 09 04 bb 8e 4d 8c 3e
       0.26780272 0.059866335 -0.0020147369 0.2740292
000090 e0 ee 4f bd d7 19 47 3e 7a df 40 bd e2 1f 37 be
       -0.05076492 0.19443451 -0.047088124 -0.17883256
0000a0 72 eb bb 3c f1 ab 53 be 31 03 9c 3d 34 bb 4f 3e
       0.022939418 -0.20671059 0.07617796 0.20286256
0000b0 cd e1 d3 3d 3c 0d 98 be e1 b2 b7 3e 23 7d c2 3d
       0.103458025 -0.29697597 0.3587866 0.09496524
0000c0 35 bc 92 3e 6d d6 06 be 19 b5 8d be 58 8e 79 bd
       0.28659216 -0.13167734 -0.2767723 -0.060926765
0000d0 de 5a 64 be c1 18 c3 3e 7b 1d aa 3e 54 74 3a 3d
       -0.22300288 0.38104823 0.33225617 0.045521095
0000e0 38 bb 14 3c 81 e2 4c bc 83 51 a0 3e 16 d4 bd be
       0.00907784 -0.012505175 0.31312189 -0.3707587
0000f0 3f 9c 9d 3c 8d 50 9f be 96 6b 2c 3d b4 8b 4d be
       0.019239543 -0.31116143 0.04209479 -0.20072824
000100 e0 fa fd 3d 95 85 e9 bc 5c c4 b4 3e 8d 44 52 be
       0.12401366 -0.02850608 0.3530606 -0.20533963
000110 d9 a9 39 be 95 32 4b be 98 97 9b 3e dd 98 e5 3d
       -0.18131198 -0.19843514 0.30389094 0.11210797
000120 b4 d9 38 3f 46 f2 8c be 5f 17 99 be 3a 4d a4 be
       0.7220719 -0.2752859 -0.29900643 -0.3209017
000130 f0 c6 20 be 7a 2e 4a 3e 87 45 99 3d 83 ce 96 3e
       -0.15700889 0.19744292 0.074839644 0.2945443
000140 7e b7 c8 bd 8c 09 f2 be 3f e6 6c 3e 50 c4 d3 bc
       -0.09800623 -0.4727291 0.23134707 -0.025850445
000150 e6 08 86 3e 24 ad 33 bd 2c 95 83 3e 11 28 54 be
       0.26178664 -0.04386629 0.25699747 -0.20718409
000160 16 72 31 be ad 8f 13 3e 46 df 26 3e 44 3e 26 be
       -0.17328677 0.14410277 0.1629611 -0.1623469
000170 de d5 45 3e 40 02 70 3e 0a 47 9d be e6 df 44 be
       0.19319865 0.23438358 -0.3071826 -0.19226035
000180 ad 6c c4 3e c2 1f b9 bd 9e 25 ff bd 2d af 05 c0
       0.38364163 -0.090392604 -0.12458347 -2.088817
000190 f0 53 8f 3d 39 da 50 3e 75 b6 ab bd 6f d7 4a bf
       0.06998432 0.20395745 -0.0838441 -0.79234976
0001a0 a3 e7 e4 3d e4 b8 57 bf e0 63 4d be 17 14 f3 3d
       0.11176994 -0.84266496 -0.2005763 0.11869066
0001b0 ea 81 4b bf e6 14 f0 bd 73 08 04 3f a2 97 07 3d
       -0.7949511 -0.11722736 0.5157539 0.033103593
0001c0 5e f4 65 3e 19 92 62 be 75 70 a6 bd 81 44 91 3d
       0.224565 -0.22126044 -0.08126918 0.07093144
0001d0 e1 17 d2 3d c0 d6 83 bf 50 10 e1 be ef 6d 67 bf
       0.10258461 -1.0299911 -0.43957758 -0.9040212
0001e0 b4 98 f1 3d 73 40 db be 07 d2 0c bd 77 e5 7c be
       0.11796704 -0.42822608 -0.034379985 -0.24696909
0001f0 25 2e a4 be f6 a7 67 bf 92 d5 b2 be 51 70 82 be
       -0.32066455 -0.90490663 -0.34928566 -0.25476316
000200 ae 01 c9 3e 11 28 3e bd 95 55 95 3e 4e 7a 38 3e
       0.39259094 -0.04642493 0.29166856 0.18015406
000210 1b 8b 9a be 53 42 72 3e e6 51 db bd 0e ba 7d bf
       -0.30184254 0.23658113 -0.1070898 -0.9911202
000220 f3 bd b6 bd 92 ce d2 be 2b fe d3 3d d7 fa 85 bc
       -0.08922949 -0.41173226 0.10351213 -0.016354961
000230 ca eb aa 3e 3f 7f 96 be 8e 8a c5 3e e4 4b 1a be
       0.33383018 -0.29393956 0.3858227 -0.15068012
000240 39 0a 80 be 14 4b 5f 3d 5d fd 13 3e dc 5c cf 3e
       -0.250078 0.05451496 0.14452119 0.40500534
000250 50 a9 97 3e 07 ca a9 be ac 1e b3 3d 19 b1 16 be
       0.29621363 -0.33161947 0.087460846 -0.14715995
000260 2e 9a f1 bb 61 31 30 bf 28 42 b8 3e c1 56 32 be
       -0.007373116 -0.68825346 0.35987973 -0.17415906
000270 1d 6b 5c 3e 3a 36 34 3e d2 2c ef 3d 16 77 11 be
       0.21525235 0.17598811 0.11678471 -0.14205584
000280 a6 99 9b 3e 6d 6f 7e 3d 58 0b 35 be 1f d4 a9 be
       0.30390662 0.062117983 -0.17680109 -0.33169648
000290 ee eb 77 3e 66 28 fb bd 5c 95 1f be b1 f2 fc 3e
       0.24211094 -0.12263565 -0.1558432 0.4940391
0002a0 1e fe 01 3e cd 31 73 be 84 1a 53 be b8 27 9f 3d
       0.12694594 -0.23749466 -0.20615584 0.077712476
0002b0 98 04 bc 3e 09 8f 84 bd 21 53 c4 bd 61 69 7e bd
       0.36722255 -0.06472594 -0.09586168 -0.062112216
0002c0 da 1c 24 be de c9 12 3e 1e 1d 8f 3e 09 5e 0a bf
       -0.16026631 0.14334819 0.27951902 -0.54049736
0002d0 87 23 3c 3e 76 9a fe 3d a5 d7 95 bc c9 a6 a3 be
       0.18372928 0.12431805 -0.018291304 -0.31963184
0002e0 eb 3f fc 3d 59 ca f8 3d 42 f5 c5 3d 3d d2 85 bd
       0.12316879 0.1214797 0.0966592 -0.065342404
0002f0 2e 36 18 be 43 cd 3e 3d 82 4d 6e bd c2 c9 18 be
       -0.14864418 0.04658247 -0.058179386 -0.14920714
000300 00 7b 6d 3e e0 cb 9f 3e 21 57 60 bd 47 7d cb bd
       0.23191452 0.31210232 -0.054770593 -0.09936004
000310 ed 92 fc 3b 54 a1 c6 bb 7c 03 43 3e ce e2 02 3e
       0.0077079446 -0.0060617123 0.19044298 0.12781832
000320 70 b4 90 be cd 0f 1d be be 3b a0 3e 01 aa 3b 3e
       -0.28262663 -0.15338059 0.3129558 0.1832657
000330 d0 d9 b5 bd 4d e0 47 be 3b 18 74 be bb 18 01 bf
       -0.08879435 -0.19519158 -0.23837368 -0.5042836
000340 32 09 2b bc c6 44 28 3d bb cb 90 3e c1 62 58 3e
       -0.010439204 0.041081212 0.28280434 0.21131422
000350 c0 bc 92 be 36 df dc bd 6f 9a 79 bc 1e 61 c5 3e
       -0.2865963 -0.107847616 -0.015234574 0.38550657
000360 6b c7 59 3e e1 b0 0d 3c 36 3c 90 3e 0e b2 c8 bd
       0.21267478 0.008648128 0.28170937 -0.09799586
000370 0c 04 36 be 5f b6 9e 3e 94 88 c7 bd 38 bb f2 bb
       -0.17774981 0.30998513 -0.09742847 -0.007407572
000380 39 38 d7 be d6 02 e4 3e 15 8c 52 3e 24 e8 b5 3d
       -0.42035082 0.44533414 0.2056125 0.08882168
000390 22 d2 d6 be 03 dd b6 be 98 78 9a be d1 ae 03 3e
       -0.41957194 -0.35715494 -0.3017013 0.12859656
0003a0 76 7f f7 3d 92 66 82 3e 92 df ec 3e dd 6b 3a 3e
       0.12084858 0.2546888 0.4626432 0.18205209
0003b0 a4 83 0e bd d6 ee b0 be 82 d6 94 be b2 da 00 bf
       -0.03479351 -0.34557217 -0.29069906 -0.503337
0003c0 65 2a 6d 3e 90 a2 bf be 2d 67 35 be 3e 84 c6 be
       0.23160703 -0.37428713 -0.1771514 -0.38772768
0003d0 15 99 40 bf 1d b2 87 bf 30 4a 52 be 61 90 62 3e
       -0.75233585 -1.0601231 -0.20536113 0.22125389
0003e0 c5 15 22 bf 78 8f f6 3e c0 76 41 3d 11 34 6d be
       -0.6331447 0.48156333 0.04723239 -0.23164393
0003f0 27 ac af bc aa 76 2e be 01 52 85 bc 61 3b e2 be
       -0.021444393 -0.17037454 -0.016274454 -0.44185928

conv_layers.0.bias f4 [64]
000000 45 e6 5c bd eb d2 bc 3e 83 b5 a5 3c 2c 37 c9 bb
       -0.05393054 0.36879668 0.020228153 -0.00614061
000010 b2 54 a6 3e 6d e0 c1 be 2b a2 6e 3d 79 6a 32 3f
       0.32486492 -0.37866536 0.058260124 0.69693714
000020 f4 c8 c4 3d 7d 3f bf 3e 96 ee 9c be 67 1a 13 3f
       0.09608641 0.37353125 -0.30650777 0.5746216
000030 47 15 70 3e 08 1b df 3e c2 f7 66 3e ba 1b 01 3f
       0.23445617 0.4357531 0.2255545 0.5043293
000040 1e 05 5b be 96 bb 40 3d 12 63 10 be e5 af 7f be
       -0.21388671 0.047053896 -0.14100292 -0.24969442
000050 48 56 1a bd 5d b4 0b bf 20 47 04 3f 1a 35 3d bb
       -0.03767994 -0.5457209 0.5167103 -0.0028870762
000060 93 c7 62 bc 9a cb 73 3e 6d 3d a6 3d 49 f5 2d 3a
       -0.0138415275 0.23808137 0.08117185 0.00066359766
000070 ea a7 e8 bc 82 e9 9b bc 9d 96 b4 be ab 70 e2 3d
       -0.02840038 -0.019032244 -0.3527116 0.11056646
000080 75 6d ab 3e 30 6a 07 3f a4 0a c5 3e cc 16 05 bf
       0.33481947 0.52896404 0.3848468 -0.5198791
000090 1c 31 a4 3d 14 2a 26 3f 99 7a b1 3e e8 4b 6f bd
       0.08017179 0.64907956 0.34663847 -0.058422
0000a0 55 b6 9f 3e 05 c5 c7 be 41 3b fd bd a7 23 2d 3f
       0.31193796 -0.390175 -0.123648174 0.67632526
0000b0 bc 86 58 bb 73 e5 a4 bd 39 38 8b be 9b 55 33 be
       -0.0033039292 -0.080515765 -0.27191332 -0.17513125
0000c0 8f c4 d7 3d d8 19 cf be 41 1a dd bb 9b df a9 3e
       0.105355375 -0.40449405 -0.0067475145 0.3317841
0000d0 ba 5b 09 bf 8f 66 f9 3e 11 3c c6 be 59 c8 a5 be
       -0.5365559 0.48711058 -0.38717702 -0.32379416
0000e0 0d 59 1a 3e 9d c5 b4 3e 2b a4 1a be 1f e0 63 bc
       0.15073033 0.35307017 -0.15101688 -0.013908415
0000f0 de 6c 00 bf c9 e3 c0 be 84 7f b3 3a 63 9a 68 bb
       -0.5016612 -0.37673786 0.0013694619 -0.0035492412

conv_layers.2.weight f4 [64, 64, 2, 2]
000000 27 7b 20 3d 7b 91 67 bd 99 92 82 3d 08 20 81 3d
       0.039179947 -0.056535225 0.063756175 0.063049376
000010 71 33 42 bd 5d 86 02 3b 65 52 f2 3c 40 2a 0a 3d
       -0.04741234 0.0019916513 0.029580304 0.0337317
000020 93 8c c6 bd 11 b2 90 3d 20 33 02 3d 9f 57 dc bd
       -0.09694781 0.070652135 0.031787038 -0.107589
000030 5b e8 0a 3e b6 5c 75 3c 40 57 7a 3c f8 51 3c 3d
       0.13565199 0.014975717 0.015279591 0.04597661
000040 b7 90 a3 bb 02 f3 c9 bc 53 b4 29 bc 70 ba cb 3d
       -0.0049916166 -0.024652008 -0.010357934 0.099476695
000050 f0 da 1b be ed 8d 2b be 67 c6 41 be 46 97 0e 3d
       -0.15220237 -0.16753359 -0.1892334 0.034812234
000060 8b 03 81 bd e3 52 95 bd 7c ec df 3c 1c 54 bd 3b
       -0.06299504 -0.072912 0.027334444 0.005777849
000070 49 ad 30 3d 7c c9 eb bd c7 66 cf bc 39 a3 8b 3d
       0.043134008 -0.115130395 -0.025317563 0.068182416
000080 6a 09 83 3d 1e f1 81 3d 5f a7 83 bd eb 74 2f be
       0.0639828 0.063448176 -0.06428408 -0.17134444
000090 df ef 8a 3c aa 9f 9a 3c 7e ec a5 bd cc 96 b9 3c
       0.016960083 0.018874962 -0.08101748 0.022654913
0000a0 3d 88 30 3d 2b 19 04 bd fa e6 84 3d 11 0a 2f bd
       0.043098677 -0.032250565 0.06489368 -0.04273421
0000b0 d2 60 42 bd 73 d6 8e 3c e9 7a e2 bd 86 e1 b1 bd
       -0.047455616 0.017436242 -0.110585995 -0.08685593
0000c0 03 df a0 be f2 92 56 be f0 0d f8 bd c2 e1 f0 3d
       -0.31420144 -0.20954493 -0.12112033 0.1176181
0000d0 c0 60 3a 3e 31 b9 a8 3c 76 e0 8e bc c3 0b 88 3d
       0.1820097 0.020596119 -0.017441016 0.06642868
0000e0 ea 0f c7 3c 7a ff 08 3e c0 27 e4 bc de f9 04 3e
       0.02429958 0.13378707 -0.027850986 0.12985942
0000f0 57 ea 99 3d 43 12 9d bd 06 5c 51 be 44 89 74 be
       0.075154 -0.07669499 -0.2044526 -0.23880488
000100 77 98 95 bc 2d a4 0c bd 3c 7f 29 3d 5f c1 f7 3c
       -0.018261177 -0.034336258 0.041381106 0.030243574
000110 81 6e 79 bd 1d 35 97 3d 70 89 52 bd ae 41 40 3d
       -0.0608964 0.073831774 -0.051400602 0.046937637
000120 61 79 a3 3d 2d 3d 37 3d 0f 7d d9 3c 32 0a 03 3e
       0.079821356 0.044736076 0.02654889 0.12796858
000130 a0 6b cf bc 11 55 27 3c 2b 40 dc bd e4 ac fa 3d
       -0.025319874 0.0102131525 -0.107544266 0.122400075
000140 0c 65 93 bc 07 7d 94 3d 6a af 39 3d f1 7e 83 3d
       -0.017992519 0.072504096 0.045333304 0.064206965
000150 41 2a e6 bd 0e 88 68 bc 20 75 2b 3c f2 e8 a8 bd
       -0.11238528 -0.014192594 0.0104649365 -0.08247556
000160 b0 0b 0b be eb a9 cf bc af 44 36 bc d8 db 12 be
       -0.13578677 -0.025349578 -0.011124774 -0.14341676
000170 30 bf 62 bd 9a 4f d6 3c d1 43 ef 3d 3d 02 05 3e
       -0.05535811 0.026161004 0.11682857 0.12989135
000180 21 d3 f0 bd 50 ed d8 3d b0 c6 88 3d 09 d0 e9 3c
       -0.1175902 0.10592139 0.06678522 0.028541582
000190 7f e0 4d 3d 2a c4 67 bc 49 6a 49 3d c5 8d 08 3e
       0.050262924 -0.01414589 0.049173627 0.13335331
0001a0 9b 50 d4 3d 88 68 19 3c e2 d6 24 3d 2d 1b 41 be
       0.10366937 0.009363301 0.04024399 -0.18858023
0001b0 54 75 eb bd b8 98 07 3e f9 2b ed bc e0 de 27 3e
       -0.11496988 0.13241851 -0.028951632 0.16393614
0001c0 cc c1 2d bd 97 a2 ef 3c 09 c6 16 3e f3 aa 56 3d
       -0.042421147 0.029252334 0.14723982 0.052409124
0001d0 8e fc 9f 3d 09 a9 ed 3d dd 5d 82 bd 67 82 05 3e
       0.07811843 0.116045065 -0.06365559 0.13038026
0001e0 8f c2 35 bd 7e 71 54 bc eb ee 4c 3c c9 6b 4c ba
       -0.044375 -0.012966512 0.012508134 -0.00077980437
0001f0 e8 5c 24 bd 6c 7c 7b bd 61 46 71 bd 66 ed 28 bc
       -0.040127665 -0.061397955 -0.05890501 -0.010310506
000200 98 b0 e7 bc 67 14 c5 3d 03 69 1a bd 16 da d1 bd
       -0.028282449 0.09623032 -0.037697803 -0.10246675
000210 26 b5 13 be 69 56 a9 be 45 bc cc bd 5d c9 98 3c
       -0.14424571 -0.33073738 -0.09996847 0.018650705
000220 74 04 45 bd 39 d8 ec 3c 9b 17 87 3c 0d 08 53 bc
       -0.04809995 0.028911697 0.016490748 -0.012880337
000230 e9 6e 18 3b 28 76 d7 bc 6e 3b bc 3c 09 db e3 3d
       0.0023259467 -0.026301458 0.022977557 0.11125762
000240 1e eb 82 3c 74 e0 d9 bc 39 c6 ba 3c 8b db fa 3d
       0.015981253 -0.026596285 0.022799598 0.12248906
000250 b4 c0 f1 be a4 4b f0 bc 0d 40 2e be 4f d5 e4 bd
       -0.47217333 -0.029332943 -0.17016621 -0.11173498
000260 99 a1 04 bd c1 b1 2c bc 85 2c c9 3d 93 99 97 be
       -0.032380674 -0.010540427 0.098229446 -0.29609355
000270 c4 01 3e bc c7 7f 6c 3c 10 7f 89 3c a9 43 09 3e
       -0.011597101 0.014434761 0.016784221 0.13404717
000280 b6 42 e9 bc 1a 7e f8 bd f6 9c c6 bc 23 93 ee 3d
       -0.028474193 -0.12133427 -0.024244767 0.11649158
000290 9f a9 11 be 6f 07 be bd e0 65 5d bd 6a 5b a9 3d
       -0.14224862 -0.092787616 -0.054052234 0.08269389
0002a0 e5 dd 90 3c 78 86 1a 3d 4f 16 23 3b ea c4 a7 bb
       0.017683933 0.037725896 0.0024885123 -0.0051199095
0002b0 91 ee 42 3d 06 df 18 3d d0 64 27 3d 0e 19 3d 3c
       0.047590796 0.037322067 0.040867627 0.011541618
0002c0 33 b2 74 3e b4 a5 2b 3e fc 68 ae 3d 9d af 60 3e
       0.23896103 0.1676243 0.08516118 0.21941991
0002d0 a3 63 a8 3c 0b dd a9 3d 8e e6 00 3d d1 01 72 bd
       0.020555323 0.08294114 0.031469874 -0.059083764
0002e0 03 b2 ee bc 3a 85 9b bc 71 79 c5 3d b0 4f 04 be
       -0.029137617 -0.018984426 0.09642304 -0.12921023
0002f0 5c b0 ac 3c 26 3a ef bd 9f 21 4a 3d 8a 07 f6 bc
       0.021080188 -0.11681013 0.04934847 -0.030032892
000300 7d cd b7 bc fd 41 8d bd ed 64 0f be be 3e 3d bc
       -0.022436852 -0.06897352 -0.14003344 -0.011550603
000310 51 57 91 bc 2c c2 e5 bb c2 28 7e 3d 33 52 35 bd
       -0.017741831 -0.0070116725 0.06205059 -0.044267844
000320 ac 16 2c bc 4b 3a b1 bd 9b 0c 5d bd e9 2d 07 be
       -0.010503452 -0.086536966 -0.0539671 -0.13201107
000330 bd e0 ad be 4b 68 58 bd 64 47 45 be 76 57 b3 bd
       -0.33960524 -0.052833837 -0.19265515 -0.08756916
000340 ab b2 de 3c db b4 a1 3d 52 76 34 3d c4 6b e5 3b
       0.027184805 0.078958236 0.04405815 0.007001372
000350 4c fb 10 3c c4 d0 10 be 99 a1 8d be 66 14 3e 3e
       0.008848976 -0.14142138 -0.27662352 0.18562469
000360 8c 2a a7 3d 61 59 56 3d 22 df d3 3d 23 1e b8 3d
       0.08162412 0.052331332 0.103452936 0.08990123
000370 ee 00 a2 3c 19 a3 f0 bc d2 96 a9 3d 15 1f 3b 3d
       0.019775834 -0.029374646 0.0828072 0.04568394
000380 28 d3 8d bd cd 36 7b bc 3a db 00 3a 62 b4 89 3c
       -0.069250405 -0.01533289 0.000491548 0.016809646
000390 4d 06 83 3d be 2a c2 bd c7 ef a0 bc b4 56 a4 3c
       0.06397686 -0.09480809 -0.019645585 0.020060875
0003a0 d6 9e b4 3c 92 33 3d 3d e1 fa 34 3c ef f1 6c 3d
       0.022048395 0.04619176 0.011046142 0.057847913
0003b0 bf d0 a2 3d 05 2a 9c bd 5b c2 1b 3d 7d f7 f3 3b
       0.079499714 -0.07625202 0.03802715 0.0074452744
0003c0 a7 70 4b 3d ba a6 82 3d 51 bc fd 3c 51 5b a8 3d
       0.04966798 0.06379457 0.030973585 0.08220542
0003d0 69 b8 e6 3c bc 8f eb 3d b0 71 57 3d 27 da 99 3d
       0.028164105 0.115020245 0.052598655 0.075123124
0003e0 78 45 07 3c c4 07 b5 3c 0b 24 00 bd 05 c8 87 bd
       0.008256309 0.02209843 -0.031284373 -0.066299476
0003f0 b8 6a 93 bc 14 ac a1 3d da 69 e7 3d 07 f6 08 3e
       -0.017995223 0.078941494 0.112994865 0.13375102

conv_layers.2.bias f4 [64]
000000 71 0f 3c 3c df 2d 42 3c 72 a7 1c bd 58 ff 83 3d
       0.011478291 0.011851757 -0.038245626 0.06445187
000010 6a be 6a bd 71 70 57 be bd f9 de 3d bc 4e 98 3e
       -0.0573105 -0.21038987 0.108874775 0.2974757
000020 b4 2e 7e be 77 4c f5 3c f8 1f 25 bd 01 f1 65 3d
       -0.24822503 0.029943688 -0.04031369 0.056138042
000030 69 83 9f be b3 43 d6 bd e7 4c c5 3b af ef 18 3e
       -0.31154945 -0.10462131 0.0060211304 0.14935182
000040 ff 73 54 3c a3 ef 60 bd aa 5c 35 3e 6d e8 2d be
       0.012967109 -0.054916035 0.1771113 -0.16983195
000050 8e ef 85 3b c7 b7 c4 bd 46 57 f2 bd 6f d6 53 3e
       0.004087395 -0.09605365 -0.11833052 0.20687269
000060 d8 84 a6 bd 81 8c 00 3d c9 ff ab be 8d 2e ad 3d
       -0.08130807 0.031383995 -0.33593586 0.084561445
000070 51 a0 08 3e a0 b7 8a 3d 94 d0 22 be d0 87 9d bd
       0.13342406 0.06773305 -0.15899879 -0.0769192
000080 0e b4 75 be 2f 59 43 3d 4d 54 60 3e 67 38 0c 3e
       -0.23994467 0.047692474 0.21907158 0.13693391
000090 c4 55 4c bd 7c c4 20 bd 4a 7d b0 3d c9 e9 e3 3d
       -0.04988648 -0.039249882 0.08617647 0.11128575
0000a0 75 95 fe bd 45 72 6c bd bb 1c 67 3d d3 f5 6e 3d
       -0.124308504 -0.057726163 0.056423884 0.058339905
0000b0 9b 16 64 3d 36 e2 06 3e 97 75 34 bd 20 79 6f bc
       0.05568562 0.1317223 -0.044057455 -0.014616281
0000c0 d3 ae 41 ba 3a a6 c3 bd c3 b3 6d bd d8 0f cb 3d
       -0.00073884166 -0.095531896 -0.058032762 0.09915131
0000d0 44 83 86 be ec 1b 10 3e 7f 7a 58 3e b3 67 2f bb
       -0.26272023 0.14073151 0.21140479 -0.002676469
0000e0 40 a0 49 3c d7 33 ce 3c 12 98 e8 3d 22 72 33 bc
       0.012306273 0.025171204 0.1135713 -0.010952504
0000f0 a1 ad 40 3e db dc ad 3d de 80 05 3e c8 9d 27 bd
       0.18816234 0.084893905 0.1303744 -0.040921956

conv_layers.4.weight f4 [32, 64, 2, 2]
000000 84 ef 04 3e dd a4 fd 3d 40 4a ad 3c 8f fb d7 3d
       0.12981993 0.12384961 0.02115357 0.10546028
000010 fb 73 f7 3d 75 c7 e3 3d 09 7a f3 3d ab 1c a3 bc
       0.120826684 0.11122028 0.11888511 -0.01991113
000020 39 fc ca 3d d5 60 5d 3d 20 aa 6e 3a ad c9 a9 bd
       0.09911389 0.054047424 0.000910433 -0.0829042
000030 15 31 e8 bd cf a9 95 bd 38 84 59 be 49 f0 d8 3c
       -0.11337487 -0.07307779 -0.21241844 0.026481764
000040 b3 ad 28 3e ed 6c ed 3d fd 3f cf 3d ce 14 0a 3e
       0.16472511 0.115930416 0.10119627 0.13484499
000050 a2 70 9e 3d 81 41 0f bc df a0 1b 3e 8a c0 29 3b
       0.07736327 -0.008743645 0.15198086 0.0025902116
000060 d3 95 78 3e 99 de b6 bd c5 f9 a8 3e 0f 68 01 3e
       0.24275903 -0.08929176 0.3300306 0.12637351
000070 4f 68 6d be 9b e3 2b bd b3 f8 80 be db 80 4f be
       -0.23184322 -0.04196511 -0.25189742 -0.20263998
000080 9c 16 fb 3d a6 d3 44 3e 30 66 b6 3d 19 b6 fa bc
       0.12260172 0.19221362 0.089062095 -0.030604409
000090 cc 37 ad 3d 67 5c c3 3c 6e 58 7e 3d 66 42 aa 3d
       0.08457908 0.023847772 0.062096052 0.08313446
0000a0 57 e5 0b 3d 66 ea 20 3e fd 1a b2 3d c4 c2 2d 3d
       0.034154262 0.15714416 0.08696554 0.04242207
0000b0 9f 5c 36 bb c4 6a 0a bd 96 08 a3 bc 5d 39 89 3d
       -0.0027826203 -0.033793226 -0.019901555 0.06700394
0000c0 f4 74 3b 3e 1c 81 1a 3e dc e3 f5 3d 50 8f 56 3e
       0.18306333 0.15088314 0.12006351 0.20953107
0000d0 27 21 f1 bc 8f 6b 03 3c 5b f2 e3 bd 33 f5 60 bd
       -0.029434754 0.008021249 -0.1113021 -0.05492134
0000e0 1c 2e c1 bc 84 b3 f3 3d b1 96 71 3d 59 bc 02 3e
       -0.023581557 0.11899474 0.0589816 0.12767161
0000f0 30 5b 96 bc 89 e8 78 3d a3 60 2a bd 29 5c 1e 3d
       -0.018354028 0.060768638 -0.041596066 0.03866211
000100 d4 1a ff 3a 19 5d 17 bd 06 de 23 bc 99 6a ef 3c
       0.0019462951 -0.03695402 -0.010001665 0.029225634
000110 ba f5 0c be 47 a3 75 bd d9 31 02 3e 6f 96 3f bd
       -0.13765612 -0.059970167 0.12714328 -0.046774324
000120 7f 43 bc bd af e0 a9 bd 2c 95 48 bc 1f cf 17 be
       -0.09192561 -0.08294808 -0.012242597 -0.14825104
000130 8c e4 b6 3d 2f 53 ab bd 87 17 0a 3e 67 8d cb 3d
       0.089303106 -0.083654754 0.13485537 0.0993908
000140 08 9d 87 bd 1b 26 2c 3c 15 cf 30 3d e5 75 fd bd
       -0.06621748 0.010507132 0.04316624 -0.12376002
000150 90 2f df 3d 8e 7b 26 bd 31 02 a9 3c 02 3b 8c bc
       0.10897744 -0.040645175 0.020630928 -0.01711798
000160 9a 77 db 3d d5 e8 de 3c 2b 77 73 3d dd 79 68 bc
       0.107161716 0.027210632 0.05943982 -0.014189211
000170 e6 12 05 bd 79 a3 07 be cc f8 36 bd ec 3b de 3c
       -0.032488726 -0.13245954 -0.044670865 0.027128182
000180 48 0e 1b bd e3 bf bd 3d c2 a7 20 bd eb 4c 18 3d
       -0.037855417 0.09265115 -0.039222486 0.03718273
000190 06 ff 5c 3c c8 cd 79 bd 00 cb 02 3e 8a 6c 87 bd
       0.013488537 -0.060987264 0.12772751 -0.06612499
0001a0 a2 2f 08 3e 77 d6 c1 3d 0b 03 bd 3d 4d 4c 6e 3e
       0.1329942 0.09464734 0.09229096 0.23271294
0001b0 5f ba 2b be ea 38 2d be 72 5b 81 3c 07 47 44 3c
       -0.16770314 -0.16916242 0.015790675 0.011979825
0001c0 3b 2f e9 bd 1f c4 13 be 62 81 b0 bc 5e a2 10 3c
       -0.113859616 -0.14430283 -0.02154607 0.008827774
0001d0 af 3c 62 bd 5b 18 0f be 06 b0 11 bd 90 2d a6 bd
       -0.055233654 -0.13974135 -0.03556826 -0.08114159
0001e0 ce cf b4 3d 8b 6f 93 3d 24 70 f2 3d c4 30 20 3a
       0.08828698 0.071990095 0.118377954 0.0006110782
0001f0 50 d2 86 3e ad ea 7c 3d 20 f5 f1 3d 27 e5 a5 3d
       0.2633233 0.06174724 0.11814332 0.08100348
000200 d9 ad 0c 3e ed 44 9c 3d 3b 97 57 3e 71 a5 94 3d
       0.13738193 0.07630334 0.21053784 0.07258118
000210 65 54 9d bd 42 26 26 bd 42 69 be bd 66 b4 32 bd
       -0.076821126 -0.04056383 -0.0929742 -0.043629073
000220 9c 6b 03 bc b7 fc ab bd d8 7b d5 bd 34 93 dc bd
       -0.008021262 -0.08397811 -0.10424012 -0.10770264
000230 13 30 6b 3d f8 be ce 3d 30 d6 3a bd 6b 85 23 3d
       0.057418894 0.10095018 -0.04561442 0.03992216
000240 f6 21 2a bd f6 3b 63 bd ba f5 a6 bd 9b 8f c6 3d
       -0.041536294 -0.055477105 -0.08152337 0.09695359
000250 ea 11 00 3e 6b 62 44 3e eb 74 bd bc 10 6a 6d 3c
       0.12506834 0.19178168 -0.02312704 0.014490619
000260 4b ea b4 bd 32 59 b9 bd 18 4f 40 be 20 35 2d be
       -0.0883375 -0.09050216 -0.18780172 -0.16914797
000270 5d 5a 74 bd 5d 23 0c 3e 89 07 be bc b9 22 c1 3c
       -0.05965649 0.13685365 -0.023196952 0.023576127
000280 a6 1c 2e bc 52 5a e7 3c 98 84 be 3d e1 0e a0 3d
       -0.0106269475 0.02824131 0.09302634 0.07815338
000290 65 87 05 3c c4 28 fd 3c 77 b4 51 bc 23 4b 51 3d
       0.008149956 0.030903228 -0.012799374 0.051097047
0002a0 00 58 07 bd 0a e4 ea bd 66 c8 c2 3d 39 15 eb bd
       -0.033042908 -0.11469276 0.09510879 -0.11478657
0002b0 41 59 4c bd 49 1e 14 be bd 91 1b 3e 78 5a 9a bd
       -0.049889807 -0.14464678 0.15192313 -0.07536787
0002c0 01 e8 dd 3d 9e 89 54 bc cb 23 bb 3d 07 b8 a8 3c
       0.10835267 -0.012972264 0.09137686 0.020595564
0002d0 b1 c4 2f be a3 76 cd bd 7a 9a 07 be 5e 52 0b be
       -0.17164876 -0.10032394 -0.13242522 -0.1360564
0002e0 82 15 03 3e 8f d9 f0 3d 28 51 93 3e 54 38 c9 bd
       0.12801173 0.11760246 0.28772855 -0.09825197
0002f0 d7 2c 80 bd b7 70 f2 3c 54 90 a0 bd 4e f9 8e bd
       -0.062585525 0.029594762 -0.078400284 -0.06981145
000300 54 a2 12 3d ab 37 23 3c a0 16 b7 39 48 8f dd bd
       0.03579934 0.009962003 0.00034921337 -0.10818344
000310 3e f0 41 bd 67 48 8d 3d 53 78 b1 3c 34 fc 4c 3d
       -0.047348253 0.06898575 0.02166382 0.050045207
000320 ba 7e 14 be 8a 7b 0f be 97 a5 21 3e 25 9e 4e bd
       -0.14501467 -0.1401197 0.15785824 -0.050443787
000330 f4 07 9f 3c 6c da 85 bd 35 5e d7 3b 61 a4 0b 3d
       0.019412972 -0.06535801 0.0065725097 0.03409231
000340 78 50 57 3e c7 7c 80 3d 6f 46 41 3e 51 d3 eb 3d
       0.2102679 0.062737994 0.18874525 0.11514915
000350 b9 80 5b bc 0d 4e 07 bd 79 9d ea 3d 5f 4c fb 3c
       -0.013397389 -0.03303342 0.11455817 0.030676065
000360 eb e9 f2 bd d5 8c 35 3d ac 99 10 be d6 8f 8e 3b
       -0.118610226 0.04432376 -0.14121121 0.0043506427
000370 cc 3e 47 bd 6d 5e 0a 3e 3a d0 58 bc 52 47 99 bd
       -0.048643872 0.13512583 -0.013233239 -0.074843064
000380 5b e7 84 bd 96 54 ac 3d f1 84 0a be 22 fc 9b bd
       -0.0648944 0.08414571 -0.13527276 -0.0761645
000390 35 d0 c6 3c 1d 47 8e bd 43 06 30 bc 04 58 6f bd
       0.024269203 -0.069471575 -0.01074368 -0.058433548
0003a0 42 5a 18 3d 41 4d e1 bd 6d db d8 bc 1e 9c 3e be
       0.03719545 -0.11001063 -0.026471818 -0.18614241
0003b0 b9 1b c8 bd c9 cc 8b bd 5e be 40 3d a2 73 ab 3d
       -0.09770913 -0.06826169 0.04705655 0.083716646
0003c0 94 a4 9f 3c db 01 0b be a4 96 3a bd a5 41 20 3d
       0.019487657 -0.13574927 -0.04555382 0.039125104
0003d0 7a b2 8b 3e d5 d3 05 3e 2e ef 53 3d 7f 32 a2 3d
       0.27284604 0.13069089 0.05174177 0.079197876
0003e0 20 0b b7 3a 0a 0e 9b bc c3 04 a4 bd 11 14 4c bd
       0.0013965108 -0.018927593 -0.08008721 -0.049823824
0003f0 df 1a dc 3d 33 dd 90 3d 5a e5 8d 3d b6 92 9d bd
       0.10747313 0.070734404 0.06928511 -0.076939985

conv_layers.4.bias f4 [32]
000000 6c 06 90 be de 99 16 3e 37 57 fc 3d 6b 84 3b 3e
       -0.281299 0.14707133 0.123213224 0.18312232
000010 72 85 8f bd 3b 33 0c 3e cb 62 cf 3d 7c c0 54 bd
       -0.070078745 0.13691418 0.10126265 -0.05194138
000020 16 ec fa 3c 37 2f 2c 3d e5 3f 0d 3d 5d d0 55 be
       0.030630153 0.042037215 0.034484763 -0.20880266
000030 c1 57 18 be b9 37 6b 3d 7e 91 8a bc f9 52 6b 3b
       -0.14877225 0.05742619 -0.01691508 0.003590761
000040 07 7a 50 3d 18 95 11 3d 07 c7 b6 3d fb 24 8a bd
       0.050897624 0.035542578 0.0892468 -0.06745335
000050 af c6 13 be 02 51 02 3e 39 5e 17 bd a5 f2 c5 bd
       -0.1443126 0.12726215 -0.036955092 -0.096654214
000060 19 ef b2 3d ef 8c 9a 3d 47 67 b0 3d 74 00 70 3d
       0.087370105 0.07546412 0.086134486 0.058594182
000070 ca e2 79 3d 54 7a 55 3e a2 6d f8 bd 5d 07 b3 bd
       0.0610073 0.20847446 -0.12130286 -0.08741639

fc_state.0.weight f4 [256, 128]
000000 0d 96 b6 3c 36 97 27 3d fe 00 c0 bd a2 5c 5d bc
       0.022288347 0.04091569 -0.09375189 -0.013510855
000010 12 a6 91 bd 5d 7a a4 bb d2 2e 5c 3d 11 8d b5 3d
       -0.071117535 -0.0050194697 0.05375559 0.08864797
000020 7a 6b 85 3d 6a da f2 bd ad 37 ee bc 35 1c a1 3c
       0.0651464 -0.118580654 -0.029079283 0.01966677
000030 48 08 91 bd f9 21 31 3e d7 90 9c 3c 8f e8 c5 bd
       -0.07081658 0.17298116 0.019112034 -0.09663498
000040 a6 d0 9b bd e8 ac 23 3d 36 32 a3 3d 0f dd fa bd
       -0.07608156 0.039959818 0.07968561 -0.12249195
000050 b4 57 fb 3d ec 40 f0 3c 8c 25 84 bd b5 a7 92 3d
       0.122725874 0.029327832 -0.06452474 0.07160894
000060 a9 10 aa 3c ce 5e 54 bd 3e b1 cb bc 38 05 8c bc
       0.020759897 -0.051848225 -0.02486479 -0.017092332
000070 05 06 13 be e0 c9 8d 3d 94 20 d8 3c f8 4a 75 3c
       -0.14357765 0.0692327 0.026382722 0.014971487
000080 f3 3a 0a be 73 e6 a5 bd 14 ef 89 bd 1f 0f 4f bd
       -0.1349905 -0.08100595 -0.06735054 -0.05055153
000090 59 84 9d ba 77 36 a8 3d 27 8b 3b 3d 92 b6 33 bd
       -0.0012017592 0.08213513 0.045787003 -0.043875284
0000a0 5a 64 3b be b1 4d 63 be 1a 7f 77 be 17 b0 0f be
       -0.183 -0.22197606 -0.24169579 -0.14032017
0000b0 94 a3 c6 3d 23 8a ac 3d 5d 38 58 3d fa 9a 09 be
       0.09699169 0.08424785 0.052788127 -0.13438025
0000c0 97 ac e7 bd e1 dc 0c bd ab 07 f2 bd 59 11 35 3c
       -0.11312216 -0.034390334 -0.11817869 0.011051499
0000d0 93 35 4c 3d bd 73 b4 bd 67 35 3e 3d be a0 e8 bc
       0.04985578 -0.08811138 0.046437647 -0.02839696
0000e0 e1 0b 87 bd 7e 6b 31 be 16 24 85 3d 91 dd 03 be
       -0.065940626 -0.17326161 0.065010235 -0.1287749
0000f0 32 a7 4e bd 3a 0c e2 bd 37 b2 92 3c 83 0e 2a bd
       -0.05045242 -0.11037488 0.017907245 -0.041517746
000100 2c a3 e9 3d a8 11 7a 3d 7a 0c 2b bc ef 22 56 bd
       0.11408076 0.061051995 -0.010439986 -0.05227941
000110 d9 64 b2 3d e0 70 51 bd f3 52 d0 3d a2 ac 86 3d
       0.087106414 -0.051133037 0.10172071 0.06575896
000120 2f fe bc 3d 56 de ea bb 22 82 1c 3c 30 ba fa bd
       0.09228169 -0.007167618 0.00955251 -0.12242544
000130 6a 79 b7 3d f0 b3 b4 bd 73 61 97 bd 92 4c 9b bd
       0.08958705 -0.08823383 -0.07391634 -0.07582964
000140 01 4f 88 bd d4 14 05 3d 44 3a df bc 63 67 b9 3d
       -0.06655694 0.032490566 -0.027249463 0.090529226
000150 42 3c 80 3d a1 75 e3 3d 65 dc 14 bd 2a 68 89 3d
       0.06261493 0.1110642 -0.036342997 0.06709321
000160 07 b7 8b bd 87 17 98 3d 3b ad 0e be 9e d4 bc bd
       -0.06822019 0.074263625 -0.1393327 -0.09220241
000170 43 33 c9 bd 0a 96 11 3c 51 d3 0c bd 95 bd a3 3d
       -0.098242305 0.00888587 -0.034381215 0.07995144
000180 f3 c9 8f 3d 2b 1f 71 3c 07 a3 31 3c f6 a6 2f bd
       0.07020941 0.014716904 0.010842091 -0.042883836
000190 a2 54 80 bd aa 10 1f 3d be 08 58 bd 62 12 02 3d
       -0.062661424 0.03883425 -0.052742712 0.031755812
0001a0 e2 d1 51 3e 58 a4 1d be 0b f5 e0 bc 8b 91 38 bd
       0.2049022 -0.15394723 -0.027460596 -0.045060676
0001b0 97 ff 9b 3d be 4e ff bd d8 7a 98 3d 6f 88 89 3d
       0.07617109 -0.12466191 0.074453056 0.06715476
0001c0 4c f7 eb bb 15 96 b3 3c 98 51 fc 3d fa d7 02 3d
       -0.007201111 0.02192215 0.1232025 0.031944253
0001d0 ce 82 a9 bd 65 8f 27 3d ee 0e cf 3d 14 ca 16 3d
       -0.08276902 0.040908236 0.101102695 0.03681381
0001e0 8f 6b 1f bd d5 d0 21 ba 4b 33 00 3d 1c f6 e0 bd
       -0.038920935 -0.0006172781 0.031298917 -0.10984442
0001f0 ef 35 e8 bd b8 06 dd bd 3a 10 88 3c 94 a8 c4 bc
       -0.11338412 -0.10792297 0.0166093 -0.024006166
000200 b0 9c 4f bd b1 0f de 3d 5e c8 1f bc f2 2a 62 bd
       -0.05068654 0.10842837 -0.009752361 -0.055216737
000210 53 b9 cf bc 1a bd 0d 3c e1 77 b7 bd c9 b7 84 bd
       -0.025356924 0.008651042 -0.08958412 -0.06480367
000220 a8 ac a0 bd 3e 2f a7 3d 5b d3 e0 be 58 ab 94 bc
       -0.078454316 0.081633076 -0.4391125 -0.01814811
000230 73 8d f2 3d a9 05 f6 3d 2c f0 14 be 27 76 8b bb
       0.118433855 0.12012798 -0.14544743 -0.004256028
000240 65 f4 88 3c 1d 81 a3 3d f6 17 05 be 40 d6 a0 3d
       0.016718099 0.07983611 -0.12997422 0.07853365
000250 27 cb 6f 3d b9 f6 1f bd d8 d0 7b 3d 93 23 1a bd
       0.05854335 -0.039053652 0.061478466 -0.037631582
000260 97 f2 38 bc b9 72 59 3d 2e bd 1b be 0c cd 8a bc
       -0.011288307 0.053087924 -0.15208885 -0.016943477
000270 47 5c a7 bc 61 15 f6 bd e4 d9 a9 3d 4f d4 28 3d
       -0.020429743 -0.120157965 0.082935125 0.0412181
000280 26 e3 98 3d 82 c4 22 3d f9 50 62 bd e8 b8 c8 bd
       0.074652 0.039738186 -0.055253003 -0.09800893
000290 fc 31 38 be 0c e3 66 be 4f 15 04 bd 90 03 fb 3d
       -0.17987818 -0.22547549 -0.032246884 0.12256539
0002a0 08 0b 83 3d 70 aa bb 3c 94 22 a3 bc 6e 18 30 bd
       0.063985884 0.02290842 -0.01991395 -0.042992048
0002b0 4c ad 83 3d 49 fa 20 bd bc 64 dd bc 4a 6e 6e 3d
       0.06429538 -0.03930119 -0.027025573 0.05821065
0002c0 25 63 ae bd 41 7b 7f bc 53 84 a6 3b ee c8 50 bd
       -0.08515004 -0.015593351 0.0050816922 -0.05097287
0002d0 56 3f ba bd 53 6e 96 bc a0 44 c5 bd 77 ec 84 be
       -0.090941116 -0.018363154 -0.0963223 -0.25961658
0002e0 2e 5c 73 3d 41 79 43 3d 8b d7 42 bd e3 83 c9 bd
       0.05941408 0.04772306 -0.04756884 -0.098396085
0002f0 f2 a5 1a bc 29 97 48 bd c2 02 15 be 9c f5 28 be
       -0.0094389785 -0.048972283 -0.14551833 -0.16499943
000300 c0 9b 15 bd bf fd 30 3c 58 6f 81 3d d8 6e 24 be
       -0.036525488 0.010802685 0.06320065 -0.16057909
000310 4e 55 a3 bd 19 a2 48 3d e6 21 e0 bd b2 7f 42 3d
       -0.07975255 0.048982713 -0.109439656 0.04748506
000320 6e 8b d1 bc d1 60 61 3d 8f 86 22 3c 87 1a 17 3e
       -0.02557918 0.055023972 0.009919777 0.14756213
000330 17 a2 61 bc d7 a8 8d 3c 83 e5 26 bd 53 2b 0b be
       -0.013771555 0.017292423 -0.040746223 -0.13590746
000340 fe 0b c1 3d aa d3 95 3d 73 ed de 3d 7a 89 98 bd
       0.094261155 0.07315762 0.108851336 -0.074480966
000350 23 95 fa 3c 8b 7b c5 3d 61 af f4 bd 07 c2 bb 3d
       0.030588692 0.096427046 -0.11947513 0.09167867
000360 45 19 d0 3d fe 4f 84 3d 48 a7 c5 ba 67 fb 20 bc
       0.1016107 0.0646057 -0.0015079761 -0.009825564
000370 6b 07 da bc ae 37 51 be 81 72 d3 bd d2 b8 a2 3b
       -0.026614865 -0.20431396 -0.10324574 0.00496588
000380 cd 31 6c 3d 8a be 45 3d 0b af 67 3d 91 80 8f 3d
       0.05766468 0.048277415 0.05656342 0.07006944
000390 2c 50 3f 3c 85 50 05 be f7 27 96 ba 10 08 7f 3d
       0.011676829 -0.13018997 -0.0011456002 0.06226355
0003a0 3f f7 44 3c 91 62 51 bd 4b e0 1a be ad 9f 96 3d
       0.012021839 -0.05111939 -0.15124623 0.073546745
0003b0 13 86 fa bb 8b f6 57 3d 74 66 ae bd 63 a7 1e 3d
       -0.0076453774 0.052725356 -0.08515635 0.03873385
0003c0 b7 6f 27 3c c9 fa 6c 3d a9 70 47 3c 53 ed a3 bc
       0.010219506 0.057856355 0.012172856 -0.020010626
0003d0 78 1a ae bb da 8d b9 3d ab 3e 1a bd 56 bb cd bc
       -0.005313214 0.09060259 -0.03765742 -0.025113743
0003e0 38 fd b2 bd ea 83 02 3e 64 27 83 bd ed 96 8b 3c
       -0.08739704 0.12745634 -0.064039975 0.01703974
0003f0 11 8d c0 bb 77 62 f6 bd 44 e9 54 be 0b 7c 1a bc
       -0.0058761914 -0.120304994 -0.20792109 -0.009428988

fc_state.0.bias f4 [256]
000000 3e e7 ac 3d 84 21 d2 3d f3 a9 a4 bd cf 26 89 3d
       0.084425434 0.10260299 -0.08040228 0.06696855
000010 7d 4b 7a 3c db 6b 20 3c fe c7 df bd 8e 36 e4 3d
       0.015276787 0.00979134 -0.10926817 0.11143218
000020 8f c7 f8 3d 3e 69 26 3d 33 fa 0e 3e 3c f1 1a 3e
       0.12147438 0.04062771 0.13962631 0.15131086
000030 89 b7 8d 3d 20 c3 32 3d 1e 3c a3 3d 11 d8 b3 bd
       0.06919772 0.043643117 0.07970451 -0.08781446
000040 99 ba ae 3c cf 87 d6 3d 4c da 21 3c be 62 c0 3c
       0.021329211 0.10475122 0.009878706 0.023484584
000050 91 83 f5 bd e1 15 31 bd b6 d9 31 be f6 b4 fc 3c
       -0.11987985 -0.043233756 -0.17368206 0.030848008
000060 f0 40 21 3e ed e3 d3 3d 35 74 1c be 4b fb 32 be
       0.15747428 0.10346208 -0.15278704 -0.17478673
000070 be 47 43 bd 77 d1 3f bd 3f 08 10 3e a4 48 70 3d
       -0.04767584 -0.04683062 0.14065646 0.058663025
000080 fb ed a4 bc c7 0a 1b 3e 7a ac dd 3d 64 52 3b bd
       -0.02013301 0.1514083 0.10823913 -0.04573287
000090 dd 76 ac 3d 86 60 d7 3d cf 43 a8 bb cd bd 29 bd
       0.08421109 0.10516457 -0.0051350365 -0.041440774
0000a0 c4 6b c0 3c e4 25 33 3e 6c bb 98 3d 8b 66 48 3d
       0.023488887 0.17494923 0.07457623 0.048925918
0000b0 7e 57 9b bd 84 62 7b 3d 80 e4 f1 3c 03 df 27 be
       -0.07585047 0.06137325 0.029527903 -0.16393666
0000c0 fe e8 61 bc 38 40 99 3d 5d 32 30 3e d8 82 b3 3d
       -0.01378846 0.07482952 0.17206712 0.08765191
0000d0 55 34 b1 3d a3 d8 98 3c a2 42 3d 3e 1f f8 e4 3d
       0.0865256 0.018657988 0.1848245 0.11180138
0000e0 bc 3a e6 bd 1b 0d 75 3b c6 4e b0 3d aa 17 18 be
       -0.112416714 0.0037391845 0.08608775 -0.14852777
0000f0 bc d7 8e 3d 2b 8e 31 3e 64 b9 1b be fa 3c e6 bd
       0.06974742 0.17339389 -0.1520744 -0.11242099
000100 b2 db 6e 3b 97 7b 93 bd 93 6c 9c 3d 20 3b 26 be
       0.0036446867 -0.07201307 0.076378964 -0.16233492
000110 d5 ea b0 bd a9 48 1f be ef 8a aa bd 9d de 42 3d
       -0.08638541 -0.15555061 -0.08327281 0.04757558
000120 20 bc 93 bd 9c 4d 25 bd 2a bf 21 3e 56 de bf bd
       -0.07213616 -0.040357217 0.1579558 -0.09368579
000130 5f a8 9c 3d 93 8d d6 bd 77 e8 bd bd 05 dd 87 bd
       0.07649302 -0.10476222 -0.09272855 -0.06633953
000140 38 76 32 bd 5c 18 0a bc cc 05 78 3e 5c 66 12 3e
       -0.043569773 -0.008428659 0.24220961 0.1429686
000150 ea 00 4f 3e fa 43 92 3d 2f d0 8a 3d 19 bf 9a bd
       0.20215192 0.07141872 0.06777989 -0.0755598
000160 38 37 a9 bd dc a3 86 bd 37 17 c1 bd 53 4c 14 3e
       -0.08262485 -0.065742224 -0.09428256 0.1448224
000170 1e 54 08 be 8d 3b 26 3e de 72 0a bd ca 2b 58 3d
       -0.13313338 0.16233654 -0.033800952 0.052776136
000180 f5 70 ac bd b5 3f e3 bd f4 66 19 3d 1e cf 2b be
       -0.08419982 -0.110961355 0.0374517 -0.16778228
000190 2c 20 f0 3d 0d cc 68 bc b3 51 2d be 23 97 d5 bc
       0.11724886 -0.014208806 -0.16925697 -0.026073044
0001a0 45 0c 99 3c 33 6c 82 3d cd 1c 8f 3d 00 c0 84 3d
       0.018682608 0.063682936 0.06987915 0.064819336
0001b0 06 31 0b be 86 5f ba 3d 10 77 36 bd ed 8b 8f 3d
       -0.1359292 0.09100251 -0.04454714 0.070091106
0001c0 4a 23 c3 bd 94 38 44 be 9f 64 91 bc 20 bc 08 3c
       -0.09528215 -0.19162208 -0.017748175 0.008345634
0001d0 6c 41 91 3d b6 4e 10 3d 1e eb 2f 3c f2 5c c5 bc
       0.07092556 0.035231315 0.010737209 -0.024092171
0001e0 ba de 31 be 80 ee 06 3e 34 c3 0d bd 77 1f b4 3d
       -0.1737012 0.13176918 -0.03460999 0.08795064
0001f0 5d 4b b6 3c 55 97 0e bc 39 68 d4 3d 48 e6 db 3c
       0.022252733 -0.008703073 0.103714414 0.026843205
000200 32 6d fe 3d 6c 2f db 3c 94 2b 72 3d 02 c7 69 3d
       0.12423171 0.026756011 0.05912359 0.057074554
000210 b1 66 d3 bd b6 93 42 3d 49 a6 41 bd 4e 21 20 3d
       -0.10322321 0.04750415 -0.047277723 0.03909426
000220 1f 34 af 3d 12 1e 55 be 1b 75 f5 3d f0 52 32 3e
       0.08554863 -0.20812252 0.11985227 0.1741445
000230 a8 db 37 bd 23 b9 0e 3e ab 59 1e bd 97 86 85 3d
       -0.044887215 0.13937812 -0.038659733 0.065198116
000240 cf 7b 49 bd b8 ee 98 3d b0 26 59 3e af c4 18 3e
       -0.04919034 0.07467407 0.21206164 0.14918779
000250 ae 3e 4b be 50 87 1c 3e e6 e3 90 bc a7 58 5a 3d
       -0.19848129 0.15285993 -0.017686795 0.0533072
000260 eb bb 3d be 27 cc 0a be e7 77 b9 bd dc 49 fa 3d
       -0.18528716 -0.1355444 -0.09056073 0.12221119
000270 3b 7a fd 3d e1 f2 d2 bc a4 06 ea 3c 90 1a 8d bc
       0.12376829 -0.02575058 0.02856762 -0.01722458
000280 67 40 97 bc c6 73 6b be b9 77 d9 bd c8 f9 02 3e
       -0.018463327 -0.22993383 -0.106185384 0.12790596
000290 a5 5c db 3d e7 3a 9d bd b9 a1 fe 3c 18 81 60 bd
       0.1071103 -0.0767725 0.031082975 -0.054810613
0002a0 13 6a fc 3d 3b 3b 44 bb 4e c3 1b 3d 07 a9 01 be
       0.123249196 -0.002994253 0.038028054 -0.12662135
0002b0 8d 6c 28 bd ec b0 98 bd ef a8 a0 bc 3c 34 16 3e
       -0.041119147 -0.0745562 -0.019611804 0.14668363
0002c0 59 70 5b 3c bf ba f8 bc 6e 45 83 3d 0e 46 ee 3d
       0.013393485 -0.030362485 0.06409727 0.116344556
0002d0 2d dd 1b 3d 0d 3b 41 3e fd 48 61 bd 92 5b 7a 3d
       0.038052727 0.18870182 -0.055001248 0.061122485
0002e0 f3 2a e0 bd 40 8d 19 3e d1 45 21 be b3 dc 7c bd
       -0.10945692 0.14995289 -0.15749289 -0.061733913
0002f0 49 4f 0e 3c 2f 6c 20 3e 54 e1 b9 3b 01 32 f2 3d
       0.008685895 0.15666269 0.005672613 0.11825944
000300 a1 16 86 3d 32 91 63 bd bb dc 4d ba e3 54 19 3e
       0.06547285 -0.05555839 -0.0007853021 0.14973788
000310 c6 83 96 bd 67 4f 02 bd f8 44 19 3d 6c e9 23 be
       -0.073493525 -0.031814005 0.03741929 -0.16007012
000320 17 32 33 3e e7 2f 5f bc 5e 1d 7d bd 32 88 7e bd
       0.17499577 -0.013622261 -0.061795585 -0.062141605
000330 ed d6 fc 3d 7c a2 a4 3c a9 57 01 be 2a 8c 46 3c
       0.12345681 0.02009701 -0.12631096 0.012118379
000340 82 ea f8 3a 99 02 1e 3e 74 70 b7 3b c0 4b 3d 3d
       0.0018990787 0.15430678 0.0055981223 0.04621482
000350 ad c5 88 bd 12 c1 66 3d e9 9d 81 3c 3c b0 37 3e
       -0.06678329 0.05633647 0.015822368 0.17938322
000360 1e 34 c3 bc 7d 10 0d bb 26 cb cd 3d 6c 19 c5 bd
       -0.023828562 -0.002152472 0.10048513 -0.096239895
000370 ae 86 a0 3c b2 61 7b bd 79 bc 3d 3d d9 76 04 3d
       0.01959547 -0.061372466 0.04632232 0.032339904
000380 57 5f c3 bd 7f fb e0 3c f5 53 8d 3c f7 ee 12 3d
       -0.09539669 0.027463673 0.017251948 0.035872426
000390 c7 59 40 3e c3 c3 d9 bd 06 cb 8e bd a9 a2 25 bb
       0.18784247 -0.10633042 -0.069723174 -0.0025273955
0003a0 75 b3 52 bd fa 42 5d be 63 e0 21 3e db d0 c3 3d
       -0.051440675 -0.21607581 0.15808253 0.095613204
0003b0 0b ac 7e bd 98 c3 f6 3d 67 5f e8 bb 14 14 30 bd
       -0.06217579 0.12049025 -0.007091451 -0.042987898
0003c0 5b 7f b2 bd 0d 64 c1 3c 68 74 04 3e 80 6b bc 3c
       -0.087156974 0.023607278 0.1293503 0.023000479
0003d0 72 ed 78 3d 97 a3 0d bc 94 ed 46 3d 24 c4 1f 3e
       0.06077332 -0.00864496 0.048566416 0.15602165
0003e0 dc d5 3a 3e 54 eb 62 bd 2a d9 2b 3e 13 73 92 3c
       0.18245643 -0.055400208 0.1678206 0.017877137
0003f0 c5 7f da bb 3b 0a bd 3c 56 60 83 bc 16 89 d6 3d
       -0.0066680633 0.023076167 -0.016037147 0.10475366

fc_state.2.weight f4 [64, 256]
000000 08 92 f8 bd b0 70 b4 bd 0d 30 47 3e 90 d0 db 3d
       -0.12137228 -0.08810556 0.19451924 0.107331395
000010 ca 57 aa bc 54 c6 04 3c 31 71 b3 3d d8 65 aa bd
       -0.020793814 0.008103926 0.08761824 -0.083202064
000020 a6 9a eb be 9c c8 2f bc c7 02 34 bd d6 2f 56 bd
       -0.46016425 -0.010728981 -0.04394796 -0.052291714
000030 79 50 6e bd f3 2a fd bd 26 3f 9d bd 51 f2 f0 3d
       -0.058182213 -0.123617075 -0.0767806 0.11764968
000040 86 5f ed 3c 88 59 75 bd f1 cd 1c bd 44 d9 35 3c
       0.028976213 -0.059899837 -0.03828234 0.011099163
000050 c2 d4 b4 3e 0c 58 10 3e 7f ad da 3d e1 20 8b 3e
       0.3531857 0.14096087 0.10677623 0.27173522
000060 31 62 d4 3b 92 dc 0f be be 87 54 3e 84 d1 3c 3e
       0.006481432 -0.14048985 0.20754907 0.18439299
000070 e6 5d b1 3e 83 84 8f be 46 a9 54 be b1 22 56 3b
       0.3464195 -0.28030786 -0.20767698 0.0032674486
000080 2e 47 91 be a0 db 52 bc 5a 36 21 bd c4 5a 3f be
       -0.28374618 -0.0128697455 -0.039358474 -0.18686968
000090 89 5b d5 bd ca ee 32 be 18 1a bc be 15 0c 50 be
       -0.104178496 -0.17473903 -0.36738658 -0.20317109
0000a0 54 ba a1 be cc dc 86 bd 89 b7 df 3c 27 b8 9a 3d
       -0.3158747 -0.065850824 0.027309196 0.075546555
0000b0 2a 79 20 3d cb d0 aa bd 8f a6 08 be e6 7a 93 3e
       0.03917805 -0.08340605 -0.13344787 0.28804702
0000c0 81 1a 8f 3c 40 a5 3c be e3 ac 2b bc b9 fc 8d be
       0.017468693 -0.18422413 -0.010478231 -0.27731875
0000d0 f0 b1 4a be cf 2c d6 3c 39 95 77 3d f9 3d 88 bd
       -0.1979444 0.026144413 0.060445044 -0.06652445
0000e0 ac 6c 6e 3e a9 07 6b be 83 6d 89 be 05 d7 6d be
       0.23283643 -0.22952141 -0.26841363 -0.23226555
0000f0 3c eb 71 be 25 da c5 bc 1f 99 f0 3d 14 c6 4e 3d
       -0.23624891 -0.024151871 0.117479555 0.05048187
000100 fc 19 bf 3c 7d 9a 1f 3e 7d 93 a0 bd 12 20 49 3d
       0.02332782 0.15586276 -0.07840631 0.04910285
000110 7b 0b b4 be 8a 41 08 3e 51 f1 1d bd f5 20 55 3d
       -0.3516501 0.13306251 -0.038560215 0.052033383
000120 08 54 bb be e9 30 3d 3d 71 3e b0 bd f4 d2 a7 3c
       -0.36587548 0.046189222 -0.0860566 0.020486332
000130 72 4a 84 3d 41 76 c0 3d ef 32 d8 bc c8 01 99 be
       0.06459512 0.09397555 -0.026391475 -0.2988417
000140 ff da a5 3a ec 36 c6 be 92 74 07 bb 47 19 0a be
       0.0012653767 -0.38713777 -0.0020668847 -0.13486205
000150 d9 05 8f 3d c7 cd 94 be 4a c3 af bd 68 30 8d 3d
       0.06983537 -0.29063246 -0.0858217 0.068939984
000160 c6 ec 7a bd a2 58 5d be c5 62 9e bc f5 b6 a2 3c
       -0.06126096 -0.21615842 -0.019334206 0.019862631
000170 b8 72 76 3d 2a e1 b5 3c 93 e7 45 3e 26 6e eb bc
       0.060167998 0.022202093 0.1932662 -0.028739046
000180 05 ba 00 3e 0c 63 fa 3d 7c 79 f7 3e 2e 87 4c 3d
       0.12570961 0.12225923 0.48334873 0.049933605
000190 8c bd 31 3a 4c fc d1 be 86 e4 f0 3d c5 03 07 bd
       0.0006780259 -0.410128 0.117623374 -0.03296258
0001a0 f9 75 89 bd 63 e3 c6 3c 07 bf 2a be 07 6d d7 bd
       -0.067119546 0.024278348 -0.16674434 -0.10518842
0001b0 52 d6 d2 3d b1 3d e7 3b 7f b2 4c be dc 3c 36 3e
       0.102947846 0.0070569147 -0.19989966 0.17796654
0001c0 a1 a8 9e bc 68 63 8e 3d 9a 4d 73 3d af d3 12 be
       -0.019367518 0.06952554 0.05940018 -0.14338563
0001d0 32 75 c2 3d 5c 7c d6 bc 92 48 02 3c 7e 0f df 3c
       0.094950095 -0.026182346 0.007951872 0.027229067
0001e0 16 db 3c 3e d6 16 c3 bd ce de 9b 3c 5e 93 15 3b
       0.1844295 -0.0952584 0.01902714 0.0022823433
0001f0 4c 88 8c 3c 97 6b 48 bd 9e 7c 56 bc db 3a 91 bd
       0.017154835 -0.04893073 -0.0130912345 -0.07091304
000200 2d 27 fd bd 6a de 09 3e 71 58 92 be 50 15 90 3c
       -0.12360988 0.1346375 -0.285831 0.017588288
000210 86 36 1e 3e da 4b cf be 54 98 02 be e2 2d 6e 3d
       0.15450487 -0.40487558 -0.12753421 0.058149226
000220 c3 31 18 be ad 5b 4b 3d d1 1e 10 3c e6 08 9c 3d
       -0.14862733 0.049647976 0.00879641 0.07618885
000230 21 d2 da 3d ec 9c 7b 3d f6 6d 22 3e 8e 6d 1a bd
       0.1068461 0.06142895 0.1586226 -0.037702136
000240 55 4b b5 be 24 09 08 be 5a a8 da 3b 55 b9 73 3d
       -0.35409036 -0.13284737 0.006672901 0.05950292
000250 e2 3e 89 3d 78 f8 08 bd d4 50 f9 bd c1 c8 b4 ba
       0.06701447 -0.033440083 -0.1217362 -0.001379274
000260 84 37 4a 3e 1c 84 4b 3e 51 3d d5 3d f5 a3 86 be
       0.1974774 0.19874614 0.10412086 -0.26296964
000270 a0 f8 a7 3d 7a 78 72 3e e7 5f dc 3d c0 c1 04 3d
       0.08201718 0.2367877 0.107604794 0.032411337
000280 c1 27 2e 3e 91 ff 0e 3b 06 a8 4f 3e 57 52 27 3d
       0.17007352 0.002181981 0.2027894 0.04085001
000290 01 64 bb 3d 01 ba 62 3e 58 a4 17 3e 17 cd 6d 3d
       0.091499336 0.22141267 0.14808786 0.058056917
0002a0 39 fe b2 3d 0f 40 09 3d f0 94 ef bd ca 80 54 3e
       0.087398954 0.033508357 -0.116983294 0.20752254
0002b0 f8 6a 10 3c 4e e7 d3 3d d2 90 96 3c e7 40 5a be
       0.008814566 0.10346852 0.018379603 -0.21313821
0002c0 de e9 bc 3b 56 87 13 3e e1 60 0f bd 1b f5 d9 3c
       0.005765184 0.14407095 -0.0350045 0.026606133
0002d0 42 c5 56 3d a8 69 8f 3d ac 33 66 3d 8b 5d 82 bd
       0.052434213 0.07002574 0.056201622 -0.06365498
0002e0 f0 ca 92 3d 2e 2f 39 3d 6b cb ff 3d d4 5f 80 3e
       0.071676135 0.04521101 0.12489971 0.2507311
0002f0 a0 4f 41 3d 9e 10 85 be a4 75 c2 bb 76 c4 06 be
       0.047195077 -0.2598924 -0.005934434 -0.13160881
000300 98 e1 f1 bd 1b 90 49 3e 32 cf 4b be 31 12 a9 3c
       -0.11810607 0.19683878 -0.19903257 0.020638557
000310 f7 a4 84 be ff 71 29 3e 6d 1d 91 bd 48 a1 a0 3e
       -0.25907108 0.16547392 -0.07085691 0.31373048
000320 9a c1 51 bd 9d 87 15 3e 89 a0 c6 be 59 c7 6f 3d
       -0.051210023 0.14602514 -0.38794354 0.058539722
000330 3b 49 a6 3d f2 45 f8 bd 00 94 4c 3d 50 63 18 bd
       0.08119436 -0.12122716 0.04994583 -0.037204087
000340 74 6a b2 3e 80 c6 e4 bc a2 b6 95 3d eb b4 a5 3d
       0.34846842 -0.027926683 0.07310225 0.08091148
000350 6d 21 95 3e 4f 65 43 be 28 05 21 3c c7 61 ff bb
       0.29127064 -0.19081615 0.0098278895 -0.0077936384
000360 4c f3 f9 3d 6c e9 ca 3d fc e1 36 bd 01 3a c5 3d
       0.12204608 0.09907803 -0.04464911 0.09630204
000370 fa 22 3a bd 78 ed ee 3c be 69 be 3d fd 97 48 3a
       -0.045443512 0.029165968 0.092975125 0.00076520426
000380 f0 d5 f7 be 3c 9b a1 3d 2f ce 2f 3d a3 0e 60 bd
       -0.4840541 0.07890937 0.04292124 -0.05470146
000390 4b bd c2 3d 4a ff 52 3e cb 8b 7d be 00 ca b4 be
       0.09508761 0.20605198 -0.24760358 -0.35310364
0003a0 40 4f c0 3d 3d 0d df 3e 67 4e a8 bd 80 02 ac 3d
       0.09390116 0.43564788 -0.08218079 0.08398914
0003b0 a1 4e 92 be f2 dc 62 3d 0d b9 7d 3e 29 32 22 bc
       -0.28575614 0.05538649 0.24777623 -0.009899654
0003c0 c7 4e 1e 3d 55 ed 84 bd 06 d3 49 bd 45 e6 75 bd
       0.038649347 -0.0649058 -0.049273513 -0.060034055
0003d0 97 1d 15 3c fa b0 ba be 4f 73 23 bf 2f 8a 72 3d
       0.009101293 -0.36463147 -0.6384782 0.059213813
0003e0 2d de 6e bd 74 00 41 3d 58 b2 e7 bd 06 08 4a bd
       -0.058317352 0.047119573 -0.11313313 -0.049324058
0003f0 9c e2 03 be e3 a3 16 3e d1 77 09 be 64 a1 5b be
       -0.12879413 0.14710955 -0.13424613 -0.21448284

fc_state.2.bias f4 [64]
000000 12 11 00 bd 20 ff 3b bd 56 e8 f1 3d 2e 63 67 bd
       -0.03126628 -0.045897603 0.11811893 -0.05649107
000010 a7 e0 82 bc c5 a3 8e bd 55 db f2 3d 4e 4d 43 bd
       -0.015976263 -0.0696483 0.118582405 -0.047681145
000020 81 be 05 3e 38 5a 28 3e 65 1b bc bd a4 46 1f 3e
       0.13060953 0.16440666 -0.091849126 0.15554291
000030 95 2e 02 3e 48 f6 21 3e b3 a2 01 3e e6 55 f6 bc
       0.12713082 0.15816605 0.12659721 -0.030070256
000040 82 61 41 bd 28 fd 19 3e 0a 92 8f bd 68 24 cc 3d
       -0.04721213 0.15037978 -0.070102766 0.099678814
000050 3b 0d f1 3d 68 97 0d be 92 53 b4 3d 45 b6 8f bd
       0.11770102 -0.13827288 0.08805002 -0.07017187
000060 95 ea 8a bc c7 70 08 be c1 5b 26 3e e8 1b ae 3d
       -0.01695756 -0.13324271 0.16245939 0.085014164
000070 e0 c1 1b 3e f2 ac 02 be 94 05 92 3d d8 44 1b be
       0.15210676 -0.12761286 0.0712997 -0.1516298
000080 7b 84 c4 3b 68 0e 27 3e 8c ef f5 bd 72 94 ee bd
       0.005997238 0.1631409 -0.120085806 -0.116494074
000090 13 11 fc bd b1 fb 0f 3e 9d e8 d7 3c 47 aa cb 3d
       -0.12307944 0.14060856 0.026356036 0.09944587
0000a0 6e 09 ef bc 76 7f 28 3e 19 33 87 bd 8d 34 3f 3e
       -0.029179301 0.16454872 -0.06601543 0.1867239
0000b0 4c 1e 98 bc 55 fe 43 bd a3 2e c2 bc 51 13 0b bd
       -0.018569134 -0.04784997 -0.023703879 -0.03395397
0000c0 c0 bc 22 be 08 0e 5d bd 73 3b a8 bd 75 e3 23 3e
       -0.15892315 -0.05396846 -0.08214464 0.16004737
0000d0 17 c8 c3 3c 9b 9e 06 bd 14 2b 0b 3e f8 01 d7 3d
       0.023899121 -0.0328661 0.13590652 0.104984224
0000e0 0c 49 e7 3d 46 4b 3c 3e 43 9c 05 3e da b7 53 3b
       0.112932295 0.1838809 0.1304789 0.003230563
0000f0 1b 91 ba bc 7c ab 1b 3e 33 4f 2b 3e 3d 07 c0 bc
       -0.02277427 0.15202135 0.16729431 -0.023440951

fc_state.4.weight f4 [1, 64]
000000 68 19 ad be 6d 83 9e be 65 86 93 3e c4 76 fc 3c
       -0.33808446 -0.30959645 0.28813472 0.03081835
000010 ed 95 b0 be 6c bb 30 3d 5f ce a7 3e cd 5e 89 3d
       -0.34489384 0.04314749 0.32774636 0.06707535
000020 75 e0 8d 3e 7b 17 9a 3e 02 53 9e be 3f 76 ac 3e
       0.2771031 0.3009604 -0.30922705 0.33683965
000030 81 cf a1 3e 7f 85 b8 3e 1f fc 8a 3e e6 7b fb 3d
       0.31603625 0.3603935 0.27145478 0.12279491
000040 83 c0 bb 3c b1 44 8b 3e 21 c7 a5 be 50 e1 83 3e
       0.022918945 0.27200845 -0.32378486 0.25757837
000050 7a d7 a0 3e c8 f6 91 be 47 dd 87 3e f6 e2 93 3d
       0.31414396 -0.28508592 0.2653601 0.07221024
000060 f0 b5 b3 be c7 ac c8 be b9 71 91 3e 0c 55 7f 3e
       -0.35099745 -0.3919432 0.28407076 0.24934787
000070 90 e8 b9 3e ce 5b e3 be 26 5f 6a 3e 21 b5 a1 be
       0.36310244 -0.4440598 0.22887859 -0.31583503
000080 65 4f b2 bb ad ae 9a 3e 46 de 89 be 49 8b 8f be
       -0.0054415935 0.30211392 -0.26927394 -0.28035954
000090 cd 78 df be 06 84 86 3e 4c 07 e2 3f 16 be 84 3e
       -0.4364685 0.262726 1.7658477 0.25926274
0000a0 e0 3a 78 3d 74 55 b8 3e c6 ed a5 be 99 f3 93 3e
       0.060603023 0.36002696 -0.3240797 0.28896788
0000b0 0e 7f b4 be 39 c1 b9 be f7 79 cc be e1 e1 83 be
       -0.35253185 -0.3628023 -0.39936802 -0.2575827
0000c0 21 a7 d0 be b1 80 b9 be 4c 96 ae be 4b 75 88 3f
       -0.4075251 -0.36230996 -0.34099042 1.0660795
0000d0 62 61 d1 3f b8 ae d9 3d b6 af 83 3e 8d 69 76 3e
       1.6357844 0.10629028 0.25719994 0.24063702
0000e0 35 52 9e 3e 9d 08 98 3e 82 1f 9a 3e f9 54 35 3a
       0.30922094 0.2969407 0.30102164 0.0006917264
0000f0 ac cd 9a be 1c 98 6c 3e 57 b4 98 3e c9 82 21 bc
       -0.3023504 0.231049 0.29825088 -0.009857842
