data/Torch/Dueling/003_Big-CNN_E_L/checkpoints/weights_24000episodes.pth (torch, 505343 bytes, 17 tensors)

conv_layers.0.weight f4 [64, 1, 3, 3]
0.42008108 0.17968455 -0.233268 0.24199812 -0.13429357 -0.023015749 -0.2343988 0.1263624
0.24134667 -0.6030508 0.22066931 0.037981924 0.282903 0.0307092 0.054998208 -0.01881586
0.18939893 -0.00842105 -0.45426998 0.122468606 -0.05935979 -0.055050354 -0.10007856 0.50194097
-0.0720374 -0.37830263 -0.1798182 -0.34444648 -0.0068928576 -0.35284033 0.35417482 -0.25115415
0.26382843 0.05765729 -0.0045202263 0.28117818 -0.051537164 0.19735684 -0.045246445 -0.17870383
0.025447968 -0.20556225 0.07749756 0.19665089 0.09934338 -0.29364103 0.37379155 0.096914925
0.29444364 -0.122715 -0.27736866 -0.062293645 -0.22028014 0.38305444 0.34761402 0.049387015
0.019745795 -0.022301255 0.31760007 -0.36999044 0.018268518 -0.3207381 0.041987028 -0.2043549
0.12061382 -0.022972833 0.35427216 -0.20898339 -0.18252979 -0.1984065 0.30360562 0.108882606
0.7245757 -0.27207989 -0.29850292 -0.33012336 -0.15402621 0.19158794 0.06943446 0.29830086
-0.094847605 -0.4808697 0.23761584 -0.018419579 0.25865114 -0.041508306 0.25555113 -0.21678004
-0.17050368 0.14135568 0.16204041 -0.16704991 0.19346102 0.23376252 -0.31316197 -0.18964691
0.39172608 -0.09378921 -0.12628597 -2.120916 0.11560855 0.21621236 -0.1384952 -0.81206876
0.121167056 -0.8941296 -0.2280523 0.09332896 -0.79511255 -0.1138896 0.53116256 0.047982503
0.21777448 -0.21794514 -0.07989893 0.0838345 0.09816129 -1.0453844 -0.42461395 -0.9252374
0.115931734 -0.4668958 -0.037024938 -0.23960714 -0.29219145 -0.930222 -0.36291918 -0.25823084
0.39509648 -0.048828088 0.2785923 0.18906508 -0.3022467 0.23135513 -0.1044033 -1.038216
-0.089245096 -0.39719895 0.10674669 -0.04368651 0.35043767 -0.29003108 0.3752013 -0.14968272
-0.27099425 0.059524596 0.1443904 0.4055177 0.29557136 -0.3338203 0.07369817 -0.15421161
-0.011713641 -0.7109805 0.35968277 -0.16163178 0.19750968 0.1584842 0.12805782 -0.1468906
0.28796214 0.057750862 -0.16832078 -0.32786182 0.25297466 -0.11032736 -0.15673788 0.50117505
0.14536054 -0.2560625 -0.21095742 0.07530254 0.3750015 -0.06414197 -0.089573346 -0.053345203
-0.16072498 0.13202466 0.27839452 -0.51524156 0.19106592 0.12128523 -0.016974436 -0.32591775
0.12510459 0.1191586 0.100891255 -0.070909135 -0.14678311 0.040949892 -0.06282818 -0.14665946
0.23080482 0.31116304 -0.056729436 -0.097988114 0.006825197 -0.005039642 0.19404715 0.12665002
-0.27707675 -0.15693823 0.31008062 0.18166249 -0.089629106 -0.2004004 -0.24966542 -0.503443
-0.0029091835 0.043616626 0.2913672 0.2078303 -0.29614776 -0.109996855 -0.019527059 0.38712308
0.2163815 0.008781255 0.29139397 -0.09657541 -0.18429002 0.31001627 -0.082676895 -0.022613857
-0.43193862 0.44078264 0.21574655 0.094038375 -0.42816412 -0.36041054 -0.29700378 0.12921381
0.09912753 0.2536685 0.47661957 0.18948463 -0.051361915 -0.34733114 -0.28638253 -0.51193005
0.24181178 -0.37188432 -0.15296538 -0.38072637 -0.77947557 -1.0278525 -0.22482924 0.24503139
-0.63886124 0.49724847 0.051147077 -0.23526138 -0.0332501 -0.16078505 -0.008862725 -0.4427979
00000000: de14 d73e 3aff 373e cedd 6ebe 5bce 773e
00000010: 4184 09be 868b bcbc 3d06 70be 2565 013e
00000020: 9523 773e 8a61 1abf 23f7 613e ef92 1b3d
00000030: a9d8 903e dc91 fb3c cd45 613d b823 9abc
00000040: cbf1 413e 72f8 09bc 1396 e8be d2d0 fa3d
00000050: 4023 73bd 7b7c 61bd fdf5 ccbd 347f 003f
00000060: 5888 93bd e2b0 c1be 4322 38be 4a5b b0be
00000070: 7bdd e1bb 7da7 b4be 6756 b53e 4797 80be
00000080: 8514 873e 0d2a 6c3d 681e 94bb 96f6 8f3e
00000090: a218 53bd e917 4a3e 5654 39bd 23fe 36be
000000a0: 4278 d03c e97e 52be 0ab7 9e3d da5e 493e
000000b0: 8b74 cb3d 1e58 96be 9b61 bf3e 557b c63d
000000c0: 51c1 963e 0052 fbbd 4403 8ebe 9f27 7fbd
000000d0: 1e91 61be b61f c43e 77fa b13e 0a4a 4a3d
000000e0: efc1 a13c 1fb1 b6bc 7a9c a23e 636f bdbe
000000f0: dca7 953c c937 a4be 97fa 2b3d 6942 51be
00000100: 6104 f73d 8631 bcbc 2963 b53e beff 55be
00000110: 17e9 3abe 132b 4bbe 3272 9b3e d8fd de3d
00000120: cb7d 393f 0e4e 8bbe 60d5 98be ee05 a9be
00000130: 0cb9 1dbe a12f 443e a733 8e3d e4ba 983e
00000140: 763f c2bd 8e34 f6be 9151 733e a8e4 96bc
00000150: ec6d 843e 9d04 2abd 99d7 823e 96fb 5dbe
00000160: 8498 2ebe 8bbf 103e eced 253e 220f 2bbe
00000170: a51a 463e 715f 6f3e c456 a0be cd32 42be
00000180: 5290 c83e 8f14 c0bd 1c51 01be 16bd 07c0
00000190: 2dc4 ec3d c666 5d3e b0d1 0dbe bde3 4fbf
000001a0: 6f26 f83d ade5 64bf 8b86 69be 4123 bf3d
000001b0: 7f8c 4bbf f33e e9bd 45fa 073f 4d89 443d
000001c0: 4600 5f3e 032d 5fbe 0da2 a3bd 6cb1 ab3d
000001d0: c908 c93d 28cf 85bf 0067 d9be 5cdc 6cbf
000001e0: 9e6d ed3d f70c efbe 76a7 17bd 935b 75be
000001f0: 1e9a 95be 0723 6ebf 8bd0 b9be d536 84be
00000200: 164a ca3e f6ff 47bd a6a3 8e3e 479a 413e
00000210: 14c0 9abe 5ce8 6c3e 66d1 d5bd 43e4 84bf
00000220: 22c6 b6bd a95d cbbe 029e da3d a0f0 32bd
00000230: 916c b33e f47e 94be 631a c03e 6d46 19be
00000240: c2bf 8abe 10d0 733d 14db 133e 04a0 cf3e
00000250: 2155 973e 7fea aabe 11ef 963d a6e9 1dbe
00000260: 92ea 3fbc d102 36bf 5728 b83e cd82 25be
00000270: fa3f 4a3e af49 223e 9721 033e 7d6a 16be
00000280: c66f 933e 2b8c 6c3d 485c 2cbe 81dd a7be
00000290: e585 813e 50f3 e1bd e57f 20be 024d 003f
000002a0: 65d9 143e a01a 83be 3905 58be 3838 9a3d
000002b0: 3200 c03e dd5c 83bd 3b72 b7bd 8080 5abd
000002c0: 1795 24be 7931 073e ba89 8e3e dfe6 03bf
000002d0: c9a6 433e 6464 f83d f90d 8bbc b1de a6be
000002e0: 6b1b 003e 6d09 f43d 13a0 ce3d cf38 91bd
000002f0: 504e 16be 13bb 273d 10ac 80bd e62d 16be
00000300: 1958 6c3e c350 9f3e 205d 68bd fead c8bd
00000310: e7a5 df3b 9523 a5bb 4cb4 463e 8bb0 013e
00000320: 01dd 8dbe 6ab4 20be e3c2 9e3e bb05 3a3e
00000330: 778f b7bd c335 4dbe 4ba8 7fbe a4e1 00bf
00000340: 00a8 3ebb 59a7 323d 152e 953e 77d1 543e
00000350: aea0 97be 0846 e1bd 36f7 9fbc ff34 c63e
00000360: 1d93 5d3e 41df 0f3c 9731 953e 54c9 c5bd
00000370: 86b6 3cbe 74ba 9e3e 8152 a9bd b240 b9bc
00000380: 0f27 ddbe 43ae e13e aaec 5c3e 3197 c03d
00000390: 5438 dbbe bb87 b8be e110 98be a050 043e
000003a0: 6003 cb3d d6e0 813e 7b07 f43e 4208 423e
000003b0: df60 52bd 63d5 b1be bba0 92be d90d 03bf
000003c0: 829d 773e 9f67 bebe f5a2 1cbe 91ee c2be
000003d0: b68b 47bf ac90 83bf a339 66be 82e9 7a3e
000003e0: 698c 23bf 5a97 fe3e 997f 513d 5ce8 70be
000003f0: 4231 08bd d6a4 24be f734 11bc 68b6 e2be

conv_layers.0.bias f4 [64]
-0.047883466 0.3708701 0.04576637 -0.001165862 0.3302308 -0.37866494 0.050141316 0.7058711
0.103613265 0.3837934 -0.298466 0.59564 0.26132947 0.4661828 0.22245654 0.5193604
-0.20303175 0.035499167 -0.12138547 -0.25490487 -0.036743246 -0.55584204 0.5282913 0.0049156733
-0.004916407 0.23923111 0.10054966 -0.0036957734 -0.021222044 -0.014049372 -0.35549304 0.12254122
0.33363396 0.51604915 0.392705 -0.5331624 0.074738406 0.66339946 0.3732037 -0.06287988
0.32144883 -0.39827994 -0.115742005 0.6823136 -0.007531649 -0.05612087 -0.2684888 -0.1601336
0.113556355 -0.4063617 -0.009618344 0.33395287 -0.5427068 0.49441183 -0.38600418 -0.34202218
0.14552204 0.35850742 -0.16177902 -0.006507917 -0.5091641 -0.38833705 0.002049015 0.007397567
00000000: 7421 44bd b0e2 bd3e 8475 3b3d d6cf 98ba
00000010: 0314 a93e 5fe0 c1be fb60 4d3d f8b3 343f
00000020: 3133 d43d 9280 c43e 89d0 98be dd7b 183f
00000030: facc 853e 83af ee3e a6cb 633e cef4 043f
00000040: 8ee7 4fbe 9367 113d f298 f8bd e482 82be
00000050: 1680 16bd aa4b 0ebf 193e 073f a813 a13b
00000060: d019 a1bb 00f9 743e fbec cd3d ca34 72bb
00000070: dad9 adbc 562f 66bc 2f03 b6be e4f6 fa3d
00000080: 12d2 aa3e cc1b 043f a110 c93e 557d 08bf
00000090: 7310 993d 8cd4 293f 8e14 bf3e 2bc7 80bd
000000a0: f194 a43e 59eb cbbe 250a edbd 1bac 2e3f
000000b0: 0dcc f6bb ffde 65bd 5d77 89be 10fa 23be
000000c0: 3c90 e83d a40e d0be 4296 1dbc dffb aa3e
000000d0: d5ee 0abf 8c23 fd3e 57a2 c5be 881d afbe
000000e0: bb03 153e 498e b73e 66a9 25be 5d40 d5bb
000000f0: 9458 02bf 1dd4 c6be c448 063b 4a67 f23b

conv_layers.2.weight f4 [64, 64, 2, 2]
0.03452072 -0.051511396 0.0681461 0.06680232 -0.044599902 0.0037612177 0.027168479 0.035834216
-0.1169099 0.06987543 0.041642226 -0.14239234 0.16379191 0.027322346 0.0062939194 0.047469154
0.004804827 -0.021282058 -0.02027951 0.10284259 -0.14821282 -0.1804412 -0.18607248 0.036614154
-0.04695508 -0.08145706 0.035297465 0.0036954673 0.046119966 -0.107047044 -0.021504747 0.073250785
0.062173743 0.07494199 -0.07587571 -0.17343408 0.022464842 0.040469147 -0.07165876 0.019645654
0.05288392 -0.038464516 0.064632624 -0.05545938 -0.051813602 0.012472134 -0.1116069 -0.11158838
-0.30949083 -0.21743 -0.120135054 0.108855926 0.1570109 0.023614647 -0.0007301231 0.04800641
0.03202788 0.12864645 -0.029715924 0.13465467 0.08565159 -0.08066002 -0.19892803 -0.24442181
-0.012595842 -0.04031587 0.031532146 0.021895187 -0.05727355 0.08042225 -0.05350944 0.054578923
0.094644755 0.027630938 0.040210932 0.12772389 -0.011868292 0.0106328875 -0.12855104 0.12692186
-0.01590401 0.07587309 0.02788195 0.056544654 -0.09689041 -0.0041477233 0.01740025 -0.063710704
-0.14652647 -0.022272566 -0.008466335 -0.15688814 -0.043787267 0.045257274 0.10895316 0.118562065
-0.11264104 0.11391542 0.044046257 0.022220043 0.058165282 -0.0075458395 0.037256755 0.13409996
0.11786928 0.01662189 0.04242285 -0.1930456 -0.14647856 0.14793147 -0.056747172 0.13912596
-0.04670856 0.049730044 0.13404232 0.049467713 0.08290492 0.12680674 -0.08046647 0.13302593
-0.062067576 -0.02912046 0.019193482 0.013273957 -0.025934918 -0.06534952 -0.06627021 -0.020757789
-0.024536021 0.10547548 -0.034691513 -0.09471339 -0.15377352 -0.3524401 -0.07143636 0.03891276
-0.03721089 0.037129074 0.019968934 -0.012529408 0.011264206 -0.029385202 0.02343028 0.09906772
0.014195492 -0.05519575 0.016822862 0.1323565 -0.47454062 -0.026232038 -0.15552366 -0.10508263
-0.048127465 -0.0048017795 0.147155 -0.2854885 -0.008571421 0.019283213 0.008498258 0.13325432
-0.028495885 -0.10773593 -0.028204506 0.062494405 -0.1271573 -0.10369671 -0.061561663 0.07462935
0.01751085 0.038533095 -0.014093827 0.006306466 0.048774462 0.031028265 0.03805454 0.008642285
0.24017853 0.153134 0.09069319 0.2191043 0.04945803 0.100426964 0.038245916 -0.060488928
-0.035504654 -0.007942759 0.10454929 -0.14504479 0.0363423 -0.107239135 0.051070385 -0.02627914
-0.0017467719 -0.0515875 -0.15529351 -0.0016240198 -0.017585063 -0.0066602915 0.057242732 -0.04853305
-0.0119747035 -0.080411166 -0.0634742 -0.1320284 -0.35865775 -0.069857426 -0.16189504 -0.10454945
0.022870086 0.06571092 0.04148535 0.009950654 -0.01787054 -0.20516086 -0.32527623 0.17479545
0.0797498 0.049093243 0.10726204 0.08865553 0.02885934 -0.03299013 0.06696331 0.053478707
-0.061904237 -0.0034112511 -0.004064657 0.022981843 0.08473979 -0.08550221 -0.018842068 0.017685505
0.022893893 0.04118738 0.0034711135 0.052345846 0.0869836 -0.10659038 0.029014427 0.002116638
0.06242472 0.077473484 0.028084334 0.083284095 0.02867913 0.120438054 0.055998165 0.0734927
0.020106547 0.020045694 -0.03339732 -0.066465065 -0.04727118 0.07223143 0.10364584 0.12816615
00000000: 9965 0d3d 9dfd 52bd 2f90 8b3d a8cf 883d
00000010: 63ae 36bd c37e 763b 6e90 de3c e6c6 123d
00000020: 756e efbd d91a 8f3d 0a91 2a3d 4ccf 11be
00000030: 11b9 273e 1dd3 df3c 393d ce3b 046f 423d
00000040: cf71 9d3b b657 aebc 3721 a6bc 239f d23d
00000050: 1ac5 17be 94c5 38be c989 3ebe b9f8 153d
00000060: f853 40bd f6d2 a6bd 1394 103d a72f 723b
00000070: 4ae8 3c3d 7b3b dbbd b92a b0bc 8204 963d
00000080: e5a9 7e3d 307b 993d b964 9bbd b498 31be
00000090: 3008 b83c fac2 253d d4c1 92bd ecef a03c
000000a0: cf9c 583d f88c 1dbd 1c5e 843d 6029 63bd
000000b0: 803a 54bd ec57 4c3c 2992 e4bd 7388 e4bd
000000c0: 9575 9ebe f8a5 5ebe 5e09 f6bd dbef de3d
000000d0: 77c7 203e 8173 c13c bb65 3fba 5fa2 443d
000000e0: ab2f 033d e5bb 033e cf6e f3bc eae2 093e
000000f0: 1a6a af3d 1531 a5bd cab3 4bbe b649 7abe
00000100: ca5e 4ebc 4122 25bd da27 013d 895d b33c
00000110: ac97 6abd 6cb4 a43d b72c 5bbd 268e 5f3d
00000120: 1cd5 c13d 475a e23c 38b4 243d 0dca 023e
00000130: 3973 42bc 9035 2e3c e2a2 03be cef7 013e
00000140: 2049 82bc 5a63 9b3d b068 e43c 5e9b 673d
00000150: 7b6e c6bd a0e9 87bb f88a 8e3c c27a 82bd
00000160: 090b 16be f574 b6bc 62b6 0abc 49a7 20be
00000170: 475a 33bd b15f 393d d622 df3d abd0 f23d
00000180: 58b0 e6bd 7d4c e93d d969 343d cf06 b63c
00000190: b83e 6e3d 1743 f7bb 8a9a 183d 8051 093e
000001a0: 7365 f13d a12a 883c 95c3 2d3d bfad 45be
000001b0: 7afe 15be 597b 173e b96f 68bd 0977 0e3e
000001c0: 7a51 3fbd bbb1 4b3d 6442 093e a89e 4a3d
000001d0: 0eca a93d a0d9 013e 9bcb a4bd f337 083e
000001e0: 923a 7ebd 088e eebc a63b 9d3c 037b 593c
000001f0: 7775 d4bc f8d5 85bd adb8 87bd 3d0c aabc
00000200: c4ff c8bc 8703 d83d b018 0ebd 18f9 c1bd
00000210: ce76 1dbe 0773 b4be 3a4d 92bd fc62 1f3d
00000220: 726a 18bd a814 183d e495 a33c 2548 4dbc
00000230: 818d 383c 3cb9 f0bc dcf0 bf3c 04e4 ca3d
00000240: 3594 683c f014 62bd 19d0 893c 7688 073e
00000250: fdf6 f2be 92e4 d6bc 9841 1fbe 9035 d7bd
00000260: 4e21 45bd 3f58 9dbb cdaf 163e 8c2b 92be
00000270: 256f 0cbc d4f7 9d3c 473c 0b3c d273 083e
00000280: 3470 e9bc a8a4 dcbd 230d e7bc 22fa 7f3d
00000290: 8635 02be f15e d4bd 1528 7cbd 46d7 983d
000002a0: ea72 8f3c e1d4 1d3d cce9 66bc 79a6 ce3b
000002b0: bbc7 473d fd2e fe3c 14df 1b3d 5f98 0d3c
000002c0: 5cf1 753e 29cf 1c3e 5abd b93d e15c 603e
000002d0: 8194 4a3d a7ac cd3d c0a7 1c3d 3dc3 77bd
000002e0: 546d 11bd 5922 02bc f01d d63d 9f86 14be
000002f0: aadb 143d 31a0 dbbd 2e2f 513d 5a47 d7bc
00000300: f0f3 e4ba 6a4d 53bd 4305 1fbe 10dd d4ba
00000310: 8d0e 90bc 933e dabb 5b77 6a3d 97ca 46bd
00000320: 8c31 44bc 9cae a4bd c3fe 81bd 7432 07be
00000330: fda1 b7be 6911 8fbd d0c7 25be 061e d6bd
00000340: 0c5a bb3c 7293 863d 8bec 293d 1108 233c
00000350: 3d65 92bc b015 52be 9b8a a6be 94fd 323e
00000360: dd53 a33d ff15 493d 33ac db3d 0891 b53d
00000370: 6c6a ec3c a920 07bd 0f24 893d 7d0c 5b3d
00000380: 4c8f 7dbd 4c8f 5fbb d030 85bb 6b44 bc3c
00000390: 0e8c ad3d c81b afbd ae5a 9abc 31e1 903c
000003a0: f98b bb3c 19b4 283d 9f7b 633b 9968 563d
000003b0: 7524 b23d 0f4c dabd aaaf ed3c 4bb7 0a3b
000003c0: 10b1 7f3d 6baa 9e3d 1e11 e63c da90 aa3d
000003d0: 7ff0 ea3c 3aa8 f63d 555e 653d 5783 963d
000003e0: 7cb6 a43c de36 a43c a1cb 08bd d61e 88bd
000003f0: 6d9f 41bd 12ee 933d 4544 d43d fd3d 033e

conv_layers.2.bias f4 [64]
0.010526521 0.016364468 -0.040338736 0.06923236 -0.0551732 -0.21151865 0.11763648 0.29607695
-0.25789407 0.01846742 -0.0445532 0.047261182 -0.33007333 -0.10939122 0.0029948375 0.15157886
0.024532754 -0.057674702 0.16896822 -0.17404409 0.017778883 -0.08842219 -0.12156989 0.21091491
-0.09132082 0.019526443 -0.35472196 0.08177568 0.13584903 0.073820725 -0.1382338 -0.07684511
-0.24568401 0.054969043 0.22453289 0.1360828 -0.0539808 -0.03476693 0.08517729 0.10718922
-0.12775066 -0.06706286 0.059928004 0.04412181 0.054742564 0.13499928 -0.05099206 -0.005836164
-0.005310011 -0.10110641 -0.04668953 0.09823703 -0.2770253 0.13648935 0.2149212 -0.0050008325
0.014761897 0.030520895 0.11366707 -0.005562238 0.18515028 0.08828335 0.12811911 -0.040994328
00000000: 6e77 2c3c c70e 863c 3b3a 25bd b2c9 8d3d
00000010: 4bfd 61bd 5898 58be 65eb f03d 6697 973e
00000020: b10a 84be fd48 973c 6b7d 36bd f194 413d
00000030: 5fff a8be 8108 e0bd 0945 443b 7d37 1b3e
00000040: eaf8 c83c 4f3c 6cbd 0106 2d3e 9d38 32be
00000050: 05a5 913c b116 b5bd a2f9 f8bd 14fa 573e
00000060: 6906 bbbd ebf5 9f3c 1e9e b5be 027a a73d
00000070: 021c 0b3e 522f 973d 298d 0dbe f860 9dbd
00000080: 9794 7bbe 3827 613d f3eb 653e 4a59 0b3e
00000090: f91a 5dbd c567 0ebd 6e71 ae3d 0686 db3d
000000a0: 12d1 02be 4158 89bd 1177 753d 12b9 343d
000000b0: bd39 603d 403d 0a3e 0ddd 50bd 4b3d bfbb
000000c0: 9aff adbb e110 cfbd 853d 3fbd 7f30 c93d
000000d0: 43d6 8dbe ddc3 0b3e 4e14 5c3e 06de a3bb
000000e0: e2db 713c f506 fa3c 48ca e83d 6f43 b6bb
000000f0: 0998 3d3e e7cd b43d a831 033e abe9 27bd

conv_layers.4.weight f4 [32, 64, 2, 2]
0.12498195 0.12777379 0.011109304 0.10840591 0.11823031 0.115172885 0.1084542 -0.025757179
0.09169622 0.04594691 -0.008797702 -0.07431269 -0.11996923 -0.07835085 -0.21268493 0.018268397
0.16616875 0.12001001 0.09853421 0.12939267 0.08588321 -0.0010439387 0.16075641 0.006545873
0.2555043 -0.091424674 0.3230743 0.1448175 -0.2317647 -0.049862526 -0.27175066 -0.22814134
0.120213896 0.17696518 0.093542114 -0.029115051 0.07827541 0.022473685 0.051408045 0.07748292
0.038125973 0.1550158 0.087692745 0.04372632 0.0023160076 -0.027700065 -0.022755481 0.07466549
0.19069867 0.16557364 0.11789037 0.21770398 -0.039243963 -0.00035895265 -0.109307386 -0.03143783
-0.022961704 0.124958634 0.047362264 0.11409886 -0.0060780216 0.06891427 -0.041987788 0.03254369
0.004401888 -0.03138695 -0.006772518 0.023509365 -0.13905595 -0.046585012 0.12923703 -0.046945345
-0.07018995 -0.08675781 -0.03355038 -0.15664314 0.10356189 -0.081844546 0.14214574 0.09112094
-0.07120619 -0.0040891613 0.04593766 -0.13977773 0.11161925 0.0015613979 0.023509458 -0.031471044
0.111432776 0.03408997 0.06397902 -0.016876517 -0.04367867 -0.12011055 -0.051081117 0.015766662
-0.04036052 0.09486027 -0.05187831 0.039471045 0.015383307 -0.06333492 0.13438027 -0.060306072
0.14598253 0.112903655 0.09425832 0.2512344 -0.18819809 -0.18483935 0.028667938 0.024124479
-0.10878274 -0.1413341 -0.007729102 0.012313369 -0.049352862 -0.1243163 -0.033152528 -0.079164706
0.08128574 0.087661825 0.103991404 -0.0069781006 0.26248682 0.07159216 0.11844953 0.081786565
0.13217816 0.07938765 0.20867999 0.06632374 -0.06870856 -0.029742952 -0.08065669 -0.040496457
-0.016708262 -0.082157895 -0.10492389 -0.11258193 0.05101779 0.10261552 -0.051095672 0.021946033
-0.040528223 -0.055749588 -0.08324821 0.08780297 0.12246075 0.19728221 -0.046430904 0.0047684656
-0.064432256 -0.06923248 -0.19885537 -0.16174847 -0.061808884 0.13855518 -0.037161518 0.02283017
-0.00658214 0.033013187 0.09305207 0.085643776 0.011249983 0.027844891 -0.019500488 0.0322841
-0.03947676 -0.12012959 0.07428107 -0.10884634 -0.055806454 -0.15017436 0.15210743 -0.080410495
0.11849857 -0.010982594 0.08425711 0.027289977 -0.1683596 -0.089820944 -0.12539637 -0.126401
0.12910038 0.11817384 0.28336024 -0.10712548 -0.060070843 0.026572024 -0.070835754 -0.07932482
0.034016665 0.025055164 0.0028201214 -0.10785281 -0.046289496 0.08431853 0.03130716 0.054159623
-0.13609631 -0.14183195 0.1623169 -0.0563489 0.008702905 -0.06866016 0.009847452 0.036276847
0.20809542 0.066654466 0.18162812 0.11820262 -0.018744614 -0.03862528 0.12603816 0.026792118
-0.12924236 0.048745994 -0.16585189 -0.020906143 -0.059285585 0.16673712 -0.021357486 -0.07233139
-0.057650346 0.07660998 -0.124458365 -0.07201942 0.03523762 -0.06253382 0.00085369387 -0.063532636
0.03014847 -0.111590505 -0.035530176 -0.18148217 -0.09654061 -0.05970619 0.034196038 0.06219688
0.026159499 -0.13368353 -0.04936538 0.029776618 0.2725857 0.13412032 0.049041912 0.072385
-0.0060240743 -0.026145246 -0.093265206 -0.061925307 0.1212745 0.053403176 0.06211166 -0.08060633
00000000: 89f6 ff3d 22d7 023e cc03 363c eb03 de3d
00000010: bc22 f23d c3df eb3d 3c1d de3d b800 d3bc
00000020: 3acb bb3d d432 3c3d 3d24 10bc 4031 98bd
00000030: 6db2 f5bd 6976 a0bd 14ca 59be 9ba7 953c
00000040: 2428 2a3e cfc7 f53d 4ecc c93d 837f 043e
00000050: 89e3 af3d c5d4 88ba 549d 243e c37e d63b
00000060: 76d1 823e dc3c bbbd ff69 a53e 0a4b 143e
00000070: ba53 6dbe a63c 4cbd e722 8bbe e29d 69be
00000080: b432 f63d 5c36 353e 0293 bf3d b082 eebc
00000090: dc4e a03d bc1a b83c 3e91 523d 5daf 9e3d
000000a0: fb29 1c3d 76bc 1e3e 4198 b33d 5f1a 333d
000000b0: 29c8 173b 3feb e2bc b469 babc 38ea 983d
000000c0: 8346 433e 238c 293e 8270 f13d cbed 5e3e
000000d0: 47be 20bd cf31 bcb9 8ddc dfbd f4c4 00bd
000000e0: 2f1a bcbc 50ea ff3d effe 413d aaac e93d
000000f0: 242a c7bb ed22 8d3d 63fb 2bbd 884c 053d
00000100: b73d 903b 9a8f 00bd 00ec ddbb b696 c03c
00000110: af64 0ebe edcf 3ebd b656 043e c349 40bd
00000120: c0bf 8fbd 14ae b1bd 206c 09bd 0f67 20be
00000130: 4218 d43d 1d9e a7bd a78e 113e 9e9d ba3d
00000140: 8dd4 91bd 5ffe 85bb 2129 3c3d e521 0fbe
00000150: a298 e43d d2a7 cc3a e896 c03c c8e7 00bd
00000160: de36 e43d eda1 0b3d 6f07 833d 9f40 8abc
00000170: 68e8 32bd 85fc f5bd 6f3a 51bd 1629 813c
00000180: 1351 25bd 1a46 c23d 5a7e 54bd 64ac 213d
00000190: 440a 7c3c bdb5 81bd fb9a 093e 8003 77bd
000001a0: 727c 153e 083a e73d 820a c13d cca1 803e
000001b0: 00b7 40be 8746 3dbe 06d9 ea3c b3a0 c53c
000001c0: 7cc9 debd e3b9 10be 6844 fdbb 03be 493c
000001d0: 3a26 4abd 8b99 febd f2ca 07bd 1b21 a2bd
000001e0: 2379 a63d 0b88 b33d 72f9 d43d 8da8 e4bb
000001f0: ac64 863e e99e 923d ab95 f23d b77f a73d
00000200: b659 073e fe95 a23d 35b0 553e bed4 873d
00000210: 13b7 8cbd 7ea7 f3bc 562f a5bd 9ddf 25bd
00000220: c4df 88bc 6642 a8bd 56e2 d6bd 5b91 e6bd
00000230: 08f8 503d 1628 d23d b249 51bd 2bc8 b33c
00000240: ec00 26bd ae59 64bd 0a7e aabd 0bd2 b33d
00000250: b4cc fa3d 5904 4a3e 552e 3ebd ca40 9c3b
00000260: 0ff5 83bd c2c9 8dbd bea0 4bbe 64a1 25be
00000270: 502b 7dbd 69e1 0d3e ad36 18bd 5606 bb3c
00000280: feae d7bb d638 073d 1592 be3d 0166 af3d
00000290: d951 383c f81a e43c 7dbf 9fbc 553c 043d
000002a0: 62b2 21bd 8106 f6bd ac20 983d d4ea debd
000002b0: 4f95 64bd 4fc7 19be 0dc2 1b3e 42ae a4bd
000002c0: 61af f23d 57f0 33bc fe8e ac3d 3b8f df3c
000002d0: 7566 2cbe 0bf4 b7bd e867 00be 446f 01be
000002e0: e432 043e 2005 f23d 9814 913e 9b64 dbbd
000002f0: d80c 76bd 93ad d93c 5612 91bd 0d75 a2bd
00000300: 0f55 0b3d 7d40 cd3c c9d1 383b efe1 dcbd
00000310: 0e9a 3dbd 32af ac3d f03b 003d 7bd6 5d3d
00000320: d55c 0bbe 653c 11be 6736 263e 1bce 66bd
00000330: a196 0e3c b39d 8cbd 3557 213c 0897 143d
00000340: f716 553e 2382 883d b9fc 393e 3714 f23d
00000350: 4e8e 99bc 8b35 1ebd 2610 013e 257b db3c
00000360: 1c58 04be e1a9 473d 14d5 29be 5c43 abbc
00000370: 71d5 72bd 23bd 2a3e e5f5 aebc 7b22 94bd
00000380: c522 6cbd b1e5 9c3d 07e4 febd eb7e 93bd
00000390: 5355 103d bb11 80bd 6dca 5f3a 661d 82bd
000003a0: edf9 f63c 9089 e4bd 1788 11bd 76d6 39be
000003b0: 15b7 c5bd 7a8e 74bd 2511 0c3d 28c2 7e3d
000003c0: 724c d63c 56e4 08be 5a33 4abd 18ee f33c
000003d0: 5a90 8b3e d656 093e 2ce0 483d 963e 943d
000003e0: 9965 c5bb 8e2e d6bc d401 bfbd 64a5 7dbd
000003f0: c45e f83d 4abd 5a3d cc68 7e3d ee14 a5bd

conv_layers.4.bias f4 [32]
-0.294412 0.13977498 0.1229534 0.18776461 -0.08252475 0.13496241 0.09336638 -0.049713437
0.03057652 0.04979047 0.041117147 -0.2161557 -0.15663613 0.06417817 -0.017202416 0.0048102015
0.043316722 0.030259512 0.08635157 -0.07150026 -0.14941385 0.12369403 -0.03621835 -0.10114883
0.08479205 0.07190493 0.089871675 0.054738835 0.062880754 0.20989951 -0.12884256 -0.08947425
00000000: 2bbd 96be 2c21 0f3e fece fb3d 5e45 403e
00000010: bc02 a9bd 9633 0a3e df36 bf3d 51a0 4bbd
00000020: 9c7b fa3c 18f1 4b3d 746a 283d eb57 5dbe
00000030: 3965 20be d86f 833d 15ec 8cbc e59e 9d3b
00000040: e06c 313d cce2 f73c 18d9 b03d ba6e 92bd
00000050: f2ff 18be 4c53 fd3d b159 14bd 1e27 cfbd
00000060: 74a7 ad3d e442 933d a40e b83d d435 603d
00000070: a0c7 803d e6ef 563e 4eef 03be 473e b7bd

fc_state.0.weight f4 [256, 128]
0.012060348 0.04704561 -0.08792001 -0.01160056 -0.068815306 0.0012791061 0.06843593 0.08142949
0.061962146 -0.12854551 -0.015266198 0.046223506 -0.06255738 0.18372959 0.027249942 -0.096865036
-0.08893421 0.04013746 0.08907402 -0.14093423 0.12128868 0.039842773 -0.07737075 0.075783275
0.015916657 -0.068178594 -0.026119934 0.0014223193 -0.14273413 0.06816463 0.015400789 0.03694445
-0.13071276 -0.08197633 -0.0685742 -0.042956796 0.0017295654 0.064857565 0.030402852 -0.041587405
-0.20437083 -0.21376076 -0.22710152 -0.12630832 0.10311461 0.07688454 0.055935163 -0.13175873
-0.105516724 -0.036762755 -0.1071823 0.03697498 0.03613788 -0.10162141 0.028555676 -0.032676198
-0.079099864 -0.20344779 0.0794945 -0.16151494 -0.030970989 -0.11267435 0.015898388 -0.04310307
0.10098459 0.05874085 -0.0023708036 -0.06657668 0.08083271 -0.043565117 0.09525517 0.06413947
0.10232375 -0.0046675364 -0.0042765997 -0.09796399 0.08123295 -0.100081995 -0.045438588 -0.070181474
-0.040503565 0.03778313 -0.018035749 0.09172308 0.06458466 0.09630524 -0.023106463 0.07598256
-0.07630318 0.08198726 -0.14780755 -0.091995195 -0.1040647 0.007590234 -0.034556847 0.07333565
0.06949749 0.035300296 0.0086403 -0.0069070323 -0.07648742 0.020046458 -0.050902717 0.029022872
0.20851178 -0.14836425 -0.02113946 -0.037866194 0.089585364 -0.15913859 0.07002837 0.065946646
-0.008185403 0.015701152 0.12945598 0.045356892 -0.08706609 0.04681569 0.10422591 0.024715358
-0.03678641 0.0077034486 0.054396454 -0.0996091 -0.10263245 -0.071748614 0.024160394 -0.019809615
-0.042241428 0.11129561 -0.0062457114 -0.055820953 -0.0371606 -0.0053491895 -0.08963607 -0.0520339
-0.10501868 0.10698339 -0.5153711 -0.029970929 0.09976371 0.12168478 -0.13627541 -0.022640742
0.027408807 0.10293691 -0.12447648 0.07827353 0.04328123 -0.039989416 0.06969355 -0.04313008
-0.0033150797 0.03379863 -0.15966976 -0.017730275 -0.035413202 -0.11999158 0.076401636 0.05523957
0.07398667 0.02447691 -0.079449475 -0.108466536 -0.1518968 -0.22830033 0.02905337 0.15382537
0.06358223 0.023281023 -0.029374046 -0.049041882 0.07400389 -0.039460536 0.007455725 0.06785004
-0.087164335 -0.016062694 0.003932303 -0.04955811 -0.010702078 0.04609975 -0.084598005 -0.28434843
0.066973515 0.04109678 -0.05921435 -0.07745384 -0.0052234433 -0.081953086 -0.16374174 -0.1839013
-0.03406387 0.0019690713 0.07175959 -0.1613556 -0.074864075 0.06890375 -0.08606799 0.056361258
-0.028770313 0.06432448 0.037887212 0.15804332 0.014734573 0.019168386 -0.037370473 -0.11992513
0.099419005 0.05662541 0.11652576 -0.0777189 0.046879247 0.1176337 -0.11970482 0.08249403
0.090089545 0.066329904 -0.009309956 -0.021266237 -0.02078579 -0.16903451 -0.08232364 0.029846972
0.06390979 0.053654764 0.067025244 0.07776054 0.012633473 -0.09950476 -0.017606573 0.057671066
0.026735967 -0.0394016 -0.13124664 0.072554186 -0.014670576 0.06729761 -0.072872736 0.034650944
0.016164484 0.035604067 0.015355798 -0.014567881 -0.0004903029 0.07682932 -0.033775844 -0.01317375
-0.08448475 0.12898211 -0.047858622 0.0049310615 -0.02245373 -0.124754556 -0.22599402 -0.02533381
00000000: c498 453c e6b2 403d 680f b4bd 4610 3ebc
00000010: 0aef 8cbd aea7 a73a 2328 8c3d 81c4 a63d
00000020: 05cc 7d3d 6fa1 03be 131f 7abc dc54 3d3d
00000030: 151e 80bd 9c23 3c3e 453b df3c 2d61 c6bd
00000040: 2423 b6bd 2d67 243d 716c b63d 1051 10be
00000050: 3366 f83d 2d32 233d 8e74 9ebd 4334 9b3d
00000060: a663 823c 38a1 8bbd 79f9 d5bc 1e6d ba3a
00000070: e528 12be e699 8b3d 9753 7c3c 1053 173d
00000080: 91d9 05be 35e3 a7bd a170 8cbd 77f3 2fbd
00000090: 96b2 e23a 0bd4 843d 670f f93c 8e57 2abd
000000a0: 9646 51be 1ae4 5abe 4d8d 68be f856 01be
000000b0: c12d d33d a475 9d3d 451c 653d c3eb 06be
000000c0: 2719 d8bd 8b94 16bd 6582 dbbd 1473 173d
000000d0: 5005 143d e31e d0bd 98ed e93c 7ad7 05bd
000000e0: 1cff a1bd 9e54 50be 03ce a23d 2c64 25be
000000f0: dfb6 fdbc cfc1 e6bd 563d 823c d88c 30bd
00000100: 02d1 ce3d 3f9a 703d 7c5f 1bbb 5b59 88bd
00000110: 9f8b a53d 5671 32bd 2415 c33d 8e5b 833d
00000120: 1d8f d13d 22f2 98bb b822 8cbb 58a1 c8bd
00000130: 765d a63d caf7 ccbd d01d 3abd 4ebb 8fbd
00000140: 11e7 25bd 7cc2 1a3d b5bf 93bc 4fd9 bb3d
00000150: f644 843d af3b c53d c449 bdbc bf9c 9b3d
00000160: d744 9cbd f0e8 a73d dd5a 17be fa67 bcbd
00000170: e01f d5bd 7fb7 f83b 7b8b 0dbd 0031 963d
00000180: b354 8e3d 0b97 103d 0b90 0d3c 6354 e2bb
00000190: 70a5 9cbd 7838 a43c 5e7f 50bd 60c1 ed3c
000001a0: 1d84 553e ccec 17be a92c adbc 9519 1bbd
000001b0: 8878 b73d 3af5 22be 096b 8f3d 090f 873d
000001c0: 121c 06bc b49f 803c 1c90 043e 26c8 393d
000001d0: b54f b2bd cfc1 3f3d 6574 d53d dd77 ca3c
000001e0: 59ad 16bd 366d fc3b d1ce 5e3d dbff cbbd
000001f0: f630 d2bd f0f0 92bd 05ec c53c c647 a2bc
00000200: 5905 2dbd f4ee e33d d3a8 ccbb 83a4 64bd
00000210: b735 18bd 4148 afbb 1e93 b7bd 8021 55bd
00000220: 0914 d7bd 1c1a db3d 5cef 03bf 9885 f5bc
00000230: ea50 cc3d df35 f93d c88b 0bbe 1479 b9bc
00000240: 6f88 e03c 96d0 d23d 86ed febd df4d a03d
00000250: a947 313d f1cb 23bd 7ebb 8e3d 2ba9 30bd
00000260: cf41 59bb 6f70 0a3d 7880 23be 153f 91bc
00000270: 6f0d 11bd 25be f5bd 7678 9c3d e342 623d
00000280: 5386 973d cd83 c83c 68b6 a2bd b423 debd
00000290: d68a 1bbe 90c7 69be 5501 ee3c 6684 1d3e
000002a0: 6637 823d d8b7 be3c d7a1 f0bc 24e0 48bd
000002b0: 5a8f 973d 5fa1 21bd 284f f43b f6f4 8a3d
000002c0: 3783 b2bd e995 83bc 8cda 803b 72fd 4abd
000002d0: c557 2fbc 17d3 3c3d b841 adbd 1e96 91be
000002e0: 6929 893d 1955 283d bf8a 72bd 1ea0 9ebd
000002f0: 6b29 abbb 05d7 a7bd eaab 27be 9f50 3cbe
00000300: 8e86 0bbd 890b 013b b1f6 923d 673a 25be
00000310: 5652 99bd 691d 8d3d 6a44 b0bd 10db 663d
00000320: b8af ebbc 8ebc 833d 9f2f 1b3d 1cd6 213e
00000330: 4769 713c 0507 9d3c c811 19bd 4e9b f5bd
00000340: 319c cb3d 0cf0 673d 0fa5 ee3d 162b 9fbd
00000350: 7404 403d f0e9 f03d cd27 f5bd a1f2 a83d
00000360: de80 b83d f9d7 873d c988 18bc 8836 aebc
00000370: f646 aabc 6217 2dbe 4c99 a8bd a381 f43c
00000380: 23e3 823d 19c5 5b3d 8844 893d eb40 9f3d
00000390: a0fc 4e3c 27c9 cbbd a93b 90bc 7f38 6c3d
000003a0: 6305 db3c 9263 21bd 8565 06be 4a97 943d
000003b0: db5c 70bc 54d3 893d 4d3e 95bd 26ee 0d3d
000003c0: 616b 843c 92d5 113d e396 7b3c 1fae 6ebc
000003d0: ac87 00ba b158 9d3d 8a58 0abd b6d6 57bc
000003e0: 5706 adbd e313 043e 6707 44bd be94 a13b
000003f0: e3f0 b7bc 517f ffbd fa6a 67be da88 cfbc

fc_state.0.bias f4 [256]
0.08839828 0.101603985 -0.081683256 0.06984035 0.014535348 0.014242456 -0.108143054 0.096448995
0.12226153 0.040148593 0.13791838 0.15005507 0.06667606 0.04788015 0.08116424 -0.087549046
0.021317018 0.09936281 0.0116515355 0.0025332654 -0.10878213 -0.04291129 -0.17946695 0.026352698
0.14550956 0.10416645 -0.14555234 -0.17448603 -0.0506615 -0.04804017 0.13879892 0.05688947
-0.017214518 0.1525506 0.10574223 -0.04872873 0.08075417 0.1013498 -0.009345884 -0.043258354
0.023901597 0.17413932 0.06899856 0.051000282 -0.08103312 0.055885192 0.022545783 -0.15921879
-0.0154474005 0.073221736 0.1683136 0.087944895 0.08824676 0.016300077 0.17236373 0.10507129
-0.1128604 -8.070577e-05 0.083376184 -0.15994897 0.06384536 0.16986325 -0.16086416 -0.11243181
0.005409512 -0.0632769 0.07740073 -0.15949853 -0.09288913 -0.14995393 -0.08327281 0.047339957
-0.07607131 -0.04296846 0.15039513 -0.10210437 0.07350269 -0.10450592 -0.09096533 -0.06785199
-0.039322995 -0.012636227 0.24202742 0.14712529 0.18401983 0.062091164 0.07171588 -0.07853741
-0.09035819 -0.07604343 -0.08001041 0.14380826 -0.13409232 0.14760053 -0.037900705 0.052577104
-0.079649344 -0.115347005 0.039297022 -0.1752424 0.113234624 -0.01976434 -0.16397326 -0.028457005
0.017606864 0.06344452 0.0638071 0.0673427 -0.13563922 0.078924365 -0.0473698 0.07301156
-0.09528215 -0.18636133 -0.016030697 0.005779435 0.07599885 0.030996915 0.00759318 -0.026310692
-0.17019379 0.13283211 -0.037082024 0.0789581 0.015581307 -0.007858704 0.104132645 0.028436275
0.1239244 0.02557795 0.054199073 0.05923763 -0.104260445 0.04798638 -0.05862603 0.031959396
0.08592824 -0.20791204 0.11566226 0.15616827 -0.045140225 0.14262427 -0.03738168 0.06027042
-0.051675666 0.07469673 0.21188052 0.14465752 -0.19536616 0.14431927 -0.020957422 0.057925135
-0.18498388 -0.13753995 -0.09600014 0.118777916 0.10494629 -0.021193637 0.03399263 -0.015666695
-0.018552795 -0.22822428 -0.108849846 0.12720697 0.09971312 -0.08123539 0.029921863 -0.055424772
0.12322966 -0.008721764 0.035667785 -0.12298219 -0.04365146 -0.07589924 -0.012095615 0.14175741
0.011773263 -0.025896797 0.067723244 0.11415412 0.03537322 0.18246245 -0.06292264 0.064354666
-0.11203983 0.14925191 -0.16189761 -0.061206963 -0.00020520386 0.1620546 -0.019520864 0.12002268
0.06964914 -0.058816105 -0.0043874527 0.12987037 -0.07692288 -0.02582217 0.039826702 -0.15782925
0.17311549 -0.014278252 -0.060995772 -0.055239465 0.108126275 0.015374859 -0.117184676 0.008050223
0.0011509284 0.15144631 0.006293573 0.053156562 -0.061342996 0.054820307 0.014402436 0.17311253
-0.031201554 -0.004581225 0.09993774 -0.09450911 0.010586406 -0.06247965 0.04625504 0.032291405
-0.09866727 0.031113898 0.021378849 0.029098662 0.17426735 -0.10609401 -0.075209044 -0.012997507
-0.052344225 -0.21917726 0.15981673 0.081475705 -0.06596475 0.12143577 -0.0045904266 -0.047417536
-0.08491603 0.026124183 0.13065091 0.01700602 0.059757765 -0.0055379486 0.04866952 0.16296488
0.17910701 -0.069305606 0.17036527 0.0105596185 -0.014998306 0.021047547 -0.01624862 0.10038186
00000000: 280a b53d c015 d03d 8d49 a7bd 7508 8f3d
00000010: ab25 6e3c 3159 693c 1b7a ddbd 0d87 c53d
00000020: 4164 fa3d da72 243d 7a3a 0d3e 09a8 193e
00000030: 758d 883d fa1d 443d 7039 a63d ea4c b3bd
00000040: 07a1 ae3c bb7e cb3d 15e6 3e3c 2405 263b
00000050: 2ac9 debd c0c3 2fbd 2fc6 37be 9de1 d73c
00000060: 7500 153e 3855 d53d ac0b 15be 77ac 32be
00000070: 6f82 4fbd c5c5 44bd 4e21 0e3e ef04 693d
00000080: 7605 8dbc 3936 1c3e 628f d83d c797 47bd
00000090: 7162 a53d 7c90 cf3d 7b1f 19bc ac2f 31bd
000000a0: 48cd c33c 9451 323e 1e4f 8d3d ace5 503d
000000b0: b1f4 a5bd dfe7 643d efb1 b83c 400a 23be
000000c0: 1817 7dbc 47f5 953d 665a 2c3e 741c b43d
000000d0: b8ba b43d bd87 853c 1e80 303e 9e2f d73d
000000e0: 5a23 e7bd 9540 a9b8 22c1 aa3d aac9 23be
000000f0: 5bc1 823d a2f0 2d3e 93b9 24be a642 e6bd
00000100: 4742 b13b 5297 81bd 4684 9e3d 9553 23be
00000110: a83c bebd 868d 19be ef8a aabd 8be7 413d
00000120: 46cb 9bbd b2ff 2fbd 2e01 1a3e 191c d1bd
00000130: 9488 963d 3307 d6bd 084c babd fcf5 8abd
00000140: 2611 21bd 2d08 4fbc 09d6 773e 03a8 163e
00000150: b26f 3c3e 4e53 7e3d c6df 923d 39d8 a0bd
00000160: b70d b9bd a8bc 9bbd 7fdc a3bd 7942 133e
00000170: 7f4f 09be 9824 173e c53d 1bbd 175b 573d
00000180: 321f a3bd 0d3b ecbd eaf5 203d be72 33be
00000190: 8ee7 e73d d3e8 a1bc 9be8 27be aa1e e9bc
000001a0: 453c 903c 33ef 813d 4cad 823d f8ea 893d
000001b0: 02e5 0abe 19a3 a13d d606 42bd 1687 953d
000001c0: 4a23 c3bd 81d5 3ebe cf52 83bc 6a61 bd3b
000001d0: 49a5 9b3d 3eed fd3c 36d0 f83b 8589 d7bc
000001e0: 4847 2ebe 2405 083e 52e3 17bd c9b4 a13d
000001f0: bd48 7f3c cbc1 00bc 7f43 d53d 31f3 e83c
00000200: 13cc fd3d d988 d13c d9ff 5d3d 28a3 723d
00000210: 8086 d5bd 5e8d 443d d921 70bd dbe7 023d
00000220: 25fb af3d e5e6 54be 56e0 ec3d 93ea 1f3e
00000230: f5e4 38bd 190c 123e 881d 19bd 1ede 763d
00000240: dda9 53bd 99fa 983d 35f7 583e 1a21 143e
00000250: 110e 48be 6ec8 133e e6ae abbc e842 6d3d
00000260: 6a6c 3dbe 46d7 0cbe b99b c4bd d641 f33d
00000270: 15ee d63d 479e adbc db3b 0b3d 7157 80bc
00000280: 08fc 97bc a0b3 69be abec debd 8b42 023e
00000290: 6436 cc3d bd5e a6bd b21e f53c 1605 63bd
000002a0: d55f fc3d bbe5 0ebc 6218 123d 16de fbbd
000002b0: e0cb 32bd 1071 9bbd b02c 46bc db28 113e
000002c0: a5e4 403c 8525 d4bc 7cb2 8a3d a3c9 e93d
000002d0: 82e3 103d 70d7 3a3e 96dd 80bd 61cc 833d
000002e0: 2375 e5bd 7ed5 183e 7dc8 25be 27b4 7abd
000002f0: fe2b 57b9 a4f1 253e 38ea 9fbc 73ce f53d
00000300: 35a4 8e3d 28e9 70bd 9fc4 8fbb bdfc 043e
00000310: be89 9dbd 0489 d3bc 5321 233d fe9d 21be
00000320: 3045 313e 54ef 69bc b4d6 79bd c742 62bd
00000330: 4f71 dd3d d5e6 7b3c 85fe efbd 15e5 033c
00000340: c0da 963a be14 1b3e 513a ce3b b2ba 593d
00000350: cb42 7bbd 428b 603d 32f8 6b3c 6944 313e
00000360: 679a ffbc 1a1e 96bb 28ac cc3d fe8d c1bd
00000370: 9b72 2d3c a9ea 7fbd ed75 3d3d fe43 043d
00000380: 1112 cabd 93e2 fe3c b222 af3c 5160 ee3c
00000390: 2473 323e d147 d9bd 3307 9abd 7ff3 54bc
000003a0: e666 56bd 0170 60be ffa6 233e bcdc a63d
000003b0: 8718 87bd 51b3 f83d 4a6b 96bb e438 42bd
000003c0: 75e8 adbd 6202 d63c 5ac9 053e 3550 8b3c
000003d0: 8fc4 743d ae77 b5bb b159 473d 44e0 263e
000003e0: d467 373e 19f0 8dbd 3c74 2e3e 4002 2d3c
000003f0: 74bb 75bc e86b ac3c d31b 85bc 0195 cd3d

fc_state.2.weight f4 [64, 256]
-0.10810605 -0.07949712 0.21484831 0.11905149 -0.010528935 0.0024530618 0.0854884 -0.073323615
-0.48547596 0.0002389292 -0.031698972 -0.043367185 -0.046626855 -0.115825646 -0.06144721 0.10219727
0.03582318 -0.04598412 -0.03251149 0.007411262 0.32995513 0.11678522 0.10609739 0.26462469
0.032435905 -0.13807438 0.20168276 0.15425229 0.36491424 -0.2499051 -0.17217572 0.010352304
-0.27875158 -0.010206087 -0.037135787 -0.17170963 -0.080962874 -0.16884252 -0.3494603 -0.18135744
-0.3552573 -0.059056994 0.041780032 0.06908758 0.011463642 -0.07630182 -0.11515909 0.2721762
0.016417474 -0.1698502 -0.009499915 -0.28675196 -0.2036792 0.034033004 0.07052994 -0.04453375
0.22513448 -0.19843255 -0.25169912 -0.21978733 -0.24771497 0.00046556903 0.11763468 0.046616603
0.034504425 0.15782738 -0.059511628 0.056980453 -0.32248783 0.12811546 -0.038560215 0.07556319
-0.35924977 0.059481606 -0.06848611 0.019282525 0.07476667 0.10429479 -0.016666578 -0.30649754
0.005513402 -0.37409973 0.003774295 -0.13701388 0.07904646 -0.26846138 -0.06652211 0.081221424
-0.0656742 -0.26867825 -0.020063747 0.031148728 0.050417032 0.0360511 0.21805668 -0.01777388
0.13415702 0.11957357 0.47259212 0.048499152 -0.016213397 -0.39821744 0.12589559 -0.02855496
-0.055836055 0.020629419 -0.1195569 -0.086338066 0.11392061 0.017049335 -0.20477577 0.1751004
-0.019367518 0.06203551 0.05679076 -0.12382511 0.11370614 -0.017065577 0.010352969 0.041655637
0.17213848 -0.092378005 0.0244506 0.007228166 0.027512249 -0.04559675 -0.0070582563 -0.054560058
-0.11370502 0.12530573 -0.27830574 0.026513148 0.13479681 -0.49780732 -0.08630151 0.060122713
-0.14049661 0.041368153 0.0138209555 0.08495234 0.09160182 0.06442313 0.14450005 -0.030787598
-0.32001823 -0.13978772 0.012215969 0.06626926 0.063639075 -0.019115955 -0.10600405 0.008458055
0.19314939 0.20316914 0.11130449 -0.26133344 0.09444499 0.22708856 0.106974244 0.05128693
0.15804912 -0.005306589 0.18634324 0.04323524 0.107922606 0.19861215 0.1401458 0.07527462
0.096041225 0.012452062 -0.08980751 0.19105881 0.01432362 0.115690924 0.008192959 -0.20982446
-0.0003239156 0.13800658 -0.024666946 0.041010596 0.060663037 0.07551583 0.047826365 -0.058713067
0.06665762 0.05513013 0.11269424 0.24819492 0.05780038 -0.2701436 0.007105323 -0.10947578
-0.10659984 0.21884371 -0.17484748 0.029873267 -0.30142182 0.1482152 -0.044606213 0.305355
-0.040643223 0.12930915 -0.38049006 0.06660245 0.092198454 -0.10803997 0.051519427 -0.020151144
0.34869984 -0.018094834 0.060786877 0.13951547 0.28899518 -0.17989415 0.004226354 0.0024830864
0.11378365 0.09297483 -0.027965046 0.103502676 -0.039135803 0.012691468 0.097623155 0.008572765
-0.48138013 0.08395209 0.046340924 -0.036629483 0.10405939 0.19931869 -0.2534701 -0.3635764
0.07585822 0.43391064 -0.059600152 0.09497649 -0.26120535 0.061696973 0.2414649 0.004535373
0.033774775 -0.06583822 -0.026131883 -0.04548731 0.02969812 -0.36929497 -0.6551128 0.063236944
-0.045631524 0.055225924 -0.09482406 -0.056986738 -0.12736017 0.14116795 -0.15402493 -0.17789672
00000000: b466 ddbd 63cf a2bd 3201 5c3e 45d1 f33d
00000010: 8e81 2cbc 8cc3 203b 8b14 af3d b12a 96bd
00000020: 4e90 f8be 1289 7a39 c8d6 01bd caa1 31bd
00000030: cdfb 3ebd ff35 edbd 12b0 7bbd cd4c d13d
00000040: 54bb 123d d859 3cbd c52a 05bd 2cda f23b
00000050: e1ef a83e 172d ef3d 9749 d93d e37c 873e
00000060: 83db 043d 5f63 0dbe ed85 4e3e 50f4 1d3e
00000070: 0ad6 ba3e 1fe7 7fbe d54e 30be b69c 293c
00000080: 87b8 8ebe 6e37 27bc b21b 18bd a6d4 2fbe
00000090: ddcf a5bd 0ee5 2cbe 76ec b2be c4b5 39be
000000a0: 49e4 b5be bfe5 71bd 8a21 2b3d ca7d 8d3d
000000b0: 00d2 3b3c 2144 9cbd 87d8 ebbd ae5a 8b3e
000000c0: f07d 863c 36ed 2dbe 88a5 1bbc 27d1 92be
000000d0: 4891 50be 3166 0b3d 0072 903d 0569 36bd
000000e0: a789 663e e731 4bbe b5de 80be ee0f 61be
000000f0: fea8 7dbe 9e17 f439 73ea f03d 0df1 3e3d
00000100: 8354 0d3d 809d 213e 77c2 73bd 5664 693d
00000110: 201d a5be b330 033e 51f1 1dbd e0c0 9a3d
00000120: 96ef b7be fca2 733d 7242 8cbd 63f6 9d3c
00000130: 451f 993d 8298 d53d 5988 88bc 3fed 9cbe
00000140: c5a9 b43b 008a bfbe 2a5a 773b 5e4d 0cbe
00000150: 1ce3 a13d c573 89be be3c 88bd 6b57 a63d
00000160: 3280 86bd 3290 89be ba5c a4bc 9e2b ff3c
00000170: 1782 4e3d 51aa 133d 404a 5f3e 879a 91bc
00000180: 7560 093e fde2 f43d 98f7 f13e 0ca7 463d
00000190: f5d1 84bc 28e3 cbbe c6ea 003e 17ec e9bc
000001a0: 59b4 64bd 07ff a83c 3fda f4bd 03d2 b0bd
000001b0: 354f e93d 0cab 8b3c bdb0 51be 854d 333e
000001c0: a1a8 9ebc f218 7e3d 6e9d 683d 0598 fdbd
000001d0: c4de e83d 1ccd 8bbc 809f 293c 1a9f 2a3d
000001e0: 1245 303e ae30 bdbd a04c c83c 40da ec3b
000001f0: 5e61 e13c a8c3 3abd f248 e7bb 5e7a 5fbd
00000200: 2dde e8bd 2550 003e 177e 8ebe 1a32 d93c
00000210: 2d08 0a3e 9ae0 febe d9be b0bd 3c43 763d
00000220: 58de 0fbe a771 293d 4a71 623c 7efb ad3d
00000230: bc99 bb3d 46f0 833d d2f7 133e 4636 fcbc
00000240: 6ed9 a3be 8324 0fbe 7d25 483c 2eb8 873d
00000250: 3455 823d 1099 9cbc a718 d9bd a793 0a3c
00000260: f4c8 453e 920b 503e 9cf3 e33d 7fcd 85be
00000270: 606c c13d e789 683e 5015 db3d 3e12 523d
00000280: a1d7 213e e5e2 adbb c3d0 3e3e 6f17 313d
00000290: 8706 dd3d fc60 4b3e 6182 0f3e 9429 9a3d
000002a0: 43b1 c43d bc03 4c3c 00ed b7bd eca4 433e
000002b0: 9ead 6a3c 5def ec3d c33b 063c 39dc 56be
000002c0: 37d3 a9b9 9951 0d3e 5612 cabc bafa 273d
000002d0: ce79 783d 0ba8 9a3d 94e5 433d 1d7d 70bd
000002e0: ca83 883d 22d0 613d 3dcc e63d cf26 7e3e
000002f0: 17c0 6c3d 4350 8abe c5d3 e83b d634 e0bd
00000300: 0451 dabd 9118 603e 380b 33be c8b8 f43c
00000310: f653 9abe bac5 173e 01b5 36bd 7e57 9c3e
00000320: 8279 26bd 9e69 043e 98cf c2be de66 883d
00000330: 8bd2 bc3d 0f44 ddbd 0906 533d 0314 a5bc
00000340: c988 b23e 9e3b 94bc a9fb 783d 25dd 0e3e
00000350: 2df7 933e 2c36 38be 3a7d 8a3b 47bb 223b
00000360: 6707 e93d 9669 be3d f416 e5bc 36f9 d33d
00000370: dd4c 20bd e0ef 4f3c a6ee c73d c874 0c3c
00000380: 7577 f6be 13ef ab3d fbcf 3d3d cc08 16bd
00000390: 171d d53d 331a 4c3e d5c6 81be b026 babe
000003a0: 8e5b 9b3d 8929 de3e 4a1f 74bd 0983 c23d
000003b0: b5bc 85be f7b5 7c3d 9342 773e 779d 943b
000003c0: 6b57 0a3d 30d6 86bd 8812 d6bc e750 3abd
000003d0: 7949 f33c 3b14 bdbe 79b5 27bf 5f82 813d
000003e0: 1fe8 3abd 9434 623d 1e33 c2bd ed6a 69bd
000003f0: b46a 02be 558e 103e b6b8 1dbe 8f2a 36be

fc_state.2.bias f4 [64]
-0.029926356 -0.045968965 0.11952734 -0.05649107 -0.015110873 -0.060024604 0.12002201 -0.030456591
0.13201387 0.1658264 -0.09121978 0.15699302 0.12856214 0.15962508 0.12798779 -0.026392238
-0.04914438 0.15177995 -0.0692859 0.10105536 0.11913691 -0.13891555 0.08944454 -0.07334738
-0.015551372 -0.1321051 0.16386653 0.086387105 0.15356345 -0.13197997 0.072646834 -0.15079144
0.01419733 0.16456065 -0.11892302 -0.11684483 -0.12089654 0.14199817 0.013198051 0.10082735
-0.029179301 0.16600113 -0.06524947 0.18813412 -0.01781421 -0.047582127 -0.023019888 -0.032272212
-0.165725 -0.053259745 -0.08346689 0.15033714 0.021262918 -0.0328661 0.13728796 0.10635892
0.114355005 0.18529584 0.13189825 0.00025113855 -0.022758195 0.15337764 0.16871859 -0.023140952
00000000: 1e28 f5bc f449 3cbd c0ca f43d 2e63 67bd
00000010: 9893 77bc 5cdc 75bd 19ce f53d 1a80 f9bc
00000020: a52e 073e 65ce 293e 70d1 babd c7c2 203e
00000030: cba5 033e c274 233e 3b0f 033e 8934 d8bc
00000040: 9e4b 49bd 346c 1b3e c4e5 8dbd 1df6 ce3d
00000050: 0dfe f33d e13f 0ebe b32e b73d 2737 96bd
00000060: 2fcb 7ebc 8f46 07be a1cc 273e b9eb b03d
00000070: bd3f 1d3e c225 07be ddc7 943d 1269 1abe
00000080: eb9b 683c 9682 283e ea8d f3bd 584c efbd
00000090: 9b98 f7bd f867 113e a33c 583c 927e ce3d
000000a0: 6e09 efbc 33fc 293e 84a1 85bd 3ba6 403e
000000b0: 1bef 91bc 7ae5 42bd 3494 bcbc de2f 04bd
000000c0: d0b3 29be e426 5abd b0f0 aabd fbf1 193e
000000d0: 922f ae3c 9b9e 06bd 3795 0c3e b5d2 d93d
000000e0: f532 ea3d 31be 3d3e 5610 073e 3fab 8339
000000f0: 656f babc 070f 1d3e 91c4 2c3e 1892 bdbc

fc_state.4.weight f4 [1, 64]
-0.33082774 -0.30431998 0.29139397 0.03081835 -0.33940372 0.043459672 0.33094478 0.110145
0.28093556 0.30419403 -0.3033001 0.34038427 0.31911892 0.36417526 0.2750163 0.16892843
0.018496478 0.2756952 -0.3175524 0.2604913 0.31896707 -0.27880636 0.2694796 0.06911647
-0.3437687 -0.38733873 0.2878459 0.25302544 0.36650038 -0.44916368 0.23285557 -0.31005147
-0.024320217 0.30576175 -0.26357087 -0.27476585 -0.4340157 0.2661171 1.9681966 0.2632056
0.060603023 0.362553 -0.31869557 0.29244494 -0.34656224 -0.35677013 -0.39566115 -0.2510433
-0.41119492 -0.35821396 -0.33467972 1.1735456 1.8129472 0.10629028 0.26077858 0.24488829
0.3133528 0.30024353 0.30431548 -0.002473914 -0.29668948 0.23502323 0.30185142 -0.0721564
00000000: 4162 a9be d4cf 9bbe 9731 953e c476 fc3c
00000010: 53c6 adbe c502 323d 9871 a93e b493 e13d
00000020: c9d6 8f3e 52bf 9b3e 274a 9bbe d946 ae3e
00000030: 8e63 a33e 2e75 ba3e f0ce 8c3e 93fb 2c3e
00000040: ed85 973c ec27 8d3e 3a96 a2be 1e5f 853e
00000050: a74f a33e b5bf 8ebe 3bf9 893e f08c 8d3d
00000060: 7302 b0be 4351 c6be 8a60 933e 8d8c 813e
00000070: f0a5 bb3e c8f8 e5be b171 6e3e 11bf 9ebe
00000080: 313b c7bc ce8c 9c3e c3f2 86be 1cae 8cbe
00000090: 4e37 debe 8040 883e deed fb3f e2c2 863e
000000a0: e03a 783d 8ca0 b93e 112c a3be 58bb 953e
000000b0: 9b70 b1be 93aa b6be 1994 cabe bf88 80be
000000c0: 2488 d2be d267 b7be 245b abbe be36 963f
000000d0: a70e e83f b8ae d93d c584 853e ffc3 7a3e
000000e0: c76f a03e 85b9 993e 3dcf 9b3e 6421 22bb
000000f0: afe7 97be eea9 703e 458c 9a3e bcc6 93bd
