data/Torch/Dueling/003_Big-CNN_E_L/checkpoints/weights_46000episodes.pth (torch, 505343 bytes, 17 tensors)

conv_layers.0.weight f4 [64, 1, 3, 3]
00000000: 3cd5 5340 23e2 2b40 c45c 9440 669a ea3f
00000010: 455b 1f40 3ee9 7440 6597 16c0 24f4 8bbf
00000020: 30b6 e640 9fb1 85c0 a9a0 663f 8614 323f
00000030: 8a58 ddbc 5f9f 14bd faea 2740 1064 5b3f
00000040: 9e39 1e40 9e9f 3cbf b6d1 983f e0e3 8b40
00000050: 4362 5e40 8fa6 8a3f 4fcb bdbe 3f67 bc40
00000060: 7b7d 92c0 1b30 4fc0 ffbb bb3f 156c 10bf
00000070: eb98 cf3f b6c1 5ec0 e9c2 2340 389e 1040
00000080: a917 4440 8c97 4240 e202 9e40 369d d340
00000090: c627 d83f 34df fe3f 310a 49c0 84b2 993f
000000a0: ae98 8640 db50 f9bf 10e0 6240 6bd6 ae40
000000b0: 0ebc e840 185b 443f 7bbb 7640 2fbe 9940
000000c0: 044d 0140 9f96 b33f ea1b 8cbf 0d1b 97be
000000d0: 0885 18c0 72e0 c640 5df3 f73f b9c3 92bf
000000e0: 687d 8e3f 36f2 513e 83eb 0040 749a 65c0
000000f0: 595c f2bd 1fb7 3fc0 7e6b cb40 1938 a2bd
00000100: 6c93 ae3f 4718 4cc0 7c34 4940 8b18 6d40
00000110: 9b2a 3a3e eb47 233f 5f0a d040 7aca c940
00000120: 3e9b a240 4eb4 7140 1f75 80c0 671b c03f
00000130: 159a 9c3f e492 a540 4eac 4940 bd79 9040
00000140: 22b4 3cc0 ddbe 8fbe b8ab 1240 05d6 1740
00000150: e88d 933f de25 bf3f 95a4 2d40 3596 23c0
00000160: 1263 b2bf 21fb dc40 1ec9 2940 74d1 a6bf
00000170: 1178 8640 8e1f 7840 c22e a4bf 0cc5 9b3f
00000180: 6bb3 d540 6b4d 7240 5e24 96c0 2002 c7c0
00000190: 206c 2440 bc66 8740 f652 8fbe 3f24 dec0
000001a0: 2e60 f7bf 6d69 b3c0 1312 883f 853f 963f
000001b0: 247f bdc0 b7dc b8c0 b385 9d40 1706 883f
000001c0: d858 9ec0 c210 dbc0 3992 0740 332a 553f
000001d0: 7277 8340 5b5c cd3e 005e 84c0 a869 8ac0
000001e0: 65fe 473f 2b80 953e b8c0 4b40 d728 9c3f
000001f0: 5e0a 86c0 e5c3 43c0 33b2 bbbf d0cc 813e
00000200: 51ee 5240 494d 1dbf 46e5 673f f6c3 4940
00000210: 7f96 5bc0 dbc9 e63f c269 1540 1c3d 94c0
00000220: 476c bdbf 7186 593f 805c 6cbd f81e 19be
00000230: ad2c 4e40 bc1a 833d 7d24 3740 e0e6 6ebf
00000240: e11f 3c3f 8074 ca3f ffb2 8440 9f79 9040
00000250: 9764 2440 9721 6ec0 ba23 9040 6f78 a140
00000260: df4c 3d40 e8c1 15c0 39c2 5040 7835 0ec0
00000270: 5cf0 7340 d82e 8a40 f738 0340 d517 c33f
00000280: 9dcc ec40 6d17 8640 cec9 593f 1248 463d
00000290: 6260 8940 61d5 163e 5fac 95be 8abf 8e3f
000002a0: 5231 ad3f b21f 96c0 d473 f4c0 4cb4 993f
000002b0: 959d 9340 63c6 89c0 bc63 fe3f d6e3 5cbf
000002c0: bdb9 7740 2087 7840 406a 9540 1b64 73c0
000002d0: 9c1a 3540 0435 3840 81d1 9f40 6b6d adbe
000002e0: b588 59bf 3fab 4840 b590 c240 208f e33f
000002f0: 9b88 84c0 3306 cc3f ac1f 7b3e 510f 003f
00000300: 0904 8040 63af 4f40 9eac e3bf 4e96 dfbf
00000310: 1911 94bf 0041 b140 3a65 c73f a56b 6840
00000320: b021 05c0 ca4a 0abd 1471 edbe d87b be40
00000330: f6bb 4b3f fe92 c1bf 529c 26c0 3f90 713f
00000340: b9e0 0240 8800 7dc0 e2fa 6340 fab3 5b40
00000350: 6788 1ac0 373a 0c40 4e3d a240 71c7 cd40
00000360: fa75 ef3f bf1a 8f3f e327 8e40 76dd 1bbf
00000370: 851c d8be 2039 0740 8b02 ad3f e94f 27c0
00000380: 81db a1c0 4f54 4140 97a4 c53f 3bb4 b540
00000390: 4afc 42c0 42bf 1dbd 853a 9abe 281a 1a40
000003a0: 8925 9ebf c2aa e840 1133 0640 a776 133e
000003b0: 7f9c cac0 1929 2bbf 1e3b 65c0 bad2 1d40
000003c0: 033b f63f 4e67 43c0 5b56 483f 6bb9 4d3f
000003d0: b330 963f 33a9 cac0 d2d9 f73f b0fa da3f
000003e0: 85aa 5c40 8e96 8f40 862b 8140 1901 32c0
000003f0: 7ea8 8f3f a76f b8bd bfbc 01bf f6d1 c2bf
3.3098898 2.6856773 4.636324 1.8328369 2.4899457 3.826736 -2.3529904 -1.0933881
7.2097397 -4.1779323 0.900889 0.69562566 -0.027019758 -0.0362848 2.6237168 0.8569956
2.4722667 -0.73681056 1.1938999 4.371567 3.4747474 1.083208 -0.37069175 5.8876033
-4.5778174 -3.2373111 1.4666747 -0.5641492 1.6218542 -3.4805732 2.5587714 2.259657
3.063944 3.0404997 4.937852 6.612941 1.6887138 1.9911866 -3.141247 1.2007604
4.2061377 -1.94778 3.5449257 5.463674 7.272956 0.767015 3.855193 4.804466
2.0203257 1.4030341 -1.0946019 -0.29512826 -2.3831196 6.214898 1.9371144 -1.146598
1.1132021 0.20502552 2.0143745 -3.587552 -0.1183402 -2.9955518 6.3568716 -0.07920856
1.363874 -3.1889818 3.1438284 3.704623 0.18180315 0.63781613 6.501266 6.3059664
5.0814505 3.77663 -4.014297 1.5008363 1.2234522 5.174181 3.1511416 4.5148606
-2.9484944 -0.28075305 2.2917309 2.3724377 1.1527681 1.4933431 2.7131703 -2.556043
-1.3936484 6.9056554 2.6529002 -1.303267 4.2021565 3.876926 -1.2826769 1.2169509
6.6781516 3.7859752 -4.6919394 -6.2190094 2.5690994 4.231291 -0.27992982 -6.9419246
-1.9326227 -5.6066194 1.0630516 1.1738135 -5.92177 -5.7769427 4.9225707 1.0626858
-4.948345 -6.8457956 2.1182997 0.83267516 4.1083307 0.40109524 -4.1364746 -4.3253975
0.7812255 0.29199347 3.1836376 1.2199963 -4.1887655 -3.0588315 -1.4663757 0.25351572
3.2957957 -0.6144605 0.9058422 3.1525855 -3.4310606 1.8030351 2.33458 -4.6324596
-1.4798669 0.84970766 -0.057705402 -0.1495322 3.2214768 0.064015836 2.861602 -0.9332104
0.73486143 1.5816803 4.14685 4.5148463 2.5686395 -3.7208002 4.504361 5.0459514
2.9578168 -2.33996 3.2618544 -2.2220135 3.8115454 4.318218 2.0503519 1.5241648
7.399977 4.1903596 0.85073555 0.048408575 4.2930155 0.14729835 -0.2923307 1.1152203
1.3530676 -4.691369 -7.639139 1.2008147 4.612986 -4.305467 1.9874187 -0.8628515
3.8707116 3.8832474 4.66922 -3.802985 2.829749 2.8782358 4.994324 -0.33872542
-0.84974223 3.135452 6.0801644 1.7778053 -4.1416755 1.5939392 0.245238 0.5002337
4.0004926 3.2450798 -1.7787054 -1.7467744 -1.1567718 5.5391846 1.5577767 3.63157
-2.0801811 -0.03376273 -0.46375334 5.9526176 0.7958368 -1.5122983 -2.603291 0.9436073
2.044966 -3.9531574 3.5621877 3.43286 -2.4145753 2.1910532 5.0699835 6.430596
1.8707879 1.1180037 4.442369 -0.608848 -0.4220926 2.1128616 1.3516401 -2.6142523
-5.058045 3.0207708 1.5440854 5.678251 -3.0466485 -0.038512476 -0.30122772 2.4078465
-1.2355205 7.2708445 2.0968668 0.14400731 -6.3316035 -0.66859585 -3.5817332 2.4659867
1.9236759 -3.0531802 0.7825677 0.8036105 1.1733612 -6.333154 1.9363348 1.7107754
3.4479077 4.4871283 4.036563 -2.781317 1.1223295 -0.09005671 -0.5067863 -1.5220325

conv_layers.0.bias f4 [64]
00000000: 295d 3fbd e385 1f40 bba0 073f a41f 6f3f
00000010: 31ec 6b40 d332 a840 2f90 3f40 9c8f 0840
00000020: 1e52 1340 c948 973f 16e8 b540 5129 ca40
00000030: f980 b140 6752 2240 d8c1 da3f 774f 8f40
00000040: 7125 8b40 3e12 8d3f 5fd9 bf3f 4cad 1440
00000050: 0bda d740 b1da 983f 32fc de3f 1f4e 8e40
00000060: c8ee 0640 d94b a33f 7bb9 1a40 d2c5 3b3f
00000070: 2fd8 4240 4c8f 6b40 47e5 14c0 8e8f c440
00000080: 0688 8140 f124 ed3f 0bc8 a53f 91e1 00bf
00000090: 693a ba40 be33 8940 e242 cd40 daf9 0340
000000a0: 3019 5d40 db0b 483f 8a1c 3f3f 6c11 c240
000000b0: c5ec e83f 1997 2740 5a07 6e3d e1e1 b240
000000c0: e0f7 123f 1976 8840 1dff 3340 ce23 4940
000000d0: b2ed 823f bc7a ec40 3fd6 a640 78f4 25bf
000000e0: 9b27 0640 b4bf 853f 48da 7440 8ff3 9640
000000f0: d006 013f 2db7 6d3f d0af a640 fa2b 2b40
-0.046719704 2.4925468 0.5297963 0.93407655 3.686291 5.256204 2.9931753 2.1337652
2.301887 1.1819087 5.684581 6.3175435 5.5469937 2.5362794 1.7090406 4.4784503
4.3483205 1.1021192 1.4988211 2.3230772 6.7453666 1.1941739 1.7420714 4.4470363
2.108324 1.2757522 2.4175708 0.73348725 3.0444448 3.6806211 -2.326494 6.142524
4.0478544 1.8526899 1.2951673 -0.5034419 5.81963 4.287566 6.4144144 2.0621247
3.4546623 0.7814309 0.7465292 6.0646267 1.8197256 2.6185973 0.05811248 5.590073
0.5740948 4.264416 2.8124459 3.1428103 1.0228789 7.389982 5.213653 -0.64826155
2.0961673 1.0449128 3.8258228 4.7172313 0.5040102 0.9285763 5.2089615 2.674559

conv_layers.2.weight f4 [64, 64, 2, 2]
00000000: 9f73 3940 d198 83bf 6ec1 2c40 7add b840
00000010: e550 09c0 e400 2540 94e6 d23f 30cf 1abf
00000020: 3a45 9cc0 0985 5e40 341f 9a40 03cf 41c0
00000030: 8b45 20bf a061 8540 43a1 7b40 3697 8340
00000040: dfdf 0440 b399 8f3f 2cc5 a03f 3d77 db40
00000050: 35f5 7340 7f70 51c0 2330 4d3f 94cc b740
00000060: fe34 8840 e689 48c0 da7d 5c3f cccf 9740
00000070: 7845 17bf 4f2f 2040 08fb 5740 43fb a140
00000080: 0eba c03f 5c47 7a40 3b38 9e3f 2f75 dfbf
00000090: b193 363f f958 2abc 06f0 3040 604d bc40
000000a0: c017 8040 3a5a 0cc0 057f a43f cead 69bf
000000b0: bc30 adc0 8d63 4940 8b7f 813f b0c2 4fbe
000000c0: ffc2 36bc 0229 a7c0 40f5 1d40 5a07 8240
000000d0: db1b 3140 7b7e 043f b5b3 1b40 ed9f 96c0
000000e0: 3fa8 94c0 faa3 fe3d 8dcc 9940 ec5a 0940
000000f0: 98f9 17c0 d967 1040 7165 5e3f e73b 6ebf
00000100: fd67 7740 a481 45c0 436a 983f b91f 9540
00000110: 1701 81bf 5008 4940 626f 2b40 7054 5040
00000120: 6b1c 5c40 e8ea 96c0 ff66 81c0 fd62 8e3d
00000130: 20b6 09bf 7df4 9640 2aca 913f 8007 0fc0
00000140: f096 5340 a20b 2a3e f144 04c0 b4cc 44c0
00000150: 3b9d 5940 b1c8 44c0 05e7 1d40 2f2b bc40
00000160: b9e9 3bc0 541a 8f40 cacc 0140 5fa4 9fc0
00000170: 5f38 0fbe e7a7 d83f 37d7 1240 8f82 c540
00000180: cd7d 3d40 b753 81c0 5ca0 83c0 c9d4 00bf
00000190: 4ce6 8f40 6c08 23c0 c613 27bf c240 a640
000001a0: a34b 6ebf 736a c240 f481 a140 9cb6 8fc0
000001b0: 8f1a 35c0 fbc5 b840 fe30 1440 d828 f3bf
000001c0: 020a 2c40 ceff 36bf 7cb8 a23e 1414 e540
000001d0: e6cc 93bf fc0f 9740 f66c 553f 674b e8bf
000001e0: 007d 00bd dd3b 0dc0 93f2 4040 f5a5 b740
000001f0: b77a 67c0 80dd 713f 1ed3 5440 8840 c740
00000200: 087a 8f40 867e d4bf c452 adbf fc7f 3bc0
00000210: 1ffd 4140 dae1 8bc0 d315 0440 1c01 d640
00000220: 99d9 343f 105d 4dc0 834e f53f 1db7 f840
00000230: d6e7 97bf 448d 6b3f 61e8 cf3f ace4 9940
00000240: 716e a23f e259 8ec0 e71e 5e3f 2629 b03f
00000250: 83cf 46c0 1866 843f d16e 1240 7620 0c3f
00000260: 0f12 47c0 8951 e83d 6f69 7940 1346 cb40
00000270: 6fc8 b23f 0e82 7ebe c87a ba3f 4ad4 55c0
00000280: fc80 60c0 4c5b 9c40 f562 8a40 5d92 59c0
00000290: 568b 503f 8f3b f33f 9d73 04c0 9097 9ec0
000002a0: 1e07 7c40 c503 01c0 45c6 b0bf e8d0 03c0
000002b0: 77ea 4c40 e9f3 e4bf c562 81bf 0739 a2bf
000002c0: 6ce9 1240 d45d 6ec0 6569 2940 a419 f33f
000002d0: 5ae7 a63d ae38 1cc0 fa1e 4640 7620 2c40
000002e0: 8032 19bf 501c 9540 ec3b 5640 8c04 25c0
000002f0: 7ee9 a240 bc5c f4bf 1446 b9bf 01db 42c0
00000300: 0dd5 edbf 6b26 a540 c5c7 0740 2636 e1bf
00000310: 481a 6a40 02d0 f2bf 7348 b83f 85d8 10bf
00000320: 4169 d1be 9e2e 9540 9bc9 1e40 668f 993f
00000330: 661b 9540 9c7f 64c0 ea64 a4c0 c361 69bf
00000340: a6d5 cbbf 0af6 d7bc c681 9240 45f0 68c0
00000350: 1d9d 263c d370 b8c0 ffa5 1e40 e876 9540
00000360: 267a 6840 d771 01c0 a992 c13f 915d 4cbf
00000370: da8f a4c0 7c2e 4b40 27f3 f640 4615 1cbf
00000380: 787f 7a40 0a96 5cbf b82c 203e d8a1 9a40
00000390: 2dd3 aebf 75a7 9b40 7794 9540 ddce 9e3f
000003a0: 59eb 3540 3462 24c0 3808 4ac0 abf1 19c0
000003b0: c4b3 9f40 bfde 7dc0 b1cd 9e3f 524f c440
000003c0: 64b0 8fbe 2849 6040 6443 1d40 8c4c ae40
000003d0: 17e5 b1c0 3dfe 833f 694a bf40 78d6 2a40
000003e0: 1002 6140 45be 1ac0 c2c5 b63e e1e9 a7c0
000003f0: 0707 51c0 b777 a540 50e4 a640 36c0 4bc0
2.897682 -1.0281011 2.699306 5.7770357 -2.1455624 2.5781794 1.6476617 -0.60472393
-4.8834505 3.4768698 4.816309 -3.02826 -0.62606114 4.168167 3.9317176 4.1122084
2.076164 1.121878 1.2560172 6.8583055 3.8118412 -3.2724912 0.80151576 5.743723
4.256469 -3.1334167 0.86129534 4.744116 -0.59090376 2.5028875 3.3746967 5.0619216
1.5056779 3.9106054 1.236091 -1.7457637 0.7131911 -0.010397189 2.7646499 5.884445
4.002899 -2.193007 1.2851263 -0.9128083 -5.412199 3.146701 1.0117048 -0.20289111
-0.011154889 -5.223756 2.4680939 4.0633974 2.7673252 0.51755494 2.4328434 -4.707022
-4.645538 0.1243362 4.8062196 2.1461744 -2.374609 2.2563384 0.8687354 -0.93060154
3.865722 -3.0860376 1.1907429 4.6601224 -1.0078458 3.1411324 2.6786733 3.2551537
3.4392345 -4.716175 -4.043823 0.06952474 -0.53793526 4.7173448 1.138982 -2.2348328
3.3060875 0.16606 -2.0667078 -3.074994 3.4002216 -3.0747492 2.4672253 5.8802714
-2.9361403 4.471964 2.0281243 -4.988815 -0.13986348 1.692624 2.2943857 6.1721873
2.9608033 -4.041469 -4.113325 -0.50324684 4.4968624 -2.547389 -0.65264547 5.195405
-0.9308416 6.0754943 5.0471134 -4.491041 -2.829746 5.7741675 2.3154902 -1.899684
2.6881108 -0.71484077 0.31781375 7.158701 -1.1546905 4.720701 0.83369386 -1.8148011
-0.03136921 -2.2067788 3.0148056 5.7390084 -3.616865 0.9447861 3.3253856 6.2266273
4.4836464 -1.6601112 -1.3540883 -2.9296865 3.0310743 -4.37132 2.063832 6.6876354
0.7064453 -3.208805 1.9164585 7.7723527 -1.1867626 0.9201243 1.6242791 4.809164
1.2689954 -4.448472 0.86765903 1.3762558 -3.1064155 1.0343657 2.2880137 0.5473703
-3.1104772 0.113436766 3.8970602 6.352304 1.3967417 -0.248543 1.456872 -3.341082
-3.5078726 4.8861446 4.3245797 -3.3995583 0.8146261 1.9002551 -2.0695565 -4.9560013
3.9379344 -2.015855 -1.3810507 -2.0596256 3.2018106 -1.7886935 -1.0108267 -1.2673653
2.295497 -3.7244768 2.6470578 1.89922 0.081495956 -2.4409595 3.0956407 2.6894813
-0.5984268 4.659706 3.3474073 -2.5784025 5.0910025 -1.90908 -1.4474511 -3.044617
-1.8580643 5.1609397 2.121568 -1.759465 3.657854 -1.8969729 1.439711 -0.5658038
-0.40900615 4.6619406 2.481055 1.1996887 4.6595945 -3.5702887 -5.1373186 -0.911648
-1.5924575 -0.026362438 4.5783415 -3.639665 0.010169295 -5.7637725 2.4788816 4.670765
3.6324553 -2.0225732 1.5122882 -0.7983027 -5.14256 3.1747122 7.7171817 -0.6096996
3.91403 -0.8616644 0.15642059 4.8322563 -1.3658196 4.8641915 4.674373 1.240688
2.8424895 -2.5684938 -3.1567516 -2.4053752 4.990694 -3.9667203 1.2406522 6.1346827
-0.28064263 3.504465 2.4572382 5.446844 -5.559215 1.0311962 5.9778333 2.6693401
3.515751 -2.4178631 0.35697752 -5.2472997 -3.266054 5.1708636 5.21537 -3.1836066

conv_layers.2.bias f4 [64]
00000000: 2e58 983f 6d36 ffbe 49da b2bd a5ed 7540
00000010: 64a5 92be 86a4 e63e 1ce3 18bf fc26 4d3f
00000020: 7483 c83d 54b3 aebf ac90 0fbe 4477 8940
00000030: 1182 ba40 63b1 8b40 aaa6 4c3e bfbe 6740
00000040: eac2 60be 27d1 3440 4f09 13bf dd16 1040
00000050: 39a5 4dbf 762d cfbe fe58 a5bd aa3d bd3e
00000060: 5ff1 0740 e62f 28bd 8c08 7fbf a942 9fbe
00000070: 364a d3bc 5ec7 5940 da9c a6bf b3c9 0d40
00000080: e8a8 3e40 8a0f 2440 0240 123c 78d0 5240
00000090: 598c a03f 7de7 84be 0213 afbe 0fa1 d43e
000000a0: da4d 63bf a35c 02bf 9fef a2be 0f44 5d40
000000b0: 95c0 3c40 f6c9 0240 fa05 4fbf 623b e6be
000000c0: b7f2 b040 a819 e840 9b68 aa40 292b 4cc0
000000d0: 3ec1 5a3f 2578 413f b7d8 e23e e12c 80bf
000000e0: 29c6 6240 37f8 4840 5dd8 a7bd c390 e240
000000f0: 8d97 bb40 98d1 3340 59c3 d640 d092 9abe
1.190191 -0.4984621 -0.08733041 3.8426297 -0.28641808 0.45047396 -0.5972154 0.8013761
0.09790698 -1.3648477 -0.14020032 4.295809 5.8283772 4.3654037 0.19985452 3.6210172
-0.21949354 2.8252656 -0.5743608 2.2513955 -0.80330235 -0.4046437 -0.080736145 0.36961108
2.1241071 -0.041061305 -0.99622416 -0.31105545 -0.025792222 3.4027934 -1.3016617 2.2154357
2.9790592 2.5634484 0.008926393 3.293974 1.2542831 -0.25957862 -0.3419419 0.41529128
-0.8879067 -0.509226 -0.3182344 3.457279 2.9492543 2.0435767 -0.80868495 -0.4496718
5.5296283 7.253132 5.325269 -3.1901343 0.85451114 0.7557395 0.44305965 -1.0013696
3.5433447 3.1401498 -0.08195565 7.080171 5.86225 2.8096676 6.711346 -0.30190134

conv_layers.4.weight f4 [32, 64, 2, 2]
00000000: e91a da3e 4565 48be 2550 8d3f 29c1 a23e
00000010: e15b 9340 ea2e c140 d2e3 9840 a7c9 8640
00000020: fb85 ae40 cb8f 1240 5735 a240 2b19 493f
00000030: 0388 87bf eef0 48c0 aee9 6840 e182 1fc0
00000040: 39cd af40 e08c 9040 4ce5 a940 88a3 1640
00000050: 2498 c13e 04ae 8ebe f084 1640 8b18 5b3f
00000060: cac5 a640 50e3 b940 9266 b940 bcdd 7c40
00000070: d3f7 b13e feeb 6540 57e9 ddbd 955f 643e
00000080: 1dc2 fe3f bacf 9940 22df 9dbf 4649 6e3f
00000090: 9140 1a40 c85c a440 9a17 5a40 7efd 2840
000000a0: a9c6 443f 9048 5940 e238 993f b41c 683f
000000b0: f163 6dbf aa4b 163f c6e4 65bf ab62 a1be
000000c0: 9ee7 46bf 45e4 6b3f b966 373e 9eb6 fc3e
000000d0: a2a6 b1be 2060 67bf ebee 5dbe 4ff3 41be
000000e0: bf66 b33f 11f6 0f3f 20d2 9440 baa2 9b40
000000f0: b194 24c0 64ae 09c0 7739 fabd c337 2d40
00000100: 5578 49be 26c0 34be 78ef cc3f 995a f93f
00000110: 1103 e8bf 2ad6 2ec0 83d1 fabe 7ec8 e6bf
00000120: 4416 fa3f b748 7240 c154 86be 7e6c 643d
00000130: 47b5 6bc0 36f6 5bc0 6cbd 58c0 5ec0 2cc0
00000140: 02ea 2140 6a3a 9240 8b26 c13f 5b1e 1d40
00000150: 019f 8c40 fe99 da3f 4958 b6be 0213 7540
00000160: 10c5 c93f 384f a4be 2833 0940 f227 403f
00000170: 8ed9 5e3f 5e71 e1be 26b7 3e40 ce96 eb3f
00000180: 3c70 1bc0 937a 79c0 b159 5840 dfae 89c0
00000190: dc48 b240 e23c e53f 538f ad40 5c63 d43e
000001a0: af3b 943f ead6 0b40 b7b7 023f 8e84 cb3e
000001b0: 3c62 ce40 79eb 8840 da51 c240 2184 4e40
000001c0: 7da1 aa3f bb5d 4040 a680 1540 aeaf 903f
000001d0: 388e abbf 33dc 24c0 81c4 7fbf f6f5 95bf
000001e0: 8f18 4040 0514 a840 619d a63f 2b29 1340
000001f0: 2b70 69c0 29a6 4dc0 c0b2 57c0 7406 09c0
00000200: 50c2 92bf 6e7d 983e 5eb9 3ebf ed03 05bf
00000210: dc80 09c0 a808 30c0 522c 04c0 f40b 11c0
00000220: 54c9 a940 67a1 7f40 8605 a340 d89e e83f
00000230: 3291 ccbf 377b 1ec0 3003 88be 6258 69bf
00000240: 4f6f d5bd 13d0 3e40 c95a b03e 8cfc d0be
00000250: 2234 ef40 2e0b 5f40 8e74 a740 d573 8740
00000260: 49b0 ae40 0dd0 1440 88c2 963f de25 5f40
00000270: 1395 243f 0fac 00bf 82d4 0bbf 3853 5d40
00000280: b12b 1d40 8d82 0540 8796 94bd a686 9a40
00000290: a83f 38bd ac51 053f 56d0 6d40 b200 9740
000002a0: 49a7 6f40 3188 fb3f ed34 2a40 9f5d 253f
000002b0: 1405 d5bd 04cb ecbe 1b9e d63f ca04 593e
000002c0: e89e 8dbf f514 11c0 e529 90bf bf5b d2bf
000002d0: 44d2 bf3f 3297 88be 22b3 673e 20a6 0ebf
000002e0: 4e55 1140 d437 1d40 331c 5840 0d34 e63e
000002f0: 0e6d d23f 8cdc 8240 00e1 1d3f 5d0f 7f3f
00000300: a3ba e4be 761f a1bf 5d35 353f 48bf c7be
00000310: fe07 38bf 1e8c 47bf 0573 b73e bb9a 7a3f
00000320: a22b 46bf a7ff e13d 6fac 013f 8ecb bb3e
00000330: ac2c 3abf 14c0 a33f c547 d53f 0f5d 7840
00000340: f08b e53f 6f11 823e 823b 2c3f 65ce e6be
00000350: a473 5fbe aea7 df3f 2f80 7e3f e2d9 013f
00000360: c82a 9b3e c689 30be d90b 2540 48df 0740
00000370: 1739 9040 af15 c940 1143 a640 022b 8e40
00000380: d6b3 ccbf 75d4 0ec0 e3fe 513f 1d5b 14bf
00000390: e4fb c7bf 9bf9 efbf e73f 08c0 8e41 bcbf
000003a0: cd0a 7740 8c42 a840 b383 8a40 9d0a 1540
000003b0: 59ce bdbd f37e 48bf 0270 9e3f fba9 91be
000003c0: dcbf 33be d6e8 ebbe e397 75be 5566 533e
000003d0: 416c 74be 3ed9 e43f ff43 973e b8c9 d3bd
000003e0: a5a7 b7be 64b7 0ebf 959b 143e 3bb1 9dba
000003f0: 8a1d bd40 fd0a a83f 9018 9c40 4d1b 0040
0.42598656 -0.19569881 1.1040083 0.31787995 4.6049657 6.036977 4.77781 4.212116
5.453855 2.2900264 5.069011 0.7855403 -1.0588382 -3.1397052 3.6392627 -2.4923632
5.4938016 4.5171967 5.3092403 2.3537312 0.37811387 -0.27867138 2.3518639 0.85584325
5.211644 5.808998 5.793771 3.9510336 0.34759387 3.5925288 -0.10835522 0.22302087
1.9902989 4.8066072 -1.233372 0.93080556 2.4101908 5.136326 3.4076905 2.640472
0.7686563 3.3950539 1.1970484 0.906688 -0.92730623 0.58709204 -0.89802206 -0.3152059
-0.7769717 0.92145187 0.1791028 0.49358076 -0.34697443 -0.9038105 -0.21673171 -0.18940471
1.4015731 0.5623484 4.65065 4.863614 -2.5715754 -2.151269 -0.12217992 2.7065284
-0.1967481 -0.17651424 1.601058 1.9480773 -1.8125936 -2.7318215 -0.4898797 -1.8029935
1.9538045 3.7856882 -0.26236537 0.05576753 -3.6829393 -3.4369025 -3.3865614 -2.6992412
2.5299077 4.5696306 1.5089887 2.4549778 4.3944097 1.7078245 -0.3561423 3.8292851
1.5763264 -0.3209169 2.1437473 0.7506095 0.8705071 -0.44031805 2.9799285 1.8405397
-2.4287252 -3.8981063 3.3804743 -4.3025966 5.571394 1.7909205 5.4237456 0.41482055
1.1580714 2.1849923 0.51061577 0.3974957 6.4494915 4.278744 6.0724916 3.2268145
1.3330532 3.0057209 2.335977 1.1303613 -1.3402777 -2.57594 -0.99909216 -1.1715686
3.001499 5.252444 1.3016778 2.2993877 -3.6474712 -3.2132666 -3.370285 -2.1410189
-1.146555 0.29783195 -0.745016 -0.51959115 -2.14849 -2.7505283 -2.065205 -2.2663546
5.305826 3.9942262 5.0944242 1.8173475 -1.598181 -2.4762704 -0.26564932 -0.91150486
-0.10421621 2.9814498 0.34444264 -0.40817678 7.475114 3.4850574 5.232978 4.2328897
5.459019 2.3251984 1.1778116 3.4866862 0.6428997 -0.5026254 -0.54621136 3.4582043
2.4557917 2.0860932 -0.07255273 4.8289366 -0.044982582 0.52077746 3.7158408 4.718835
3.7445853 1.9650937 2.6594803 0.6459598 -0.10401359 -0.4624864 1.6767 0.21193233
-1.1064119 -2.266904 -1.1262785 -1.6434249 1.4986043 -0.26677853 0.22626927 -0.55722237
2.2708316 2.4565325 3.3767211 0.44961587 1.6439531 4.089422 0.6167145 0.9963282
-0.44673643 -1.2587726 0.7078455 -0.39013124 -0.71887195 -0.77948177 0.3582994 0.9789235
-0.7741033 0.1103509 0.5065374 0.36678737 -0.72724414 1.2792993 1.6662527 3.8806798
1.793333 0.25403926 0.672783 -0.45079342 -0.21821457 1.7473047 0.9941434 0.5072309
0.30306077 -0.17240056 2.5788481 2.123003 4.506969 6.283897 5.195687 4.44275
-1.5992382 -2.2317173 0.8202955 -0.5795153 -1.5623746 -1.8748049 -2.1289003 -1.4707506
3.8600342 5.2581234 4.3285766 2.3287728 -0.09267873 -0.7831871 1.2377932 -0.28449997
-0.17553657 -0.46076077 -0.23983721 0.20644505 -0.2386942 1.7878797 0.29544064 -0.10341209
-0.3587009 -0.5574858 0.14512475 -0.0012030968 5.909856 1.3128353 4.8779984 2.0016663

conv_layers.4.bias f4 [32]
00000000: 3883 abbf 6cdf 0d40 bcc9 afbd 7020 24bf
00000010: 8beb b140 9a90 9a40 dcb1 6140 cbb9 5fbf
00000020: ac37 60bf a897 563f 422e 79bf dd1d 5e3f
00000030: 99a6 8cbf c051 2340 6807 833f 582a 86bf
00000040: b6ee 3940 5398 2a40 5403 3d40 ca7b 2b40
00000050: b458 93bf a371 4f40 cf42 7fbf bdb4 323d
00000060: 58c6 3b40 3abc 8140 bb20 9b40 710b 923e
00000070: 72d7 ccbe 3b52 1bbf a29c abbf 4b00 0bbf
-1.339942 2.2167616 -0.085834 -0.64111996 5.560003 4.8301516 3.5264807 -0.8739287
-0.8758495 0.8382516 -0.9733621 0.8676432 -1.0988342 2.5518646 1.0236635 -1.0481672
2.9051948 2.6655471 2.9533281 2.6794305 -1.1511445 3.2413108 -0.99711317 0.043629397
2.933981 4.054227 4.8477454 0.28524354 -0.40008122 -0.6067235 -1.3407176 -0.5429732

fc_state.0.weight f4 [256, 128]
00000000: 540c a4c0 3dd9 aec0 a304 0fc0 5451 86c0
00000010: 912a 46bf 2708 3740 dea3 533e 915d a7c0
00000020: ac44 8dc0 66c2 6a40 1ba3 81c0 0076 96c0
00000030: 1533 b3c0 6b9d ee3f 7181 90c0 0cd6 9ac0
00000040: 6bee c9be 23e6 7e40 2cba 3b40 d235 aac0
00000050: 9ace a73f 0ae8 9140 3123 6140 7ff4 a2c0
00000060: cfd9 13c0 0372 3140 43f3 f03f a734 b2c0
00000070: 30ed 91c0 d917 b3c0 1cb1 0ebf 6279 85c0
00000080: 0d87 bec0 0f24 c7c0 d4b4 87c0 3dd5 22c0
00000090: de5c d63f fe4e b0c0 8774 a1c0 00f2 7540
000000a0: c20f d0c0 8bc5 c9c0 c77c bec0 cd36 1ec0
000000b0: 9f0e 0b40 3e08 adc0 768e 95c0 4e4b 7b40
000000c0: 8e99 c6c0 4d2f c6c0 25a6 aac0 90ff 0ac0
000000d0: 40b3 8240 9c6f 9e40 6c32 0cc0 da58 2ac0
000000e0: 6d7c 5cbf 6c6b ff3e 90eb cc3f 11ca c4c0
000000f0: d8e9 bec0 63af ccc0 8715 a5c0 d5b1 70c0
00000100: 6d29 1f40 9229 5440 58ce 7cc0 df6e 3040
00000110: f842 6740 1c16 6f40 4984 42c0 0c42 8d40
00000120: c87a 3540 6695 4040 1a55 83c0 add8 6f40
00000130: c3dd 4b40 cbd3 aac0 1748 8bc0 d71a 8b40
00000140: f511 9ac0 82ea bcc0 6628 0ec0 4392 94c0
00000150: 5981 6c40 f195 2e40 f010 5cc0 defe 9040
00000160: 498b cbc0 54ff bac0 4ad5 cec0 0d8c 873c
00000170: 3ec2 93bd a48b b4c0 11f1 8dc0 6cb4 3d40
00000180: 3c1f 4840 dfc0 3d40 dba4 76c0 6ca8 7340
00000190: 4037 cfbe 75f4 aa40 4677 9140 5c66 8ac0
000001a0: 9fbe 3a40 a1a7 a1c0 2fc7 933f 2354 5d40
000001b0: 9f3d 3840 48f2 bec0 b7bc 8dc0 b68f 3840
000001c0: 67b9 a2c0 2d95 5240 fae8 7bc0 d818 8cc0
000001d0: ea34 d2c0 9476 c1c0 d7c4 b9c0 42e8 37bf
000001e0: 0111 a3c0 00ab c4c0 0f8f a0c0 0846 98c0
000001f0: 3009 87c0 d07f 9bc0 b11e 7a3f bfe3 4bc0
00000200: 64f6 acc0 411f b2c0 9454 0ec0 f7bf 8ac0
00000210: d202 3ebf 6c7a 3940 4545 8a3d 6771 b0c0
00000220: 741d 9ac0 1d73 8140 c4fe 90c0 dcda 9fc0
00000230: b631 b6c0 8954 f53f dd4d 9ac0 4def 9bc0
00000240: f19b a7be b885 8140 79ff 3940 e249 a9c0
00000250: 106d a03f 349f 9140 9d6b 7a40 fc5f adc0
00000260: 2627 1ec0 3e82 3f40 22bb 0140 45c5 b6c0
00000270: 854f 96c0 177c c1c0 14b7 09bf 716a 87c0
00000280: 8bd7 c1c0 1665 c9c0 dc97 89c0 6bab 2dc0
00000290: 50ac d93f 11d1 bbc0 d635 a7c0 333d 8540
000002a0: f748 cdc0 c9ac c7c0 75bc bac0 4913 26c0
000002b0: d174 0f40 b240 b5c0 2842 9bc0 35dc 8540
000002c0: 0540 cdc0 bbef cbc0 353c a9c0 745f 18c0
000002d0: 7b2a 8840 7b72 a640 328e 17c0 89f4 41c0
000002e0: a859 33bf 478f 193f 364b c43f aae0 c3c0
000002f0: cc42 c5c0 d533 d1c0 5d36 afc0 24c9 80c0
00000300: abcf 2040 13e2 5240 3134 7bc0 968b 3240
00000310: 5cfe 6d40 70a6 7b40 8cd3 50c0 6829 9240
00000320: 1cc1 3840 e9d8 4a40 5f9d 83c0 c3fd 8140
00000330: 6dee 5440 6b73 acc0 4b3a 91c0 bcea 8940
00000340: c550 9ac0 703c c5c0 c2b8 09c0 92a7 9dc0
00000350: 584d 7a40 9d24 3140 fb02 6ec0 9d7b 9540
00000360: 2c00 cbc0 f48b bec0 9945 cec0 3e94 833d
00000370: c931 133d 1248 bfc0 0302 93c0 ae8e 4240
00000380: 4728 5740 6cf4 4340 53ad 77c0 b50c 7e40
00000390: bc47 c7be 5c4b a740 74e4 9540 315d 8ac0
000003a0: 98bb 3a40 41a9 a3c0 17b7 9a3f d532 6440
000003b0: bd47 3840 860e bcc0 241a 96c0 cbc8 2940
000003c0: 402e aac0 5b43 5940 90fa 82c0 ca28 92c0
000003d0: a798 d3c0 e226 c9c0 7c7c c1c0 8718 35bf
000003e0: 0641 a8c0 3709 c9c0 8c01 a5c0 8a74 9bc0
000003f0: 833d 88c0 bc54 a2c0 1bbc 5a3f b3a8 49c0
-5.126505 -5.4640183 -2.234658 -4.1974277 -0.774087 2.8598726 0.20667979 -5.2301717
-4.414633 3.6681151 -4.0511603 -4.7019043 -5.5999856 1.864179 -4.515801 -4.838629
-0.3943971 3.9827964 2.933238 -5.31907 1.3109925 4.559575 3.517773 -5.0923457
-2.310169 2.7725837 1.8824238 -5.5689273 -4.5602036 -5.596661 -0.55739 -4.171067
-5.9539857 -6.2231517 -4.2408237 -2.544265 1.6747091 -5.5096426 -5.0454745 3.8428955
-6.5019236 -6.305364 -5.9527316 -2.4720948 2.1727674 -5.407256 -4.6736403 3.9264712
-6.2062445 -6.193274 -5.3327813 -2.1718483 4.084381 4.951124 -2.1905775 -2.661673
-0.8612736 0.49886644 1.6009388 -6.1496663 -5.9660454 -6.3964095 -5.158878 -3.760854
2.4869034 3.3150373 -3.9500942 2.756767 3.6134624 3.7357244 -3.039324 4.4143124
2.835619 3.0091186 -4.1041384 3.7475998 3.1854103 -5.3383536 -4.35255 4.3470263
-4.814692 -5.9036264 -2.2212157 -4.642854 3.6953948 2.7279017 -3.4385338 4.5311117
-6.3607526 -5.843668 -6.4635363 0.016546274 -0.07214783 -5.642046 -4.435677 2.964137
3.1269064 2.964897 -3.853812 3.8071547 -0.4047184 5.342341 4.5458097 -4.324995
2.9178846 -5.0517125 1.1545161 3.4582603 2.878761 -5.9670753 -4.4292865 2.8837714
-5.085132 3.290355 -3.9360948 -4.3780327 -6.568959 -6.045725 -5.8052783 -0.7183877
-5.0958257 -6.145874 -5.017463 -4.7585487 -4.2198715 -4.859352 0.9770308 -3.1857755
-5.405077 -5.566315 -2.2239122 -4.335933 -0.74223053 2.898097 0.06751493 -5.513843
-4.8160954 4.045302 -4.5310993 -4.995466 -5.693568 1.9166423 -4.822005 -4.8729615
-0.3273616 4.047573 2.9062178 -5.290269 1.2533283 4.550684 3.9128182 -5.417967
-2.4711394 2.9923244 2.0270467 -5.7115808 -4.697207 -6.0463977 -0.5379498 -4.2317433
-6.0575614 -6.2935896 -4.2997875 -2.7135875 1.7005711 -5.869271 -5.225322 4.1637206
-6.415157 -6.239842 -5.835505 -2.594927 2.241505 -5.6641474 -4.8518257 4.1831307
-6.414065 -6.373014 -5.2885995 -2.380826 4.2551856 5.2014747 -2.368054 -3.0305502
-0.7005868 0.5998425 1.5335453 -6.121175 -6.164404 -6.537577 -5.475386 -4.0245533
2.512675 3.2950485 -3.9250605 2.7897696 3.7186499 3.9320335 -3.2629118 4.5675545
2.8867865 3.1694891 -4.1129603 4.062227 3.3270524 -5.389089 -4.538366 4.309904
-4.8223596 -6.1636276 -2.1519017 -4.9267054 3.9109707 2.7678597 -3.718932 4.6713395
-6.343771 -5.954584 -6.445996 0.06424759 0.03593615 -5.9775476 -4.5939956 3.0399585
3.3618333 3.0617933 -3.8699539 3.9695256 -0.38921916 5.227949 4.6841373 -4.323876
2.9176998 -5.114411 1.2087125 3.5656025 2.8793786 -5.876773 -4.690691 2.6528804
-5.3181458 3.394736 -4.0930862 -4.567479 -6.6123843 -6.2859964 -6.046446 -0.7074055
-5.2579374 -6.282375 -5.156439 -4.857976 -4.2575088 -5.0728436 0.85443276 -3.1509216

fc_state.0.bias f4 [256]
00000000: 3fc5 a43f 9512 a43f 610e 8ebe 3454 8f40
00000010: f807 a03e 99f1 1f3f 9abb d73e b94a 9d3f
00000020: f594 a33f 125b 7040 6ff6 a93f 61b3 a83f
00000030: 8171 f33f 7555 983f 27db a03f 5b7f b73e
00000040: a256 a140 8b22 a73f f779 993f 660c 993f
00000050: a37b d8bf 9958 953e 04d0 453e c9b3 b13e
00000060: 35c2 9c40 cb59 a53f e966 60be ac22 cd3d
00000070: 1bbc 44bf 5afd 8c3f 83ad e03e 9360 b540
00000080: 9a0a 8e3f 6c2c aa3f bf2e a43f 5796 8e3f
00000090: bbc4 a03f 12bd 9e3f d7b0 963f e313 923f
000000a0: 8b17 953f c0ed b03f 0214 a33f 2392 e53e
000000b0: ccde c03e a328 9d3f d646 aa3e 129f 1fbe
000000c0: 2bcc 263f ad38 903d 0c1f ac3f ef6b 9d3f
000000d0: 1f16 373d 8295 9a3f 5b05 c540 8487 a33f
000000e0: 5e76 3bbd b511 963f b8b8 9d3f 1a78 873f
000000f0: 6110 9a3f 47e5 a83f f402 a6be ba20 8b3e
00000100: 1f7c 363f d157 4abe 0db8 a43f 4163 5240
00000110: 722a 883f d15e 9b40 ef8a aabd a483 bc40
00000120: 4272 893f 8452 ab3e 5254 ab3f 66c1 fd3e
00000130: a6d5 bf40 a73a c73e 48f8 093f 1b17 703e
00000140: a699 823e 57ff 8e3f 3646 9c40 29ae af3f
00000150: fb27 ad40 f5c2 9b3f 5445 a13f 1d2b b440
00000160: 7e92 083f 33ca 8d3f 6d32 fb3e bf54 aa3f
00000170: 2d4b d13e 4215 be40 7069 a23e fd93 9c3f
00000180: 3795 b2bd 5f1e 033e f4f6 9cbd e5ea 90bf
00000190: 681c a13f d49b 8f3f 3de5 073f e354 933e
000001a0: b05d 983f 6252 a23f 572f 9e3f ad6d c23e
000001b0: 7115 8940 2793 a43f 68a5 8f3f a322 a13e
000001c0: aba1 c9bd 15e2 783e 90e5 a13e 656b 913f
000001d0: 32bc 0040 54ed ac3f 1086 373f b76f a640
000001e0: 5b51 423e 6d38 a83f 6ba9 b83e e653 9f3f
000001f0: 9ed2 943f 9139 3b3f 2e13 a43f 3726 9f3f
00000200: 0d61 a73f 6fed c33e d51a b33e ba3f 6540
00000210: ad47 873e 3882 9b3f 7e1d 8d3f 9782 293f
00000220: b7d1 9c3f aaf5 b23d c253 a23f 230a ae40
00000230: 2f01 de3e 63d0 4c3f b9fd 2cbd 25bc a53f
00000240: c655 3cbd 5fd6 a33f 106e ad40 6e04 b140
00000250: f5d8 273e a7b5 a53f a0d0 933f 7676 a83f
00000260: 053c cfbe 2673 12be d33a 8540 a6c3 9d3f
00000270: 5df7 f23f 160f 27bd a6f9 ab3e 4546 053f
00000280: 6e08 353e 3b86 fc3d 8d74 673e 12f2 553f
00000290: d202 a140 3b6e 98bf 532d 5ebf 941e 9d40
000002a0: e876 bd40 dad4 3d3f 3cad 9a3f 3d00 933d
000002b0: 1268 da3f a567 89bf 49f9 d43e eebe a83f
000002c0: 42c0 c13e cc5b 713e 6d2e 343f a0ac 8940
000002d0: 3efc bc40 5492 b740 e23f 053f af29 cf3e
000002e0: 4041 223e 520f a93f 6585 f13d f5d9 d8bf
000002f0: 1573 8c40 f0d6 a83f e730 d73f 0d76 a43f
00000300: 9dfc a73f 8af6 d4bf 974c 933f c441 c440
00000310: 56c2 a4bd 37c7 a8bf b7cb 9b3f 4ae0 2cbe
00000320: 9a3c a73f ec60 9f3e b858 93bd 103f 1c3f
00000330: 0c85 9c40 f0a3 963f ad23 ff3e 821d 993f
00000340: b1fe 4bbf e829 a83f 04e9 8e3e f8dc a2bd
00000350: 8f66 83bd cc15 8e3d b014 983f 2913 c740
00000360: 16a1 173f f87a b73e f808 a23f 783a 5439
00000370: fa3e 303f e9a6 f53e 1f72 a63e d22b 9b3f
00000380: d99b c6bd ce86 ae3f 4ff9 ca3e 1cd4 c33c
00000390: c2e9 ab40 ed78 6e3e 4b05 8f3f 6e05 973f
000003a0: c2b0 1fbe a965 9bbf 06a0 ab3f 4294 9740
000003b0: 4691 8d3f 546a 3a3f 06c4 933e c131 8c3f
000003c0: b974 043f f546 a73f eb62 a53f ba9d 973f
000003d0: f6bf 993f c103 8d3f dd7a 983f 758e 443f
000003e0: e6e2 ab3f 3165 363e ddea a53f c98a 9a3f
000003f0: 0dff 943f 3bf7 893e af60 913f e5f3 a63f
1.2872695 1.2818171 -0.27745345 4.4790287 0.3125608 0.62478024 0.42135316 1.2288429
1.2779833 3.7555585 1.327833 1.3179742 1.9019014 1.190108 1.256688 0.35839352
5.0418253 1.3057417 1.1990346 1.1956909 -1.6912731 0.29169157 0.19317633 0.34707478
4.898707 1.2918028 -0.21914257 0.10016379 -0.76849526 1.1014817 0.4388238 5.668039
1.1096985 1.3294806 1.2826766 1.113963 1.2560037 1.240145 1.1772717 1.1412319
1.164781 1.3822556 1.2740481 0.44838056 0.3766998 1.2278026 0.3325717 -0.15588024
0.65155286 0.0704206 1.3446975 1.2298564 0.04469883 1.2076876 6.1569037 1.2775731
-0.04576718 1.1724154 1.2321997 1.0583527 1.2036248 1.319497 -0.32424128 0.27173406
0.71283144 -0.19760062 1.2868668 3.287308 1.0637953 4.8553243 -0.08327281 5.8910694
1.0737994 0.33461392 1.3385108 0.49561614 5.99483 0.38911936 0.5389447 0.23446314
0.2550785 1.1171674 4.8835707 1.3725024 5.4111304 1.2168871 1.2599282 5.630263
0.5334853 1.1077331 0.4906191 1.3307112 0.40877667 5.940095 0.31721067 1.2232662
-0.08719867 0.12804554 -0.0766429 -1.1321684 1.2586794 1.121943 0.53084165 0.287757
1.1903591 1.2681391 1.2358197 0.379743 4.2838674 1.2857407 1.1222353 0.31471738
-0.09845289 0.24304993 0.31620455 1.1360899 2.0114865 1.3509927 0.7168894 5.201137
0.18976347 1.314222 0.36066756 1.2447479 1.1626775 0.73134714 1.2818353 1.2433537
1.3076493 0.38267085 0.3498141 3.5820146 0.26421872 1.2149115 1.1024625 0.6621489
1.22515 0.08738263 1.2681811 5.4387374 0.43360278 0.8000547 -0.042234156 1.2948042
-0.045980237 1.2799796 5.4196854 5.5317907 0.16391356 1.2946061 1.1548042 1.3161151
-0.4047548 -0.14301738 4.1634307 1.2325332 1.8981739 -0.04078587 0.33588904 0.5206035
0.17678997 0.1233029 0.22603054 0.83572495 5.0315943 -1.190864 -0.8678791 4.9099827
5.920765 0.7415291 1.2084117 0.0717778 1.706301 -1.0734755 0.4159644 1.3183267
0.37841994 0.23570174 0.7038334 4.3023224 5.9057913 5.7366123 0.520506 0.4046149
0.15845203 1.32078 0.11793021 -1.6941515 4.389048 1.3190594 1.6811799 1.2848526
1.3123966 -1.6637738 1.1507748 6.133028 -0.08044879 -1.3185796 1.2171544 -0.16882434
1.3065369 0.31128633 -0.07194656 0.61033726 4.891241 1.176878 0.49831906 1.196213
-0.79685503 1.3137789 0.27912152 -0.07952303 -0.06416046 0.06937751 1.1881313 6.221089
0.5923017 0.35836005 1.2658987 0.00020239677 0.68846095 0.47978905 0.32508942 1.2122748
-0.09697694 1.3634889 0.39643332 0.023904853 5.372285 0.23288317 1.117349 1.1798532
-0.15594772 -1.2140399 1.340821 4.736848 1.1059959 0.72818494 0.28860492 1.0952684
0.51740605 1.3068529 1.2920812 1.1845009 1.2011707 1.1016771 1.1912495 0.7677987
1.3428619 0.17812039 1.29623 1.2073604 1.1640335 0.26946434 1.135763 1.3043181

fc_state.2.weight f4 [64, 256]
00000000: 3984 f5bf 2f66 03c0 8feb 583f e6c0 fe3f
00000010: e945 5dbf 6129 643d 03a8 153e a041 fdbf
00000020: c215 27c0 a842 d53f bcd2 c5bf 1304 cebf
00000030: 437a 0040 cba0 f6bf 15f8 ebbf 4e90 fa3d
00000040: 8fcb d43f 8f4a edbf b8de f3bf 0164 f3bf
00000050: 3955 a040 10f6 013e 58cc 9f3d 979d 493e
00000060: 13b3 0b40 0c31 00c0 c0bd c13e 43fd 393e
00000070: d02b 9840 1674 04c0 2443 7dbf ebac dd3f
00000080: 8a43 16c0 c006 ddbf 09ae f6bf fa57 0bc0
00000090: 0651 ffbf 2e3d 08c0 893a 14c0 e88d 03c0
000000a0: a9bc 14c0 fbf6 d2bf 8a88 c8bf cca5 b03d
000000b0: 9bab 453d fcb8 f0bf 5f3a 75bf 9725 6f3e
000000c0: ecd9 0eba 24b9 0cbe a239 e3bf e5b4 08c0
000000d0: 2701 1abf 704a dbbf af85 fc3f 2492 f2bf
000000e0: 0008 5f3e ffae 01c0 e4a2 0fc0 f424 0ac0
000000f0: 4cd6 10c0 f3fb e4bf 1951 bc3e 6bd5 d13d
00000100: ab77 fd3d e56c d13e 8d24 a1bf 0ca6 893f
00000110: dbc6 10c0 ec4f e63f 51f1 1dbd 45df 0140
00000120: 132c 18c0 7753 e23d 7f92 f5bf d754 d23d
00000130: 38b1 0740 b576 fc3d 4e96 543d 70d7 9bbf
00000140: 657a 9b3d 55f0 18c0 1c81 af3f 5855 e3bf
00000150: 5eae 0a40 ac58 0bc0 56a7 e3bf b610 0940
00000160: b207 9fba e096 16c0 8908 5d3d db02 dbbf
00000170: 8f31 b03d 4c8e 0340 95c6 2b3e 355d eabf
00000180: 4c98 6a3e 2a8f 363e 4ce2 b73f b1d9 2240
00000190: 3ad4 fabf e0b2 18c0 ef2d 503e 0f2c 6abf
000001a0: e414 e8bf 8909 ebbf b553 fdbf 1f29 64bf
000001b0: 714f d03f d64e 05bf 6154 07c0 6a10 6a3e
000001c0: 3fa3 b8bc eb3d b43d c17b 4fbf 8d8e 02c0
000001d0: da9b 4240 56fb 98bf a7d1 a03d da98 0440
000001e0: f1c0 0a3e 8b34 00c0 7c9f ca3d 546d e3bf
000001f0: 7523 e8bf 427b c33c 09f1 ebbf 30f0 97bf
00000200: 5b97 f9bf f769 313e 0e92 8fbf 14f3 e13f
00000210: b7b2 183e e74a 29c0 c034 ffbf 171a 133e
00000220: 8ac0 06c0 9ac6 c13d 4596 e9bf bbb3 0540
00000230: 0a28 9b3d 646f fe3d 7c5d 043e b7bc e7bf
00000240: 87d6 89be 1e1f f9bf 59ff bb3f b687 d33f
00000250: 8b01 fa3d 7eea dfbf 82c1 fabf 4088 88bf
00000260: 183a a93f 6bb2 533e c7b2 ef3f 2542 0fc0
00000270: e4ca 6440 5170 613e 7a55 383e e8df cb3d
00000280: f132 203e 5ab7 da3c e880 3e3e ed8c eb3d
00000290: a4c1 1140 2920 9840 a1e3 e13f b2a9 c63f
000002a0: 9fb5 e93f c5d8 b33d eeae fabf 62bc 623e
000002b0: e2c9 503f 9d31 6440 f38f 733d 96a1 00c0
000002c0: 0cda 873d 39cf 293e fbf3 3a3d ce3a f03f
000002d0: 6e58 ec3f 610e ed3f e842 cb3d 32c1 7bbf
000002e0: 4c03 de3d 228d adbf cf03 273e 5172 9c40
000002f0: 1125 0d40 e13e 0dc0 3fb3 9240 22c5 f6bf
00000300: 859f e3bf a8ae 8f40 81fc 07c0 db9c 0140
00000310: 431e 90be b10a 8940 2987 eebf b44a a03e
00000320: 8fa3 f5bf 7fc2 183e 1702 c3be 6c69 193e
00000330: 2eed 0940 bc5e 01c0 d76a fd3d be96 dcbf
00000340: cdf5 c13f 3a5e dfbf db6a be3d 8b57 833f
00000350: c44f 893e 1833 14be d8c7 f0bf 990b eb3f
00000360: 3177 173e e09e 093e 0ab4 e1bf 8594 083e
00000370: f147 693d 85e8 4e3d fc79 1f3e 5e79 ebbf
00000380: 9fe4 01bf b187 a53e 0a6f f63d ad9d fbbb
00000390: 9483 0c40 a418 413e 1136 0fc0 3b1c 17c0
000003a0: 4d9d 2a3e 1d16 9740 6519 f1bf 9287 ff3f
000003b0: ee61 0dc0 673b 213e 1df2 2b3e 5405 e8bf
000003c0: 1c91 9f3d b08f 9ebf 7b75 eabf 5ff4 d9bf
000003d0: 97a4 ccbf 044b 1bc0 fadf 33c0 2579 1d3e
000003e0: 50c8 e6bf 1528 173e f0ed 03c0 302b fbbf
000003f0: b52b 03c0 6ae6 183e 5f25 0ac0 e040 00c0
-1.9180976 -2.0531118 0.84734434 1.9902618 -0.864348 0.055703525 0.14614873 -1.9785652
-2.610703 1.6660967 -1.5454936 -1.6094993 2.0074623 -1.926782 -1.8435084 0.12234555
1.6624621 -1.8538378 -1.9052343 -1.9014894 5.010403 0.12691522 0.07802647 0.19689022
2.1828048 -2.0029936 0.3784008 0.18163018 4.755348 -2.0695853 -0.98930573 1.7318395
-2.3478723 -1.7267685 -1.9271861 -2.1772447 -1.9946601 -2.128734 -2.3160727 -2.0555363
-2.324015 -1.6481622 -1.5666668 0.08625373 0.04825936 -1.8806453 -0.9579219 0.23354183
-0.0005449343 -0.137425 -1.7751963 -2.136041 -0.6015801 -1.7132092 1.9728297 -1.8950849
0.21780396 -2.026306 -2.244317 -2.1585054 -2.2630796 -1.7889389 0.36780623 0.10245784
0.123763405 0.40903392 -1.258928 1.0753798 -2.2621372 1.799314 -0.038560215 2.0292523
-2.37769 0.11051076 -1.9185332 0.10270088 2.1201916 0.12327329 0.051901154 -1.2175121
0.07591704 -2.3896687 1.3711276 -1.776042 2.1668925 -2.177287 -1.7785442 2.141645
-0.0012133031 -2.3529587 0.053963218 -1.7110246 0.086032026 2.05556 0.16774972 -1.8309695
0.22909659 0.1782805 1.4365935 2.5445368 -1.9596016 -2.3859177 0.20330022 -0.9147348
-1.8131375 -1.8362285 -1.979117 -0.89125246 1.6274244 -0.5207342 -2.114525 0.22857824
-0.02253878 0.088008724 -0.8104821 -2.0399506 3.0407624 -1.1951702 0.07852488 2.0718293
0.13550164 -2.003207 0.098937005 -1.7767739 -1.8135821 0.023862485 -1.8432933 -1.1870174
-1.9499315 0.17325579 -1.1216447 1.7652307 0.14911924 -2.6451967 -1.9937973 0.14365421
-2.1055017 0.09461708 -1.8248984 2.0890949 0.07575996 0.1242359 0.12926286 -1.8104466
-0.26921484 -1.9462621 1.4687301 1.6525791 0.122073255 -1.7493436 -1.9590304 -1.066658
1.3220854 0.2067353 1.8726434 -2.2384121 3.5748835 0.22015502 0.18001357 0.09954816
0.15644433 0.026698757 0.18603861 0.11501489 2.277444 4.753926 1.7647592 1.5520537
1.8258551 0.0878158 -1.9584634 0.22142175 0.8155805 3.5655282 0.059463453 -2.0098624
0.06633386 0.16582955 0.045642834 1.8767946 1.8464487 1.8520013 0.09924871 -0.9834167
0.108404726 -1.3558695 0.16310047 4.8889546 2.2053874 -2.2069628 4.5843806 -1.927891
-1.7783056 4.4900703 -2.1247866 2.0251987 -0.28148088 4.282555 -1.8634998 0.31306994
-1.9190539 0.14917944 -0.38087532 0.14981622 2.1551013 -2.0214071 0.12373894 -1.7233503
1.5153137 -1.7450631 0.09297725 1.0261091 0.2681867 -0.14472616 -1.8810987 1.8362914
0.14791562 0.13439512 -1.7633069 0.13337906 0.056953374 0.050514717 0.15573877 -1.8396413
-0.50739473 0.32330087 0.12032898 -0.0076787085 2.195531 0.18857056 -2.237675 -2.361098
0.16661568 4.7214494 -1.8835875 1.9963248 -2.2091022 0.15745316 0.16791578 -1.8126626
0.07791349 -1.23876 -1.8317102 -1.7027701 -1.5987729 -2.4264536 -2.8105454 0.15378244
-1.802988 0.14761384 -2.0613976 -1.9622555 -2.0495427 0.14931646 -2.158531 -2.0039597

fc_state.2.bias f4 [64]
00000000: d915 cd3e d25e c43e fc10 043f f260 7cbd
00000010: d2f6 d33e 5546 c43f 6026 043f fc6d 973e
00000020: 0f49 073f 3dec 0f3f 602a ad3e 4096 0d3f
00000030: e30d 063f 2d33 0e3f 0144 063f 42af 9b3e
00000040: f30a 49bd a061 0c3f 62a6 b83e f2da fe3e
00000050: cde4 033f 7cc4 943e 1be4 f83e f1b7 9cbd
00000060: 79f7 d33e 398f 983e fe72 0f3f 9052 f73e
00000070: 36aa 0c3f 06b3 943e 6563 f03e 4dbb 8e3e
00000080: c1d6 e83e 1d93 0f3f 561e 9f3e 0516 a03e
00000090: 68ed 9f3e d0d8 093f ed13 e23f 31bc fe3e
000000a0: 6e09 efbc 32d9 0f3f 6220 bb3e d6a3 153f
000000b0: 3442 d33e 8f77 c33e b9ee cf3e 067f cb3e
000000c0: 67d7 8e3e 261f c13e fd30 b13e b294 f03f
000000d0: dbc1 e13f 9b9e 06bd edb1 083f 99cf 003f
000000e0: 7fb5 023f f1f1 143f ef42 073f 3fab 8339
000000f0: 3283 d03e 33e0 0c3f 7d6d 0f3f 56fc dbbb
0.4005573 0.38353592 0.51588416 -0.06161589 0.41399246 1.5333964 0.51621056 0.295761
0.52845854 0.56219846 0.33821392 0.5530739 0.5236494 0.5554684 0.52447516 0.3040715
-0.049082708 0.54836464 0.3606444 0.49776417 0.51521 0.29056156 0.4861153 -0.076522715
0.41399744 0.2979677 0.5603484 0.48305178 0.5494722 0.29042834 0.46950832 0.27877274
0.45476344 0.5608385 0.31077832 0.312668 0.31235814 0.53846455 1.7662331 0.49752954
-0.029179301 0.5619079 0.36548144 0.5845312 0.41261446 0.38177153 0.40611818 0.3974535
0.27898714 0.37719077 0.34607688 1.8795378 1.7637285 -0.0328661 0.53396493 0.5031677
0.5105819 0.58181673 0.5283651 0.00025113855 0.40725094 0.550296 0.5602644 -0.0067134304

fc_state.4.weight f4 [1, 64]
00000000: caa6 07c0 1efa 07c0 75a6 0341 a1ec ce3c
00000010: f6d3 09c0 bb0c 2441 78e0 0441 23c6 8b3f
00000020: 94e5 0441 82c0 0441 a3e2 05c0 3d89 0541
00000030: 15b6 0641 cf65 0641 6392 0341 a780 973f
00000040: 7696 583c c424 0441 ece1 05c0 ae4b 0341
00000050: e932 0341 e3ba 03c0 33b3 0341 5a0d 873d
00000060: 49a7 0ac0 b0ad 0dc0 790f 0541 439f 0241
00000070: 596a 0541 377b 31c0 a278 0241 52a1 0ac0
00000080: b75e 04c0 0378 0441 3830 04c0 f3d5 03c0
00000090: 2c51 18c0 75b1 0441 860c 4341 bbc6 0241
000000a0: e03a 783d 5a93 0441 9f68 08c0 8d97 0341
000000b0: 6eaa 08c0 5759 0cc0 baf8 0cc0 7122 05c0
000000c0: 7522 29c0 5f2f 0ac0 fc0d 08c0 3864 3541
000000d0: f067 4041 b8ae d93d c85d 0341 9bb7 0241
000000e0: a016 0541 f225 0341 98b5 0341 6421 22bb
000000f0: 25ae 03c0 4761 0241 6d9a 0541 3b0e 0dbe
-2.119555 -2.124641 8.228139 0.025259318 -2.153562 10.253108 8.304802 1.0919842
8.306049 8.296999 -2.0919578 8.346005 8.419454 8.399856 8.223239 1.1836137
0.013219466 8.258976 -2.0919142 8.2059765 8.199929 -2.0582817 8.23125 0.065943435
-2.1664603 -2.213726 8.3162775 8.163882 8.338464 -2.7731454 8.154451 -2.1660962
-2.068281 8.2793 -2.065443 -2.0599334 -2.3799543 8.293324 12.1905575 8.173518
0.060603023 8.2859745 -2.1313856 8.2245 -2.1354022 -2.1929529 -2.202681 -2.0802271
-2.642728 -2.1591413 -2.1258535 11.336967 12.025375 0.10629028 8.210396 8.169826
8.318024 8.196764 8.231834 -0.002473914 -2.057504 8.148749 8.350202 -0.1377496

fc_advantage.0.weight f4 [256, 128]
00000000: 388e 93c0 b887 9fc0 5656 8fbe 7bdf 38c0
00000010: dc5c 903f a105 3f40 1040 b83f 366b 87c0
00000020: 7245 eabf 1a30 7440 9f1e f3bf f882 58c0
00000030: 652e 35c0 a9e9 2b40 12f8 17c0 f210 67c0
00000040: cb3a ab3f 7955 6b40 ee80 4440 781c 88c0
00000050: 57b2 0440 9d05 8140 b78a 4f40 2bc9 85c0
00000060: 4ec9 05bf cab4 4040 cab6 1b40 59b1 88c0
00000070: a6a4 88c0 48bb b7c0 eda7 5c3f 4cb7 32c0
00000080: 4b29 abc0 e5bf b7c0 05e7 f6bf 8d62 b4bf
00000090: 808c 0540 f250 95c0 0c47 3cc0 bbb0 7040
000000a0: d6d7 aac0 cc3c b5c0 aa0d 82c0 faa3 e6bf
000000b0: 7ecc 1040 f87c 91c0 56b9 2bc0 c5a3 7140
000000c0: 44f6 a9c0 6d8e b9c0 d253 55c0 8a19 9abf
000000d0: 4df4 8240 9976 9140 b592 ecbe 3e9e d6bf
000000e0: a2fa 193f df05 af3f f147 0540 5ce7 a0c0
000000f0: 4207 a0c0 ed1c b5c0 4aa6 5dc0 08b5 4dc0
00000100: 66c0 4040 2d22 6140 194c d1bf ec9a 4840
00000110: ca3e 6640 9726 6340 7d55 a1bf aae7 8640
00000120: 609a 5440 dfa2 4640 86fc dabf 47d1 7340
00000130: 8191 4740 233a 94c0 2edc 11c0 6238 8140
00000140: 7d8c 8ac0 2f34 b8c0 704d b1be f805 68c0
00000150: c268 6640 8240 2940 7a63 8ebf ff42 8140
00000160: b34e adc0 2f63 a7c0 5f5d 92c0 5f20 893f
00000170: 1fac 1e3f e1e9 a1c0 975c dfbf 1407 4e40
00000180: 67a6 5640 e4c6 4b40 2f1e c7bf 26fb 7840
00000190: f366 4d3f 1642 9140 5d9c 7f40 a359 52c0
000001a0: a7f6 2540 3645 87c0 3161 fa3f f057 6340
000001b0: c646 3d40 0c1d a3c0 2378 47c0 a095 4240
000001c0: ecf6 17c0 f343 5840 5e20 c1bf 8693 36c0
000001d0: f3f5 adc0 73fb b5c0 0ebd 71c0 db01 313f
000001e0: 9016 62c0 d3a6 b4c0 3960 79c0 9942 8ac0
000001f0: 69df 74c0 74d2 a1c0 dffa fb3f 3867 96bf
00000200: 0ad1 9640 7f6c a640 1dc5 f83f 762b 5b40
00000210: 1f1d 883f a9a0 e1bd 1b1a 4f3f 199b 8c40
00000220: 6d81 4740 c103 56bf 516e 1040 f23b 6440
00000230: e199 6e40 87b7 aa3e 6521 4740 01d6 7f40
00000240: faf6 853f 588c 40bf 707f a2be b3e3 8e40
00000250: 521f 9f3e 6a4b 9fbf cc6e 3bbf 881b 9040
00000260: 00d7 fa3f 57e6 57be 57c2 d23d 0ece 8840
00000270: 4df6 8240 9b2e b840 927c c43f cc85 6340
00000280: 3ece af40 e78e bd40 8474 4c40 579d 3340
00000290: 29b0 353f 685f 9740 b327 3d40 1d4c 80bf
000002a0: 547b b140 d067 b740 59ed 8a40 d55b 2f40
000002b0: ad6e 183f 9a49 9940 1cc7 3840 e5ef 64bf
000002c0: 05fa aa40 ae99 b340 e5d1 7040 c08c 2140
000002d0: 528b 11c0 e14d c5bf 47f9 b43e e742 0b40
000002e0: 14b9 cd3f 85d2 ad3f 658b 273f 7aba 9e40
000002f0: a239 b040 addf ba40 b774 7e40 afd2 6640
00000300: 3beb a7be 7c26 06bf d197 d63f 829a b2be
00000310: ee27 5ebf c6f7 5dbf e30f b23f c7e9 99bf
00000320: 5984 18be d942 88be 2b95 f43f 2419 83bf
00000330: 84c1 dfbd 6dd1 9940 00d1 3540 a885 8ebf
00000340: aac4 8a40 cbd3 ba40 bb7a 0e40 2c1a 8340
00000350: e96a 2dbf 552b acbd a135 c43f 94a8 afbf
00000360: fe27 ac40 6240 a540 a1e7 8840 1136 ab3f
00000370: 13b9 b33f 5271 9b40 1afd 2040 c1bd 51bf
00000380: 0d69 cbbe e48c 84be 20c6 d83f b0c9 53bf
00000390: 4be3 113f bdd3 e7bf 3b78 c1bf 799d 3f40
000003a0: 6c3c c83e a2cc 8b40 1578 0b3f 5fcd 12bf
000003b0: 5d9a e13d a0c3 a440 3714 4840 c2e4 6abe
000003c0: 9ba5 5d40 f21e 32bf f7ec 0340 08a5 3440
000003d0: a4b1 a240 47e4 bb40 e63d 8540 790e c93f
000003e0: 151c 9740 602a b940 04ba 7740 8731 8b40
000003f0: 2256 8c40 e838 9c40 048b 163f 40d3 3d40
-4.6111107 -4.985317 -0.27995557 -2.8886402 1.1278338 2.9847186 1.439455 -4.2318373
-1.8302443 3.815436 -1.899372 -3.3829937 -2.8309567 2.6861365 -2.374516 -3.6104093
1.3377317 3.6770918 3.0703692 -4.253475 2.073385 4.031935 3.2428415 -4.1808066
-0.5226029 3.0110345 2.4330316 -4.271649 -4.2700987 -5.7416115 0.86193734 -2.7924376
-5.3487906 -5.7421746 -1.9289252 -1.4092575 2.0867004 -4.666131 -2.9418364 3.7607868
-5.338847 -5.6636715 -4.064168 -1.8018792 2.2624812 -4.546505 -2.683187 3.7756207
-5.3113117 -5.798636 -3.333241 -1.2039044 4.092322 4.5457273 -0.4620568 -1.6767042
0.6014806 1.3673667 2.082516 -5.028242 -5.000886 -5.659781 -3.4632745 -3.2141743
3.011743 3.517711 -1.6351348 3.1344557 3.5975823 3.5492303 -1.2604214 4.2157793
3.3219223 3.1036909 -1.7108314 3.8096483 3.1182559 -4.632097 -2.2790637 4.0381327
-4.3296494 -5.75637 -0.34629393 -3.6253643 3.600144 2.6445622 -1.1124108 4.039428
-5.415857 -5.2308574 -4.573898 1.0713004 0.61981386 -5.0597997 -1.7450131 3.219182
3.3539064 3.1840143 -1.5556086 3.890329 0.80235213 4.539317 3.9939187 -3.286721
2.5931795 -4.2271986 1.956091 3.5522423 2.9574447 -5.0972958 -3.1167076 3.0403824
-2.374446 3.3791473 -1.5088003 -2.852754 -5.436273 -5.6869445 -3.777164 0.69143456
-3.532627 -5.6453643 -3.896498 -4.3206296 -3.8261359 -5.05694 1.9685935 -1.175025
4.7130175 5.200744 1.9435154 3.4245276 1.0633887 -0.110169716 0.8089921 4.393933
3.1172745 -0.8359948 2.2567332 3.5661588 3.728142 0.33343145 3.1114132 3.9974368
1.0465996 -0.7521415 -0.31737852 4.4652953 0.31078583 -1.244489 -0.7321594 4.5033607
1.9596863 -0.21083961 0.10290974 4.275153 4.092566 5.755689 1.5350516 3.5550413
5.493926 5.923694 3.1946115 2.8064783 0.70971924 4.7303963 2.955548 -1.0023228
5.5463047 5.7314224 4.341473 2.73998 0.5954388 4.7902346 2.8871527 -0.8942855
5.34302 5.6125097 3.762811 2.5242157 -2.2741284 -1.5414392 0.35346434 2.1759584
1.6072106 1.357987 0.65447074 4.9602633 5.5070353 5.839804 3.9758737 3.606609
-0.32796654 -0.5240247 1.6765081 -0.34883505 -0.8677968 -0.867062 1.3911098 -1.2024468
-0.14894237 -0.266135 1.9108022 -1.0242047 -0.10925582 4.8068147 2.8408813 -1.1134539
4.336507 5.8383536 2.2262409 4.096945 -0.67741257 -0.084067024 1.5328866 -1.3723321
5.379882 5.164109 4.278275 1.3375875 1.4040855 4.857583 2.515448 -0.81930166
-0.39728585 -0.2588874 1.6935463 -0.82729626 0.56987447 -1.8111492 -1.5114816 2.9939864
0.39108598 4.3687296 0.54480106 -0.5734462 0.110157706 5.14888 3.1262338 -0.22938827
3.4632328 -0.6957847 2.0613382 2.8225727 5.0841846 5.871616 4.163806 1.5707542
4.722178 5.7864227 3.8707285 4.349796 4.3855143 4.8819466 0.5880587 2.9660187
