data/Torch/Dueling/003_Big-CNN_E_L/checkpoints/weights_2000episodes.pth (torch, 505343 bytes, 17 tensors)

conv_layers.0.weight f4 [64, 1, 3, 3]
00000000: a765 993e 5c96 843e a5cf 0cbe 88ea 9c3e
00000010: 4dfe dbbd b507 003d 4201 41be 1430 2a3e
00000020: bf41 8c3e e872 b3be d882 8b3e 3cdb 0f3d
00000030: 7a43 5f3e 2518 173c ca88 053e aa94 a9bd
00000040: f8fe 7a3e ce15 103c ac42 5cbe 8135 f63d
00000050: 41bf edbd b683 6fbc deb8 3dbe 8f6b a43e
00000060: 22fe 49be 35ef 5dbe 1212 f8bd a4b7 74be
00000070: 28df f83c e18c a5be 230b a63e 86dc 90be
00000080: 37e3 903e 6ee2 7b3d ee97 a1bd 9e68 773e
00000090: 924e 2d3c 2863 833e c931 c83c 89af 08be
000000a0: c49b 883d eed3 eebd ece3 0e3e 1a68 953e
000000b0: 1101 393e 4a38 27be b9c0 8c3e 5bfb f53d
000000c0: f5a8 6b3e 01ad 17be d1ce 89be 50a4 c8bd
000000d0: 0359 63be d22a c23e 216e 093e 8d5c 113e
000000e0: a3df bd3d bd60 283c 399d 863e 1699 8cbe
000000f0: a047 113c a7bf 89be b368 de3d 30da 0fbe
00000100: 86b7 0b3e 58b2 84bd 0f8d 9d3e ea1c 4bbe
00000110: 3c37 33be 4b62 6bbe c760 a03e f8f3 f43d
00000120: 2365 e83e 53c5 81be 2e0b a6be 388c 79be
00000130: 2e61 4abe 124f 433e 9384 1d3e bb12 ac3e
00000140: 03fa 03be e18c 88be 4b84 543e 2d04 d0bd
00000150: 0ed7 813e 1dd8 7fbd ad20 633e f856 7cbe
00000160: 230a 1fbe 1196 223e c9e6 f73d 300d bcbd
00000170: ad2a 5c3e 5019 7b3e ba27 7bbe deac 30be
00000180: dc79 af3e 85e3 bcbd 5b92 d4bd d142 3bbf
00000190: 9c88 04be 1c4f 4e3e d553 f5bd f679 dcbe
000001a0: 9d4b 9c3d ee06 b7be 06fd b7be ac7e ddbd
000001b0: ae9a 93be 855f 66be 4685 e83e 59ee 4f3d
000001c0: c79f 013e 33e4 9ebe ee5b 61be 536b 49bd
000001d0: 81c6 bf3d 75fe f4be ae9d 27be 10fe 6fbe
000001e0: e02c 743d c110 b5bd 88b9 d6bc 6ad7 4bbe
000001f0: cf7a 88be 3824 8fbe 693e 12be c3fe 81be
00000200: 3344 ae3e ca1f 9ebd dd06 993e afc5 ef3d
00000210: d6dd adbe 3469 803e e1ea debd 645e 8bbe
00000220: b5e0 86be 0d49 c5be 61bf ae3d 5cff 53bb
00000230: a7f2 263e d711 9cbe 1d24 b03e 2e47 87be
00000240: bc17 b2bd 320a 8c3d 9e1f 3d3e 7484 9c3e
00000250: c551 a03e f6ae 9abe 9483 dd3d e0b1 2dbe
00000260: 1acd 6bbd dcfe c0be ea3d 9a3e 7c5c 91be
00000270: d1a2 3b3e 7658 f83d 5a34 af3d e90a 4dbe
00000280: 5694 a23e f2d5 813d 54d8 a0bc 606a 96be
00000290: 2056 403e 75f1 81bd 32fb 21be 7a64 bc3e
000002a0: a323 a73d 7550 2bbe 9e79 47be 24ec 423d
000002b0: 1074 8a3e f377 84bd bb62 1dbe 6489 b0bd
000002c0: 5a58 59be 0720 303e 621e 963e d91b c7be
000002d0: 5225 a53d 0dd2 0c3e f05c 113d 497b 2ebe
000002e0: 25f8 233e 658e 1e3e d8a2 143e 6bbf a1bd
000002f0: 93d8 b1bd 20e1 053d 013b 91bd 7963 09be
00000300: beda 583e 0b33 963e cf59 5abd a43c b1bd
00000310: 077a b23b 698e efbc 7338 143e c3a4 0c3e
00000320: b0d1 90be e5a3 ebbd 6221 a53e ca7a 1f3e
00000330: 9d94 a9bc 4a77 54be 49f6 4dbe c015 bcbe
00000340: 570e a7bd 8ba6 f33d f229 793e 7259 453e
00000350: beaa 8fbe a660 26be e89c 01bd 795b bb3e
00000360: 331b 063e 3324 a9bc 3a17 7e3e f89e 59bd
00000370: 658d 2ebe 2b11 a73e c92e dbbd 8cdd f73b
00000380: a469 a5be d620 8c3e c9e1 703e b95a d93d
00000390: 54e1 87be b1b6 b4be 2a3c 9bbe 1e6e 703e
000003a0: 322f 0a3e af0d 8d3e 88c0 963e 1f9f 283e
000003b0: 31c3 99bd 9b18 9ebe 0049 91be 7c7d a4be
000003c0: b981 1b3e fdca 64be 8484 81bd 41ed 84be
000003d0: b108 27be 8619 c5be f831 66be 95f7 e03d
000003e0: dde0 8abe 8483 993e f581 2ebd 5f4b 6cbe
000003f0: ad3c 45bd 41df 29be 867d c5bd 6f67 b1be
0.29960367 0.25895965 -0.13751085 0.30647683 -0.107418634 0.03125735 -0.18848136 0.16619903
0.2739391 -0.35048604 0.27248263 0.035121188 0.21803084 0.009222065 0.13040462 -0.082803085
0.24511325 0.008794261 -0.21509808 0.12021924 -0.116087444 -0.014618805 -0.18527552 0.3211331
-0.1972585 -0.21673281 -0.12112822 -0.23898178 0.030379847 -0.32334045 0.32430372 -0.28293246
0.2829835 0.061495237 -0.078903064 0.24161002 0.010577815 0.25661588 0.024437802 -0.13348211
0.06670335 -0.11661516 0.13954133 0.29180986 0.18066813 -0.16330066 0.27490786 0.12010833
0.2301367 -0.1481209 -0.269156 -0.09796965 -0.22201924 0.37923294 0.13420917 0.14195462
0.09271171 0.01027697 0.26291826 -0.27460545 0.008867174 -0.26904032 0.108598135 -0.14048076
0.13644227 -0.06479329 0.30771682 -0.19835249 -0.17501539 -0.22986715 0.31323835 0.11960596
0.4538966 -0.2534586 -0.32430404 -0.24369895 -0.19763634 0.19073132 0.15382604 0.3360804
-0.1288834 -0.26669982 0.20753591 -0.101570465 0.25359386 -0.06246196 0.22180434 -0.24642551
-0.1553121 0.15877558 0.12104566 -0.09182203 0.21500655 0.24521375 -0.24526873 -0.17253444
0.3427266 -0.092230834 -0.103794776 -0.7314883 -0.12942737 0.20147365 -0.1197888 -0.430618
0.076316096 -0.35747474 -0.3593523 -0.10815176 -0.2882895 -0.22497375 0.4541418 0.050764415
0.12658606 -0.31033477 -0.22007725 -0.049174618 0.093640335 -0.47850385 -0.16368744 -0.23436761
0.05961311 -0.08841086 -0.026211515 -0.19906393 -0.26656196 -0.2795732 -0.1428162 -0.2538968
0.34036407 -0.07720907 0.2988805 0.11707627 -0.3395831 0.25080264 -0.10884643 -0.27220452
-0.26343313 -0.38532296 0.085325964 -0.003234825 0.16303502 -0.3048236 0.34402552 -0.26421493
-0.08695933 0.06837882 0.18469092 0.30569804 0.31312385 -0.3021161 0.10816112 -0.16962385
-0.057568647 -0.37694442 0.30125362 -0.28390872 0.18323828 0.121262476 0.08554907 -0.20023693
0.31753796 0.06339635 -0.019634403 -0.29378033 0.18782854 -0.063448824 -0.1581848 0.36795408
0.08161094 -0.1672991 -0.19479987 0.047588482 0.27041674 -0.06468191 -0.15369694 -0.08619955
-0.2122511 0.17199717 0.29320055 -0.38888434 0.08063759 0.13752003 0.035489023 -0.17039217
0.16012628 0.15484007 0.14515245 -0.07897838 -0.086838864 0.0326854 -0.07091332 -0.13416852
0.21177194 0.29335818 -0.053308304 -0.086541444 0.0054466757 -0.029242711 0.14474659 0.13734727
-0.2828498 -0.1150587 0.32252032 0.15574184 -0.020700747 -0.2074863 -0.20113482 -0.36735344
-0.08157032 0.11897 0.24332407 0.19272402 -0.28059953 -0.16247806 -0.031643778 0.36593226
0.13096313 -0.020647144 0.24813548 -0.05313012 -0.17046125 0.32630286 -0.10702283 0.0075642522
-0.3230716 0.27368802 0.2352363 0.10613007 -0.265391 -0.35295632 -0.3031934 0.23479506
0.13494566 0.27549502 0.29443765 0.1646695 -0.07507933 -0.30878147 -0.28376007 -0.32126987
0.15186204 -0.22343059 -0.063241035 -0.2596226 -0.1631191 -0.38496035 -0.22479999 0.109847225
-0.27124682 0.2998315 -0.042604405 -0.23075627 -0.048153568 -0.16589071 -0.09643082 -0.34649226

conv_layers.0.bias f4 [64]
00000000: 0d4f adbd 7ae8 313e 587a dcbd d27f 96bd
00000010: 8722 603e f27e 3dbe 6a70 203d 0bfb ca3e
00000020: 0da6 5b3d 2207 773e 89f8 63be b42b 1c3e
00000030: fd13 ea3d e2dd 6e3e ee7c 143e 671b c43e
00000040: 68f8 47be 1cfc 1e3d acac dabd 5c86 62be
00000050: b748 f23a 1a8a bdbe 66ad a73e 06b6 29bb
00000060: ce2a 13bd e809 3b3e 2d4b 0dbe 8694 82bd
00000070: 8dbb 86ba 8152 1abe f8b0 7bbe 5885 b0bb
00000080: 6b18 ad3e 0dbc cc3e f119 7e3e 5fb3 85be
00000090: 4db0 c8bd f616 d73e fd90 563e c60e 163d
000000a0: c1ba 2c3e cecb 7cbe 7d1f e7bd 0776 b63e
000000b0: 3e86 08bd 343f 8c3c 0251 4ebe 2398 1fbe
000000c0: d81f 793d 92c3 8abe 5261 2bbb d9a9 7e3e
000000d0: ebd0 bfbe 19b2 5b3e f4b3 80be 4446 19be
000000e0: 4c55 ff3d 4287 9c3e fcd4 92bd 5aca 82bc
000000f0: 673c c6be 6cf0 17be d3f6 3abe 3753 71bd
-0.08462343 0.17373839 -0.10765523 -0.073485985 0.21888171 -0.18505457 0.039169706 0.39644656
0.053625155 0.24123815 -0.22262777 0.15251046 0.11429594 0.23326829 0.14500782 0.38302156
-0.19528353 0.03881465 -0.10677466 -0.22121567 0.0018484805 -0.37019426 0.3274948 -0.0025895848
-0.035929494 0.18265498 -0.13798209 -0.06375985 -0.0010279283 -0.15070535 -0.24579227 -0.0053869896
0.33807692 0.3998722 0.24814583 -0.26113412 -0.09799252 0.42009705 0.20953746 0.036635183
0.16868116 -0.2468712 -0.11285303 0.35636923 -0.03333115 0.017119981 -0.2014809 -0.1558538
0.060821384 -0.27102333 -0.0026150537 0.24869479 -0.3746408 0.21454658 -0.25137293 -0.1496821
0.12467441 0.30571944 -0.0716953 -0.01596563 -0.38717958 -0.14837807 -0.18258218 -0.05891725

conv_layers.2.weight f4 [64, 64, 2, 2]
00000000: dd3b d03b 0482 6bbd 209e 773d ce2e 463d
00000010: 82fa 46bd d189 acbc ff5a c53c 34c4 b03b
00000020: a2fa 8ebc 124d 67bd 9c78 af3d 97ad 43bd
00000030: df1f ef3d b25d 3dbc cbea 603d 73a4 a53d
00000040: c324 3abc 651d e5bc 5d9e f03a 905e 8a3d
00000050: b7da 93bd c6ce 81bd f558 0abe 4d1b 313a
00000060: 53ac 1abc 6172 86bb 314c 903c 4fa1 eaba
00000070: db4c 353d 27f3 75bd 9032 67bc 8fd8 6c3d
00000080: 99da 3d3d d0e8 a4bc 107a 38bd 5f0b a73c
00000090: 302b 0a3c 08dc b8ba 139a b8bd adc3 c43c
000000a0: cdf9 2b3d 3a0e 0dbd 3e07 4dbc 8c3e afba
000000b0: aa4a aabd 25c5 1d3d cd47 febc 4647 353c
000000c0: 0eae 30be 0d43 cabd 34b7 d0bc b600 183d
000000d0: 252a b93d dd9f e53d 2020 db3c 015f 75bc
000000e0: 5574 643d cf61 843d f61d 50bd 8e0b 5a3d
000000f0: 5701 2c3d a134 b4bd fdc7 edbd e851 7abd
00000100: b766 753b 7b6f 72bd 71d1 b63c fc2a 833c
00000110: b979 43bd f9e0 f43c 20c2 94bc 800b 513d
00000120: a8c9 353d e9f9 a0bd 5129 c23d 6494 ce3d
00000130: 34de 3c3c 5d3f c3bd 61ff 03bd 1697 45bc
00000140: d01a b9bc 41c0 2c3d 3bae d83c fd1c 6f3d
00000150: 6d8f bfbd d1e9 d1bc 340f 08bc 7121 d1bd
00000160: 216b a4bd d354 3fbd 9004 99bc de8e a1bd
00000170: 230a 133b 28c8 473d e85c 943d 4397 b83d
00000180: c1a3 b4bd 25b9 3abd cd97 823d 44c9 ac3d
00000190: 5523 023d 9ad4 203c 966d 2f3d e437 ac3d
000001a0: 4abc a43d 0501 c3bc ff8b a33d 1cac 3fbd
000001b0: 55c4 33bd 17ac 2b3d fc24 743d 2cb0 633d
000001c0: cb62 e6bc 9a87 813c 34f1 ea3d 0fc9 ebbb
000001d0: 7971 2c3d fcf6 633c ca51 b1bd 21cc 0e3d
000001e0: 7eb8 37bd ae54 9abc 21c8 8dbb c3e1 2bbd
000001f0: 3016 c3bd bbf5 233d 30f1 18bc d378 21bd
00000200: ae5e 47bd 1f23 953d 8817 863c 1b7d 9cba
00000210: 8bb0 99bd 2f96 72bd ba26 10bd 9246 1cbc
00000220: dff8 29bd 48ca b23c 0481 313b 1783 313c
00000230: 3f2f a3ba da39 98bc dfe1 c03c cb85 0f3d
00000240: 0d65 cfbc e910 61bd fa95 5f3d 9bfd 6b3d
00000250: 0eb9 d1bd 3bad b03d 56f3 92bd c5bf 45bc
00000260: c5b3 ffbc 609f fabc 5182 013d 1d99 91bd
00000270: 5172 30bd 51f2 8f3b 8d9f 28bd d11a a23d
00000280: 941d 7c3b b738 043d d847 1cbb 0a9d d13c
00000290: 0c76 83bd fa4e 63bd 6536 c4bc 9d0d 923c
000002a0: 3fb9 e53c e539 0abd edcf c6bc 0626 9b3b
000002b0: 4c0d 433d 3429 8b3c 8d13 5e3d 5d69 053c
000002c0: e112 d93d 67c4 4f3d 34a5 a1bb a80b f53d
000002d0: e648 0e3c b98f 9e3d 5382 7dbd 555a 17bc
000002e0: 25ca 80bd b226 a0bd c114 a53c a396 f6bd
000002f0: 5861 793b c65d 31bd fa8b 423d e77b baba
00000300: 2276 36bd c856 a2bd b4e7 61bd 8231 84bc
00000310: 5c40 41bd f3fb babc c64a fe3c 761c 22bd
00000320: 58f2 1c3c b517 a7bd 839c a9bc 6b45 2abd
00000330: a105 18bd 8237 6cbd 6b19 a83c 94f4 e63c
00000340: 24cc 493c 238d 683d fcff b83c 597c d7bc
00000350: 56ca b1bd cbf6 2e3c ea10 d43a a2b6 7e3d
00000360: bc22 343d 0924 c73c f998 923d 140e 853d
00000370: ce80 0c3c d586 1bbd 17ee 793d 7ebc 46bc
00000380: c65b 56bd bdde 793d e52c c43c 15c6 f63c
00000390: 3459 843d 25be 98bd e980 fa3c e9c0 a73d
000003a0: a2e8 253c 1b94 a53c a315 1abc 13dc 8dbb
000003b0: ad0c b73d 61e7 49bd 43da 233d 110c 0abd
000003c0: fb23 0d3d bd91 253d b933 d03c 87f9 723d
000003d0: 9c0d 2c3d acac a43d e063 213d 6c27 bbbb
000003e0: 8605 6cbd 18c0 94bb 069e 0abd 106d 6cbd
000003f0: 60c6 5ebc d794 a6bc 770a 853d fc53 9a3d
0.0063547925 -0.05749704 0.060453534 0.04838448 -0.048578747 -0.02106181 0.024091242 0.005394483
-0.017453495 -0.056469984 0.08567926 -0.04777297 0.11676001 -0.011557983 0.054911416 0.08088007
-0.011361304 -0.027968118 0.0018357743 0.067563176 -0.07219451 -0.06338267 -0.13510497 0.00067560823
-0.009440499 -0.0041029905 0.017614456 -0.0017900857 0.04426275 -0.06004634 -0.014111176 0.057823714
0.04635105 -0.020130545 -0.045038283 0.020391164 0.008433148 -0.001410366 -0.09013762 0.024019087
0.041986275 -0.034437396 -0.012513934 -0.0013370081 -0.08315022 0.03851809 -0.031040097 0.011064356
-0.17253897 -0.0987607 -0.025477983 0.037110053 0.090412416 0.11212132 0.026748717 -0.014976264
0.055775005 0.06463968 -0.050809823 0.053233676 0.041993465 -0.08799101 -0.1161041 -0.061113268
0.0037445256 -0.059188347 0.022316666 0.016011707 -0.047723506 0.029892432 -0.018158972 0.051036358
0.044381768 -0.078601666 0.09480537 0.10086897 0.011527587 -0.0953357 -0.03222597 -0.0120599475
-0.022595793 0.042175535 0.026450267 0.058377255 -0.09353528 -0.025624188 -0.008304406 -0.102114566
-0.08028246 -0.046711754 -0.018678933 -0.07888578 0.0022436462 0.04877487 0.07244283 0.09013226
-0.08820296 -0.045586724 0.0637661 0.08436826 0.031771977 0.009816313 0.04282912 0.08409098
0.08043726 -0.023804197 0.079856865 -0.046794996 -0.04388841 0.041912165 0.059605584 0.055587932
-0.02812328 0.01581173 0.11471787 -0.007195599 0.042100403 0.013913866 -0.08658178 0.03486264
-0.04485368 -0.018839207 -0.0043268357 -0.04196335 -0.09525716 0.04002927 -0.009334847 -0.039421868
-0.048674278 0.072820894 0.016368642 -0.001193914 -0.07504376 -0.059225257 -0.035193183 -0.00953831
-0.041497108 0.02182497 0.0027084956 0.010834477 -0.0012449994 -0.018582273 0.023545204 0.035039704
-0.02531674 -0.054947767 0.05458639 0.057614904 -0.102403745 0.08626791 -0.07175319 -0.012069647
-0.03121365 -0.030593574 0.03161842 -0.07109282 -0.04307777 0.0043929 -0.041167784 0.07915271
0.0038469778 0.03228065 -0.0023846533 0.025587577 -0.06419 -0.05549524 -0.023951719 0.017828757
0.028042434 -0.03374662 -0.024269069 0.0047347574 0.047620103 0.01698742 0.054217864 0.008142796
0.10599304 0.050724413 -0.004933024 0.11965114 0.0086843725 0.07742257 -0.061891865 -0.009237845
-0.06288556 -0.078198805 0.020151498 -0.120404504 0.0038052406 -0.04330232 0.047496773 -0.00142276
-0.044546254 -0.079267085 -0.05515261 -0.016136888 -0.04718052 -0.022825217 0.031041514 -0.039577924
0.009579264 -0.08158819 -0.020704513 -0.04157011 -0.037114743 -0.057670124 0.020519933 0.028192796
0.012316737 0.056775223 0.022583 -0.02630441 -0.08681171 0.010678957 0.0016179357 0.06218589
0.043978438 0.024309175 0.071580835 0.06496826 0.008575631 -0.037970383 0.061018076 -0.012129901
-0.052333616 0.061003435 0.023947189 0.03012375 0.06462327 -0.07458142 0.030579047 0.081910916
0.010126265 0.020212224 -0.009404573 -0.0043292134 0.089379646 -0.049292926 0.040003072 -0.033702914
0.03445814 0.04042219 0.025415288 0.05932 0.042005166 0.08040747 0.03940189 -0.0057114866
-0.057622455 -0.004539501 -0.03384211 -0.057721198 -0.013597101 -0.020334644 0.06496137 0.0753555

conv_layers.2.bias f4 [64]
00000000: 9e96 8f3b dee2 babb 9497 26bd aa0a 6b3b
00000010: aaed e23b e64a b9bd b1bc e53c 86f6 c73d
00000020: e7cc c6bc df24 433b 35e3 dabc 49b7 5f3d
00000030: 992b abbd 0bad 3cbd 2de9 073d accc 643d
00000040: 269a 2b3d 34e4 f3bc 5cde 843d 2dd1 24bd
00000050: 2ef4 2dbd a049 73bc 1a24 e0bc dceb 4c3d
00000060: e865 81bc 3c35 2b3d 6b1a f4bc 5346 8d3d
00000070: 3551 be3d 7f06 543d bab7 b3bd 953b 87bd
00000080: 6db4 86bd 5c99 cdb8 0cd7 5f3d b8a8 ae3d
00000090: 50eb 623d dcdb 62bc 5236 563d d1c6 6c3d
000000a0: d47b 0fbc b0aa c4bc 08cb 263d e97f 703d
000000b0: 130e 0d3d be1b d73d 21c7 ed3c 9047 2fba
000000c0: 1589 6c3d 8a6c 7abd 8eee 03bd 29eb 343d
000000d0: 3adc 31bd c1f5 a23d 0bc7 9f3d 036a c63b
000000e0: 56a9 933d c420 41bc 3a6a 573d 1fe6 1a3d
000000f0: 3044 bb3d ffc0 b93d a7ac 943d 2fa0 60bc
0.0043819686 -0.005703314 -0.0406719 0.003586451 0.0069253044 -0.09047489 0.028044077 0.097638175
-0.024267627 0.0029776616 -0.026719669 0.054618154 -0.08357925 -0.046063464 0.033181358 0.055859253
0.041895054 -0.029771902 0.06487724 -0.040238548 -0.042469196 -0.014849097 -0.027360965 0.05002962
-0.015795663 0.041798815 -0.029797753 0.06898179 0.09292833 0.051764008 -0.087752774 -0.06603161
-0.06577382 -9.803727e-05 0.054648444 0.08528274 0.055400193 -0.013846364 0.052297898 0.057806794
-0.00875755 -0.024007171 0.04072097 0.058715735 0.03443725 0.10503338 0.029025616 -0.0006686384
0.05774792 -0.061138667 -0.032209925 0.04416958 -0.043422915 0.0795703 0.07801636 0.006055118
0.07210033 -0.011787597 0.05259154 0.037817117 0.09143865 0.09070014 0.07259493 -0.013710066

conv_layers.4.weight f4 [32, 64, 2, 2]
00000000: 4bdd 8d3d 515c 693d 6b39 2e3c f786 853d
00000010: 69c7 0d3c cdd2 19bc b5e0 1c3d 308b 0d3c
00000020: 7e35 0ebc 2f90 a63c 6272 12bc 27d4 55bd
00000030: 75c1 6dbd 9ee7 febc f561 5fbd e7e0 2d3c
00000040: 56d5 883d ac07 9c3d c072 863d 7e3d 483d
00000050: f393 dc3c b63d 27bd 6a0d c23d ed78 8dbd
00000060: a731 8d3d d36a 6abc 0e08 ab3d 0d72 d63c
00000070: fb57 38bc 31e1 ab3c a53a d0bd e24f 98bd
00000080: 17d5 8c3c 0cbe 81bc 25e0 113d 8699 f2bc
00000090: 3043 903d 9e80 49bc e6cb 3d3d 4c1e 9b3d
000000a0: 1963 f9bc 3a42 5b3d d107 7c3d 11a7 acbb
000000b0: d700 0dbd a8d9 573c 34d0 05bd d10d 7f3d
000000c0: dfb1 533d 98d6 983c 89dc 46bb 5d06 703d
000000d0: 9c3f d03c 0f9f b03b 64f3 14bd d4dd 5b3d
000000e0: 0299 abbc 22ec 273d f785 553d e2f3 443d
000000f0: 008a d43b 1f9f 32bc 5b28 863d 3d9e 40bb
00000100: 4f09 79bc 4a69 b2bd a179 e1bc c151 aa3d
00000110: dbee 41bd 31ec 6ebd d9af 213d 96fb 55bd
00000120: 1558 b5bd fdd0 19bd b874 b93b aa6f 8fbd
00000130: f992 003d f710 b6bd 2f04 803d 7547 943d
00000140: 4377 fe3b 438e b63d a3d6 8c3c 22ac cfbc
00000150: 288c 733c 0e80 293d ac66 64b9 8992 02be
00000160: 9049 2cbb b72d 293d ffd9 053d 5fca c0bb
00000170: ae87 7e3d 7180 c8bd 1e5d f0bc 3edc 173d
00000180: aa29 3cbd fa97 5e3d 675a dbbc 1053 ed3c
00000190: de4a c9bc abf6 43bd ae45 a63d 0e95 633b
000001a0: d7b7 d73c f9e3 ec3c db01 32bd 5cd3 bd3d
000001b0: 0a0b aebd dc86 66bd 40c2 b13c e854 bcbc
000001c0: abe4 20bd 039f cfbc 2da8 a83d c3b7 843d
000001d0: 6109 a9bb a813 123b b130 263d c022 d33a
000001e0: 311b d33b 6cb8 393d 6835 ef3c 2258 023a
000001f0: a56b 2d3e 959c 0fbd fbda 063e 627b 093e
00000200: 8d9a 243d 07cc e93b 91a3 943d c260 803d
00000210: b2f0 d9bd a619 62bd 87f1 5fbd 9304 793c
00000220: 7a21 69bd 78f0 32bd 949e 3ebd 0da7 33bd
00000230: 20ff ec3c bf82 3e3d 8d2e 9abc 4208 8fbc
00000240: 31d7 2ebd de33 50bd 348a 89bd d421 763d
00000250: 534a 123d 8470 a93d 25fc 2fbd e550 41bd
00000260: 8083 463a c7d7 d5bd 00fb 9ebd dd98 4abd
00000270: 1086 2ebc 6915 90bb ad0d 05bd 3b2b ca3d
00000280: f62c 08bd f639 5e3b 2fd0 a93c 5043 1c3d
00000290: 32d5 513d 9cdd 6d39 9cac 763c aded 89bc
000002a0: 3499 a5bc 0ad1 8ebd 9a26 273d a10c 2bbb
000002b0: 322a da3c 3442 a8bd 503a ef3d 2bd6 68bd
000002c0: 6d34 af3d b07a 7b3c 6407 973d 27ea 0c3d
000002d0: 3004 b5bd c407 8bbd 57ce 86bd a5b8 18bd
000002e0: 3b21 0c3d ec0c 08bc 9f58 0a3e 97c0 3fbd
000002f0: 82ce 12bd 90cd 2abd 3748 4d3c 131f ba3c
00000300: 84d2 3b3c d2a0 303d 9d94 623c 6c33 e3bc
00000310: 7a34 55ba 23db 4a3d 306a 1f3b b044 153d
00000320: 2899 99bd 60c6 bfbd 29d0 b13d 19e3 0ebd
00000330: 2efc 043d 799a babc 9674 6ebb a6d9 cd3c
00000340: a96d 8a3d 004b 94bc 5692 453d 4d25 233d
00000350: 7ea5 06bc 152d f83c 8100 653d aaed 733d
00000360: 7001 17bd 963a 4a3d 48da 6ebc 7cf0 853d
00000370: 32ae d1bd 9b53 013d fb7b 353d d9c2 92bc
00000380: eed4 d3bc 158a 143c 5ce1 aebd d97e 8cbd
00000390: e45b 023d 009f a3bd 6f07 a9bc ce38 0bbd
000003a0: 6e77 a7bd f1d9 31bd 9300 b0bc f376 4fbd
000003b0: d691 9bbd f650 aabd e0f6 dd3c e9f7 903c
000003c0: 827a e03c 1b1d 9bbd d90b 55bd 7cea 423b
000003d0: a04f e23d 457c 883d e78b b73c 4d1b 113d
000003e0: cf72 3a3c fd6e 443b 84a8 05b9 4858 fcbb
000003f0: 04f3 ae3c 943e b4bb 72a7 993c edce ac3b
0.06926974 0.056972805 0.010633807 0.06519883 0.0086535 -0.009388638 0.038300235 0.008639142
-0.008679746 0.020332424 -0.008938404 -0.052204277 -0.058045823 -0.031116303 -0.05453678 0.010612703
0.066813156 0.07618651 0.065648556 0.04888677 0.026926016 -0.040830337 0.09475215 -0.069078304
0.06894236 -0.014307695 0.08351146 0.02617743 -0.011251445 0.020981403 -0.101674356 -0.074371114
0.017191453 -0.015837692 0.03561415 -0.029614221 0.07044065 -0.012298731 0.04633703 0.07574138
-0.030442761 0.053529955 0.06153089 -0.0052689393 -0.03442463 0.013174452 -0.03266926 0.062269036
0.051683303 0.018657014 -0.0030343852 0.05859982 0.025420956 0.005390055 -0.036364928 0.05367835
-0.020946983 0.04099668 0.052129712 0.048084147 0.0064861774 -0.010902195 0.06550666 -0.0029391192
-0.015199973 -0.087114885 -0.027523817 0.083163746 -0.04734693 -0.05833072 0.039474342 -0.052241884
-0.08854691 -0.037552822 0.005659666 -0.0700372 0.031390164 -0.088899545 0.06250798 0.07240192
0.007765682 0.08913853 0.01719219 -0.025350634 0.014864959 0.041381888 -0.00021782023 -0.12751211
-0.0026288964 0.041303363 0.0326786 -0.0058834995 0.062141113 -0.09790123 -0.029341277 0.037075274
-0.04593817 0.054344155 -0.026776506 0.028970271 -0.024571832 -0.047842663 0.08118759 0.0034726295
0.026332779 0.0289173 -0.0434588 0.09268829 -0.08498199 -0.056280956 0.02169907 -0.022989705
-0.039280575 -0.025344377 0.08235202 0.06480362 -0.0051585888 0.0022289548 0.04057378 0.0016108379
0.0064424505 0.045341894 0.02920027 0.0004972239 0.16935594 -0.035061438 0.13169472 0.13425973
0.040186454 0.0071349177 0.0725776 0.06268455 -0.10641612 -0.05520024 -0.054673698 0.0151988445
-0.05691669 -0.04368636 -0.04653795 -0.043860484 0.028930247 0.046511408 -0.018821025 -0.017459992
-0.04268569 -0.050830714 -0.06715813 0.060090855 0.035715412 0.08273414 -0.042965073 -0.047196288
0.00075726956 -0.10441547 -0.07762718 -0.049462188 -0.01065208 -0.0043970835 -0.032483745 0.09871527
-0.033246003 0.003390906 0.020729152 0.03815013 0.05122871 0.00022684637 0.015055802 -0.016836965
-0.020214655 -0.06973465 0.040808298 -0.0026100057 0.026631448 -0.08215752 0.11681044 -0.05684487
0.08554921 0.015349075 0.073744565 0.034402993 -0.08838689 -0.067885906 -0.06582325 -0.037285466
0.03421138 -0.008303862 0.13510369 -0.046814527 -0.035841472 -0.041699946 0.012529424 0.022719895
0.011463765 0.04312212 0.0138293775 -0.02773448 -0.0008133125 0.04952539 0.0024324767 0.03644246
-0.07499915 -0.09364009 0.086822815 -0.034884546 0.03246706 -0.022778736 -0.0036385409 0.025128197
0.06759197 -0.018102169 0.04823526 0.039830495 -0.008218167 0.030294934 0.055908684 0.059552826
-0.036866605 0.04937228 -0.0145784095 0.065400094 -0.10238303 0.031573873 0.04430769 -0.017915176
-0.025858369 0.009066124 -0.08539078 -0.06860132 0.031825915 -0.07989311 -0.020633427 -0.03398972
-0.08177076 -0.043420736 -0.021484649 -0.05065055 -0.075961754 -0.08316223 0.027095258 0.017696338
0.027402166 -0.07573911 -0.052013252 0.0029741814 0.110503435 0.066643275 0.022405578 0.035426427
0.011379912 0.002997338 -0.00012746645 -0.0077009536 0.021356113 -0.005500624 0.018756602 0.005273691

conv_layers.4.bias f4 [32]
00000000: d613 3cbd df57 0c3b 1603 153d cb8b c23d
00000010: ee12 bc3b 0bf5 2b3d 3b82 b43d de13 0ebd
00000020: ad37 073d df34 0d3d 57f7 e7bc c91c 8cbd
00000030: 7014 9fbc e70d 9a3d c0cd a5bc dfc8 0a3d
00000040: 0511 5b3c 06e1 843d 35fa 9c3d ff32 a9bc
00000050: 1502 b1bd 11c1 893d 2bb9 15bd ccee 9cbc
00000060: 84a3 c03d 3256 153d ca95 a83c efbb 4ebc
00000070: 3a71 933b f386 4b3d d5fb 8a3c 55b3 43bd
-0.045917355 0.002141468 0.036379896 0.0949932 0.0057395613 0.041981738 0.08813902 -0.034686916
0.03301208 0.03447425 -0.028316183 -0.06841428 -0.019418925 0.07522183 -0.02023971 0.03388297
0.013370757 0.06488232 0.07664911 -0.0206542 -0.08642975 0.067262776 -0.036553543 -0.019156836
0.09406188 0.036459155 0.020579237 -0.012618049 0.0044995816 0.049689244 0.016965786 -0.047778446

fc_state.0.weight f4 [256, 128]
00000000: 5b51 4fbd 11ef cf3c ef41 b4bd 91df a3bc
00000010: ce09 9dbd 31b7 da3b 479b 92bc ac10 a13d
00000020: 7b76 7dbd 3185 e6bd a94b 19bd 0edb a1bd
00000030: 5803 a8bd cd99 463d f0ff 073d af2a 8ebd
00000040: b283 afbd bc5c 953c e88d 2c3d f0b9 b8bc
00000050: 1e38 e73d f39e ae3d 0e79 36bd 2845 7b3d
00000060: 6939 00bd a4b3 123d 9814 d6bc 4726 163d
00000070: c3f1 89bd 7876 97bc 0d24 29bd 07da 9a3d
00000080: b2d0 f7bd c67c 1ebd 5e01 9dbd b1c9 96bd
00000090: 4aca 00bd 20e5 753d 8092 a53d 23de e7ba
000000a0: 26bd 4cbc f430 20bd 5d0d 09be 99ea c2bd
000000b0: 35f0 f03c 9602 d23c b716 7a3d 8079 cbbd
000000c0: e323 5dbd 9283 e03a 830a adbc f4c3 553c
000000d0: 07c1 883d ceab a2bc 19fe 7b3d dd64 8d3c
000000e0: 6e68 cebc e883 783c 82d0 853d e23e 93bc
000000f0: 362b f3bc f97b 69bd 3f25 aabc c936 c8bb
00000100: 8abd 903d e79b 0c3d 82a7 05bd 0897 5ebd
00000110: 5dc4 a63c 18ed 51bd f3a5 b83d 2f6c 123d
00000120: daf7 a63d cd54 46bd f96b 19bd ba3b ebbd
00000130: a8f1 ce3d 05f4 2abd ad30 03bc 2a9b 7bbd
00000140: 1497 a43c 4abb 603d 6ba5 b8bd e5f3 973d
00000150: b617 593d 5bcd a03d 060b 24bd 5fed 7f3d
00000160: 62b2 8c3c 07ff 3a3d 7b01 95bd c9ee 9cbc
00000170: 1d5a 6fbd 0ce7 083d 049b 4d3d 829e 693d
00000180: 1ac0 65bd 762a a23c 39fc 1ebc bc04 cbbd
00000190: 106f 7bbd 233a 153d a7e4 b2bc 191b 5b3d
000001a0: 5fb3 083e 8d3b 9bbd ea99 99bd db46 15bd
000001b0: 4eba af3c c649 abbd dc7a ae3d 9a72 9c3d
000001c0: 838a c13b b6ea 753d 49e8 c73d d7de 353d
000001d0: 7015 a2bc aeba 9b3c 598f 633d 0b86 363b
000001e0: 8e0a babc 94c1 56bd 5c77 67bd 3b5a d3bc
000001f0: 5c67 bcbd f8eb d8bd f62b c03d 3d76 b3bd
00000200: 774f b6bc df2d 793d 584d 423d 59ca 87bd
00000210: 892e 97bc 4a55 ffbc dca6 04bd 8d7a dabd
00000220: 1c59 39bd d349 bf3d a9f9 22be 9146 813d
00000230: 8afb 183d 96b4 ef3d f699 03be 6f53 50bc
00000240: 4ae6 5e3d 7e0c 3b3d a13d 28bd 1a70 923d
00000250: e517 a43d 203d bbbd e060 423d d80e 97bd
00000260: 680f f93c 9f99 29bd df59 4ebd fd0c a93c
00000270: fa65 79bd 3153 03bd 125d 913d c0ff 773d
00000280: b0fc c7bc bed0 b53d 8fc6 903d 3f2c 7e3c
00000290: af11 cdbd fe99 aabd 4e40 9cbd 3834 55bd
000002a0: 1f70 d93c eac8 b83c ee13 56bd a9e8 43bd
000002b0: 3038 b23d fb99 4cbd 9d7a d93c 6deb e23d
000002c0: 73e1 90bd 06c5 3c3c 6027 e03c 8de6 0ebd
000002d0: 2380 2dbd 4972 12bc 278f a4bd eff1 58bd
000002e0: 5025 973d 1928 a33d 4025 4fbd dc01 49bd
000002f0: 5087 c8bd 8ec9 a73d 180c 64bd 3d01 ebbc
00000300: 3ffe 6abc dab7 23bd bc90 353d 699e abbd
00000310: e945 c2bd 096d c0bd 99fe f1bc d17a 3c3d
00000320: 7275 f0bc 7cc8 fe3b 149a e53b f5f0 f33d
00000330: 4ec6 d63c 8854 943c 2cbd 3fbd 8c94 e2bd
00000340: 3c80 f93c 26f3 a63d b1b7 903d 0442 abbb
00000350: 8e03 1c3d 10da f23d d34b a0bd a5e4 5d3d
00000360: 710c a63d 2701 923d 39cb b83c 38a8 343c
00000370: f63a cc3b 12de 49be 0a6a 20bd 07fd 3bbd
00000380: 462e edba cb1a c6bc d289 793d 0d80 283d
00000390: e54d 4d3d 5fe1 22bc c4ed 9c3c 8a44 be3d
000003a0: 2f04 243d c1c7 debd cab9 1fbd 6366 ee3c
000003b0: 8c83 863d d816 973b cbe2 46bd 1008 c03c
000003c0: 4599 f13c 1da9 3c3d c88c ad3c 4195 3abd
000003d0: 4deb 21bd 1e9a 843d 5ef7 8abd 68eb 76bd
000003e0: 56c0 a3bd cb42 a93d f3ae 053d 9c6e 233d
000003f0: fc2b 713c 0d90 ebbd 343a e8bd 8e1b 47bc
-0.050614696 0.02538255 -0.08801638 -0.020004066 -0.07667886 0.00667467 -0.017896308 0.07864508
-0.06188057 -0.11255873 -0.03742567 -0.079031095 -0.08203763 0.04848652 0.033203065 -0.06941735
-0.08570041 0.018232696 0.04212752 -0.0225496 0.112900004 0.08526411 -0.04454904 0.06134525
-0.03130475 0.03581585 -0.026132867 0.036657598 -0.067355655 -0.018489107 -0.041294146 0.07561117
-0.12100352 -0.038693212 -0.076662764 -0.07362688 -0.031442918 0.060032964 0.08084583 -0.0017690103
-0.012496268 -0.039109185 -0.13384004 -0.09517402 0.029411415 0.025635999 0.06105682 -0.09935284
-0.053989302 0.0017129055 -0.021123176 0.013047207 0.06677442 -0.019857313 0.061521623 0.01726001
-0.02519628 0.015168168 0.0653391 -0.01797432 -0.02968369 -0.057002995 -0.020769713 -0.0061100465
0.07067402 0.034328368 -0.03263045 -0.054343253 0.020357305 -0.0512515 0.09016027 0.035747703
0.08152743 -0.048420716 -0.037456486 -0.11486001 0.10104686 -0.04173662 -0.008007211 -0.061427273
0.02009157 0.054866113 -0.09015926 0.07419566 0.053001128 0.078516684 -0.040049575 0.062482234
0.017174903 0.04565337 -0.07275673 -0.01915683 -0.058435548 0.03342347 0.050196663 0.05703593
-0.056091405 0.019795638 -0.009703689 -0.099130124 -0.061385214 0.036432397 -0.021837546 0.05349264
0.13349675 -0.07579718 -0.0750006 -0.036444526 0.021451142 -0.083636805 0.08519527 0.07639046
0.0059064045 0.06003829 0.09761102 0.04440197 -0.019785613 0.019009914 0.05555663 0.0027850892
-0.022710111 -0.052430704 -0.056510314 -0.025799861 -0.09199402 -0.105918825 0.09383385 -0.087627865
-0.022254689 0.06083476 0.047437042 -0.06630392 -0.018454807 -0.031168599 -0.032385692 -0.10667906
-0.045250997 0.09340253 -0.1591555 0.063122876 0.03734926 0.11704366 -0.128517 -0.012715205
0.05441884 0.04566621 -0.0410744 0.07150288 0.0801237 -0.09142518 0.04745567 -0.07375878
0.030402854 -0.04140627 -0.050378677 0.020636076 -0.060888268 -0.03206176 0.0709783 0.060546637
-0.024412483 0.08877705 0.07069122 0.015513479 -0.100131385 -0.08330153 -0.07629453 -0.052051753
0.026542721 0.02255674 -0.0522651 -0.047829304 0.08702123 -0.049951535 0.026547724 0.1108006
-0.07074251 0.011521583 0.027362525 -0.03488784 -0.04235853 -0.0089383805 -0.08035117 -0.0529651
0.07380164 0.079666324 -0.050572634 -0.04907404 -0.09791434 0.081927404 -0.055675596 -0.028687114
-0.014342844 -0.039970256 0.044327483 -0.08379824 -0.094859906 -0.09395797 -0.029540347 0.046015564
-0.029352877 0.0077753644 0.007006893 0.11911193 0.026217606 0.018106714 -0.046811268 -0.11063489
0.030456655 0.08151846 0.07066286 -0.0052263755 0.038089328 0.11857998 -0.07826962 0.05417313
0.08107842 0.07129126 0.022557842 0.011026435 0.0062326146 -0.1971362 -0.039163627 -0.045895603
-0.0018095456 -0.024182698 0.06092245 0.041137744 0.050123114 -0.009941428 0.019156344 0.092904165
0.040043052 -0.10877944 -0.03899554 0.029101556 0.06568059 0.0046108775 -0.04855613 0.023441344
0.02949203 0.046059716 0.021185294 -0.045552496 -0.03953104 0.06474708 -0.06785463 -0.060283095
-0.079956695 0.08264693 0.032637548 0.039900407 0.014719959 -0.11502085 -0.11339226 -0.012152566

fc_state.0.bias f4 [256]
00000000: dbc1 5f3d 019e 3d3d bf96 9fb9 f9cf d03d
00000010: 9ea2 0cbd 4c69 853d 0bbc a1bc f536 a33d
00000020: e6d1 873d 4094 87bc 70a7 bf3d 1208 ae3d
00000030: bab2 60ba 322b 393c ee22 c33c e3ac a9bc
00000040: fe3d 0abd 128c 483d c915 18bd 7cf6 e7bc
00000050: 4e30 e7bc 53eb b5bb ca94 a4bd bf46 8f3d
00000060: 7efc d93d 419e 2d3d 6216 7fbd b38a 9bbd
00000070: de48 88bc 1fd5 28bd ed99 863d 50d7 dabc
00000080: 2876 323d 6840 c63d a26e 653d 89b5 51bd
00000090: 8261 b73c 3508 c63d 5aca 0fbd f806 1ebd
000000a0: 9971 4b3d 3356 a83d 4528 9dbb ac14 ca3d
000000b0: 0c31 54bd 2a54 2fbc 1664 b63c afdf a3bd
000000c0: 9d2f dc3c 4703 913d 08c4 d93d 76a4 b83d
000000d0: 92e0 b13c f49e 2fbc eb4b e33d f7a9 ad3d
000000e0: 1387 b8bd 1cef 1dbd 6552 733d 4be6 e7bd
000000f0: 6a68 693d 0ba7 be3d 3afb 96bd c0ef 5ebd
00000100: 1964 55bd 8f7a 17bc 6521 4e3d a3ce dbbd
00000110: 4412 a2bd fe5e 9ebd 1d0f 97bd 1645 773b
00000120: e003 76bd 58bd 653d e9e6 bc3d be44 4ebd
00000130: 2b70 bb3a 9ae5 37bd 15b8 92bd 98da 8fbd
00000140: ada7 343d d9fa 2cbd f17a 0c3e 9cc7 763d
00000150: 4c55 383e 8aa0 693d 31a3 063c 37b5 343b
00000160: cbec cbbc a8d1 81bd b308 94bd 5d6f d33d
00000170: dd85 a3bd 96db f23d abd4 3c3d 7826 ad3a
00000180: 2b03 42bd 1727 debc 6544 593d 6570 c8bd
00000190: ede7 bd3d 0ae0 12bd 9511 c1bd 7930 b5bb
000001a0: 1ed7 5ebd 0cd0 62bb 189e da3c 6b2f adbb
000001b0: 57e3 53bd 3807 cd3c 73d2 66bd fa1f ab3d
000001c0: 4a8c b8bd 0d9f b1bd 97cc 59bc aa24 49bb
000001d0: 7430 2f3d e25a e8bc b527 603d 19e0 02bd
000001e0: 83b0 93bd b631 673d 3bf9 cb3c 72ca ec3b
000001f0: be69 fabc bfac bbbc bbc6 9b3d ee82 40bd
00000200: df16 ab3d 473f 6d3d 05f9 103d abcb f8bc
00000210: 5e76 7cba e371 bf3d a4df 16bd 320c b83c
00000220: eede ab3d a921 f5bd 4996 953d 54b4 f63d
00000230: 195e fa3b bd68 b63d 640f 563d 47fa fe3b
00000240: fc27 a8bd 9d0e c53c 447a c43d 775c 8e3d
00000250: 67a0 ebbd c074 943d ba43 e6bc 6ba0 813c
00000260: 03a5 d1bd 094a 6fbd 6815 55bd 63a8 b23d
00000270: 2ad3 d13d ea4f f53c 0a84 963d 7861 823d
00000280: 1cb1 f43c 88f4 04be c6eb b0bd ec26 0b3d
00000290: 26fb 9e3d 2362 d2bc a10b a53d 5ec9 35bc
000002a0: 28db 4b3d ebc3 393d ab50 95bc 1a35 98bd
000002b0: ee20 c8bc 096c b03c 46cc 4b3d 5d08 be3d
000002c0: fc62 1a3d a868 4bbc 2116 3b3d 1672 763d
000002d0: 8b8f 0e3c d7f3 023e 8868 053d 55fa e33c
000002e0: 51be 0fbd dbf9 b13d 6003 babd 4a2f a7bc
000002f0: 3e18 9f3d 82aa c03d 2c25 b7bc 99c1 8c3d
00000300: 7d2f 033c f7f0 ae3c f118 953c c1d3 b03d
00000310: c1eb 32bd 1f1b 993c b8d7 3bbd 61c5 b6bd
00000320: 8d08 e73d 7696 e53c 72fd 97bd 81ac a6bd
00000330: 7539 a43d 1268 663a 0aff 23bd dcfa c4bc
00000340: 8c16 3d3c dcea bd3d 1b16 2d3d 6b74 133d
00000350: 78bf 3bbd 1186 bbbb 8ed6 d9bc b872 cf3d
00000360: 8995 293d 7295 393d 3043 993d e8bd 46bd
00000370: 9337 0c3d 634e 513d 8654 b33d b570 2fbd
00000380: 5d6c 9bbd 1fd3 533d b01c 863d a9be 94bc
00000390: 2552 023e 7bab 8bba a3ca 3cbd 06b6 a83c
000003a0: a7c2 42bc 4107 19bd b68a 783d 3d30 eb3c
000003b0: 4360 ccbc a237 893d f039 db3b 87c0 8bbd
000003c0: 474b 95bc 6521 c9bc a211 943d 34ae 85bb
000003d0: 9544 dc3c 530b 853d 1f1b 953d cc74 953d
000003e0: d913 bc3d 81cc d13c 0aa2 e13d 39b3 073c
000003f0: ea8c 4cbd 307e 833d a965 9bbc 4f93 b83d
0.054628234 0.046293262 -0.00030439158 0.10195918 -0.03433477 0.065142244 -0.019742986 0.079694666
0.06631832 -0.016550183 0.09358108 0.08497633 -0.0008571554 0.0113018025 0.023820367 -0.020712322
-0.033750527 0.048961706 -0.03713015 -0.028315775 -0.028221276 -0.0055517345 -0.08036192 0.069959156
0.10643862 0.04238725 -0.062277205 -0.07594814 -0.016636308 -0.041218873 0.06572328 -0.026713997
0.043569714 0.09680253 0.05601371 -0.051198516 0.022385363 0.09669534 -0.035105087 -0.038580865
0.049668882 0.08219566 -0.0047960603 0.09867224 -0.051804587 -0.010701219 0.022264522 -0.08001649
0.026878173 0.07080703 0.10633093 0.090157434 0.021713529 -0.01071905 0.110984646 0.08479684
-0.09010138 -0.03855811 0.05940475 -0.11323222 0.056984343 0.09309205 -0.073721364 -0.054427862
-0.052097414 -0.009245529 0.050324816 -0.10732772 -0.0791364 -0.07732962 -0.073759295 0.0037730387
-0.06006229 0.056088775 0.0922373 -0.050358526 0.0014300396 -0.0448967 -0.07164017 -0.07024115
0.04410522 -0.042231414 0.13718773 0.060248956 0.18001288 0.057037868 0.008217619 0.0027573833
-0.024893185 -0.06338817 -0.07228222 0.10323975 -0.07984517 0.11858289 0.046101253 0.0013210317
-0.047366302 -0.027118249 0.05304374 -0.097870626 0.09272752 -0.03585819 -0.09427182 -0.00552946
-0.05440437 -0.003460887 0.026686713 -0.0052851937 -0.05173048 0.025027856 -0.056353044 0.083557084
-0.09011133 -0.08672915 -0.013293407 -0.003069202 0.042770818 -0.028363649 0.054725368 -0.031951997
-0.07211401 0.056443892 0.024899116 0.007226282 -0.030568 -0.02290952 0.07606264 -0.046999864
0.08353972 0.057921674 0.035393734 -0.030370554 -0.0009630675 0.09347894 -0.036834374 0.022466753
0.0839213 -0.11969311 0.07304055 0.120461136 0.007640612 0.08906696 0.05226077 0.0077813
-0.082107514 0.02405482 0.09593633 0.0695123 -0.11505204 0.07248831 -0.028108466 0.015823564
-0.102365516 -0.058420215 -0.052022368 0.087235235 0.102453545 0.029945333 0.07349403 0.06366247
0.029869609 -0.12983906 -0.0863872 0.033972666 0.077627465 -0.02568156 0.08058859 -0.011095373
0.04976955 0.045352858 -0.018226942 -0.07432003 -0.024429765 0.02153589 0.049755357 0.09278939
0.037692055 -0.012415089 0.0456754 0.060167395 0.0087012155 0.1278833 0.032570392 0.027829329
-0.03509361 0.08690234 -0.09082675 -0.020408291 0.07768296 0.09407522 -0.022356592 0.06872863
0.008006928 0.021355135 0.01820037 0.08634139 -0.043681864 0.01868969 -0.045860022 -0.08924366
0.11280928 0.028025847 -0.07421388 -0.08138371 0.080187716 0.00087893114 -0.040038146 -0.0240454
0.01154102 0.092733115 0.04225741 0.035999697 -0.045836896 -0.005722769 -0.026591565 0.10129303
0.041402373 0.045308538 0.07483518 -0.048520952 0.034232687 0.051100146 0.08756356 -0.042832095
-0.07589028 0.051715013 0.065484405 -0.01815732 0.12726648 -0.0010655964 -0.046091687 0.020594608
-0.011887229 -0.037360433 0.06067916 0.028709525 -0.024948245 0.06700064 0.0066902563 -0.06823831
-0.018224372 -0.024552057 0.07229926 -0.0040796045 0.026888171 0.064963005 0.072805636 0.07297668
0.09183473 0.02561021 0.110172346 0.008282476 -0.049939074 0.06420553 -0.018969374 0.09012472

fc_state.2.weight f4 [64, 256]
00000000: f003 0ebd 4f2f 26bd 0983 513e 0b22 583c
00000010: a178 83bc 9a54 b73c 9716 923d 57f5 6d3c
00000020: 7edf f9bd e940 8bbb bb63 81bd 3b02 b9bd
00000030: a07f 8dbd 5cdd ffbd 23be 86bd 206e e53d
00000040: af37 abbc f02d cebc 7f38 84bd 9d8a 7aba
00000050: 9360 583d 011d 143e 89f7 813d 2da6 cc3d
00000060: 953a 03bd 5512 c3bd f67b 0f3e 529d ec3d
00000070: fe78 f03d 1e27 a3bd d872 84bd 9a88 0bbc
00000080: 2616 89bd b53c 9dbd 23fa 0cbd d2da acbd
00000090: e568 1dbd 569e edbd 079c 44be ac78 29bd
000000a0: b721 92bd 932d 65bd 4622 ac3c 8a64 b73d
000000b0: f05b fdba 609b a7bd 6e59 003d 853b b63d
000000c0: dab4 db3d f9f7 6c3c 28eb 8dbd 599c 82bd
000000d0: 6a61 a8bd e1d8 163b 0065 c93c c956 ff3a
000000e0: f648 1e3e a576 f6bd bf08 e6bd 6488 86bd
000000f0: b483 34bd 3b88 643c a6da d73d 6f89 9f3c
00000100: 01f4 9f3d d0da 483d b2c5 b53b e348 30bd
00000110: 0ebf e7bd 5b5d 873d 0060 11bd 8101 dc3b
00000120: e249 eebd 812d e83c 9645 26bd 8e0b 433d
00000130: 15b9 c03c 2830 343d 301f a73a e9ef 82bd
00000140: 3d02 8d3c 7684 e8bc eb6d 15bc aee6 4cbd
00000150: 0c18 3e3d d9b6 20be ac63 85bd d907 4f3d
00000160: 955e 65bc d1b2 bbbd 6ba9 a03c dac8 c8ba
00000170: ba7f 3c3d cbe6 d6bc 86e4 f73d c587 563c
00000180: dd92 a93d eac3 c03d 1209 123e 7dd7 533c
00000190: a255 84bc 91f2 07be baed a73d 0647 573d
000001a0: 0eb3 ebbc 51a1 cf3c 589a b3bd 9012 3dbd
000001b0: 91de 7c3d 2c7e 10bd cf38 6ebd 8cee c63d
000001c0: 1475 d0bc e2a8 3c3d 921e 8d3d d174 acbd
000001d0: 487b 273c 7652 f1bc 0c0f 6a3d 2325 0dbd
000001e0: 9e00 2e3e 327b 89bd 9dbd 9c3d 0262 2b3c
000001f0: 69dd d73c 15fa f6bc 3ca2 84bc 2cfb 88bd
00000200: 55e8 3bbd 4780 fe3d 0941 77be f2ba 5c3c
00000210: 84a2 1e3e f323 edbc e7fb bfbc b8dd 873d
00000220: fec8 d2bd 8734 9c3d b281 c3bc 58c2 403d
00000230: 06ac 733d 57f3 5b3d 6a41 cd3d 7b26 093d
00000240: efbb 75bd 3af6 8fbd ada8 73bb 7962 3c3d
00000250: bed1 553d 7bc5 87bd ee00 06be b382 c8bc
00000260: 7fb9 ef3c 51f8 193d dc5f 2e3d d3c3 a8bd
00000270: a54c 473d 5b1b cb3d 34d4 b83d d3fe 4e3d
00000280: 6336 e73d 2e8e c23b ad86 523d 1dc1 913d
00000290: 1e6a c83b 415e d93c abba 16bc ee57 813d
000002a0: 3fd5 573d 01f6 a63d 6ee4 babd 2701 f13d
000002b0: 0b41 6abd ad41 b43d 686d dabc 41a0 bbbd
000002c0: ae01 da3a 5a95 103e 59ff a0ba f9bf 70bc
000002d0: 6f4d 2b3d cebf 783d 71d0 dd3c f06f 1ebc
000002e0: 29f1 043d 7684 023d a523 be3d 5c89 d93d
000002f0: e9ab 18bd 9200 d7bd a6a1 3abd 46b3 0fbe
00000300: 9a17 6fbd b427 453c bde3 a9bd c47e 23bc
00000310: 8f70 703d 3941 3c3d f321 5cbd 1a94 4b3e
00000320: d40f 5fbd e496 e03d f0a5 c03c 8042 6f3d
00000330: 04dc 103d 2519 57bd ec08 773d 5aa9 37bd
00000340: d5cc 843e a4c9 7bbd 337b 833d beca 303d
00000350: 1b18 553e 3854 1cbe 2e8f 033d 18d6 efbc
00000360: 363f f13d c3bb bf3d 9bc3 4ebd 0bf5 14bc
00000370: f384 0d3b 3f6d bcbc 249e dd3d 546f a33c
00000380: 4ae8 19be 57ee 683d b461 2c3d 89b2 bdbc
00000390: 57d9 913d 9e24 153e 838c c5bd fc7f 3dbd
000003a0: 36e2 393d f832 863d a098 8dbd a513 5e3d
000003b0: b9c5 b8bd 2404 3b3d ddd0 d13d 8b7e bdbc
000003c0: ecd4 613d 8451 acbd 4d10 7dbd fd39 10bd
000003d0: 2d9c 0ebd 0ecb 00be a3a3 febd 4e1c 5d3d
000003e0: ba40 65bd 3142 aa3b db45 09be 1b87 debc
000003f0: 0aef 46bd 086e 163e 66d5 5b3c 514e e2bd
-0.034671724 -0.04057246 0.20460142 0.01319171 -0.016048731 0.022379208 0.07133215 0.014523826
-0.12200831 -0.0042496813 -0.0631785 -0.090336286 -0.06909108 -0.12493393 -0.065792345 0.11202645
-0.020900575 -0.02516839 -0.06456088 -0.0009557398 0.052826475 0.14464189 0.06346042 0.09992633
-0.03203829 -0.09524981 0.14012131 0.11553444 0.117418274 -0.079664454 -0.06467217 -0.008516455
-0.066936776 -0.076775946 -0.034418236 -0.08440174 -0.038430113 -0.11602466 -0.19200145 -0.041374847
-0.07135337 -0.055951666 0.021012437 0.08954723 -0.0019329768 -0.08183932 0.031335287 0.08898071
0.10727854 0.014463418 -0.06929618 -0.06377477 -0.08221705 0.0023017453 0.024584293 0.001948082
0.1545752 -0.120343484 -0.11232137 -0.06568983 -0.044070914 0.0139484955 0.10539751 0.019474713
0.07810212 0.0490368 0.0055472488 -0.04303826 -0.11315738 0.06609603 -0.035491943 0.0067140465
-0.11635186 0.02834201 -0.040593706 0.04761844 0.023525754 0.043991238 0.0012750383 -0.063934155
0.017212981 -0.028383475 -0.009120445 -0.05002468 0.04640965 -0.15694751 -0.065131515 0.050544593
-0.013999601 -0.09164966 0.019612035 -0.0015318647 0.046020247 -0.026233098 0.12104134 0.013093893
0.08279965 0.09412368 0.14261273 0.012929794 -0.016154114 -0.13276125 0.081996396 0.052557968
-0.028771903 0.025345476 -0.08769673 -0.04616028 0.061735693 -0.035276577 -0.058159646 0.09713468
-0.025446452 0.046059497 0.068905964 -0.084207185 0.010222264 -0.029458266 0.057143256 -0.034459244
0.16992423 -0.06712951 0.07653353 0.010460379 0.026350694 -0.030148545 -0.01619064 -0.06688532
-0.045875866 0.12426811 -0.24145903 0.013472306 0.15491682 -0.028947806 -0.023435546 0.06634086
-0.102922425 0.07627206 -0.023865554 0.04706034 0.059490226 0.053698864 0.10022242 0.033483963
-0.05999368 -0.07029386 -0.0037179396 0.04599235 0.05220198 -0.06629463 -0.13086292 -0.024476385
0.029263256 0.03759033 0.042571887 -0.082404755 0.04865708 0.09917327 0.090248495 0.050535988
0.1128967 0.0059373593 0.051397968 0.071169116 0.006116166 0.026534202 -0.009199779 0.063155994
0.0526936 0.0815239 -0.09125601 0.11767798 -0.057190936 0.08801589 -0.026663497 -0.091614254
0.0016632581 0.14119473 -0.0012283131 -0.014694207 0.041821893 0.060729794 0.027076932 -0.009670243
0.03245655 0.031864606 0.092841424 0.10621902 -0.03727332 -0.10498156 -0.045564316 -0.14033231
-0.058372118 0.012033392 -0.08295391 -0.009978954 0.058701094 0.04596064 -0.053743314 0.19880715
-0.054458454 0.1096628 0.023516625 0.05841303 0.035366073 -0.052514214 0.060311243 -0.04483924
0.25937524 -0.061471596 0.06419983 0.0431621 0.20809977 -0.15266502 0.03211897 -0.029276893
0.11779635 0.093619846 -0.050479513 -0.009091626 0.0021594136 -0.023001311 0.108211786 0.019950546
-0.15030017 0.056867924 0.042085364 -0.023156421 0.071215324 0.1456475 -0.09645941 -0.046264634
0.045381747 0.0655269 -0.069138765 0.054217953 -0.090220876 0.045658246 0.10244916 -0.02313163
0.0551347 -0.08413985 -0.061783124 -0.035211552 -0.03481691 -0.12577459 -0.12433555 0.05398207
-0.05596993 0.005195879 -0.13405554 -0.027164033 -0.04856781 0.14690411 0.013417577 -0.11050094

fc_state.2.bias f4 [64]
00000000: 15e7 483d eccc ed3c a1ce 883c 2f6b 4dbd
00000010: ad77 703d f023 88bd 7697 8a3c 664b 36bd
00000020: 173b ef3c 4cdc 803d ced1 abbc 3352 5c3d
00000030: ae1a d13c a291 663d 1097 cf3c 66ee 11bd
00000040: 8261 41bd 2afc 483d 36c3 fa3a f9be beba
00000050: 0b92 863c 898d 7ebd 5901 58bc 5856 85bd
00000060: 1b79 833d 51ed 55bd 4311 7a3d 78fd 83bc
00000070: bd02 4e3d ac63 463c 83f8 f1bc 1511 9ebd
00000080: ae20 163c ca8c 7c3d f6d1 2fbd 1951 2dbd
00000090: 5996 57bd 130b 213d 8950 9e3a 2f11 e2ba
000000a0: 8d94 d8bc 5492 803d c02d 2f3c 9eae ae3d
000000b0: 0b82 723d bf40 0a3d 35c4 513d 7268 2b3d
000000c0: 5261 3dbd fa7b be3c bb59 42bb fec8 833d
000000d0: dac6 94bc d469 d9bc c955 0e3d ca31 803b
000000e0: 4517 3a3c e8e1 a83d c68c ed3c fa11 cc3b
000000f0: b3b3 613d 8f44 513d 3a92 863d e158 64bc
0.049048502 0.029028378 0.01670009 -0.050151046 0.05870788 -0.066474795 0.016917925 -0.0445055
0.02920298 0.06292018 -0.020974066 0.05378933 0.025525417 0.05629123 0.025340587 -0.035627745
-0.04721213 0.049068607 0.0019131664 -0.0014552764 0.01642706 -0.062146697 -0.013183915 -0.065106094
0.064195834 -0.052228276 0.06105162 -0.016112074 0.05029558 0.012108725 -0.029537445 -0.07718102
0.009163065 0.061657704 -0.042924844 -0.04231367 -0.052633617 0.0393172 0.0012078445 -0.0017247553
-0.026438022 0.0627791 0.01069206 0.08529399 0.05920605 0.033753153 0.05121251 0.041847654
-0.04623539 0.023252476 -0.0029655534 0.064348206 -0.018161226 -0.02653972 0.03474978 0.0039121853
0.011358087 0.08246213 0.02899779 0.006227729 0.055103015 0.051090773 0.06570859 -0.013937206

fc_state.4.weight f4 [1, 64]
00000000: 015a 57be bbff 22be f02d 1e3e 0239 173d
00000010: 676e 4bbe 18b3 3d3d 977c 463e d1d4 8f3d
00000020: 0d49 0c3e b855 3b3e 0153 22be 0f70 523e
00000030: efa4 453e 092b 5e3e f88b 053e 62f8 b03d
00000040: 83c0 bb3c 3b91 103e 1a4f 44be 75e9 093e
00000050: 6be2 153e 97f8 0ebe 9f0a 183e aa8b aa3d
00000060: a03c 63be c1bf 83be bf19 213e f3e8 ec3d
00000070: 8d23 763e 865e b6bd 2485 c53d bcd2 16be
00000080: 7021 0dbc 26f8 2d3e 2d48 03be 93ee 06be
00000090: 0ffb 74be 494f e53d 9123 323e 3302 0a3e
000000a0: 08c7 833d a41d 733e 146c 36be d17b 223e
000000b0: 494a 60be 23bb 6bbe 0cf6 8fbe eb27 e1bd
000000c0: 87f5 d2bd 8998 77be 1b18 5cbe 08e4 803e
000000d0: 34fa 8e3e 9639 fe3d 9d9e 023e 9afb de3d
000000e0: 2fbe 2d3e b354 413e 2496 443e cd5b 923a
000000f0: de36 37be 0e2b c83d f7aa 1d3e be04 9ebc
-0.21030428 -0.15917866 0.15447211 0.0369196 -0.19866334 0.046313375 0.19383465 0.070230134
0.13699742 0.18294418 -0.15851976 0.2055056 0.19301198 0.21696104 0.13041675 0.08641125
0.022918945 0.14117901 -0.191708 0.13467963 0.14637153 -0.13962017 0.14847802 0.0832742
-0.22191095 -0.25732234 0.15732478 0.11567869 0.24036999 -0.08904748 0.09644535 -0.14728826
-0.008613929 0.16989192 -0.12820502 -0.13176946 -0.23923896 0.11196763 0.1739638 0.13477401
0.064344466 0.23741776 -0.17814666 0.15867545 -0.21903338 -0.23020606 -0.28117406 -0.10993942
-0.10300737 -0.24179281 -0.2149357 0.25173974 0.27925265 0.124133274 0.12755819 0.10887833
0.1696708 0.18879966 0.19197899 0.0011166275 -0.17892024 0.09773837 0.15397249 -0.01928937
