data/Torch/Dueling/003_Big-CNN_E_L/checkpoints/weights_18000episodes.pth (torch, 505343 bytes, 17 tensors)

conv_layers.0.weight f4 [64, 1, 3, 3]
00000000: 1876 d73e 03cd 433e 161e 5dbe 170d 813e
00000010: 54ba 0fbe b91e cdb8 1efb 6fbe f3a8 003e
00000020: c1c6 7b3e f798 13bf ee61 6a3e 59b2 383d
00000030: 5299 8f3e 6c9d b13c 3c90 893d 31a0 8dbc
00000040: 995f 5a3e 3180 e8bb a9d3 cebe 2656 9c3d
00000050: 407e 3fbd 5986 19bd e6e2 aebd 8285 f23e
00000060: 1617 9dbd 1db6 a0be 54d8 5cbe 8f39 b1be
00000070: 215b a2bb 8589 b4be d12d b23e 3c02 78be
00000080: 4eec 893e c9e2 873d 717f 8e39 db09 863e
00000090: 1ded 25bd c745 553e af38 09bd e933 31be
000000a0: 5f4e 8c3c d864 43be 6e73 a13d 1ece 5d3e
000000b0: c7e9 df3d d235 8ebe dc1b ae3e ec23 dd3d
000000c0: 15e2 8b3e 7869 08be dbb1 90be 4272 63bd
000000d0: 6a96 61be b478 c53e 9206 a23e 3709 893d
000000e0: 1b51 553c c4f1 ccbb d359 a33e 201a bebe
000000f0: 2c55 3cbc 6815 98be ee1b 363d 077a 43be
00000100: 45ab 073e 5020 02bd ff26 b43e f4e8 50be
00000110: 9b50 34be 2126 4ebe 55d3 a03e c4ee e53d
00000120: 740a 343f 6b85 8dbe 84fe 97be 489f 9fbe
00000130: eb4d 22be c43e 4f3e 0748 9f3d e29d 963e
00000140: 0d6b d5bd 3c6e e8be 25d4 5a3e a458 2fbd
00000150: 3d90 8b3e 1729 1abd 931f 843e de63 4fbe
00000160: b398 3cbe 582d 173e 36b6 243e 2a36 16be
00000170: 66ea 523e 6e52 733e afb9 98be 2839 31be
00000180: 5704 c33e ea08 b9bd bac0 0ebe 1f77 fabf
00000190: eda0 3b3c fb27 2d3e e42b 9fbd 3a38 57bf
000001a0: e57f d63d 22e1 4bbf 5734 37be 4c8d f03d
000001b0: d3c7 43bf 4575 dbbd 325e 013f e982 393d
000001c0: d11f 6d3e 2693 75be e675 b9bd 3244 863d
000001d0: 0b36 c83d c4a4 68bf b4da cdbe 7794 3fbf
000001e0: 4655 dd3d f1fa 85be 9299 d83a 77bf 99be
000001f0: 56b6 adbe 52ba 42bf f3d6 a9be 5a46 84be
00000200: 06b5 c23e 4226 3cbd 1586 9e3e 5aa8 2a3e
00000210: 4343 9dbe 2dda 7d3e 5029 dcbd ad26 5fbf
00000220: 0f2f bbbd 49f9 cdbe 423f 953d c529 11bc
00000230: 00af a43e b1ae 9bbe 9411 c73e 4db5 52be
00000240: 091c 6bbe 2a3d 803d e1b0 273e 2dfd cc3e
00000250: 600e 9b3e 8e20 a9be 2805 d33d 4333 1dbe
00000260: aa37 1d3c 52cd 2dbf aa03 b43e a93c 4fbe
00000270: fb62 5d3e 9ce8 363e 4f0f e53d dd62 16be
00000280: 0a53 a73e 43f1 853d 6fc6 1ebe 513b a6be
00000290: 05e0 853e aa45 ddbd 6812 1cbe 564e f13e
000002a0: b9ed cb3d 1c51 62be fdfd 59be 8c0d 973d
000002b0: 2f77 b53e 8153 8fbd d339 d6bd 617b 6fbd
000002c0: 4ea9 2dbe 7d7c 3f3e 78ac 923e 0e72 06bf
000002d0: f2cf 203e 34ed 073e e895 abbb 8dd9 9ebe
000002e0: 48e5 e13d ef6b fc3d 86d6 de3d 32d5 84bd
000002f0: 14fa 19be 5ad9 423d 6e3c 82bd 7d51 12be
00000300: 6c5f 6c3e 7024 a23e 6d1d 4abd 2ff9 cfbd
00000310: b19f 273c f6d7 a1bb 5e71 483e 0685 053e
00000320: b808 8fbe 1ef3 0fbe 7c95 a43e d67f 393e
00000330: a23f 99bd c7c9 40be fd2b 65be 8d60 00bf
00000340: c108 acbc 17dc 283d ebbb 8f3e 9b57 5d3e
00000350: 8e64 8fbe e63d d6bd d1b6 88bc 494d c23e
00000360: 6afa 513e f7e2 02bc d5ff 913e 2a8f b9bd
00000370: 71f8 37be cf39 9f3e c17c d8bd c028 44bc
00000380: 2b6b cfbe 2657 e43e 552e 583e 1e61 c23d
00000390: 541b cebe 6705 b6be c012 9ebe 9ffe 0c3e
000003a0: a3fd e93d 8faa 853e 820c dd3e a6b0 4a3e
000003b0: 952f 5bbc b322 b2be 2b5b 89be d69e 04bf
000003c0: daf9 4a3e ab93 c0be 9028 33be 137f b0be
000003d0: 0546 0cbf 77f2 84bf 6cd1 5dbe 5d64 5c3e
000003e0: 1d3a 29bf f91e ef3e e2e0 023d 51c4 72be
000003f0: d2ed afbc e474 3abe 515c 22bd 2534 d8be
0.42082286 0.19121175 -0.21593508 0.252053 -0.14035922 -9.780884e-05 -0.23435637 0.12564449
0.24587537 -0.5765528 0.2288892 0.04509196 0.28046662 0.02168151 0.06716964 -0.0172883
0.2132553 -0.0070953597 -0.4039586 0.07633619 -0.04675126 -0.03748164 -0.08539371 0.47367483
-0.07670419 -0.3138894 -0.21566898 -0.34614226 -0.004954711 -0.3526117 0.3480058 -0.24219602
0.269381 0.06635053 0.00027179302 0.26179394 -0.040509332 0.20827399 -0.033501323 -0.17304958
0.017127214 -0.19081438 0.078833446 0.21660659 0.10933261 -0.27775437 0.3400563 0.10797867
0.27320924 -0.13321483 -0.28260693 -0.055528887 -0.22030035 0.38568652 0.31645638 0.06691211
0.013019825 -0.0062544066 0.31904468 -0.37129307 -0.011494916 -0.29703832 0.04446023 -0.19089518
0.13248928 -0.031769097 0.35186002 -0.20401365 -0.17608874 -0.20131733 0.31411234 0.112271816
0.7032845 -0.27640852 -0.29686368 -0.3117621 -0.15850036 0.20238787 0.0777741 0.2941733
-0.10420809 -0.45396602 0.21369989 -0.042809144 0.27258483 -0.037636843 0.2580534 -0.2025294
-0.18417625 0.14763391 0.16085133 -0.146691 0.20597228 0.23761913 -0.29829165 -0.1730696
0.3808925 -0.09034903 -0.13940707 -1.9567603 0.011451942 0.16909783 -0.07772043 -0.8407017
0.10473613 -0.796404 -0.1789106 0.117457 -0.7647678 -0.10715727 0.50534356 0.04529086
0.23156668 -0.23981914 -0.090556905 0.06555976 0.09775933 -0.9087641 -0.4020592 -0.74835914
0.1080728 -0.26168016 0.001652526 -0.3002889 -0.33928174 -0.7606555 -0.33171806 -0.25834924
0.38028735 -0.045934923 0.3096167 0.16665784 -0.3071538 0.24790259 -0.10750067 -0.8716839
-0.09139835 -0.40229252 0.07287456 -0.008860056 0.32164764 -0.30406716 0.388806 -0.20576973
-0.22959913 0.06261666 0.16376068 0.40036908 0.30284405 -0.3303265 0.10303718 -0.15351586
0.009595791 -0.6789142 0.35159045 -0.20237984 0.2161979 0.17862171 0.111845605 -0.14686151
0.3268054 0.06540158 -0.15505384 -0.3246713 0.26147476 -0.10804303 -0.15241396 0.47130078
0.099574514 -0.22101253 -0.21288295 0.07375631 0.35442492 -0.06998349 -0.10460248 -0.058467273
-0.16959116 0.18699832 0.28647208 -0.52517784 0.15704325 0.1327408 -0.005236376 -0.31025353
0.1103006 0.12325274 0.10880761 -0.06485976 -0.15036803 0.047570564 -0.06359182 -0.14288898
0.23083276 0.31668425 -0.04934447 -0.1015495 0.0102309445 -0.0049390746 0.19574496 0.13039026
-0.2793634 -0.14057586 0.32145298 0.18115172 -0.0748284 -0.18826972 -0.22380061 -0.50147325
-0.021000268 0.04122552 0.28073058 0.2161545 -0.28006405 -0.10461025 -0.016688736 0.3794959
0.20505682 -0.007988683 0.28515497 -0.090605095 -0.17965867 0.31098792 -0.1057067 -0.011972606
-0.4051145 0.4459774 0.21111424 0.0949118 -0.40255225 -0.35550997 -0.3087368 0.13769005
0.114253305 0.26106688 0.43173605 0.19793949 -0.013378044 -0.34792098 -0.26827368 -0.51804864
0.19821873 -0.37612662 -0.17495942 -0.3447195 -0.5479434 -1.0386494 -0.2166192 0.2152266
-0.661043 0.46703318 0.031952746 -0.23707701 -0.021475706 -0.18208653 -0.03963882 -0.42227283

conv_layers.0.bias f4 [64]
00000000: a3b8 37bd dd53 bc3e 854b 90bc ef0f 94bb
00000010: 68c4 aa3e 5d33 abbe 454e 703d e846 303f
00000020: ff04 a13d 5724 b83e 9c1e a1be 8857 043f
00000030: 5841 6e3e 8c99 cf3e 4770 673e 2e40 f93e
00000040: e9c1 5abe 4c16 8f3d 8896 19be 6e4d 85be
00000050: 824c 99bc 7da4 06bf f00b 043f 271e 38ba
00000060: 4c79 dbbb 2b1b 803e edb2 1f3d daf1 a63c
00000070: 1241 38bc 1520 46bc 0840 adbe 25d3 eb3d
00000080: 89ce b13e 7543 0a3f a549 c23e 9c90 f8be
00000090: 3b9a bd3d 5568 1d3f ed09 a33e 8bf3 53bd
000000a0: 49d6 9a3e 6937 bbbe 118e eabd 6e68 2a3f
000000b0: ab5e 14ba 4961 9bbd 31b9 94be a9f3 36be
000000c0: 266d de3d bbc0 ccbe 01be 32bb 6f32 cc3e
000000d0: e340 05bf 376d eb3e c47c c1be d199 9abe
000000e0: 99ab 273e 7a9c b63e b422 19be 93c6 08bb
000000f0: a668 f4be 902c b2be 157b f7ba cda6 c6ba
-0.044853818 0.36782733 -0.017614136 -0.004518501 0.3335297 -0.33437625 0.058668394 0.68858194
0.07862281 0.35965225 -0.31468666 0.5169606 0.23267114 0.40546834 0.22601424 0.48681778
-0.21363033 0.06986675 -0.1499883 -0.26035637 -0.01871324 -0.5259474 0.51580715 -0.0007023536
-0.0066978093 0.25020728 0.038988996 0.020378996 -0.011245983 -0.01209261 -0.33837914 0.11514882
0.34727886 0.5400918 0.3794681 -0.48547828 0.09257933 0.61487323 0.3184351 -0.051745933
0.30241612 -0.36565712 -0.11452878 0.665656 -0.00056598586 -0.07586915 -0.2904754 -0.17866386
0.10860662 -0.39990792 -0.0027273896 0.39882228 -0.52052134 0.45981762 -0.377905 -0.30195478
0.16374053 0.35666257 -0.14954644 -0.0020870313 -0.4773609 -0.34799623 -0.0018881286 -0.0015155912

conv_layers.2.weight f4 [64, 64, 2, 2]
00000000: 4e50 0b3d b55d 75bd f42b 8c3d e651 833d
00000010: 75d1 19bd fe66 503b 8552 173d ab69 023d
00000020: 9cfe f9bd 7f44 ca3d 7ca0 7a3d 1674 82bd
00000030: fa5e ea3d 73e3 35ba d0e6 f33c 1918 383d
00000040: 4907 66bb 0877 b7bc 02ed 9d3a 484b bf3d
00000050: daf7 20be c40d 2cbe 6e53 41be f392 74bb
00000060: 7d52 82bd dfe8 1dbd acaf 2d3d 5739 b2bb
00000070: fa90 3c3d 8e81 d9bd 7173 bdbc 900c a03d
00000080: b9fe a13d ef70 3f3d 7bb3 a4bd bbe3 0dbe
00000090: 3117 e33c ac4e 033c 3d4d b9bd a01b 553c
000000a0: 899d ea3c 2924 b4bc e828 193d c906 1cbd
000000b0: d340 8fbd 6854 853d fd12 edbd 85ac d3bc
000000c0: cfd1 8fbe 06b0 3bbe 2ae1 0bbe f9f5 e03d
000000d0: 8926 463e 5ae9 9c3c 725b 213c c080 dc3d
000000e0: 2d57 9c3c 5d4f 0b3e 1e50 14bd 4052 003e
000000f0: 3ed2 ab3d a531 55bd c1d8 50be 0e7c 3cbe
00000100: 8823 a4bc 9ed3 09bd 476a 373d 8213 e03c
00000110: 2dbd 52bd ee7f 653d 680d 47bd 81d4 2b3d
00000120: aa79 2b3c cd9c 513d 537c 0d3d 2fcb 023e
00000130: 9076 bcbc d67f 21bd 78bf c8bd 59c5 023e
00000140: e8d6 77bc f685 793d 5cc9 483d c7df 943d
00000150: 3480 01be 7d04 a7bc dc86 be3b 1b34 eebd
00000160: 3838 babd 7013 a4bc a261 aabc 33d3 ebbd
00000170: e070 17bd ee1d d53c 9cb2 f03d 1349 f33d
00000180: 6592 12be a160 933d e631 a23d 284b 303d
00000190: 6dad 4a3d d174 e1ba a1cd 663d e013 ff3d
000001a0: d483 ac3d a8cb 38bc dd30 593d d122 56be
000001b0: dc6f 69bd 389d 2d3e 0151 b0bc 3078 073e
000001c0: 8d18 fcbc c489 543c 723b 0c3e 8de7 893c
000001d0: 17ce be3d fbf5 913d 115f 21bd a191 fb3d
000001e0: 24ce 3fbd 5c9d 3e3b 37d3 2b3c 1200 c4bb
000001f0: c1e8 5fbd b469 3abd 5881 3bbd 4691 81bd
00000200: 02c4 abbc f2c7 d73d f1e5 03bd 3ef4 b1bd
00000210: 8e22 bebd 5e1c 9bbe f884 c4bd dd62 8ebb
00000220: 8cdd 35bd 7a92 833c 1b8a 2e3b 2fd9 81bc
00000230: b7a2 94bc b745 3abc 14c7 a53c cae7 dd3d
00000240: 6815 743c 5ec9 7e3c e903 b23c 437b 9f3d
00000250: 018f d4be 9090 863b 3377 31be af43 0bbe
00000260: c199 3fba f5e1 0ebd 151b de3c 52c9 a1be
00000270: 01c1 aebc 5658 ed3b 0fbd 9f3b ea7b f33d
00000280: a8cd 413d 1fe3 06bd a028 d4bc 6202 063e
00000290: dd97 27be a5ea 96bd 847f 55bd 91e9 8d3d
000002a0: b28e 523c 7ed4 a03c 826b 0fbc 564f 91bb
000002b0: e3c7 683d c9fd 253d 053d 513d bdb5 923c
000002c0: ec7d 733e 0f06 3b3e 91d1 a63d aa94 543e
000002d0: 3102 333c 38e0 9f3d cca7 edbc eba3 89bd
000002e0: 5266 65bc 4d15 b93a 30e4 973d 5160 d3bd
000002f0: f5c8 f53b 36e1 eebd c077 093d 1fe9 87bc
00000300: 25bb 70bc 6bbf ccbd 1bb9 03be 08fe 8d3c
00000310: 6078 ccbc 7db6 01bc 0417 623d 114c 23bd
00000320: ecec 013c 4bce b7bd e28a 61bd de3e cbbd
00000330: 4c65 aabe a93b c1bc b8c3 48be 3ed6 a7bd
00000340: be4b ab3c b18c 963d e9f4 083d df58 b6bb
00000350: 5e73 ca3d a2e6 80bd 9b8f 87be 8c49 6c3e
00000360: da8a 8c3d 4385 433d 5839 c93d 6285 ab3d
00000370: 686d 51bc 940a f4bc fa25 783d c0af 153d
00000380: 0d7a 7fbd 5473 a4bb 297c 5e3c b75a 1c3c
00000390: d31e 4b3d 93e3 bebd 66b7 2dbc 0891 b33c
000003a0: 8c74 523c 4b91 163d 68c2 be3b 2507 3b3d
000003b0: 7418 e73d 0145 8abd 0929 e23c 1ae4 adbc
000003c0: a835 423d b985 523d cab3 f33c e71c 883d
000003d0: 7b6f 093d 015e f63d 1a9c 223d c9d7 583d
000003e0: 6d93 a8bc a8ef 10bc af33 48bd c220 aabd
000003f0: 6f40 db3b b1bf cd3d 0c43 f63d d087 fe3d
0.03401213 -0.05990382 0.06844321 0.06412105 -0.03755327 0.003179967 0.03694393 0.031839054
-0.12206766 0.09876346 0.061188206 -0.06369798 0.114438966 -0.00069384946 0.029773146 0.044944856
-0.0035099557 -0.022395626 0.0012048783 0.09340531 -0.15719548 -0.16802126 -0.18879482 -0.0037319034
-0.0636339 -0.03855216 0.042403862 -0.0054389643 0.046036698 -0.10620414 -0.023126336 0.07814896
0.079099126 0.04673856 -0.08042046 -0.13856404 0.02772102 0.008014362 -0.09047935 0.013007075
0.028639572 -0.021989899 0.037392527 -0.03809241 -0.06994786 0.0651024 -0.11575887 -0.0258391
-0.2808976 -0.18328866 -0.13660112 0.109844156 0.19350637 0.01915424 0.009848462 0.107667446
0.019084537 0.13604493 -0.03620922 0.12531376 0.0838971 -0.052049298 -0.20395185 -0.18406698
-0.020036474 -0.03364908 0.04477909 0.027353052 -0.051449943 0.056030206 -0.04859677 0.041950706
0.010466019 0.051174928 0.034542393 0.12772821 -0.023005754 -0.039428554 -0.09802145 0.12770595
-0.015126921 0.06091877 0.049020156 0.07269245 -0.12646562 -0.020387882 0.0058144163 -0.11631032
-0.09092754 -0.0200288 -0.020798508 -0.115148924 -0.03697288 0.026015248 0.11752817 0.11879172
-0.14313658 0.07196165 0.079196736 0.043040425 0.049481798 -0.0017200952 0.056348447 0.12454963
0.08423582 -0.011279024 0.053025115 -0.20911719 -0.056991443 0.16954505 -0.021523 0.13229442
-0.030773425 0.012972299 0.13694552 0.016834045 0.09316652 0.07126995 -0.039397303 0.12283636
-0.04682745 0.0029085493 0.010487369 -0.0059814537 -0.05466533 -0.045510963 -0.04577765 -0.06326537
-0.020967487 0.105361834 -0.03220171 -0.086891636 -0.092839345 -0.3029508 -0.09595674 -0.0043452815
-0.044400737 0.016061056 0.002663261 -0.015850632 -0.018143995 -0.01136916 0.02023653 0.10835226
0.014897682 0.015550939 0.02173038 0.07787182 -0.41515353 0.0041065887 -0.17330627 -0.13600038
-0.0007308983 -0.03488346 0.027112523 -0.31598908 -0.021332266 0.0072431965 0.0048748325 0.11888869
0.04731527 -0.032931443 -0.025898278 0.13086846 -0.16366525 -0.07368974 -0.05212356 0.06929315
0.012851404 0.019632574 -0.008753659 -0.0044345064 0.05683125 0.04052523 0.051083583 0.017908925
0.23778504 0.1826403 0.0814544 0.20759836 0.010925815 0.07806438 -0.029010676 -0.06720718
-0.014001446 0.0014120728 0.0741657 -0.10321105 0.0075007626 -0.11664049 0.033561468 -0.016590653
-0.014693056 -0.099974476 -0.12863581 0.017333046 -0.024959743 -0.007917044 0.05519773 -0.039867464
0.007930022 -0.08974894 -0.05506409 -0.099241 -0.33280408 -0.023588018 -0.19605911 -0.0819516
0.02091014 0.073510535 0.03343669 -0.0055647935 0.09885286 -0.0629399 -0.2647675 0.23074931
0.06862421 0.04773451 0.098253906 0.0837505 -0.012782432 -0.0297902 0.060583092 0.03654456
-0.062372256 -0.005018631 0.013579407 0.0095431125 0.049589943 -0.0932075 -0.010602808 0.021919742
0.01284517 0.036759656 0.005821515 0.04566111 0.11283961 -0.06751443 0.027607458 -0.021226931
0.04741445 0.05139706 0.029748816 0.06646138 0.03355358 0.120296486 0.03969965 0.052940164
-0.02057811 -0.008846201 -0.048877414 -0.08307029 0.0066910307 0.10046328 0.12024507 0.12428248

conv_layers.2.bias f4 [64]
00000000: f9e9 b63c e685 173c 6211 34bd aa7f 7e3d
00000010: 5918 63bd 0068 51be 17db be3d fb97 933e
00000020: c978 5ebe 2354 dd3c c958 19bd 81a8 853d
00000030: 2d16 8fbe e519 f0bd 16ec 753c 3f16 1d3e
00000040: dbf9 583c c8c5 57bd a2bf 2c3e 6f73 16be
00000050: 5e37 3bbc 9f57 c1bd ccb6 ccbd 5276 4f3e
00000060: dc44 8abd aa37 143d aa2c 94be 451a ab3d
00000070: c93a 0c3e a534 8e3d 0b42 1bbe c98a 95bd
00000080: 87b4 59be 4fd0 433d cb26 5e3e c8fa 0c3e
00000090: 04fb 37bd 67a2 30bd c08a c93d fdc9 f53d
000000a0: 3ab4 bcbd 9e3e 3fbd ee15 9b3d 42fe a03d
000000b0: 2500 653d dd6f 0c3e 84c5 1dbd 1bd3 02bc
000000c0: c523 cdbb 0cfe 95bd 2cb8 7bbd 981e d63d
000000d0: 5aec 76be 9e2c 103e d40f 563e 2f31 c43a
000000e0: 069e c33c 81ca 7d3c b94d e63d 0b5e d0bb
000000f0: 4d8a 443e f942 a43d 3f47 083e 3ffa 30bd
0.022328364 0.0092482325 -0.04396189 0.06213347 -0.05544314 -0.20449829 0.09319132 0.2882689
-0.21725763 0.027017659 -0.037438188 0.0652628 -0.27946606 -0.11723689 0.015009901 0.15340517
0.013243164 -0.052678853 0.16869977 -0.14692472 -0.011426775 -0.094405405 -0.09995803 0.2025998
-0.06751415 0.036185898 -0.28940326 0.0835462 0.136943 0.06943635 -0.15161912 -0.07301862
-0.21260272 0.04780608 0.21694486 0.1376754 -0.04491712 -0.04312363 0.098409176 0.12001417
-0.09214063 -0.046690576 0.07572542 0.07860996 0.05590834 0.13714547 -0.038518444 -0.007984902
-0.0062603676 -0.07323846 -0.061454937 0.10455054 -0.24113598 0.1407952 0.20904475 0.0014968271
0.023879062 0.015490175 0.11245293 -0.006358867 0.19193383 0.080205865 0.13308428 -0.043207403

conv_layers.4.weight f4 [32, 64, 2, 2]
00000000: 2a29 093e 5a06 d83d b139 0d3d f2e0 c43d
00000010: 111f 043e 8d26 c03d 7276 d93d 3c40 b5bc
00000020: 6153 d03d c78f 8d3d 73a2 473c b49e 8dbd
00000030: 326b fdbd 046b aabd 266d 36be 560c df3c
00000040: ac4b 363e 8634 013e 7804 e33d 7d81 143e
00000050: 4d04 8b3d c17f b0bc 7027 1f3e 4853 2fba
00000060: 7055 833e e983 c1bd 2830 973e edd8 ac3d
00000070: 9726 4cbe d35f 28bd a544 81be 493d 36be
00000080: 0813 093e 6c4b 543e d368 933d f1ae 843c
00000090: 0558 cb3d eca3 da3c da87 6c3d a2e4 9b3d
000000a0: 23f6 3c3d 92cc 1e3e ffa0 ba3d 4c5b e13c
000000b0: 2ff5 b2bb f756 16bc b83c b2bc 3b47 9d3d
000000c0: 8694 2a3e a1c3 093e 10d7 ea3d a55e 433e
000000d0: f6d0 21bb 6ce6 a43c 60c0 b5bd e77c 29bd
000000e0: 10b7 91bc 0d00 f43d e29f 8f3d e7e4 213e
000000f0: 6925 af3b 2d08 a53c 6c89 2bbd 1d2f 893d
00000100: 02cb da3b 6bd0 84bd 7de4 a43c 8df5 6b3d
00000110: 3973 ecbd 39c1 a6bd caa3 ed3d 5e6a 25bd
00000120: 3039 87bd 22f9 80bd aa9a 5ebc 35c6 07be
00000130: ddb1 9b3d 7f86 bebd 5182 093e bb7d e43d
00000140: 4751 96bd 1df1 323d c294 293d 3b93 f0bd
00000150: 7334 703d 0991 82bd 2c73 f43c aec5 86bd
00000160: 89a2 bb3d eebf b13c b4c8 693d 567f aabc
00000170: e478 253b 5bb7 11be f1f8 eabc 664d d03c
00000180: 3d0b febc 6bcd be3d ffd3 e8bc ba08 333d
00000190: 9998 b03c a54c 82bd e78e ff3d c24c 55bd
000001a0: b6f8 ee3d e1d5 dc3d 2b59 bd3d 6d0b 723e
000001b0: 712b 1cbe 1ace 2abe e3c7 21bb c47b dfbb
000001c0: 2455 04be eaff 09be 3d41 e6bc c1fe 873c
000001d0: 096e aebc a14b 06be 6129 31bc 9dd0 89bd
000001e0: c7df b43d 8bed b03d 9a5a ec3d 62cc 303c
000001f0: f076 933e 5aa8 973d 9746 e33d c7f2 913d
00000200: b3d7 053e da82 ad3d e4eb 613e d752 b13d
00000210: 5a83 a9bd a551 dabc 80d2 b0bd d8e5 5ebc
00000220: 6483 8a3b 5dda 98bd e2ad dabd d63e debd
00000230: 383c 833d 510e ab3d 1ee0 c0bc 7f91 d13c
00000240: f8e5 45bc 89d6 37bd 2e92 9ebd 53e0 e33d
00000250: 8bf7 f53d 019b 513e 0778 06bd 22cd f33c
00000260: 2038 abbd 612d ecbd d6d9 33be 2514 19be
00000270: 4b43 83bd 99a7 193e 143c f9bc b494 c33b
00000280: ea65 06bb e9d1 373d 969a ad3d a97d 9a3d
00000290: 5159 d03b bd26 2d3c 428c bd3b f43b 7a3d
000002a0: e6fd 2fbd ef86 f6bd 11a5 f83d 3541 b9bd
000002b0: ea6c 3dbd 8dbd 1abe 6c7a 053e 48d4 a2bd
000002c0: 5b33 053e b58a b8bc 2e4e b33d db4c 913c
000002d0: 45fa 30be 15a0 f7bd 42a0 07be b29d cbbd
000002e0: 5e00 d13d 40e9 e13d 3e14 7d3e 406a a3bd
000002f0: fa65 18bd 72ed 073d e077 62bd 6c59 89bd
00000300: d3e3 353d 09a6 5f3c c23c 6c3b d538 d6bd
00000310: 12c2 43bd a0fa 5f3d 98c0 5e3c 4784 883d
00000320: 6bde 24be aca3 27be 3faa 123e c534 7cbd
00000330: 2d3b e43c 8ccc 65bd 9a7f 843c dada f53c
00000340: 3b9e 5e3e 17fa 5e3d aeb5 4f3e 9bdf ed3d
00000350: adf1 f9bc 8e71 87bc e0fa da3d c47d 333d
00000360: 132f cfbd b9ea f83c 5cb3 f7bd 3efe 943b
00000370: ec18 7bbd 9571 ce3d bcbe 193c b66c 8dbd
00000380: b3c7 44bd f989 9f3d 0662 02be faa9 4abd
00000390: aede c33c ea9d bdbd 75ba 90bc a09c 8ebc
000003a0: 809c 303d ac77 b7bd 39a9 67bc 36ea 25be
000003b0: 1dd9 adbd e019 bfbd c5e5 143d d821 c33d
000003c0: a5e8 8d3c 4452 0dbe 5de3 67bd 7ee2 b13c
000003d0: e46e 8d3e fec8 ed3d 0ab4 613d 002d 8c3d
000003e0: 55e5 8939 2471 dbbc 6569 9dbd cc77 28bd
000003f0: b6ca da3d 05b2 a63d 273a 8f3d 5747 9fbd
0.13394609 0.105480865 0.034478847 0.096132174 0.12902476 0.09382353 0.10618295 -0.022125356
0.10172153 0.06912189 0.012184727 -0.06915036 -0.123739615 -0.08321193 -0.17815074 0.027227562
0.17802304 0.12617692 0.11084837 0.14502521 0.0678793 -0.021545293 0.15542388 -0.000668813
0.2565112 -0.09448988 0.29528928 0.08439813 -0.19936596 -0.04110701 -0.25247684 -0.17796816
0.13386166 0.20731896 0.07197728 0.0161967 0.09928898 0.026689492 0.057746746 0.076119676
0.04613317 0.15507725 0.09112739 0.027509354 -0.005461357 -0.0091760075 -0.021757469 0.07679602
0.1665822 0.13453533 0.11466801 0.19079073 -0.00246912 0.020129405 -0.08874583 -0.04137888
-0.017787486 0.11914072 0.07012917 0.15809976 0.005345036 0.0201455 -0.041879103 0.06698439
0.0066770324 -0.06485065 0.020128483 0.057607222 -0.115454145 -0.08142323 0.11603506 -0.040384643
-0.066027045 -0.06297518 -0.0135866795 -0.13259204 0.07602284 -0.09302997 0.13428618 0.11156794
-0.07339721 0.043686975 0.041401632 -0.11746832 0.05864377 -0.063753195 0.029840074 -0.06580673
0.091618605 0.021697965 0.05707617 -0.020812672 0.0025249058 -0.14230101 -0.028683158 0.025427531
-0.031011218 0.09316524 -0.0284214 0.043709494 0.02155714 -0.06362275 0.12478428 -0.052075155
0.116685316 0.10782982 0.09245523 0.23637171 -0.15250947 -0.16680184 -0.0024685792 -0.006820174
-0.12923104 -0.1347653 -0.02810728 0.016600968 -0.021292703 -0.13114788 -0.010813088 -0.06729243
0.08831745 0.08639058 0.115407184 0.010790916 0.2880168 0.074051574 0.11097448 0.07126384
0.13070564 0.084722236 0.22062641 0.086583786 -0.082770064 -0.02665026 -0.086339 -0.013604604
0.0042270888 -0.074635245 -0.10677697 -0.10851829 0.0640797 0.0835234 -0.023544367 0.025582073
-0.012078755 -0.04488233 -0.07742725 0.11126771 0.12010106 0.20469286 -0.03282931 0.0297609
-0.08360314 -0.11532093 -0.17563567 -0.14949091 -0.064093195 0.1500534 -0.030424155 0.0059686545
-0.0020507523 0.04487792 0.084767506 0.07543499 0.0063583036 0.010568318 0.0057845423 0.061092332
-0.042966746 -0.12037455 0.12140859 -0.090456404 -0.046246447 -0.1511137 0.13034981 -0.07950646
0.13007872 -0.022527078 0.08755146 0.017736843 -0.1728297 -0.1209108 -0.13244727 -0.09942187
0.10205148 0.11030817 0.24714753 -0.0797925 -0.037206627 0.03318543 -0.055290103 -0.06706509
0.044406723 0.013650426 0.0036046957 -0.104600586 -0.0477925 0.054682374 0.013595723 0.06665855
-0.1610047 -0.1637103 0.14322756 -0.061573762 0.027860248 -0.056103274 0.016174126 0.030011583
0.21740048 0.054437723 0.20284149 0.11614915 -0.030510748 -0.01653364 0.10692382 0.04382111
-0.101164006 0.030385362 -0.12094757 0.0045469096 -0.061303064 0.10080258 0.0093838535 -0.069055006
-0.04804201 0.07789988 -0.12732705 -0.04947851 0.023909893 -0.09258635 -0.017667035 -0.017408669
0.043118 -0.089583725 -0.014139467 -0.16202626 -0.08488677 -0.09331107 0.036351938 0.095279396
0.017322848 -0.13800913 -0.056613315 0.021714445 0.27623665 0.11610602 0.05510334 0.068445206
0.00026301542 -0.026787348 -0.07686118 -0.041129872 0.10683195 0.08139423 0.069935136 -0.07777279

conv_layers.4.bias f4 [32]
00000000: 4474 85be f415 113e 230d f33d 53c7 323e
00000010: b8f6 54bd c2ad 0b3e e142 c93d 52f5 51bd
00000020: 346b 0c3d e2c8 373d 4e8a e23c dc41 41be
00000030: 7995 0bbe a67b 493d fa34 3fbc a03d 223c
00000040: 6357 5f3d 7ea3 3d3d 8ed6 c03d a7a3 5dbd
00000050: dc0e 0cbe 4756 073e 8763 e9bc 1774 bcbd
00000060: 356e b93d 85bb 973d c439 a43d 9a55 323d
00000070: 28e9 673d 7bd4 4e3e 8933 edbd f70a aebd
-0.26065266 0.1416853 0.1186774 0.17458849 -0.0519931 0.13640502 0.09827209 -0.051259346
0.034281924 0.04486931 0.02765384 -0.1887278 -0.13631238 0.049190186 -0.011670345 0.009902388
0.054526698 0.046298496 0.09415923 -0.05411115 -0.13677543 0.13216506 -0.028489841 -0.0920183
0.090542234 0.074088134 0.080188304 0.043538667 0.05661884 0.20198242 -0.11582095 -0.08498185

fc_state.0.weight f4 [256, 128]
00000000: c7d9 4f3d 0ae8 423d 87d9 cdbd b1d5 a5bb
00000010: 104d 6dbd afd8 53ba 86b1 4d3d 57cc ca3d
00000020: 3b3e 263d 30f6 b2bd 3680 14bc 812c fabb
00000030: c883 85bd ac55 193e b5bb aa3b 3d22 99bd
00000040: 073c a7bd 3015 f53c 9ba3 953d 05e7 54bd
00000050: 212d fe3d 5a5a f53b d2c7 4abd d2f5 543d
00000060: 0de4 ab3c 36e7 d2bc 52aa efbc 34d5 11bc
00000070: b8c1 f3bd 31f3 2a3d 8df5 323d 3c5e 1cbc
00000080: f20f 1fbe f2f8 a0bd f672 2abd 324b 66bd
00000090: 5de6 b93b 7978 ca3d 4066 663d 6c6d 52bd
000000a0: afaf 23be fa75 48be 698b 60be cefc 0cbe
000000b0: 04e6 b73d cb62 c03d 3a70 7e3d 43d5 e6bd
000000c0: 0ef6 f3bd 8bf5 143c 1c9b b5bd a220 7cbb
000000d0: 666f 4d3d a1f0 adbd 023f c23c b284 02bc
000000e0: c86a 83bd 4d49 24be 7b4e 8b3d 481c bebd
000000f0: cb11 86bd ef1d cabd 0b40 653c b2f3 74bd
00000100: 0ea8 ec3d 4ad7 7d3d 2bb0 763a 63d2 29bd
00000110: 5217 b43d 26c2 45bd 6184 cb3d 762f 653d
00000120: e0df b33d fc1a 5cbc f5a5 273c 1c11 14be
00000130: 3aeb f23d dbb5 cfbd 196f 91bd 9191 99bd
00000140: 76f5 83bd c803 043d 6701 3fbd 77f3 a83d
00000150: 4799 743d c8ec f33d a4cd 25bd 45a3 a73d
00000160: 8578 4ebd c068 b03d 791e f9bd c83f b6bd
00000170: e1aa a4bd 6f04 f03c 7958 70bb 02d9 ca3d
00000180: f628 763d 670c 3ebc ff96 b73c 3d2a c1bd
00000190: 3817 a2bd d956 383d 8fe8 76bd 8a9f dc3c
000001a0: 892a 433e 4884 08be 5c83 5dbd 61a0 35bd
000001b0: 5be5 323d 6221 c2bd 76b1 a33d 81cd 0a3d
000001c0: 2ad8 083b a94f 713d 846c fa3d 59f9 5e3d
000001d0: 3acb 78bd afbe bd3c 7160 c33d c8cd 133d
000001e0: ca22 4bbd 42ed 84bb 4887 f3bb df35 bbbd
000001f0: 5210 c5bd 7741 2ebe 75ef 54bc 3566 a1bd
00000200: 981f 46bd a7b6 e83d b949 82bc 38f5 a7bd
00000210: dd42 04bb fc25 7f3c 26c5 a4bd f6b2 bebd
00000220: 9085 c9bc 3003 e83d ef5a 90be 083c 003d
00000230: e63e a63d 7f93 1f3e aaf7 04be 4e44 ffbc
00000240: ccc2 9f3a 43a4 9e3d b11b a8bd 190f bd3d
00000250: 4f1b 4d3d 5ab6 21bd b32e 863d 322b 3abd
00000260: 5508 2fbc d5a5 383d 9f27 ddbd 7f88 8dbb
00000270: 33fd debc ead9 d8bd d0ed 193d 2014 4cbb
00000280: dc24 013d 2b29 c83c a3ac 96bd 5dcd aebd
00000290: 01a5 43be 77c3 3cbe 20d5 12bd 1aed c23d
000002a0: 8cf3 6f3d 3f95 c43c 7263 cebc c3f8 30bd
000002b0: b735 923d 8f14 bdbc 9ae1 d0bc 0929 973d
000002c0: c1c5 abbd 3654 adbc 9fe6 133c baac 5bbd
000002d0: a9c3 cfbd 8511 b2bd 017b ecbd 3a86 79be
000002e0: 71ff 9b3d 0d1a 893d 539c 54bd 8dfe e2bd
000002f0: 0db7 3bbd 2725 91bd 97c5 15be 26aa 10be
00000300: d596 d8bc 29cd a53c c6e7 833d f595 b5bd
00000310: fdd6 b0bd 374a d0bc acc1 eabd b8d3 de3c
00000320: 3754 aebc 7feb 923d 4900 fc3c e48a 233e
00000330: 9f9e b93c 9926 0b3d 196f 2bbd ee96 17be
00000340: 26e1 be3d 7c00 8e3d 4bf6 ad3d c77f 97bd
00000350: 975c 043d 90a8 9b3d e341 c7bd 6cf1 ab3d
00000360: 83f9 fb3d 5f45 773d b7a1 813c 821b 153c
00000370: 0f53 f03a 296f 86be ef3e 91bd da26 7ebb
00000380: 8a80 243d fe18 273d bbe8 453d aeb0 a83d
00000390: 73c5 d03c fe49 cfbd f5fa 513d bd28 883d
000003a0: 8a3c a53b de49 80bd 58bf f6bd c395 ad3d
000003b0: 9766 c6bb 7f67 313d 8d64 8abd 01e7 cc3c
000003c0: 6790 573d f2e7 823d da69 8a3c 6f55 35bc
000003d0: a961 ce3b 439a bb3d e3a8 56bd 7838 04bd
000003e0: ce2c a2bd 4f1f c23d a501 17bd 933f 203d
000003f0: 8ebe 9f3c 6fe6 06be 1798 22be 0f22 f23c
0.050744798 0.04758457 -0.10051256 -0.0050608744 -0.05793482 -0.00080812996 0.050218128 0.09902256
0.04058669 -0.08738363 -0.009063771 -0.0076347 -0.06519276 0.14974087 0.0052103647 -0.074772336
-0.08165746 0.02991733 0.07306596 -0.05197813 0.124109514 0.0074875774 -0.04950697 0.051992245
0.020982767 -0.025745016 -0.02925602 -0.008900929 -0.11902183 0.04173583 0.043691207 -0.009543952
-0.15533426 -0.078599826 -0.04161354 -0.056224056 0.0056732134 0.098862596 0.056249857 -0.051373884
-0.15984987 -0.19576254 -0.21928181 -0.13768312 0.08979419 0.09393843 0.062118746 -0.11271145
-0.119121656 0.009091745 -0.088674754 -0.00384716 0.050155066 -0.08493162 0.023711685 -0.007966207
-0.06416851 -0.16043587 0.06802078 -0.09282738 -0.065463625 -0.09868991 0.01399232 -0.05980272
0.115554914 0.061972894 0.00094104063 -0.041460406 0.087935105 -0.048280858 0.09937359 0.055953465
0.08782935 -0.013434168 0.010232438 -0.14459652 0.11861272 -0.10142108 -0.07101268 -0.07498468
-0.06443302 0.03223017 -0.046632197 0.08249562 0.05971649 0.11910397 -0.040479317 0.08185438
-0.050407905 0.086137295 -0.12164015 -0.08898884 -0.08040405 0.02929899 -0.0036673828 0.09904672
0.060097657 -0.011599637 0.022410868 -0.094318844 -0.07914585 0.0450047 -0.06028038 0.026931543
0.19059195 -0.13331711 -0.054080352 -0.044342402 0.04367576 -0.094790235 0.07992832 0.03388739
0.0020880797 0.05891386 0.12227729 0.054437015 -0.060740687 0.023162214 0.09539879 0.03608492
-0.049593724 -0.0040566036 -0.0074318983 -0.091411345 -0.096222535 -0.1701716 -0.012996544 -0.078808226
-0.048369974 0.11362963 -0.015904294 -0.08201069 -0.0020181455 0.015573021 -0.080454156 -0.09311478
-0.02459982 0.11328733 -0.28194377 0.03130725 0.08117466 0.15583609 -0.12985101 -0.0311605
0.0012188791 0.07746174 -0.08208407 0.09231395 0.05007487 -0.039480545 0.06551876 -0.04545135
-0.010683139 0.045080025 -0.10798573 -0.00431925 -0.027220344 -0.10588439 0.03758031 -0.0031139925
0.031529292 0.024433693 -0.073571466 -0.08535264 -0.19105913 -0.18433939 -0.035847783 0.0951788
0.058581874 0.023996947 -0.025193904 -0.043205988 0.071391515 -0.023081092 -0.0254982 0.07380874
-0.08387328 -0.021158319 0.009027152 -0.05363152 -0.10144741 -0.08694748 -0.11546899 -0.2436761
0.07617081 0.06694422 -0.051906895 -0.11083708 -0.045828868 -0.07087164 -0.14626156 -0.14127406
-0.02643911 0.02023943 0.06440692 -0.08866493 -0.08634756 -0.025426013 -0.11462721 0.027200565
-0.021280391 0.071738236 0.030761855 0.15970951 0.022658644 0.033972356 -0.041853998 -0.14803669
0.093202874 0.06933686 0.08494242 -0.073974185 0.032314863 0.0760051 -0.09729364 0.08395657
0.1230345 0.06036889 0.015824182 0.009100797 0.00183353 -0.26256683 -0.07092082 -0.0038780482
0.040161647 0.04079532 0.048317652 0.08236824 0.025484776 -0.10121535 0.051264722 0.06648395
0.005042617 -0.06264089 -0.12048215 0.084758304 -0.00605471 0.043311592 -0.0675746 0.025012495
0.052627947 0.06391896 0.016896177 -0.011067732 0.006298263 0.091602825 -0.052407157 -0.032280415
-0.07918702 0.09478628 -0.036866803 0.03912313 0.019500043 -0.13173841 -0.1587833 0.029557256

fc_state.0.bias f4 [256]
00000000: 184c a63d 89d9 c13d 467a 9bbd a8f9 8f3d
00000010: fe43 783c 2a22 823c a6b2 c6bd 2fee e23d
00000020: e6aa f13d b273 293d 2bc8 133e e28a 163e
00000030: 0861 863d 839a 353d bfec a13d 724a 95bd
00000040: 2f6f b13c b94b d93d e0ac c13b 4293 b03c
00000050: a857 edbd e9fe 35bd 6728 24be 89fd 153d
00000060: 3f25 223e 5397 d03d 1aaa 12be 31a3 22be
00000070: d090 2dbd 1691 49bd bb04 0f3e 9e09 813d
00000080: 68f3 82bc 0b9c 113e 5dd0 d43d 13c4 3bbd
00000090: 439e ba3d 5ac8 d93d 8c52 a1bb f300 1abd
000000a0: f3ba cf3c 2e7c 2a3e 39ff 943d 8aea 3d3d
000000b0: ece2 9dbd 25e5 703d 4cfe f33c 1b9d 28be
000000c0: 482b 85bc f6e3 8d3d 88aa 2f3e d51c b23d
000000d0: 8e54 b03d cc75 cb3c cf86 433e d832 e53d
000000e0: 4d1c e1bd 2783 373b 73be c93d 2702 0dbe
000000f0: 13a0 9e3d f273 2c3e 275e 16be 0702 d3bd
00000100: ea45 29bb a192 99bd d295 9b3d 1541 28be
00000110: 792e 92bd d1e2 13be ef8a aabd e856 763d
00000120: 2895 81bd b383 c0bc 6194 253e 70e7 c7bd
00000130: 4100 a13d fedf cdbd f073 b9bd c403 60bd
00000140: 8f09 3abd aa7e fbbb 02b2 773e e017 0b3e
00000150: 8eeb 603e a5d3 9a3d 75ea 943d 8885 8dbd
00000160: cae4 9dbd 6df7 8cbd 3066 d4bd 1091 0f3e
00000170: 9ee0 08be 32cc 2a3e e982 c5bc e919 5f3d
00000180: 3aba b5bd 1ed0 dbbd b5f5 0f3d 54e3 1dbe
00000190: f6d6 083e 74da febb ddec 28be 3b2b f0bc
000001a0: 441c 493c 5d82 853d 07b9 973d d06b 783d
000001b0: 1935 03be a8ac c93d 3b6c 3abd 2468 923d
000001c0: 4a23 c3bd f1c1 3cbe f184 7ebc f234 533c
000001d0: d2ac aa3d 1f52 f03c a8ea 7e3c 7592 52ba
000001e0: d8f7 26be 9a18 0a3e 3a72 ebbc 585c b73d
000001f0: 7901 c53c 3202 1ebc 6b70 e23d c5cd a73c
00000200: 2b9f f93d a83c e23c 6f69 6c3d 14e7 673d
00000210: d7d7 c6bd fca6 773d dcf3 1cbd 5e6a 3d3d
00000220: ad77 9b3d 8a78 49be 2e68 f63d 8880 413e
00000230: c51e 3ebd f4af 163e 7fb1 c8bc 278c 803d
00000240: 4ab0 2ebd 991e 953d e3cc 593e 4026 1b3e
00000250: 615a 4abe b650 1d3e 9aaf 81bc 705d 593d
00000260: 0bfe 34be 2114 f7bd 33c9 a5bd 50af 003e
00000270: 3e02 233e 371b 72bc 130e 073d d14e 23bb
00000280: a174 73bc 940f 6fbe 0982 c5bd 75cc f53d
00000290: 44d8 d83d b531 8fbd d2c2 e53c 40b7 55bd
000002a0: 8201 003e 0251 c33b 3035 293d 034a 07be
000002b0: 46be 0dbd a59e 78bd e3a5 a0bc ac37 113e
000002c0: 3070 163c 4966 0bbd 82a7 533d b44c e83d
000002d0: 12a8 3a3d f4ba 443e 3f39 14bd b0c5 753d
000002e0: 435a cbbd 8142 183e 01c5 16be eae1 79bd
000002f0: 8531 883c 5ad9 1d3e 19c3 cd3b cd9e 003e
00000300: c3d4 773d f85c 3ebd ad63 1b3c 925d 223e
00000310: 9380 a2bd b3b3 eebc c51f fd3c 0f23 28be
00000320: 8383 303e 1c50 55bc 4ae8 54bd 1294 8fbd
00000330: 300c 0c3e d0eb de3c d1e0 eabd fb76 8c3c
00000340: 6f14 df3b 824a 1d3e 05ab d83b 6b74 133d
00000350: 7bc3 8cbd 5da8 543d 003f 583c a393 3d3e
00000360: f587 48bc 3e46 abbb 11e2 ce3d 1af9 bbbd
00000370: eb2c a13c 1c58 40bd 182b 523d ad9c d73c
00000380: 0337 b2bd 6665 f13c 0e8a 8d3c f76a 243d
00000390: 9abd 483e 70a8 adbd ca7b 7dbd 0498 933a
000003a0: 123a 4dbd ba2c 48be 5fee 133e 43c5 c33d
000003b0: d15f 57bd a79f dd3d 7509 19bc 7f19 16bd
000003c0: 416c babd f502 a83c 9de0 023e 1050 b13c
000003d0: 2e79 7b3d 3209 27bb 3d25 383d 9257 163e
000003e0: 0bd8 373e 17d0 20bd ebdf 2d3e a848 103d
000003f0: 3c3c ceb9 f537 f33c aae7 9abc 7f0c ed3d
0.081199825 0.0946532 -0.07591681 0.0703004 0.015152929 0.015885431 -0.09702043 0.11080586
0.118001744 0.0413701 0.14431827 0.14701417 0.06561476 0.044336807 0.07906484 -0.0728959
0.021659462 0.10610146 0.005910501 0.021554593 -0.11588985 -0.044432554 -0.16031037 0.036618743
0.15834521 0.10185113 -0.14322701 -0.15882565 -0.042374432 -0.04921063 0.13966648 0.063006625
-0.015985206 0.14219682 0.10391305 -0.045841288 0.09112217 0.10633917 -0.0049231704 -0.03759856
0.025357699 0.16648933 0.07275242 0.046366252 -0.077092975 0.05881228 0.029784344 -0.16466181
-0.01625599 0.06928246 0.17154896 0.086969055 0.086098775 0.024836443 0.19094394 0.11191338
-0.10991726 0.0028001757 0.098507784 -0.13770352 0.077453755 0.16841105 -0.14684354 -0.10303121
-0.0025829026 -0.0749867 0.07596935 -0.16431077 -0.0713777 -0.14441992 -0.08327281 0.060141474
-0.063272774 -0.0235003 0.16169883 -0.0976094 0.078613766 -0.10052489 -0.090553164 -0.05469109
-0.045419272 -0.0076750116 0.24188998 0.13583326 0.21964857 0.07559899 0.07271282 -0.06910235
-0.07709654 -0.0688313 -0.10371053 0.1402018 -0.13366935 0.16679457 -0.024110274 0.05446807
-0.088734105 -0.107330546 0.035146434 -0.1541875 0.13363251 -0.0077775065 -0.16496606 -0.029317489
0.012274805 0.065190054 0.07408338 0.060649693 -0.12813224 0.09847385 -0.045513373 0.071487695
-0.09528215 -0.18433358 -0.015534625 0.012891041 0.08333744 0.029336033 0.015558876 -0.0008032688
-0.16305482 0.13485947 -0.02874099 0.0895316 0.024048554 -0.009644078 0.11056598 0.02048386
0.12188562 0.027616814 0.057717737 0.056616858 -0.09709137 0.060461983 -0.0383185 0.046244018
0.07591186 -0.19674888 0.120315894 0.18896687 -0.046416063 0.14715558 -0.0244987 0.06276732
-0.04264859 0.07281227 0.21269564 0.1515131 -0.1976104 0.1536282 -0.015830804 0.053067625
-0.17675035 -0.12064386 -0.08095016 0.12566876 0.15918824 -0.014776996 0.032972407 -0.0024918804
-0.0148593495 -0.23345786 -0.09643943 0.12001888 0.105881244 -0.06991903 0.028047 -0.052176714
0.12500575 0.0059605846 0.04131049 -0.13211827 -0.034605287 -0.06069817 -0.019610351 0.14181393
0.009182021 -0.034033094 0.05167342 0.11342755 0.04557044 0.19211942 -0.036187407 0.060002983
-0.099293254 0.14869119 -0.14723589 -0.061006464 0.016625175 0.15414944 0.006279361 0.12560578
0.06050564 -0.04647538 0.009484214 0.15856007 -0.0793468 -0.029138422 0.030898938 -0.16419624
0.17237668 -0.013019588 -0.05197934 -0.07010664 0.13676524 0.027212054 -0.114686616 0.017146578
0.006807856 0.15360454 0.006612184 0.035999697 -0.068732224 0.051918376 0.013198614 0.1851335
-0.012239446 -0.0052268794 0.101017125 -0.09178372 0.019674739 -0.046959028 0.05131063 0.026319826
-0.08701899 0.029467296 0.017277744 0.040141072 0.19603577 -0.084793925 -0.061885633 0.0011260514
-0.05010421 -0.19548312 0.144464 0.09559109 -0.052581612 0.10821467 -0.009340634 -0.03664541
-0.09102679 0.020509223 0.12780996 0.021644622 0.061394863 -0.0025487659 0.04495739 0.14681843
0.17953508 -0.03926095 0.16979949 0.03522554 -0.0003933626 0.029689768 -0.018909294 0.11574649

fc_state.2.weight f4 [64, 256]
00000000: e32b fbbd 825c c8bd 1eaa 4e3e b8ab a63d
00000010: b257 ccbc f04b 3e3c 21a5 bd3d 7527 41bd
00000020: 90e0 c3be 0f07 cabc 6577 65bd 4b0f 88bd
00000030: da69 8dbd 66da 10be 1934 b8bd 5345 f73d
00000040: 008c 9b3c 6898 90bd 98cf 84bd 88b4 9b3b
00000050: b8b8 c33e 71dd 0f3e 96be e33d 0a49 933e
00000060: 9c7e 33bc 7f53 13be 447f 703e 403d 303e
00000070: 380d ab3e 491a 96be cf3b 6cbe a9bc f0ba
00000080: 556a 7cbe fef1 00bd 14a1 14bd 0ecd 2dbe
00000090: 70b1 febd 36a1 24be e87d d4be eb70 56be
000000a0: 1055 8abe d854 78bd 6409 8d3c 6666 b73d
000000b0: 3110 6d3d 0317 cfbd 3be7 25be 244a ad3e
000000c0: 98e6 113d 4860 34be 939e c3bc 2d64 88be
000000d0: 3b97 4cbe 17f5 153c 9e0f 4d3d a6b5 b1bd
000000e0: 4292 793e 49d1 85be 674e 84be ec73 80be
000000f0: 1d74 49be 7143 3bbd 28c0 ef3d 6e6b d43c
00000100: 7425 e93c aa76 103e 8a5a 3bbd e96f d23c
00000110: 80f4 bcbe b72e fd3d 51f1 1dbd 29ff 1a3d
00000120: 0f84 a8be 5ffb 473d 8c7e ebbd 2e64 a93c
00000130: 02af 573d 4e74 9a3d 7856 e2bc 2db9 97be
00000140: a7ea 9a3c f964 bdbe 6714 c8bb c87e 18be
00000150: 58ee 7e3d 34d8 a1be f8c7 ebbd a154 6f3d
00000160: a4d1 37bd b8b4 46be cd5d bebc e355 173c
00000170: 4888 4d3d a341 433c 2f0b 253e 326f 2bbd
00000180: 8ae1 073e fed4 fb3d 47b8 e93e 3fe2 343d
00000190: 9aaa 85bb 1fa1 cebe 4e35 cb3d e935 7bb9
000001a0: 7376 b6bd c486 ea3b 2e25 3ebe b8d7 d1bd
000001b0: 5d5b c53d e0ae c8bb 9e17 68be 071f 3a3e
000001c0: a1a8 9ebc c1ed 7f3d 024c 893d b64e 19be
000001d0: 5a63 913d 6e53 23bd 6145 633c cc35 8b3a
000001e0: 035b 3e3e 5f83 b8bd 67ed 1a3c 098f 54bb
000001f0: eed6 243c 42b3 2bbd 1276 7b3a b0bc a6bd
00000200: 83ad f5bd a32d 193e bc51 8abe 6342 603b
00000210: 4a27 1f3e ccfd afbe a7dd debd a799 683d
00000220: 47d2 0fbe 01b0 7b3d 9915 4dbb 2085 893d
00000230: f1a6 cd3d 3943 7b3d 46f0 1f3e d4b9 4cbc
00000240: 94f6 bcbe e34d 19be 4a7d 2a3a 1c27 5e3d
00000250: c88e 663d 18bf 43bd 209f e8bd 1d1e 18bc
00000260: 9427 673e 01c3 3b3e e82d c13d c1e5 85be
00000270: fd16 8e3d 66fd 7c3e 764d f23d 221f 193d
00000280: af35 3a3e 8943 183a adbc 553e ef81 053d
00000290: 7768 903d d856 5c3e d44f 113e 6f73 6d3d
000002a0: aac3 993d 5544 803d 989a 17be 2dbb 533e
000002b0: 2dc8 fdbb e12c c23d bca6 783c ca2e 47be
000002c0: 78ec 963c abeb 263e 49e5 40bd 6c06 273c
000002d0: 6ae3 433d f965 833d bd8a 823d 37ba 86bd
000002e0: f165 ba3d 34de c23c 6d1a 143e f7d2 733e
000002f0: a71e 0b3d cfa0 7cbe 9e65 03bc cb1b 24be
00000300: de09 eabd c2c8 353e 70da 59be e96f 283c
00000310: 8f8e 82be 731a 0f3e 3479 a6bd e911 a83e
00000320: 9ee9 55bd 0674 213e 3386 b3be c0b6 663d
00000330: e507 8b3d c57d 11be bdfa 583d 6dd5 1bbd
00000340: c6c2 983e 2aad 28bd 0930 a93d beca 303d
00000350: 4be4 953e 6c1a 44be f696 8c3c 26e2 75bc
00000360: f822 0e3e 2996 da3d e359 86bd 8b14 b83d
00000370: 62ad 31bd 2600 bf3c 1ee2 b53d 6161 443c
00000380: 240c edbe b289 943d f6f0 1d3d b0b9 87bd
00000390: 9288 b03d bcbf 4d3e eca0 61be c37f b0be
000003a0: 21c0 c73d 5247 e63e ede4 c3bd 7f3c 943d
000003b0: 94a8 93be eff2 6f3d 95e6 843e f0ae 44bc
000003c0: 306b 2e3d 1118 85bd 9443 3fbd e062 84bd
000003d0: 99bd a6bb 5d9a 9abe ad26 0abf df2e 5a3d
000003e0: 8284 a6bd 6d0a 453d ad55 17be 21f9 0bbd
000003f0: 575e 03be 9d4a 263e f6a0 32be 0c79 4cbe
-0.1226423 -0.097832695 0.20182082 0.081382215 -0.02494416 0.011614785 0.092600115 -0.04715677
-0.38257265 -0.024661569 -0.056022067 -0.06643542 -0.06904955 -0.14145812 -0.08994312 0.120737694
0.018987656 -0.07060319 -0.06484908 0.0047517456 0.38226867 0.14049317 0.11120336 0.28766662
-0.010955479 -0.1438732 0.23486048 0.17210865 0.33408523 -0.2931693 -0.2306969 -0.0018366772
-0.24649937 -0.03148078 -0.03628643 -0.16972753 -0.12436187 -0.16077122 -0.4150231 -0.20941512
-0.27018023 -0.06062779 0.017216392 0.08955078 0.05787677 -0.10111811 -0.16201489 0.33845627
0.035620302 -0.17614853 -0.023879325 -0.26638928 -0.19979565 0.009152672 0.05006372 -0.08677225
0.24372199 -0.26136234 -0.25841066 -0.2508844 -0.196732 -0.045718614 0.11706573 0.025930133
0.028460242 0.14107767 -0.04574064 0.025688129 -0.3690529 0.12362426 -0.038560215 0.037840996
-0.32913253 0.04882371 -0.11498746 0.020677652 0.052657135 0.075417146 -0.027629122 -0.29633465
0.01891072 -0.369911 -0.006105948 -0.14892113 0.06223902 -0.31610262 -0.115127504 0.058430318
-0.044877663 -0.19404876 -0.023238087 0.009236786 0.050178796 0.0119175045 0.16117547 -0.04185409
0.1326963 0.122964844 0.45648405 0.044161078 -0.004079175 -0.403573 0.099222764 -0.00023957308
-0.08909311 0.0071571786 -0.1856887 -0.10246223 0.09636567 -0.0061243623 -0.22665259 0.18175898
-0.019367518 0.0624826 0.067039505 -0.14971432 0.07099028 -0.039874487 0.013871522 0.0010620891
0.18589406 -0.09009432 0.009456015 -0.0032433888 0.010061009 -0.041919 0.0009592484 -0.08141458
-0.11995985 0.14958815 -0.27015483 0.0034219257 0.15542331 -0.3437332 -0.108821206 0.05678716
-0.14045058 0.061447147 -0.003129339 0.06714845 0.10041607 0.061343405 0.15619001 -0.012495477
-0.36906874 -0.14971118 0.0006503655 0.054236516 0.05628851 -0.047789663 -0.11358476 -0.009284523
0.22573692 0.18336107 0.09432584 -0.2615185 0.069379784 0.24706039 0.11831181 0.037383206
0.18184541 0.00058084034 0.20872755 0.032594617 0.07051175 0.21517503 0.14190608 0.057971414
0.07508023 0.06263033 -0.14805067 0.2067687 -0.00774481 0.09481216 0.015176471 -0.19451442
0.018423304 0.16300838 -0.047093663 0.010194402 0.0478243 0.06415934 0.063741185 -0.065784864
0.09101475 0.023787595 0.14463206 0.23810945 0.03396478 -0.24670719 -0.008019833 -0.16026227
-0.11427663 0.17752364 -0.21274734 0.010280588 -0.2549939 0.13974933 -0.081285864 0.32826164
-0.052224748 0.15766916 -0.35063323 0.056326628 0.06788615 -0.14208134 0.052973498 -0.038045336
0.298361 -0.041180767 0.08261115 0.0431621 0.29275736 -0.19150704 0.017161828 -0.015007531
0.13880527 0.10673172 -0.06560113 0.08988293 -0.04337824 0.0233155 0.08881019 0.011986108
-0.46298325 0.07252826 0.038559876 -0.06627214 0.08619799 0.20092672 -0.22034043 -0.34472474
0.097534426 0.44976288 -0.095651485 0.07238101 -0.28839552 0.05858129 0.2595717 -0.012004599
0.04258269 -0.06498731 -0.046695307 -0.064641714 -0.00508852 -0.30195895 -0.53965265 0.053267356
-0.081307426 0.048105646 -0.14778776 -0.034173135 -0.12828957 0.162394 -0.17444214 -0.1996805

fc_state.2.bias f4 [64]
00000000: b7a2 e8bc 5244 30bd 6e16 e53d ec69 5abd
00000010: 0b50 5dbc c5a3 8ebd 35ec e53d 4e4d 43bd
00000020: 48ae fe3d 05ec 213e 6517 b7bd 07ca 183e
00000030: 4773 f73d b974 1b3e b383 f63d 66ee 11bd
00000040: 8261 41bd fa98 133e ca90 87bd 7d6f bf3d
00000050: 5c23 e43d 730c 09be 498f a73d 5856 85bd
00000060: 332f 5abc 821f 05be 26f3 1f3e 1f6b a13d
00000070: 4541 153e 5f91 e7bd 076d 853d 29e3 17be
00000080: ae20 163c eaa0 203e ab00 f1bd 3055 e6bd
00000090: 558d e8bd 539d 093e 1d12 023d a0f1 be3d
000000a0: 6e09 efbc cb00 223e 8965 7fbd fbca 383e
000000b0: e6c2 7fbc f6d8 30bd 9b84 a9bc d6d1 04bd
000000c0: da61 12be a660 4ebd 2f86 9ebd 0f05 193e
000000d0: c9cd 003d 1c3f d9bc f2cf 043e f152 ca3d
000000e0: 8169 da3d 73df 353e bb5b fe3d def2 cf3b
000000f0: c2f5 98bc 2e5c 153e c5df 243e 3916 a6bc
-0.028397901 -0.043033905 0.11185919 -0.05332367 -0.013507853 -0.0696483 0.112266935 -0.047681145
0.12435585 0.1581269 -0.08940009 0.14920817 0.12082534 0.15181245 0.120368384 -0.035627745
-0.04721213 0.14413825 -0.06619413 0.093474366 0.11139557 -0.13383655 0.08181626 -0.065106094
-0.013316917 -0.130003 0.15620098 0.0788176 0.1457568 -0.11307024 0.06514936 -0.14832748
0.009163065 0.15686384 -0.117677055 -0.11246717 -0.11355082 0.1343892 0.031755555 0.0932343
-0.029179301 0.15820615 -0.06235269 0.18046181 -0.015610432 -0.04317566 -0.020693114 -0.032426678
-0.1429514 -0.05038514 -0.07740437 0.14943336 0.031446252 -0.02651935 0.1296995 0.09879101
0.106646545 0.1776102 0.1241984 0.0063460907 -0.018671874 0.14585945 0.16100986 -0.020274268

fc_state.4.weight f4 [1, 64]
00000000: 5fcd afbe 65b0 9fbe 9031 933e aeda 0a3d
00000010: 1c1b b1be 6cbb 303d 1b9f a73e cd5e 893d
00000020: 78ff 8d3e 2d84 9a3e 3296 9fbe 1d80 ac3e
00000030: ec26 a23e 9159 b83e 8d7e 8a3e 62f8 b03d
00000040: 83c0 bb3c 1624 8b3e 01ad a7be 7200 843e
00000050: 1909 a03e 03cf 92be 2423 873e aa8b aa3d
00000060: dd8e b6be 918c cabe fe47 913e 22dd 7f3e
00000070: 1727 ba3e 01fb d8be cb3e 6a3e 4e97 a3be
00000080: 7021 0dbc b1b8 9a3e 53b4 8abe 4863 91be
00000090: f760 d8be 5c9c 863e b9b0 bc3f e7a2 843e
000000a0: e03a 783d a77b b83e 995e a6be 4925 943e
000000b0: 98d5 b4be cc12 bcbe 0356 cebe f907 86be
000000c0: 2531 c5be dbdd babe 42f5 afbe 4655 703f
000000d0: 8162 b53f 729e e63d 2377 833e d08f 763e
000000e0: daa4 9e3e 3cb7 983e e3a0 9a3e e168 13bb
000000f0: 3f2a 9dbe bcea 6c3e 8fed 983e ef82 55bc
-0.34336373 -0.31189266 0.2874875 0.033899955 -0.34590995 0.04314749 0.32738575 0.06707535
0.2773397 0.30178967 -0.31169277 0.33691493 0.3167032 0.36005834 0.27049676 0.08641125
0.022918945 0.2717597 -0.3274918 0.2578159 0.3125694 -0.28673562 0.26393998 0.0832742
-0.3565587 -0.3956037 0.28375238 0.24986699 0.36357948 -0.42379 0.22875516 -0.31951374
-0.008613929 0.30219033 -0.270907 -0.28396058 -0.42261478 0.26291168 1.4741431 0.25905535
0.060603023 0.3603184 -0.32494047 0.28934696 -0.3531921 -0.3673309 -0.40299997 -0.26177958
-0.38514057 -0.36497387 -0.34366804 0.93880117 1.4170686 0.1126069 0.25676832 0.24078298
0.30985147 0.29827297 0.30200872 -0.0022492933 -0.30696294 0.23136419 0.29868743 -0.013031705
