data/Torch/Dueling/003_Big-CNN_E_L/checkpoints/weights_48000episodes.pth (torch, 505343 bytes, 17 tensors)

conv_layers.0.weight f4 [64, 1, 3, 3]
0	0x40533609	3.300173
1	0x402c9721	2.6967242
2	0x40971432	4.7212152
3	0x3fec4aeb	1.8460363
4	0x4020ea63	2.5143058
5	0x4077380a	3.8627954
6	0xc0174efd	-2.364196
7	0xbf892bae	-1.0716455
8	0x40e605f3	7.188226
9	0xc0854729	-4.1649365
10	0x3f67659b	0.9038941
11	0x3f438240	0.7637062
12	0xbd5d7b52	-0.054072686
13	0xbd6fad65	-0.05851497
14	0x40245b82	2.5680852
15	0x3f5b0c5c	0.85565734
16	0x4016b94c	2.3550596
17	0xbf2f7531	-0.68538195
18	0x3f9764b0	1.1827602
19	0x408c7001	4.3886724
20	0x405f0d94	3.4852037
21	0x3f8c9155	1.0981852
22	0xbeb0d7f3	-0.34539756
23	0x40bd0a79	5.9075284
24	0xc092a33e	-4.582427
25	0xc04dfbc5	-3.2184918
26	0x3fc30c6b	1.5238165
27	0xbf0b4f15	-0.54417545
28	0x3fcc5fd8	1.5966749
29	0xc05b71f5	-3.4288304
30	0x40239872	2.5561795
31	0x400cc289	2.1993735
32	0x4044ee23	3.0770347
33	0x4042afa2	3.0419698
34	0x409e0d57	4.9391284
35	0x40d0b2da	6.5218325
36	0x3fe0e409	1.7569591
37	0x3ff5eaaf	1.9212245
38	0xc03e7dcd	-2.9764283
39	0x3f94a49b	1.1612734
40	0x40855662	4.166795
41	0xbff581ed	-1.9180275
42	0x40637d53	3.5545242
43	0x40b13a4b	5.538366
44	0x40e72b3c	7.2240276
45	0x3f3e331b	0.7429673
46	0x4077de69	3.8729498
47	0x409bb237	4.8655047
48	0x4000e56d	2.014003
49	0x3fb71e78	1.4306173
50	0xbf847216	-1.0347316
51	0xbe5e9b29	-0.21738876
52	0xc01501ec	-2.3282423
53	0x40c6184d	6.1904664
54	0x3ff38c09	1.902711
55	0xbf905317	-1.1275357
56	0x3f9cad65	1.2240416
57	0x3e416e9c	0.1888985
58	0x40023d2b	2.0349834
59	0xc05eece3	-3.4832084
60	0xbdf6f1e0	-0.12057853
61	0xc03cf443	-2.9524086
62	0x40ca2c59	6.3179135
63	0xbd2e6bff	-0.04258346
64	0x3fa98940	1.324501
65	0xc0466ea3	-3.1005027
66	0x4049bb11	3.1520426
67	0x4068a9d9	3.6353667
68	0x3e5c9ea5	0.21544893
69	0x3f2899d5	0.6585973
70	0x40d26b5c	6.5756054
71	0x40c80831	6.251
72	0x40a39c7b	5.1128516
73	0x406dcc15	3.7155812
74	0xc0776fb1	-3.866192
75	0x3fbf29cd	1.4934632
76	0x3f93425d	1.1504627
77	0x40a3b40c	5.1157284
78	0x404a68c4	3.1626444
79	0x408ee564	4.465502
80	0xc042b927	-3.0425508
81	0xbe889b6c	-0.26681077
82	0x40141369	2.3136847
83	0x401c95aa	2.4466348
84	0x3f976dd7	1.1830395
85	0x3fc2c51b	1.5216402
86	0x4030421e	2.7540355
87	0xc021de01	-2.529175
88	0xbfacd1d0	-1.350153
89	0x40dc3135	6.8810067
90	0x4026b260	2.6046371
91	0xbfab1522	-1.3365824
92	0x40840877	4.1260333
93	0x4076c7d0	3.8559456
94	0xbfaac83a	-1.3342354
95	0x3f8fb857	1.1228131
96	0x40d5f0e9	6.685658
97	0x406e4f8d	3.7236054
98	0xc09ba3e1	-4.8637547
99	0xc0bedaed	-5.9642243
100	0x4034878d	2.8207734
101	0x408dc2a6	4.430011
102	0xbd998a25	-0.07497052
103	0xc0d54bf1	-6.66552
104	0xbfd84286	-1.6895301
105	0xc0b014f9	-5.50256
106	0x3fa47a68	1.2849855
107	0x3fadf785	1.3591162
108	0xc0b58837	-5.672878
109	0xc0b55cf5	-5.6675973
110	0x40a08ca1	5.0171666
111	0x3f99958b	1.1998762
112	0xc0a0075f	-5.0009
113	0xc0d8e816	-6.778331
114	0x40141500	2.3137817
115	0x3f5aa84b	0.85413045
116	0x40826bcb	4.0756583
117	0x3ed8a9f1	0.42317155
118	0xc075d2a3	-3.8409812
119	0xc0819590	-4.049507
120	0x3f4d294f	0.80141157
121	0x3eb59df2	0.35472065
122	0x404a9f6a	3.1659799
123	0x3f9c2239	1.2197944
124	0xc08759e4	-4.229723
125	0xc045b94c	-3.0894346
126	0xbfbaa273	-1.4580826
127	0x3e8bd8a9	0.27313736
128	0x40557e1a	3.3358216
129	0xbf1a26a1	-0.60215193
130	0x3f6d824d	0.9277695
131	0x404ac074	3.1679964
132	0xc05cdc6a	-3.450953
133	0x3fe63847	1.7985924
134	0x4017349a	2.3625855
135	0xc0908df5	-4.5173287
136	0xbfb3f290	-1.4058399
137	0x3f6d17ab	0.9261424
138	0x3caab1d7	0.020836754
139	0xbd9c64c1	-0.07636405
140	0x404e357b	3.2220142
141	0x3e012a3b	0.12613766
142	0x403a681c	2.9126043
143	0xbf6a5317	-0.91533035
144	0x3f3a97e7	0.72888035
145	0x3fc744f6	1.556792
146	0x4083f132	4.123193
147	0x408ffc98	4.499584
148	0x4022ea1a	2.5455384
149	0xc06f2a9f	-3.7369764
150	0x4090caf0	4.5247726
151	0x40a22139	5.0665555
152	0x403b0156	2.9219565
153	0xc0130c9e	-2.297645
154	0x404ce223	3.2013023
155	0xc00a4857	-2.1606653
156	0x40744dca	3.8172479
157	0x40882976	4.255061
158	0x40040859	2.0630095
159	0x3fc4a0b7	1.5361546
160	0x40efd670	7.4949265
161	0x4084862b	4.141378
162	0x3f571d9a	0.84029543
163	0x3d0f8dde	0.035047404
164	0x4086b4e4	4.2095814
165	0x3e017813	0.12643461
166	0xbe9bc302	-0.30422217
167	0x3f73116a	0.94948447
168	0x3faad673	1.3346695
169	0xc0969cf1	-4.706658
170	0xc0f6cdab	-7.712606
171	0x3f9b2c88	1.2122965
172	0x4091b6cd	4.5535645
173	0xc093b81e	-4.6162252
174	0x3ff9e37d	1.9522549
175	0xbf6c6e6f	-0.9235601
176	0x4072a5b8	3.7913647
177	0x4077ced1	3.871998
178	0x4092f0d3	4.5918975
179	0xc07a8218	-3.9141903
180	0x4031222a	2.7677102
181	0x4035dae4	2.841485
182	0x409ce576	4.9030104
183	0xbec2a101	-0.3801346
184	0xbf6af176	-0.9177469
185	0x4042f31c	3.0460882
186	0x40c0e787	6.0282626
187	0x3fd549b7	1.6663121
188	0xc085aa01	-4.1770024
189	0x3fc884e9	1.5665561
190	0x3e8e0ad5	0.2774264
191	0x3f1de30a	0.6167456
192	0x40803424	4.006365
193	0x40522c1d	3.2839425
194	0xbfcdf274	-1.6089616
195	0xbfdfa801	-1.7473146
196	0xbf8ac20e	-1.0840471
197	0x40b05144	5.50992
198	0x3fc8146c	1.5631232
199	0x40692356	3.6427817
200	0xc0036222	-2.0528646
201	0xbcd5b184	-0.026085623
202	0xbeedc362	-0.46438128
203	0x40bcbe0c	5.898199
204	0x3f47b3d0	0.7800875
205	0xbfe461d7	-1.7842358
206	0xc03190ed	-2.7744706
207	0x3f7d08a5	0.98841316
208	0x3ffe86cf	1.988489
209	0xc071bcfe	-3.7771602
210	0x4063ea77	3.5611856
211	0x405a247e	3.4084773
212	0xc017ac97	-2.369909
213	0x40120109	2.2813132
214	0x40a6b87c	5.21002
215	0x40cc50e1	6.384873
216	0x3fe9f5b9	1.8278114
217	0x3f8b8f05	1.0903021
218	0x408bd7d1	4.370095
219	0xbf233f19	-0.63768154
220	0xbed3dd20	-0.41379642
221	0x4000ac36	2.010511
222	0x3fa9d1ec	1.3267188
223	0xc0283d7d	-2.628753
224	0xc0a0a3b4	-5.0199833
225	0x40402d24	3.0027552
226	0x3fc6e23d	1.5537792
227	0x40b7d3a0	5.744583
228	0xc0439ba5	-3.0563748
229	0xbd170f24	-0.036879674
230	0xbe8e041b	-0.27737507
231	0x4015eff9	2.3427718
232	0xbf9dc5ea	-1.2326024
233	0x40e74848	7.2275734
234	0x4009c01e	2.152351
235	0x3ea78166	0.3271591
236	0xc0ccc428	-6.398945
237	0xbf1cefbd	-0.6130331
238	0xc0551e24	-3.3299646
239	0x4014296c	2.3150282
240	0x3ff4fa95	1.9138972
241	0xc048e8f5	-3.1392186
242	0x3f4f2809	0.80920464
243	0x3f538bd5	0.8263524
244	0x3f90f69a	1.1325257
245	0xc0c9c966	-6.305835
246	0x3ff855a5	1.9401137
247	0x3fd195a7	1.6373795
248	0x4055df71	3.3417628
249	0x408f9cfe	4.487914
250	0x407d4174	3.95712
251	0xc038bd4e	-2.8865542
252	0x3f924209	1.1426402
253	0xbe139c4f	-0.14415096
254	0xbeca1ae8	-0.39473653
255	0xbfca3c44	-1.5799642

conv_layers.0.bias f4 [64]
0	0x3d99ab7b	0.075034104
1	0x402377c6	2.5541854
2	0x3f293214	0.6609204
3	0x3f80c39e	1.0059698
4	0x406eaf95	3.7294667
5	0x40ac1f5b	5.3788276
6	0x4047518a	3.1143517
7	0x400cd96c	2.2007704
8	0x4013888b	2.305209
9	0x3fa8f991	1.3201162
10	0x40b239fc	5.569578
11	0x40d01d03	6.5035415
12	0x40b75bf7	5.729976
13	0x40269491	2.6028178
14	0x3fe890fa	1.8169243
15	0x40926c48	4.575718
16	0x408839e8	4.2570686
17	0x3f970c79	1.1800681
18	0x3fb79dfa	1.4345086
19	0x401314c6	2.298143
20	0x40d4fb5c	6.6556835
21	0x3fa678d3	1.3005623
22	0x3fec68da	1.8469498
23	0x40895c3d	4.2925096
24	0x4004758e	2.069675
25	0x3fb30072	1.3984511
26	0x4022b955	2.5425618
27	0x3f4c43ab	0.79790753
28	0x40442d6d	3.0652726
29	0x40651b75	3.5798008
30	0xc00c53e6	-2.1926208
31	0x40c59258	6.174114
32	0x407b11d9	3.9229643
33	0x3ff8cf6a	1.9438298
34	0x3fb6cbe7	1.4280976
35	0xbebb2bb4	-0.3655678
36	0x40b6a3cc	5.7074947
37	0x408bb52d	4.365866
38	0x40cd89fc	6.423094
39	0x400d2404	2.2053232
40	0x40591df8	3.3924541
41	0x3f70b887	0.94031566
42	0x3f5c805d	0.86133367
43	0x40bf4536	5.9771986
44	0x3ff9a146	1.9502342
45	0x402dcc53	2.715596
46	0x3e09bdb9	0.1345128
47	0x40b1708f	5.54499
48	0x3f24b777	0.64342445
49	0x4084f0bc	4.1543865
50	0x402c5503	2.6926887
51	0x404b0407	3.1721208
52	0x3f954192	1.1660635
53	0x40eb5e28	7.3552437
54	0x40a3d9d1	5.120339
55	0xbf04a845	-0.5181926
56	0x400d7a2e	2.2105823
57	0x3f900fae	1.1254785
58	0x40726bd3	3.787831
59	0x4094040a	4.625493
60	0x3f10a859	0.5650688
61	0x3f855e8f	1.0419482
62	0x40a4cf35	5.150294
63	0x4025495d	2.5826027

conv_layers.2.weight f4 [64, 64, 2, 2]
0	0x403a33d3	2.909413
1	0xbf7a55a2	-0.97786915
2	0x402de1da	2.71691
3	0x40b7ffca	5.7499743
4	0xbff4e71b	-1.9133028
5	0x40226a0c	2.5377226
6	0x3fcf22a5	1.6182448
7	0xbf1190cd	-0.56861573
8	0xc09a6af2	-4.825555
9	0x4065356b	3.5813854
10	0x409ccc61	4.8999486
11	0xc03d1348	-2.9543018
12	0xbf257e3f	-0.6464576
13	0x4086bac4	4.2102985
14	0x407d8813	3.9614303
15	0x407ed73e	3.9818873
16	0x4004392f	2.0659902
17	0x3f946723	1.1593975
18	0x3fa3de2b	1.2802175
19	0x40d986e0	6.797714
20	0x407857f5	3.8803685
21	0xc04eff11	-3.234318
22	0x3f562766	0.8365387
23	0x40b70052	5.718789
24	0x408a25ef	4.3171306
25	0xc0473722	-3.11274
26	0x3f658783	0.896599
27	0x40967d41	4.70279
28	0xbf1b6abb	-0.6070973
29	0x4023b816	2.5581107
30	0x4058b590	3.3860817
31	0x409e7b0e	4.9525213
32	0x3fbe05e0	1.4845543
33	0x407ce949	3.9517386
34	0x3f9d7bff	1.2303466
35	0xbfdcd068	-1.72511
36	0x3f6b9499	0.9202362
37	0x3d1610a0	0.03663695
38	0x4033930d	2.8058503
39	0x40bba060	5.863327
40	0x407fe477	3.9983194
41	0xc00c2b48	-2.1901417
42	0x3faafd9c	1.3358645
43	0xbf6403c2	-0.89068234
44	0xc0ac145d	-5.3774858
45	0x404c8c45	3.1960614
46	0x3f94113a	1.1567757
47	0xbe1a60b5	-0.15075953
48	0xbe4c4676	-0.19948754
49	0xc0a6b91c	-5.2100964
50	0x40275c57	2.615011
51	0x407fa646	3.9945235
52	0x402f2f02	2.7372441
53	0x3f16ec7b	0.5895459
54	0x4019365a	2.3939424
55	0xc09601d1	-4.6877217
56	0xc0980c56	-4.751506
57	0x3e6bc0ef	0.23022817
58	0x409e07ee	4.938468
59	0x40111570	2.2669334
60	0xc0086e74	-2.1317415
61	0x400e5894	2.2241564
62	0x3f3e0fd3	0.74242896
63	0xbf651247	-0.89481014
64	0x40778caa	3.8679605
65	0xc04562bf	-3.084152
66	0x3f9b4356	1.2129924
67	0x4094e424	4.652849
68	0xbf81b397	-1.0132931
69	0x404bb254	3.1827593
70	0x402bef72	2.6864896
71	0x4050444c	3.2541685
72	0x405f9c73	3.493924
73	0xc095ccd6	-4.6812544
74	0xc07a8fdf	-3.9150312
75	0x3e20d15d	0.15704866
76	0xbf0d0b50	-0.55095387
77	0x40983081	4.755921
78	0x3f9c0896	1.219012
79	0xc00eba79	-2.2301314
80	0x40546696	3.3187613
81	0x3e3f4e84	0.18682295
82	0xc000bede	-2.0116496
83	0xc042131f	-3.032417
84	0x40599a9d	3.4000618
85	0xc042d723	-3.044381
86	0x401f1a83	2.4859931
87	0x40ba9669	5.8308606
88	0xc03b79f4	-2.9293184
89	0x40925230	4.5725327
90	0x40087d93	2.1326644
91	0xc09f2594	-4.973337
92	0xbe190fc7	-0.14947425
93	0x3fdebcc9	1.7401363
94	0x40143d30	2.3162346
95	0x40c268df	6.0753016
96	0x4041715e	3.0225444
97	0xc07f6f0e	-3.9911532
98	0xc0816078	-4.043026
99	0xbed45f92	-0.41479164
100	0x409169ec	4.54418
101	0xc0216bdf	-2.522209
102	0xbf1bb69b	-0.6082551
103	0x40a5b986	5.178897
104	0xbf858769	-1.0431949
105	0x40c57390	6.1703568
106	0x40aa7183	5.3263564
107	0xc09436e9	-4.631703
108	0xc0374357	-2.863485
109	0x40ba195a	5.8155947
110	0x4017b705	2.3705456
111	0xbff33d5d	-1.9003102
112	0x402be55a	2.6858735
113	0xbf32fc27	-0.69916004
114	0x3eb34fbe	0.35021776
115	0x40e408dd	7.126082
116	0xbf939032	-1.152838
117	0x40982d5d	4.7555375
118	0x3f661166	0.898703
119	0xbfe8cff3	-1.8188461
120	0xbe2b643a	-0.16737452
121	0xc00947cf	-2.1450078
122	0x4042fc64	3.0466547
123	0x40b638dd	5.6944413
124	0xc0660d80	-3.594574
125	0x3f7ac381	0.97954565
126	0x405a883f	3.4145658
127	0x40c547ef	6.165031
128	0x408fb6e3	4.491075
129	0xbfd283c9	-1.6446468
130	0xbfa5e800	-1.2961426
131	0xc038d53d	-2.888015
132	0x4045cbba	3.0905595
133	0xc08ac4a4	-4.336504
134	0x40062953	2.0962722
135	0x40d50b18	6.657604
136	0x3f71c117	0.94435257
137	0xc04a8963	-3.1646354
138	0x3ff9f871	1.9528943
139	0x40f7d574	7.7448063
140	0xbf92c842	-1.1467364
141	0x3f7aa90d	0.979142
142	0x3fd317d7	1.649165
143	0x409bbbe4	4.866686
144	0x3fa01f65	1.2509581
145	0xc09119f3	-4.5344176
146	0x3f7d94c6	0.99055135
147	0x3fabf711	1.3434774
148	0xc02f65e7	-2.7405946
149	0x3f7d05df	0.98837084
150	0x4010a8bd	2.260299
151	0x3f19797d	0.59951
152	0xc045cd9c	-3.0906744
153	0x3e1c7a59	0.15281047
154	0x407edfc0	3.9824066
155	0x40c9542b	6.2915244
156	0x3fb84755	1.4396769
157	0xbe322efb	-0.17400734
158	0x3fb93a47	1.447091
159	0xc0503255	-3.253072
160	0xc05cc3d4	-3.4494524
161	0x409defc0	4.9355164
162	0x408d4cc5	4.4156213
163	0xc058b95e	-3.386314
164	0x3f66fc10	0.90228367
165	0x3ffc90bb	1.9731668
166	0xc00b92e6	-2.180841
167	0xc09b700d	-4.857428
168	0x407c2adc	3.940116
169	0xbffb7b79	-1.9647056
170	0xbfac386d	-1.345472
171	0xc000cbc5	-2.012437
172	0x404e3ead	3.2225754
173	0xbfe4a499	-1.7862731
174	0xbf710930	-0.94154644
175	0xbf9caa97	-1.223956
176	0x401b843d	2.4299462
177	0xc06e8149	-3.726641
178	0x402b30cf	2.674854
179	0x3ffff461	1.9996454
180	0x3e04a548	0.12953675
181	0xc018c4f6	-2.3870215
182	0x40471610	3.1107216
183	0x40333411	2.800053
184	0xbf247be6	-0.64251554
185	0x4096a019	4.707043
186	0x4060661f	3.506233
187	0xc0263b54	-2.597371
188	0x40a33fe3	5.1015487
189	0xbff3377a	-1.9001305
190	0xbfb0e422	-1.3819621
191	0xc0401b14	-3.0016527
192	0xbff1bfd3	-1.8886665
193	0x40a6df1d	5.2147355
194	0x40107378	2.2570477
195	0xbfe0adf9	-1.7553092
196	0x406974f2	3.6477628
197	0xbff220cf	-1.8916262
198	0x3fbd2075	1.477553
199	0xbf0cbffc	-0.54980445
200	0xbedef215	-0.4354407
201	0x409709a4	4.719927
202	0x401f6529	2.4905493
203	0x3f9829c5	1.1887747
204	0x4099eb7d	4.809996
205	0xc064a7c2	-3.5727391
206	0xc0a1c6ba	-5.0555086
207	0xbf575c22	-0.8412496
208	0xbfc5a814	-1.5441918
209	0x3da313d9	0.0796277
210	0x40921af2	4.565789
211	0xc0644dc9	-3.5672476
212	0xbd0664ce	-0.03281098
213	0xc0b9c1db	-5.804914
214	0x4025c3c3	2.5900733
215	0x4093ee63	4.62285
216	0x4068392a	3.628489
217	0xbfff8a69	-1.9964114
218	0x3fc47ed4	1.5351205
219	0xbf44b683	-0.7684099
220	0xc0a3161a	-5.096448
221	0x405123e5	3.2678158
222	0x40fa3f59	7.820233
223	0xbf044e05	-0.5168155
224	0x407bed8e	3.9363742
225	0xbf52a9f7	-0.82290596
226	0x3e3cd4f7	0.18440615
227	0x409a3b24	4.8197193
228	0xbfb12dd5	-1.3842112
229	0x409d6154	4.918131
230	0x4096de3d	4.7146287
231	0x3f9e7781	1.238022
232	0x40378ee0	2.8680954
233	0xc02311f5	-2.547971
234	0xc043cccb	-3.0593746
235	0xc01785c5	-2.3675396
236	0x409ff00f	4.998054
237	0xc07d362f	-3.956432
238	0x3fa2c1aa	1.2715352
239	0x40c2f1a6	6.091998
240	0xbe99df90	-0.30053377
241	0x40627452	3.5383496
242	0x401e67af	2.4750783
243	0x40aa9001	5.3300786
244	0xc0b4a02a	-5.6445513
245	0x3f90944f	1.129526
246	0x40c2fd74	6.093439
247	0x4032a876	2.791532
248	0x4062b470	3.542263
249	0xc0186cca	-2.38164
250	0x3ee3b63f	0.4447498
251	0xc0a5f293	-5.185861
252	0xc0509789	-3.259249
253	0x40a6cbe3	5.2123885
254	0x40a992ac	5.2991543
255	0xc04b4cdc	-3.1765661

conv_layers.2.bias f4 [64]
0	0x3fa0954e	1.2545564
1	0xbed9a19b	-0.42506108
2	0x3aceb7a8	0.0015771287
3	0x40724ad2	3.7858167
4	0xbe39947a	-0.18123046
5	0x3f0a2156	0.53957117
6	0xbf057602	-0.5213319
7	0x3f63b814	0.88952756
8	0x3e73aaf7	0.23795687
9	0xbfa5af4f	-1.2944125
10	0xbd55406a	-0.052063383
11	0x4086895f	4.204269
12	0x40b89014	5.7675877
13	0x40889168	4.26775
14	0x3e9b176a	0.302913
15	0x4063bed8	3.5585232
16	0xbda94ea2	-0.08266951
17	0x402f1be6	2.7360778
18	0xbf000187	-0.5000233
19	0x400b7016	2.1787162
20	0xbf353752	-0.7078754
21	0xbe8860a4	-0.2663623
22	0x3c13c3f4	0.009018887
23	0x3eed7611	0.4637914
24	0x4002e260	2.0450668
25	0x3d4c22e2	0.049837954
26	0xbf655dd5	-0.895963
27	0xbe612766	-0.21987686
28	0x3c984687	0.018588318
29	0x40546548	3.3186817
30	0xbf9f3caa	-1.2440388
31	0x40093900	2.144104
32	0x403981eb	2.8985546
33	0x401dea71	2.4674342
34	0x3de650bf	0.1124587
35	0x404d1cea	3.2048898
36	0x3faafe4b	1.3358854
37	0xbe166b04	-0.1468926
38	0xbe5b46d0	-0.21413732
39	0x3f0e6c39	0.55633885
40	0xbf3ca7bd	-0.7369345
41	0xbed82cc3	-0.4222165
42	0xbe6976c7	-0.22799216
43	0x40622076	3.5332313
44	0x4036e981	2.858002
45	0x400823f3	2.1271942
46	0xbf383bfc	-0.7196653
47	0xbeb82572	-0.35966069
48	0x40add6e7	5.432483
49	0x40e4cc7e	7.1499624
50	0x40a94c44	5.29056
51	0xc048b7c2	-3.1362157
52	0x3f6fcf94	0.93676114
53	0x3f577cb5	0.8417466
54	0x3f097b35	0.53703624
55	0xbf6b2d17	-0.91865677
56	0x405d3f8a	3.457003
57	0x404267e6	3.0375915
58	0xbae1c19b	-0.0017223837
59	0x40dd8010	6.9218826
60	0x40b862e7	5.762073
61	0x402a2f02	2.6591191
62	0x40d3794c	6.6085567
63	0xbe51df85	-0.20495422

conv_layers.4.weight f4 [32, 64, 2, 2]
0	0x3ed428c7	0.4143736
1	0xbe3c7042	-0.18402198
2	0x3f8dd3a6	1.1080215
3	0x3eb43e62	0.35203844
4	0x40934c61	4.6030736
5	0x40c04e89	6.009587
6	0x40998548	4.7975197
7	0x40878d1e	4.235976
8	0x40af33d7	5.475078
9	0x40143a4f	2.3160589
10	0x40a3ca2a	5.118428
11	0x3f5591e2	0.83425725
12	0xbf84f074	-1.038588
13	0xc044c9db	-3.0748203
14	0x406c8564	3.6956415
15	0xc01beb84	-2.4362497
16	0x40b161ff	5.5432124
17	0x40916aa4	4.5442677
18	0x40ab55e3	5.354234
19	0x40197e7b	2.3983448
20	0x3ecbc522	0.39798838
21	0xbe63fc6d	-0.22264262
22	0x40186632	2.3812375
23	0x3f64b7f1	0.8934317
24	0x40a6789a	5.202222
25	0x40b8ce35	5.7751718
26	0x40b9daa7	5.807941
27	0x407e5e8e	3.9745212
28	0x3eb5191d	0.35370722
29	0x4067347f	3.612579
30	0xbdeb5f14	-0.11492744
31	0x3e7c4806	0.2463685
32	0x3fff5233	1.994696
33	0x409be6f3	4.871942
34	0xbf9d8d10	-1.2308674
35	0x3f7d7ac0	0.99015427
36	0x4019d1ce	2.4034305
37	0x40a2e5e6	5.090564
38	0x4059d9f3	3.4039276
39	0x402a301a	2.659186
40	0x3f46e1d3	0.7768833
41	0x405a29b3	3.408795
42	0x3f98d316	1.1939418
43	0x3f6d2f31	0.92650133
44	0xbf6c506a	-0.923102
45	0x3f1a8980	0.6036606
46	0xbf68fbac	-0.9100902
47	0xbe9e9fc9	-0.3098128
48	0xbf456ae0	-0.77116203
49	0x3f757fc3	0.95898074
50	0x3e2f0824	0.17092949
51	0x3f00026a	0.50003684
52	0xbeaeeb91	-0.34164098
53	0xbf5b7c03	-0.857361
54	0xbe557bb3	-0.20847969
55	0xbe1ddd6f	-0.15416501
56	0x3fbb0016	1.4609401
57	0x3f2b29c3	0.668606
58	0x40967925	4.702288
59	0x409db05d	4.9277787
60	0xc0240f7f	-2.5634458
61	0xc0059cb9	-2.0876906
62	0xbdcf48b1	-0.10121287
63	0x402da213	2.7130172
64	0xbe363b7c	-0.17796129
65	0xbdf260d2	-0.11834873
66	0x3fcfe380	1.6241302
67	0x3ffa8fca	1.9575131
68	0xbfe83913	-1.8142418
69	0xc02b807e	-2.6797175
70	0xbef52dd1	-0.47886518
71	0xbfe28b7a	-1.7698815
72	0x3ff7318f	1.9311999
73	0x406fcc5e	3.7468486
74	0xbe8ab4b2	-0.27090985
75	0x3db1ca29	0.08681137
76	0xc06b2fba	-3.674788
77	0xc05aae30	-3.4168816
78	0xc059b465	-3.4016354
79	0xc02cb255	-2.6983845
80	0x4022b7dd	2.5424721
81	0x4092a7c7	4.5829806
82	0x3fc224fd	1.5167538
83	0x401fc281	2.4962466
84	0x408dc3bc	4.4301434
85	0x3fe40a89	1.7815715
86	0xbea301a8	-0.318372
87	0x4078b0f0	3.8857994
88	0x3fcb1572	1.586592
89	0xbe8b09c8	-0.271559
90	0x400b1309	2.1730368
91	0x3f4d754f	0.80257124
92	0x3f650fb5	0.8947709
93	0xbec1825d	-0.37794772
94	0x4041d48f	3.0285985
95	0x3ff234a1	1.8922311
96	0xc01a6008	-2.4121113
97	0xc075435f	-3.832237
98	0x405c03f9	3.4377425
99	0xc0884c17	-4.2592883
100	0x40b2824c	5.5784054
101	0x3fe890ab	1.8169149
102	0x40af07ba	5.469693
103	0x3eedb2a8	0.46425366
104	0x3f931940	1.1492081
105	0x400c2e70	2.1903343
106	0x3f02cf3c	0.51097465
107	0x3edca029	0.43090943
108	0x40cff437	6.4985614
109	0x408abfbb	4.3359046
110	0x40c3dc3c	6.120634
111	0x40524e48	3.286028
112	0x3fac6638	1.3468695
113	0x40407c5e	3.0075908
114	0x40159020	2.3369217
115	0x3f942704	1.1574407
116	0xbfab8bc5	-1.3402029
117	0xc0216202	-2.521607
118	0xbf7cfefd	-0.9882658
119	0xbf909c88	-1.129777
120	0x403f9d4b	2.9939754
121	0x40a70e02	5.22046
122	0x3fa732d4	1.3062387
123	0x40152ea1	2.330971
124	0xc068a4c7	-3.6350572
125	0xc04c3fad	-3.1913865
126	0xc0589b73	-3.3844879
127	0xc008c91e	-2.1372752
128	0xbf91619e	-1.1357915
129	0x3ea8a3d5	0.32937494
130	0xbf3f25db	-0.7466714
131	0xbf0980dd	-0.53712255
132	0xc008dbe7	-2.1384218
133	0xc02d8d37	-2.711744
134	0xc00475f9	-2.0697005
135	0xc00f7e4b	-2.2420833
136	0x40ab4efc	5.3533916
137	0x4080ae2e	4.021262
138	0x40a47e10	5.1403885
139	0x3fee5eeb	1.8622717
140	0xbfcb6441	-1.588997
141	0xc01affa3	-2.4218528
142	0xbe7a7588	-0.24458897
143	0xbf605714	-0.8763287
144	0xbdd339ce	-0.1031376
145	0x403eea36	2.983045
146	0x3eab1820	0.33416843
147	0xbec8de34	-0.39232028
148	0x40f12d23	7.53676
149	0x4065ce24	3.5907068
150	0x40a8c1f1	5.2736745
151	0x4089daf9	4.30798
152	0x40b01a7b	5.5032325
153	0x401a5116	2.411199
154	0x3f9b73b0	1.214468
155	0x406355a4	3.552102
156	0x3f2cfac4	0.6757014
157	0xbed94f60	-0.4244337
158	0xbf0475ae	-0.51742065
159	0x405f2f56	3.4872642
160	0x401e8469	2.4768317
161	0x400dc2c1	2.2150118
162	0xbd6f2cb7	-0.058392253
163	0x409d5324	4.916399
164	0xbb612982	-0.0034357016
165	0x3f1fde9e	0.6244906
166	0x40705001	3.754883
167	0x409875a0	4.7643585
168	0x406faf50	3.7450752
169	0x3ffee8d5	1.9914805
170	0x402b6f05	2.678651
171	0x3f31cff7	0.69457954
172	0xbdb8b0c0	-0.090180874
173	0xbed45616	-0.41471928
174	0x3fd8d47e	1.6939847
175	0x3e783404	0.24238592
176	0xbf8d62c5	-1.1045767
177	0xc00e1a52	-2.2203565
178	0xbf8f559e	-1.1198003
179	0xbfce42bd	-1.6114117
180	0x3fbfb828	1.4978075
181	0xbe6a0042	-0.22851661
182	0x3e733ad5	0.23752911
183	0xbf01c9c8	-0.5069852
184	0x40121deb	2.283076
185	0x401db1f9	2.4639876
186	0x40598db0	3.399273
187	0x3ef77f2a	0.48339206
188	0x3fd32d70	1.6498241
189	0x408318c1	4.0967717
190	0x3f1e1b68	0.6176057
191	0x3f8433e9	1.0328342
192	0xbedef11a	-0.4354332
193	0xbf9b46d4	-1.213099
194	0x3f392ddd	0.72335607
195	0xbeb7eefc	-0.35924518
196	0xbf366ae0	-0.7125683
197	0xbf3af493	-0.7302944
198	0x3ebc7d8c	0.36814535
199	0x3f8248e7	1.0178498
200	0xbf438216	-0.7637037
201	0x3e1cca3a	0.15311518
202	0x3f01f6be	0.50767124
203	0x3ebf39e3	0.37348852
204	0xbf3cae6e	-0.7370366
205	0x3fa77800	1.3083496
206	0x3fd28e4f	1.6449679
207	0x4078acaa	3.8855386
208	0x3fe4a20a	1.786195
209	0x3e88e2ab	0.26735434
210	0x3f2ed630	0.68295574
211	0xbed178c2	-0.40912443
212	0xbe59d71a	-0.21273461
213	0x3fe1ac3e	1.7630689
214	0x3f7e5c8a	0.99359953
215	0x3f048ede	0.517805
216	0x3ea7e6ea	0.3279336
217	0xbdde500e	-0.10855113
218	0x4027cf73	2.6220367
219	0x400ad83c	2.169448
220	0x408fea71	4.4973683
221	0x40c7d39d	6.2445817
222	0x40a672f8	5.2015343
223	0x408ecd1b	4.4625373
224	0xbfcb37f1	-1.5876447
225	0xc00b419a	-2.175879
226	0x3f59492f	0.84877294
227	0xbf098621	-0.5372029
228	0xbfc635d0	-1.5485172
229	0xbfe9d682	-1.8268588
230	0xc007fe30	-2.1248894
231	0xbfbe6848	-1.4875574
232	0x40778043	3.8672035
233	0x40a7a0c1	5.2383733
234	0x408b1741	4.3465886
235	0x40171768	2.3608036
236	0xbdad8b89	-0.0847388
237	0xbf3e0c7d	-0.74237806
238	0x3fa0507d	1.2524563
239	0xbe808c14	-0.2510687
240	0xbe2cd146	-0.16876706
241	0xbed4ed23	-0.4158717
242	0xbe706449	-0.23475756
243	0x3e707df1	0.23485543
244	0xbe702f6e	-0.23455593
245	0x3fe5408b	1.7910322
246	0x3e894e06	0.2681734
247	0xbdc8b8af	-0.098008506
248	0xbeb24b09	-0.34822872
249	0xbf039cd5	-0.5141118
250	0x3e1e2a4e	0.15445825
251	0x3cb7233b	0.022355666
252	0x40bea00d	5.9570374
253	0x3fb0536e	1.3775461
254	0x409ded48	4.935215
255	0x400455fa	2.0677476

conv_layers.4.bias f4 [32]
0	0xbfa026e1	-1.2511865
1	0x4013b071	2.3076441
2	0x3bb5db3e	0.0055498173
3	0xbf0cf7b5	-0.5506547
4	0x40b0d3d3	5.5258574
5	0x4098ceeb	4.7752585
6	0x40676aaf	3.6158864
7	0xbf491f93	-0.78563803
8	0xbf496e46	-0.7868389
9	0x3f6d391c	0.92665267
10	0xbf60bde2	-0.8778974
11	0x3f74b565	0.95589286
12	0xbf81498c	-1.010057
13	0x401d8bff	2.4616697
14	0x3f8e56c2	1.1120226
15	0xbf755fe5	-0.9584945
16	0x40327ebc	2.7889853
17	0x4023eb35	2.561231
18	0x4035bd79	2.8396895
19	0x401ff7e0	2.499504
20	0xbf88070d	-1.0627152
21	0x4048829d	3.132972
22	0xbf6888be	-0.9083365
23	0x3e075dce	0.13219377
24	0x403497f0	2.8217735
25	0x407ffd03	3.9998176
26	0x4098076a	4.750905
27	0x3ebf5788	0.3737147
28	0xbe9dea54	-0.3084284
29	0xbf025fc3	-0.5092737
30	0xbf9ffa78	-1.2498312
31	0xbee8be17	-0.45457527

fc_state.0.weight f4 [256, 128]
0	0xc0a47378	-5.1390953
1	0xc0ae32d4	-5.4437046
2	0xc0114d72	-2.270352
3	0xc087984c	-4.237341
4	0xbf47fcfd	-0.78120404
5	0x403460e7	2.8184144
6	0x3e32b005	0.17449959
7	0xc0a8d151	-5.2755513
8	0xc08d9eae	-4.42562
9	0x4067c419	3.6213439
10	0xc083790e	-4.108527
11	0xc0990a9d	-4.7825456
12	0xc0b354f8	-5.604122
13	0x3fea268e	1.8293016
14	0xc0922675	-4.5671945
15	0xc09caf6e	-4.8964148
16	0xbecef07c	-0.4041785
17	0x407bca48	3.9342213
18	0x4039daaf	2.9039724
19	0xc0ac1e62	-5.378709
20	0x3fa68282	1.3008578
21	0x40903abb	4.5071692
22	0x405f97c2	3.4936376
23	0xc0a46914	-5.137827
24	0xc014622f	-2.3184927
25	0x402ee736	2.732862
26	0x3fed0892	1.851824
27	0xc0b3e4d0	-5.621681
28	0xc0925cd1	-4.57383
29	0xc0b29a8b	-5.581365
30	0xbf15f772	-0.58580697
31	0xc086baf2	-4.2103205
32	0xc0beda11	-5.9641194
33	0xc0c703e1	-6.2192235
34	0xc088da4f	-4.276649
35	0xc0257073	-2.5849884
36	0x3fd5ea92	1.671221
37	0xc0b11246	-5.5334806
38	0xc09ff11c	-4.9981823
39	0x40744d0f	3.8172033
40	0xc0d0684a	-6.5127306
41	0xc0c9dcf2	-6.308221
42	0xc0bff272	-5.9983454
43	0xc0210759	-2.5160735
44	0x400ad330	2.1691399
45	0xc0adde1f	-5.4333644
46	0xc09300c0	-4.5938416
47	0x4079c570	3.9026756
48	0xc0c6e6e9	-6.2156873
49	0xc0c63afc	-6.1947002
50	0xc0abe92a	-5.3722124
51	0xc00da952	-2.2134595
52	0x4082affa	4.0839815
53	0x409c8ed5	4.8924356
54	0xc00a41db	-2.1602695
55	0xc0198e39	-2.3993056
56	0xbf5f30b5	-0.87183696
57	0x3eebf9fd	0.46089163
58	0x3fc9867d	1.5744168
59	0xc0c61e12	-6.1911707
60	0xc0bf4f73	-5.9784484
61	0xc0cc9de6	-6.3942747
62	0xc0a6743f	-5.20169
63	0xc0733b4d	-3.8004944
64	0x401f8fbe	2.4931483
65	0x4051000b	3.2656276
66	0xc079e4a3	-3.9045799
67	0x402eda5f	2.7320783
68	0x406792c5	3.618333
69	0x406ba4b0	3.6819267
70	0xc03fd50a	-2.9973779
71	0x408c9600	4.3933105
72	0x4035d005	2.8408215
73	0x403d72fb	2.9601429
74	0xc081e7a4	-4.0595264
75	0x406e4c6a	3.723414
76	0x404b80ff	3.1797483
77	0xc0ac0e56	-5.37675
78	0xc089ccce	-4.3062506
79	0x408a7261	4.3264623
80	0xc09a8b79	-4.8295255
81	0xc0bc501b	-5.8847785
82	0xc0106359	-2.2560637
83	0xc095c8f8	-4.6807823
84	0x406c9422	3.6965413
85	0x402b4db9	2.6766188
86	0xc059413e	-3.394607
87	0x40905f7b	4.5116553
88	0xc0cbb281	-6.36554
89	0xc0bb161f	-5.8464503
90	0xc0cfeaf3	-6.4974303
91	0xbcc70d8a	-0.024298448
92	0xbd9af8ab	-0.07566961
93	0xc0b506e9	-5.6570935
94	0xc08d523f	-4.41629
95	0x403be2a4	2.935708
96	0x40486ae9	3.1315253
97	0x403a895d	2.914634
98	0xc073d892	-3.8100934
99	0x407246fc	3.7855825
100	0xbed597d4	-0.41717398
101	0x40a920fd	5.285277
102	0x40909733	4.518457
103	0xc08a9e71	-4.331841
104	0x403a1e7a	2.9081101
105	0xc0a302ef	-5.094108
106	0x3f99d54d	1.2018219
107	0x405c2dba	3.440291
108	0x4037f4fc	2.8743277
109	0xc0bfd660	-5.994919
110	0xc08c6b5e	-4.3881063
111	0x40371781	2.8608096
112	0xc0a30c45	-5.0952477
113	0x404fca20	3.2467117
114	0xc07f6b68	-3.9909306
115	0xc08e6069	-4.449269
116	0xc0d2c5d0	-6.586647
117	0xc0c1a55f	-6.051437
118	0xc0bb59fd	-5.854735
119	0xbf43bb73	-0.764579
120	0xc0a38186	-5.109561
121	0xc0c4b21a	-6.146741
122	0xc0a1f3eb	-5.061025
123	0xc0997f2d	-4.7967744
124	0xc0877cf2	-4.234002
125	0xc09b26ad	-4.848471
126	0x3f73eb09	0.9528051
127	0xc04eb383	-3.2297065
128	0xc0adcab6	-5.430995
129	0xc0b1edd1	-5.5602803
130	0xc0117364	-2.272668
131	0xc08c8c0a	-4.3920946
132	0xbf433b9f	-0.7626285
133	0x40361bce	2.845447
134	0x3cba8f45	0.022773394
135	0xc0b230de	-5.568465
136	0xc09b0468	-4.844288
137	0x407f0db8	3.9852123
138	0xc09343b3	-4.602014
139	0xc0a2acc6	-5.0835905
140	0xc0b6dea0	-5.714676
141	0x3fef11fd	1.8677365
142	0xc09c6687	-4.8875155
143	0xc09e2ed9	-4.9432187
144	0xbeb2e43b	-0.3493975
145	0x407f4e65	3.9891598
146	0x40375f18	2.865179
147	0xc0ab389a	-5.3506594
148	0x3f9da5b4	1.2316194
149	0x408fa7a2	4.489213
150	0x4078264c	3.8773375
151	0xc0aed5c5	-5.463595
152	0xc01f8027	-2.4921968
153	0x403c45bb	2.941756
154	0x3ffdf9fa	1.9841912
155	0xc0b8bcb8	-5.773037
156	0xc0972127	-4.722797
157	0xc0c16a4c	-6.0442257
158	0xbf143ab2	-0.5790206
159	0xc0892c06	-4.286624
160	0xc0c29c6a	-6.0815935
161	0xc0c9cd6b	-6.3063254
162	0xc08b327b	-4.349912
163	0xc03148b9	-2.7700636
164	0x3fd7f406	1.6871345
165	0xc0bd1c90	-5.9097366
166	0xc0a62622	-5.192155
167	0x4083ee29	4.1228223
168	0xc0ce2a01	-6.4426274
169	0xc0c8568b	-6.2605643
170	0xc0bcaba1	-5.895951
171	0xc029e9d1	-2.654896
172	0x400e9afd	2.2282097
173	0xc0b69ca2	-5.70662
174	0xc0991e5d	-4.7849565
175	0x40849c44	4.1440754
176	0xc0ce055e	-6.438155
177	0xc0cc88a4	-6.39168
178	0xc0aaf7df	-5.3427577
179	0xc01c0a78	-2.438139
180	0x4087c114	4.242319
181	0x40a4459f	5.1334987
182	0xc0163992	-2.3472638
183	0xc03129dc	-2.76818
184	0xbf392ca3	-0.72333735
185	0x3f0d27f3	0.5513908
186	0x3fbf5c99	1.4950134
187	0xc0c58fd9	-6.1738095
188	0xc0c629fc	-6.192625
189	0xc0d1ac7c	-6.552305
190	0xc0b1090e	-5.5323553
191	0xc0829474	-4.0806217
192	0x40209221	2.508919
193	0x404ee32a	3.232615
194	0xc078debf	-3.8885953
195	0x40301dae	2.7518115
196	0x406db3ab	3.714091
197	0x4077745a	3.8664765
198	0xc04e9533	-3.2278564
199	0x4091122f	4.5334697
200	0x403876b9	2.8822463
201	0x4046e2b8	3.1075878
202	0xc0827781	-4.077088
203	0x4080c8d0	4.0245132
204	0x4053fd01	3.3123171
205	0xc0ae2247	-5.4416842
206	0xc09016ff	-4.502807
207	0x4088c523	4.2740645
208	0xc09b3587	-4.850284
209	0xc0c51564	-6.158861
210	0xc00cc663	-2.1996086
211	0xc09f6659	-4.9812436
212	0x4079c1ab	3.9024456
213	0x402d1cc8	2.7048817
214	0xc06bc32b	-3.683787
215	0x40946ba0	4.638138
216	0xc0cb95b2	-6.3620234
217	0xc0bf3837	-5.975612
218	0xc0cfdfc5	-6.4960656
219	0x3c05d968	0.0081695095
220	0x3cb4f967	0.02209158
221	0xc0c05255	-6.0100503
222	0xc092dfdc	-4.5898266
223	0x403fc3ad	2.996318
224	0x4056d4df	3.3567426
225	0x403fef17	2.998968
226	0xc0756790	-3.834446
227	0x407bcbdc	3.9343176
228	0xbed35246	-0.41273707
229	0x40a5327a	5.1624117
230	0x4094ad1e	4.6461325
231	0xc08a9548	-4.330723
232	0x403982a2	2.8985982
233	0xc0a548fb	-5.1651587
234	0x3f9f5be8	1.2449923
235	0x40621ce9	3.5330145
236	0x40375abe	2.8649135
237	0xc0bd7323	-5.920305
238	0xc0953b36	-4.663478
239	0x402754e6	2.6145568
240	0xc0ab0923	-5.3448653
241	0x4055992f	3.3374746
242	0xc0852bfd	-4.1616197
243	0xc094bfbb	-4.6484046
244	0xc0d4b4a7	-6.6470523
245	0xc0c9ea1a	-6.309827
246	0xc0c39a4d	-6.1125855
247	0xbf44e9c2	-0.76919186
248	0xc0a933d9	-5.287579
249	0xc0c9993c	-6.2999554
250	0xc0a6d58a	-5.213567
251	0xc09d37dd	-4.9130692
252	0xc0890e10	-4.2829666
253	0xc0a25dba	-5.073941
254	0x3f51545a	0.81769335
255	0xc04d654b	-3.2093074

fc_state.0.bias f4 [256]
0	0x3f997593	1.1989006
1	0x3f970ae6	1.1800201
2	0xbe5505cf	-0.20802997
3	0x408d2f4e	4.4120245
4	0x3e7e2045	0.24816997
5	0x3f3af674	0.7303231
6	0x3f081ff2	0.53173745
7	0x3f911c49	1.1336757
8	0x3f967273	1.1753677
9	0x406bca10	3.684208
10	0x3f9e069b	1.2345766
11	0x3f9b78cd	1.214624
12	0x3fe7bf04	1.8105168
13	0x3f8b5074	1.0883927
14	0x3f96e612	1.1788962
15	0x3ef1c589	0.4722102
16	0x40a2c135	5.086085
17	0x3f9d7fed	1.2304665
18	0x3f8c3447	1.0953454
19	0x3f8c1e05	1.0946661
20	0xbfd87ba3	-1.6912731
21	0x3ecaf7a5	0.39642063
22	0x3e933713	0.28752956
23	0x3ee286bc	0.4424342
24	0x409a52db	4.822614
25	0x3f9808a6	1.1877639
26	0xbe17f489	-0.14839377
27	0x3e4231c3	0.18964295
28	0xbf44bc1b	-0.76849526
29	0x3f82cb3e	1.0218275
30	0x3ebfcb9d	0.37460032
31	0x40b45bba	5.636197
32	0x3f83fadc	1.0310931
33	0x3f9f1c9e	1.2430608
34	0x3f96b97a	1.1775353
35	0x3f84f1c6	1.0386283
36	0x3f93b6cb	1.1540159
37	0x3f91d1c6	1.1392143
38	0x3f8a7616	1.0817287
39	0x3f880917	1.0627774
40	0x3f8b5fa4	1.0888562
41	0x3fa3bcde	1.2792013
42	0x3f988b9f	1.1917609
43	0x3f0ef2b1	0.5583907
44	0x3efe325d	0.496478
45	0x3f8ff6ef	1.1247233
46	0x3e8942bb	0.26808724
47	0xbe1f9f12	-0.15588024
48	0x3f188ea6	0.59592664
49	0x3d9038ad	0.0704206
50	0x3f9f14ca	1.2428219
51	0x3f90648d	1.1280686
52	0xbca58118	-0.020203158
53	0x3f90e4d5	1.1319834
54	0x40c28b87	6.079532
55	0x3f9678f1	1.1755658
56	0x3cf6bf26	0.030120444
57	0x3f884450	1.0645847
58	0x3f90df0e	1.1318071
59	0x3f77ab2f	0.9674558
60	0x3f8eb399	1.1148559
61	0x3f9dade3	1.2318691
62	0xbe81bba6	-0.25338477
63	0x3ec448c1	0.38336757
64	0x3f2ec187	0.6826405
65	0xbe02fa4d	-0.12790795
66	0x3f978295	1.1836725
67	0x4055ac04	3.338624
68	0x3f767531	0.9627257
69	0x409c6d6e	4.888358
70	0xbdaa8aef	-0.08327281
71	0x40b8beea	5.773305
72	0x3f787628	0.9705529
73	0x3ee4665c	0.44609344
74	0x3fa15ff1	1.2607404
75	0x3f03ebce	0.51531684
76	0x40bc3e9c	5.8826427
77	0x3f020c6c	0.50800204
78	0x3f2345dc	0.6377847
79	0x3e2e21cd	0.17005081
80	0x3eb5a85d	0.35480013
81	0x3f80d08f	1.0063647
82	0x409932f7	4.7874713
83	0x3fa287ae	1.2697656
84	0x40a9d44e	5.307166
85	0x3f8eb2de	1.1148336
86	0x3f9790e2	1.184109
87	0x40b078aa	5.5147295
88	0x3f227e1e	0.6347369
89	0x3f842d12	1.0326254
90	0x3f049d49	0.518025
91	0x3f9dd956	1.2331951
92	0x3f0768f1	0.528945
93	0x40ba8916	5.829234
94	0x3ed0a242	0.40748793
95	0x3f901d6a	1.1258976
96	0xbc4445fe	-0.011979578
97	0x3e5bcf38	0.21465766
98	0xbc18ebf7	-0.009333602
99	0xbf95738d	-1.1675888
100	0x3f9732ca	1.1812375
101	0x3f85c914	1.0451989
102	0x3f0da90e	0.5533608
103	0x3e64a393	0.22328024
104	0x3f8ab244	1.0835652
105	0x3f97eb88	1.1868753
106	0x3f954641	1.1662065
107	0x3ea158fb	0.315132
108	0x408a0eaa	4.31429
109	0x3f9723b9	1.1807777
110	0x3f82985d	1.0202748
111	0x3ecf65de	0.40507406
112	0xbdc9a1ab	-0.09845289
113	0x3eba6562	0.36405474
114	0x3e80e95e	0.25178045
115	0x3f835f92	1.0263541
116	0x3ff5ff29	1.9218494
117	0x3fa39d35	1.2782351
118	0x3f3192ae	0.6936444
119	0x40a35008	5.1035194
120	0x3e907f0a	0.28221923
121	0x3f9b0cd3	1.2113289
122	0x3ef1ba75	0.47212568
123	0x3f937a32	1.1521666
124	0x3f87cd02	1.0609438
125	0x3f348f75	0.705314
126	0x3f96dfba	1.1787026
127	0x3f921fd2	1.1415961
128	0x3f9d8a64	1.2307858
129	0x3ef8039c	0.48440254
130	0x3e92415d	0.28565493
131	0x4060f7bd	3.5151207
132	0x3ec01e81	0.37523273
133	0x3f918776	1.1369464
134	0x3f83c23a	1.0293648
135	0x3f2b87ff	0.6700439
136	0x3f8f99a2	1.121876
137	0x3e359d07	0.17735682
138	0x3f955249	1.1665736
139	0x40aa928e	5.33039
140	0x3eff1565	0.4982101
141	0x3f4ab716	0.79185617
142	0xbd2cfdb9	-0.042234156
143	0x3f9c7138	1.2222052
144	0xbd3c55c6	-0.045980237
145	0x3f987bba	1.1912758
146	0x40ae2dbc	5.443083
147	0x40af5c4c	5.4800167
148	0x3e8b2b6e	0.27181572
149	0x3f98cb23	1.1936992
150	0x3f86d06e	1.0532358
151	0x3f9b9077	1.2153462
152	0xbeabc7ab	-0.33550772
153	0xbe127326	-0.14301738
154	0x4082fa8b	4.093084
155	0x3f9088c7	1.1291741
156	0x3fe57b42	1.792824
157	0xbd270f16	-0.04078587
158	0x3edcad71	0.43101075
159	0x3f23ac26	0.6393455
160	0x3e84fdbf	0.25974843
161	0x3e771734	0.24129945
162	0x3ea7fddb	0.32810864
163	0x3f4ea86f	0.8072576
164	0x409e1eff	4.9412837
165	0xbf9ae92a	-1.2102406
166	0xbf5f4882	-0.87220013
167	0x409ea6ac	4.9578457
168	0x40be8302	5.953492
169	0x3f375e13	0.7162792
170	0x3f8f5320	1.1197243
171	0x3e219cdc	0.15782493
172	0x3fcf3f93	1.6191276
173	0xbf8967a5	-1.0734755
174	0x3f08d24c	0.5344589
175	0x3f9b8852	1.2150977
176	0x3ef42b32	0.47689205
177	0x3ea71511	0.3263326
178	0x3f4a7ad6	0.7909368
179	0x40878000	4.234375
180	0x40bc6d8f	5.888374
181	0x40b42d92	5.630563
182	0x3f154d7b	0.5832135
183	0x3eae26ca	0.3401397
184	0x3e7bc51a	0.24586907
185	0x3f9d6856	1.2297466
186	0x3e55500f	0.20831321
187	0xbfd8d9f5	-1.6941515
188	0x408a58eb	4.3233542
189	0x3f9e1a08	1.2351694
190	0x3fc9a053	1.5752052
191	0x3f97fd44	1.1874166
192	0x3f9aec70	1.2103405
193	0xbfd2f2b3	-1.6480316
194	0x3f88197b	1.0632776
195	0x40c0e3c1	6.027802
196	0xbda4c256	-0.08044879
197	0xbfa8c737	-1.3185796
198	0x3f8e9e7c	1.1142116
199	0xbe2ce04a	-0.16882434
200	0x3f9a15b2	1.2037871
201	0x3ed56d20	0.41684818
202	0xbd9358b8	-0.07194656
203	0x3f29a5d0	0.66268635
204	0x409a0e45	4.814242
205	0x3f8d09ab	1.1018575
206	0x3f050180	0.51955414
207	0x3f8f64a3	1.1202587
208	0xbf4f1351	-0.8088885
209	0x3f9c6d11	1.2220784
210	0x3ec050a3	0.3756152
211	0xbc4427ff	-0.011972426
212	0xbd83668f	-0.06416046
213	0x3d8e15cc	0.06937751
214	0x3f8b3518	1.0875578
215	0x40c50416	6.156749
216	0x3f284d90	0.6574335
217	0x3ee98e32	0.456163
218	0x3f95043e	1.164192
219	0x3d9df5ff	0.07712936
220	0x3f2c844b	0.67389363
221	0x3f19c3d6	0.60064447
222	0x3ed764e5	0.42069164
223	0x3f8e4440	1.1114578
224	0xbdc69bd9	-0.09697694
225	0x3fa11a43	1.258614
226	0x3f020fa9	0.50805146
227	0x3cc3d41c	0.023904853
228	0x40a89843	5.2685866
229	0x3ead26c0	0.33818626
230	0x3f844e22	1.0336344
231	0x3f89e61e	1.0773351
232	0xbda85ab2	-0.08220424
233	0xbf9fa201	-1.2471315
234	0x3f9e78d6	1.2380626
235	0x40951562	4.65886
236	0x3f805d1c	1.0028415
237	0x3f42c642	0.7608377
238	0x3ec28012	0.37988335
239	0x3f7c04c3	0.98444766
240	0x3f1c6c0b	0.6110236
241	0x3f9a4d2b	1.20548
242	0x3f97c38c	1.1856551
243	0x3f8a948b	1.0826582
244	0x3f8e9cd8	1.1141615
245	0x3f7f9e8d	0.99851304
246	0x3f8e85dc	1.1134601
247	0x3f47766c	0.7791507
248	0x3fa1ec6c	1.2650275
249	0x3e89e97d	0.2693595
250	0x3f976e3c	1.1830516
251	0x3f8d52fc	1.104095
252	0x3f8b35ff	1.0875853
253	0x3eb4d500	0.35318756
254	0x3f877ff5	1.0585924
255	0x3f9da204	1.2315068

fc_state.2.weight f4 [64, 256]
0	0xbfec09aa	-1.8440449
1	0xbffd3537	-1.9781865
2	0x3f587eae	0.845683
3	0x3ffec323	1.9903301
4	0xbf5d2057	-0.8637747
5	0x3d63cc58	0.0556148
6	0x3e159126	0.14606151
7	0xbff3a65b	-1.9035143
8	0xc02242dd	-2.535331
9	0x3fd54663	1.6662105
10	0xbfbc43c3	-1.4708179
11	0xbfc447b3	-1.5334381
12	0x4004ce31	2.075085
13	0xbfecef85	-1.8510596
14	0xbfe2acdb	-1.7709001
15	0x3dfa6e9c	0.12228128
16	0x3fd4e6df	1.6632956
17	0xbfe418bf	-1.7820052
18	0xbfea1c98	-1.8289976
19	0xbfe9cae5	-1.8265043
20	0x40a05539	5.010403
21	0x3e01e534	0.1268509
22	0x3d9fb5d0	0.0779835
23	0x3e49926f	0.19684766
24	0x400bc41c	2.1838446
25	0xbff6b067	-1.9272584
26	0x3ec1c436	0.3784501
27	0x3e39f5c4	0.18160158
28	0x40982bd0	4.755348
29	0xbfff90d5	-1.9966074
30	0xbf7d12a7	-0.98856586
31	0x3fdd7bf6	1.7303455
32	0xc01197c7	-2.2748888
33	0xbfd3914c	-1.6528716
34	0xbfecd808	-1.8503428
35	0xc006c227	-2.1056
36	0xbff59b0d	-1.9187943
37	0xc0036a18	-2.0533504
38	0xc00f748d	-2.2414887
39	0xbffdd31c	-1.983005
40	0xc0101c9c	-2.2517462
41	0xbfc9310b	-1.5718092
42	0xbfbf34c0	-1.4937973
43	0x3db089b3	0.08620014
44	0x3d4554fb	0.048176747
45	0xbfe6f177	-1.8042439
46	0xbf7517a0	-0.95739174
47	0x3e6f2597	0.23354183
48	0xba00523b	-0.0004895066
49	0xbe0cb924	-0.137425
50	0xbfd989a9	-1.6995136
51	0xc003db1a	-2.060248
52	0xbf19b152	-0.60036194
53	0xbfd20c54	-1.6410012
54	0x3ffc58c2	1.9714587
55	0xbfe8f252	-1.819895
56	0x3e5f081b	0.21780436
57	0xbff96a14	-1.9485497
58	0xc00ad6e5	-2.1693661
59	0xc0057259	-2.0851042
60	0xc00c14e4	-2.188775
61	0xbfdb7c3d	-1.714729
62	0x3ebc4ec2	0.36778837
63	0x3dd1bb0c	0.102407545
64	0x3dfd8245	0.123783626
65	0x3ed1799d	0.40913096
66	0xbf976f05	-1.1830755
67	0x3f898f31	1.0746824
68	0xc00bf9f4	-2.187131
69	0x3fe672bb	1.8003763
70	0xbd1df151	-0.038560215
71	0x4001d5be	2.0286708
72	0xc013540a	-2.3020043
73	0x3de23464	0.11045149
74	0xbfec4910	-1.8459797
75	0x3dd2437e	0.10266779
76	0x4007a93c	2.1197042
77	0x3dfc40ac	0.12317023
78	0x3d543759	0.051810596
79	0xbf9bc011	-1.2167989
80	0x3d9b660a	0.07587822
81	0xc013f2d3	-2.3116958
82	0x3faf9002	1.3715823
83	0xbfd99acb	-1.7000364
84	0x400ab9c2	2.1675878
85	0xc00688ac	-2.1020918
86	0xbfda6433	-1.7061828
87	0x40090783	2.1410835
88	0xbaa9332f	-0.0012908931
89	0xc01206e3	-2.2816703
90	0x3d5cd1bc	0.053910956
91	0xbfd172ba	-1.6363137
92	0x3db0004b	0.08593806
93	0x400384d5	2.0549824
94	0x3e2bbeb3	0.16771965
95	0xbfe0d34f	-1.7564486
96	0x3e6a902b	0.22906558
97	0x3e368775	0.1782511
98	0x3fb7d8f1	1.436308
99	0x40223020	2.5341873
100	0xbff17b33	-1.8865722
101	0xc01413df	-2.3137128
102	0x3e502007	0.20324717
103	0xbf6a07c2	-0.9141809
104	0xbfde4492	-1.7364676
105	0xbfe1a7ea	-1.7629368
106	0xbff452b2	-1.9087737
107	0xbf640171	-0.890647
108	0x3fd068dd	1.6282002
109	0xbee2f80f	-0.4432988
110	0xc002814c	-2.0391417
111	0x3e6a0b43	0.22855859
112	0xbcb8a33f	-0.02253878
113	0x3db40f23	0.087919496
114	0xbf4f51e9	-0.8098436
115	0xbffb19bc	-1.9617229
116	0x4046e893	3.1079452
117	0xbf8fdc30	-1.1239071
118	0x3da0caac	0.078511566
119	0x4004abd9	2.0729887
120	0x3e0ab895	0.13546975
121	0xbff6b25b	-1.927318
122	0x3dca78fe	0.09886359
123	0xbfd9df2a	-1.7021229
124	0xbfde7681	-1.7379915
125	0x3cc36347	0.02385105
126	0xbfe239f1	-1.7673932
127	0xbf8e3560	-1.1110039
128	0xbff049d4	-1.877253
129	0x3e315ee2	0.17321351
130	0xbf8f7dab	-1.1210226
131	0x3fe1e605	1.7648321
132	0x3e18a272	0.14905718
133	0xc0249fec	-2.5722609
134	0xbff6145d	-1.9224964
135	0x3e131197	0.14362179
136	0xc001e5ef	-2.029659
137	0x3dc1c0f5	0.09460632
138	0xbfdfef03	-1.7494816
139	0x4005c014	2.0898485
140	0x3d9b008f	0.07568466
141	0x3dfe69cb	0.12422522
142	0x3e045d7c	0.12926286
143	0xbfdeb0e8	-1.7397738
144	0xbe89d687	-0.26921484
145	0xbfefb3a9	-1.8726703
146	0x3fbbf67e	1.4684598
147	0x3fd356a8	1.651082
148	0x3df9e304	0.12201503
149	0xbfd6452a	-1.6739857
150	0xbff11fe9	-1.8837863
151	0xbf7decd5	-0.991895
152	0x3fa8818c	1.3164535
153	0x3e53b26b	0.2067353
154	0x3fefbafc	1.8728938
155	0xc00a6811	-2.1626017
156	0x40698c40	3.6491852
157	0x3e617051	0.22015502
158	0x3e384c43	0.17997842
159	0x3dcbb3bf	0.09946393
160	0x3e202fa8	0.1564318
161	0x3cda268e	0.026629712
162	0x3e3e74ce	0.18599245
163	0x3deb8eea	0.11501868
164	0x4011d510	2.2786293
165	0x40994fb9	4.790982
166	0x3fe289e9	1.7698337
167	0x3fc6cef9	1.5531913
168	0x3fe9b332	1.8257811
169	0x3db3dc24	0.08782223
170	0xbff13b92	-1.8846304
171	0x3e62bb8e	0.22141859
172	0x3f61494a	0.88002455
173	0x4064319d	3.5655282
174	0x3d73485e	0.059395187
175	0xbff78ff1	-1.9340802
176	0x3d87c683	0.0662966
177	0x3e29c609	0.1657945
178	0x3d3aa5f7	0.045568433
179	0x3ff0393c	1.8767467
180	0x3fec313e	1.8452528
181	0x3fecf6d2	1.8512824
182	0x3dcb22f2	0.09918775
183	0xbf7b9aed	-0.98283273
184	0x3dddf531	0.10837782
185	0xbfa40689	-1.2814494
186	0x3e26fe12	0.16307858
187	0x409c7251	4.8889546
188	0x400d2d19	2.2058775
189	0xc0088b40	-2.1334991
190	0x409522c7	4.6604953
191	0xbfed3600	-1.8532104
192	0xbfd9efa5	-1.7026259
193	0x40907581	4.5143437
194	0xc003472d	-2.0512192
195	0x40018b7d	2.0241387
196	0xbe901e43	-0.28148088
197	0x40890ab1	4.282555
198	0xbfe4d8ff	-1.7878722
199	0x3ea04ab4	0.31306994
200	0xbfec0323	-1.8438457
201	0x3e18b091	0.14911105
202	0xbec30217	-0.38087532
203	0x3e1957dd	0.14974923
204	0x4009fe24	2.1561365
205	0xbff9906a	-1.9497197
206	0x3dfd55f1	0.12369908
207	0xbfd35540	-1.6510391
208	0x3fc07b3d	1.5037609
209	0xbfd5d530	-1.6705685
210	0x3dbe4eb1	0.09292353
211	0x3f83526b	1.0259527
212	0x3e894fc4	0.2681867
213	0xbe143318	-0.14472616
214	0xbfe735ce	-1.8063295
215	0x3feade70	1.8349133
216	0x3e1763e7	0.14784203
217	0x3e0995c2	0.13436034
218	0xbfd80925	-1.6877791
219	0x3e089aba	0.13340273
220	0x3d693d1f	0.056943055
221	0x3d4e8296	0.050417505
222	0x3e1f726a	0.15570989
223	0xbfe1d7fc	-1.7644038
224	0xbf01e49f	-0.50739473
225	0x3ecd1626	0.4005596
226	0x3df6524e	0.12027417
227	0xbbfb9dad	-0.0076787085
228	0x400c8f8f	2.1962621
229	0x3e410ac6	0.18851766
230	0xc00a8483	-2.1643379
231	0xc012440a	-2.2854028
232	0x3e2a9ed6	0.16662154
233	0x40963394	4.693796
234	0xbfe76eea	-1.8080723
235	0x3fffa442	1.9972003
236	0xc0088c0b	-2.1335475
237	0x3e212f4b	0.15740697
238	0x3e2beb89	0.16789068
239	0xbfde09a0	-1.7346687
240	0x3d9f6a5a	0.07783957
241	0xbf94e4db	-1.1632341
242	0xbfe0ac28	-1.7552538
243	0xbfd04bf6	-1.6273181
244	0xbfc338ee	-1.5251749
245	0xc0166ab9	-2.3502638
246	0xc02f3450	-2.737568
247	0x3e1d6d2a	0.15373674
248	0xbfdd7630	-1.7301693
249	0x3e17256c	0.14760369
250	0xbffde150	-1.9834385
251	0xbff16fb4	-1.8862214
252	0xbffd1afb	-1.9773859
253	0x3e18e5ef	0.14931463
254	0xc0057411	-2.0852091
255	0xbff76319	-1.9327117

fc_state.2.bias f4 [64]
0	0x3eef25fc	0.46708667
1	0x3ee66f01	0.45006564
2	0x3ee61025	0.44934192
3	0xbd7c60f2	-0.06161589
4	0x3ef60704	0.48052227
5	0x3fb56c82	1.4173739
6	0x3ee63b02	0.44966894
7	0x3e6d9e2f	0.23204874
8	0x3eec8076	0.46191758
9	0x3efdc6bf	0.49565694
10	0x3ecf3a76	0.4047429
11	0x3ef91ad9	0.48653296
12	0x3eea2d53	0.45737705
13	0x3efa54a0	0.4889269
14	0x3eea7646	0.4579336
15	0x3e761c56	0.24034247
16	0xbd490af3	-0.049082708
17	0x3ef6b198	0.48182368
18	0x3edab67a	0.42717344
19	0x3edcc903	0.4312211
20	0x3ee5b7b7	0.44866726
21	0x3eb6d488	0.35709023
22	0x3ed6d248	0.41957307
23	0xbd9cb7f1	-0.076522715
24	0x3ef607ad	0.4805273
25	0x3eba9f6b	0.3644975
26	0x3efcd44a	0.49380714
27	0x3ed540a0	0.41650867
28	0x3ef742ba	0.48293096
29	0x3eb6c387	0.3569605
30	0x3ece517a	0.40296537
31	0x3eb0cb73	0.3453022
32	0x3f057387	0.52129406
33	0x3efd1462	0.49429613
34	0x3ec12e68	0.37730718
35	0x3ec22612	0.3791967
36	0x3ec1fdb6	0.3788888
37	0x3ef19fed	0.47192326
38	0x3fd33c22	1.6502726
39	0x3edcaa44	0.43098652
40	0xbcef096e	-0.029179301
41	0x3efda07b	0.495365
42	0x3edd307d	0.43201056
43	0x3f049aec	0.5179889
44	0x3ef5524d	0.47914353
45	0x3ee587bb	0.44830117
46	0x3ef1fee6	0.47264785
47	0x3eed8f2b	0.4639829
48	0x3eb0e7dd	0.34551898
49	0x3ee32f4a	0.44372016
50	0x3ed34117	0.41260597
51	0x3fe1bd70	1.7635937
52	0x3fd2e8b0	1.647726
53	0xbd069e9b	-0.0328661
54	0x3eef521f	0.4674234
55	0x3edf8d67	0.4366257
56	0x3ee35936	0.44404
57	0x3f03e907	0.51527447
58	0x3eec742d	0.46182385
59	0x3983ab3f	0.00025113855
60	0x3ef2934c	0.47378004
61	0x3ef7aea7	0.48375437
62	0x3efcc945	0.49372306
63	0xbbdbfc56	-0.0067134304

fc_state.4.weight f4 [1, 64]
0	0xc007a4cd	-2.1194336
1	0xc007f835	-2.1245244
2	0x410392a0	8.223297
3	0x3cceeca1	0.025259318
4	0xc009d21f	-2.1534498
5	0x4122cf52	10.175615
6	0x4104cafe	8.299559
7	0x3f8bbf7e	1.0917814
8	0x4104d000	8.300781
9	0x4104aa41	8.291566
10	0xc005e0ae	-2.0918384
11	0x410572d4	8.340534
12	0x41069df0	8.413559
13	0x41064f54	8.394367
14	0x41037e48	8.21833
15	0x3f977a26	1.1834152
16	0x3c589676	0.013219466
17	0x41040f82	8.253786
18	0xc005dff5	-2.0917943
19	0x4103376d	8.201032
20	0x4103209b	8.19546
21	0xc003b8fd	-2.0581658
22	0x41039ddf	8.226043
23	0x3d870d5a	0.065943435
24	0xc00aa55d	-2.166343
25	0xc00daba9	-2.2136023
26	0x4104f8eb	8.310771
27	0x41028ba0	8.159088
28	0x4105550f	8.333266
29	0xc0317919	-2.7730162
30	0x410264e8	8.149635
31	0xc00a9f9f	-2.1659925
32	0xc0045c03	-2.068116
33	0x41046333	8.274219
34	0xc0042e44	-2.0653238
35	0xc003d3ef	-2.0598104
36	0xc0184f2c	-2.3798323
37	0x41049c69	8.288186
38	0x4141cf2c	12.113079
39	0x4102b2e2	8.168673
40	0x3d783ae0	0.060603023
41	0x41047f46	8.281073
42	0xc00866bc	-2.1312704
43	0x41038397	8.219626
44	0xc008a86b	-2.1352794
45	0xc00c5795	-2.1928456
46	0xc00cf69c	-2.2025518
47	0xc0052094	-2.0801134
48	0xc0292030	-2.6425896
49	0xc00a2d4a	-2.1590142
50	0xc0080c15	-2.1257374
51	0x413426e1	11.259492
52	0x413f2a98	11.947899
53	0x3dd9aeb8	0.10629028
54	0x4103493d	8.20538
55	0x4102a3aa	8.164957
56	0x41050102	8.312746
57	0x4103118d	8.191785
58	0x4103a09b	8.22671
59	0xbb222164	-0.002473914
60	0xc003ac28	-2.0573826
61	0x41024d70	8.143906
62	0x410583f0	8.344711
63	0xbe0d0e3b	-0.1377496
