data/Torch/Dueling/003_Big-CNN_E_L/checkpoints/weights_36000episodes.pth (torch, 505343 bytes, 17 tensors)

conv_layers.0.weight f4 [64, 1, 3, 3]
3.0511477 2.40378 3.8976922 1.6907803 1.8428138 3.5580752 -2.733813 -0.75576144
6.4685693 -3.753069 0.94122833 0.50271344 0.17609708 -0.16424924 2.1656637 1.0755674
2.266824 -1.0661088 1.1060302 3.583389 3.0058804 0.5570573 -0.1446292 4.521046
-4.8111873 -3.3882897 1.6088098 -0.628178 1.1903057 -3.154946 2.4476614 2.0866132
2.7938182 3.5096505 4.3808646 5.9109225 0.7341223 2.2769473 -2.5916824 1.4395806
3.5070477 -1.6284066 4.288977 5.0378532 6.490843 0.3295915 4.1616454 4.5244694
2.5784311 0.71531266 -1.2464134 -0.7687827 -1.9191866 5.723846 1.5768406 -0.9047191
1.0717049 0.8099436 1.1371914 -2.7761364 -0.23918116 -2.8515813 5.6206126 -0.44494116
1.1088223 -2.6372511 2.9354331 3.2501502 0.014290731 1.1446404 5.670969 5.429677
4.986914 3.5415833 -3.8004348 0.5654701 1.0622008 4.510643 3.6833844 4.596007
-2.5737824 -0.31990117 1.9521539 1.8472872 1.1292806 1.178237 2.47683 -2.643273
-1.0839057 6.09345 2.6843333 -0.61987185 4.100397 3.870844 -0.943504 1.1625673
6.444237 4.307132 -4.04891 -5.920525 2.9163756 3.7317433 0.3588737 -3.7052383
-0.47056308 -4.9250255 1.5660751 1.3535893 -5.3582983 -4.459597 5.173277 1.9989007
-3.0512836 -3.5925174 1.8988248 0.3533895 2.7295053 0.4258828 -3.2373202 -3.5790854
0.70111644 0.8198244 1.9617784 1.2801933 -3.8832965 -3.0618532 -1.2296128 0.19957659
2.6771872 -0.40364924 1.1002805 2.6155593 -3.7372053 1.592611 1.9792453 -4.468656
-0.9019033 0.309661 0.07299609 0.031114139 2.6710296 0.23984033 2.8243034 -1.4276146
0.5088092 2.1691313 4.104437 4.7674413 2.4140847 -3.3108826 4.2536187 5.1273646
2.5707884 -2.5292745 2.8304172 -1.935116 3.7113225 4.0294614 1.7408394 2.01694
6.6607795 3.5586698 0.878823 0.65040725 4.1894937 0.39315787 0.06679193 1.2194794
1.165921 -3.5572436 -5.773056 1.0837308 4.4236183 -4.269854 1.2174207 -0.54631925
3.400501 4.2213697 4.657812 -3.7313504 2.7540097 3.578216 4.2538037 -0.7551946
-0.7923185 2.939417 5.913521 2.4921567 -4.179305 0.972419 0.06573453 0.5773019
4.280215 2.452947 -1.6640788 -2.3535607 -0.7645317 4.9259076 1.5802493 3.003738
-2.1288748 -0.639795 -0.29036447 5.1651225 0.7330335 -1.3887175 -2.184438 0.021498209
1.9326353 -3.6463113 3.6845648 2.8907738 -2.6621675 3.1566641 4.3621507 5.6758537
1.5357074 1.5574024 4.1367 -0.91875255 -0.68129057 1.9778761 0.84318805 -2.6063952
-5.324093 2.7060435 1.7763559 4.857209 -2.9835148 -0.66400594 -0.5577835 2.13738
-0.94582516 6.2621408 1.955471 -0.019764585 -5.099965 -0.9377436 -3.107325 1.2985748
1.9550142 -2.1661463 0.51833874 0.46608815 0.43208987 -6.417128 1.2035941 1.996572
2.5794675 4.637268 3.7649167 -2.7640781 0.3265924 0.51474845 -0.10200319 -0.8052239
00000000: 0146 4340 88d7 1940 ca73 7940 7d6b d83f
00000010: 53e1 eb3f 81b7 6340 cbf6 2ec0 9579 41bf
00000020: 85fe ce40 4832 70c0 57f4 703f d4b1 003f
00000030: cb52 343e f430 28be 3c9a 0a40 31ac 893f
00000040: a513 1140 4176 88bf 6692 8d3f 3f56 6540
00000050: 5860 4040 4f9b 0e3f ad19 14be 69ac 9040
00000060: 3ff5 99c0 bdd9 58c0 7bed cd3f 46d0 20bf
00000070: f05b 983f a3ea 49c0 7ca6 1c40 128b 0540
00000080: ebcd 3240 1d9e 6040 0b30 8c40 4726 bd40
00000090: 70ef 3b3f 81b9 1140 20de 25c0 2d44 b83f
000000a0: 7873 6040 a16f d0bf 4d3f 8940 1836 a140
000000b0: fcb4 cf40 38c0 a83e 332c 8540 74c8 9040
000000c0: 0405 2540 bb1e 373f 798a 9fbf f1ce 44bf
000000d0: e8a7 f5bf bf29 b740 ead5 c93f ac9b 67bf
000000e0: a02d 893f 7758 4f3f 7d8f 913f 38ac 31c0
000000f0: e8eb 74be 4f80 36c0 0fdc b340 54cf e3be
00000100: e4ed 8d3f b9c8 28c0 23de 3b40 7602 5040
00000110: ac23 6a3c 9483 923f 9478 b540 eabf ad40
00000120: cd94 9f40 4da9 6240 533a 73c0 a6c2 103f
00000130: 32f6 873f 3057 9040 92bc 6b40 7d12 9340
00000140: dab8 24c0 16ca a3be 2ee0 f93f e873 ec3f
00000150: 448c 903f 78d0 963f 6284 1e40 632b 29c0
00000160: 6cbd 8abf 8bfd c240 1ecc 2b40 ecaf 1ebf
00000170: 7436 8340 e8bb 7740 7a89 71bf 01cf 943f
00000180: 3137 ce40 06d4 8940 ac90 81c0 f174 bdc0
00000190: e6a5 3a40 e2d4 6e40 4bbe b73e a022 6dc0
000001a0: a5ed f0be cf99 9dc0 2675 c83f 6a42 ad3f
000001b0: 2e77 abc0 05b5 8ec0 7c8b a540 fadb ff3f
000001c0: 3b48 43c0 ceeb 65c0 b10c f33f 78ef b43e
000001d0: 37b0 2e40 4f0d da3e 4130 4fc0 bc0f 65c0
000001e0: 5e7c 333f 03e0 513f 8e1b fb3f 60dd a33f
000001f0: ee87 78c0 67f5 43c0 f463 9dbf ce5d 4c3e
00000200: 0957 2b40 1dab cebe fed5 8c3f 5365 2740
00000210: 5f2e 6fc0 adda cb3f e957 fd3f 3bff 8ec0
00000220: 22e3 66bf e38b 9e3e f97e 953d 14e3 fe3c
00000230: 26f2 2a40 b498 753e 63c1 3440 13bc b6bf
00000240: 5241 023f 0cd3 0a40 8c57 8340 e18e 9840
00000250: 5d80 1a40 80e5 53c0 a51d 8840 5f13 a440
00000260: cc87 2440 a2df 21c0 8e25 3540 e2b1 f7bf
00000270: 4f86 6d40 59f1 8040 d3d3 de3f 8c15 0140
00000280: 1b25 d540 3fc1 6340 8bfa 603f 1781 263f
00000290: 5510 8640 fd4b c93e 35ca 883d e717 9c3f
000002a0: e63c 953f e1a9 63c0 e0bc b8c0 b1b7 8a3f
000002b0: 488e 8d40 a5a2 88c0 71d4 9b3f 94db 0bbf
000002c0: cfa1 5940 7615 8740 cc0c 9540 72ce 6ec0
000002d0: b241 3040 7e01 6540 291f 8840 6f54 41bf
000002e0: 63d5 4abf 681f 3c40 903b bd40 7f7f 1f40
000002f0: debc 85c0 74f0 783f d39f 863d 0fca 133f
00000300: 85f7 8840 15fd 1c40 8900 d5bf bda0 16c0
00000310: 59b8 43bf 09a1 9d40 9c45 ca3f 3e3d 4040
00000320: 7c3f 08c0 9bc9 23bf a7aa 94be af48 a540
00000330: 15a8 3b3f 7fc1 b1bf d5cd 0bc0 031d b03c
00000340: 9860 f73f 2a5d 69c0 e9cf 6b40 7002 3940
00000350: f460 2ac0 c906 4a40 bd96 8b40 98a0 b540
00000360: 0f92 c43f f658 c73f d95f 8440 5e33 6bbf
00000370: 0f69 2ebf 0b2b fd3f 2cdb 573f 2ecf 26c0
00000380: f85e aac0 d12f 2d40 a15f e33f 426e 9b40
00000390: e8f1 3ec0 4bfc 29bf e6ca 0ebf d5ca 0840
000003a0: 9921 72bf 7563 c840 e04c fa3f 57e9 a1bc
000003b0: ea32 a3c0 f70f 70bf 6ade 46c0 b337 a63f
000003c0: e83d fa3f 24a2 0ac0 d9b1 043f 1ba3 ee3e
000003d0: e23a dd3e 1d59 cdc0 5f0f 9a3f ac8f ff3f
000003e0: ff15 2540 8064 9440 65f4 7040 a8e6 30c0
000003f0: 1e37 a73e 8ec6 033f 0ce7 d0bd 2723 4ebf

conv_layers.0.bias f4 [64]
0.258621 2.10699 0.954503 1.2629678 3.3609283 4.0603375 2.4981961 2.370951
1.824481 1.6094006 4.5660014 5.394823 4.3457584 2.6307664 1.6422385 3.8479042
3.2049072 1.2585496 1.0691671 1.7281756 5.5582504 0.54136235 2.2660537 3.33657
1.3445278 1.4117811 2.129441 0.5422243 2.809497 2.611439 -1.5578215 5.452993
3.6739674 2.4177384 1.6263853 0.13007464 4.55904 3.7252388 5.6560454 2.4660335
3.0753322 0.5699791 0.9241164 4.8139825 1.3062993 2.003227 -0.13413803 4.6978846
0.55572325 3.170788 1.8158786 2.4456398 1.6038631 6.0506506 3.8871007 0.03385477
2.2775967 1.3148609 3.1927743 3.4397504 0.5878665 0.6352693 4.279145 2.3052526
00000000: f969 843e edd8 0640 4f5a 743f eea8 a13f
00000010: 7319 5740 49ee 8140 72e2 1f40 a9bd 1740
00000020: 9888 e93f d700 ce3f af1c 9240 64a2 ac40
00000030: 7410 8b40 7a5e 2840 df34 d23f 1044 7640
00000040: 331d 4d40 2718 a13f 78da 883f dc34 dd3f
00000050: 30dd b140 b996 0a3f 0607 1140 5d8a 5540
00000060: 7d19 ac3f 3eb5 b43f c348 0840 36cf 0a3f
00000070: cdce 3340 d121 2740 b266 c7bf eb7e ae40
00000080: 4822 6b40 3abc 1a40 652d d03f 4932 053e
00000090: a8e3 9140 506a 6e40 53fe b440 7ed3 1d40
000000a0: 3ed2 4440 26ea 113f e492 6c3f 250c 9a40
000000b0: d134 a73f df34 0040 7b5b 09be 1255 9640
000000c0: e143 0e3f 31ee 4a40 b66e e83f 5d85 1c40
000000d0: 634b cd3f ee9e c140 42c6 7840 4dab 0a3d
000000e0: 25c4 1140 5d4d a83f 6a56 4c40 df24 5c40
000000f0: 6b7e 163f 02a1 223f c1ee 8840 4289 1340

conv_layers.2.weight f4 [64, 64, 2, 2]
2.820241 -1.1446592 2.2996001 4.8567896 -1.432378 2.2075088 0.9433103 -0.52391106
-4.7704005 3.2759943 3.9207165 -3.1328893 -0.5145558 3.9343038 3.2126675 3.5936894
1.8946455 1.2703652 1.0101765 5.893318 3.3358583 -3.278746 0.38916355 5.2683563
3.546652 -2.8922746 0.7296852 3.9651816 -0.3494698 2.159392 2.855699 4.3900857
1.5606341 4.0770597 0.8447 -1.8749543 0.18503232 -0.21761009 2.192349 5.161921
3.7810667 -1.8992635 1.0982462 -0.75195843 -4.611144 2.681983 -0.3636314 -0.39084294
-0.5611126 -4.6867037 2.6295793 3.6913168 1.9317992 0.7307004 0.8490015 -3.5265813
-4.083982 -0.3431739 4.38052 1.4558728 -1.963727 1.3642021 0.9370106 -1.0730221
3.5192487 -2.9340346 1.0168159 4.3948703 -0.7333931 2.6328962 2.1720028 3.0328803
3.1622977 -4.062598 -4.4423375 0.71435374 -0.3350369 4.9869103 0.5590747 -2.101616
3.0321465 0.93571603 -1.8889257 -3.0427551 2.874801 -3.2428918 2.0191402 5.255229
-2.8314452 4.5188193 1.182041 -4.8386636 -0.13569202 1.6841551 1.7915723 5.5636253
2.8683097 -3.2582445 -4.2368054 0.082821496 3.7648876 -2.2294939 -0.6090793 4.4683037
-0.97876745 5.5477858 3.54362 -3.3313954 -2.7764254 6.1507664 1.962458 -1.8234397
1.946322 -0.35004523 0.36429146 6.3071427 -1.0267118 4.764396 0.08608224 -1.3239024
0.70995593 -2.599556 2.6147676 4.868736 -3.0780847 0.8186993 1.9210154 5.322414
4.0110464 -1.0963631 -1.1938694 -2.7800941 2.4664657 -4.390789 1.7961496 5.906951
0.43221402 -3.3345034 1.7148687 6.907298 -1.0652761 0.62287 1.2700822 4.19097
0.6247545 -4.031896 1.3825972 1.2800045 -2.8065968 0.49647173 1.4399548 0.6764286
-3.0260274 0.18523134 2.8057969 5.2000675 0.9769933 0.10081203 1.5889496 -2.8671033
-3.5742803 4.8760653 3.876748 -2.8444352 0.45007354 1.9183588 -2.3200815 -4.3192415
3.5090652 -1.4061996 -0.6511198 -2.3463662 2.9393344 -1.308318 -0.8424865 -0.89175916
1.4678661 -3.1195898 2.2426562 1.72133 -0.9782341 -2.447208 2.21253 2.0581884
-0.5051689 4.9661965 2.7533085 -2.368886 4.6601057 -1.3755485 -1.4507893 -2.7724304
-1.6544585 5.3750896 1.6144571 -1.6575164 3.4842582 -1.6139717 1.2203189 -0.51644254
-0.4353176 4.553856 2.2045608 1.3743035 3.962871 -3.085699 -5.5798097 0.4130475
-0.8079551 -0.2690708 4.1023464 -3.4006414 -0.7272053 -5.2062726 2.5160975 4.366191
3.466712 -1.7352687 1.3774639 -0.7001804 -4.706495 2.962001 5.9764643 -1.1993291
3.1319952 -0.5526734 0.12605454 3.901574 -1.1219143 4.542487 3.733218 1.1551157
2.5086133 -1.6018393 -2.9431477 -2.084048 4.465607 -3.8717856 0.983248 5.704299
-0.28773347 3.4863832 2.1205814 4.7429347 -4.903751 0.6320356 4.923056 2.0292425
3.3470013 -1.8128008 0.025233824 -4.565093 -3.237375 5.19839 4.6915216 -2.8671327
00000000: d47e 3440 3184 92bf a62c 1340 d26a 9b40
00000010: 2a58 b7bf d347 0d40 c97c 713f 091f 06bf
00000020: 1fa7 98c0 e4a9 5140 05ed 7a40 4281 48c0
00000030: eeb9 03bf a2cb 7b40 589c 4d40 02ff 6540
00000040: be83 f23f 549b a23f 774d 813f 1096 bc40
00000050: b47e 5540 f9d6 51c0 7240 c73e 6096 a840
00000060: 59fc 6240 071b 39c0 a6cc 3a3f 89c5 7d40
00000070: b5ed b2be 7b33 0a40 c6c3 3640 957b 8c40
00000080: dcc2 c73f 4677 8240 423e 583f 81fe efbf
00000090: 1d79 3d3e 2ed5 5ebe 724f 0c40 752e a540
000000a0: fffc 7140 111b f3bf 5593 8c3f 5980 40bf
000000b0: 7e8e 93c0 9ca5 2b40 e52d babe 911c c8be
000000c0: 13a5 0fbf 7af9 95c0 074b 2840 893e 6c40
000000d0: 3245 f73f 2e0f 3b3f 2a58 593f 82b3 61c0
000000e0: fbaf 82c0 7db4 afbe 382d 8c40 0a5a ba3f
000000f0: 685b fbbf 2d9e ae3f eddf 6f3f ca58 89bf
00000100: 5f3b 6140 39c7 3bc0 0627 823f c7a2 8c40
00000110: a6bf 3bbf 5f81 2840 1802 0b40 b61a 4240
00000120: 1663 4a40 ce00 82c0 a127 8ec0 e3df 363f
00000130: f589 abbe c594 9f40 851f 0f3f e080 06c0
00000140: b00e 4240 168b 6f3f 51c8 f1bf 80bc 42c0
00000150: bdfc 3740 8a8b 4fc0 9839 0140 d62a a840
00000160: 6636 35c0 2b9a 9040 1f4d 973f 55d6 9ac0
00000170: d9f2 0abe 6592 d73f 3e52 e53f 3809 b240
00000180: 6392 3740 1487 50c0 e993 87c0 519e a93d
00000190: ebf3 7040 07b0 0ec0 9fec 1bbf 58fc 8e40
000001a0: 8190 7abf 7687 b140 acca 6240 9535 55c0
000001b0: f4b0 31c0 14d3 c440 d331 fb3f 7966 e9bf
000001c0: 1421 f93f 2139 b3be 6984 ba3e 1dd4 c940
000001d0: 4b6b 83bf ef75 9840 e34b b03d a275 a9bf
000001e0: acbf 353f 205f 26c0 5a58 2740 afcc 9b40
000001f0: 57ff 44c0 4796 513f d5e3 f53f 3751 aa40
00000200: 7e5a 8040 a055 8cbf b6d0 98bf 10ed 31c0
00000210: 93da 1d40 5881 8cc0 3be8 e53f be05 bd40
00000220: 284b dd3e 8168 55c0 d180 db3f 9608 dd40
00000230: f85a 88bf 6974 1f3f 0e92 a23f 6d1c 8640
00000240: e9ef 1f3f 4b05 81c0 f2f8 b03f 30d7 a33f
00000250: 489f 33c0 8b31 fe3e 7050 b83f 6d2a 2d3f
00000260: 6faa 41c0 49ad 3d3e 2d92 3340 f466 a640
00000270: 3c1c 7a3f 8a76 ce3d b362 cb3f 9f7e 37c0
00000280: 02c1 64c0 ba08 9c40 a41c 7840 3a0b 36c0
00000290: 0a70 e63e c88c f53f 377c 14c0 3a37 8ac0
000002a0: 8694 6040 59fe b3bf caaf 26bf dd2a 16c0
000002b0: 0e1e 3c40 f776 a7bf 32ad 57bf 544a 64bf
000002c0: 09e3 bb3f 5ca7 47c0 ae87 0f40 8b54 dc3f
000002d0: 8d6d 7abf 0e9f 1cc0 179a 0d40 5cb9 0340
000002e0: c052 01bf 15eb 9e40 3536 3040 d49b 17c0
000002f0: 961f 9540 f911 b0bf 77b3 b9bf 806f 31c0
00000300: 4cc5 d3bf bc00 ac40 88a6 ce3f 7f29 d4bf
00000310: 16fe 5e40 a096 cebf 6933 9c3f 9435 04bf
00000320: f3e1 debe 30b9 9140 8617 0d40 2de9 af3f
00000330: ae9f 7d40 187c 45c0 cd8d b2c0 f67a d33e
00000340: 25d6 4ebf a6c3 89be 6c46 8340 1ca4 59c0
00000350: 202a 3abf c999 a6c0 be07 2140 d6b7 8b40
00000360: 9cde 5d40 491d debf bd50 b03f 063f 33bf
00000370: 9b9b 96c0 6d91 3d40 323f bf40 9e83 99bf
00000380: 9c72 4840 017c 0dbf 7114 013e 63b3 7940
00000390: e39a 8fbf 0e5c 9140 0bed 6e40 d5da 933f
000003a0: 1f8d 2040 1209 cdbf 885c 3cc0 0b61 05c0
000003b0: 41e6 8e40 56cb 77c0 24b6 7b3f 9e89 b640
000003c0: cd51 93be e720 5f40 9bb7 0740 1fc6 9740
000003d0: 87eb 9cc0 16cd 213f ad89 9d40 1cdf 0140
000003e0: 4535 5640 db09 e8bf 2ab7 ce3c 3e15 92c0
000003f0: 2731 4fc0 3659 a640 f220 9640 1a7f 37c0

conv_layers.2.bias f4 [64]
1.1525359 -0.17244437 0.17176107 2.5141068 -0.23021843 0.7735587 -0.1954622 0.87301594
0.61500645 -0.79966134 0.31921905 3.3179896 4.7553635 3.2729113 0.5428596 2.7839928
0.26915166 1.9951198 -0.14046292 1.3318594 -0.2755785 0.24210143 0.3411474 0.8147745
1.4354588 0.15979345 -1.063061 0.18516678 0.40688443 2.6278913 -0.80558455 1.286005
2.1093142 1.6996467 0.09108593 2.4049788 1.4694875 0.1267534 0.2800602 0.90838796
-0.5305662 -0.20547521 0.2350944 3.3837364 2.0833764 2.1297715 -0.25023058 0.017930431
4.3237634 5.613944 4.8246245 -2.732744 1.0323966 0.9942301 0.8809879 -0.5570678
2.4034202 2.2854903 -0.1380719 5.987016 4.732891 2.2918859 5.348135 0.26423576
00000000: 4c86 933f 4295 30be 22e2 2f3e 20e7 2040
00000010: 61be 6bbe f107 463f 3e27 48be f97d 5f3f
00000020: 1071 1d3f 9bb6 4cbf ae70 a33e f159 5440
00000030: f02b 9840 6177 5140 d9f8 0a3f f02c 3240
00000040: 3fce 893e 1660 ff3f 83d5 0fbe 5e7a aa3f
00000050: a018 8dbe 70e9 773e dfaa ae3e 1095 503f
00000060: 1dbd b73f e5a0 233e 6212 88bf 5c9c 3d3e
00000070: 2853 d03e 5f2f 2840 ca3a 4ebf d09b a43f
00000080: 01ff 0640 068e d93f 438b ba3d 2ceb 1940
00000090: 2b18 bc3f a5cb 013e 0d64 8f3e 1d8c 683f
000000a0: 30d3 07bf 1868 52be 96bc 703e 238f 5840
000000b0: 0a56 0540 2d4e 0840 391e 80be d7e2 923c
000000c0: 455c 8a40 6ea5 b340 5363 9a40 47e5 2ec0
000000d0: 9225 843f dd85 7e3f 6c88 613f ff9b 0ebf
000000e0: a3d1 1940 7945 1240 b862 0dbe a395 bf40
000000f0: d873 9740 42ae 1240 ec23 ab40 e949 873e

conv_layers.4.weight f4 [32, 64, 2, 2]
0.46537516 -0.2244496 1.0532048 0.38675013 4.4039817 5.3616395 4.580796 4.0628514
4.8532796 2.3850057 4.5450788 0.92388725 -1.0375935 -2.6681113 3.2694187 -2.1372745
4.4674587 4.229936 4.5385146 2.329359 0.3482472 -0.11657396 2.3018837 0.9275002
5.0374684 5.0685267 5.587136 3.8113313 0.37990135 3.2806756 -0.036570504 0.2921311
1.8125993 4.0343432 -1.2880538 0.5946035 2.3452432 4.6737957 3.2843053 2.5665293
0.8531582 3.4115126 1.2653292 1.0203203 -0.7524687 0.75452465 -0.67776966 -0.1369237
-0.6656992 0.9862038 0.3132185 0.56096494 -0.3050985 -0.75292635 -0.16611393 -0.06827842
0.9674592 0.44772708 3.8194315 4.415889 -2.4579086 -1.9715098 -0.068155915 2.5487978
-0.18613361 -0.12748711 1.6366596 1.9415902 -1.7002184 -2.4419289 -0.38956574 -1.4922338
1.9147737 3.185303 -0.33377925 -0.0081913 -3.2974973 -3.14381 -2.9765801 -2.371554
2.265797 3.8826046 1.3565873 2.2582047 3.6940053 1.4629623 -0.5083475 3.4781742
1.4306366 -0.23656021 1.9077914 0.8008798 0.71958375 -0.35371697 2.765288 1.8374542
-2.4133775 -3.3554265 3.028908 -3.7616792 5.0925946 1.9116147 4.8969297 0.56810296
1.1373734 1.8924654 0.43724048 0.41806185 5.7583604 4.0820208 5.4214406 3.162429
1.5470836 3.0355647 2.3440864 1.2400141 -1.2758672 -2.3327436 -0.95747143 -0.89968544
2.8577487 4.646678 1.1967031 2.1782653 -3.2595873 -2.911872 -2.9460897 -1.7897025
-0.9746154 0.6830958 -0.5479712 -0.27589723 -1.8726465 -2.239171 -1.8303484 -1.7617562
4.2918205 3.748165 4.315157 1.8326746 -1.4835495 -2.110204 -0.15762761 -0.62753075
0.03355032 2.9735284 0.46057636 -0.2835395 6.449725 3.2532716 4.2192354 4.0172977
4.8851233 1.9750236 0.95260274 3.3724284 0.49133557 -0.5908394 -0.50627536 3.2830029
1.9563061 1.5892063 -0.32703364 3.535063 -0.23109983 0.3898664 3.3228252 4.3086925
3.5840476 1.9771073 2.4449492 0.7351599 -0.07165898 -0.3265599 1.7203345 0.3177695
-1.0059172 -2.0159576 -0.99420923 -1.3372211 1.3862823 -0.2856674 0.060465835 -0.4534437
2.2036307 2.409235 3.252136 0.5996589 1.5586178 3.5823395 0.5501649 0.98518443
-0.3518611 -1.0219009 0.80512583 -0.2326222 -0.7004811 -0.6266901 0.37739256 1.064523
-0.6806715 0.22248068 0.6487877 0.438676 -0.67843693 0.9675801 1.6414794 3.330595
1.7317346 0.15852825 0.5892145 -0.314051 -0.083662875 1.8688278 1.1616739 0.6760712
0.18932305 -0.0963098 2.4456146 2.0912304 4.43978 5.709787 5.032041 4.2313733
-1.5287133 -1.9627442 0.927133 -0.37573758 -1.4040991 -1.6358569 -1.9480416 -1.2301432
3.595342 4.610968 3.9892488 2.2529542 -0.039317623 -0.63738596 1.2824516 -0.16305326
-0.12488254 -0.3650401 -0.15656592 0.3239403 0.077821106 1.9954123 0.45534655 0.035880007
-0.28581303 -0.41662607 0.2603775 0.13123067 5.288602 1.3953018 4.333072 2.0928457
00000000: a745 ee3e 1ed6 65be 6acf 863f 1d04 c63e
00000010: 6bed 8c40 8d92 ab40 e195 9240 e102 8240
00000020: 114e 9b40 efa3 1840 4971 9140 e083 6c3f
00000030: ddcf 84bf 56c2 2ac0 283e 5140 1bc9 08c0
00000040: 6cf5 8e40 a35b 8740 833b 9140 3814 1540
00000050: 754d b23e 54be eebd 1052 1340 a770 6d3f
00000060: f132 a140 5f31 a240 d1c9 b240 daec 7340
00000070: 6e82 c23e 97f6 5140 f4ca 15bd 3592 953e
00000080: 4103 e83f 5719 8140 f2de a4bf ef37 183f
00000090: 7718 1640 bc8f 9540 0f32 5240 0442 2440
000000a0: 9368 5a3f 3956 5a40 4ff6 a13f db99 823f
000000b0: caa1 40bf 8728 413f 5082 2dbf ba35 0cbe
000000c0: 436b 2abf da77 7c3f 2d5e a03e 669b 0f3f
000000d0: df35 9cbe c8bf 40bf c519 2abe 8ed5 8bbd
000000e0: 68ab 773f 7c3c e53e 9171 7440 f64e 8d40
000000f0: 604e 1dc0 6f5a fcbf 5495 8bbd 811f 2340
00000100: cf99 3ebe fb8b 02be 107e d13f 0786 f83f
00000110: c2a0 d9bf 9048 1cc0 2975 c7be 8401 bfbf
00000120: 4e17 f53f 01dc 4b40 1de5 aabe cd34 06bc
00000130: 320a 53c0 2f34 49c0 4a80 3ec0 8ac7 17c0
00000140: d102 1140 987c 7840 a7a4 ad3f 6d86 1040
00000150: 956a 6c40 5942 bb3f 1023 02bf 689a 5e40
00000160: 1a1f b73f d73c 72be 8232 f43f 7506 4d3f
00000170: a436 383f 641a b5be 7bfa 3040 b331 eb3f
00000180: c774 1ac0 4fbf 56c0 a1d9 4140 5abf 70c0
00000190: 89f6 a240 caaf f43f a6b3 9c40 326f 113f
000001a0: 7495 913f 4e3c f23f fcdd df3e 340c d63e
000001b0: 7d44 b840 ea9f 8240 717c ad40 3d65 4a40
000001c0: d606 c63f b146 4240 8305 1640 c8b8 9e3f
000001d0: 9e4f a3bf ac4b 15c0 d91c 75bf c951 66bf
000001e0: 5be5 3640 96b1 9440 912d 993f b368 0b40
000001f0: 149d 50c0 1c5c 3ac0 bc8c 3cc0 f914 e5bf
00000200: 6580 79bf 5edf 2e3f d747 0cbf 6742 8dbe
00000210: e1b2 efbf 944e 0fc0 db48 eabf 3a81 e1bf
00000220: 9856 8940 efe1 6f40 c415 8a40 1595 ea3f
00000230: f3e4 bdbf 950d 07c0 2269 21be dba5 20bf
00000240: 0f6c 093d 4a4e 3e40 aad0 eb3e 172c 91be
00000250: 2664 ce40 9a35 5040 fa03 8740 b48d 8040
00000260: ee52 9c40 93cd fc3f c6dd 733f ded5 5740
00000270: 5690 fb3e 4041 17bf 439b 01bf b81c 5240
00000280: 3d68 fa3f 1d6b cb3f f470 a7be 793e 6240
00000290: 6fa5 6cbe 929c c73e 2ba9 5440 cfe0 8940
000002a0: 0961 6540 da11 fd3f 0c7a 1c40 7033 3c3f
000002b0: f1c1 92bd dc32 a7be ec33 dc3f afb2 a23e
000002c0: e5c1 80bf 7305 01c0 7f84 7ebf 102a abbf
000002d0: b371 b13f ff42 92be 06ab 773d c629 e8be
000002e0: 4908 0d40 e830 1a40 ff22 5040 3f83 193f
000002f0: ca80 c73f 0d45 6540 9bd7 0c3f 0c35 7c3f
00000300: 2327 b4be a6cd 82bf ba1c 4e3f 8434 6ebe
00000310: bb52 33bf c36e 20bf 9939 c13e 4a42 883f
00000320: 7d40 2ebf fad1 633e f316 263f 249a e03e
00000330: 0bae 2dbf 54b3 773f ff1b d23f 7828 5540
00000340: 7ba9 dd3f 3b55 223e c3d6 163f 4bcb a0be
00000350: 7157 abbd c035 ef3f bbb1 943f 0113 2d3f
00000360: e7dd 413e 133e c5bd f384 1c40 b8d6 0540
00000370: ae12 8e40 93b6 b640 7b06 a140 6967 8740
00000380: e1ac c3bf 343b fbbf 9758 6d3f ad60 c0be
00000390: 85b9 b3bf c263 d1bf 6d59 f9bf 5575 9dbf
000003a0: 151a 6640 0d8d 9340 da4f 7f40 6730 1040
000003b0: 840b 21bd ba2b 23bf 6027 a43f 6ff7 26be
000003c0: 6bc2 ffbd 89e6 babe d152 20be 81db a53e
000003d0: ac60 9f3d ac69 ff3f 2f23 e93e eaf6 123d
000003e0: 1656 92be 0350 d5be 3350 853e 5561 063e
000003f0: 3a3c a940 4099 b23f 87a8 8a40 2ff1 0540

conv_layers.4.bias f4 [32]
-0.6920651 2.2792654 0.5471824 -0.04410077 4.6322913 3.508694 3.4551334 -0.27379957
-0.38480377 0.93749493 -0.47292572 1.1591 -0.6581138 1.7653217 1.0435896 -0.535003
2.3992372 2.0124965 2.3764827 2.9247339 -0.5299447 2.4719708 -0.49064487 0.22449285
2.3296726 2.9277165 3.5375776 0.3789053 0.1758134 -0.19221301 -0.7917192 0.04646775
00000000: 2e2b 31bf 7cdf 1140 2514 0c3f 02a3 34bd
00000010: bb3b 9440 718e 6040 e820 5d40 752f 8cbe
00000020: 0005 c5be abff 6f3f 5223 f2be 645d 943f
00000030: 257a 28bf 10f6 e13f 5894 853f f5f5 08bf
00000040: 1a8d 1940 becc 0040 4b18 1840 d72e 3b40
00000050: 75aa 07bf c534 1e40 ce35 fbbe 74e1 653e
00000060: 5b19 1540 b55f 3b40 ac67 6240 e0ff c13e
00000070: 6e08 343e 7dd3 44be 1cae 4abf f854 3e3d

fc_state.0.weight f4 [256, 128]
-4.871317 -5.067699 -2.0927348 -3.930622 -0.78343093 2.5973601 0.13664247 -4.8373237
-4.178788 3.365098 -3.9729893 -4.4219236 -5.2941837 1.6389546 -4.35743 -4.523822
-0.42913473 3.6866915 2.8193936 -5.071236 1.2353035 4.220519 3.3628764 -4.856743
-2.3160203 2.5104415 1.8118443 -5.1529565 -4.4739623 -5.1841545 -0.493142 -3.8445146
-5.498428 -5.7015533 -3.9402196 -2.560085 1.6909829 -4.991243 -4.7511277 3.3931239
-5.807934 -5.8314695 -5.4887815 -2.5389013 2.1780086 -4.858174 -4.37555 3.4647837
-5.6420135 -5.6918144 -4.931963 -2.2324486 3.9706955 4.569685 -2.3967643 -2.4741797
-0.8994413 0.31263 1.5364488 -5.6281776 -5.4427295 -5.90049 -4.8112454 -3.700946
2.4979331 3.080692 -3.7223155 2.36007 3.5922215 3.523703 -2.837039 3.9390934
2.8320138 2.8049 -3.855867 3.3110766 3.1666465 -4.734839 -4.018387 3.8472602
-4.580179 -5.451478 -2.0908582 -4.322796 3.6557837 2.617045 -3.2245207 4.046898
-5.8153515 -5.3549 -5.9555573 -0.2189711 -0.016888376 -5.1214743 -4.112921 2.5710707
3.1116364 2.7875292 -3.5971167 3.3581114 -0.4673986 4.9462986 4.3444495 -4.062289
2.8434372 -4.2771354 1.2269431 2.9693174 2.8672488 -5.425574 -4.1966853 2.4745965
-4.814124 3.0027854 -3.8258388 -4.135606 -5.6210694 -5.6408286 -5.2294426 -0.8795671
-4.5867662 -5.655752 -4.681761 -4.559836 -4.1550403 -4.609094 0.99153924 -2.8939643
-5.103702 -5.1241875 -2.1178744 -4.10475 -0.74945503 2.6516454 -0.009543158 -5.1196494
-4.5912466 3.7530866 -4.4565434 -4.6987867 -5.3853726 1.7073104 -4.6861386 -4.5612497
-0.36321798 3.7707305 2.7907226 -5.0399094 1.1753582 4.2290535 3.7607846 -5.1785445
-2.473619 2.754866 1.9483356 -5.297787 -4.566332 -5.573863 -0.5028094 -3.9444165
-5.569312 -5.7405696 -4.0454535 -2.7600875 1.7046711 -5.369654 -4.955653 3.7078753
-5.687488 -5.741753 -5.42388 -2.6858046 2.2343824 -5.132658 -4.574019 3.718028
-5.818525 -5.844788 -4.9402223 -2.468525 4.123649 4.8082604 -2.5543747 -2.8402534
-0.7262109 0.44175732 1.4607205 -5.605156 -5.5998597 -6.01836 -5.17362 -3.9939353
2.4990897 3.0387814 -3.6936934 2.4021287 3.6723368 3.7018166 -3.0668347 4.1043983
2.8586984 2.9423165 -3.8653202 3.633947 3.2978337 -4.795135 -4.223685 3.8117807
-4.536091 -5.6664 -2.055194 -4.6441865 3.8491647 2.6430595 -3.5216026 4.197751
-5.7893643 -5.444194 -5.997444 -0.19237511 0.08179714 -5.4594355 -4.3042407 2.6368334
3.322784 2.8637135 -3.6200204 3.529628 -0.45675352 4.852875 4.491914 -4.0454564
2.840155 -4.324554 1.2679368 3.0812435 2.8607876 -5.3564987 -4.477991 2.2378197
-5.0536556 3.121046 -3.9927013 -4.3136754 -5.6495237 -5.8541737 -5.537582 -0.89611
-4.6948214 -5.770312 -4.8624525 -4.6894007 -4.165879 -4.7490478 0.84420735 -2.8973567
00000000: d4e1 9bc0 972a a2c0 5eef 05c0 508f 7bc0
00000010: ee8e 48bf 263b 2640 01ec 0b3e 5bcb 9ac0
00000020: a2b8 85c0 c45d 5740 7545 7ec0 6680 8dc0
00000030: f469 a9c0 44c9 d13f 1170 8bc0 26c3 90c0
00000040: 8cb7 dbbe c1f2 6b40 f270 3440 9147 a2c0
00000050: 6d1e 9e3f 7e0e 8740 5e39 5740 706a 9bc0
00000060: ad39 14c0 13ab 2040 84ea e73f 05e5 a4c0
00000070: b32a 8fc0 98e4 a5c0 1c7d fcbe 870c 76c0
00000080: 1ff3 afc0 2073 b6c0 8f2c 7cc0 6fd8 23c0
00000090: 2172 d83f 43b8 9fc0 3d09 98c0 f128 5940
000000a0: 98da b9c0 669b bac0 19a4 afc0 5c7d 22c0
000000b0: 7e64 0b40 2976 9bc0 8104 8cc0 04bf 5d40
000000c0: 608b b4c0 5823 b6c0 a4d2 9dc0 70e0 0ec0
000000d0: e01f 7e40 dc3a 9240 9664 19c0 f658 1ec0
000000e0: c941 66bf 0a11 a03e 5baa c43f 081a b4c0
000000f0: d72a aec0 d0d0 bcc0 b9f5 99c0 4ddc 6cc0
00000100: 23de 1f40 0f2a 4540 6b3a 6ec0 630b 1740
00000110: f5e6 6540 5a84 6140 0c92 35c0 1b1a 7c40
00000120: b73f 3540 7b83 3340 86c6 76c0 aee8 5340
00000130: 56aa 4a40 cd83 97c0 a096 80c0 8339 7640
00000140: d490 92c0 8272 aec0 9fd0 05c0 5854 8ac0
00000150: 5cf8 6940 aa7d 2740 8c5e 4ec0 3080 8140
00000160: 5c17 bac0 575b abc0 ed93 bec0 f639 60be
00000170: 7e59 8abc 1ee3 a3c0 0d9d 83c0 6c8c 2440
00000180: 0d25 4740 e166 3240 2937 66c0 4ceb 5640
00000190: df4e efbe 1448 9e40 bb05 8b40 46fe 81c0
000001a0: e0fa 3540 4bde 88c0 790c 9d3f 4c09 3e40
000001b0: 0181 3740 4d9e adc0 3f4b 86c0 ca5f 1e40
000001c0: 4e0d 9ac0 a32d 4040 8bda 74c0 e256 84c0
000001d0: cddf b3c0 ab81 b4c0 9857 a7c0 4f2b 61bf
000001e0: cac6 92c0 ecfb b4c0 fcd0 95c0 2dea 91c0
000001f0: 17f6 84c0 b37d 93c0 84d5 7d3f b636 39c0
00000200: 8751 a3c0 58f9 a3c0 418b 07c0 1d5a 83c0
00000210: 49dc 3fbf 8fb4 2940 e85a 1cbc 2bd4 a3c0
00000220: 7eeb 92c0 9232 7040 019c 8ec0 765c 96c0
00000230: f954 acc0 2689 da3f d9f4 95c0 c2f5 91c0
00000240: b5f7 b9be a653 7140 339b 3240 f046 a1c0
00000250: 2372 963f 6854 8740 b2b0 7040 a3b6 a5c0
00000260: c64f 1ec0 b94f 3040 1063 f93f 7987 a9c0
00000270: 641f 92c0 165d b2c0 1eb8 00bf 5271 7cc0
00000280: ce37 b2c0 bfb2 b7c0 5b74 81c0 46a5 30c0
00000290: aa32 da3f 35d4 abc0 b694 9ec0 d44d 6d40
000002a0: e7ff b5c0 71bc b7c0 6d90 adc0 39e4 2bc0
000002b0: 1f00 0f40 bc3e a4c0 5d5e 92c0 2cf4 6d40
000002c0: 5b31 bac0 8108 bbc0 4d16 9ec0 50fc 1dc0
000002d0: eff4 8340 45dd 9940 e07a 23c0 b6c6 35c0
000002e0: f5e8 39bf 042e e23e e4f8 ba3f 705d b3c0
000002f0: 0d32 b3c0 6896 c0c0 4c8e a5c0 a39c 7fc0
00000300: 16f1 1f40 657b 4240 7965 6cc0 7abc 1940
00000310: 9107 6b40 90ea 6c40 0547 44c0 3b57 8340
00000320: eaf4 3640 ea4e 3c40 6861 77c0 9692 6840
00000330: b50f 5340 bf71 99c0 6d28 87c0 37f4 7340
00000340: a827 91c0 2653 b5c0 4c88 03c0 2d9d 94c0
00000350: b758 7640 e327 2940 f061 61c0 fa53 8640
00000360: 7942 b9c0 d636 aec0 10eb bfc0 fbfd 44be
00000370: 4285 a73d b2b3 aec0 57bc 89c0 e1c1 2840
00000380: 7ea8 5440 1547 3740 6aae 67c0 6de5 6140
00000390: 99db e9be c14a 9b40 c2bd 8f40 6174 81c0
000003a0: 19c5 3540 bf62 8ac0 c14b a23f 1833 4540
000003b0: 2517 3740 7068 abc0 b44b 8fc0 7038 0f40
000003c0: 8cb7 a1c0 38bf 4740 6b88 7fc0 a109 8ac0
000003d0: e6c8 b4c0 6455 bbc0 df33 b1c0 7767 65bf
000003e0: fa3b 96c0 65a6 b8c0 3699 9bc0 920f 96c0
000003f0: e14e 85c0 33f8 97c0 f91d 583f 4b6e 39c0

fc_state.0.bias f4 [256]
0.76329654 0.7560031 -0.32984737 4.1173935 0.37971893 1.0883015 0.87469465 0.70053554
0.76665086 3.3379946 0.80899036 0.7926804 1.4490674 0.66394657 0.726636 0.75101954
4.3421364 0.77649987 0.68197703 0.6739838 -1.1173153 0.6156241 0.40753365 0.5767043
4.480349 0.7688339 -0.24496843 0.2773877 -0.8137966 0.58200103 0.5124726 4.6569843
0.57631063 0.79672897 0.77052844 0.5858309 0.7335951 0.71746063 0.6583973 0.61030984
0.6385202 0.8688833 0.74111843 0.8091008 0.8083354 0.7146865 0.39958465 -0.15588024
0.7171665 0.0704206 0.81829506 0.7132081 0.101236396 0.67769724 5.0894957 0.75536156
-0.0125908125 0.6659328 0.71841997 0.5366959 0.6788275 0.80111516 -0.34991086 0.63855803
0.92335093 -0.23523653 0.7684105 2.8838165 0.53337413 4.0819764 -0.08327281 4.851802
0.55570376 0.70127976 0.79740596 0.9642734 4.9587197 0.8363922 1.0096607 0.30284333
0.5286166 0.6086568 3.9639387 0.8581495 4.8221188 0.7030979 0.7303132 4.5856175
1.0008109 0.5760519 0.948105 0.7998654 0.85996383 4.9118648 0.49213946 0.69397163
-0.06446635 0.26647484 -0.14049153 -0.7667356 0.7279278 0.5953528 1.004608 0.3582446
0.6756183 0.7457409 0.6945733 0.44933698 3.6894033 0.7622371 0.6089281 0.4924316
-0.09845289 0.68447363 0.38271135 0.6311453 1.6080338 0.82496417 0.96221393 4.6258755
0.37536445 0.80073005 0.7347286 0.7187936 0.6311598 0.9733247 0.75438833 0.72737527
0.77803606 0.67129695 0.4127278 3.2848582 0.63335955 0.6955664 0.5631081 1.1030918
0.7028572 0.25357923 0.73392487 4.790448 0.91093564 1.1198946 -0.042234156 0.78233385
-0.045980237 0.76448405 4.458428 4.493053 0.50739205 0.7658499 0.6307328 0.7943037
-0.45832512 -0.14301738 3.7426453 0.71244884 1.769925 -0.04078587 0.57053685 0.9633673
0.2858829 0.5436436 0.52030456 1.0570556 4.5536094 -1.0760032 -0.6621216 4.3536077
5.0308375 0.9726836 0.68808347 0.21083178 1.1997169 -0.7496325 0.8314372 0.81079173
0.64490837 0.42529485 1.1876688 3.9286938 4.8790126 4.7263765 1.0192533 0.47359994
0.3097576 0.8065688 0.2997521 -1.0603536 4.0578055 0.7989753 1.6678983 0.7718503
0.79461694 -1.0857646 0.63535047 5.1340437 -0.08044879 -0.87188745 0.69934934 -0.16882434
0.78993523 0.6389168 -0.07194656 1.1031662 4.446592 0.6440263 0.98500824 0.66711944
-0.3272942 0.78663826 0.51568 -0.14251815 -0.06416046 0.06937751 0.6654488 5.155171
1.0810242 0.61821145 0.73901004 0.041542064 1.0163925 0.9328939 0.5437094 0.6865538
-0.09697694 0.8200342 0.7609471 0.023904853 4.7809687 0.5464699 0.5939961 0.65731144
-0.14590512 -1.2615771 0.82610464 4.245981 0.57640415 1.217219 0.47783083 0.5849542
0.99408036 0.78030556 0.7719253 0.65448695 0.6753548 0.57781684 0.6735714 1.2411064
0.808527 0.36308113 0.790571 0.68437666 0.6377899 0.38913926 0.61033654 0.76306933
00000000: 6767 433f 6b89 413f c1e1 a8be b0c1 8340
00000010: 856a c23e 774d 8b3f fdeb 5f3f 4c56 333f
00000020: 3b43 443f b4a1 5540 fe19 4f3f 1aed 4a3f
00000030: 0a7b b93f 67f8 293f d104 3a3f d142 403f
00000040: c8f2 8a40 b2c8 463f 0c96 2e3f 348a 2c3f
00000050: 3004 8fbf 8b99 1d3f 40a8 d03e e5a2 133f
00000060: 055f 8f40 4cd2 443f 01d9 7abe c305 8e3e
00000070: f954 50bf 05fe 143f 6831 033f 0406 9540
00000080: 1889 133f 6ef6 4b3f 5a41 453f 04f9 153f
00000090: e3cc 3b3f 80ab 373f ba8c 283f 443d 1c3f
000000a0: 0f76 233f 236f 5e3f f0b9 3d3f 3b21 4f3f
000000b0: 12ef 4e3f b2f5 363f 5c96 cc3e 129f 1fbe
000000c0: 3998 373f ad38 903d c97b 513f ce94 363f
000000d0: 0755 cf3d 917d 2d3f 26dd a240 605f 413f
000000e0: b249 4ebc 927a 2a3f 5fea 373f e764 093f
000000f0: a4c7 2d3f e215 4d3f 8427 b3be 8a78 233f
00000100: ba60 6c3f d8e1 70be 8db6 443f 7390 3840
00000110: 358b 083f 8d9f 8240 ef8a aabd f641 9b40
00000120: 9a42 0e3f 1287 333f cc22 4c3f 9fda 763f
00000130: d5ad 9e40 cd1d 563f 903c 813f 480e 9b3e
00000140: 6b53 073f efd0 1b3f 2cb1 7d40 b0af 5b3f
00000150: cc4e 9a40 39fe 333f cef5 3a3f 61bd 9240
00000160: 921a 803f 2378 133f 02b7 723f fbc3 4c3f
00000170: 9726 5c3f ff2d 9d40 b4f9 fb3e 20a8 313f
00000180: ef06 84bd 646f 883e 03dd 0fbe c948 44bf
00000190: 7a59 3a3f 0b69 183f ff96 803f d66b b73e
000001a0: 52f5 2c3f e0e8 3e3f 8ecf 313f 7f0f e63e
000001b0: 2f1f 6c40 f821 433f b6e2 1b3f ff1f fc3e
000001c0: aba1 c9bd aa39 2f3f bef2 c33e bd92 213f
000001d0: 0dd4 cd3f da30 533f a753 763f 2c07 9440
000001e0: c52f c03e a5fc 4c3f 2c17 3c3f db02 383f
000001f0: b093 213f cf2b 793f 981f 413f 4435 3a3f
00000200: 5f2d 473f 1eda 2b3f 0f51 d33e 1e3b 5240
00000210: da23 223f a410 323f da27 103f 1d32 8d3f
00000220: 73ee 333f 23d5 813e 80e2 3b3f 5a4b 9940
00000230: 1433 693f b558 8f3f b9fd 2cbd 0847 483f
00000240: c655 3cbd 3ab5 433f 71ab 8e40 17c7 8f40
00000250: 72e4 013f bd0e 443f b477 213f 7d57 4b3f
00000260: 97a9 eabe 2673 12be 8087 6f40 0c63 363f
00000270: e78c e23f 160f 27bd b40e 123f 3d9f 763f
00000280: 3e5f 923e 3a2c 0b3f ae32 053f 994d 873f
00000290: 2bb7 9140 79ba 89bf cd80 29bf c150 8b40
000002a0: 9ffc a040 cb01 793f 3d26 303f 49e4 573e
000002b0: 5390 993f eae7 3fbf 11d9 543f 0c90 4f3f
000002c0: b718 253f 3fc0 d93e 8805 983f b86f 7b40
000002d0: df20 9c40 7a3e 9740 e476 823f b17b f23e
000002e0: 8c98 9e3e 4b7b 4e3f 1b79 993e abb9 87bf
000002f0: 8bd9 8140 a589 4c3f b17d d53f fb97 453f
00000300: 046c 4b3f 56fa 8abf 54a6 223f 164a a440
00000310: 56c2 a4bd 0434 5fbf 8f08 333f 4ae0 2cbe
00000320: 3239 4a3f 0d90 233f b858 93bd 8d34 8d3f
00000330: 7b4a 8e40 e8de 243f 8029 7c3f 57c8 2a3f
00000340: 1b93 a7be 2061 493f 9b03 043f 47f0 11be
00000350: 8f66 83bd cc15 8e3d da5a 2a3f 29f7 a440
00000360: 005f 8a3f 1b43 1e3f c32f 3d3f 0328 2a3d
00000370: 2619 823f 22d2 6e3f 8a30 0b3f fdc1 2f3f
00000380: d99b c6bd c3ed 513f 6ecd 423f 1cd4 c33c
00000390: b2fd 9840 74e5 0b3f 2110 183f 9045 283f
000003a0: 2768 15be 5c7b a1bf 987b 533f 14df 8740
000003b0: 398f 133f d5cd 9b3f 3ea6 f43e 8fbf 153f
000003c0: 0d7c 7e3f 1bc2 473f e59c 453f 758c 273f
000003d0: 0de4 2c3f ceeb 133f 2d6f 2c3f 93dc 9e3f
000003e0: a0fb 4e3f c5e5 b93e dc62 4a3f 4f33 2f3f
000003f0: 3346 233f 433d c73e 043f 1c3f 8358 433f

fc_state.2.weight f4 [64, 256]
-2.1416602 -2.2687905 0.85850865 1.9468967 -0.8506908 0.054159 0.14462963 -2.1938338
-2.8256238 1.6215851 -1.764513 -1.8225572 1.883769 -2.1486764 -2.0682693 0.120885886
1.606988 -2.0831335 -2.113944 -2.122721 3.8976662 0.12552018 0.076513045 0.19537118
2.1320498 -2.2249467 0.37603372 0.18016985 2.6464703 -2.3000743 -0.9778257 1.6768566
-2.5615804 -1.9487177 -2.1375456 -2.400803 -2.2090604 -2.3540158 -2.5336308 -2.2824535
-2.5454538 -1.8597783 -1.7911625 0.08484284 0.04682686 -2.0901148 -0.9450124 0.23354183
-0.0020909682 -0.137425 -1.9985119 -2.3610468 -0.5902468 -1.9381192 1.9170653 -2.1135478
0.2156509 -2.237802 -2.46323 -2.3780713 -2.4799728 -2.0102465 0.36537942 0.10095333
0.122602604 0.40745088 -1.47183 1.0423512 -2.4833684 1.7456526 -0.038560215 1.9713157
-2.5952668 0.10893229 -2.1379151 0.101402536 2.0618176 0.12182448 0.050484315 -1.2055016
0.074408546 -2.5913827 1.3179406 -1.9976599 2.1111612 -2.3987184 -2.0045476 2.0835166
-0.002672896 -2.5713437 0.052738253 -1.936828 0.08454898 1.9975377 0.16632885 -2.058311
0.22704266 0.1768228 1.4333799 1.218026 -2.186156 -2.606619 0.2016823 -0.9029889
-2.0223892 -2.0520537 -2.20558 -0.8790551 1.5798081 -0.731548 -2.3402078 0.22689167
-0.02253878 0.08655629 -0.7964704 -2.2477167 2.868039 -1.4270114 0.077386364 2.0169823
0.1340192 -2.2199175 0.09752426 -1.9995477 -2.036012 0.022758 -2.0551925 -1.4095719
-2.1745546 0.17183039 -1.1085767 1.7247021 0.14769521 -2.8655908 -2.2208745 0.142393
-2.3206263 0.093183234 -2.0423398 2.033393 0.07440923 0.12306784 0.12926286 -2.0406709
-0.26921484 -2.169768 1.4130764 1.5978624 0.12065525 -1.9723095 -2.177979 -1.2904962
1.4356425 0.2067353 1.8279271 -2.45575 3.211357 0.22015502 0.17851295 0.09809209
0.15486498 0.025269322 0.1845333 0.11388284 2.2229006 3.9038541 1.5055971 1.4972351
1.7694197 0.08658388 -2.1794806 0.21968143 0.7902017 2.558447 0.058064386 -2.2326012
0.06491814 0.16436125 0.044225153 1.8337251 1.7911222 1.7944646 0.09787525 -0.97053784
0.106845 -1.5812395 0.16158943 3.8326643 2.1590006 -2.4295506 3.926975 -2.1496427
-1.9988421 3.837303 -2.3488827 1.9691792 -0.28148088 3.3193314 -2.085399 0.31306994
-2.138182 0.14772296 -0.38087532 0.14835927 2.1047275 -2.2444835 0.122386664 -1.9457121
0.99860084 -1.9678056 0.09152586 1.015141 0.2681867 -0.14472616 -2.108546 1.7806792
0.14636824 0.13303506 -1.9825819 0.1318315 0.055765737 0.049110573 0.15428914 -2.064561
-0.50739473 0.106491804 0.11878982 -0.0076787085 2.1396353 0.18697734 -2.4551237 -2.5836115
0.16436407 3.9228787 -2.0983682 1.9471072 -2.4248507 0.15602797 0.16649719 -2.0245166
0.07647509 -1.461305 -2.0554335 -1.926419 -1.8204222 -2.6380994 -3.0238764 0.15232916
-2.0231822 0.14591908 -2.2718022 -2.1747224 -2.266102 0.14783171 -2.3810413 -2.23136
00000000: f610 09c0 dd33 11c0 39c7 5b3f e933 f93f
00000010: dfc6 59bf d4d5 5d3d ca19 143e c667 0cc0
00000020: 05d7 34c0 1a90 cf3f 90db e1bf 8e49 e9bf
00000030: 581f f13f ea83 09c0 865e 04c0 0593 f73d
00000040: c8b1 cd3f 0f52 05c0 dc4a 07c0 a9da 07c0
00000050: 5d73 7940 5d88 003e dfb2 9c3d 620f 483e
00000060: 8173 0840 8765 0ec0 7e87 c03e 727e 383e
00000070: c55f 2940 6b34 13c0 c952 7abf 3da3 d63f
00000080: eff0 23c0 956f f9bf 8ccd 08c0 c2a6 19c0
00000090: 3f61 0dc0 32a8 16c0 0227 22c0 b813 12c0
000000a0: b7e8 22c0 370d eebf d044 e5bf 15c2 ad3d
000000b0: 86cd 3f3d 71c4 05c0 55ec 71bf 9725 6f3e
000000c0: a008 09bb 24b9 0cbe 3dcf ffbf 641b 17c0
000000d0: 6a1a 17bf 4a14 f8bf 6562 f53f 5e44 07c0
000000e0: 97d3 5c3e 2638 0fc0 8fa5 1dc0 5232 18c0
000000f0: e0b7 1ec0 e1a7 00c0 0313 bb3e 9fc0 ce3d
00000100: 1317 fb3d 679d d03e ed64 bcbf c46b 853f
00000110: 82ef 1ec0 8b71 df3f 51f1 1dbd 1354 fc3f
00000120: da18 26c0 e417 df3d 9ad3 08c0 22ac cf3d
00000130: d2f4 0340 1d7f f93d a4c8 4e3d e04d 9abf
00000140: 8263 983d 37d9 25c0 47b2 a83f 52b3 ffbf
00000150: 441d 0740 9a84 19c0 824a 00c0 5658 0540
00000160: c12b 2fbb e590 24c0 1104 583d fbe9 f7bf
00000170: 0428 ad3d 51af ff3f 1c52 2a3e 5ebb 03c0
00000180: df7d 683e 0911 353e fe78 b73f 47e8 9b3f
00000190: fbe9 0bc0 d8d2 26c0 ce85 4e3e 482a 67bf
000001a0: d36e 01c0 d954 03c0 3928 0dc0 c109 61bf
000001b0: 2737 ca3f bb46 3bbf f7c5 15c0 4a56 683e
000001c0: 3fa3 b8bc 6d44 b13d 7ce5 4bbf 97da 0fc0
000001d0: f38d 3740 4fa8 b6bf be7c 9e3d 3d16 0140
000001e0: 543c 093e 2113 0ec0 cdba c73d 2ef1 ffbf
000001f0: 054e 02c0 fc6e ba3c 4688 03c0 da6c b4bf
00000200: e72b 0bc0 4ef4 2f3e d7e5 8dbf 0ac3 dc3f
00000210: 6a3d 173e d765 37c0 cf22 0ec0 78cf 113e
00000220: 2485 14c0 dad6 be3d b2b5 02c0 1c23 0240
00000230: de63 983d fe0a fc3d 7c5d 043e 5a9a 02c0
00000240: 87d6 89be 7bdd 0ac0 b0df b43f c186 cc3f
00000250: 1a1a f73d a374 fcbf 0264 0bc0 fb2e a5bf
00000260: 22c3 b73f 6bb2 533e 84f9 e93f 022b 1dc0
00000270: e086 4d40 5170 613e 19cc 363e 81e4 c83d
00000280: ed94 1e3e 9c01 cf3c 4cf6 3c3e 683b e93d
00000290: 0144 0e40 bfd8 7940 68b7 c03f 66a5 bf3f
000002a0: 587c e23f e452 b13d 9c7c 0bc0 2bf4 603e
000002b0: a94a 4a3f 98bd 2340 ecd4 6d3d f0e2 0ec0
000002c0: cdf3 843d 514e 283e 6f25 353d 81b7 ea3f
000002d0: 7e43 e53f 04b1 e53f d272 c83d 2b75 78bf
000002e0: 8dd1 da3d 0e66 cabf b377 253e 5f4a 7540
000002f0: 112d 0a40 c27d 1bc0 8f53 7b40 bf93 09c0
00000300: 0fda ffbf 5f96 7540 1854 16c0 100e fc3f
00000310: 431e 90be ed6f 5440 2d77 05c0 b44a a03e
00000320: f9d7 08c0 b044 173e 1702 c3be 7eeb 173e
00000330: dbb3 0640 9ea5 0fc0 dca5 fa3d 180d f9bf
00000340: 4ea4 7f3f 0ee1 fbbf e971 bb3d 24f0 813f
00000350: c44f 893e 1833 14be 6bf2 06c0 4ced e33f
00000360: 8ee1 153e 583a 083e 3ec5 fdbf d6fe 063e
00000370: 9d6a 643d 2b28 493d f9fd 1d3e c421 04c0
00000380: 9fe4 01bf 6018 da3d 1448 f33d ad9d fbbb
00000390: c9ef 0840 fd76 3f3e bf20 1dc0 e459 25c0
000003a0: 0e4f 283e 7210 7b40 aa4b 06c0 cf3a f93f
000003b0: c130 1bc0 ccc5 1f3e 3d7e 2a3e ae91 01c0
000003c0: f99e 9c3d 0b0c bbbf 398c 03c0 e694 f6bf
000003d0: 9803 e9bf 9fd6 28c0 3187 41c0 2dfc 1b3e
000003e0: d17b 01c0 d06b 153e 3565 11c0 a72e 0bc0
000003f0: d107 11c0 3261 173e fb62 18c0 9ace 0ec0

fc_state.2.bias f4 [64]
0.29410008 0.2771117 0.5816074 -0.06161589 0.30756357 1.0637369 0.5819336 0.36658487
0.5941814 0.62792164 0.23177278 0.61879665 0.5881823 0.62119114 0.59019816 0.37490913
-0.049082708 0.61408764 0.25420853 0.56348556 0.58093315 0.1841155 0.551836 -0.076522715
0.30757427 0.19157691 0.6260719 0.54877275 0.6151956 0.18430907 0.5352321 0.1723908
0.34962544 0.62656116 0.2043549 0.20623167 0.20597686 0.6041875 1.301961 0.56325126
-0.029179301 0.62763083 0.2590497 0.6502541 0.30617017 0.27537602 0.29971042 0.29102674
0.17285897 0.2707722 0.23964848 1.4149718 1.2990024 -0.0328661 0.5996878 0.5688904
0.57630485 0.64754 0.5940881 0.00025113855 0.3007999 0.6160191 0.6259864 -0.0067134304
00000000: 4994 963e 96e1 8d3e 39e4 143f f260 7cbd
00000010: f978 9d3e 8828 883f 9af9 143f 03b1 bb3e
00000020: 461c 183f 79bf 203f d855 6d3e 7569 1e3f
00000030: 1d93 163f 6206 1f3f 3a17 173f 17f4 bf3e
00000040: f30a 49bd d934 1d3f 9f27 823e 9740 103f
00000050: 09b8 143f c688 3c3e 2045 0d3f f1b7 9cbd
00000060: 607a 9d3e bd2c 443e 3f46 203f 5f7c 0c3f
00000070: 757d 1d3f 84bb 3c3e f904 093f 3787 303e
00000080: 1b02 b33e 5066 203f 6942 513e 652e 533e
00000090: 99eb 523e 08ac 1a3f a8a6 a63f 3c31 103f
000000a0: 6e09 efbc 6aac 203f 2aa2 843e 0d77 263f
000000b0: 56c2 9c3e 16fe 8c3e a573 993e 7501 953e
000000c0: f101 313e a7a2 8a3e 6966 753e cc1d b53f
000000d0: b645 a63f 9b9e 06bd 2485 193f cda2 113f
000000e0: b788 133f 2ec5 253f 2816 183f 3fab 8339
000000f0: 7202 9a3e 6eb3 1d3f a540 203f 56fc dbbb

fc_state.4.weight f4 [1, 64]
-2.0815287 -2.0863395 7.6348386 0.025259318 -2.1152608 8.804957 7.689769 1.0762968
7.684188 7.6763363 -2.0538228 7.723235 7.774072 7.769821 7.625967 1.1679864
0.013219466 7.6445527 -2.0538673 7.6039443 7.629114 -2.0202084 7.6212854 0.065943435
-2.1279976 -2.175171 7.6859393 7.5787973 7.72478 -2.7319713 7.5645967 -2.1272595
-2.0260155 7.6720862 -2.0273075 -2.0219545 -2.340439 7.676386 10.742563 7.581682
0.060603023 7.690864 -2.093007 7.6303864 -2.097377 -2.1542616 -2.1641767 -2.0418775
-2.6018856 -2.1206396 -2.0876098 9.888978 10.577339 0.10629028 7.6080637 7.576363
7.698823 7.601765 7.6280355 -0.002473914 -2.0196116 7.556895 7.720401 -0.1377496
00000000: c437 05c0 9686 05c0 9950 f440 a1ec ce3c
00000010: 6f60 07c0 1be1 0c41 9612 f640 18c4 893f
00000020: dee4 f540 8ca4 f540 d571 03c0 be24 f740
00000030: 33c5 f840 60a2 f840 ec07 f440 9480 953f
00000040: 7696 583c 2da0 f440 9072 03c0 8353 f340
00000050: b421 f440 184b 01c0 92e1 f340 5a0d 873d
00000060: 1d31 08c0 0036 0bc0 37f3 f540 8285 f240
00000070: 6631 f740 9ed8 2ec0 2d11 f240 0525 08c0
00000080: 3daa 01c0 bb81 f540 68bf 01c0 b467 01c0
00000090: c1c9 15c0 f4a4 f540 8ae1 2b41 249d f240
000000a0: e03a 783d 8f1b f640 d4f3 05c0 202c f440
000000b0: 6d3b 06c0 6cdf 09c0 df81 0ac0 1fae 02c0
000000c0: 4b85 26c0 8fb8 07c0 669b 05c0 4139 1e41
000000d0: c83c 2941 b8ae d93d 4275 f340 9171 f240
000000e0: c25c f640 a941 f340 de18 f440 6421 22bb
000000f0: 5141 01c0 15d2 f140 860d f740 3b0e 0dbe

fc_advantage.0.weight f4 [256, 128]
-4.004051 -3.9058297 0.11455448 -2.5057287 1.338668 2.910233 1.5305302 -3.8305323
-1.5183812 3.7231998 -1.6481949 -3.1330054 -2.4016955 2.7599185 -2.1001053 -3.3153594
1.5386577 3.489789 3.1715271 -3.6739626 2.2369614 3.7548883 3.2964454 -3.5047076
-0.26173654 2.947623 2.5715814 -3.792531 -3.822282 -4.634919 1.1925787 -2.3053403
-4.619395 -4.587214 -1.506897 -1.1887976 2.1224098 -4.0201373 -3.077503 3.6734676
-4.5028954 -4.5629206 -3.4954062 -1.649998 2.2896583 -3.8959181 -2.9006233 3.677773
-4.5189543 -4.703622 -2.8503106 -1.0279243 4.025128 4.1539454 -0.92660004 -1.0974075
0.86279494 1.4110552 2.2454011 -4.423123 -4.262814 -4.590006 -3.028969 -2.9682667
2.9290946 3.293215 -2.0556421 3.0072114 3.5298553 3.2042964 -1.6649768 4.082488
3.2502823 2.8779302 -2.1168115 3.682877 3.135198 -3.999159 -2.5260842 3.913951
-3.7563617 -4.5838943 0.0358194 -3.1986988 3.5499206 2.3712444 -1.4817122 3.917009
-4.7752886 -4.1890664 -4.0899067 1.1135257 0.70550287 -4.2226634 -1.7331856 3.1656573
3.2832034 2.9398267 -1.9808962 3.7565305 1.0101256 4.137244 4.093379 -2.5926154
2.6611605 -3.8292456 1.8950195 3.5025518 3.0011406 -4.4436607 -3.2299426 2.984755
-2.0100656 3.3338573 -1.2324942 -2.5972145 -4.7315764 -4.5653653 -3.0699604 0.76615286
-2.7697835 -4.5703373 -3.4709697 -3.990745 -3.4074206 -4.2121434 2.2705417 -0.6615592
4.0004992 4.1156397 1.4478891 2.9203513 0.7101304 -0.25362444 0.5716593 3.9939258
2.7176423 -0.9576026 1.8669964 3.2643168 3.2351189 0.07630711 2.7288637 3.6222897
0.6949685 -0.8055989 -0.5771472 3.882655 -0.009550328 -1.2227212 -0.9526486 3.8209608
1.5540125 -0.3742703 -0.18747193 3.8005269 3.5133243 4.6248 1.0867363 2.9665594
4.6921463 4.797312 2.7057178 2.3971922 0.5366156 4.094209 3.0750031 -1.1736009
4.67194 4.656981 3.7419648 2.381637 0.42790848 4.148129 3.084976 -1.0567824
4.502148 4.5440187 3.2367601 2.1471653 -2.3464763 -1.3857925 0.7021676 1.5735974
1.1918006 1.100545 0.34308934 4.365414 4.697453 4.7963862 3.483362 3.1899247
-0.36802027 -0.48202378 2.0870974 -0.42628494 -0.93111944 -0.712476 1.784678 -1.2844769
-0.20372528 -0.21663989 2.3120441 -1.1147928 -0.2729835 4.1769357 3.0636563 -1.2553536
3.6473544 4.675094 1.7407548 3.5628326 -0.7633377 0.020087572 1.8870969 -1.4766887
4.6985593 4.146724 3.7875404 1.0547602 1.1866822 4.0325007 2.4786928 -1.0188911
-0.45580518 -0.18804264 2.1153686 -0.9119226 0.20328282 -1.6904439 -1.7966288 2.2833295
0.16258603 3.9622133 0.50025976 -0.7781284 -0.076301135 4.5053988 3.2042272 -0.42262226
3.0167656 -0.8580577 1.6538745 2.4933507 4.3971324 4.7788053 3.4662058 1.271022
3.8797393 4.7370596 3.3831744 3.877476 3.8269951 3.9386382 0.15633963 2.351768
00000000: 3021 80c0 1df9 79c0 8a9b ea3d dc5d 20c0
00000010: 7959 ab3f 4241 3a40 6ae8 c33f 7127 75c0
00000020: 515a c2bf e848 6e40 0df8 d2bf 2983 48c0
00000030: 61b5 19c0 81a2 3040 2068 06c0 d92e 54c0
00000040: bcf2 c43f b458 5f40 4dfa 4a40 3422 6bc0
00000050: 602a 0f40 1750 7040 f6f8 5240 214d 60c0
00000060: 5502 86be dba5 3c40 ca94 2440 d4b8 72c0
00000070: 45a0 74c0 4251 94c0 6ba6 983f b28a 13c0
00000080: 15d2 93c0 75ca 92c0 00e2 c0bf 852a 98bf
00000090: 90d5 0740 f7a4 80c0 cff5 44c0 181a 6b40
000000a0: b817 90c0 7203 92c0 bcb4 5fc0 2233 d3bf
000000b0: c389 1240 b956 79c0 d0a3 39c0 a260 6b40
000000c0: 469b 90c0 1284 96c0 7d6b 36c0 0693 83bf
000000d0: d9cd 8040 1fed 8440 a935 6dbf d977 8cbf
000000e0: 21e0 5c3f 759d b43f a7b4 0f40 398a 8dc0
000000f0: f968 88c0 54e1 92c0 a1da 41c0 15f8 3dc0
00000100: 4976 3b40 09c4 5240 a48f 03c0 2776 4040
00000110: 26e9 6140 3113 4d40 f61d d5bf bea3 8240
00000120: a004 5040 0230 3840 d779 07c0 42b4 6b40
00000130: 16a7 4840 39f2 7fc0 5dab 21c0 2c7e 7a40
00000140: 3b68 70c0 43af 92c0 5db7 123d 7bb7 4cc0
00000150: e631 6340 78c2 1740 bfa8 bdbf 47b0 7a40
00000160: 2acf 98c0 d50c 86c0 84e0 82c0 0388 8e3f
00000170: d69b 343f 0f20 87c0 07d9 ddbf 219a 4a40
00000180: 0120 5240 1f26 3c40 028e fdbf ff6a 7040
00000190: cc4b 813f 4e64 8440 f6fc 8240 69ed 25c0
000001a0: 7450 2a40 5c12 75c0 0090 f23f cf29 6040
000001b0: b012 4040 7832 8ec0 61b7 4ec0 3a06 3f40
000001c0: eaa4 00c0 eb5d 5540 5fc2 9dbf c338 26c0
000001d0: 1369 97c0 7917 92c0 3b7a 44c0 9822 443f
000001e0: 2244 31c0 3440 92c0 5e24 5ec0 5e68 7fc0
000001f0: 2e13 5ac0 e1c9 86c0 8e50 1140 f25b 29bf
00000200: 1704 8040 52b3 8340 6e54 b93f 09e7 3a40
00000210: 1bcb 353f 10db 81be 4458 123f 7b9c 7f40
00000220: daed 2d40 7225 75bf bdf9 ee3f 91ea 5040
00000230: 300c 4f40 e746 9c3d b4a5 2e40 98d3 6740
00000240: 75e9 313f bb3b 4ebf ebbf 13bf 6b7d 7840
00000250: fb78 1cbc 2182 9cbf c7e0 73bf 9f8a 7440
00000260: e2e9 c63f 5ba0 bfbe a4f8 3fbe d53b 7340
00000270: 4eda 6040 5dfe 9340 2d1a 8b3f 1cdc 3d40
00000280: 1026 9640 9483 9940 7b2a 2d40 996b 1940
00000290: a45f 093f c303 8340 dacc 4440 8e38 96bf
000002a0: 8880 9540 fd05 9540 5a7c 6f40 be6c 1840
000002b0: d216 db3e 79bd 8440 3f70 4540 a544 87bf
000002c0: 9911 9040 9a68 9140 1427 4f40 286b 0940
000002d0: ab2c 16c0 a661 b1bf 41c1 333f a46b c93f
000002e0: ec8c 983f a9de 8c3f 68a9 af3e 79b1 8b40
000002f0: 8951 9640 ff7b 9940 67ef 5e40 ba27 4c40
00000300: 276d bcbe d2cb f6be 0193 0540 0542 dabe
00000310: d85d 6ebf d464 36bf 5470 e43f bd69 a4bf
00000320: 5c9d 50be d9d6 5dbe 88f8 1340 88b1 8ebf
00000330: 7ec4 8bbe 75a9 8540 f212 4440 6daf a0bf
00000340: 416e 6940 5f9a 9540 0ed1 de3f 7305 6440
00000350: 196a 43bf b18e a43c 648c f13f 2304 bdbf
00000360: 995a 9640 f7b1 8440 1067 7240 6202 873f
00000370: 34e5 973f 3f0a 8140 e7a2 1e40 066b 82bf
00000380: 4c5f e9be 408e 40be 3362 0740 c273 69bf
00000390: 5f29 503e 7760 d8bf eff7 e5bf 1222 1240
000003a0: f47c 263e e794 7d40 0611 003f 6c33 47bf
000003b0: c543 9cbd 3a2c 9040 0f12 4d40 f261 d8be
000003c0: b012 4140 aba9 5bbf 29b2 d33f 0f93 1f40
000003d0: 4fb5 8c40 f9eb 9840 51d6 5d40 d9b0 a23f
000003e0: a64d 7840 fe95 9740 ee85 5840 9128 7840
000003f0: 7ded 7440 a612 7c40 7f17 203e 5e83 1640
