data/Torch/Dueling/003_Big-CNN_E_L/checkpoints/weights_26000episodes.pth (torch, 505343 bytes, 17 tensors)

conv_layers.0.weight f4 [64, 1, 3, 3]
0	0x3ef8f038	0.48620772
1	0x3e5676d5	0.20943768
2	0xbe5a5fa0	-0.2132554
3	0x3e8f48e2	0.27985293
4	0xbde04357	-0.10950344
5	0xbced01e2	-0.028931562
6	0xbe7efcf1	-0.24901177
7	0x3e1bba45	0.15207775
8	0x3e959544	0.29215443
9	0xbf2cfffc	-0.675781
10	0x3e744f01	0.23858263
11	0x3d350abb	0.044199686
12	0x3e9a0f1d	0.30089656
13	0x3d036f20	0.0320884
14	0x3db1e6ca	0.08686598
15	0xbbc8d3cd	-0.0061287642
16	0x3e5181e1	0.20459701
17	0x3bab3cd3	0.0052257567
18	0xbed2c559	-0.4116619
19	0x3e5a1cbf	0.21300028
20	0x3b3f1dd8	0.0029162075
21	0xbd26742c	-0.040638134
22	0xbda08e3d	-0.0783963
23	0x3f20379a	0.6258484
24	0xbe453948	-0.19260132
25	0xbeecf2de	-0.46279043
26	0xbe0b24e2	-0.13588288
27	0xbed45a13	-0.4147497
28	0xbcc4af22	-0.024009291
29	0xbeb89d6c	-0.36057603
30	0x3ecbb05f	0.39782998
31	0xbe93a0d1	-0.2883363
32	0x3ea47f61	0.32128432
33	0x3e0f1b50	0.13975263
34	0x3c552baf	0.013010903
35	0x3eb5e82a	0.3552869
36	0xbd46c99d	-0.048532117
37	0x3e88c437	0.267122
38	0xbd280717	-0.041022386
39	0xbe38c7fd	-0.1804504
40	0x3d928c75	0.07155696
41	0xbe6e96fb	-0.23299782
42	0x3df86067	0.12127762
43	0x3e5c1d49	0.21495546
44	0x3e03f7b7	0.12887464
45	0xbeaf9c11	-0.34298757
46	0x3eddecd4	0.43344748
47	0x3dd18436	0.10230295
48	0x3eb527fa	0.35382062
49	0xbdf5ac03	-0.11995699
50	0xbe92d301	-0.28676608
51	0xbcfcf30d	-0.030877614
52	0xbe854258	-0.2602718
53	0x3efbdf26	0.49193686
54	0x3ec7cbb3	0.39022598
55	0x3dbbc3e4	0.091682225
56	0xbc077231	-0.008266971
57	0xbb870998	-0.0041210167
58	0x3ec80246	0.39064234
59	0xbee0ce91	-0.43907598
60	0x3cadf9b8	0.02123724
61	0xbece1128	-0.40247464
62	0x3d2ba47c	0.04190491
63	0xbe5ff9a4	-0.21872574
64	0x3e07073b	0.13186352
65	0xbbd5943b	-0.0065179146
66	0x3ecc00d7	0.3984439
67	0xbe6321cf	-0.22180866
68	0xbe63de52	-0.22252777
69	0xbe3fe5bf	-0.18739985
70	0x3eb48f2c	0.3526548
71	0x3e10f845	0.14157207
72	0x3f5d6c08	0.8649297
73	0xbe83970a	-0.2570117
74	0xbe8df9d0	-0.27729654
75	0xbeb49c16	-0.35275334
76	0xbde02f26	-0.10946493
77	0x3e61cbaa	0.22050348
78	0x3d9aa07d	0.07550142
79	0x3eb11b3a	0.34591085
80	0xbd9dda30	-0.077076316
81	0xbf0c6453	-0.5484058
82	0x3e9f1eec	0.3107828
83	0x3cbee29b	0.023301413
84	0x3e939342	0.28823286
85	0xbc1fcd57	-0.009753547
86	0x3e869ce3	0.2629157
87	0xbe76ce1b	-0.2410206
88	0xbe3fef8b	-0.18743722
89	0x3e62cb62	0.22147897
90	0x3e3ff9b4	0.18747598
91	0xbe411fe8	-0.18859828
92	0x3e74f869	0.23922886
93	0x3e8d299c	0.27570808
94	0xbed7c0d0	-0.42139292
95	0xbe327063	-0.17425685
96	0x3eedea3e	0.46467775
97	0xbddd6216	-0.10809724
98	0xbe598165	-0.21240766
99	0xc014cec8	-2.325121
100	0x3e79ee35	0.24407275
101	0x3ea42938	0.32062697
102	0xbe8d9d55	-0.27659097
103	0xbf953cd3	-1.1659187
104	0x3e669368	0.22517169
105	0xbf69eb01	-0.9137421
106	0xbe8214c6	-0.25406474
107	0x3e19c6c5	0.15017231
108	0xbf7879bf	-0.9706077
109	0xbd907d29	-0.070551224
110	0x3f1b86ba	0.6075245
111	0x3d491e60	0.049101233
112	0x3e516534	0.20448762
113	0xbe9ba5cb	-0.30399927
114	0xbd538048	-0.05163601
115	0x3df3453b	0.11878439
116	0x3dbd2b60	0.09236789
117	0xbf8a0bce	-1.0784853
118	0xbeed04b5	-0.46292654
119	0xbf76d5eb	-0.9642016
120	0x3e4ce53f	0.20009325
121	0xbed652c0	-0.41860008
122	0x3d248688	0.04016736
123	0xbe40cfe9	-0.18829311
124	0xbeabeb61	-0.33578017
125	0xbf6c092d	-0.922015
126	0xbeb92994	-0.36164534
127	0xbe8306b6	-0.25591058
128	0x3ee6bd52	0.45066315
129	0xbd002597	-0.03128585
130	0x3e9e8dc8	0.30967546
131	0x3e86e836	0.26349038
132	0xbeb13d77	-0.34617206
133	0x3e9d4d9c	0.30723274
134	0xbdbef785	-0.09324554
135	0xbf8c2c6d	-1.0951058
136	0xbe13696f	-0.14395688
137	0xbebc8872	-0.3682285
138	0x3e249beb	0.16075103
139	0xbd338bc1	-0.04383445
140	0x3ef51313	0.47866115
141	0xbe771c9d	-0.24132009
142	0x3edcbdcd	0.43113557
143	0xbd89fb82	-0.067374244
144	0xbea4bff4	-0.321777
145	0x3df873a4	0.12131432
146	0x3e444155	0.19165547
147	0x3ee1e554	0.44120276
148	0x3eb8aaf9	0.36067942
149	0xbebbb0e5	-0.36658397
150	0x3dcccced	0.10000024
151	0xbde085f6	-0.10963051
152	0xbc96c9e0	-0.018406808
153	0xbf4eeabd	-0.8082693
154	0x3edd9375	0.43276563
155	0xbd75644e	-0.05991011
156	0x3e8ab61f	0.27092072
157	0x3e2f64e7	0.17128335
158	0x3e496c0a	0.1967012
159	0xbe30cfc4	-0.17266756
160	0x3eb989b3	0.3623787
161	0x3dd3cfba	0.10342355
162	0xbd8983ed	-0.06714616
163	0xbe9df82c	-0.30853403
164	0x3ec1fa0f	0.37886092
165	0xbd8c117c	-0.068392724
166	0xbe81ff1f	-0.25389954
167	0x3f09e348	0.5386243
168	0x3e66d666	0.22542724
169	0xbec4e072	-0.38452488
170	0xbeb60ea1	-0.35558036
171	0x3df52e20	0.11971688
172	0x3ef70249	0.4824393
173	0xbde10bfe	-0.109886155
174	0xbda8af16	-0.0823652
175	0x3d316c51	0.04331619
176	0xbe10927d	-0.14118381
177	0x3e2c6fc1	0.16839506
178	0x3ebb7cd2	0.36618668
179	0xbefc5057	-0.49280044
180	0x3e649f11	0.22326304
181	0x3e3328ae	0.17495987
182	0x3d444b38	0.047923297
183	0xbedd2eeb	-0.43199858
184	0x3e079775	0.1324137
185	0x3e36512f	0.17804407
186	0x3e2d59bf	0.16928767
187	0xbdd62761	-0.1045673
188	0xbe46a2d1	-0.19398047
189	0x3d7e64a5	0.0621077
190	0xbd40419d	-0.046937574
191	0xbde26959	-0.1105525
192	0x3e8d1138	0.275522
193	0x3ead1f68	0.33813024
194	0xbce16873	-0.027515626
195	0xbdb353b8	-0.087562025
196	0x3ccf07b2	0.025272224
197	0xbc1329fb	-0.008982177
198	0x3e6c5ef1	0.23083092
199	0x3e44aa2b	0.19205539
200	0xbe808bc3	-0.2510663
201	0xbe3f6f30	-0.18694758
202	0x3ec0326e	0.37538475
203	0x3e42c738	0.19021308
204	0xbda1c696	-0.078992054
205	0xbe30c640	-0.17263126
206	0xbe7801e9	-0.24219479
207	0xbefba5ee	-0.49150032
208	0x3c3740ae	0.011184854
209	0x3d2fe7ef	0.0429458
210	0x3ead1658	0.3380611
211	0x3e659b65	0.2242256
212	0xbeb5d2c8	-0.35512376
213	0xbdfd47ba	-0.123671964
214	0x3cca8872	0.024723265
215	0x3ed88148	0.42286134
216	0x3e831480	0.25601578
217	0x3c4ce71b	0.012506272
218	0x3ecd722a	0.40126163
219	0xbdd20475	-0.10254756
220	0xbe780a66	-0.24222717
221	0x3ebe4d1b	0.37168202
222	0xbc258f79	-0.010105007
223	0xbd48dffb	-0.04904173
224	0xbf0fdc18	-0.5619521
225	0x3f0877c6	0.5330776
226	0x3e806c46	0.25082606
227	0x3e16e251	0.1473477
228	0xbed20e78	-0.41026664
229	0xbecda90f	-0.40168044
230	0xbe9d14a1	-0.306798
231	0x3e506913	0.20352583
232	0x3dca4e6b	0.09878238
233	0x3eb8fc86	0.3613016
234	0x3f16d492	0.58918107
235	0x3e82b96d	0.25532094
236	0xbe393716	-0.1808742
237	0xbeb4c075	-0.35303083
238	0xbe6b4f19	-0.22979392
239	0xbf20a8b7	-0.6275744
240	0x3e50ac1b	0.20378153
241	0xbe8e71fe	-0.27821344
242	0xbdb7e032	-0.08978309
243	0xbeac0844	-0.33600056
244	0xbf497352	-0.7869159
245	0xbf89d79b	-1.0768923
246	0xbe47197f	-0.1944332
247	0x3ea1b4a9	0.31583145
248	0xbf2a2398	-0.6646056
249	0x3f2c6fea	0.6735827
250	0x3dfd9a1b	0.12382909
251	0xbe716bef	-0.2357633
252	0xbd75e1c1	-0.06002975
253	0xbe0156ca	-0.12630764
254	0xbc56506c	-0.0130806975
255	0xbee60f92	-0.44933754

conv_layers.0.bias f4 [64]
0	0xbd02686e	-0.031837873
1	0x3edd7f6d	0.4326128
2	0x3df7082d	0.12062106
3	0x3c969b7a	0.018384684
4	0x3ed5181b	0.41619954
5	0xbe70559f	-0.23470162
6	0x3cf9c6b6	0.03049026
7	0x3f53bae6	0.8270706
8	0x3e442eee	0.19158527
9	0x3eed2c5e	0.46322912
10	0xbe734526	-0.23756847
11	0x3f4d6ab7	0.8024096
12	0x3ebc3dce	0.36765903
13	0x3f27c8a9	0.6554056
14	0x3e8c7e7f	0.2744026
15	0x3f279cbe	0.65473545
16	0xbe0fe063	-0.1405044
17	0x3e657d2b	0.22411029
18	0xbd2b5176	-0.041825734
19	0xbdf2c68d	-0.11854277
20	0xbc918ae1	-0.017766418
21	0xbf14f615	-0.5818799
22	0x3f1ec221	0.6201497
23	0x3d2d03d4	0.04223998
24	0x3d350b13	0.044200014
25	0x3ea90582	0.33012015
26	0x3e51839e	0.20460364
27	0x3e2de8f9	0.16983403
28	0x3d1c663d	0.03818344
29	0x3a64aaaa	0.00087229407
30	0xbe9ebabf	-0.3100185
31	0x3e9623db	0.2932423
32	0x3ec18c9f	0.37802598
33	0x3f06824b	0.5254256
34	0x3ef0c661	0.4702635
35	0xbef99aec	-0.4875101
36	0x3e16757a	0.14693251
37	0x3f3ba97f	0.73305506
38	0x3eef7012	0.4676519
39	0xbd4deb91	-0.05027348
40	0x3f07d79a	0.53063357
41	0xbe9bed05	-0.3045427
42	0xbd7398cd	-0.059471894
43	0x3f4f3293	0.80936545
44	0xbaf35581	-0.0018564911
45	0xbd4471b2	-0.04795999
46	0xbe757704	-0.23971182
47	0xbd8d0fac	-0.06887755
48	0x3e376f4f	0.17913555
49	0xbebf6f42	-0.3738957
50	0xb9820b18	-0.00024803798
51	0x3ec45bd9	0.38351324
52	0xbf0f4403	-0.5596315
53	0x3f3ce06f	0.7377996
54	0xbeba6e69	-0.3641236
55	0xbe871056	-0.2637965
56	0x3e2654a2	0.16243222
57	0x3ed8add9	0.42320135
58	0xbddcbb82	-0.10777952
59	0x3d07c5b9	0.033147547
60	0xbefea664	-0.4973632
61	0xbeb7285e	-0.35772985
62	0x3dd916dd	0.10600064
63	0x3dd3d7d7	0.103439026

conv_layers.2.weight f4 [64, 64, 2, 2]
0	0x3d38b476	0.045093976
1	0xbd294103	-0.041321766
2	0x3daf785e	0.0856788
3	0x3de9ddf9	0.11419291
4	0xbd3ad031	-0.045608703
5	0xbb3877df	-0.002814762
6	0x3ca382af	0.019959776
7	0x3da794e0	0.081826925
8	0xbe17f415	-0.14839204
9	0x3dfe1932	0.124071494
10	0x3dc726d3	0.09724202
11	0xbe701f34	-0.23449403
12	0x3e286ae8	0.16447031
13	0x3b84d9d5	0.004054288
14	0x3c14a365	0.009072159
15	0x3dc7c4b7	0.09754317
16	0x3c67275e	0.014108507
17	0xbcaa587a	-0.020794142
18	0xbca37597	-0.019953532
19	0x3e37fe92	0.17968205
20	0xbdf2a64c	-0.11848125
21	0xbe69ce30	-0.2283256
22	0xbe1c6e48	-0.15276444
23	0x3e17691c	0.1478619
24	0xbce9eaee	-0.028554406
25	0xbded8776	-0.11598103
26	0x3d140b5c	0.036143646
27	0xbd01ca43	-0.031687032
28	0x3d516851	0.051124875
29	0xbe05da22	-0.13071492
30	0xb98a69a8	-0.0002640013
31	0x3e14268f	0.14467834
32	0x3d8f026e	0.06982885
33	0x3e2d17d4	0.16903621
34	0xbdd73d3f	-0.10509729
35	0xbe537e02	-0.20653537
36	0x3d8d4c60	0.06899333
37	0x3d71614f	0.05893069
38	0xbd435086	-0.047684215
39	0x3d94aa49	0.07259042
40	0x3dc771f8	0.09738535
41	0xbd8b996e	-0.06816374
42	0x3d64eca2	0.055889733
43	0xbdb80662	-0.089855924
44	0xbc9711d6	-0.018441122
45	0x3d2257d7	0.03963455
46	0xbde82934	-0.11335984
47	0xbe179e6b	-0.14806525
48	0xbea4fc2c	-0.32223642
49	0xbea55e39	-0.3229845
50	0xbd6f4043	-0.058410894
51	0x3e272bf0	0.16325355
52	0x3e5f9f1d	0.2183804
53	0x3cedc620	0.029025137
54	0xbd954adf	-0.07289671
55	0x3d912408	0.070869505
56	0x3d640ac9	0.055674348
57	0x3da9fff4	0.08300772
58	0x3c434019	0.011917138
59	0x3e349e03	0.17638402
60	0x3dd5539f	0.1041634
61	0xbdbf582c	-0.09342989
62	0xbe4fe5fa	-0.20302573
63	0xbe886ac0	-0.26643944
64	0xbd255b20	-0.040370107
65	0xbd6c8b51	-0.05775005
66	0x3b3e4bd1	0.002903689
67	0x3d1a2464	0.03763236
68	0xbd819bf7	-0.06328576
69	0x3da6a6f5	0.08137313
70	0xbd39e19a	-0.045381166
71	0x3de65c02	0.11248018
72	0x3e1a657a	0.15077773
73	0xbc768637	-0.015046648
74	0xbd260cf1	-0.040539686
75	0x3db89214	0.09012237
76	0xb9bc0b57	-0.00035866603
77	0x3c9b1f50	0.01893583
78	0xbe48ec1e	-0.19621322
79	0x3dc3597a	0.09538551
80	0xbd45c79a	-0.048286058
81	0x3e085302	0.13312915
82	0xbbf7339d	-0.0075439946
83	0xbcb2066c	-0.021731578
84	0xbd774aba	-0.060374
85	0xbc36068f	-0.011109962
86	0x3b2d66a4	0.0026458884
87	0xba7ed3fa	-0.0009720918
88	0xbe3a1cdc	-0.18175071
89	0x3da1115a	0.07864638
90	0xbb84c843	-0.0040521934
91	0xbe550b9b	-0.20805208
92	0xbd987c92	-0.07445635
93	0x3bfb8755	0.007676045
94	0x3e23df20	0.16003084
95	0x3e35cb4a	0.1775333
96	0xbd307e42	-0.04308916
97	0x3d97dcfe	0.07415198
98	0xbd4a995a	-0.049462654
99	0xbc4cf82c	-0.012510341
100	0x3dbe642b	0.09296449
101	0xbcc620c3	-0.024185544
102	0x3d959973	0.07304659
103	0x3e4b34e9	0.19844402
104	0x3e234993	0.15946035
105	0x3d681cbb	0.056668025
106	0x3d224a6c	0.039621755
107	0xbe94eb19	-0.29085615
108	0xbe7b6bee	-0.2455289
109	0x3e7ed91a	0.24887505
110	0xbc451cd2	-0.012030797
111	0x3d9abb1e	0.07555221
112	0xbd245bf2	-0.04012675
113	0x3d3028e7	0.043007758
114	0x3e2bd2f5	0.16779692
115	0x3e1c73bf	0.15278529
116	0x3d175103	0.036942493
117	0x3e0c6a5a	0.13712445
118	0xbdf62084	-0.120179206
119	0x3de29473	0.11063471
120	0xbd998fa9	-0.07498104
121	0xbdac510a	-0.084138945
122	0x3d95a96a	0.07307704
123	0x3d0ee672	0.03488774
124	0xbc8b390a	-0.016994972
125	0xbde185a1	-0.11011816
126	0x3c593dba	0.013259346
127	0x3cbd5276	0.02311061
128	0x3c4484a4	0.011994515
129	0x3df23929	0.11827309
130	0xbbceb2ea	-0.0063079493
131	0xbe0b99df	-0.13632916
132	0xbe4c873d	-0.19973464
133	0xbedb463e	-0.42827028
134	0x3d75be8e	0.05999618
135	0x3db958f8	0.090501726
136	0xbbec06b5	-0.007202948
137	0x3dadb064	0.084809095
138	0x3d78b4ea	0.060719408
139	0x3d2775c8	0.04088381
140	0x3c896fa7	0.016776873
141	0xbdc71d6c	-0.09722409
142	0x3de8ba89	0.11363704
143	0x3ddb40e0	0.10705733
144	0xbd148c42	-0.036266573
145	0xbdd880ca	-0.105714396
146	0xbcaefde7	-0.021361304
147	0x3e1fa3a8	0.15589774
148	0xbf0c5fc5	-0.5483363
149	0xbd3c7ecb	-0.046019357
150	0xbdcac324	-0.09900501
151	0xbe0460f2	-0.12927607
152	0xbce3871d	-0.027774388
153	0xbca82355	-0.02052466
154	0x3e87b9c0	0.26508904
155	0xbe9ae642	-0.30253798
156	0xbcc15b4c	-0.023603104
157	0x3d5ef43a	0.05443213
158	0x3c623171	0.013805733
159	0x3e015893	0.12631445
160	0xbe0518c2	-0.12997726
161	0x3c2e816d	0.010650975
162	0x3d377c5d	0.044796336
163	0xbd35a34c	-0.044345185
164	0xbdfc9f6e	-0.12335096
165	0xbe1f3cc6	-0.15550527
166	0xbb08cd8a	-0.0020874464
167	0x3da4bb7b	0.080435716
168	0x3d460c9c	0.04835187
169	0x3d1aba7f	0.037775513
170	0xbd5b8b03	-0.05359937
171	0xb898fe1d	-7.295257e-05
172	0x3d8c8307	0.06860929
173	0x3d16bb82	0.036799915
174	0xbb063967	-0.0020480992
175	0x3c650ddf	0.013980358
176	0x3e8bd44e	0.27310413
177	0x3dd1f864	0.10252455
178	0x3dcedff8	0.101013124
179	0x3e640d41	0.22270681
180	0x3dae34ce	0.085061654
181	0x3db9175e	0.0903766
182	0x3dcae5c9	0.09907109
183	0x3c16f187	0.009212858
184	0x3cc7ec0b	0.024404546
185	0xbc2b11b9	-0.010441237
186	0x3e17b23c	0.14814085
187	0xbe3e380c	-0.18576068
188	0x3de2ffbc	0.11083934
189	0xbde3af15	-0.111173786
190	0x3db42186	0.087954566
191	0xbd7e6135	-0.062104423
192	0x3c72f26e	0.014828308
193	0x3c07cd97	0.0082887625
194	0xbe4706e2	-0.1943622
195	0x3ca3a318	0.01997523
196	0x3c9b5bfc	0.01896476
197	0xbbfa5ddc	-0.0076405834
198	0x3d601549	0.0547078
199	0xbd72ea33	-0.05930538
200	0xbc839188	-0.016060606
201	0xbd91fca5	-0.07128266
202	0xbdad3401	-0.084571846
203	0xbdf4ecba	-0.119592145
204	0xbe8053c1	-0.250639
205	0xbdf8208c	-0.12115583
206	0xbe8b6730	-0.27227163
207	0xbe2aaf5e	-0.1666846
208	0x3c0fd6b3	0.008779216
209	0x3d0f9467	0.035053637
210	0x3d9280d4	0.07153478
211	0xbcb8763a	-0.022517312
212	0xbdcec056	-0.10095279
213	0xbecbf534	-0.39835513
214	0xbea2d455	-0.3180262
215	0x3e66fe74	0.22558004
216	0x3dc42960	0.09578204
217	0x3c31c00b	0.010849009
218	0x3ddbc7d3	0.10731473
219	0x3d97c484	0.07410529
220	0xbcb7eea0	-0.022452652
221	0xbcd79c80	-0.026319742
222	0x3e8db620	0.27678013
223	0x3dc2142c	0.09476504
224	0xbdb20cf1	-0.086938746
225	0x3d5a7772	0.05333657
226	0xbb14aee1	-0.0022687244
227	0xbcf939de	-0.030423101
228	0x3dac178b	0.08402928
229	0xbdb9b744	-0.09068158
230	0x3b6d20ba	0.0036182837
231	0x3d3cb9cb	0.046075623
232	0x3c5d34a5	0.013501321
233	0x3c84129d	0.016122157
234	0x3c210973	0.009828913
235	0x3da44199	0.08020324
236	0x3dabd36c	0.08389935
237	0xbe8450c4	-0.2584287
238	0x3da8e94e	0.08247624
239	0x3d934643	0.07191136
240	0x3d54b41f	0.05192959
241	0x3dce5e2b	0.10076555
242	0x3d35e4d1	0.04440767
243	0x3dd9b29a	0.10629769
244	0x3d48e96c	0.049050733
245	0x3de75538	0.11295551
246	0x3dfd2b80	0.123618126
247	0x3e0f85b6	0.1401585
248	0x3d8b2a50	0.0679518
249	0xbcf45701	-0.029826643
250	0xbb9d389e	-0.004798009
251	0xbde655ef	-0.11246859
252	0xbdef007c	-0.11670014
253	0x3e15f64c	0.14644736
254	0x3e166083	0.14685254
255	0x3e0bf52a	0.13667741

conv_layers.2.bias f4 [64]
0	0x3cce7371	0.025201531
1	0x3d3d3ed7	0.046202507
2	0xbb3e5b2a	-0.0029046037
3	0x3d8d9cde	0.06914686
4	0xbd550088	-0.05200246
5	0xbe6599d9	-0.2242197
6	0x3e30696a	0.17227712
7	0x3ec04c21	0.37558082
8	0xbe969c03	-0.29415902
9	0x3cbba464	0.022905536
10	0xbc023a2a	-0.007948438
11	0x3d3d29f8	0.046182603
12	0xbecb80b8	-0.39746642
13	0xbdfbb10f	-0.122896306
14	0x3cc14197	0.023590846
15	0x3e214980	0.15750694
16	0x3d3aa271	0.045565072
17	0xbda4cddd	-0.08047078
18	0x3e573835	0.21017535
19	0xbe1377db	-0.1440119
20	0x3d4f8280	0.050661564
21	0xbda9aba3	-0.0828469
22	0xbdc690c9	-0.09695584
23	0x3e87089d	0.2637376
24	0xbdc003ee	-0.093757495
25	0x3ccef25a	0.025262047
26	0xbec8dee2	-0.39232546
27	0x3db49bf6	0.0881881
28	0x3e262eda	0.1622881
29	0x3dc6127f	0.096714966
30	0xbdfc873f	-0.12330484
31	0xbd7996a3	-0.060934674
32	0xbe5ec1d9	-0.21753635
33	0x3d8b1c02	0.067924514
34	0x3e8c1fab	0.2736791
35	0x3e0a12ae	0.13483688
36	0xbdb19a16	-0.08671968
37	0xbd062586	-0.03275063
38	0x3dd11c55	0.10210482
39	0x3df20c5d	0.11818764
40	0xbdecd3db	-0.11563846
41	0xbd440f2d	-0.047866035
42	0x3dc6f2c0	0.0971427
43	0x3d573f65	0.052550692
44	0x3d57f3ec	0.052722856
45	0x3e2c5ef3	0.16833095
46	0xbd4087cf	-0.047004517
47	0x3d22890e	0.039681487
48	0xbc0ca880	-0.008585095
49	0xbd892d04	-0.06698039
50	0xbd4edef0	-0.05050558
51	0x3db07729	0.08616478
52	0xbea29e4b	-0.31761393
53	0x3e525fe9	0.205444
54	0x3e84ee16	0.25962895
55	0x3d16d431	0.036823455
56	0x3c346aa9	0.011011758
57	0x3d4e6aaf	0.05039471
58	0x3e1f18f4	0.15536863
59	0x3c0f7768	0.008756496
60	0x3e5c2705	0.2149926
61	0x3df7938e	0.12088691
62	0x3e20812f	0.1567428
63	0xbca817cf	-0.020519165

conv_layers.4.weight f4 [32, 64, 2, 2]
0	0x3e02491d	0.12723203
1	0x3e183fcd	0.14868088
2	0x3b1ec8a9	0.002422849
3	0x3e08c8e5	0.13357885
4	0x3e159760	0.14608526
5	0x3e0f98ac	0.14023083
6	0x3dfa50df	0.12222456
7	0x3c66bbe6	0.014082884
8	0x3e1bbb5b	0.15208189
9	0x3cd52f11	0.02602342
10	0x3c6e7bb2	0.014555858
11	0xbd8ab595	-0.06772915
12	0xbdd53cb5	-0.104119696
13	0xbd974536	-0.07386248
14	0xbe586514	-0.21132308
15	0xbb68f087	-0.0035543756
16	0x3e434952	0.19070938
17	0x3e181810	0.14852929
18	0x3dd3ea84	0.10347465
19	0x3e15518c	0.14581889
20	0x3db7042e	0.08936344
21	0xb9f85f9a	-0.00047373475
22	0x3e4b0926	0.19827709
23	0x3d205efc	0.039153084
24	0x3e9c5589	0.30534008
25	0xbdac653e	-0.08417748
26	0x3eb390cd	0.35071412
27	0x3e878003	0.26464853
28	0xbe6ac5d4	-0.22927028
29	0xbd523550	-0.051320374
30	0xbe8edb29	-0.2790158
31	0xbe8240da	-0.25440103
32	0x3df9b3b7	0.12192481
33	0x3e40d17f	0.18829916
34	0x3db4701b	0.08810445
35	0xbd1d7b0f	-0.038447436
36	0x3ddd7158	0.10812634
37	0x3d718040	0.0589602
38	0x3d861c52	0.065483704
39	0x3dc96c80	0.09835148
40	0x3d7f520e	0.062334113
41	0x3e297a21	0.16550495
42	0x3dae0bac	0.0849832
43	0x3d7c1564	0.061543837
44	0x3d106643	0.035253774
45	0xbc331439	-0.010930114
46	0xbc85b7b0	-0.01632294
47	0x3d92557a	0.071452096
48	0x3e6ae68f	0.22939514
49	0x3e4aec4f	0.19816707
50	0x3e1a60cf	0.15075992
51	0x3e804764	0.25054467
52	0xbd12418b	-0.035707038
53	0xb8991fb4	-7.301514e-05
54	0xbdb130ed	-0.0865191
55	0xbd35c146	-0.044373773
56	0x3ba8fa9d	0.0051568286
57	0x3e0567d5	0.1302789
58	0x3d58c005	0.0529175
59	0x3e095d2c	0.13414448
60	0xbca26926	-0.01982553
61	0x3cd7473e	0.026279088
62	0xbcae77ab	-0.021297297
63	0x3c0dbc44	0.008650843
64	0xbc1d2804	-0.00959206
65	0xbd0cb7f2	-0.03435511
66	0x3c2682f6	0.010163059
67	0x3c9a04e3	0.018801158
68	0xbe278820	-0.16360521
69	0xbd623b59	-0.05523238
70	0x3ddd01f3	0.107913874
71	0xbd2752b5	-0.04085036
72	0xbd50053a	-0.050786234
73	0xbdd2208c	-0.10260114
74	0xbd6d821d	-0.057985414
75	0xbe46448a	-0.19362083
76	0x3d6f35b4	0.058400825
77	0xbd5ea7d3	-0.05435927
78	0x3e2d4018	0.16918981
79	0x3d888adb	0.066671096
80	0xbd98eba4	-0.0746682
81	0x398916d0	0.00026147673
82	0x3d84ea12	0.06489958
83	0xbe234f7f	-0.15948294
84	0x3e2334ae	0.15938064
85	0xbc37fe38	-0.011230044
86	0x3c91a75d	0.01778
87	0xbceecc46	-0.02915014
88	0x3e09a467	0.13441621
89	0x3d599deb	0.053129118
90	0x3dc8f994	0.09813228
91	0x3bc09ffd	0.005878447
92	0xbd9940a9	-0.07483036
93	0xbe06e6dd	-0.13174005
94	0xbd99d587	-0.0751143
95	0x3ceaa896	0.028644841
96	0xbd074885	-0.033028144
97	0x3daf9ba1	0.08574606
98	0xbd7ca025	-0.061676163
99	0x3d114897	0.035469618
100	0x3c30ff67	0.01080308
101	0xbd1bfe25	-0.038084168
102	0x3e24306b	0.16034095
103	0xbcfaea3e	-0.030629274
104	0x3e389e8b	0.1802923
105	0x3e18c8bc	0.14920324
106	0x3deb8d41	0.115015514
107	0x3e8e9b59	0.27852896
108	0xbe2f0e62	-0.1709533
109	0xbe484c30	-0.19560313
110	0x3d394fe1	0.045242194
111	0x3d295949	0.041344915
112	0xbdcef12d	-0.101045944
113	0xbe2419d7	-0.16025482
114	0xbc1b18f9	-0.009466403
115	0xbaee3b98	-0.0018175719
116	0xbdcc4eea	-0.09975989
117	0xbe135ec5	-0.1439162
118	0xbd6cdf7a	-0.05783031
119	0xbdaa45b1	-0.08314074
120	0x3dd336ff	0.10313224
121	0x3df45a45	0.1193128
122	0x3dbad44f	0.09122526
123	0xbc642bde	-0.013926474
124	0x3e877873	0.26459083
125	0x3dcee80e	0.10102855
126	0x3dffff7c	0.12499902
127	0x3dd19157	0.102327995
128	0x3e26ccd5	0.16289075
129	0x3dd26406	0.10272984
130	0x3e653531	0.22383572
131	0x3d4c10ba	0.04982064
132	0xbdb98f31	-0.09060515
133	0xbc91df03	-0.017806536
134	0xbd9e998f	-0.07744133
135	0xbda8a7a5	-0.08235101
136	0xbc08d7c3	-0.008352223
137	0xbd99292c	-0.07478556
138	0xbdbbcde2	-0.091701284
139	0xbdda3795	-0.10655133
140	0x3d627959	0.055291507
141	0x3dcceada	0.10005732
142	0xbd619109	-0.055069957
143	0x3cdcf6c5	0.026973138
144	0xbc847227	-0.016167713
145	0xbca27493	-0.019830978
146	0xbd40214c	-0.046906754
147	0x3da0e700	0.0785656
148	0x3e2e04cf	0.16994022
149	0x3e6ed7d1	0.23324515
150	0xbd5ae953	-0.05344517
151	0x3cf8c36b	0.03036662
152	0xbd6d83d9	-0.057987068
153	0xbda6ee9a	-0.081509784
154	0xbe59b684	-0.2126103
155	0xbe352065	-0.17688139
156	0xbd124910	-0.03571421
157	0x3e1a9171	0.15094544
158	0xbd606619	-0.054784868
159	0x3cdd07ab	0.026981195
160	0xbc0bf4e6	-0.008542275
161	0x3d4c6e46	0.049909852
162	0x3de72da8	0.11288005
163	0x3dd5d22b	0.10440477
164	0x3c93b55d	0.018030817
165	0x3cd5e6a2	0.02611095
166	0xbcbbc260	-0.022919834
167	0x3d08f915	0.033440668
168	0xbcc0ff28	-0.023559168
169	0xbe203d7d	-0.15648456
170	0x3dbab61a	0.09116764
171	0xbdf370e4	-0.118867666
172	0xbcb34f79	-0.021888481
173	0xbe35b5cb	-0.1774513
174	0x3e56a344	0.20960718
175	0xbda89cd6	-0.08233039
176	0x3dedd2e6	0.11612491
177	0xbd2c0e01	-0.042005543
178	0x3da08cbb	0.07839342
179	0x3bc1e718	0.005917441
180	0xbe33b829	-0.1755072
181	0xbdb8caef	-0.090230815
182	0xbe22776a	-0.15865865
183	0xbe155b63	-0.14585643
184	0x3e229482	0.15876964
185	0x3dcdf73f	0.10056924
186	0x3ea7d48f	0.32779357
187	0xbe0d4ba9	-0.13798393
188	0xbd1bdea4	-0.038054124
189	0x3d69cb00	0.05707836
190	0xbd6c29cd	-0.05765705
191	0xbdbc52a6	-0.091954514
192	0x3d157276	0.03648611
193	0x3c3c79b2	0.011503624
194	0xbacbcbc6	-0.00155484
195	0xbddcf1e5	-0.10788325
196	0xbd570f7c	-0.052505
197	0x3db85b6b	0.090018116
198	0x3d342a42	0.043985613
199	0x3da0f130	0.07858503
200	0xbe2dd2e5	-0.16974981
201	0xbe1b31e3	-0.15155749
202	0x3e359a4c	0.17734641
203	0xbd3016c4	-0.04299046
204	0xbbe40e19	-0.0069596884
205	0xbda0ad10	-0.07845509
206	0x3c1d5d65	0.0096047865
207	0x3d0a3ac2	0.033747442
208	0x3e72c358	0.2370733
209	0x3d1e2b30	0.038615406
210	0x3e451879	0.19247617
211	0x3df08380	0.11743832
212	0xbc56422d	-0.013077301
213	0xbd18c93e	-0.037301295
214	0x3e2e3953	0.17014055
215	0x3c3a22f4	0.011360873
216	0xbe1081d2	-0.14112023
217	0x3c95ba71	0.018277379
218	0xbe29c491	-0.1657889
219	0xbca23fba	-0.019805778
220	0xbdb50746	-0.08839278
221	0x3e55772d	0.20846243
222	0xbce70e59	-0.028205084
223	0xbda1929c	-0.07889292
224	0xbd74b9e2	-0.059747584
225	0x3d9db7a4	0.07701042
226	0xbdf07e9d	-0.117428996
227	0xbd4ee92d	-0.050515343
228	0x3cc6ed28	0.024283007
229	0xbd44c643	-0.04804064
230	0x3ccc8359	0.024964975
231	0xbdaca4e9	-0.084298916
232	0x3d889e6b	0.06670841
233	0xbdefccfd	-0.1170902
234	0xbcf89422	-0.030344073
235	0xbe35342a	-0.1769568
236	0xbd847aff	-0.06468772
237	0xbd9ca824	-0.07649258
238	0x3d4a47ff	0.049385067
239	0x3cb76b1f	0.022389947
240	0x3cebaa7d	0.028767819
241	0xbe1ce580	-0.15321922
242	0xbda55c0e	-0.08074199
243	0x3c6fb429	0.014630356
244	0x3e98cb3a	0.2984255
245	0x3e2d5e5e	0.1693053
246	0x3d727748	0.059195787
247	0x3d85a943	0.06526425
248	0xbc98fb99	-0.018674659
249	0xbd3f362b	-0.046682518
250	0xbde13378	-0.10996145
251	0xbdbad85f	-0.09123301
252	0x3e106904	0.1410256
253	0x3d68e2b8	0.05685684
254	0x3dd5dd7e	0.10442637
255	0xbd97da66	-0.07414703

conv_layers.4.bias f4 [32]
0	0xbea4414e	-0.32081074
1	0x3e232f26	0.15935954
2	0x3df9192d	0.12163005
3	0x3e71f43b	0.23628323
4	0xbdf0af6f	-0.11752211
5	0x3e05ffed	0.13085909
6	0x3dee2d79	0.11629767
7	0xbcd1e213	-0.025620496
8	0x3d703307	0.058642413
9	0x3da5c154	0.08093515
10	0x3d6b268a	0.0574098
11	0xbe67a43b	-0.22621243
12	0xbe2fc860	-0.17166281
13	0x3d0e1825	0.034690995
14	0xbc4dcf6d	-0.012561661
15	0x3cba2d72	0.022726748
16	0x3d0c8a83	0.034311783
17	0x3c58c004	0.013229374
18	0x3db77e1a	0.08959599
19	0xbd9d3eb0	-0.07677972
20	0xbe0193b2	-0.12653998
21	0x3de839da	0.11339159
22	0xbc468333	-0.012116241
23	0xbdc2900c	-0.09500131
24	0x3db00cd5	0.085961975
25	0x3db27094	0.08712879
26	0x3de4b082	0.11166479
27	0x3d31dcf3	0.043423604
28	0x3d8d0558	0.06885785
29	0x3e8d8ffb	0.2764891
30	0xbe27e90d	-0.16397496
31	0xbd93600a	-0.07196052

fc_state.0.weight f4 [256, 128]
0	0x3d0e122c	0.0346853
1	0x3d1e0d60	0.038586974
2	0xbd6479e2	-0.0557803
3	0xbcb7dc50	-0.02244392
4	0xbc262b57	-0.010142169
5	0x3d4f1550	0.050557435
6	0x3dcd9ee5	0.10040072
7	0x3d8de42f	0.06928288
8	0x3d02da36	0.031946383
9	0xbd6c8ae9	-0.057749663
10	0xbb6fb801	-0.003657818
11	0x3d1486d2	0.036261387
12	0xbd94c256	-0.07263629
13	0x3e4c5c8e	0.19957182
14	0x3cbb1e7f	0.02284169
15	0xbdc07052	-0.093964234
16	0xbda65008	-0.081207335
17	0x3db40809	0.08790595
18	0x3e0302a7	0.1279398
19	0xbe0a0820	-0.13479662
20	0x3e1b0a7a	0.15140715
21	0x3db53a01	0.08848954
22	0xbd613e42	-0.054991014
23	0x3dabcbb6	0.08388464
24	0xbb64e859	-0.003492853
25	0xbd573de9	-0.052549277
26	0x3c387e0b	0.01126052
27	0x3bbb7520	0.0057207495
28	0xbe06b1cf	-0.13153766
29	0x3d335486	0.04378178
30	0x3c97dad0	0.018536955
31	0x3d1d42a2	0.038393624
32	0xbe0b6279	-0.13611783
33	0xbdf90453	-0.12159028
34	0xbdcd4470	-0.10022819
35	0xbd4c2de7	-0.049848463
36	0xbbe06279	-0.0068476764
37	0x3c95ac7a	0.01827072
38	0xbc75d51f	-0.015004425
39	0x3bfa2a3c	0.0076344293
40	0xbe498952	-0.1968129
41	0xbe60e54f	-0.21962474
42	0xbe583b94	-0.21116477
43	0xbdc2a084	-0.09503272
44	0x3dce5b70	0.10076034
45	0x3dbc74fb	0.09202
46	0x3dbac6e6	0.09119968
47	0xbd8226b2	-0.06355037
48	0xbdbb7026	-0.0915225
49	0xbd0692b9	-0.03285477
50	0xbdc0b8be	-0.09410237
51	0x3d8254e6	0.06363849
52	0x3d242d5b	0.040082317
53	0xbccd5744	-0.025066026
54	0x3d0249e7	0.03180876
55	0xbc458b16	-0.012057086
56	0xbd4f0950	-0.05054599
57	0xbe2c3163	-0.16815715
58	0x3dfe78aa	0.124253586
59	0xbe59d25c	-0.21271652
60	0xbbd758b6	-0.0065718545
61	0xbe0a3ff4	-0.13500959
62	0xbc695936	-0.014242461
63	0xbd8b7d9f	-0.0681107
64	0x3dd0138f	0.101599805
65	0x3df3005d	0.11865304
66	0x3ca254ed	0.019815886
67	0xbd32724e	-0.04356604
68	0x3def26f5	0.11677352
69	0x3b58bbdd	0.003307096
70	0x3dd73641	0.10508395
71	0x3ded950c	0.11600694
72	0x3debc9a6	0.11513071
73	0x3d64fcef	0.05590528
74	0xbd2d3d39	-0.042294715
75	0xbc1c6f54	-0.009548027
76	0x3dfc0c54	0.12307039
77	0xbdc4c80d	-0.09608469
78	0xbd3f230f	-0.046664294
79	0x3c5ac973	0.013353693
80	0xbc755fee	-0.014976485
81	0x3cfcb96a	0.030850131
82	0xbc7b4dce	-0.015338374
83	0x3da3b3ee	0.07993303
84	0x3dc78a35	0.09743158
85	0x3db8932c	0.09012446
86	0xbc9acaeb	-0.018895587
87	0x3ddd3b88	0.1080237
88	0xbdb6d3b8	-0.08927101
89	0x3d6cf21e	0.05784809
90	0xbe16cbc8	-0.14726174
91	0xbdb0f68a	-0.086407736
92	0xbe124f8e	-0.1428816
93	0xbc150e92	-0.009097712
94	0xbcd70c7b	-0.026251068
95	0x3db99b7d	0.0906286
96	0x3dd516ab	0.10404714
97	0x3dc42caf	0.09578835
98	0x3c695f91	0.014243976
99	0x3d6e772f	0.05821913
100	0xbd174865	-0.036934275
101	0x3cf3f8b4	0.029781677
102	0x3c30184a	0.010747978
103	0x3d5b60f0	0.053559244
104	0x3e661f85	0.22472961
105	0xbe1023ce	-0.14076158
106	0x3c7362ce	0.0148551
107	0xbd09becb	-0.03362922
108	0x3e23625a	0.15955487
109	0xbe383774	-0.17989904
110	0x3dc47579	0.09592719
111	0x3dd2d397	0.10294264
112	0xbceae02d	-0.028671348
113	0x3d1b6b14	0.037943915
114	0x3e0957fc	0.1341247
115	0x3d864312	0.065557614
116	0xbdd65933	-0.10466232
117	0x3cc1b811	0.02364734
118	0x3dbafb83	0.09130003
119	0x3c315c8c	0.010825288
120	0xbd012b2a	-0.031535305
121	0x3d5c02ed	0.053713728
122	0x3dbd11bf	0.092319004
123	0xbdc2363e	-0.09483002
124	0xbdf5b9db	-0.1199834
125	0xbd88de70	-0.066830516
126	0x3d023a3c	0.031793818
127	0xbcb7fbdb	-0.022458961
128	0xbdaee80f	-0.085403554
129	0x3d8acdc4	0.06777528
130	0xbd36fbc4	-0.044673696
131	0xbdddadca	-0.10824163
132	0x3c721864	0.014776323
133	0x3d7b58f2	0.06136412
134	0xbde74766	-0.11292915
135	0xbde6908e	-0.1125804
136	0xbe492d01	-0.19646074
137	0x3e878a13	0.2647253
138	0xbed5db1c	-0.4176873
139	0xbd4de551	-0.05026752
140	0xbb66f4a4	-0.0035241032
141	0x3e39d71c	0.18148464
142	0xbe3d3948	-0.18478882
143	0xbd511674	-0.051046804
144	0x3cee6d30	0.029104799
145	0x3e0b95eb	0.13631408
146	0xbbe8abf2	-0.0071005756
147	0x3d0837d7	0.033256378
148	0x3d8e1cc3	0.069390796
149	0x3d80e1f5	0.06293098
150	0x3e6a9719	0.22909202
151	0xbda526e9	-0.08064062
152	0xbdaabb0c	-0.083364576
153	0x3e073684	0.1320439
154	0x3bfd5b54	0.0077318344
155	0xbdcd0f28	-0.100126565
156	0xbdd2c9c6	-0.102923915
157	0xbe6cc200	-0.2312088
158	0x3cb8193d	0.022472972
159	0x3c5bd632	0.013417767
160	0xbd7e371b	-0.06206427
161	0xbda96a21	-0.082721956
162	0xbdc45831	-0.09587134
163	0xbe06ab62	-0.13151315
164	0xbe4ba180	-0.19885826
165	0xbea49313	-0.3214346
166	0xbd87ee44	-0.066372424
167	0x3e9e75d6	0.30949277
168	0x3cb70852	0.022342835
169	0xbcec6429	-0.028856354
170	0xbd832c91	-0.06404985
171	0xbd8247e7	-0.063613705
172	0x3bffd9f0	0.0078079626
173	0xbdfa464a	-0.12220438
174	0x3ca095a5	0.019602606
175	0x3e4e31a4	0.20136124
176	0xbe1e37f3	-0.1545103
177	0xbda42249	-0.08014352
178	0xbd346d79	-0.044049714
179	0xbdbeeabf	-0.09322118
180	0x3db90a77	0.09035199
181	0x3e4cbf64	0.19994885
182	0xbe058552	-0.13039139
183	0xbe96c1aa	-0.2944463
184	0x3de9f7bd	0.114242055
185	0x3cc78206	0.024353992
186	0xbc1ede06	-0.009696489
187	0xbe0b4807	-0.13601695
188	0xbdb0a39f	-0.08624958
189	0xbe37a2eb	-0.17933242
190	0xbe854612	-0.26030022
191	0xbe79b429	-0.24385132
192	0xbd080f0a	-0.033217467
193	0x3d28fa5f	0.041254397
194	0x3cf39896	0.029735845
195	0xbdea666b	-0.11445316
196	0xbb34e03b	-0.0027599472
197	0x3e054e12	0.13018063
198	0xbdac4d26	-0.084131524
199	0x3e3d6141	0.1849413
200	0xbd3e861d	-0.04651462
201	0x3dfdeba7	0.12398463
202	0xbc2ae59c	-0.01043072
203	0x3e832d45	0.25620475
204	0x3dd03458	0.10166234
205	0xbcf7cc3e	-0.030248757
206	0xbdb92d7f	-0.09041881
207	0xbc8413e7	-0.016122771
208	0x3d9e02a3	0.07715347
209	0x3c57b7b4	0.013166357
210	0x3d3a70db	0.045517784
211	0xbe077a73	-0.13230304
212	0x3de8e2fa	0.11371417
213	0x3e195fbc	0.14977926
214	0xbe4162d5	-0.18885358
215	0x3e3eada9	0.18620934
216	0x3c614722	0.01374987
217	0x3ca01051	0.01953903
218	0xbdc7b46b	-0.09751209
219	0xbc16a01c	-0.0091934465
220	0xbdd73afa	-0.10509296
221	0xbe764ad7	-0.24051987
222	0xbe0b781b	-0.13620035
223	0x3e01200c	0.12609881
224	0x3e1ec0f9	0.155033
225	0x3dbc0769	0.09181101
226	0x38686c86	5.541418e-05
227	0x3e2b6e82	0.16741374
228	0x3d1a0071	0.037598077
229	0xbd511885	-0.051048774
230	0x3d8fc233	0.070194624
231	0x3d8d1342	0.06888439
232	0x3db5d572	0.08878602
233	0xbdb59219	-0.088657565
234	0xbc9960c8	-0.018722907
235	0x3d90000b	0.07031258
236	0x3db5283f	0.08845567
237	0xbd1a9ad8	-0.037745327
238	0xbdcfb70e	-0.10142337
239	0x3b04aa54	0.0020243125
240	0xbd926fb8	-0.07150215
241	0x3dd4a6c1	0.10383368
242	0x3b5a3aab	0.003329913
243	0x3d0d7ecb	0.034544747
244	0xbdbd29a4	-0.09236458
245	0xbc284712	-0.010270851
246	0xbe1006a8	-0.14065039
247	0x3c7f2916	0.0155737605
248	0xbd86ae52	-0.06576218
249	0x3d9e6a81	0.07735158
250	0xbd9bab0f	-0.07600986
251	0xbda11383	-0.0786505
252	0xbdaf82e4	-0.08569887
253	0xbe11bf4a	-0.14233127
254	0xbe295c9b	-0.16539232
255	0xbc2130ff	-0.009838342

fc_state.0.bias f4 [256]
0	0x3dc1916d	0.09451566
1	0x3dbea802	0.09309389
2	0xbdb44072	-0.088013545
3	0x3db604a6	0.08887605
4	0x3b1c142b	0.0023815732
5	0x3d0b13e5	0.03395452
6	0xbdf1dc91	-0.11809648
7	0x3d899e73	0.06719675
8	0x3de3deda	0.1112649
9	0x3d44097a	0.0478606
10	0x3e0c3f87	0.13696109
11	0x3e053800	0.13009644
12	0x3d87604d	0.06610165
13	0x3c63a5e5	0.013894533
14	0x3d84bdaf	0.06481492
15	0xbdb300b7	-0.08740371
16	0x3d101775	0.03517862
17	0x3db3244e	0.08747159
18	0x3c5b64a3	0.013390693
19	0xbb403fce	-0.0029334906
20	0xbdf47655	-0.119366325
21	0xbd6b23e3	-0.05740727
22	0xbe47b485	-0.19502456
23	0xbbe6f8b4	-0.0070486907
24	0x3e1e242d	0.15443487
25	0x3dcbeceb	0.09957298
26	0xbe0d29b3	-0.13785438
27	0xbe41f0f0	-0.18939567
28	0xbd3f8764	-0.046759978
29	0xbd896400	-0.067085266
30	0x3e17b0ae	0.14813492
31	0x3d8c32c3	0.068456195
32	0xbd2f9b2a	-0.042872585
33	0x3e0d88ba	0.13821688
34	0x3dc5c4f6	0.09656708
35	0xbda004d9	-0.078134246
36	0x3d9c4c61	0.076317556
37	0x3d878990	0.06618035
38	0xbcbaef71	-0.022819253
39	0xbd6d6088	-0.057953387
40	0xbaa63095	-0.0012679273
41	0x3e3c097e	0.18362996
42	0x3d92310b	0.071382605
43	0x3d439445	0.047748823
44	0xbda4ba9a	-0.08043404
45	0x3d58b9fb	0.05291174
46	0x3c7698d6	0.015051087
47	0xbe22454e	-0.1584675
48	0xbc81c635	-0.015841583
49	0x3d892e15	0.066982426
50	0x3e20d6fd	0.15707012
51	0x3d83bac4	0.06432107
52	0x3db4641e	0.08808158
53	0x3c1e68f8	0.009668581
54	0x3e4c180a	0.19931045
55	0x3db9edbb	0.090785466
56	0xbdf5c68e	-0.12000762
57	0xbb517d79	-0.0031965657
58	0x3d90137b	0.070349656
59	0xbe206b4e	-0.15665933
60	0x3d63aa17	0.055582132
61	0x3e1e1851	0.15438963
62	0xbe29d02f	-0.16583322
63	0xbdd5a5ee	-0.10432039
64	0x3c4bed97	0.012446783
65	0xbd84d8cf	-0.064866655
66	0x3d9260d6	0.07147376
67	0xbe1652bd	-0.1468
68	0xbdd911ff	-0.105991356
69	0xbe23a845	-0.15982158
70	0xbdaa8aef	-0.08327281
71	0x3d725d44	0.059170976
72	0xbdad7c67	-0.084709935
73	0xbd31c14b	-0.04339723
74	0x3e1fbfd2	0.15600517
75	0xbd83a1ad	-0.064273216
76	0x3daa6534	0.08320084
77	0xbde1f13f	-0.11032342
78	0xbd8cedbf	-0.06881284
79	0xbd83f40a	-0.06443031
80	0xbd1fa946	-0.03897979
81	0xbcc8fb74	-0.024533965
82	0x3e823ca9	0.25436905
83	0x3e170f76	0.14751992
84	0x3e382914	0.1798442
85	0x3d141073	0.0361485
86	0x3d788bc1	0.060680155
87	0xbdb88ae4	-0.09010866
88	0xbdae5f41	-0.08514262
89	0xbda60365	-0.08106116
90	0xbd20cdeb	-0.03925888
91	0x3e0d3d1a	0.1379284
92	0xbe0260d7	-0.12732254
93	0x3e1782b6	0.14795956
94	0xbd313c6f	-0.043270525
95	0x3d15dfef	0.036590513
96	0xbd8b812b	-0.06811746
97	0xbdf8d370	-0.121497035
98	0x3d26eb4a	0.040751733
99	0xbe437db1	-0.19090916
100	0x3d9934a5	0.07480744
101	0xbd19e5ce	-0.037572674
102	0xbe27066f	-0.16311048
103	0xbcad64f1	-0.021166297
104	0x3c971a24	0.018445082
105	0x3d829500	0.06376076
106	0x3d478a27	0.048715737
107	0x3d9f807e	0.0778818
108	0xbe0cf0f9	-0.13763799
109	0x3d683420	0.056690335
110	0xbd0dd5de	-0.034627788
111	0x3d842777	0.0645284
112	0xbdc9a1ab	-0.09845289
113	0xbe3f9acf	-0.18711399
114	0xbb7b3a48	-0.00383343
115	0xbc7a59bf	-0.015280186
116	0x3dd38d76	0.10329716
117	0x3ce3bcb4	0.027799942
118	0x3d049656	0.032369934
119	0x3828510e	4.012981e-05
120	0xbe3b466e	-0.18288586
121	0x3e0f4bda	0.13993779
122	0xbd1f5204	-0.038896576
123	0x3d84ecb7	0.06490462
124	0xbc378d9f	-0.011203199
125	0x3cddf06c	0.027092181
126	0x3db4b834	0.088241965
127	0x3cdb27f0	0.026752442
128	0x3e00eb88	0.12589848
129	0x3d048362	0.03235186
130	0x3d438e8a	0.047743358
131	0x3d884f0b	0.06655701
132	0xbdeac0c8	-0.11462551
133	0x3d63147e	0.055439465
134	0xbda6bf50	-0.08141959
135	0x3d93863e	0.07203339
136	0x3d832e66	0.06405334
137	0xbe55c023	-0.20874076
138	0x3d97e06d	0.07415853
139	0x3e337550	0.1752522
140	0xbd8991cc	-0.06717262
141	0x3e275cb6	0.1634396
142	0xbd0da05f	-0.03457677
143	0x3d810a26	0.06300764
144	0xbd453e0c	-0.048154876
145	0x3da34659	0.07972402
146	0x3e681450	0.22663999
147	0x3e1d0015	0.15332063
148	0xbe4bef05	-0.19915397
149	0x3dd8df53	0.10589471
150	0xbcfd362b	-0.030909618
151	0x3d53663e	0.051611178
152	0xbe3b4ab1	-0.18290211
153	0xbe0d6023	-0.13806204
154	0xbda6fe40	-0.08153963
155	0x3db7b2a6	0.08969621
156	0x3de8da86	0.11369805
157	0xbcca4d9b	-0.024695208
158	0x3d0d582c	0.034507915
159	0xbc73f4aa	-0.014889875
160	0xbcda3aa3	-0.026639288
161	0xbe76aad3	-0.24088602
162	0xbded620a	-0.11590965
163	0x3e1072e4	0.14106327
164	0x3dcbf698	0.099591434
165	0xbdb06bd5	-0.08614317
166	0x3d1f6d8b	0.038922828
167	0xbd2fbc59	-0.04290423
168	0x3e274f0d	0.16338749
169	0x3c94f52c	0.018183313
170	0x3cd95fbd	0.02653491
171	0xbe0328d8	-0.1280855
172	0xbd515c5c	-0.05111347
173	0xbda0b46f	-0.07846915
174	0xba9a4f97	-0.0011772987
175	0x3e16105e	0.14654681
176	0x3ca7db69	0.020490365
177	0xbcbd4158	-0.023102447
178	0x3de6af3a	0.112638906
179	0x3de14407	0.10999303
180	0x3d806770	0.06269729
181	0x3e3de210	0.18543267
182	0xbd3ce6f6	-0.0461187
183	0x3dae8a25	0.08522443
184	0xbdfd3f60	-0.123656034
185	0x3e0ba101	0.13635637
186	0xbe32f0d2	-0.17474678
187	0xbd551e54	-0.052030876
188	0xbba8b956	-0.005149047
189	0x3e1f088e	0.15530607
190	0xbc6a3b0c	-0.014296304
191	0x3dd600df	0.10449385
192	0x3d9bd048	0.07608086
193	0xbd88562f	-0.06657063
194	0xbc6da0d4	-0.014503676
195	0x3e3252ae	0.17414352
196	0xbda05ecf	-0.07830583
197	0xbce8a301	-0.028398039
198	0x3ceb6785	0.028735885
199	0xbe1eebc1	-0.1551962
200	0x3e2202c5	0.15821369
201	0xbcc4cb5b	-0.024022749
202	0xbd8f6361	-0.07001377
203	0xbc9f83b4	-0.01947198
204	0x3de0aa04	0.10969928
205	0xbc3ac370	-0.011399135
206	0xbd9a731c	-0.075414866
207	0xbc01bb3c	-0.007918175
208	0x3c75dea2	0.015006693
209	0x3e0b3bed	0.13597079
210	0xbac2426c	-0.0014820821
211	0x3d668755	0.056281406
212	0xbd70d140	-0.058793306
213	0x3d78c0aa	0.060730614
214	0x3b5e2d18	0.003390139
215	0x3e557d56	0.20848593
216	0xbd04ac28	-0.032390743
217	0xbba25583	-0.0049540414
218	0x3d9999a4	0.07500008
219	0xbde63e53	-0.11242356
220	0x3d05d5ca	0.03267459
221	0xbd57f318	-0.052722067
222	0x3d130eb3	0.03590269
223	0x3c362e1d	0.011119393
224	0xbdc5911c	-0.09646818
225	0x3c7ed36c	0.015553337
226	0x3cf6e35a	0.030137707
227	0x3ced789d	0.028988177
228	0x3e1fcf8b	0.15606515
229	0xbdd58607	-0.10425954
230	0xbd9c281b	-0.07624837
231	0xbbd82a7d	-0.006596862
232	0xbd7e0540	-0.062016726
233	0xbe6e553a	-0.23274699
234	0x3e2a28a7	0.1661707
235	0x3da4ea96	0.08052556
236	0xbd939d14	-0.07207695
237	0x3e03cd04	0.12871176
238	0xbbed2419	-0.007236969
239	0xbd9af1ea	-0.07565673
240	0xbd93e16e	-0.07220732
241	0x3d106210	0.03524977
242	0x3df8445f	0.12122416
243	0x3bf6eef5	0.00753581
244	0x3d13e4e9	0.036106978
245	0xbcfbdb2f	-0.030744163
246	0x3cfce3cf	0.030870346
247	0x3e45ab66	0.19303665
248	0x3e228aeb	0.15873305
249	0xbd9a5dd3	-0.07537427
250	0x3e28ebab	0.1649615
251	0x3c72f436	0.014828732
252	0xbd0f7204	-0.035020843
253	0x3cad14bb	0.02112805
254	0xbce04840	-0.027378201
255	0x3de1f41b	0.110328875

fc_state.2.weight f4 [64, 256]
0	0xbdd2254b	-0.10261019
1	0xbdae17da	-0.08500643
2	0x3e7501df	0.23926495
3	0x3e53d445	0.20686443
4	0x3a045faf	0.00050496584
5	0xbbbc7611	-0.0057513793
6	0x3da47b04	0.08031276
7	0xbe085370	-0.13313079
8	0xbf15addc	-0.58468413
9	0x3d0e9214	0.03480728
10	0x3c4e9802	0.012609484
11	0xbc80cc68	-0.015722468
12	0xbb73ddcd	-0.003721106
13	0xbdbe2864	-0.09285048
14	0xbd1de588	-0.038548976
15	0x3d857694	0.065167576
16	0x3d9cc6e6	0.07655124
17	0xbcf55449	-0.029947417
18	0xbd2106da	-0.039313175
19	0x3c03f96e	0.008055074
20	0x3ea4750d	0.32120553
21	0x3dc9145d	0.09818337
22	0x3da5f5ba	0.08103509
23	0x3e77490b	0.24148957
24	0x3e2cb40e	0.1686556
25	0xbdc01d58	-0.09380597
26	0x3e2fbe1f	0.17162369
27	0x3e045c58	0.12925851
28	0x3eb603a3	0.3554965
29	0xbe7bfcb0	-0.24608111
30	0xbe1022fb	-0.14075844
31	0x3d3214a9	0.043476734
32	0xbed5454a	-0.41654426
33	0x3d10b3d9	0.035327766
34	0xbd08000c	-0.03320317
35	0xbe754be8	-0.23954737
36	0xbd8d8853	-0.069107674
37	0xbe63e275	-0.22254355
38	0xbeaba1c0	-0.33521843
39	0xbe1c9b58	-0.15293634
40	0xbed665d6	-0.4187457
41	0xbcdf552d	-0.027262295
42	0x3daaf30a	0.08347137
43	0x3d6aadf5	0.057294805
44	0xbc1afba2	-0.009459408
45	0xbd110f09	-0.03541473
46	0xbdd93d63	-0.10607412
47	0x3e703590	0.23457932
48	0x3cefe7c9	0.029285328
49	0xbe115d37	-0.14195715
50	0x3c0e0822	0.008668931
51	0xbe8e8162	-0.27833086
52	0xbe554ba7	-0.2082964
53	0x3d87ee11	0.066372044
54	0x3df9067a	0.121594384
55	0xbd04ffdb	-0.032470565
56	0x3e512e5d	0.20427842
57	0xbe168997	-0.14700924
58	0xbeb2ea7a	-0.34944516
59	0xbe5c082b	-0.21487491
60	0xbea6a5d0	-0.3254838
61	0x3d14bc87	0.036312606
62	0x3df2891a	0.11842556
63	0x3d0e3002	0.034713753
64	0x3d49d3ec	0.04927437
65	0x3e23984a	0.15976062
66	0x3cfb01de	0.030640539
67	0x3dd02b9e	0.10164569
68	0xbebab4b7	-0.36466
69	0x3e35eb70	0.17765594
70	0xbd1df151	-0.038560215
71	0x3e226a70	0.15860915
72	0xbec7e744	-0.3904363
73	0x3d6ead9a	0.058271028
74	0xbd0df98b	-0.03466181
75	0x3d049b8f	0.032374915
76	0x3decb478	0.11557859
77	0x3dc8f4d1	0.0981232
78	0xbc2f6f3f	-0.0107076755
79	0xbe977500	-0.2958145
80	0x3b61a550	0.003443081
81	0xbec7d1bb	-0.390272
82	0x3ce8f86c	0.02843877
83	0xbdf93ff0	-0.12170398
84	0x3e0ab397	0.1354507
85	0xbe93902f	-0.2882094
86	0xbcbd2b1f	-0.02309185
87	0x3e15a342	0.14613059
88	0xbd85af0a	-0.06527527
89	0xbeb48ea5	-0.3526508
90	0xbc47bb86	-0.012190705
91	0x3d6bbdf9	0.05755422
92	0x3cdf12a8	0.027230576
93	0x3dd195a8	0.10233623
94	0x3e521c43	0.20518593
95	0x3bf9351f	0.0076052095
96	0x3dfe90ae	0.12429939
97	0x3dec1581	0.11527539
98	0x3eec978f	0.4620938
99	0x3d2feb09	0.042948756
100	0xbd82590b	-0.0636464
101	0xbee803de	-0.4531545
102	0x3e051e60	0.12999868
103	0xbd048fec	-0.032363817
104	0xbcf314c8	-0.029672995
105	0x3d0803a1	0.033206586
106	0xbde42c9e	-0.111413226
107	0xbd9bbef6	-0.07604782
108	0x3e1392e0	0.14411497
109	0x3d9d4511	0.07679189
110	0xbe81286d	-0.25226155
111	0x3e291491	0.16511752
112	0xbcb8a33f	-0.02253878
113	0x3d822be7	0.0635603
114	0x3d5f6334	0.054537967
115	0xbdd3cc94	-0.103417546
116	0x3e498376	0.19679055
117	0xbc76a757	-0.015054545
118	0x3b84ca01	0.004052401
119	0x3de9f7dc	0.114242285
120	0x3e17a891	0.14810397
121	0xbd77eecf	-0.06053048
122	0x3d04b97e	0.03240346
123	0x3d0a9f91	0.03384358
124	0x3d1f9281	0.038958076
125	0xbd390479	-0.04517028
126	0x3aeec34a	0.001821616
127	0xbc8b0758	-0.016971275
128	0xbda59089	-0.080842085
129	0x3deab0ce	0.11459504
130	0xbe70d246	-0.23517713
131	0x3d909946	0.070604846
132	0x3de09c06	0.10967259
133	0xbf2593e2	-0.64678776
134	0xbe1d94db	-0.15388815
135	0x3d9770f6	0.073945925
136	0xbe48138e	-0.1953871
137	0x3d1b9522	0.03798402
138	0x3d4d4103	0.050110828
139	0x3e155bc7	0.14585792
140	0x3d6f2b55	0.058390934
141	0x3d807af7	0.06273454
142	0x3e128206	0.14307413
143	0xbd59fc4c	-0.053219125
144	0xbe8cb3bf	-0.27480885
145	0xbdf8f9bd	-0.12157009
146	0x3d193ab3	0.037409496
147	0x3dc7016d	0.09717069
148	0x3d6982f8	0.057009667
149	0x3cb76b39	0.022389995
150	0xbdcaa63d	-0.09894989
151	0x3cd65559	0.026163744
152	0x3e19b208	0.1500932
153	0x3e659bb4	0.22422677
154	0x3e39aed5	0.181331
155	0xbea4ee9a	-0.3221329
156	0x3e2f2a6f	0.17106031
157	0x3e6f76bb	0.23385136
158	0x3dde72ef	0.108617656
159	0x3d1b8a5d	0.03797375
160	0x3dfddb26	0.12395315
161	0xbc0962ad	-0.008385343
162	0x3e482bae	0.19547912
163	0x3d4de3dc	0.05026613
164	0x3e5c79aa	0.21530786
165	0x3e358ce0	0.17729521
166	0x3e0c481d	0.13699384
167	0x3de45d2f	0.11150586
168	0x3e0ae09b	0.13562243
169	0x3cba3d3f	0.022734283
170	0xbd4fe5ec	-0.05075638
171	0x3e3b3c16	0.1828464
172	0x3d933464	0.07187727
173	0x3dee623d	0.11639831
174	0xbbb2a2f4	-0.0054515544
175	0xbe2abdfc	-0.16674036
176	0xb9a9605c	-0.00032305985
177	0x3e1c082f	0.15237497
178	0xbc9b1ff3	-0.018936133
179	0x3de4ec9e	0.11177944
180	0x3dd30d5b	0.10305282
181	0x3dd6b4f0	0.1048373
182	0x3d0c3537	0.034230437
183	0xbd8e7f70	-0.069579005
184	0x3d6c835a	0.057742454
185	0x3de55a31	0.11198843
186	0x3ddfc34b	0.10925921
187	0x3e6d733d	0.23188491
188	0x3e023fc2	0.12719634
189	0xbea423b7	-0.32058498
190	0x3dbe8ee6	0.093045995
191	0xbd7fb191	-0.0624252
192	0xbdbdd5d9	-0.09269304
193	0x3ea64a82	0.3247872
194	0xbe4c9345	-0.19978054
195	0x3dba29f5	0.09090034
196	0xbe9b4872	-0.3032871
197	0x3e315759	0.17318477
198	0x3a86ee15	0.0010294343
199	0x3e824fa2	0.2545138
200	0x3ac0401c	0.0014667544
201	0x3df11efc	0.11773488
202	0xbec3fc65	-0.382785
203	0x3da552da	0.08072443
204	0x3e239654	0.15975314
205	0xbdc03811	-0.09385694
206	0x3d6a9b15	0.057276804
207	0x3ce147b7	0.027500017
208	0x3eb9787d	0.36224738
209	0x3ca94743	0.020663863
210	0x3d1ed6da	0.038779117
211	0x3e4c03c4	0.19923311
212	0x3e93e3d2	0.2888475
213	0xbe2ee77c	-0.17080492
214	0x3c09e13b	0.008415516
215	0x3d4f4193	0.050599646
216	0x3db26038	0.087097585
217	0x3da462a6	0.08026628
218	0x3c346632	0.011010693
219	0x3d8cef36	0.06881563
220	0xbcce5495	-0.025186816
221	0xbbf90f09	-0.0076006693
222	0x3db8d2c3	0.090245746
223	0x3cb45e01	0.02201748
224	0xbf01470a	-0.5049902
225	0x3e13bd67	0.1442772
226	0x3d60e26e	0.05490344
227	0xbcd15947	-0.025555266
228	0x3e1e4150	0.15454602
229	0x3e299387	0.16560183
230	0xbe884fed	-0.2662348
231	0xbec54f91	-0.38537267
232	0x3d394f4a	0.04524163
233	0x3ed14214	0.40870726
234	0xbc97db9d	-0.018537337
235	0x3e29f8e2	0.16598848
236	0xbe8673c3	-0.26260194
237	0x3d9a5a46	0.075367495
238	0x3e6c6092	0.23083714
239	0x3cfba0b3	0.030716276
240	0x3c884852	0.016636048
241	0xbd39b8aa	-0.045342125
242	0x3d021da1	0.031766538
243	0x3cc804d0	0.024416357
244	0x3de2c92e	0.11073528
245	0xbeec9f53	-0.46215305
246	0xbf4acc80	-0.7921829
247	0x3d9f9cbb	0.07793566
248	0x3be9f0ad	0.0071392865
249	0x3d92bb86	0.071646735
250	0xbdc51c3a	-0.096245244
251	0xbd7af4c9	-0.0612686
252	0xbdd6584a	-0.104660586
253	0x3dfd9aa3	0.1238301
254	0xbe4352b6	-0.1907452
255	0xbe32f7f8	-0.17477405

fc_state.2.bias f4 [64]
0	0xbd040c55	-0.032238323
1	0xbd4a0c65	-0.049328227
2	0x3e049928	0.1294905
3	0xbd7c60f2	-0.06161589
4	0xbc9894d7	-0.01862566
5	0xbde55705	-0.11198238
6	0x3e051400	0.1299591
7	0xbca60e73	-0.020270562
8	0x3e116234	0.14197618
9	0x3e33fbf6	0.17576584
10	0xbdc1c7f5	-0.09461967
11	0x3e2af3c0	0.16694546
12	0x3e0dd1ea	0.13849607
13	0x3e2da440	0.16957188
14	0x3e0d41c2	0.13794616
15	0xbc1196a5	-0.008886014
16	0xbd490af3	-0.049082708
17	0x3e259d43	0.16173272
18	0xbd93d9dc	-0.07219288
19	0x3de34e1f	0.11098885
20	0x3e043671	0.12911393
21	0xbe11cb54	-0.1423772
22	0x3dcb8c1f	0.09938835
23	0xbd9cb7f1	-0.076522715
24	0xbc9983d2	-0.018739615
25	0xbe09e7cf	-0.13467334
26	0x3e31fb85	0.17381103
27	0x3dc55536	0.09635393
28	0x3e276ca9	0.16350044
29	0xbe0ebdf1	-0.13939644
30	0x3da92bff	0.08260345
31	0xbe1dd998	-0.15415037
32	0x3c5f72b6	0.013638189
33	0x3e32b36b	0.17451255
34	0xbdfa85c6	-0.122325465
35	0xbdf68597	-0.12037199
36	0xbdf8e4c1	-0.12153006
37	0x3e1ba19b	0.15198366
38	0xbce5fd45	-0.02807487
39	0x3de2db2c	0.1107696
40	0xbcef096e	-0.029179301
41	0x3e342893	0.17593603
42	0xbd8a01b7	-0.06738608
43	0x3e4ad716	0.19808611
44	0xbca4b353	-0.02010504
45	0xbd5121e8	-0.051057726
46	0xbcd81e29	-0.026381569
47	0xbd122e03	-0.03568841
48	0xbe222aaf	-0.15836595
49	0xbd6334ee	-0.0554704
50	0xbdb19dfb	-0.086727105
51	0x3de70905	0.11281017
52	0xbad06197	-0.0015898225
53	0xbd069e9b	-0.0328661
54	0x3e16c616	0.14724001
55	0x3dee3caa	0.116326645
56	0x3dfe90e7	0.12429982
57	0x3e47e77b	0.19521897
58	0x3e113a8b	0.14182489
59	0x3983ab3f	0.00025113855
60	0xbcd19d39	-0.025587665
61	0x3e27420f	0.16333793
62	0x3e36128b	0.17780511
63	0xbc8ae8c2	-0.01695669

fc_state.4.weight f4 [1, 64]
0	0xbec124a6	-0.37723273
1	0xbeb4f98b	-0.35346636
2	0x3f013394	0.50469327
3	0x3cceeca1	0.025259318
4	0xbec6fe41	-0.38865855
5	0x3f0370bd	0.513439
6	0x3f075dcd	0.52877504
7	0x3e357ee0	0.1772418
8	0x3efb33f5	0.49063078
9	0x3f007e8f	0.50193113
10	0xbeb39e64	-0.3508178
11	0x3f0aadae	0.54171264
12	0x3f059dd7	0.5219397
13	0x3f11f629	0.57016236
14	0x3ef9dcf7	0.48801395
15	0x3e87e18f	0.26539275
16	0x3c589676	0.013219466
17	0x3ef4fe44	0.4785024
18	0xbeba25ac	-0.36356866
19	0x3eea8797	0.45806572
20	0x3f0b1195	0.54323703
21	0xbea72bb6	-0.32650536
22	0x3eee885e	0.46588415
23	0x3d870d5a	0.065943435
24	0xbec7f5dd	-0.39054766
25	0xbedf894a	-0.4365943
26	0x3ef98ecf	0.48741767
27	0x3eee5812	0.46551567
28	0x3f10ac0f	0.5651254
29	0xbf141207	-0.5784001
30	0x3ee2d9e6	0.44306868
31	0xbeb7fd6c	-0.35935533
32	0xbdc6640f	-0.096870534
33	0x3f03480a	0.512818
34	0xbe9fd31b	-0.31215748
35	0xbea4d879	-0.32196406
36	0xbefdd0f0	-0.4957347
37	0x3efa9f7d	0.48949805
38	0x401ea58a	2.4788537
39	0x3eed8e3e	0.46397585
40	0x3d783ae0	0.060603023
41	0x3f1017dd	0.5628641
42	0xbebb1173	-0.3653675
43	0x3efef042	0.49792677
44	0xbec9b1a3	-0.3939334
45	0xbece3576	-0.40275162
46	0xbee27852	-0.44232422
47	0xbe9a7781	-0.301693
48	0xbf081d4c	-0.53169703
49	0xbece6749	-0.40313175
50	0xbec301fe	-0.38087457
51	0x3fcfc0ee	1.6230752
52	0x40140b22	2.3131795
53	0x3dd9aeb8	0.10629028
54	0x3eeefe5c	0.46678436
55	0x3ee770cd	0.45203248
56	0x3f054254	0.52054334
57	0x3ef9ae24	0.4876567
58	0x3efbeb8c	0.49203146
59	0xbb222164	-0.002473914
60	0xbeaec1cf	-0.3413224
61	0x3ee28cbc	0.44247997
62	0x3f038992	0.5138179
63	0xbdfef88e	-0.12449752
