data/Torch/Dueling/003_Big-CNN_E_L/checkpoints/weights_8000episodes.pth (torch, 505343 bytes, 17 tensors)

conv_layers.0.weight f4 [64, 1, 3, 3]
0	0x3eb5e087	0.35522863
1	0x3e5975fc	0.21236414
2	0xbe4a22e4	-0.19739872
3	0x3e8e4860	0.27789593
4	0xbe0f776a	-0.14010397
5	0x3c1ac27e	0.009445785
6	0xbe599cae	-0.21251175
7	0x3e174edd	0.14776178
8	0x3e806f45	0.25084892
9	0xbef0f00f	-0.4705815
10	0x3e7ebe3c	0.24877256
11	0x3d03990e	0.032128386
12	0x3e7ac997	0.24490963
13	0x3bf6782c	0.00752165
14	0x3dbe47ce	0.092910394
15	0xbd11dcda	-0.03561101
16	0x3e681035	0.22662432
17	0x3c56eaef	0.013117536
18	0xbe8935d4	-0.2679888
19	0x3dd41d6d	0.10357175
20	0xbd7c5360	-0.06160295
21	0xbc2def86	-0.010616189
22	0xbe2f713d	-0.1713304
23	0x3ebe45a8	0.37162519
24	0xbe3168a7	-0.17325078
25	0xbe86419c	-0.2622193
26	0xbe29fbc6	-0.1659995
27	0xbe950559	-0.29105642
28	0x3c9c5d15	0.019087354
29	0xbeb1f4e4	-0.3475715
30	0x3eadc872	0.3394199
31	0xbe86011a	-0.26172715
32	0x3e894378	0.26809287
33	0x3d81df7c	0.063414544
34	0xbd130604	-0.03589441
35	0x3e806831	0.25079492
36	0xbcb469b0	-0.022023052
37	0x3e6273bd	0.22114463
38	0xbc8d18dd	-0.01722377
39	0xbe24e16d	-0.16101618
40	0x3d0364b7	0.03207847
41	0xbe257653	-0.16158418
42	0x3de747e5	0.1129301
43	0x3e7d34f8	0.24727237
44	0x3e0decb2	0.13859823
45	0xbe61aa3d	-0.22037597
46	0x3e9f98df	0.3117132
47	0x3df06aac	0.11739096
48	0x3e8350c2	0.2564755
49	0xbe0680c4	-0.13135058
50	0xbe8ce4aa	-0.27518207
51	0xbd8a53d0	-0.06754267
52	0xbe6429f2	-0.22281626
53	0x3ec626ad	0.38701382
54	0x3e571801	0.2100525
55	0x3ddc0653	0.10743394
56	0x3d1e6f71	0.038680498
57	0x3a30bec0	0.0006742291
58	0x3e8bcd5e	0.2730512
59	0xbead9dd8	-0.33909488
60	0xbc207e1d	-0.009795693
61	0xbe8e1f0a	-0.27758056
62	0x3dadbf51	0.08483756
63	0xbe33c00f	-0.17553733
64	0x3e0bd8cf	0.13656925
65	0xbd256fd7	-0.040389862
66	0x3eaa5c5d	0.33273593
67	0xbe53a057	-0.20666634
68	0xbe36ca0e	-0.17850515
69	0xbe6e38a4	-0.23263794
70	0x3e9e7318	0.30947185
71	0x3ddd2a00	0.107990265
72	0x3f1af72d	0.6053341
73	0xbe84588b	-0.25848803
74	0xbe9d3102	-0.30701452
75	0xbe85c94d	-0.26130143
76	0xbe3bd947	-0.18344603
77	0x3e5e4d0b	0.21709077
78	0x3dac35ef	0.084087245
79	0x3e9ea827	0.30987665
80	0xbdd58727	-0.10426169
81	0xbeb06456	-0.3445155
82	0x3e5ab172	0.21356753
83	0xbdc2e1f7	-0.095157556
84	0x3e8f57ae	0.27996582
85	0xbd43b22d	-0.047777344
86	0x3e7b78a4	0.2455774
87	0xbe6c7591	-0.23091723
88	0xbe2a17af	-0.16610597
89	0x3e2a2c5c	0.16618484
90	0x3e115fd2	0.14196709
91	0xbe15d38d	-0.14631481
92	0x3e48ceca	0.19610134
93	0x3e709d03	0.23497395
94	0xbe894c65	-0.26816097
95	0xbe26f799	-0.16305389
96	0x3eb333b6	0.3500039
97	0xbdb6e828	-0.08930999
98	0xbe079dc1	-0.13243772
99	0xbfb8d0dc	-1.4438739
100	0xbd1ab126	-0.0377666
101	0x3e1b013b	0.15137188
102	0xbe205582	-0.15657619
103	0xbf404cfa	-0.75117457
104	0x3e0461ea	0.12927976
105	0xbf1a5cac	-0.60297656
106	0xbe8c4a88	-0.27400613
107	0x3d549a61	0.05190504
108	0xbef6bd82	-0.48191458
109	0xbe2e2c0e	-0.17008993
110	0x3ef81142	0.48450667
111	0x3d1ef032	0.038803287
112	0x3e405a14	0.18784362
113	0xbe964bbe	-0.29354662
114	0xbe1bcaa7	-0.15214024
115	0xbcf85a19	-0.0303164
116	0x3d9a5452	0.07535614
117	0xbf1bd9ba	-0.608791
118	0xbe9fbafa	-0.3119734
119	0xbefb08c3	-0.49030122
120	0x3dc7e012	0.09759535
121	0xbe005b90	-0.12534928
122	0xbdaea40c	-0.08527383
123	0xbeaaeb17	-0.33382484
124	0xbeb716d5	-0.35759607
125	0xbeb5a295	-0.35475603
126	0xbe78f0e2	-0.2431064
127	0xbe833ef8	-0.2563398
128	0x3ebdb9a5	0.37055698
129	0xbd928891	-0.07154954
130	0x3e9942f1	0.29933885
131	0x3e1b3a4a	0.15158954
132	0xbead99b9	-0.33906344
133	0x3e7f3cb5	0.24925502
134	0xbdf0a542	-0.117502704
135	0xbf1ce4a8	-0.612864
136	0xbe6ada1e	-0.22934768
137	0xbed5bd74	-0.41746104
138	0x3d1a29e1	0.037637595
139	0xbd464911	-0.048409525
140	0x3e8841ab	0.266126
141	0xbea4fffb	-0.32226548
142	0x3ebe5624	0.37175095
143	0xbe7de83d	-0.24795623
144	0xbe1fdc33	-0.15611343
145	0x3d9fdab7	0.078053884
146	0x3e2bd805	0.16781624
147	0x3eb1cc96	0.347264
148	0x3e9bf6ce	0.30461735
149	0xbeab93a6	-0.33511084
150	0x3dc99195	0.09842221
151	0xbe2b1843	-0.16708474
152	0xbcef21fa	-0.029191006
153	0xbf065905	-0.52479583
154	0x3ea0b22c	0.31385934
155	0xbe8b2644	-0.27177632
156	0x3e51a1b6	0.20471844
157	0x3e0dae32	0.13835981
158	0x3d8c81d5	0.06860701
159	0xbe4d2da2	-0.20036939
160	0x3eafecdf	0.34360406
161	0x3db0be80	0.08630085
162	0xbdda818f	-0.106692426
163	0xbea770c8	-0.32703233
164	0x3e46f6cf	0.19430088
165	0xbdf3a191	-0.11896051
166	0xbdd182e0	-0.102300406
167	0x3edf9f60	0.4367628
168	0x3df1a0a8	0.11798221
169	0xbe3c152c	-0.18367451
170	0xbe38bc4c	-0.1804058
171	0x3d61fd61	0.05517328
172	0x3e9bdfb8	0.3044412
173	0xbd891e04	-0.06695178
174	0xbe0790be	-0.13238809
175	0xbd00cd65	-0.03144588
176	0xbe424b2a	-0.18973985
177	0x3e53e06d	0.2069108
178	0x3e9413bb	0.28921303
179	0xbee5b705	-0.44866195
180	0x3dba46fd	0.09095571
181	0x3e083aca	0.13303676
182	0xba4c2d03	-0.00077886897
183	0xbe63275f	-0.22182988
184	0x3e0bd0dc	0.13653892
185	0x3e0b14b0	0.1358211
186	0x3de413b9	0.11136574
187	0xbdacff0e	-0.08447085
188	0xbdfd4e99	-0.12368507
189	0x3d2b7afc	0.041865334
190	0xbd8c9118	-0.06863612
191	0xbe1c9b72	-0.15293673
192	0x3e6391fd	0.22223659
193	0x3e9f3e2b	0.31102118
194	0xbd64e28b	-0.05588011
195	0xbdba77cc	-0.09104881
196	0x3c4a542c	0.01234917
197	0xbc515f2d	-0.012779039
198	0x3e2f411e	0.17114684
199	0x3e073300	0.13203049
200	0xbe8e494c	-0.27790296
201	0xbdfdb1fe	-0.12387465
202	0x3eaa7a3f	0.3329639
203	0x3e308f5f	0.17242192
204	0xbd1e0f29	-0.038588677
205	0xbe4546b9	-0.1926526
206	0xbe5f5fd8	-0.21813905
207	0xbedbacc3	-0.42905244
208	0xbd43275a	-0.04764495
209	0x3d85c9ca	0.06532629
210	0x3e818f18	0.25304484
211	0x3e5acabe	0.21366403
212	0xbe8f72a9	-0.28017166
213	0xbe08b4d7	-0.13350235
214	0xbcadf9b8	-0.02123724
215	0x3ec17cdb	0.3779057
216	0x3e342327	0.17591535
217	0xba4c24b1	-0.000778745
218	0x3e8a60c6	0.27026957
219	0xbd5da75b	-0.05411468
220	0xbe30b52f	-0.17256616
221	0x3e984e58	0.29747272
222	0xbde2e921	-0.11079622
223	0xbcb63fa7	-0.022247149
224	0xbec5c6f5	-0.38628355
225	0x3ec3ddb6	0.3825509
226	0x3e6bf846	0.23043928
227	0x3ddf581d	0.10905478
228	0xbeaa2c1c	-0.33236778
229	0xbebcbcbd	-0.36862746
230	0xbe9d5037	-0.30725262
231	0x3e332bbe	0.17497155
232	0x3df99235	0.1218609
233	0x3e87de69	0.26536873
234	0x3eb6c91e	0.35700315
235	0x3e509d37	0.20372473
236	0xbd8356a1	-0.064130075
237	0xbeab37a1	-0.3344088
238	0xbe938851	-0.2881494
239	0xbebdc60d	-0.37065163
240	0x3dfa2f31	0.12216032
241	0xbec52298	-0.38502955
242	0xbdaa54af	-0.08316933
243	0xbead27cd	-0.33819428
244	0xbe96008a	-0.29297286
245	0xbf1a4777	-0.60265297
246	0xbe639956	-0.22226462
247	0x3e01b971	0.12668397
248	0xbee9ea0a	-0.4568637
249	0x3ec5ae43	0.38609514
250	0x3b0f430c	0.0021860031
251	0xbe62f0df	-0.22162198
252	0xbd2b2e29	-0.04179207
253	0xbe3e1f1b	-0.18566553
254	0xbdaa04ba	-0.08301683
255	0xbebcc2bf	-0.3686733

conv_layers.0.bias f4 [64]
0	0xbd8c1b50	-0.06841147
1	0x3e8e8aec	0.27840364
2	0xbd8b1baf	-0.067923896
3	0xbcbb8bc0	-0.022893786
4	0x3e796a1c	0.24356884
5	0xbe81dd30	-0.25364065
6	0x3c957b65	0.018247316
7	0x3f07c90d	0.53041154
8	0x3d4b5d72	0.049649663
9	0x3e941a58	0.2892635
10	0xbe8921fc	-0.2678374
11	0x3ed48d51	0.41514066
12	0x3e3261a8	0.17420065
13	0x3e9ff040	0.31237984
14	0x3e249f20	0.16076326
15	0x3ed8ffa2	0.42382532
16	0xbe525658	-0.2054075
17	0x3d98b2e4	0.07455996
18	0xbe1ab19d	-0.15106817
19	0xbe721697	-0.2364143
20	0xbc3da252	-0.011574345
21	0xbee618e7	-0.44940874
22	0x3ed17541	0.4090977
23	0xb985e75f	-0.00025540122
24	0x3b078e39	0.0020684137
25	0x3e4a4eff	0.19756697
26	0xbd37601f	-0.044769403
27	0x3b21e755	0.0024704535
28	0xba430a08	-0.00074401544
29	0xbd91e303	-0.07123377
30	0xbe8ded77	-0.27720234
31	0x3dc7347c	0.097268075
32	0x3eaff35c	0.34365356
33	0x3efb4a17	0.49079964
34	0x3e979b26	0.29610556
35	0xbec82a6a	-0.3909486
36	0x3bd58aaa	0.006516774
37	0x3f04ac07	0.5182499
38	0x3e5c23b9	0.21498002
39	0xbced06b0	-0.028933853
40	0x3e7c3ee4	0.24633366
41	0xbeacaf7e	-0.3372764
42	0xbdb3065c	-0.08741447
43	0x3f023a9a	0.5087067
44	0xbb43b695	-0.0029863466
45	0xbc3d25da	-0.011544669
46	0xbe732e2f	-0.23748086
47	0xbe2f363c	-0.17110533
48	0x3d93902c	0.07205233
49	0xbeae2a99	-0.34016874
50	0xbb3698d4	-0.0027862089
51	0x3eb3e40b	0.3513492
52	0xbedea099	-0.434819
53	0x3ebe6f4d	0.3719429
54	0xbe9de43f	-0.308382
55	0xbe5ae1e4	-0.21375233
56	0x3e138fc9	0.14410318
57	0x3eaa4e8b	0.3326305
58	0xbe09266c	-0.13393563
59	0xba8d5af9	-0.0010784558
60	0xbed59a2a	-0.4171918
61	0xbe8621c0	-0.26197624
62	0xbd72b7bc	-0.059257254
63	0xbcb860e6	-0.022507142

conv_layers.2.weight f4 [64, 64, 2, 2]
0	0x3c9d03b0	0.019166797
1	0xbd4baec3	-0.049727213
2	0x3d86c0d2	0.06579746
3	0x3d751800	0.05983734
4	0xbd2283f7	-0.039676633
5	0xbc38f2f4	-0.011288393
6	0x3cf7035b	0.030152967
7	0x3cac74d5	0.021051804
8	0xbdb0ff68	-0.08642465
9	0x39479507	0.00019033636
10	0x3d6c15b3	0.05763788
11	0xbd99d85c	-0.075119704
12	0x3df0097b	0.11720558
13	0x3c8cb335	0.017175296
14	0x3d312ac5	0.04325368
15	0x3d8d26df	0.0689218
16	0xbb78e26a	-0.003797675
17	0xbc98a177	-0.01863168
18	0x3bd0c107	0.006370667
19	0x3da8dcc2	0.08245231
20	0xbdee60bc	-0.11639544
21	0xbdd31de4	-0.103084356
22	0xbe23752f	-0.1596267
23	0x3b1c0740	0.0023808032
24	0xbce3ff81	-0.027831795
25	0xbbb5f92b	-0.005553385
26	0x3c159a2b	0.009130995
27	0xbc1752ed	-0.00923608
28	0x3d116ab3	0.035502147
29	0xbdbb9a4a	-0.09160288
30	0xbca45efe	-0.020064827
31	0x3d67a0d0	0.056549847
32	0x3daf49e5	0.08559016
33	0x3cb2ec35	0.021841148
34	0xbd90d281	-0.070714004
35	0xbd8b8aaf	-0.06813561
36	0x3d17608f	0.03695732
37	0x3ca1b3f3	0.019739127
38	0xbdc89640	-0.09794283
39	0x3d55fd50	0.05224353
40	0x3d0fc8db	0.03510366
41	0xbd277b8e	-0.040889315
42	0x3bdd9122	0.006761686
43	0xbc962181	-0.018326523
44	0xbe015de8	-0.12633479
45	0x3d31ebad	0.04343765
46	0xbdf98969	-0.12184412
47	0x3c8b5e15	0.017012635
48	0xbe272257	-0.16321693
49	0xbe4a1d18	-0.19737661
50	0xbda1b6fb	-0.07896229
51	0x3dd60ddd	0.10451863
52	0x3d9773bd	0.07395122
53	0x3dcae5f9	0.09907145
54	0x3d6e9884	0.05825092
55	0x3dbf5736	0.09342806
56	0x3d18cb8b	0.03730349
57	0x3da13d80	0.07873058
58	0xbd404c03	-0.04694749
59	0x3dbb51e5	0.091464795
60	0x3cc98328	0.024598673
61	0xbd4cc26f	-0.049990114
62	0xbe60d68c	-0.21956843
63	0xbe012b3c	-0.12614149
64	0xbbab87e1	-0.005234704
65	0xbd4f9133	-0.050675582
66	0x3d3c2a8f	0.045939025
67	0xba8967b7	-0.001048318
68	0xbd337530	-0.04381293
69	0x3d2bff68	0.04199162
70	0xbd46572b	-0.048422974
71	0x3d382d6a	0.044965185
72	0x3d3c5042	0.045974977
73	0xbd9c65fd	-0.0763664
74	0x3dcdb914	0.100450665
75	0x3daf1d10	0.08550465
76	0x3d4b51c3	0.04963852
77	0xbdfb8f14	-0.12283149
78	0xbd9ed689	-0.07755763
79	0x3d70ff21	0.05883706
80	0xbb582439	-0.0032980575
81	0x3d6e8397	0.058230963
82	0x3cecd5e2	0.028910581
83	0x3d87f091	0.06637681
84	0xbdef56a2	-0.11686446
85	0xbcc3a589	-0.023882644
86	0xbbe18574	-0.006882364
87	0xbe16a67d	-0.14711948
88	0xbd870ca3	-0.06594207
89	0x3c2a8e37	0.010409883
90	0xbd14550e	-0.036213927
91	0xbdcc150a	-0.099649504
92	0x3bb29c8c	0.0054507907
93	0x3cf3961d	0.029734666
94	0x3dd34d29	0.103174515
95	0x3ddebd80	0.10875988
96	0xbde6495f	-0.11244463
97	0xbcffb46c	-0.031213962
98	0x3da3b8d5	0.07994238
99	0x3d19b282	0.037523754
100	0x3d342db5	0.043988902
101	0x3c4baa53	0.012430745
102	0x3d3c9df9	0.046049092
103	0x3de3d7fd	0.11125181
104	0x3dfb719a	0.12277527
105	0x3cd81d20	0.026381075
106	0x3a642659	0.0008703224
107	0xbdfa3a0c	-0.12218103
108	0xbb35c0dc	-0.0027733361
109	0x3ddecafd	0.10878561
110	0x3d405d6f	0.046964105
111	0x3db0eadb	0.08638545
112	0xbd212cf7	-0.039349522
113	0x3b9583d0	0.0045628324
114	0x3e050b98	0.12992704
115	0xbcda47a7	-0.026645495
116	0x3dcc988d	0.09990034
117	0x3b4b752b	0.003104518
118	0xbdbc12f7	-0.09183305
119	0x3d38f2dc	0.045153484
120	0xbd5d715c	-0.054063186
121	0x3a3c0fec	0.00071740034
122	0xbbdb1ed5	-0.006687025
123	0xbcc7dad0	-0.02439633
124	0xbddf8861	-0.10914684
125	0xbafe274e	-0.0019390376
126	0xbd9f374d	-0.0777422
127	0xbd916c93	-0.07100787
128	0xbc5d84cc	-0.013520431
129	0x3dc768de	0.09736799
130	0xbd3476ea	-0.044058718
131	0xbd9a2f52	-0.07528557
132	0xbdb287ee	-0.08717333
133	0xbe7687bc	-0.24075216
134	0xbdce09e8	-0.10060483
135	0x3cbe5bbc	0.023237102
136	0xbd3a9ae8	-0.045557886
137	0x3d1ebbe9	0.038753424
138	0xbc219415	-0.009861966
139	0x3cb8f3f2	0.02257726
140	0xbc58695f	-0.013208716
141	0xbbf48a9e	-0.0074628135
142	0x3cf13d9c	0.029448323
143	0x3d8b6fd0	0.06808436
144	0x3cb2bf7d	0.021819824
145	0xbba62a08	-0.0050709285
146	0xbc7f38d9	-0.015577518
147	0x3dc12f6a	0.09432872
148	0xbe6d880c	-0.23196429
149	0x3d90597b	0.07048317
150	0xbde1d6fd	-0.11027334
151	0xbd0cae21	-0.03434575
152	0xbd7402b0	-0.059572875
153	0xbcaa0f39	-0.020759212
154	0x3cd04d17	0.025427384
155	0xbe36a997	-0.17838131
156	0xbcd5367f	-0.026026962
157	0x3bd765fb	0.0065734363
158	0xbcc7c5a5	-0.024386236
159	0x3de1891e	0.11012481
160	0xbcf746c1	-0.030185105
161	0x3ca70a26	0.020390581
162	0x3d2bc87b	0.04193924
163	0x3d8ec14c	0.06970462
164	0xbe1211ed	-0.1426465
165	0xbd73a8b4	-0.05948706
166	0xbd3eee8d	-0.04661422
167	0x3d29f064	0.04148902
168	0x3c8e7db1	0.017393919
169	0xbc03269d	-0.008004812
170	0xbcb7766c	-0.022395335
171	0x3aaa10ed	0.0012975015
172	0x3d7de48a	0.06198553
173	0x3cb22f2a	0.021751005
174	0x3d551c26	0.052028798
175	0x3c0f3f79	0.00874316
176	0x3e5e034d	0.21680947
177	0x3dc9a802	0.09846498
178	0x3c9f594a	0.019451756
179	0x3e1fd9d3	0.15610437
180	0xbca56cca	-0.020193476
181	0x3d992135	0.07477037
182	0xbd8a610f	-0.06756794
183	0xbda16444	-0.07880452
184	0xbcf081f8	-0.029358849
185	0xbc8096fb	-0.015696993
186	0x3d464b16	0.04841145
187	0xbe0c49ad	-0.1369998
188	0x3bb0d144	0.00539604
189	0xbdae58de	-0.08513044
190	0x3cd59b3d	0.026075
191	0xbbb7ee11	-0.0056130965
192	0xbc9a57fc	-0.018840782
193	0xbde2968b	-0.1106387
194	0xbdac1003	-0.084014915
195	0x3b07d190	0.0020724274
196	0xbd2973e0	-0.041370273
197	0xbcb8784d	-0.022518301
198	0x3d353ac3	0.044245493
199	0xbd511a33	-0.051050376
200	0xba8a3227	-0.0010543511
201	0xbd9ed311	-0.077551015
202	0xbcfe8ab6	-0.031072002
203	0xbda77f8c	-0.081786245
204	0xbe22bb19	-0.15891685
205	0xbd583423	-0.052784096
206	0xbd73b57a	-0.05949924
207	0xbccdc371	-0.025117608
208	0x3c8289fb	0.015934935
209	0x3d88eeeb	0.06686195
210	0x3cc11c78	0.023573145
211	0xbcaccfba	-0.021095145
212	0xbb3da31a	-0.0028936327
213	0xbce869b5	-0.028370718
214	0xbdeba2d4	-0.115056664
215	0x3e626ef4	0.22112638
216	0x3d62b0b9	0.055344317
217	0x3d00f631	0.031484786
218	0x3db5ab63	0.0887058
219	0x3d902584	0.070384055
220	0xbc082265	-0.008308982
221	0xbd309fdf	-0.043121215
222	0x3d818ab1	0.063252814
223	0x3c874ef2	0.016517136
224	0xbd5936f2	-0.053030916
225	0x3d2a902f	0.04164141
226	0x3b91f0b1	0.0044537415
227	0x3d53fec1	0.051756624
228	0x3d283990	0.04107052
229	0xbd9262a4	-0.071477205
230	0xbb016085	-0.0019741368
231	0x3d4b19bc	0.04958509
232	0x3ca2fd17	0.019896073
233	0x3d000e97	0.031263914
234	0xbbbfa8e8	-0.0058489926
235	0x3cdba15d	0.026810342
236	0x3e17afc6	0.14813146
237	0xbdbb8870	-0.09156883
238	0x3d4edc7d	0.050503243
239	0xbd502eae	-0.050825767
240	0x3d1b9863	0.037987124
241	0x3d38af8a	0.045089282
242	0x3cc5682a	0.02409752
243	0x3d78ae2b	0.060712975
244	0x3d0a719c	0.033799753
245	0x3dbe7058	0.092987716
246	0x3d133644	0.035940424
247	0x3c93b646	0.01803125
248	0xbd29458e	-0.0413261
249	0x3c1f5790	0.009725466
250	0xbd03bf8f	-0.032165106
251	0xbde48fe8	-0.111602604
252	0x3c679afd	0.014136073
253	0x3d975fe4	0.073913366
254	0x3d0543fc	0.032535538
255	0x3d94dbf4	0.07268515

conv_layers.2.bias f4 [64]
0	0x3c915c66	0.017744254
1	0x3cd0e158	0.025498077
2	0xbd2db24c	-0.042406365
3	0x3d03a52f	0.032139953
4	0xbcc27fba	-0.023742545
5	0xbe06122e	-0.13092873
6	0x3d658d45	0.05604293
7	0x3e4e9c4a	0.20176807
8	0xbdd08355	-0.101812996
9	0x3cac49ab	0.021031221
10	0xbd2dce0c	-0.04243283
11	0x3d7cfebc	0.06176637
12	0xbe266f1f	-0.16253327
13	0xbd475ee9	-0.048674498
14	0x3d00029a	0.03125248
15	0x3de46685	0.111523665
16	0x3cbbaf42	0.022910718
17	0xbd33c787	-0.043891456
18	0x3dd91e54	0.10601488
19	0xbda67296	-0.08127324
20	0xbd0c4130	-0.034241855
21	0xbd250168	-0.040284544
22	0xbcff7669	-0.031184392
23	0x3e02737d	0.12739368
24	0xbd2d22ab	-0.04226939
25	0x3d048084	0.032349125
26	0xbe0cb2ed	-0.1374013
27	0x3d8f54df	0.0699861
28	0x3dccb773	0.09995928
29	0x3d659d45	0.056058187
30	0xbe07db8a	-0.13267341
31	0xbd8773be	-0.06613873
32	0xbdfb631c	-0.12274763
33	0x3c831643	0.016001826
34	0x3e13a887	0.14419757
35	0x3dded0aa	0.10879643
36	0x3c4ce17c	0.012504932
37	0xbd0c4b00	-0.034251213
38	0x3da7a1f9	0.08185191
39	0x3d9ea0d9	0.07745523
40	0xbd289f00	-0.04116726
41	0xbc9b0e56	-0.018927734
42	0x3d6c9e4b	0.057768147
43	0x3d7a15a1	0.061055783
44	0x3d352eb7	0.044234004
45	0x3de427bd	0.11140392
46	0xbb45af6a	-0.003016437
47	0x3a14fe9f	0.00056836935
48	0x3ca0c6d8	0.019626066
49	0xbd8807d6	-0.066421196
50	0xbcc11627	-0.023570133
51	0x3d8668df	0.06562971
52	0xbe05ca47	-0.13065444
53	0x3dc21269	0.09476168
54	0x3e0c95b0	0.13728976
55	0xbb27dd61	-0.002561413
56	0x3d20dcca	0.03927306
57	0x3c39d1e8	0.011341549
58	0x3dbec760	0.093153715
59	0x3cd384f5	0.025820235
60	0x3e159ba9	0.14610161
61	0x3d98e543	0.07465603
62	0x3dc689fc	0.09694287
63	0xbd0e51c1	-0.034745935

conv_layers.4.weight f4 [32, 64, 2, 2]
0	0x3dd1cbba	0.10243936
1	0x3db8f550	0.09031165
2	0x3cb16926	0.021656584
3	0x3da7b718	0.08189219
4	0x3d3aae71	0.045576517
5	0x3c931887	0.017956031
6	0x3cad6465	0.021166036
7	0xbd3ac793	-0.045600485
8	0x3d6f6a7f	0.058451172
9	0x3d5278a4	0.051384583
10	0xbb59ea66	-0.0033251285
11	0xbd6737a4	-0.056449547
12	0xbdd9c87c	-0.106339425
13	0xbd42deaa	-0.04757563
14	0xbde2425d	-0.11047814
15	0x3cc4f54b	0.024042746
16	0x3e0b6efb	0.13616554
17	0x3d932239	0.07184262
18	0x3dad00a8	0.08447391
19	0x3da7ce7f	0.08193683
20	0x3cfc038c	0.03076341
21	0xbd2be31b	-0.04196463
22	0x3e05d68d	0.13070126
23	0xbda48e0f	-0.08034908
24	0x3e17a606	0.14809427
25	0xbda2d531	-0.07950819
26	0x3dcd46b5	0.10023252
27	0xbcd1d702	-0.025615219
28	0xbda5db63	-0.08098485
29	0x3b601548	0.0034192372
30	0xbe269c05	-0.16270454
31	0xbe05879b	-0.1304001
32	0x3dab8c1d	0.08376334
33	0x3df4cbe6	0.11952953
34	0x3d0b5a3f	0.034021612
35	0xbd264d90	-0.040601313
36	0x3dc18779	0.094496675
37	0x3c85778a	0.016292352
38	0x3d510ae4	0.051035777
39	0x3d99903e	0.07498215
40	0x3c4227e2	0.011850329
41	0x3de03393	0.10947337
42	0x3d8d9d66	0.06914787
43	0x3cc37f92	0.023864541
44	0xbcd8399d	-0.02639466
45	0xbc257fb4	-0.010101248
46	0xbc633fe5	-0.013870214
47	0x3d81ef9c	0.0634453
48	0x3db76c91	0.08956254
49	0x3d9261ea	0.07147582
50	0x3c968192	0.01837233
51	0x3e03e367	0.12879716
52	0x3cf52c6e	0.029928412
53	0xbc9de2b3	-0.019273138
54	0xbd065cff	-0.03280353
55	0x3d762fb1	0.060104076
56	0xbcff53b3	-0.03116784
57	0x3db448ea	0.0880297
58	0x3d290073	0.041260194
59	0x3da2f237	0.07956355
60	0x3c2c77db	0.010526623
61	0x3c2e1a6b	0.010626416
62	0x3bd1fd59	0.006408375
63	0x3d195b85	0.037440795
64	0xbc592321	-0.013253004
65	0xbdb0f612	-0.08640684
66	0x3bd530e5	0.006506073
67	0x3d4d8480	0.05017519
68	0xbd9a6286	-0.07538323
69	0xbd7d2b0f	-0.061808642
70	0x3dbb5fe7	0.09149151
71	0xbaa49bb5	-0.0012558611
72	0xbdfce29a	-0.12347908
73	0xbdaa1473	-0.08304682
74	0x3c43c29e	0.011948256
75	0xbd7e3fc3	-0.062072527
76	0x3cdba3fc	0.026811592
77	0xbdd443de	-0.10364507
78	0x3db080d2	0.086183205
79	0x3d871941	0.06596614
80	0xbd1ac838	-0.0377886
81	0x3d4876bc	0.04894136
82	0x3cbd340a	0.023096103
83	0xbd93571e	-0.07194351
84	0xbc8b2a77	-0.016988022
85	0x3d0114fc	0.031514153
86	0x3cb734ed	0.022364104
87	0xbdc72f12	-0.09725775
88	0x3d032ee3	0.032027137
89	0x3d02ed83	0.03196479
90	0x3d7e7c75	0.06213041
91	0xbcf4e291	-0.029893192
92	0x3d13f87b	0.03612564
93	0xbe1acb2c	-0.15116566
94	0xbd014eaf	-0.03156918
95	0x3d7f38b1	0.062309925
96	0xbcea5e23	-0.028609341
97	0x3da33f80	0.07971096
98	0xbd507307	-0.05089095
99	0x3d0ea17c	0.034821972
100	0x3c1f9029	0.00973896
101	0xbd579a50	-0.0526374
102	0x3df0f444	0.1176534
103	0xbadce33c	-0.0016852389
104	0x3d677dc6	0.05651643
105	0x3d7b2c06	0.06132128
106	0x3c831dad	0.016005361
107	0x3e0ff7ef	0.14059423
108	0xbde1aa4b	-0.11018809
109	0xbd7c7db8	-0.061643332
110	0x3bf77878	0.007552203
111	0x3c100ec9	0.008792588
112	0xbd6f859f	-0.05847704
113	0xbd8a98c8	-0.06767422
114	0x3ce9e71f	0.02855259
115	0x3d6c236c	0.05765097
116	0xbb9781f3	-0.0046236455
117	0xbd39efe9	-0.04539481
118	0x3c7ed1ab	0.015552918
119	0xbd4bd9e5	-0.049768347
120	0x3c8bc70b	0.017062685
121	0x3d8a85b3	0.06763782
122	0x3d984c06	0.07436375
123	0x3b06db6d	0.0020577565
124	0x3e7f4b1c	0.24930996
125	0x3d266610	0.040624678
126	0x3dc35eda	0.09539576
127	0x3de5fc68	0.11229783
128	0x3d94e10b	0.07269486
129	0x3c930e34	0.017951109
130	0x3e1986c3	0.14992814
131	0x3db5b9d0	0.088733315
132	0xbdd4ade7	-0.10384732
133	0xbd4ecb7b	-0.050487023
134	0xbd45b4e4	-0.048268214
135	0xbac82cf0	-0.0015272181
136	0x3ba5fa78	0.0050652586
137	0xbd3395a5	-0.043843884
138	0xbdc4b809	-0.096054144
139	0xbd9a2dfc	-0.07528302
140	0x3d5e1430	0.05421847
141	0x3d88dbea	0.0668257
142	0xbbc745a5	-0.0060813003
143	0x3a6d8e4f	0.0009062038
144	0xbd09aca0	-0.033611894
145	0xbc4d1a64	-0.012518499
146	0xbdb49bc5	-0.08818773
147	0x3d1dacca	0.038494863
148	0x3d7bb368	0.061450392
149	0x3e0705d2	0.13185814
150	0xbd5b3c47	-0.05352428
151	0x3afe6305	0.0019408172
152	0x3c7b7846	0.0153485
153	0xbde934a0	-0.113869905
154	0xbe030522	-0.12794927
155	0xbdad09fa	-0.084491685
156	0xbcfa817c	-0.030579321
157	0x3d8b4d45	0.06801847
158	0x3b1930a9	0.002337495
159	0x3dc9a08d	0.09845076
160	0xbccb4669	-0.024813848
161	0x3bda253b	0.0066572702
162	0x3d622ba8	0.055217415
163	0x3d85e4e2	0.065377966
164	0x3bf7173a	0.0075406106
165	0xbc6469d8	-0.013941251
166	0x3c5083c8	0.012726732
167	0x3d2432b0	0.040087402
168	0xbd75f8eb	-0.06005184
169	0xbdfbb94f	-0.12291204
170	0x3dbd053b	0.09229513
171	0xbcebf8f2	-0.02880523
172	0xbcd3d9b0	-0.025860637
173	0xbdefe22c	-0.11713061
174	0x3e07464b	0.13210408
175	0xbd8cb452	-0.06870331
176	0x3d9f900e	0.07791148
177	0x3ca99e20	0.020705283
178	0x3daebe2b	0.085323654
179	0x3d2b6366	0.04184284
180	0xbe11c795	-0.14236291
181	0xbdbe630a	-0.09296234
182	0xbdb0f3b4	-0.08640233
183	0xbd568e0a	-0.052381553
184	0x3d741bfb	0.059596997
185	0x3d06e516	0.032933317
186	0x3e2be345	0.16785915
187	0xbd95aa6a	-0.073078945
188	0xbd5febc1	-0.05466819
189	0xbb49ea67	-0.003080988
190	0x3b43ec71	0.0029895569
191	0x3cc20007	0.023681654
192	0x3cc19574	0.023630835
193	0x3cece0a5	0.028915713
194	0x3c865c62	0.016401473
195	0xbd7b4d05	-0.06135275
196	0xbd1c9096	-0.038223825
197	0x3d57f318	0.052722067
198	0x3c9b3185	0.018944511
199	0x3d711004	0.058853164
200	0xbe1a7cd8	-0.15086687
201	0xbdededcf	-0.11617624
202	0x3dfde867	0.12397843
203	0xbd6e597a	-0.0581908
204	0x3ce329ad	0.027729833
205	0xbd70fa24	-0.058832303
206	0xbb0d63ae	-0.0021574306
207	0x3d2d5927	0.04232135
208	0x3e050cd5	0.12993176
209	0xbb5eb461	-0.0033982026
210	0x3dd4af68	0.103850186
211	0x3d82b7ac	0.06382689
212	0xbc317447	-0.010830945
213	0x3aa8443a	0.0012837716
214	0x3dc03bd3	0.093864106
215	0x3c908ccc	0.017645262
216	0xbdc2f9df	-0.095203154
217	0x3da5f481	0.08103276
218	0xbd5c7719	-0.053824518
219	0x3c4da70e	0.012552036
220	0xbe150d8d	-0.1455595
221	0x3da4f91a	0.08055325
222	0x3d95ca3b	0.07313963
223	0xbba75da9	-0.0051076007
224	0xbcd2d098	-0.02573423
225	0x3cb1267c	0.021624796
226	0xbdf5e3cf	-0.12006342
227	0xbd1dacb5	-0.038494784
228	0x3ca024a1	0.019548716
229	0xbda04b46	-0.07826857
230	0xbbde6a77	-0.006787594
231	0xbd47451c	-0.048649892
232	0x3c7200f2	0.014770733
233	0xbdb63f25	-0.088987626
234	0xbcca39e2	-0.024685804
235	0xbd8cea50	-0.06880629
236	0xbdb9f9fc	-0.09080884
237	0xbdb12409	-0.08649451
238	0x3c2bf068	0.010494329
239	0x3dacab79	0.08431143
240	0x3c8d138d	0.017221237
241	0xbe1488a4	-0.1450525
242	0xbd1e70f4	-0.03868194
243	0x3b3838c3	0.0028110004
244	0x3e574851	0.2102368
245	0x3e00103a	0.1250619
246	0x3d1a9b4e	0.037745766
247	0x3cf51543	0.029917365
248	0x3b6102d5	0.0034333963
249	0x3c906166	0.017624568
250	0xbd0432d0	-0.03227502
251	0xbd0f4bc9	-0.034984384
252	0x3ce18289	0.027528064
253	0x3d1dc6d5	0.0385197
254	0x3d7eb2c3	0.0621822
255	0xbcef5891	-0.029217036

conv_layers.4.bias f4 [32]
0	0xbe0dd77c	-0.13851732
1	0x3d8ef549	0.06980378
2	0x3dbe3640	0.09287691
3	0x3dff8c43	0.12477925
4	0xbcf00f69	-0.029304223
5	0x3dba330c	0.09091768
6	0x3db06bef	0.08614337
7	0xbd2f812d	-0.0428478
8	0x3d360b3c	0.044444308
9	0x3cf8d663	0.030375665
10	0xbc7590e4	-0.014988158
11	0xbe01859c	-0.12648624
12	0xbd999e40	-0.07500887
13	0x3d8b734f	0.06809103
14	0xbd0efb4d	-0.034907628
15	0x3cc07b63	0.023496335
16	0x3d05dbda	0.03268037
17	0x3d5c7140	0.05381894
18	0x3dbe78d5	0.09300391
19	0xbd24aa5b	-0.040201526
20	0xbdd7a170	-0.10528839
21	0x3dd31180	0.10306072
22	0xbc9bc4cb	-0.019014737
23	0xbda34f15	-0.07974068
24	0x3db0e290	0.08636963
25	0x3d7502a1	0.05981696
26	0x3d4ccbef	0.049999174
27	0x3c4a6a24	0.012354407
28	0x3cf4009a	0.029785443
29	0x3dc465a9	0.09589703
30	0xbd011d18	-0.031521887
31	0xbd8b8652	-0.06812729

fc_state.0.weight f4 [256, 128]
0	0x3ca4a898	0.020099923
1	0x3d143c4c	0.036190316
2	0xbd8e5db8	-0.06951469
3	0x3a6ad7e7	0.00089585636
4	0xbd92781c	-0.07151815
5	0xbd03ae08	-0.03214839
6	0x3c171467	0.009221173
7	0x3decb482	0.11557867
8	0xbd82f78d	-0.06394873
9	0xbd6ffef5	-0.058592755
10	0xbcd508b8	-0.026005134
11	0xbdc12ab5	-0.09431974
12	0xbd5ef01c	-0.054428205
13	0x3d9826d9	0.074292846
14	0x3c3c56c2	0.011495294
15	0xbd7767f9	-0.06040189
16	0xbd800cd7	-0.06252449
17	0x3d8ea417	0.069648914
18	0x3d233dcd	0.03985386
19	0xbd5be04e	-0.05368071
20	0x3df357fb	0.11882015
21	0x3d053672	0.032522626
22	0xbd22ec84	-0.03977634
23	0x3dacc9ec	0.08436951
24	0x3c8d88d0	0.017277151
25	0x3b65021c	0.0034943884
26	0xbc4d9fa7	-0.012550271
27	0x3bf74f73	0.007547313
28	0xbdd4f6a9	-0.10398609
29	0xbd1f0ce2	-0.038830645
30	0x3d2bfb67	0.041987803
31	0x3d0bc881	0.034126762
32	0xbe372014	-0.1788333
33	0xbdb60c3e	-0.08889054
34	0xbd4f168c	-0.05055861
35	0xbcd47748	-0.025935784
36	0xbcd339a9	-0.02578433
37	0x3d74d469	0.059772883
38	0x3dc296e4	0.09501436
39	0xbc8f47c4	-0.017490275
40	0xbcc16c84	-0.023611315
41	0xbdab8778	-0.08375448
42	0xbe3a0245	-0.18164928
43	0xbdb88720	-0.09010148
44	0x3d94dfc7	0.07269245
45	0x3d949983	0.072558425
46	0x3c855b82	0.016278986
47	0xbdf70165	-0.12060813
48	0xbdb72df4	-0.08944312
49	0x3cf57ce5	0.02996678
50	0xbd87f32f	-0.066381805
51	0x3baafaab	0.00521787
52	0x3dd39421	0.10330988
53	0xbc0a0ffc	-0.008426663
54	0x3cde16e2	0.02711052
55	0x3d0a0066	0.033691786
56	0xbd3e9a08	-0.046533614
57	0xbdc38b45	-0.09548048
58	0x3da2d1f9	0.07950205
59	0xbc663b13	-0.01405217
60	0xbda66666	-0.08125
61	0xbda5159f	-0.080607645
62	0xbd061271	-0.03273243
63	0xbd3e22f8	-0.046420068
64	0x3dfcb4e1	0.123391874
65	0x3d2d5bfe	0.04232406
66	0xbd1d0954	-0.038338974
67	0xbcc1e5d2	-0.023669157
68	0x3d9fcf85	0.07803253
69	0xbd5f49f9	-0.054513905
70	0x3dbaee4d	0.091274835
71	0x3cb483b5	0.022035459
72	0x3de79ae8	0.11308843
73	0xbcc8f4fd	-0.024530882
74	0xbca784a5	-0.020448992
75	0xbe3bb5dd	-0.18331094
76	0x3e2cac08	0.168625
77	0xbda1974c	-0.07890186
78	0xbcd70325	-0.026246617
79	0xbd81338f	-0.06308662
80	0xbc19d63b	-0.009389455
81	0x3d0c1a5b	0.034204822
82	0xbd9587c6	-0.07301287
83	0x3d917905	0.07103161
84	0x3db522e0	0.088445425
85	0x3dcafe20	0.09911752
86	0xbd589c71	-0.05288357
87	0x3da345a3	0.079722665
88	0xbd64c6ea	-0.05585376
89	0x3d8fe8be	0.07026814
90	0xbdc67fd2	-0.096923485
91	0xbd34d06a	-0.04414407
92	0xbd0ad2f7	-0.033892598
93	0x3d1c54d4	0.038166836
94	0x3d292a97	0.041300382
95	0x3d84b41b	0.06479665
96	0x3cf37caa	0.02972253
97	0x3bca0566	0.0061651943
98	0xbcbd5250	-0.023110539
99	0xbdd4b93f	-0.103868954
100	0xbd8f55d8	-0.06998795
101	0x3d86f9c7	0.0659061
102	0xbc99b9a0	-0.01876527
103	0x3d884567	0.066538624
104	0x3e346f77	0.17620645
105	0xbdf0a3b7	-0.11749976
106	0xbda4466b	-0.08021244
107	0xbd5a7c27	-0.053341057
108	0x3cb057f3	0.021526312
109	0xbdb52c4e	-0.08846341
110	0x3db761a7	0.089541726
111	0x3d414f89	0.04719499
112	0x3c8722b2	0.016496036
113	0x3d69eba6	0.057109497
114	0x3dd6f5d2	0.10496105
115	0x3d8df5b2	0.06931628
116	0xbcf8022c	-0.030274473
117	0xbb050489	-0.0020296893
118	0x3d82742d	0.06369815
119	0x3cfdedac	0.03099712
120	0xbd042906	-0.032265685
121	0xbd151ceb	-0.03640453
122	0xbd46cadc	-0.048533306
123	0xbce28fd5	-0.027656475
124	0xbdb6e25e	-0.08929895
125	0xbe11976f	-0.14217924
126	0x3d8f5ee5	0.070005216
127	0xbdbbd882	-0.09172155
128	0xbd08c3e6	-0.03338995
129	0x3d929e7a	0.07159133
130	0x3b0c2741	0.0021385702
131	0xbda50ca4	-0.08059052
132	0x3c496c4a	0.0122938845
133	0xbcb9e405	-0.022691736
134	0xbd69f36b	-0.057116907
135	0xbdd86431	-0.10565985
136	0x3bdbe313	0.006710419
137	0x3df18bba	0.11794229
138	0xbe8360f2	-0.256599
139	0x3dbc5908	0.09196669
140	0x3b39aaa9	0.002833048
141	0x3e36d052	0.17852905
142	0xbdcec15b	-0.100954734
143	0xbdaf420e	-0.08557521
144	0x3c066d9b	0.008204843
145	0x3d86f304	0.0658932
146	0xbcbcc233	-0.02304182
147	0x3db47331	0.088110335
148	0x3d595f61	0.053069476
149	0xbd87f28e	-0.066380605
150	0x3d754cbd	0.059887636
151	0xbd9d29a5	-0.07673959
152	0x3c8fa232	0.017533395
153	0x3c812c24	0.015768118
154	0xbd5afac8	-0.05346182
155	0x3d08894f	0.033334073
156	0xbd1defd0	-0.03855878
157	0xbd614d49	-0.055005345
158	0x3d37cb95	0.044871885
159	0x3cf96b67	0.030446721
160	0xbcdcfe61	-0.026976766
161	0x3d97305c	0.07382271
162	0x3bf8c2ed	0.0075915963
163	0xbce928aa	-0.028461773
164	0xbdf45888	-0.119309485
165	0xbe284910	-0.16434121
166	0xbd9671c8	-0.07345921
167	0xbc3beabf	-0.011469542
168	0x3d0f2636	0.03494855
169	0x3c8cf489	0.017206447
170	0xbd4dbc9c	-0.0502287
171	0xbd4578b9	-0.048210833
172	0x3dbc686c	0.091996044
173	0xbcf365e1	-0.029711666
174	0x3c541419	0.012944245
175	0x3dc818ee	0.0977038
176	0xbd8c59c2	-0.068530574
177	0xbc34e80b	-0.0110416515
178	0x3c77b513	0.015118855
179	0xbd7daee7	-0.061934378
180	0xbd6f4432	-0.058414645
181	0xbe20749f	-0.15669487
182	0xbdb299f4	-0.087207705
183	0xbdcf8159	-0.10132093
184	0x3d92de34	0.07171288
185	0x3dabb139	0.08383412
186	0xbd37b6b0	-0.04485196
187	0xbdab5e03	-0.08367541
188	0xbd9bdf18	-0.07610911
189	0x3d0f6fb9	0.035018656
190	0xbe0a892c	-0.1352889
191	0xbd4180bc	-0.04724191
192	0xbc287b9b	-0.010283376
193	0xbd193f24	-0.03741373
194	0x3d697cc0	0.057003736
195	0xbde858d6	-0.11345069
196	0xbdcf6c6d	-0.101281025
197	0xbd71e0ed	-0.059052397
198	0xbd00adb3	-0.031415652
199	0x3d2cc8ac	0.042183563
200	0xbcf9f9bf	-0.030514596
201	0x3d154d60	0.036450744
202	0x3d0d37b5	0.034476954
203	0x3dfd5c46	0.123711154
204	0x3d44d302	0.048052795
205	0x3d07321a	0.033006765
206	0xbce497ed	-0.027904475
207	0xbe1d6739	-0.15371408
208	0x3d63e7a4	0.05564083
209	0x3d3a30e2	0.045456775
210	0x3d7e212d	0.062043358
211	0xbd0bd572	-0.034139104
212	0x3d03cf5b	0.03218017
213	0x3e088372	0.13331392
214	0xbde8ff79	-0.113768525
215	0x3d85fba4	0.06542137
216	0x3dc1d750	0.09464896
217	0x3d8a48a1	0.06752134
218	0x3c46b69c	0.012128498
219	0x3c4611ec	0.012089234
220	0xbcb562b6	-0.022141796
221	0xbe7f3e10	-0.24926019
222	0xbdd565e8	-0.10419828
223	0xbcbc7ece	-0.023009684
224	0x3c1d45e3	0.009599182
225	0x3c599b35	0.013281633
226	0x3d391b24	0.0451919
227	0x3da254e9	0.079263516
228	0x3d25cbcc	0.04047756
229	0xbb958312	-0.004562744
230	0x3cbba2f8	0.022904858
231	0x3dc3f8ac	0.09568915
232	0x3c863b58	0.01638572
233	0xbd9ebbae	-0.07750641
234	0xbd7938fd	-0.060845364
235	0x3d87979a	0.066207126
236	0x3d1eaa3a	0.03873656
237	0x3cb3f85e	0.021969017
238	0xbd136c9b	-0.035992246
239	0x3c12dd93	0.00896396
240	0x3d07ffdf	0.033203002
241	0x3d56f8bd	0.05248331
242	0xbafd8b69	-0.0019343916
243	0xbd5fd5f6	-0.05464741
244	0xbbba5fb2	-0.0056876773
245	0x3ca62602	0.020281795
246	0xbdb761bf	-0.089541905
247	0xbd5f8100	-0.054566383
248	0xbd963612	-0.07334532
249	0x3dae1501	0.085001
250	0x3c717188	0.014736541
251	0x3d1292e2	0.03578461
252	0x3c1699ba	0.009191925
253	0xbdec8887	-0.11549478
254	0xbe4fc7eb	-0.20291106
255	0xbd002ff8	-0.031295747

fc_state.0.bias f4 [256]
0	0x3d8ad9ee	0.06779848
1	0x3d89ecb3	0.067346
2	0xbceed260	-0.029153049
3	0x3e0615d1	0.1309426
4	0xbc322f8a	-0.010875592
5	0x3d4c5624	0.049886838
6	0xbd7aaa20	-0.0611974
7	0x3dd69423	0.104774736
8	0x3dbe6307	0.09296232
9	0x3c8b7909	0.017025487
10	0x3df765a5	0.12079934
11	0x3de07bf2	0.10961141
12	0x3d1b1a55	0.03786691
13	0x3c8d4cf6	0.017248612
14	0x3d4f90cf	0.05067521
15	0xbd4a6383	-0.049411308
16	0x3bcfe2d7	0.00634418
17	0x3da94554	0.082651764
18	0xbce8dbca	-0.028425116
19	0x3c10cfb4	0.008838583
20	0xbd973d05	-0.073846854
21	0xbce5c6de	-0.028048929
22	0xbde15eb9	-0.11004395
23	0x3d54a502	0.051915176
24	0x3e05a04c	0.1304943
25	0x3d6d848b	0.05798773
26	0xbde5afe3	-0.11215188
27	0xbde8d67b	-0.11369034
28	0xbd0b5e75	-0.034025628
29	0xbd831c9d	-0.06401942
30	0x3dcbf34e	0.09958516
31	0x3d10661b	0.035253625
32	0x38bbb340	8.950243e-05
33	0x3dea801d	0.11450217
34	0x3da47a89	0.08031184
35	0xbd41101f	-0.047134515
36	0x3d72607d	0.05917405
37	0x3d9e676b	0.07734569
38	0xbcd5d460	-0.026102245
39	0xbd515065	-0.05110206
40	0x3cd84003	0.02639771
41	0x3df6a404	0.12043002
42	0x3cdc620a	0.026902217
43	0x3d815fcf	0.06317102
44	0xbd700051	-0.05859405
45	0x3c6698a6	0.01407448
46	0x3ca173c0	0.019708514
47	0xbdf90cae	-0.121606216
48	0x3af57eab	0.0018729767
49	0x3d5b97b6	0.05361148
50	0x3e13f397	0.14448391
51	0x3db62cb5	0.08895246
52	0x3d7399b3	0.05947275
53	0x3c1b0ba1	0.009463222
54	0x3e1e1b8d	0.15440197
55	0x3dc390dc	0.09549114
56	0xbdc674d0	-0.09690249
57	0xbc8fbca2	-0.017546002
58	0x3da53854	0.08067384
59	0xbdf63aec	-0.12022957
60	0x3d8b074c	0.06788501
61	0x3e05654d	0.13026924
62	0xbde12bfc	-0.109947175
63	0xbd8590bc	-0.065217465
64	0xbcb7bc27	-0.022428585
65	0xbd063168	-0.03276196
66	0x3d561500	0.05226612
67	0xbdfbfc6b	-0.12304004
68	0xbda4fc2a	-0.08055909
69	0xbdf7db46	-0.1210237
70	0xbd9d8db2	-0.07693042
71	0x3d119b68	0.035548598
72	0xbd404ce8	-0.046948344
73	0x3cccc755	0.024997393
74	0x3e030c2d	0.12797613
75	0xbd8d2bcf	-0.068931215
76	0x3d19a916	0.03751477
77	0xbd952e6e	-0.072842464
78	0xbdc61325	-0.0967162
79	0xbd826a30	-0.0636791
80	0xbbb35125	-0.0054723197
81	0xbc770eb1	-0.015079186
82	0x3e520bfb	0.20512383
83	0x3dbd2b05	0.09236721
84	0x3e37f79f	0.17965554
85	0x3d78aa17	0.060709085
86	0x3cf8d71d	0.030376012
87	0xbd1f84a1	-0.038944844
88	0xbd535573	-0.051595163
89	0xbdad104a	-0.084503725
90	0xbdd25dde	-0.1027181
91	0x3de6a063	0.1126106
92	0xbdd59d02	-0.104303375
93	0x3e117265	0.14203794
94	0x3c8a1af6	0.01685856
95	0x3cc4b918	0.02401404
96	0xbd801827	-0.06254607
97	0xbd6beb43	-0.05759741
98	0x3d68a7c7	0.05680063
99	0xbdefb51f	-0.11704468
100	0x3df76868	0.12080461
101	0xbcc1df3b	-0.023666015
102	0xbe0db303	-0.13837819
103	0xbd0315bd	-0.032003153
104	0xbd14171c	-0.03615485
105	0x3d0432ed	0.03227513
106	0x3d64d6fc	0.055869088
107	0x3cde4b62	0.027135555
108	0xbdce8373	-0.10083666
109	0x3d7248dc	0.059151515
110	0xbd67fc6c	-0.056637213
111	0x3d8e1c9e	0.06939052
112	0xbdbca66a	-0.092114285
113	0xbe07a107	-0.13245021
114	0xbcd197c0	-0.025585055
115	0xbc1c182b	-0.0095272465
116	0x3d9480e3	0.07251146
117	0x3af93f1c	0.0019016
118	0x3ca36b50	0.019948632
119	0xbc5d0bf4	-0.013491619
120	0xbde91014	-0.1138002
121	0x3db5031e	0.08838485
122	0xbc321f47	-0.010871715
123	0x3d642951	0.055703465
124	0xbc94b5ac	-0.018153034
125	0xbb8acac0	-0.0042355955
126	0x3dc1ca13	0.09462371
127	0xbcc076e5	-0.023494193
128	0x3dc035b6	0.093852445
129	0x3d3cb5ed	0.046071935
130	0x3d2c07c4	0.041999593
131	0x3c0ac3a2	0.008469494
132	0xbd74eaca	-0.059794225
133	0x3da29c3d	0.07939956
134	0xbd309fe7	-0.043121245
135	0x3caf72ec	0.021417104
136	0x3d997c00	0.07494354
137	0xbe30006d	-0.17187662
138	0x3dd6fa00	0.104969025
139	0x3e1d5d27	0.15367566
140	0xbca66bb4	-0.020315029
141	0x3e0467ca	0.12930217
142	0x3c607ec7	0.013702101
143	0x3ce2667e	0.027636763
144	0xbd575600	-0.05257225
145	0x3d327e73	0.043577623
146	0x3e3b10e8	0.18268168
147	0x3df0f363	0.11765172
148	0xbe1f21d6	-0.15540251
149	0x3de47949	0.11155946
150	0xbc61c172	-0.013779031
151	0x3d3e524d	0.046465207
152	0xbdfdb2b6	-0.12387602
153	0xbdb0ec05	-0.08638767
154	0xbda792c5	-0.08182291
155	0x3dc2a9fa	0.09505077
156	0x3e0810c7	0.1328765
157	0x3b775358	0.0037738886
158	0x3d6393d7	0.055560913
159	0x3d2a1c99	0.04153118
160	0x3c92a857	0.017902536
161	0xbe410d2e	-0.18852684
162	0xbdad22d6	-0.0845391
163	0x3dadc64a	0.08485086
164	0x3dcd8b3a	0.10036321
165	0xbd45ab24	-0.048258916
166	0x3d208aea	0.03919498
167	0xbcc67a53	-0.02422825
168	0x3dbc43d9	0.091926284
169	0x3ced2b3b	0.028951278
170	0x3c1064db	0.008813108
171	0xbdd97f78	-0.10620016
172	0xbcbf29fe	-0.023335453
173	0xbc9a958b	-0.018870136
174	0x3c500872	0.012697326
175	0x3dee09f5	0.11622993
176	0x3d0a1b57	0.03371748
177	0xbcd7a187	-0.02632214
178	0x3cdd2b13	0.026998078
179	0x3dbc7f3e	0.09203957
180	0x3cab4b05	0.020909796
181	0x3e22656e	0.15859005
182	0xb900ee26	-0.00012295748
183	0x3d2871d6	0.041124187
184	0xbd6fabfc	-0.058513626
185	0x3decd4e5	0.11564044
186	0xbe0a097e	-0.13480183
187	0xbd3b2c12	-0.045696326
188	0x3d54a2c3	0.051913034
189	0x3e00d6aa	0.12581888
190	0xb931bcaf	-0.00016950326
191	0x3dbf781f	0.09349083
192	0x3cd654ea	0.026163537
193	0xbc93402c	-0.017974935
194	0x3ca56a78	0.02019237
195	0x3e00d778	0.12582195
196	0xbd75e00b	-0.060028117
197	0xba038f97	-0.000501865
198	0xbbdd0ea7	-0.0067461315
199	0xbe055bff	-0.13023375
200	0x3e0f60b0	0.14001727
201	0x3bd5b4c8	0.006521795
202	0xbd96642c	-0.07343325
203	0xbdc8f64c	-0.098126024
204	0x3de61d40	0.11236048
205	0x3ca01196	0.019539636
206	0xbd8ad1ed	-0.067783214
207	0xbbb585a5	-0.0055396133
208	0x3c780b50	0.015139416
209	0x3de11395	0.10990063
210	0x3cbecb0a	0.023290176
211	0x3d13746b	0.035999697
212	0xbd506115	-0.050873835
213	0x3c7d79b6	0.015470913
214	0xbc798f05	-0.015231852
215	0x3e1c6236	0.1527184
216	0x3b9db6bc	0.0048130434
217	0x3c86d7e9	0.016460376
218	0x3d940ce1	0.07229019
219	0xbd9bf850	-0.07615721
220	0x3ccafa97	0.024777694
221	0x3c740bd4	0.014895398
222	0x3da92e53	0.08260789
223	0xbc14a187	-0.009071714
224	0xbda12cc6	-0.07869868
225	0x3bd4fe7c	0.0065000635
226	0x3d44d82a	0.048057713
227	0x3bcd4fb4	0.006265605
228	0x3e1fc168	0.15601122
229	0xbd211eeb	-0.039336126
230	0xbd3bd389	-0.045856033
231	0x3c7682a0	0.015045792
232	0xbcb0554b	-0.021525046
233	0xbe07b39e	-0.13252112
234	0x3db1a775	0.08674518
235	0x3d8b3f73	0.06799211
236	0xbd337e2b	-0.043821495
237	0x3dc976b6	0.098370954
238	0x3b8105d9	0.0039374647
239	0xbd7cc7cb	-0.061713975
240	0xbd867dea	-0.06566985
241	0xbc101dbf	-0.0087961545
242	0x3dd2865f	0.102795355
243	0xba7db5e0	-0.00096782856
244	0x3d18d0d9	0.037308548
245	0x3d4378ad	0.047722507
246	0x3d752fd8	0.05986008
247	0x3ded2ecc	0.115811914
248	0x3e005d84	0.12535673
249	0x3b626903	0.0034547455
250	0x3e0dfbc8	0.13865578
251	0x3ca6a259	0.020341085
252	0xbd0935a7	-0.033498432
253	0x3d51213e	0.051057093
254	0xbcce59da	-0.025189329
255	0x3dc076f8	0.093976915

fc_state.2.weight f4 [64, 256]
0	0xbdf7b719	-0.1209547
1	0xbd2d1474	-0.042255834
2	0x3e6e2413	0.23255949
3	0x3d33051d	0.04370605
4	0xbc997b00	-0.018735409
5	0x3b2d4198	0.0026436802
6	0x3d8e0d74	0.0693616
7	0xbcac47f6	-0.021030407
8	0xbe578e0b	-0.21050279
9	0xbcc862f7	-0.024461253
10	0xbd99efe2	-0.07516457
11	0xbd9cfb68	-0.076651394
12	0xbd87a2d2	-0.066228524
13	0xbe04d5f5	-0.12972243
14	0xbd9bdd3c	-0.076105565
15	0x3de49a0f	0.11162197
16	0x3a452e72	0.00075218745
17	0xbd871aff	-0.06596946
18	0xbd9694c8	-0.073525965
19	0x3a532d67	0.00080557767
20	0x3dd6de73	0.104916476
21	0x3e108fed	0.14117403
22	0x3ddba615	0.10725037
23	0x3e3bb93c	0.1833238
24	0xbc7ce3a2	-0.015435131
25	0xbdce42d4	-0.1007134
26	0x3e584db4	0.21123391
27	0x3e28507b	0.16436951
28	0x3e68d285	0.22736557
29	0xbe228b57	-0.15873466
30	0xbde174c2	-0.11008598
31	0xbb66d535	-0.0035222296
32	0xbe4d4e04	-0.20049292
33	0xbd7f232b	-0.0622894
34	0xbd2912e4	-0.04127778
35	0xbdff4c7e	-0.124657616
36	0xbdbfb000	-0.09359741
37	0xbe25ba4f	-0.16184352
38	0xbead24e7	-0.33817217
39	0xbe0e2af0	-0.13883567
40	0xbe2df5ba	-0.16988268
41	0xbd45b002	-0.048263557
42	0xbb69881b	-0.0035634104
43	0x3de829f9	0.11336131
44	0x3d474673	0.04865117
45	0xbdb16bda	-0.08663149
46	0xbd9b84a5	-0.07593659
47	0x3e94e080	0.2907753
48	0x3db0fa55	0.08641497
49	0xbd2c225d	-0.04202496
50	0xbd2b6a56	-0.041849457
51	0xbdf60371	-0.12012375
52	0xbe13e939	-0.14444436
53	0x3c384810	0.01124765
54	0x3d20f3bc	0.039294943
55	0xbd9cc4d3	-0.07654729
56	0x3e80f2cb	0.25185236
57	0xbe52e2ce	-0.20594332
58	0xbe307a93	-0.17234258
59	0xbe4cb264	-0.19989926
60	0xbde9aacc	-0.1140953
61	0xbbf026c5	-0.0073288404
62	0x3e050e57	0.12993751
63	0x3cd262ee	0.025681939
64	0x3d8ae3e8	0.06781751
65	0x3dbd08fd	0.0923023
66	0xbc9109aa	-0.017704803
67	0x3c3e3fa7	0.011611856
68	0xbe8c6102	-0.2741776
69	0x3dbe2f55	0.092863716
70	0xbd1df5dc	-0.038564548
71	0x3ca9175c	0.020641021
72	0xbe844664	-0.25834954
73	0x3d3ebdcc	0.046567723
74	0xbd7c6530	-0.061619937
75	0x3d004414	0.031314924
76	0x3d2712b8	0.040789336
77	0x3d7cafa5	0.061690945
78	0xbc9d7d03	-0.01922465
79	0xbe36e93c	-0.1786241
80	0x3d7453ce	0.059650235
81	0xbe9e9730	-0.30974722
82	0xbb941a8b	-0.0045197657
83	0xbd6f43b4	-0.058414176
84	0x3d5a7267	0.05333176
85	0xbe7cee88	-0.24700367
86	0xbda469b3	-0.08027973
87	0x3d576fd1	0.05259687
88	0xbcd81f60	-0.026382148
89	0xbe0a5040	-0.13507175
90	0x3b5d3fc7	0.0033759938
91	0xbaf73c81	-0.0018862636
92	0x3d675dda	0.05648599
93	0xbc806f0a	-0.015677948
94	0x3e019bf6	0.1265715
95	0x3c4715e2	0.012151213
96	0x3e2b7db4	0.1674717
97	0x3dd345ef	0.10316073
98	0x3ea61959	0.32441214
99	0x3d076def	0.033063825
100	0xbcef853b	-0.029238334
101	0xbe623458	-0.2209028
102	0x3db6c30a	0.089239195
103	0x3d57fec6	0.052733205
104	0xbd06da61	-0.032923106
105	0x3c71305c	0.014721002
106	0xbe128885	-0.1430989
107	0xbd98e83a	-0.07466169
108	0x3d7ee720	0.062232137
109	0xbcc22bcf	-0.02370253
110	0xbe3c81bd	-0.18408866
111	0x3e3ac16b	0.18237846
112	0xbcb86249	-0.022507804
113	0x3d81dd6c	0.06341061
114	0x3d8b2db4	0.067958266
115	0xbe37128f	-0.17878173
116	0x3d1ab1c2	0.03776718
117	0xbcde5c8c	-0.02714374
118	0x3d23edcd	0.040021706
119	0xbcad4d80	-0.021155119
120	0x3e3e5ebb	0.18590824
121	0xbd874dd3	-0.06606641
122	0x3d5124b5	0.051060397
123	0x3b7c3178	0.0038481634
124	0x3cdcd690	0.02695778
125	0xbcf8e947	-0.030384673
126	0x3b521d39	0.0032060875
127	0xbd505458	-0.050861686
128	0xbdd837ee	-0.10557543
129	0x3e11206d	0.14172526
130	0xbe77dcc4	-0.24205309
131	0x3c4c1d6f	0.012458189
132	0x3e1a1f37	0.1505097
133	0xbe435cee	-0.19078419
134	0xbcd9aba3	-0.0265711
135	0x3d88b846	0.06675772
136	0xbe2c920c	-0.16852587
137	0x3da232c3	0.07919838
138	0xbd5defba	-0.0541837
139	0x3d69e9c9	0.05710772
140	0x3de013d5	0.10941283
141	0x3d7610e2	0.060074694
142	0x3e06c455	0.13160832
143	0x3d4eabb5	0.05045672
144	0xbe828185	-0.2548944
145	0xbdb46ef8	-0.08810228
146	0x38a09e19	7.6588425e-05
147	0x3d5582f8	0.052126855
148	0x3d687de1	0.056760672
149	0xbd7ba4d0	-0.061436474
150	0xbe1d649c	-0.1537041
151	0xba9835a2	-0.0011612664
152	0x3dcfc519	0.10145015
153	0x3dca5e9f	0.09881329
154	0x3d759611	0.059957568
155	0xbe674430	-0.22584605
156	0x3d704c53	0.05866654
157	0x3e41cccc	0.1892578
158	0x3dbf9c43	0.093559764
159	0x3d6545e3	0.055974852
160	0x3e35df1f	0.17760895
161	0x3cf969f6	0.030446034
162	0x3dd7dd8f	0.10540306
163	0x3d77fef6	0.060545884
164	0x3d0854ba	0.033283927
165	0x3defc980	0.11708355
166	0x3d545e40	0.051847696
167	0x3d7fa90d	0.06241708
168	0x3d8d47b8	0.06898445
169	0x3dca9cda	0.09893198
170	0xbdff12a4	-0.12454727
171	0x3e29bfd3	0.16577081
172	0xbd02ec52	-0.031963654
173	0x3dc0eb67	0.094198994
174	0x3c5be264	0.013420675
175	0xbe1f3cee	-0.15550587
176	0x3cd8f050	0.026481777
177	0x3e3c0aea	0.18363538
178	0xbccc35cb	-0.024927994
179	0xbbd5be17	-0.0065229046
180	0x3d328d08	0.04359153
181	0x3d8737bd	0.06602428
182	0x3d1665b6	0.036718093
183	0xbd95dbb8	-0.07317299
184	0x3d5dd4b4	0.054157928
185	0xbba8e793	-0.005154559
186	0x3e1adf0a	0.15124145
187	0x3e23f033	0.16009597
188	0xbbbbab45	-0.005727204
189	0xbe30ffd3	-0.17285089
190	0xbcc12d04	-0.023581035
191	0xbe2e11bc	-0.16998953
192	0xbda4d7f1	-0.08049
193	0x3e013920	0.12619448
194	0xbe1f7715	-0.1557277
195	0xba063830	-0.0005120067
196	0xbe34ef27	-0.17669354
197	0x3da355b5	0.07975332
198	0xbd94bd9f	-0.0726273
199	0x3eac9b6e	0.33712333
200	0xbd3837c9	-0.044975076
201	0x3e08ee72	0.1337221
202	0xbe1039fa	-0.14084616
203	0x3d6f79d0	0.05846578
204	0x3d4a047e	0.04932069
205	0xbd25735e	-0.040393226
206	0x3d7b96ac	0.06142299
207	0xbd203843	-0.039116155
208	0x3e87d0df	0.26526543
209	0xbd60ad87	-0.05485299
210	0x3d95a106	0.073061034
211	0x3d30cabe	0.0431621
212	0x3e8b11e6	0.27162093
213	0xbe224a43	-0.15848641
214	0x3c7b4e61	0.015338511
215	0xbc9b49dc	-0.018956117
216	0x3dfc8894	0.12330738
217	0x3ddd7551	0.10813392
218	0xbd9044b5	-0.07044355
219	0x3d1a5eb1	0.03768796
220	0x3c2bdb7b	0.01048934
221	0x3ab59914	0.0013854825
222	0x3dd928e7	0.10603505
223	0x3ca555f2	0.020182583
224	0xbea5489a	-0.32281953
225	0x3d6b0273	0.057375383
226	0x3d5abe8d	0.05340438
227	0xbd042caf	-0.032269176
228	0x3d9edef6	0.0775737
229	0x3e37083b	0.17874233
230	0xbe19b74c	-0.15011328
231	0xbe38392a	-0.17990556
232	0x3da98cd2	0.082788125
233	0x3e9334ea	0.28751308
234	0xbda55faa	-0.08074887
235	0x3d58253c	0.052769884
236	0xbe809c74	-0.25119364
237	0x3d78a077	0.060699906
238	0x3e68db74	0.22739965
239	0xbb896e9e	-0.004194095
240	0x3d6e7dc5	0.058225412
241	0xbd89160c	-0.06693658
242	0xbd72af01	-0.059248928
243	0xbd7aade8	-0.061201006
244	0xbd27dd82	-0.04098273
245	0xbe289bbb	-0.16465656
246	0xbed6ffef	-0.41992137
247	0x3d57cbdc	0.05268465
248	0xbd9092dc	-0.07059261
249	0x3c5dfc4c	0.013548922
250	0xbe1a1af7	-0.15049349
251	0xbccac659	-0.024752783
252	0xbdb151ca	-0.08658178
253	0x3e357f5d	0.17724366
254	0xbd3181b5	-0.04333659
255	0xbe5b2c2a	-0.21403566

fc_state.2.bias f4 [64]
0	0x3ca4fed5	0.020141045
1	0xb90bc1ca	-0.00013328265
2	0x3d7b30dc	0.061325893
3	0xbd5a69ec	-0.05332367
4	0x3cf6aad7	0.03011076
5	0xbd8ea3c5	-0.0696483
6	0x3d7c5597	0.061605062
7	0xbd434d4e	-0.047681145
8	0x3d972f86	0.07382111
9	0x3ddc3ead	0.10754142
10	0xbd525c93	-0.051357817
11	0x3dc9bd08	0.09850508
12	0x3d8fbc6a	0.07018359
13	0x3dcef6ec	0.1010569
14	0x3d8f2732	0.06989898
15	0xbd11ee66	-0.035627745
16	0xbd416182	-0.04721213
17	0x3dbfc7f8	0.09364313
18	0xbcc9d9e7	-0.024640037
19	0x3d30557d	0.043050278
20	0x3d78d8cd	0.060753632
21	0xbdbb42be	-0.091435894
22	0x3d00608f	0.031342085
23	0xbd855658	-0.065106094
24	0x3d0a70ca	0.03379897
25	0xbdad1928	-0.08452064
26	0x3dd865bf	0.105662815
27	0x3ce8b85a	0.028408218
28	0x3dc29615	0.09501282
29	0xbd634001	-0.05548096
30	0x3c737872	0.014860259
31	0xbddc4eea	-0.10757239
32	0x3c1620ae	0.009163065
33	0x3dd9ab15	0.106283344
34	0xbd98c183	-0.074587844
35	0xbd90008b	-0.070313536
36	0xbdae9324	-0.085241586
37	0x3dabdc52	0.08391632
38	0x3bbb8b52	0.0057233954
39	0x3d2f47c5	0.042793054
40	0xbcd8948d	-0.026438022
41	0x3ddc2096	0.10748403
42	0xbca22e3f	-0.019797442
43	0x3e0505cb	0.12990491
44	0x3cf190fd	0.029488081
45	0x39720a3d	0.00023082733
46	0x3cb2eff2	0.02184293
47	0x3c0d9b66	0.008643007
48	0xbdbc392c	-0.09190592
49	0xbc025823	-0.007955584
50	0xbd0fe540	-0.03513074
51	0x3db4fa79	0.08836836
52	0xbcad647c	-0.021166079
53	0xbcf36e63	-0.029715722
54	0x3da255da	0.07926531
55	0x3d463ef0	0.048399866
56	0x3d657e10	0.056028426
57	0x3e021953	0.12704973
58	0x3d96c057	0.07360905
59	0x3bcc11fa	0.006227729
60	0x3cc3c0b1	0.023895593
61	0x3dc3a57e	0.095530495
62	0x3de218a2	0.110398546
63	0xbc8c25d7	-0.017107887

fc_state.4.weight f4 [1, 64]
0	0xbe92ac72	-0.2864719
1	0xbe7ff4c3	-0.24995713
2	0x3e74c687	0.23903857
3	0x3d0adaae	0.033899955
4	0xbe93ab59	-0.28841665
5	0x3d30bb6c	0.04314749
6	0x3e8e0524	0.27738297
7	0x3d895ecd	0.06707535
8	0x3e661881	0.22470285
9	0x3e839c54	0.25705206
10	0xbe7fe060	-0.24987936
11	0x3e936193	0.2878538
12	0x3e89cd5b	0.26914486
13	0x3e9de7ac	0.30840814
14	0x3e5f5823	0.21810965
15	0x3db0f862	0.08641125
16	0x3cbbc083	0.022918945
17	0x3e648bbd	0.22318931
18	0xbe8ad088	-0.27112222
19	0x3e568d87	0.20952426
20	0x3e81fe7b	0.25389466
21	0xbe6807cf	-0.22659229
22	0x3e5f971d	0.21834989
23	0x3daa8baa	0.0832742
24	0xbe9ae4e9	-0.3025277
25	0xbeacdaa3	-0.33760557
26	0x3e7234fc	0.23653024
27	0x3e4c5446	0.19954023
28	0x3ea1d56b	0.31608137
29	0xbe864b9a	-0.26229554
30	0x3e355c02	0.1771088
31	0xbe7f1383	-0.24909787
32	0xbc0d2170	-0.008613929
33	0x3e8147df	0.25250146
34	0xbe59e2be	-0.21277902
35	0xbe65ef23	-0.22454505
36	0xbeaa4065	-0.33252254
37	0x3e55bb60	0.20872259
38	0x3f4a7f52	0.79100525
39	0x3e582f2c	0.21111745
40	0x3d83c708	0.064344466
41	0x3ea04b04	0.31307232
42	0xbe877713	-0.26458034
43	0x3e76037e	0.2402477
44	0xbe98e018	-0.2985847
45	0xbe9db7ff	-0.3080444
46	0xbeb727d6	-0.3577258
47	0xbe4b6285	-0.19861801
48	0xbe6984c8	-0.22804558
49	0xbea1ba30	-0.31587362
50	0xbe94ebdf	-0.29086205
51	0x3f176414	0.5913708
52	0x3f6a7696	0.915872
53	0x3df7b9c6	0.1209598
54	0x3e546a07	0.20743571
55	0x3e420dbb	0.1895055
56	0x3e843f7a	0.2582968
57	0x3e835300	0.2564926
58	0x3e84fee7	0.25975725
59	0x3a925bcd	0.0011166275
60	0xbe82822f	-0.25489947
61	0x3e3989bd	0.18118949
62	0x3e7c7763	0.24654917
63	0xbc844c5f	-0.016149698
